Comparative_Evaluation/Baselines/LSTM/models_u/model26.pt (torch, 499143 bytes, 10 tensors)

weight_ih_l0 f4 [512, 10]
0	0xbd06a678	-0.0328736
1	0x3d1ca3be	0.038242094
2	0x3d891bb7	0.06694739
3	0x3daad7c4	0.08341935
4	0x3d88d93c	0.06682059
5	0x3db67f20	0.08910966
6	0x3e30c896	0.17264017
7	0x3e0667c8	0.13125527
8	0x3e88d2b1	0.26723245
9	0x3e50ae28	0.20378935
10	0x3e277a1c	0.16355175
11	0x3da6d0a9	0.081452675
12	0x3bb0ded9	0.0053976593
13	0x39734170	0.00023198663
14	0x3c334524	0.010941777
15	0xbdcb1f55	-0.099180855
16	0xbe34c620	-0.17653704
17	0xbea6ee51	-0.32603696
18	0xbe8588fc	-0.26081073
19	0xbe9508a7	-0.29108164
20	0x3d704fa7	0.058669712
21	0xbd188bfe	-0.037242882
22	0x3d282995	0.04105528
23	0xbdb6ce6c	-0.089260906
24	0xbe21447c	-0.15748781
25	0xbe0134cb	-0.12617795
26	0xbdd0364c	-0.10166606
27	0xbdf6f50c	-0.12058458
28	0x3d036ce2	0.03208626
29	0xbdc19a34	-0.0945324
30	0x3d5aeabd	0.05344652
31	0x3d30ca83	0.04316188
32	0x3da5a175	0.08087436
33	0x3d423632	0.047414966
34	0x3afe54ed	0.0019403972
35	0x3e221a22	0.15830281
36	0x3da7fa51	0.08202041
37	0x3d7ead37	0.06217691
38	0x3e39cf28	0.1814543
39	0x3e994d60	0.29941845
40	0x3d769ac6	0.060206197
41	0xbc357e50	-0.0110774785
42	0x3c0d9d44	0.008643452
43	0x3d0477a2	0.032340653
44	0x3cd8b061	0.026451292
45	0x3d5b2544	0.053502336
46	0x3df0913c	0.11746451
47	0x3d090368	0.033450514
48	0x3d1e152f	0.03859442
49	0xbd9cf099	-0.07663078
50	0x3e08ad67	0.13347398
51	0x3e1f6d97	0.15569149
52	0xbd1a737f	-0.037707802
53	0xbdcc0a81	-0.09962941
54	0xbcc6d436	-0.024271112
55	0xbe2100ee	-0.15723011
56	0xbe1f701a	-0.15570107
57	0xbe92b1d7	-0.28651306
58	0xbe95b1b9	-0.29237154
59	0xbec3ee3e	-0.38267702
60	0x3d8bff0c	0.06835756
61	0xbd4c41c5	-0.04986741
62	0x3d724dab	0.0591561
63	0xbcf37c10	-0.029722244
64	0x3d5897aa	0.052879013
65	0x3debb70b	0.11509522
66	0x3d931190	0.07181084
67	0xbd4a0a02	-0.04932595
68	0x3d863def	0.06554782
69	0xbdeeb9bb	-0.11656519
70	0x3d3757bf	0.044761416
71	0x3cc1892b	0.023624977
72	0x3d96c2d8	0.07361382
73	0x3d62ed26	0.055401944
74	0xbd24b396	-0.04021033
75	0xbd9a66b9	-0.07539124
76	0xbb8bdb47	-0.0042680833
77	0xbdc5b67f	-0.09653949
78	0xbe122a87	-0.14274035
79	0xbe77c9b7	-0.24198042
80	0x3e21737d	0.15766712
81	0x3bc2eb10	0.005948432
82	0x3dbc5925	0.091966905
83	0x3b0de476	0.0021651066
84	0xbcb32d11	-0.021872075
85	0x3b3d16c0	0.0028852671
86	0x3d6d87ce	0.05799084
87	0xbe110cde	-0.14165065
88	0xbe206be9	-0.15666164
89	0xbde39bb4	-0.111136824
90	0x3e5df9e4	0.21677357
91	0x3dc75fb0	0.09735048
92	0x3d8f75be	0.070048794
93	0x3c81bb0a	0.015836257
94	0x3c6f8ea5	0.014621411
95	0xbd5d190d	-0.05397897
96	0xbdd1a2c6	-0.10236125
97	0xbdb2867a	-0.087170556
98	0xbe698de9	-0.2280804
99	0xbe6727cf	-0.2257378
100	0x3ce74d69	0.028235154
101	0x3d84bcd0	0.064813256
102	0xbc9fe571	-0.019518586
103	0x3d57873f	0.052619215
104	0x3bf56e43	0.007489951
105	0x3d039ada	0.0321301
106	0x3e4a7232	0.19770125
107	0x3e3aff88	0.1826154
108	0x3ea6d261	0.3258238
109	0x3e92c7c5	0.28668037
110	0x3d9ce71a	0.076612666
111	0xbd46f110	-0.04856974
112	0xbc30a47d	-0.010781405
113	0xbd02619e	-0.031831376
114	0xbd7b2205	-0.06131174
115	0xbde5d204	-0.11221698
116	0xbe318e72	-0.17339495
117	0xbe48f538	-0.19624794
118	0xbe73cc76	-0.23808464
119	0xbec50d40	-0.3848667
120	0x3d679f04	0.056548133
121	0x3d0c499f	0.034249898
122	0x3d282d30	0.04105872
123	0x3db0fce5	0.08641986
124	0x3e36d2e8	0.17853892
125	0x3e10ef04	0.14153677
126	0xbb0ad4f0	-0.002118405
127	0x3d3f27df	0.046668883
128	0x3d9b72b6	0.07590239
129	0xbd3cff22	-0.04614175
130	0x3dd9cae0	0.106343985
131	0x3c55e4eb	0.013055067
132	0x3d530813	0.051521372
133	0x3e045736	0.12923893
134	0x3d68515d	0.05671822
135	0xbc28776e	-0.0102823805
136	0xbd2728da	-0.040810443
137	0x3b3e2c72	0.002901819
138	0xbdb5d6be	-0.088788494
139	0xbe51cdfe	-0.20488736
140	0x3daeffa2	0.08544852
141	0x3d52ae6d	0.051435877
142	0x3d5c18a7	0.053734448
143	0x3dccb1a3	0.09994819
144	0x3d8c558e	0.06852256
145	0x3d078617	0.033086862
146	0xbca13127	-0.019676758
147	0xbd86c103	-0.06579783
148	0xbdcb231f	-0.09918808
149	0xbdf98467	-0.12183457
150	0xbc319ebf	-0.010841071
151	0xbd0a4ede	-0.03376662
152	0xbd24d768	-0.04024449
153	0x3d6ade0f	0.057340678
154	0x3dc1b6e7	0.09458714
155	0x3dfb154a	0.1225992
156	0xbd05bc2e	-0.032650165
157	0xbd13fa41	-0.036127333
158	0xbd0b91b4	-0.0340745
159	0x3de15fe0	0.11004615
160	0x3d8e56fb	0.06950184
161	0xbde25d3f	-0.110529415
162	0xbd318f82	-0.04334975
163	0xbddd43f3	-0.10803976
164	0xbdb2837a	-0.087164834
165	0xbe6dcc1a	-0.2322239
166	0xbe579281	-0.2105198
167	0xbe84cac1	-0.2593594
168	0xbea475cb	-0.3212112
169	0xbebfc459	-0.3745449
170	0xbd8b28cc	-0.06794891
171	0x3d968097	0.07348745
172	0x3c0bb6ee	0.008527501
173	0x3d5e0b97	0.05421027
174	0xbd6493c2	-0.055804975
175	0xbce682e6	-0.02813859
176	0x3d2f0f37	0.04273912
177	0x3d2bd35c	0.041949615
178	0x3c100767	0.008790827
179	0x3deda509	0.116037436
180	0x3c8c5681	0.017131092
181	0xbc9120c9	-0.017715828
182	0xbbe80e72	-0.0070818
183	0x3bec0b03	0.007203461
184	0x3d6f26fa	0.05838678
185	0x3d28e9aa	0.041238464
186	0x3deb9f45	0.115049876
187	0x3e26cc4a	0.16288868
188	0x3e8468b2	0.25861126
189	0x3e8dee69	0.27720955
190	0x3be2c707	0.0069206986
191	0xbd60e581	-0.054906372
192	0xbd9dff91	-0.07714761
193	0xbd9aefb7	-0.07565253
194	0x3d2cea34	0.04221554
195	0x3d9a05d4	0.07520643
196	0xbc900c20	-0.017583907
197	0xbb95b80e	-0.00456906
198	0xbcf42712	-0.029803786
199	0x3d261c2e	0.040554218
200	0x3de0895e	0.10963701
201	0x3cedffcc	0.029052638
202	0x3da709e2	0.08156182
203	0x3e0c6a05	0.13712318
204	0x3d1ca850	0.038246453
205	0xbbd41416	-0.006472121
206	0xbcb6ebe2	-0.022329275
207	0xbd23a6d3	-0.039954018
208	0xbd26b51b	-0.04070006
209	0xbdd22745	-0.10261396
210	0x3d645223	0.055742394
211	0xbba0c174	-0.004905874
212	0x3dca2377	0.09870046
213	0xbdbf7f93	-0.09350505
214	0x3cd55e63	0.026045984
215	0x3b955891	0.004557677
216	0xbdbe9403	-0.09305575
217	0xbde4c859	-0.11171026
218	0xbe50da85	-0.20395859
219	0xbe8777c4	-0.2645856
220	0x3ce6fcf4	0.02819679
221	0xbdb1cc7a	-0.08681579
222	0x3dc15388	0.094397604
223	0xbd71d3bf	-0.059039827
224	0x3d828ffe	0.063751206
225	0x3ceae908	0.028675571
226	0xbc5321fb	-0.01288652
227	0x3d8a787b	0.06761261
228	0x3e4d6982	0.2005978
229	0x3e859b40	0.2609501
230	0xbd9b7bab	-0.07591947
231	0xbd1dfd1f	-0.038571473
232	0x3cc7f106	0.024406921
233	0x3db6e205	0.089298286
234	0x3c9abab8	0.018887863
235	0xbc950ea9	-0.018195467
236	0xbcd9e936	-0.026600461
237	0x3d7154f4	0.05891891
238	0x3c8f1532	0.017466161
239	0x3dd5aaaa	0.10432942
240	0xbc9f25bf	-0.019427178
241	0xbd3c9942	-0.046044596
242	0x3d54af05	0.051924724
243	0x3d1a08ce	0.037606053
244	0x3da835f4	0.08213416
245	0xbcefdab8	-0.029279098
246	0x3e120189	0.14258398
247	0x3e47e194	0.19519645
248	0x3e46f782	0.19430354
249	0x3e029766	0.12753066
250	0x3e036138	0.12830055
251	0xbbb49fa6	-0.0055121956
252	0x3e22301a	0.15838662
253	0x3d923ce7	0.071405225
254	0x3dbab908	0.09117323
255	0x3e34cb5e	0.17655703

weight_hh_l0 f4 [512, 128]
0	0x39344dc9	0.00017195115
1	0x3a01c42b	0.0004950191
2	0xba049456	-0.0005057504
3	0xb9127f46	-0.00013971058
4	0xb9958cdc	-0.00028524443
5	0x3920364e	0.00015279019
6	0x3923d0f2	0.0001562273
7	0xb840dffc	-4.598497e-05
8	0xb9aaa01b	-0.00032544215
9	0x383b2d26	4.4626322e-05
10	0x388c4784	6.689041e-05
11	0x3972be7d	0.00023149881
12	0x39ae1e8c	0.00033210625
13	0x39e6613d	0.00043941467
14	0x3921703a	0.00015395964
15	0x397bf706	0.00024029249
16	0x39f7323c	0.0004714894
17	0x394493c4	0.00018747064
18	0x3a196673	0.0005851753
19	0x38e54388	0.000109321496
20	0x39a53588	0.00031511136
21	0xb77a7528	-1.4928439e-05
22	0x390bf71e	0.00013348131
23	0x38edde43	0.0001134244
24	0x38fac82a	0.000119582124
25	0xba128d13	-0.00055904797
26	0xb8a8c792	-8.048037e-05
27	0x37aa8282	2.0326352e-05
28	0xb8a2ec4b	-7.768775e-05
29	0xb5479a75	-7.435804e-07
30	0xb8b5b06d	-8.6636144e-05
31	0xb912d8a8	-0.00014004356
32	0x390a0793	0.00013163527
33	0x38b414cb	8.586942e-05
34	0x39009f0d	0.00012266282
35	0x388fc97d	6.8563015e-05
36	0xb957e7d7	-0.00020590365
37	0x3569c270	8.708221e-07
38	0xb9df518d	-0.00042594635
39	0xb72b3b7b	-1.0206243e-05
40	0x39210ff6	0.00015360102
41	0xb980f973	-0.00024599917
42	0xb9b9b685	-0.00035421937
43	0x395c80fd	0.00021028887
44	0xb7250de8	-9.838004e-06
45	0x39cb8d7c	0.0003882459
46	0x39df58ff	0.00042600182
47	0xb89d37bf	-7.496727e-05
48	0xb74a7362	-1.2067003e-05
49	0xba0ee4ee	-0.00054509833
50	0x3820bcea	3.8322913e-05
51	0xb9d80add	-0.00041206824
52	0xb88b7838	-6.650429e-05
53	0x395be92a	0.00020972328
54	0xb9065be5	-0.00012813469
55	0x365e5dc6	3.3135161e-06
56	0xb8364182	-4.345319e-05
57	0x394aebd7	0.00019352078
58	0xb78ebf0c	-1.7016682e-05
59	0xb9dfb933	-0.0004267186
60	0xb9850af9	-0.00025375912
61	0x38027b0e	3.110902e-05
62	0xb9e05388	-0.00042786845
63	0x36978be1	4.5164347e-06
64	0xb825a48e	-3.949232e-05
65	0xb9a1465c	-0.00030760735
66	0xb8df0e46	-0.00010636127
67	0x37b2288e	2.1238138e-05
68	0xba00f61b	-0.0004919485
69	0xb9511ce0	-0.0001994255
70	0xb8f461ee	-0.000116530675
71	0xb8b9d71c	-8.861555e-05
72	0x36208eb0	2.3924913e-06
73	0x38e5557b	0.00010935493
74	0xb96fdd10	-0.00022875168
75	0xb61198d0	-2.1695632e-06
76	0x3872c198	5.7877594e-05
77	0xb92525a1	-0.00015749644
78	0xb8e524e8	-0.00010926445
79	0x38ef2127	0.00011402583
80	0x384ea552	4.9268194e-05
81	0x39db4fb0	0.00041830307
82	0xb94a3607	-0.00019284348
83	0xb89f1ca0	-7.587043e-05
84	0xb7bb610f	-2.2337334e-05
85	0xb98756ca	-0.0002581387
86	0xb99ff731	-0.00030511015
87	0xb927435a	-0.00015951451
88	0xb847faf4	-4.7679016e-05
89	0x39a4e0a5	0.0003144789
90	0xb9b0c5c4	-0.00033716683
91	0x398b37fe	0.00026553863
92	0x3901d695	0.00012382337
93	0xb75f5a07	-1.3312797e-05
94	0xb671de7e	-3.6041306e-06
95	0x38fe8bad	0.000121376805
96	0x3a01e08b	0.0004954419
97	0x39ed00dd	0.00045204806
98	0x3970e05d	0.00022971765
99	0xb888295e	-6.4926906e-05
100	0x39fc0f50	0.00048076594
101	0xb96793ae	-0.00022084892
102	0xb68b32a0	-4.1484163e-06
103	0xb8659a35	-5.474147e-05
104	0xb80efab0	-3.408891e-05
105	0xb940b570	-0.00018378138
106	0xb7e47228	-2.7232876e-05
107	0xb8375fa3	-4.371967e-05
108	0xb801674d	-3.0852203e-05
109	0xb850ae8c	-4.9753624e-05
110	0xb7f675f4	-2.9380411e-05
111	0x397cefee	0.00024121974
112	0x372d1256	1.0315873e-05
113	0x3905a720	0.00012746127
114	0x38b2adc6	8.520069e-05
115	0xb938d5e6	-0.00017627291
116	0xba04b7af	-0.00050627714
117	0x37bfe6f6	2.2876524e-05
118	0x395019e3	0.0001984607
119	0x38d2b07e	0.000100464546
120	0x38a9f027	8.10328e-05
121	0xb892c652	-6.9987625e-05
122	0x39ff30b3	0.00048673674
123	0x390c956a	0.00013407102
124	0x38077738	3.229754e-05
125	0xba03d973	-0.0005029656
126	0x36c1b92c	5.773405e-06
127	0xb8149fd4	-3.54348e-05
128	0xb9414c75	-0.00018434397
129	0xb91834c8	-0.00014515512
130	0xb908f010	-0.00013059401
131	0x390a90ca	0.00013214644
132	0xb97f4409	-0.0002434404
133	0x3893f0b5	7.0543414e-05
134	0x37cbce40	2.4295528e-05
135	0xb8eedff5	-0.000113904396
136	0xb9eee7ce	-0.00045567605
137	0x3973705a	0.0002321614
138	0x3981d4ee	0.00024763442
139	0x394887d2	0.00019124083
140	0x3a18f62c	0.00058350223
141	0xb927c0d0	-0.0001599819
142	0xb9f72a31	-0.00047142946
143	0x389fb6a2	7.615729e-05
144	0xb9f68deb	-0.00047026513
145	0x39e51ebb	0.0004370118
146	0x3a00c332	0.0004911899
147	0xb62d0184	-2.577989e-06
148	0xb8fa2db3	-0.00011929441
149	0xb974e4c8	-0.00023354881
150	0xb92dbd30	-0.00016569044
151	0xb9b9fda8	-0.00035474938
152	0x392ac0df	0.00016284313
153	0x398eb01a	0.00027215556
154	0xb9b90fff	-0.00035297868
155	0xb74d0de4	-1.2222186e-05
156	0xb9f8a346	-0.00047423894
157	0xb98d3368	-0.00026931916
158	0x39a3d32a	0.00031247112
159	0xb99dcdb8	-0.00030098646
160	0xb925565e	-0.000157678
161	0xb8ad236f	-8.255883e-05
162	0x38e52027	0.0001092556
163	0xb942b000	-0.00018566847
164	0x39ba274a	0.00035505957
165	0xb589dc80	-1.0271469e-06
166	0xb8b57d76	-8.6541215e-05
167	0x3950bbd4	0.00019906397
168	0x39b159a3	0.00033826855
169	0x382fedda	4.1944768e-05
170	0x399cc510	0.00029901462
171	0x3877d9e4	5.9092315e-05
172	0xb9920810	-0.00027853297
173	0x399ba903	0.00029689827
174	0xb90afda4	-0.00013255194
175	0x3967fa1f	0.00022123054
176	0xb8eaec51	-0.00011202007
177	0xb78f6763	-1.7095072e-05
178	0x3819aaf4	3.6637255e-05
179	0x39e516c5	0.00043695248
180	0x3843dc9d	4.6697085e-05
181	0xb8a830b6	-8.0199374e-05
182	0x38dbbf9c	0.00010478424
183	0x39ba2298	0.0003550246
184	0x3819ae40	3.6640326e-05
185	0x37b263c8	2.1265718e-05
186	0xb7423430	-1.1575452e-05
187	0xb7ca8f44	-2.414699e-05
188	0x38dcd199	0.00010529458
189	0xb76d6644	-1.4150111e-05
190	0x390d3439	0.00013466262
191	0xb981653d	-0.00024680226
192	0x39937204	0.00028122973
193	0xb82017a0	-3.8168975e-05
194	0xb946695b	-0.00018922
195	0x39496676	0.00019207023
196	0xb7fa1dfe	-2.9816289e-05
197	0xba04dc4b	-0.00050682266
198	0xb9d2ff41	-0.000402445
199	0xb85b420a	-5.2275172e-05
200	0x39957e9c	0.00028513826
201	0x3975157c	0.00023373024
202	0x39384007	0.0001757146
203	0xb84d306a	-4.8920898e-05
204	0x38a10629	7.678226e-05
205	0xb9ce4ab1	-0.0003934703
206	0xb9069c04	-0.00012837356
207	0xb782323b	-1.5520598e-05
208	0x36736568	3.6268848e-06
209	0x38c4b2f2	9.3793395e-05
210	0xb9f8a49e	-0.00047424895
211	0x38fb27d7	0.000119760334
212	0x38aafbdf	8.153146e-05
213	0x37936d2f	1.7574608e-05
214	0x3726c963	9.94126e-06
215	0xb7df98e6	-2.665487e-05
216	0x38a7f7dc	8.009348e-05
217	0xb8cc22ae	-9.7339376e-05
218	0x3918cf8c	0.00014573167
219	0xb7a4157a	-1.9560324e-05
220	0x39463e10	0.00018905872
221	0xb95b5bda	-0.00020919685
222	0x37d73702	2.5655612e-05
223	0xb9af2bb8	-0.00033411174
224	0x39b72ab3	0.00034936293
225	0xb97f742c	-0.00024361972
226	0xb99877cf	-0.00029080964
227	0x3a0a36fd	0.0005272476
228	0x39861086	0.00025570783
229	0x3840bcb0	4.5952096e-05
230	0x39cd982e	0.0003921403
231	0x39e2d7f3	0.00043266974
232	0xb96689c0	-0.00021985825
233	0x3979fcff	0.00023840739
234	0x3909c696	0.00013139317
235	0x39a99d3b	0.00032351338
236	0xb8e918c8	-0.00011114922
237	0x39e7e048	0.00044226856
238	0xb8a22230	-7.73113e-05
239	0xb655b68f	-3.1845736e-06
240	0x3a02162f	0.0004962412
241	0xb7e4fe20	-2.7298054e-05
242	0x381eeb4e	3.788928e-05
243	0x39b934a6	0.00035325176
244	0xb8511856	-4.9852148e-05
245	0xb9b91fe7	-0.0003530972
246	0xb9ce2009	-0.0003931525
247	0x38649e07	5.450661e-05
248	0xb99123dd	-0.00027683275
249	0x38005feb	3.060691e-05
250	0x383e225b	4.5331526e-05
251	0x39e3bcd2	0.00043437496
252	0x3909f223	0.00013155541
253	0xb853b715	-5.047683e-05
254	0x39c5cef4	0.0003772896
255	0xb7a7869a	-1.997063e-05

bias_ih_l0 f4 [512]
0	0xbda08df2	-0.07839574
1	0xbca30b2c	-0.019902788
2	0x3da393f6	0.07987206
3	0xbd8796f1	-0.06620587
4	0xbdb61f72	-0.088927165
5	0xbdb54ae7	-0.08852177
6	0xbdd66bbd	-0.10469768
7	0xbd9d860a	-0.076915815
8	0xbc94e360	-0.018174827
9	0xbc9d69d5	-0.019215504
10	0x3d836cfb	0.06417271
11	0xba4df590	-0.0007856721
12	0xbe21938d	-0.15778942
13	0xbc3b8e37	-0.011447481
14	0xbe0080f5	-0.12549193
15	0x3d007ac2	0.03136707
16	0x3db0bcf9	0.08629794
17	0x3cccefca	0.025016684
18	0xbcc68beb	-0.02423664
19	0x3d8df9ba	0.06932397
20	0xbdb4e021	-0.08831812
21	0x3d1a6f4e	0.037703805
22	0x3d5b6680	0.05356455
23	0x3cee2088	0.029068246
24	0x3d7dddd8	0.061979145
25	0x3c5560ed	0.013023597
26	0x3daa9262	0.083287016
27	0xbd8d00b6	-0.06884901
28	0xbdaa4c09	-0.08315284
29	0xbd488526	-0.048955105
30	0xbcde0630	-0.02710256
31	0x3d69bc9d	0.05706464
32	0xbd6f350b	-0.058400195
33	0x3d919ae8	0.07109624
34	0x3d29e7f5	0.041480977
35	0xbcd1221c	-0.02552896
36	0x3b91a4b1	0.0044446816
37	0xbd6822b1	-0.05667371
38	0xbd9ec6df	-0.077527754
39	0xbd98aaca	-0.074544504
40	0xbcc94488	-0.024568811
41	0x3d2fecdf	0.042950507
42	0xbdd7ec2d	-0.10543094
43	0xbd206abf	-0.0391643
44	0xbd3b623c	-0.04574798
45	0x3d4f41bc	0.0505998
46	0xbcf8fb78	-0.030393347
47	0x3d78c017	0.060730066
48	0xbc3146fd	-0.010820148
49	0x3994cf5e	0.0002838326
50	0xbdd99728	-0.10624534
51	0xbd9ab42a	-0.07553895
52	0xbd314871	-0.043281976
53	0xbcd6c5cf	-0.02621737
54	0x3d3a5418	0.045490354
55	0xbc5eaa82	-0.013590457
56	0x3d432d11	0.0476504
57	0x3ceac1d2	0.028656874
58	0xbd32e237	-0.043672767
59	0xbd9b11d9	-0.075717635
60	0x3d1ea9ee	0.038736276
61	0x3c2cd662	0.01054916
62	0x3c4df520	0.012570649
63	0x3dd081b5	0.1018099
64	0xbd34ac19	-0.044109438
65	0x3d425900	0.04744816
66	0x3d91de08	0.07122427
67	0xbd235509	-0.039876018
68	0xbda38947	-0.07985168
69	0x3cb2c7cf	0.021823792
70	0xbda0ddec	-0.07854828
71	0xbd54ed02	-0.05198384
72	0x3c9519b5	0.018200735
73	0x3d22ba41	0.039728407
74	0x3d6e84ff	0.058232304
75	0x3d919001	0.07107545
76	0xbd0818fb	-0.03322695
77	0x3d747726	0.05968394
78	0xbd975a7c	-0.073903054
79	0xbd597c9d	-0.053097356
80	0x3d8f6a2c	0.070026726
81	0xbcddb343	-0.027063018
82	0x3cc38579	0.023867356
83	0xbdf65523	-0.12027957
84	0xbce48042	-0.02789319
85	0xbdddd8a7	-0.10832339
86	0xbcd44ada	-0.025914598
87	0xbd2cf9d7	-0.042230453
88	0xbdb1333f	-0.086523525
89	0xbd8a230a	-0.067449644
90	0xbd4adc94	-0.049526766
91	0xbd926057	-0.071472816
92	0xbdbd4bd1	-0.092429765
93	0x3cfe53f4	0.031045891
94	0x3de3606a	0.11102374
95	0x3ca64413	0.020296132
96	0xbc95a0b2	-0.018265102
97	0x3dd2b8a0	0.10289121
98	0x3cf3597c	0.029705755
99	0x3d5729c9	0.052530084
100	0xbd99175d	-0.07475159
101	0x3b06f8dc	0.002059511
102	0xbd67a5e4	-0.05655469
103	0xba473211	-0.0007598708
104	0x3d25e7ef	0.040504392
105	0x3dc45be9	0.09587843
106	0x3db32daa	0.08748944
107	0xbd3e4e82	-0.04646159
108	0xbd813293	-0.063084744
109	0xbe0b444e	-0.13600275
110	0x3abe9c29	0.0014542389
111	0xbd434ebf	-0.04768252
112	0xbdaeacd2	-0.085290566
113	0xbe0fe9e4	-0.14054066
114	0xbcece8f7	-0.02891968
115	0xbdc64d03	-0.096826576
116	0xbdb9f6f8	-0.09080309
117	0xbc94ea6d	-0.01817819
118	0xbd098003	-0.033569347
119	0x3e05839d	0.13038488
120	0xbbe25d88	-0.0069081225
121	0xbd1d221a	-0.0383626
122	0x3d40170f	0.04689699
123	0xbd5312be	-0.051531546
124	0xbd8c458f	-0.06849205
125	0xbdc82ae7	-0.09773808
126	0xbdb75f99	-0.08953781
127	0xbd24397e	-0.04009389
128	0xb5522980	-7.8291487e-07
129	0xb86aca26	-5.5978213e-05
130	0x37177a3a	9.028759e-06
131	0x397c15e8	0.00024040753
132	0x39090e9c	0.0001307078
133	0xb9a92153	-0.0003225902
134	0xb9396da9	-0.00017683826
135	0x39b2d2ac	0.00034107768
136	0x39d61f52	0.00040840596
137	0xb8cd446c	-9.787906e-05
138	0x39ba1e30	0.00035499176
139	0xb9ae349b	-0.0003322706
140	0x36958f70	4.4572444e-06
141	0xb8e0f838	-0.00010727387
142	0x3973617f	0.00023210606
143	0x38fe6fd3	0.00012132493
144	0x3997cbf9	0.00028952936
145	0x39a75022	0.00031912426
146	0xb8daa51d	-0.00010425805
147	0x3929f20b	0.00016207264
148	0xb8c91cac	-9.5897674e-05
149	0xb8b15880	-8.456502e-05
150	0xb973447e	-0.00023199801
151	0xb9b24633	-0.00034003108
152	0xb7117df3	-8.671998e-06
153	0xb9d5b08e	-0.0004075807
154	0x398f1e3e	0.00027297618
155	0xba01435d	-0.00049309974
156	0x39fd9bdf	0.00048372053
157	0xb8f0a32f	-0.00011474487
158	0x3845022b	4.697048e-05
159	0x3a04c817	0.0005065216
160	0x3a049407	0.0005057458
161	0xb8519d34	-4.997589e-05
162	0x39b95c03	0.00035354504
163	0xb84161f5	-4.6106015e-05
164	0xb97835d9	-0.00023671183
165	0xb993145d	-0.00028053197
166	0x3949d51e	0.00019248246
167	0xb9b4678f	-0.00034409433
168	0x3a003263	0.00048903207
169	0xb885b898	-6.3763175e-05
170	0xb9c1ecb8	-0.00036988198
171	0xb92cce5c	-0.00016480073
172	0xb8815e45	-6.1687584e-05
173	0xb9891cac	-0.00026152038
174	0xb90b88ee	-0.00013307083
175	0xb77c0581	-1.5021652e-05
176	0x39f0e8aa	0.00045949715
177	0xb9878d90	-0.0002585468
178	0xb9479f42	-0.00019037447
179	0x38ba02c2	8.869685e-05
180	0x3386b980	6.2736035e-08
181	0xb8105aec	-3.4416953e-05
182	0xb938b504	-0.00017615041
183	0x382f56a7	4.1803953e-05
184	0xb79c0874	-1.8600585e-05
185	0xb93ee0f2	-0.0001820361
186	0x380630ae	3.1993426e-05
187	0xb868641e	-5.540635e-05
188	0x39442933	0.00018707365
189	0xb9bc2935	-0.00035888856
190	0x3a024487	0.0004969318
191	0xb99b1b7e	-0.00029584387
192	0x3983dc56	0.0002515043
193	0x3964ecce	0.00021831991
194	0x392c40cd	0.00016427338
195	0x39151bbc	0.00014220079
196	0x3935ffec	0.00017356843
197	0x39546876	0.0002025681
198	0xb9b17961	-0.00033850505
199	0xb81b1eab	-3.698344e-05
200	0xb97c7db7	-0.00024079425
201	0x399a7192	0.00029457785
202	0xb8ab2966	-8.1616265e-05
203	0xb83c9f3c	-4.497099e-05
204	0xb8eb7871	-0.00011228107
205	0xb8d8cac0	-0.00010337448
206	0x384edd37	4.932025e-05
207	0x39e46cd5	0.00043568635
208	0xb829b6b3	-4.046289e-05
209	0x38f13117	0.00011500919
210	0xb9b9edc1	-0.0003546309
211	0x399809c3	0.00028998972
212	0x39a264be	0.00030974107
213	0x39ac1fc6	0.0003283007
214	0x37aa436c	2.0296975e-05
215	0x37c7e85a	2.3830846e-05
216	0xb99d9277	-0.00030054498
217	0xb9ff6ef4	-0.00048720057
218	0x3815583c	3.5606543e-05
219	0xb68125b8	-3.8488906e-06
220	0xb8015c3b	-3.0841893e-05
221	0x3994998b	0.00028343158
222	0xb8a4b4c2	-7.853798e-05
223	0x39a503de	0.00031474134
224	0xb961c8a2	-0.00021532414
225	0x386dc3ca	5.6687546e-05
226	0xb9b2097c	-0.00033957872
227	0xb882c714	-6.235964e-05
228	0xb9a011f9	-0.0003053097
229	0x3864216a	5.4390555e-05
230	0xb66d8004	-3.5390267e-06
231	0x3a03e74a	0.0005031718
232	0x399bd496	0.00029722293
233	0x39b72b5f	0.00034936794
234	0x3917ed6d	0.0001448893
235	0x3986ce59	0.00025712213
236	0xb9a2b27b	-0.00031032026
237	0x39181d85	0.00014506846
238	0xb998c1fc	-0.0002913623
239	0xb9f3807b	-0.00046444297
240	0xb931973f	-0.00016936379
241	0xb9b7cc81	-0.00035056847
242	0x397857aa	0.0002368378
243	0xb9ba2f5c	-0.0003551197
244	0x3822cd58	3.881505e-05
245	0xb8dd8a19	-0.00010563824
246	0xb7ba1aae	-2.2185352e-05
247	0x38ecc31c	0.00011289699
248	0xb9de11c4	-0.00042356376
249	0x39badc30	0.00035640737
250	0xb87ae91c	-5.9821745e-05
251	0xba030d10	-0.00049992
252	0x3942d863	0.00018581892
253	0xb7c5035c	-2.3485794e-05
254	0x388b40a0	6.640074e-05
255	0x37c51ca6	2.349757e-05

bias_hh_l0 f4 [512]
0	0xbd9ee747	-0.077589564
1	0x3c639469	0.013890364
2	0x3d429d10	0.047513068
3	0xbd58ac61	-0.05289877
4	0xbcc492d5	-0.023995796
5	0xbd532811	-0.051551882
6	0xbc458245	-0.012054984
7	0x3c94e435	0.018175224
8	0xbc866721	-0.016406598
9	0xbdf37bda	-0.11888857
10	0x3d960c0a	0.07326515
11	0x3d7f628a	0.062349834
12	0xbcbac57b	-0.022799244
13	0xbe13bcbb	-0.14427464
14	0xbdfe8c65	-0.12429122
15	0xbd3c310a	-0.045945205
16	0x3d3e3422	0.046436436
17	0x3d98c4b9	0.07459397
18	0x3b310d55	0.0027016003
19	0x3d08d13c	0.033402666
20	0xbdb8fe1d	-0.09032843
21	0xbd4d03d5	-0.050052483
22	0xbd2ba2eb	-0.041903418
23	0xbd130587	-0.035893943
24	0xbd5de8b8	-0.054177016
25	0xbde84d0c	-0.113428205
26	0x3bd62cb1	0.0065360893
27	0x3c177c57	0.0092459535
28	0x3cc7a190	0.024369031
29	0x3d2b0e30	0.041761577
30	0x3c8f3c1f	0.017484723
31	0x3c5020d6	0.012703141
32	0xbdada093	-0.08477893
33	0x3dc1b176	0.09457676
34	0xbda6cf59	-0.08145017
35	0xbd6e8ece	-0.058241658
36	0xbe08233c	-0.13294691
37	0x3cdd4ec4	0.027015097
38	0xbb7d09ca	-0.003861057
39	0xbdb3a1af	-0.08771073
40	0x3d872497	0.06598776
41	0x3cdf3cba	0.027250636
42	0xbd6934a3	-0.056934964
43	0xbbd208f8	-0.0064097606
44	0xbe20cb70	-0.15702605
45	0x3bdafb73	0.006682807
46	0x3d2b57f0	0.04183191
47	0xbd8aa519	-0.06769771
48	0xbdebdd21	-0.11516786
49	0xbdbb7d63	-0.09154775
50	0xbda75321	-0.081701525
51	0xbdb6114f	-0.0889002
52	0xbc600297	-0.0136724925
53	0xbd8b4c9c	-0.068017215
54	0xbcfc1f16	-0.030776542
55	0xbd8ccd55	-0.068751015
56	0xbd034032	-0.032043643
57	0x3d0cd238	0.034380168
58	0xbda29aef	-0.079397075
59	0xbe084167	-0.13306199
60	0x3daf0068	0.08544999
61	0x3d2363c9	0.039890084
62	0x3cf4d9cd	0.029889012
63	0xbcebdfa0	-0.028793156
64	0x3d64df31	0.055876914
65	0xbdb16b86	-0.086630866
66	0xbcd132ec	-0.025536977
67	0xbba5d5ab	-0.0050608716
68	0xbd936cf4	-0.071985155
69	0x3c337f60	0.010955662
70	0xbd83da9a	-0.06438179
71	0x3c7f6bda	0.015589679
72	0xbd8f92f8	-0.07010454
73	0xbd5d7dbb	-0.054074984
74	0xbd5e81c7	-0.054322984
75	0x3dd7802f	0.10522496
76	0xbda587ba	-0.080825284
77	0xbdc7b2a9	-0.097508736
78	0xbdcbd5ec	-0.09952912
79	0xbcabaec0	-0.02095735
80	0xbd70fb8e	-0.05883365
81	0xbd209872	-0.039207883
82	0xbdff85ae	-0.12476669
83	0xbd0580ef	-0.032593664
84	0xbd9d0db5	-0.0766863
85	0x3d107db9	0.03527615
86	0xbd6b34c3	-0.057423364
87	0x3c64b23d	0.013958511
88	0xbced15e7	-0.028941108
89	0x3c19e781	0.009393574
90	0xbdafa912	-0.085771695
91	0xbd95905f	-0.07302927
92	0x3cd8344c	0.026392125
93	0x3e05d97f	0.1307125
94	0x3d26a815	0.04068764
95	0xb9fe0c86	-0.00048455986
96	0xbbac4562	-0.0052572945
97	0x3e0aafd0	0.1354363
98	0xbd710441	-0.058841947
99	0x3d6f8377	0.058474984
100	0x3cc6b2a2	0.0242551
101	0xbca26dce	-0.01982775
102	0xbde3b505	-0.11118511
103	0xbdce60cd	-0.10077057
104	0x3d1f6064	0.038910285
105	0x3da113ce	0.078651056
106	0xbd0936d5	-0.033499558
107	0xbdb34ec5	-0.087552585
108	0xbced78b1	-0.028988214
109	0xbd71d3c4	-0.059039846
110	0x3d3f7d07	0.046750095
111	0xbd929fb6	-0.07159369
112	0xba79659d	-0.0009513738
113	0x3ca16352	0.01970068
114	0xbdcbbf5d	-0.09948609
115	0x3d125ef4	0.035735086
116	0xbdbe02d7	-0.092778854
117	0xbd35da9d	-0.04439794
118	0xbd20210b	-0.039094012
119	0x3e269f5e	0.16271731
120	0xbb187fb6	-0.002326948
121	0x3d49921e	0.049211614
122	0xbc8c29ff	-0.017109869
123	0xbbc838ad	-0.006110272
124	0xbd3479c4	-0.044061437
125	0xbdb4b63e	-0.088238224
126	0xbd4c9e75	-0.049955804
127	0xbc6e9368	-0.014561512
128	0x37062010	7.9944875e-06
129	0x39474676	0.00019004368
130	0xb9733e02	-0.00023197386
131	0x38a5323e	7.8771714e-05
132	0xb9d5ddfd	-0.0004079192
133	0x394a66aa	0.00019302467
134	0x3858c952	5.1685907e-05
135	0x389e251c	7.540939e-05
136	0xb9e48a1d	-0.0004359045
137	0x35b123e0	1.3197969e-06
138	0xba02c164	-0.0004987924
139	0xb8859c0b	-6.3709995e-05
140	0xb7baf690	-2.2287742e-05
141	0x36af32d6	5.2213245e-06
142	0x38608448	5.352896e-05
143	0x39f5e68e	0.00046901818
144	0x3945fc19	0.00018881298
145	0xb78a00bc	-1.6451224e-05
146	0x37b3b867	2.1424332e-05
147	0xb7bb9582	-2.2361757e-05
148	0xb6acc240	-5.148613e-06
149	0xb8b11ae5	-8.445027e-05
150	0x38ef0660	0.000113975955
151	0x38cdd20d	9.814287e-05
152	0x3984096c	0.00025184022
153	0x395d6a4d	0.00021115803
154	0x388c7197	6.696878e-05
155	0x38522902	5.0106093e-05
156	0xb96ce727	-0.00022592825
157	0x37b81a08	2.1946631e-05
158	0x39b47fda	0.00034427532
159	0xb9a46702	-0.00031357264
160	0x38d38470	0.000100859324
161	0xb915d750	-0.00014289957
162	0xb9654060	-0.00021863123
163	0xb915fffb	-0.00014305107
164	0xb5fb0f20	-1.8705359e-06
165	0x3990ea0a	0.00027640193
166	0x37e669b0	2.7467351e-05
167	0xba0f9ebc	-0.00054786704
168	0xb9132989	-0.00014034486
169	0xb99a2524	-0.0002940084
170	0xb6d5bbbe	-6.3697507e-06
171	0x36fa88d2	7.4665086e-06
172	0xb9ecc1b8	-0.0004515776
173	0xb942564a	-0.00018533427
174	0xb7bffe58	-2.2887412e-05
175	0x38523b30	5.0123024e-05
176	0xb8fc0eb6	-0.000120190365
177	0x39f3cca4	0.0004650104
178	0xb96dacf8	-0.00022666517
179	0x3a0502be	0.0005073956
180	0xb89af178	-7.388269e-05
181	0x38eb66c6	0.00011224816
182	0x39e2b3ae	0.0004323995
183	0xb9ae5e6e	-0.00033258222
184	0x3a01b41c	0.0004947798
185	0x3986a65b	0.00025682416
186	0xb993e13e	-0.00028205843
187	0x39e3ac2e	0.00043425098
188	0x39c2529c	0.00037064112
189	0x3737b9bc	1.0950895e-05
190	0x39f2590a	0.00046224176
191	0x3695cb9a	4.4642484e-06
192	0x3853bdca	5.0483075e-05
193	0x3899e078	7.337419e-05
194	0x39dc9649	0.0004207364
195	0x3934fca4	0.00017260254
196	0x358b7380	1.0389922e-06
197	0xba036d6a	-0.00050135574
198	0x3869a5ab	5.570582e-05
199	0x39481a34	0.00019083248
200	0x37576669	1.2838843e-05
201	0x37bb189a	2.2303593e-05
202	0x3a0be360	0.0005336311
203	0x392478a9	0.00015685208
204	0x37909166	1.7233844e-05
205	0x39a99c85	0.00032350808
206	0x38a15146	7.6922166e-05
207	0xb8fc5f89	-0.00012034091
208	0xb7bf185c	-2.2780318e-05
209	0xb99a383d	-0.0002941507
210	0xb8709731	-5.7361267e-05
211	0xb7b814fa	-2.1944277e-05
212	0x37992162	1.8254566e-05
213	0x36cb89c8	6.0659113e-06
214	0xb9cfb211	-0.00039614787
215	0x38a9902a	8.0854006e-05
216	0x3a04e347	0.00050692674
217	0x357dc0d2	9.4530435e-07
218	0x3825c32c	3.9520834e-05
219	0xb9830243	-0.00024987952
220	0xb9172a0b	-0.00014416144
221	0x39126007	0.00013959418
222	0x393418a4	0.00017175317
223	0xb98764b3	-0.00025824233
224	0xb91a4f9b	-0.0001471624
225	0xb7adc164	-2.0713262e-05
226	0x39e4b400	0.0004362166
227	0xb872026a	-5.7699544e-05
228	0x3892d2f2	7.001114e-05
229	0x38f051b2	0.00011459309
230	0xb9e1eceb	-0.00043091862
231	0x390d2e85	0.00013464138
232	0x37ed5b23	2.829504e-05
233	0xb9b5b110	-0.00034654932
234	0x390b03e0	0.00013257517
235	0x3922c121	0.0001552147
236	0x3936141c	0.00017364364
237	0x39b049e1	0.0003362438
238	0x380f17d4	3.411605e-05
239	0xba02e67a	-0.000499345
240	0x3922bc24	0.00015519612
241	0xb9ddc208	-0.0004229697
242	0x39f7ca3e	0.00047262193
243	0x36beac10	5.682472e-06
244	0x39258c07	0.0001578779
245	0xb985fb16	-0.0002555481
246	0xb9473ab9	-0.00018999995
247	0xba014b33	-0.0004932165
248	0xb8390338	-4.4110435e-05
249	0xb9be7134	-0.00036323967
250	0xb5b30620	-1.3338322e-06
251	0x390ba13d	0.00013316139
252	0xb68cf4e0	-4.2008323e-06
253	0xb89a87fa	-7.36862e-05
254	0x38821b3b	6.203955e-05
255	0x39eff408	0.0004576745

weight_ih_l0 f4 [256, 128]
0	0xbe24fac1	-0.1611128
1	0xbd2b23f8	-0.04178235
2	0xbe35f8cd	-0.17770691
3	0x3e535bc6	0.20640478
4	0x3e430112	0.19043377
5	0xbaf54fdc	-0.0018715817
6	0xbd7587bb	-0.059943896
7	0x3e374377	0.1789683
8	0xbd2ba54e	-0.041905694
9	0x3c227ce2	0.00991747
10	0x3e0ebf20	0.13940096
11	0xbe0b62fc	-0.13611978
12	0x3dd04899	0.10170097
13	0xbe2ea768	-0.17056048
14	0xbe1c7fc3	-0.15283112
15	0xbce4add4	-0.027914919
16	0x3e10fa8b	0.14158075
17	0xbb5e3c2c	-0.0033910377
18	0x3e0ea803	0.13931279
19	0xbb9a99b4	-0.00471803
20	0xbd0e96eb	-0.034811895
21	0x3d15cf20	0.036574483
22	0xbda7abb0	-0.08187044
23	0xbdcf562d	-0.101238586
24	0xbbee217e	-0.007267176
25	0x3d2184f4	0.039433435
26	0xbcdd213b	-0.026993385
27	0xbdb37472	-0.087624446
28	0x3c3c3282	0.011486651
29	0xbdf976ec	-0.12180886
30	0x3a956f67	0.0011400998
31	0xbe24aa02	-0.16080478
32	0xbd1a4775	-0.037665803
33	0x3dead5cf	0.11466562
34	0xbda3660f	-0.079784505
35	0x3d4950d3	0.049149346
36	0xbd31fd0f	-0.043454226
37	0xbb6e2790	-0.00363395
38	0xbdb893fa	-0.09012599
39	0x3d5f8160	0.05456674
40	0x3e2b833c	0.1674928
41	0xbe3588be	-0.17727944
42	0x3d1a46c3	0.03766514
43	0x3df4ba0e	0.119495496
44	0xbc900e33	-0.017584896
45	0x3b4174fe	0.0029519196
46	0x3e289528	0.16463149
47	0xbe01d804	-0.1268006
48	0xbe2e8ace	-0.17045137
49	0xbe4e6160	-0.20154333
50	0xbc508bbd	-0.012728629
51	0xbd77dae7	-0.060511496
52	0xbdefc8d6	-0.11708228
53	0x3d9326d4	0.0718514
54	0x3e4499e6	0.19199333
55	0x3c810056	0.01574723
56	0xbd03ead8	-0.032206386
57	0xbdda7a32	-0.10667838
58	0x3e4d1897	0.20028912
59	0xbcdb02fe	-0.026734825
60	0xbd50042c	-0.05078523
61	0x3d274539	0.0408375
62	0xbd578400	-0.05261612
63	0xbe21cd33	-0.15800934
64	0xbdfad301	-0.12247277
65	0x3d17705b	0.036972385
66	0x3e053d68	0.13011706
67	0x3d926ea6	0.07150011
68	0x3da5ddb5	0.08098928
69	0x3df9516c	0.12173733
70	0xbd188c5e	-0.03724324
71	0xbe16a7b6	-0.14712414
72	0xbe4763c9	-0.19471659
73	0x3d9e4bb9	0.07729287
74	0xbe05806c	-0.1303727
75	0x3c446e98	0.011989258
76	0x3e0f8b78	0.14018047
77	0xbdefabda	-0.117027
78	0xbc03672e	-0.008020205
79	0x3ccca472	0.024980757
80	0xbda48a93	-0.080342434
81	0xbdb663f9	-0.08905787
82	0x3c3522ff	0.011055707
83	0xbda2b7bc	-0.07945201
84	0x3c99402e	0.018707361
85	0x3da08607	0.07838064
86	0x3ca0eaa9	0.019643145
87	0xbc3bd556	-0.0114644375
88	0xbd16685f	-0.03672063
89	0x3ddddbba	0.10832925
90	0xbdb38ca6	-0.08767061
91	0xbcbba3f7	-0.022905333
92	0x3e1e5f74	0.154661
93	0xbd0f36ea	-0.03496448
94	0x3c727146	0.014797514
95	0xbc9149d1	-0.017735394
96	0x3d28a532	0.041173168
97	0xbc3a58b6	-0.011373689
98	0x3de4af4b	0.11166247
99	0x3db663a6	0.08905725
100	0x3dfaaf7c	0.12240502
101	0xbcaf7a69	-0.021420674
102	0x3e10ca77	0.14139734
103	0x39c3d954	0.0003735522
104	0xbd998c31	-0.074974425
105	0x3df9256d	0.121653415
106	0x3c313068	0.010814764
107	0x397ed078	0.00024300988
108	0x3dadd498	0.08487815
109	0xbc0c772b	-0.008573334
110	0xbc46b81c	-0.012128856
111	0xbc42017f	-0.011841177
112	0xbd93074b	-0.071791254
113	0xbe459282	-0.1929417
114	0xbe075a2c	-0.13217992
115	0xbdae3c08	-0.08507544
116	0xbb8911a5	-0.0041830116
117	0xbd4e24a8	-0.050327927
118	0xbd1bf366	-0.03807392
119	0x3da138ec	0.07872185
120	0x3c725796	0.01479139
121	0xbdbb5b4f	-0.09148275
122	0x3e1f8bb3	0.15580635
123	0xbe3331cb	-0.17499463
124	0xbd0d8db0	-0.03455895
125	0x3e3da894	0.18521339
126	0x3e06b820	0.13156176
127	0x3ca5c379	0.02023481
128	0x3cc90ca7	0.024542166
129	0xbe0e63f7	-0.13905321
130	0xbc89726d	-0.016778195
131	0x3de1ea4c	0.11031017
132	0xbdcaa495	-0.09894673
133	0xbc93c37e	-0.018037554
134	0xbde9854e	-0.11402379
135	0xbd7a6150	-0.06112796
136	0x3d8ea2ac	0.06964621
137	0x3a8ead86	0.0010885454
138	0xbdb231b4	-0.08700886
139	0x3e0d0c0e	0.1377413
140	0x3d785005	0.060623188
141	0xbdc56ec6	-0.09640269
142	0x3cb55c9e	0.02213889
143	0xbdc11179	-0.09427161
144	0xbd90af34	-0.07064667
145	0x3d136ca2	0.035992272
146	0xbd3e4d1d	-0.04646026
147	0xbd0719e1	-0.032983664
148	0xbdb1c19a	-0.08679505
149	0x3d2cf7bd	0.04222845
150	0x3d8e78b0	0.06956613
151	0xbcc70876	-0.024296027
152	0x3c2775ca	0.010220954
153	0x3da758d3	0.08171239
154	0xbd59e0fe	-0.053193085
155	0x3d20be3f	0.039243933
156	0x3de5a326	0.11212759
157	0x3dc5e697	0.09663122
158	0x3bad9947	0.005297813
159	0x3d380a01	0.044931415
160	0xbdc0b233	-0.09408989
161	0xbe0728cf	-0.13199161
162	0xbdb2d657	-0.08732288
163	0x39c3f873	0.00037378407
164	0x3dcf3a94	0.10118595
165	0x3d7d4e84	0.061842456
166	0xbda28893	-0.07936206
167	0xbdd2dab4	-0.102956206
168	0x3c80578c	0.015666746
169	0xbe00ba1a	-0.12570992
170	0xba957b0e	-0.0011404471
171	0x3be0eb72	0.006864005
172	0xbda12ecd	-0.07870255
173	0xbd021b41	-0.031764273
174	0xbca7182d	-0.02039727
175	0xbd273ca8	-0.04082933
176	0x3d51253b	0.051060896
177	0x3d48d533	0.049031448
178	0x3b976a82	0.004620851
179	0xbd71849d	-0.05896436
180	0x3cda684c	0.02666106
181	0x3dc6cfff	0.09707641
182	0x3d099e80	0.033598423
183	0xbde0f9fc	-0.10985181
184	0x3c88705d	0.016655141
185	0x3bf79e8d	0.0075567425
186	0xbd2a0aa1	-0.041514043
187	0x3e0df8ce	0.13864443
188	0xbe371f61	-0.17883064
189	0xbe012913	-0.12613325
190	0xbdeccece	-0.11562882
191	0xbd5ce87e	-0.05393266
192	0xbda15e0b	-0.078792654
193	0xbd830d78	-0.06399053
194	0xbdfa52cc	-0.122228235
195	0xbd88ed40	-0.06685877
196	0x3de9e0be	0.11419819
197	0x3c8c83e6	0.017152738
198	0xbded725e	-0.115940794
199	0xbd7b1271	-0.061296884
200	0x3db06f75	0.08615009
201	0xbd801956	-0.062548324
202	0xbdeddf25	-0.11614827
203	0xbc1ec1bd	-0.0096897455
204	0x3dcb3cf9	0.09923739
205	0xbdbf50e2	-0.09341599
206	0xbc683031	-0.014171646
207	0x3cf49fb6	0.029861312
208	0x3dc06b3b	0.093954526
209	0x3d84e6c7	0.0648933
210	0x3df6041e	0.12012504
211	0x3d458b9c	0.048228845
212	0x3da70e2c	0.08157
213	0xbd90335f	-0.07041048
214	0x3dd89a2a	0.105762795
215	0xbd7d32de	-0.06181609
216	0x3dbae16c	0.09125027
217	0x3dc7b115	0.097505726
218	0x3dae6d7f	0.085169785
219	0xbd51efb0	-0.051253974
220	0x3d4d3a0b	0.050104182
221	0xbe144706	-0.14480218
222	0x3c4b904e	0.012424542
223	0x3d82c538	0.06385273
224	0x3ceff004	0.029289253
225	0xbd97eb65	-0.07417945
226	0xbbd51a58	-0.0065033846
227	0x3d940b49	0.07228715
228	0x3dd4b46c	0.10385975
229	0x3d544154	0.051820114
230	0xbd4e058a	-0.05029825
231	0x3c1db29d	0.009625104
232	0x3d6a7711	0.057242457
233	0xb98bb7a2	-0.00026648963
234	0xbb5e9794	-0.003396486
235	0xbd8173d8	-0.063209236
236	0x3d923d18	0.07140559
237	0xbdf6407c	-0.12024018
238	0x3d8ff504	0.07029155
239	0xbd388015	-0.045044024
240	0x3d8e5b33	0.069509886
241	0xbdcdefff	-0.10055541
242	0x3dd081b1	0.10180987
243	0xbd3477bd	-0.044059504
244	0x3938afa2	0.00017613036
245	0xbd4e0e11	-0.050306384
246	0xbd04341d	-0.03227626
247	0x3bb0f366	0.005400109
248	0xbc9336bc	-0.017970435
249	0xbd1dd38f	-0.038531836
250	0xbd6e01cb	-0.05810718
251	0xbdef76c0	-0.11692572
252	0xbd6f0ea3	-0.058363568
253	0x3a29b40d	0.0006473668
254	0xbda0e44d	-0.07856045
255	0x3ddb2634	0.10700646

weight_hh_l0 f4 [256, 64]
0	0xb8b99fcf	-8.851254e-05
1	0x39e4a2da	0.00043608883
2	0xb9ea9b42	-0.00044747634
3	0xb78adf30	-1.6554812e-05
4	0x39b9eb4a	0.00035461254
5	0x3a19b9a0	0.0005864147
6	0x39d98b6a	0.00041493337
7	0xb8c5994b	-9.422245e-05
8	0x395bea47	0.00020972743
9	0xb775fac4	-1.4661524e-05
10	0x38e123ff	0.00010735541
11	0x39d0c068	0.00039816205
12	0xba003128	-0.00048901374
13	0xba3079d4	-0.0006732021
14	0x3a3a6559	0.0007110439
15	0x391502fb	0.00014210858
16	0x3a42f997	0.00074377045
17	0xb7fdec00	-3.0269846e-05
18	0xba0a5ef0	-0.0005278429
19	0x394caccc	0.00019519328
20	0xb9162beb	-0.00014321475
21	0x393e6530	0.00018157507
22	0xb97210ae	-0.00023085132
23	0x3a49c61a	0.0007697061
24	0xba485420	-0.000764193
25	0x3883ecf4	6.290703e-05
26	0x387a1676	5.9625563e-05
27	0x39979816	0.00028914277
28	0x3922d25c	0.00015527889
29	0x397b25ab	0.00023951258
30	0xba343ed5	-0.0006875818
31	0xba49eb0f	-0.0007702568
32	0x39e619ea	0.00043888326
33	0x39cfc434	0.000396283
34	0x375f83a4	1.3322486e-05
35	0xba3c7f79	-0.0007190626
36	0x39f5ae96	0.00046860118
37	0x38c98d65	9.610764e-05
38	0xb8c123ce	-9.209626e-05
39	0xb8ae2e9f	-8.3056504e-05
40	0xb91d9b80	-0.00015030615
41	0xb9bdc58c	-0.00036196073
42	0x3a04f4b6	0.0005071865
43	0x37e6cf8e	2.7514787e-05
44	0xb92fca09	-0.00016764564
45	0xb9489b52	-0.00019131348
46	0x3a2219b8	0.0006183642
47	0xb9f61b87	-0.00046941286
48	0xb7381540	-1.0972202e-05
49	0x39acc9ef	0.0003295685
50	0x3615dfa0	2.2332897e-06
51	0xb9a6ccbb	-0.00031814523
52	0xba245809	-0.0006269222
53	0xb9168142	-0.00014353267
54	0x390ef673	0.00013633985
55	0x3975f548	0.00023456395
56	0x3a20227e	0.00061086554
57	0x38f41952	0.00011639543
58	0xb9504f5a	-0.00019865987
59	0xb7750b3e	-1.46057555e-05
60	0xb76936a8	-1.3900608e-05
61	0xb9944b62	-0.00028284924
62	0xb96801d2	-0.00022125922
63	0x384f9d37	4.9499064e-05
64	0x35f58aa0	1.8294268e-06
65	0xba046879	-0.0005050968
66	0x3a25be75	0.0006322631
67	0x3776eca4	1.471784e-05
68	0xba37fbbd	-0.0007018408
69	0xb8c4c0f0	-9.381946e-05
70	0x394a7809	0.00019308938
71	0x3761112e	1.3415045e-05
72	0xb9aaa00a	-0.00032544165
73	0xb8baf4bc	-8.9147565e-05
74	0xb98fe743	-0.0002744739
75	0x39856f4e	0.00025450665
76	0x3a006e73	0.0004899271
77	0x38573619	5.1310377e-05
78	0x381fd8f8	3.8110622e-05
79	0x3a19cef3	0.00058673247
80	0xba0419ab	-0.0005039225
81	0xb985d94c	-0.00025529636
82	0xb9b24eb8	-0.00034009456
83	0x38bf5141	9.1227244e-05
84	0x3906c4ce	0.00012852551
85	0x3747bf24	1.1905828e-05
86	0x3a47d5e1	0.0007623118
87	0x3a47752e	0.00076087087
88	0x3909485e	0.00013092297
89	0x3779ec18	1.4896526e-05
90	0x397dc8b6	0.00024202731
91	0x3a018765	0.0004941135
92	0x391b0e36	0.00014787246
93	0xb9a20503	-0.00030902782
94	0x38cfce17	9.9089164e-05
95	0x39fdd27b	0.0004841274
96	0x37c4f432	2.3478733e-05
97	0x3932ac4e	0.00017039591
98	0xb9f444ae	-0.00046590477
99	0xb73bb73e	-1.1188733e-05
100	0xb92f4669	-0.0001671553
101	0x36bc5190	5.6123317e-06
102	0xb912e55e	-0.00014009091
103	0xb9ac6a36	-0.0003288553
104	0x38a0c6c0	7.6664146e-05
105	0xb954ea92	-0.0002030528
106	0x3a2c2c37	0.0006567868
107	0xb9afd70f	-0.00033538832
108	0x37b09df8	2.1054395e-05
109	0x3a41f678	0.00073990924
110	0xba48c592	-0.0007658835
111	0xb988c7e0	-0.0002608886
112	0x3a4942ca	0.0007677494
113	0xb9087b4f	-0.00013015907
114	0x397f34ed	0.00024338411
115	0xba05046d	-0.0005074207
116	0xb8cc7a75	-9.7502874e-05
117	0xb9324c13	-0.00017003743
118	0xb88e6736	-6.790312e-05
119	0x37e8a06f	2.7731263e-05
120	0x39ba3826	0.00035518518
121	0x39550927	0.00020316672
122	0x39658c82	0.00021891485
123	0xb98e0aaa	-0.00027092296
124	0x39c44908	0.00037438446
125	0x39fb11e0	0.0004788777
126	0x3a0efec0	0.0005454831
127	0xb83f770a	-4.5648812e-05
128	0xb83238a4	-4.2491258e-05
129	0xb9664e5c	-0.000219637
130	0x39483d76	0.00019096382
131	0xb9709d82	-0.0002294686
132	0xb8cdb894	-9.809542e-05
133	0xba2d357e	-0.0006607397
134	0x39a60ed2	0.0003167303
135	0xb92d8ddc	-0.00016551412
136	0x38ac128a	8.205052e-05
137	0x376068fa	1.3375882e-05
138	0xb929fdfc	-0.00016211713
139	0xb8a0ab75	-7.661331e-05
140	0xb78dd728	-1.69087e-05
141	0x39921dfd	0.00027869633
142	0x3a1d821f	0.0006008464
143	0xb942d4d0	-0.0001858056
144	0x39b3f119	0.00034321172
145	0xba05056d	-0.0005074356
146	0x3983c4fd	0.00025133035
147	0xb9515cb1	-0.00019966323
148	0x39401c56	0.00018321103
149	0xba485d2a	-0.0007643277
150	0xba47e97a	-0.0007626038
151	0xba13e190	-0.00056412164
152	0x3a0eb973	0.0005444504
153	0xba035e3a	-0.0005011294
154	0x39a3755c	0.00031177222
155	0xb987e5a6	-0.00025920308
156	0x3879306b	5.941132e-05
157	0xb4a35180	-3.0420415e-07
158	0x39fdbd18	0.00048396806
159	0xb8810f88	-6.154092e-05
160	0x3940a92d	0.0001837357
161	0xba3b9b6a	-0.00071566424
162	0x397acc06	0.00023917863
163	0x3a47ef96	0.00076269486
164	0x37ac6eec	2.055565e-05
165	0xb9229f45	-0.00015508856
166	0x3966e146	0.0002201843
167	0xb92afb16	-0.00016306
168	0x39a802f7	0.00032045666
169	0x396a26a8	0.0002233038
170	0xb9cdf8a0	-0.00039285887
171	0xb81bb2c1	-3.7121357e-05
172	0x399dc774	0.00030093978
173	0x39e041bf	0.00042773594
174	0x388ca99e	6.707314e-05
175	0xb9b5d5d3	-0.00034682322
176	0xb88d978a	-6.75163e-05
177	0x39475055	0.00019008045
178	0x3953aa7c	0.00020186038
179	0x39c8a66f	0.00038270975
180	0xb853b1b9	-5.0471837e-05
181	0xb83b663c	-4.4679487e-05
182	0x39b5c46a	0.0003466935
183	0x39c47383	0.00037470096
184	0xb94ace36	-0.00019341041
185	0xb8b6169a	-8.682646e-05
186	0xba457658	-0.0007532588
187	0xb7174177	-9.015544e-06
188	0x3a3bbaa2	0.00071612943
189	0x3941e460	0.0001849099
190	0xb9ae47d3	-0.0003324138
191	0xb9b3a9f0	-0.00034268154
192	0x391b627a	0.00014818637
193	0x381a1cf4	3.6743426e-05
194	0xb9faa36a	-0.0004780547
195	0x38bc97ce	8.9928144e-05
196	0xb9089b31	-0.00013027784
197	0xb95f60cb	-0.00021302995
198	0x3a3aa2b5	0.0007119582
199	0xb7aa13c0	-2.0274776e-05
200	0xb9b87a48	-0.00035186321
201	0x39e9aba9	0.0004456912
202	0xb788f1ec	-1.6325117e-05
203	0x39eb4823	0.0004487644
204	0x399985d2	0.00029282138
205	0xb98a451f	-0.0002637291
206	0x3a2af840	0.00065219775
207	0xba47a582	-0.000761591
208	0xba0504ca	-0.0005074261
209	0x38892101	6.5388165e-05
210	0xb8cc3da1	-9.738957e-05
211	0xba20be00	-0.0006131828
212	0x39507984	0.00019881694
213	0x38e4e7bc	0.00010915051
214	0xb9fa4280	-0.00047733262
215	0xb9e9d33c	-0.00044598605
216	0xb5886000	-1.0160729e-06
217	0xb72731a6	-9.965535e-06
218	0x3a27caa0	0.0006400738
219	0x3927ea51	0.00016013651
220	0x38a0ed20	7.6735625e-05
221	0xb938977c	-0.0001760404
222	0x39d5f6fa	0.00040810538
223	0x383c5507	4.490188e-05
224	0xb9f4b449	-0.0004667363
225	0x39d36ea8	0.00040327501
226	0x3737bacc	1.0951142e-05
227	0xb9e2dffe	-0.00043272966
228	0x382d375a	4.1297964e-05
229	0x3a40421d	0.00073340704
230	0xb9ebd3ec	-0.00044980587
231	0xba2c197f	-0.00065650785
232	0x39e97c6b	0.00044533922
233	0x3a2e0f1f	0.00066398265
234	0x387e7182	6.066403e-05
235	0x391a56ac	0.00014718872
236	0xb9637b3c	-0.00021694315
237	0x382c800b	4.1127245e-05
238	0xba093175	-0.0005233505
239	0x3a439bda	0.00074618834
240	0x3a3a0142	0.00070955243
241	0x3a49e16a	0.0007701131
242	0xb92a0e62	-0.00016217821
243	0x3a250885	0.000629552
244	0xba2373e0	-0.0006235223
245	0x3a328a41	0.00068107626
246	0xb93f363c	-0.00018235383
247	0x3668e42e	3.4703512e-06
248	0xba3d2933	-0.0007215917
249	0x3a4785c9	0.0007611183
250	0xb813d354	-3.5244346e-05
251	0xb909e55a	-0.00013150778
252	0x386a34ab	5.5839e-05
253	0xb977d813	-0.0002363625
254	0xb91ca715	-0.00014939562
255	0xb9044fb9	-0.000126182

bias_ih_l0 f4 [256]
0	0xbd238d95	-0.039929945
1	0x3d806107	0.062685065
2	0x3c6a6337	0.014305881
3	0xbd8c7e60	-0.068600416
4	0xbceea898	-0.029133126
5	0x3dcc7428	0.099830925
6	0xbe114f6b	-0.14190452
7	0xbd7c7ec7	-0.06164434
8	0xbe3ade29	-0.1824881
9	0x3d7cff4e	0.061766915
10	0xbc843353	-0.016137755
11	0x3d23eaec	0.04001896
12	0x3d01e4b9	0.031712268
13	0xbb871acd	-0.004123068
14	0xbe17b5db	-0.14815466
15	0xbdcec298	-0.100957096
16	0x3d6645ad	0.05621879
17	0xbe1027f1	-0.14077736
18	0xbc3e5301	-0.011616469
19	0xbc61d8d6	-0.013784608
20	0xbd8de9b4	-0.06929341
21	0x3d7cbcdc	0.061703548
22	0xbd9a8168	-0.075442135
23	0xbde8c7a7	-0.11366206
24	0xbcc510c0	-0.024055839
25	0x3d099c47	0.033596303
26	0xbe25d116	-0.16193041
27	0xbd4f801b	-0.05065928
28	0x3cd0018c	0.025391363
29	0xbdc22595	-0.094798245
30	0xbcebfaef	-0.028806178
31	0x3c8d577c	0.01725363
32	0x3c66d4ee	0.014088852
33	0xbcd82584	-0.026385076
34	0xbcecd896	-0.02891187
35	0xbd2c6de7	-0.042097
36	0xbb5c32a7	-0.0033599527
37	0x3dc08650	0.09400618
38	0xbe4fe599	-0.20302428
39	0xbcb51cfe	-0.022108551
40	0xbdbc4bf0	-0.091941714
41	0x3df97291	0.12180055
42	0x3d585a14	0.05282028
43	0x3dc1de84	0.094662696
44	0xbdc03007	-0.093841605
45	0xbd8398ea	-0.064256504
46	0x3d6da3e8	0.05801764
47	0xbdb4a4df	-0.08820509
48	0xbd91fd36	-0.07128374
49	0xbda3c849	-0.07997186
50	0x3d54695e	0.0518583
51	0x3d844542	0.064585224
52	0xbdcc9f3b	-0.09991308
53	0xbd249600	-0.040182114
54	0xbd8cfcae	-0.06884132
55	0xbdc25b41	-0.094900616
56	0xbd272f82	-0.04081679
57	0xbd9e02dc	-0.07715389
58	0x3c5ca020	0.013465911
59	0xbd180c4c	-0.037121102
60	0xbd3a6b4e	-0.04551249
61	0x3da8c589	0.08240802
62	0xbc414634	-0.011796523
63	0x3ddbb9b7	0.10728782
64	0xb9267dc0	-0.00015877839
65	0x3a3a25bc	0.000710096
66	0x3a2d9176	0.00066211016
67	0x38e98153	0.00011134394
68	0x39f8f0f1	0.0004748176
69	0x3981e092	0.00024772115
70	0xb9db2a18	-0.00041802297
71	0x39bd73e1	0.00036135226
72	0x37660af8	1.3711622e-05
73	0x3889e3c5	6.5750944e-05
74	0xb9a82e18	-0.000320778
75	0xb917ee92	-0.00014489357
76	0x38ddac99	0.0001057025
77	0xb8378305	-4.375262e-05
78	0x39691416	0.00022228094
79	0xba44dca8	-0.0007509687
80	0xb9c82229	-0.00038172424
81	0xba0fdea1	-0.00054881914
82	0x39782432	0.00023664607
83	0xb97abc6c	-0.0002391205
84	0xb94a7d40	-0.0001931088
85	0xb7f29892	-2.8919694e-05
86	0xb8ea851e	-0.000111827845
87	0xb9b8e771	-0.00035267652
88	0x37c65ecc	2.3647583e-05
89	0xb91a3376	-0.00014705755
90	0x3a1bc9ca	0.00059428497
91	0xb97f4fc2	-0.00024348407
92	0xb9de3982	-0.00042385986
93	0x3517f330	5.660577e-07
94	0xb70c2d60	-8.355215e-06
95	0xb7b366d2	-2.1386342e-05
96	0x3a3ad148	0.0007126522
97	0x37219624	9.631305e-06
98	0xb9fb5703	-0.0004793928
99	0x388af306	6.6256194e-05
100	0xb7041c64	-7.874423e-06
101	0x3a2a2c55	0.00064915913
102	0x38d1f4b1	0.00010011474
103	0x3995aa04	0.00028546166
104	0x3a02a337	0.00049834274
105	0xb94e687c	-0.00019684614
106	0x3a378171	0.0007000184
107	0x3a0904a0	0.00052268244
108	0x381a624a	3.6808e-05
109	0xb99e9c54	-0.00030252582
110	0xb9a94943	-0.00032288776
111	0xb8b6ebf8	-8.722389e-05
112	0xb96e9666	-0.00022753477
113	0xb92aecdf	-0.00016300705
114	0x3a0344ad	0.0005007487
115	0xb985ddae	-0.000255329
116	0xb8c07326	-9.1767215e-05
117	0xb8757e40	-5.853013e-05
118	0x39b762a6	0.0003497798
119	0x3a122e07	0.00055763166
120	0x37f82e84	2.9585564e-05
121	0xb8cfcd11	-9.908726e-05
122	0xba2489b0	-0.00062766206
123	0x3a0df573	0.0005415298
124	0xb884eec2	-6.3387226e-05
125	0x38c8e542	9.579446e-05
126	0x39b429fc	0.00034363556
127	0xba0458eb	-0.000504865
128	0x3d79b7c1	0.060966257
129	0xbbbc27a5	-0.0057420307
130	0x3ad7f7d2	0.0016477054
131	0x3caa7e44	0.020812161
132	0x3d5e6ce2	0.054303057
133	0xbd321de9	-0.043485556
134	0x3d8d72c7	0.06906658
135	0xbdb1071e	-0.086439356
136	0xbdd7ac4a	-0.105309084
137	0xbd9b42cf	-0.07581102
138	0x3cb007ea	0.021488149
139	0x3dd94d10	0.10610402
140	0xbd1d8880	-0.038460255
141	0x3dbe06a4	0.0927861
142	0x3db7fd94	0.08983913
143	0xbde6d350	-0.112707734
144	0xbb9f0c68	-0.004853774
145	0x3c9065ed	0.017626727
146	0xbcbe17c8	-0.0232047
147	0xbe0b5ae9	-0.13608898
148	0x3cd632cb	0.026147267
149	0xbdacbec6	-0.08434825
150	0xbce8dbf0	-0.028425187
151	0x3c8ee9a3	0.017445391
152	0x3d4518c0	0.048119307
153	0xbbdbe56b	-0.0067106984
154	0xbda7753f	-0.0817666
155	0xbdf86878	-0.12129301
156	0xbcbc874b	-0.023013731
157	0x3dc6d748	0.097090304
158	0xbc16d243	-0.009205404
159	0x3dd60b7b	0.104514085
160	0xbb9edcc8	-0.0048480965
161	0xbe0a642b	-0.13514774
162	0x3df87499	0.12131614
163	0x3cc0101e	0.023445185
164	0xbcec7995	-0.028866569
165	0x3deb4297	0.114873104
166	0x3de0e6df	0.10981535
167	0xbc132f95	-0.008983512
168	0x3e050260	0.12989187
169	0x3e16ca96	0.14725718
170	0x3db2bbf1	0.08727253
171	0x3d4d4ee0	0.05012405
172	0x3c3a0274	0.011353124
173	0x3dbf56ae	0.09342705
174	0xbd62274c	-0.055213258
175	0xbddcf5d1	-0.10789073
176	0x3c742bb4	0.014902998
177	0x3da60801	0.081069954
178	0xbd3fb5f0	-0.04680437
179	0x3cb219aa	0.021740753
180	0x3d64a787	0.05582383
181	0x3c8950d4	0.016762175
182	0x3da321d2	0.07965435
183	0xbb52e670	-0.0032180808
184	0xbda175c1	-0.07883788
185	0x3cff478c	0.031162046
186	0xbd47c596	-0.048772417
187	0x3dbbc053	0.09167542
188	0xbdd3a771	-0.10334671
189	0x3d6b9e8e	0.057524256
190	0x3b4849ba	0.0030561523
191	0xbe098285	-0.13428695
192	0xbe454887	-0.19265948
193	0xbdceaba9	-0.10091335
194	0x3d816a23	0.06319072
195	0xbe142b1b	-0.14469568
196	0xbe16f80c	-0.1474306
197	0xbc5ee4c4	-0.013604347
198	0x3d1d1b43	0.038356077
199	0xbe1efd99	-0.15526427
200	0xbe026dc2	-0.12737182
201	0xbe057141	-0.13031484
202	0xbd97cfb1	-0.07412661
203	0xbd22d097	-0.039749708
204	0x3ce71135	0.028206447
205	0xbddf3016	-0.108978435
206	0xbe038516	-0.12843737
207	0xbd5c9597	-0.053853597
208	0xbd273761	-0.040824298
209	0xbe263367	-0.16230546
210	0xbe1b2438	-0.15150535
211	0xbc4ff61e	-0.012692956
212	0xbe5f3ef7	-0.21801363
213	0x3d9eb318	0.07749003
214	0xbdd3bdbd	-0.10338924
215	0x3ca7e8f4	0.020496823
216	0x3d9bea17	0.076130085
217	0x3d352414	0.04422386
218	0xbcfd8e53	-0.030951655
219	0x3e00f107	0.12591945
220	0xbd9314fb	-0.07181736
221	0xbdbff786	-0.09373383
222	0x3da5e272	0.08099832
223	0x3dcc351b	0.099710666
224	0x3d3b57ce	0.045738034
225	0x3da62765	0.08112983
226	0xbcd9bffe	-0.026580807
227	0x3d97fd09	0.074213095
228	0x3c29f293	0.010372776
229	0xbd85f1ce	-0.06540261
230	0xbd93eb86	-0.07222657
231	0x3dd9a40d	0.10626993
232	0xbe072a50	-0.13199735
233	0xbcaacf3e	-0.020850774
234	0x3cf5e9d7	0.03001873
235	0x3d87b80a	0.066268995
236	0xbcaff67c	-0.021479838
237	0xbbad77ad	-0.0052938075
238	0xbe2bbb3b	-0.16770642
239	0xbc39dd08	-0.011344202
240	0xbc6af024	-0.014339481
241	0x3d313bd1	0.043269936
242	0xbdc53038	-0.096283376
243	0xbd273fe3	-0.04083241
244	0xbd273a7b	-0.040827256
245	0xbdaefd56	-0.08544414
246	0xbe5384d9	-0.20656146
247	0x3dd498db	0.10380717
248	0x3d6389b9	0.055551264
249	0x3d4a7da0	0.04943621
250	0xbc131a2b	-0.008978407
251	0xbdcff912	-0.10154928
252	0x3a8323fe	0.0010005233
253	0xbc56025e	-0.013062088
254	0xbe270619	-0.1631092
255	0xbddd297d	-0.10798929
