Comparative_Evaluation/Baselines/LSTM/models_u/model55.pt (torch, 499143 bytes, 10 tensors)

weight_ih_l0 f4 [512, 10]
00000000: 6b83 39be d9a5 b7bd 8f05 35be 860f 09be
00000010: e945 823d 2706 6cbc 928d b03b 29bf e3bd
00000020: d8f1 0cbd 3cfc 67be 1343 ebbe 6c75 9ebe
00000030: c543 88be 2c22 3fbe a461 0dbe 731a 80bd
00000040: 1cd1 ebbd fda6 153d b694 b33d b680 ee3b
00000050: a6c3 13bf 0275 d2be 55ea 8bbe d8f6 90be
00000060: 1092 8ebe 9c1d 80bd 9d1a 3dbe 80f5 eabc
00000070: 6a81 23bd 37c2 883d 8c4f 0abf 5847 92be
00000080: 5f0b c1be e31e 4ebe 6271 f7bd 0662 d6ba
00000090: 34f9 4a3c e27a 743d 8a48 af3d 1820 563d
000000a0: 5ae7 f4be 7134 ddbe 935b babe 22a3 b2be
000000b0: c80a 90be 926e 57be 8007 6cbe d9c2 bfbd
000000c0: bc2e 5ebd 20bf 613d 4bad a5be f6c9 c4bd
000000d0: 339b e4bd 0cd9 b3bd b0d2 183d 1eeb e93c
000000e0: ac70 633c e43a 65bb d381 b0bd 80b7 35bd
000000f0: 296a ddbe 2e67 d5be cbf9 d8be d3c2 b0bd
00000100: 0f24 cf3c 7a83 1a3e 4340 fa3b e707 d03a
00000110: ea92 723e 2e0a 313e dd1a 87be a4dd adbd
00000120: 7f13 6bbd 49e1 153d 3c82 773d 4eba 493d
00000130: 4a96 143e 8951 eb3d 8a06 b23c d0b6 263e
00000140: 5294 d4be 6224 aebe 3784 91be f5e7 23be
00000150: e4a0 0dbe 8af8 b1bd 72a7 50bd d3f4 27bd
00000160: ee84 103e 2c39 f33d 2ca0 cabe c4cb 92be
00000170: 53cc 86be f8be a6be 63af a0be 22c0 babd
00000180: 8a81 d9bd 0002 f8bd 7641 d93c 518a 993d
00000190: 6fe8 1cbf e0ac fbbe cdd0 ffbe 3e32 debe
000001a0: 228b 8cbe 23e7 77be ac7e 61be 1704 9ebe
000001b0: 7354 aebc dd31 ee3d 61eb f7bd cb97 aa3b
000001c0: 7c51 7fbd 40ac f6bc ee3d 2cbc e4ba 443d
000001d0: 4611 b0ba f1b1 92bb b190 acbd 4086 36be
000001e0: 89eb 8bbe 36d6 5bbe 156e 5dbd 03aa e6bd
000001f0: 1d6b dcbd 75d8 8cbc d6ef 2cbe 7d36 11be
00000200: b184 5abe d20d afbd 4eba bfbe 1620 3abe
00000210: 3327 07be 808f 99bd da45 bfbd b765 09be
00000220: cc1f b4bd 9370 c83d 5e77 2a3e b5e0 543e
00000230: 482a afbe 4737 acbe 80cc 33be 62e0 8abe
00000240: d0c5 92be 7c9a 40be c1c3 46bd 7941 133d
00000250: 8d25 623d d502 f03d bd82 88be 8973 50be
00000260: 6376 62be befa 08be 0d3b 4abe c6f9 06be
00000270: 0184 b4bc 63a8 163d df89 fd3c 8ef6 463d
00000280: b560 6ebe 0b49 16be 275a 50be da3e 01be
00000290: 8abe 44be cb76 e1bd 1bb5 79bd f5bc 0c3e
000002a0: c081 0c3e 0ccf 663e 2656 47bd 0db3 dcbd
000002b0: 870d 38be a6d3 f5bd 946e 49be 4413 f0bd
000002c0: 5ec0 37be 96fc 71be 22b1 86be 871b 42be
000002d0: 6050 09bf bec6 bdbe f0f2 a2be 3233 bebe
000002e0: 92c9 a4be 6834 64be 1e85 a3bd f755 9fbd
000002f0: 052e df3d d6dd 313e 913d 97be bfc2 23be
00000300: 80ad d2bd edb4 cfbd 0d27 b3bd 8c86 2cbd
00000310: 43ab c53d 9246 113d a55a 003d 6bc0 913d
00000320: 4d66 cebe 23e9 65be 1abc 56be aa26 9ebe
00000330: a009 57be 863c e63c 1335 c8bd 3f22 673b
00000340: 64c7 91bd 243b 613d 06f3 efbe cb66 8dbe
00000350: 644a 4cbe c980 81be fa87 33bd 333c 113d
00000360: 3d6a 83bd cc5b 22be 1101 18be a4b2 08bd
00000370: e7be 88be f792 07be 5ed7 16be a569 8bbd
00000380: 88c3 64be 4414 89bc 07b9 28bd f08a 65bb
00000390: 4490 9ebc 319f d33d 3544 aabe 574f 96be
000003a0: 9b0b a7be 089f ffbd 311a 29be 5383 85bd
000003b0: 9d7b cebc 56e4 e9bb 40d7 793b 45fc b1bd
000003c0: 6477 8cbe b9e2 a9bd 929e 063c 170f f93c
000003d0: 6b29 fbbb 3bb2 143d 445f e83c 6ade 453d
000003e0: 2aac ed3d f33f 143e 7293 f6be c4ab 9fbe
000003f0: 2359 84be 8463 33be 7b8b 97bc 2abe 9b3d
-0.18116538 -0.0896718 -0.17677902 -0.13384828 0.063609906 -0.014405764 0.0053879702 -0.11120445
-0.034410328 -0.22654814 -0.4594961 -0.3094896 -0.26614204 -0.1866538 -0.13806778 -0.06255045
-0.11514494 0.036536206 0.08768599 0.007278527 -0.5772041 -0.41104895 -0.2732722 -0.28313327
-0.27845812 -0.062556475 -0.18467183 -0.028681517 -0.03991834 0.066776685 -0.5402763 -0.28570056
-0.37703988 -0.2012897 -0.12082173 -0.0016356118 0.012388516 0.059687503 0.085587576 0.0522767
-0.47832757 -0.43204072 -0.3639799 -0.34890085 -0.28133225 -0.21038273 -0.23049736 -0.09363336
-0.054243788 0.05511391 -0.32358775 -0.096088335 -0.111624144 -0.08781633 0.037310302 0.028554495
0.013881844 -0.0034977729 -0.08618512 -0.044364452 -0.43245056 -0.41680282 -0.42378077 -0.0863091
0.025285749 0.15089217 0.007637055 0.0015871496 0.23688856 0.1728904 -0.26387683 -0.0848954
-0.05739164 0.0365918 0.060426936 0.04924994 0.14510456 0.11490161 0.021731634 0.16280675
-0.4151941 -0.34012133 -0.28421184 -0.16006453 -0.13830906 -0.08689983 -0.05094094 -0.041004967
0.14113209 0.11876139 -0.39575326 -0.28671086 -0.26327762 -0.32567573 -0.3138381 -0.09118678
-0.10620411 -0.121097565 0.026520472 0.07497085 -0.61292166 -0.4915533 -0.4996399 -0.43397707
-0.274499 -0.24209265 -0.22020978 -0.30862495 -0.021280503 0.116306044 -0.12105442 0.0052060834
-0.06233357 -0.030111432 -0.010512812 0.048029795 -0.0013432882 -0.0044767787 -0.08426035 -0.1782465
-0.27328137 -0.21468434 -0.05406006 -0.11262896 -0.10762618 -0.017193059 -0.16888365 -0.14180942
-0.2133968 -0.08547558 -0.37446827 -0.18176302 -0.13198547 -0.074980736 -0.09339495 -0.13417707
-0.08795127 0.09787097 0.16647097 0.20788844 -0.34211946 -0.33635923 -0.1755848 -0.27124316
-0.28666544 -0.18808931 -0.04852653 0.03595111 0.055211592 0.1171929 -0.26662245 -0.20356573
-0.22115473 -0.133769 -0.19749089 -0.13181219 -0.0220356 0.03678168 0.030949531 0.048574977
-0.23279078 -0.14676301 -0.2034689 -0.12621632 -0.1921331 -0.11008986 -0.06096373 0.13743956
0.1372137 0.2253992 -0.048666142 -0.10776339 -0.1797391 -0.12003259 -0.19671088 -0.117224246
-0.17944476 -0.2363151 -0.26307017 -0.18955813 -0.5363827 -0.3706569 -0.31825972 -0.37148434
-0.32185036 -0.22285616 -0.079843745 -0.07780068 0.108974494 0.1736978 -0.2953916 -0.15992258
-0.10286999 -0.10141931 -0.08747683 -0.0421205 0.09651806 0.03546769 0.031336445 0.07116779
-0.40312424 -0.22452216 -0.20970193 -0.30888873 -0.20999765 0.028105032 -0.09775748 0.0035268215
-0.07118109 0.05498804 -0.468651 -0.27617487 -0.19950253 -0.25293568 -0.04383085 0.0354578
-0.06416748 -0.1585533 -0.14844157 -0.03337349 -0.26708147 -0.13239656 -0.14730594 -0.068072595
-0.22340214 -0.016733296 -0.04119208 -0.003502544 -0.0193559 0.10333098 -0.33255163 -0.29357406
-0.32626042 -0.12481505 -0.16513897 -0.06519189 -0.025205428 -0.0071378155 0.0038122684 -0.08690695
-0.27434838 -0.08295197 0.008216517 0.030402703 -0.0076648495 0.036302786 0.028365739 0.048307814
0.11605103 0.1447752 -0.48159367 -0.31185734 -0.25849256 -0.17518431 -0.018499127 0.0760463

weight_hh_l0 f4 [512, 128]
00000000: b3db a635 5a94 1db4 dacc 00b3 8053 b731
00000010: f256 bcb5 bab7 02b3 a077 97b3 58e1 fab4
00000020: 5c51 8133 1c99 4335 3704 15b6 68a7 f035
00000030: e02a 8734 663d aeb5 3017 d035 600a ceb4
00000040: 1a30 9eb4 c85f 02b3 d0ad 0c34 e4a8 ccb5
00000050: de33 33b5 4002 9f33 d916 f0b5 3d5c 4d35
00000060: 0a1b 1234 36ed 14b5 40af 0a34 08f6 39b5
00000070: fd23 ca35 f2d7 2ab4 6a13 a535 4467 4634
00000080: f8cb c1b3 4f61 38b5 f47f d434 8c78 1633
00000090: 7091 7cb2 0b4e 1db5 f4c5 3ab5 f1c5 1bb6
000000a0: 2432 bcb2 2341 c034 52ad 6b35 481b 8733
000000b0: a98a d5b5 1cca 90b5 680b a834 2109 2134
000000c0: e090 e034 7e5f ae35 e4f8 7b34 3ca7 a3b3
000000d0: f83d 7933 f81c 4d34 17fd b034 09a5 3cb5
000000e0: 5c4c 3334 a1c6 3c35 e55a 22b5 742d 77b5
000000f0: fa5c e8b5 a88e 02b6 8eb2 f0b5 4e2d 2c36
00000100: fd75 9db4 e277 0db5 5d39 c735 3004 ed33
00000110: 617a 06b6 ca80 58b5 6361 79b4 9545 d435
00000120: 2c5e 8bb5 a915 8535 2088 3c34 0019 2933
00000130: f253 4533 e0f1 8535 3a1c 03b5 c292 8135
00000140: be45 0936 4dea ecb5 9607 2cb6 6cda 15b5
00000150: 3cfb 0a34 ed8e 2235 3c61 b2b5 8e8d 7a35
00000160: 5352 5835 fcf8 40b5 8c83 afb4 8bd1 0234
00000170: 9a14 6cb5 ba05 2cb4 08a0 a5b4 589b 5633
00000180: e274 cb34 ab72 ad35 30a3 f934 e6f8 4c34
00000190: 80c9 0f33 9bd9 1a36 1d7d f534 ff2f 1636
000001a0: d676 ec33 8082 21b2 9e9c fa34 47d9 ffb5
000001b0: 02fd f835 8abd d5b5 08c7 c334 2a90 bdb5
000001c0: b8c4 e9b4 6ea3 92b5 f151 b6b5 d92f 64b5
000001d0: cd57 f0b5 d8d2 9032 ac4a 75b4 2ac5 70b5
000001e0: 950a b1b3 1c47 5034 2e79 2c36 b867 23b5
000001f0: 7211 04b6 35e6 8c35 d38e 1136 b476 8eb5
00000200: 78b2 8133 bc36 7834 1221 5fb4 f0f8 8e35
00000210: f2a3 9535 6582 d635 b8a9 8033 0404 8d35
00000220: f544 dd34 cc95 0d35 6281 a4b3 2c7f 7cb5
00000230: 3e01 b533 b203 acb4 d074 e1b3 edd6 1d35
00000240: 785d 9ab5 2a91 0934 041b 2b33 80a8 0436
00000250: 1d48 81b5 6865 c7b5 738c 9eb5 6caf 8035
00000260: 7c61 22b4 c1e5 4434 61b4 9435 30b5 b7b5
00000270: cba4 29b4 1db3 b135 1cd4 6a35 de0e 0736
00000280: 7eba ef34 43ef bf35 d8bc 8034 4eff 1636
00000290: 1fe6 7a34 c792 06b6 c066 1631 30e9 1c34
000002a0: 35e3 4a35 9025 52b3 860d 25b5 4c0a 4734
000002b0: b825 09b5 5a4b 60b5 9ecb 1e34 9ebc 2635
000002c0: c4f1 c435 cae6 c035 22c4 0034 0950 7fb5
000002d0: 144b efb3 3bb5 7d35 526a 1736 ce04 3334
000002e0: b9d2 86b5 69bd 35b5 c6a8 13b4 dd9f 02b5
000002f0: 51f7 15b5 fffd d4b4 9083 4533 66f3 a9b3
00000300: 8d04 76b5 f83d 9b34 be28 29b4 3d9b a4b5
00000310: 14e7 adb5 d8ba 39b5 b10c 0ab6 d3c7 52b5
00000320: 7b7d 1236 c460 f4b2 3a0b a335 6a0f 8335
00000330: 00f2 a5b0 7570 00b5 a84a 0b35 bd28 9935
00000340: 727c 8db5 03d7 27b5 d5cc 5635 4af6 1135
00000350: 6a85 16b6 9a7f 0bb5 2daf 71b5 6692 8234
00000360: 227a 8db4 18c8 6bb5 f340 0436 ccec 8935
00000370: 5a10 60b5 4863 4134 66e1 95b4 caaa c6b4
00000380: 785e 00b5 de22 4435 1a50 3535 023e e2b4
00000390: 0c7b 2f35 31e4 4235 0eb5 84b5 466b 28b5
000003a0: da14 f7b4 ca97 8835 1e85 a7b4 c0d8 2334
000003b0: d042 fbb3 a002 96b5 707d 7533 f078 04b4
000003c0: 3f5f 24b5 0252 9535 fda9 f035 a8b8 6eb3
000003d0: a187 be35 93f6 58b5 800b 1933 dedc 56b5
000003e0: a70f 9fb4 7e86 c1b5 b694 01b4 2131 1d35
000003f0: cf64 aeb4 a393 ff34 4684 2e34 7e19 5134
1.2431905e-06 -1.4675734e-07 -2.9988634e-08 5.335494e-09 -1.4032396e-06 -3.0435082e-08 -7.053245e-08 -4.6730088e-07
6.02183e-08 7.2865964e-07 -2.2205184e-06 1.7930115e-06 2.5176905e-07 -1.298188e-06 1.5503956e-06 -3.837804e-07
-2.9464792e-07 -3.0355096e-08 1.3101749e-07 -1.5248338e-06 -6.6758173e-07 7.404424e-08 -1.7888043e-06 7.6502675e-07
1.3607146e-07 -5.5479484e-07 1.2916007e-07 -6.9275893e-07 1.5060647e-06 -1.5911044e-07 1.2299108e-06 1.8477755e-07
-9.0243645e-08 -6.8686944e-07 3.9581175e-07 3.5034233e-08 -1.4701399e-08 -5.8600625e-07 -6.957846e-07 -2.3212017e-06
-2.1908882e-08 3.581018e-07 8.7796536e-07 6.29139e-08 -1.5910092e-06 -1.0787658e-06 3.1300738e-07 1.4997615e-07
4.1828662e-07 1.2991802e-06 2.3466743e-07 -7.620699e-08 5.803119e-08 1.9102652e-07 3.2966702e-07 -7.0275615e-07
1.6698453e-07 7.03245e-07 -6.048197e-07 -9.2080813e-07 -1.7312407e-06 -1.9454546e-06 -1.793336e-06 2.5656368e-06
-2.9329377e-07 -5.2701046e-07 1.484335e-06 1.1036934e-07 -2.003879e-06 -8.0653683e-07 -2.3225361e-07 1.5815482e-06
-1.0383715e-06 9.915576e-07 1.7558386e-07 3.9371116e-08 4.5943985e-08 9.979667e-07 -4.884238e-07 9.653961e-07
2.0455186e-06 -1.7651561e-06 -2.5634413e-06 -5.582467e-07 1.294365e-07 6.055769e-07 -1.3290332e-06 9.3338247e-07
8.058607e-07 -7.1887894e-07 -3.2692003e-07 1.2183425e-07 -8.794683e-07 -1.6020832e-07 -3.0850083e-07 4.9967042e-08
3.789674e-07 1.2922877e-06 4.64986e-07 1.9089529e-07 3.3478045e-08 2.3074451e-06 4.5725838e-07 2.237968e-06
1.10112225e-07 -9.401106e-09 4.6680083e-07 -1.9062217e-06 1.8551075e-06 -1.59249e-06 3.6466395e-07 -1.4123555e-06
-4.3542764e-07 -1.0925412e-06 -1.3583905e-06 -8.5006246e-07 -1.7906947e-06 1.6859687e-08 -2.2844569e-07 -8.969388e-07
-8.24413e-08 1.9397379e-07 2.5700533e-06 -6.087316e-07 -1.9679687e-06 1.0497812e-06 2.1689818e-06 -1.0614372e-06
6.039494e-08 2.3116712e-07 -2.0780524e-07 1.0652275e-06 1.114908e-06 1.5982192e-06 5.991336e-08 1.0506487e-06
4.121463e-07 5.2744576e-07 -7.66038e-08 -9.4062375e-07 8.428695e-08 -3.2040185e-07 -1.0498627e-07 5.8799816e-07
-1.1501097e-06 1.281193e-07 3.983861e-08 1.9767613e-06 -9.632237e-07 -1.4856168e-06 -1.1812793e-06 9.587798e-07
-1.512289e-07 1.8337506e-07 1.1079356e-06 -1.3687295e-06 -1.5799303e-07 1.3239656e-06 8.748045e-07 2.0125221e-06
4.465291e-07 1.4300243e-06 2.397926e-07 2.2500349e-06 2.3366782e-07 -2.0052992e-06 2.188628e-09 1.4613465e-07
7.5581494e-07 -4.8928598e-08 -6.148697e-07 1.8537065e-07 -5.1091365e-07 -8.3556154e-07 1.4788972e-07 6.2114293e-07
1.4673501e-06 1.4372283e-06 1.1992282e-07 -9.511137e-07 -1.11429614e-07 9.451357e-07 2.256264e-06 1.6672422e-07
-1.0045106e-06 -6.770338e-07 -1.3751841e-07 -4.8661406e-07 -5.586672e-07 -3.9672884e-07 4.5987292e-08 -7.91395e-08
-9.1648764e-07 2.8916088e-07 -1.5754173e-07 -1.2264132e-06 -1.2956757e-06 -6.9189764e-07 -2.057099e-06 -7.852188e-07
2.1828735e-06 -2.8449342e-08 1.2147714e-06 9.764747e-07 -1.2074111e-09 -4.784736e-07 5.1890174e-07 1.1411245e-06
-1.0541537e-06 -6.252523e-07 8.001928e-07 5.4375107e-07 -2.24294e-06 -5.196722e-07 -9.003441e-07 2.4320906e-07
-2.635216e-07 -8.7835497e-07 1.9707338e-06 1.0276212e-06 -8.34703e-07 1.8010644e-07 -2.7917412e-07 -3.700464e-07
-4.7821186e-07 7.306643e-07 6.754432e-07 -4.2140897e-07 6.5371637e-07 7.2602694e-07 -9.88746e-07 -6.274098e-07
-4.6022507e-07 1.0176966e-06 -3.120303e-07 1.5259411e-07 -1.17002514e-07 -1.1176635e-06 5.7157592e-08 -1.2337455e-07
-6.123336e-07 1.1125233e-06 1.7930867e-06 -5.5581637e-08 1.4195576e-06 -8.0825083e-07 3.5633548e-08 -8.0042616e-07
-2.9627446e-07 -1.4418763e-06 -1.2068162e-07 5.855855e-07 -3.2483374e-07 4.760487e-07 1.6253134e-07 1.9473916e-07

bias_ih_l0 f4 [512]
00000000: 61d1 aabd 9f22 0bbe 7935 41bd 5c0f d8bd
00000010: c963 82bd 5cc9 2dbe 313e 79bd 8820 36bb
00000020: bdc1 663d 45a6 bc3d 4ba3 823d 5428 6cbe
00000030: b4da 973c 5ea9 1dbd 8eaa c5bc 52e9 053d
00000040: 988b 87ba 438e 72bd 68a6 06bd d9b8 273c
00000050: 713f 1ebd a144 dabc 5d77 0d3b dcb2 74bc
00000060: 6566 05be 9e9f 9bbd 2a90 8e3d 9fac 543d
00000070: 11e6 3fbe 6751 e2bc 7873 533c 63bb 7b3c
00000080: 4a38 783b 8ab4 0fbe 6cd7 3abd e414 a43c
00000090: c09b bebd 3774 a8bd c5a0 983a c1c4 113d
000000a0: bad5 acbd 4f0e 30bd c743 cabc d4f9 10bb
000000b0: c0b6 64bd 0e28 6abd a708 103d c4c9 983c
000000c0: 1965 8cbd f043 a9bd bd85 c1bd 0389 0b3c
000000d0: a8e5 753d 33b6 2bbd c97e e7bd 64d6 8f3c
000000e0: 4297 80bd 899f 75bd 06cd 373d b617 bfbd
000000f0: 1ca1 123e 5aad 30be eba4 93bd 10d2 b0bd
00000100: 543b 7dbd eacb 0bbe 7056 2ebe 646a 38be
00000110: 2518 893c a61a 153d 3eec 0dbd a129 14bd
00000120: 8699 a73d 0161 f4bc 4eec 98bd f993 d3bd
00000130: 6e6b 38be 1734 483b 3a23 4fbb 2a0c 43be
00000140: 8552 31bd f5d3 e73c 54c6 18be c5ca d0bd
00000150: f8d5 72bd 5d61 8abd 780b 12bd 5521 14be
00000160: 3bb5 c6bd 05d2 123d ec4b b7bd df15 68bd
00000170: d269 b03b e3a1 2fbe 481b d63c 113d a5bd
00000180: 86be bcbd f121 713c 3a46 683a 60d2 78bd
00000190: 7f3a b7bc 2a43 3abd 74a2 873c e38a 6fbe
000001a0: 676f 803c 70a6 7cbd e745 82bd bee1 b5bd
000001b0: fd72 8abd 90a7 0abe c17e b1bd 3d79 ab3c
000001c0: 4246 383d b14d 03be 267c 81be 3d36 cabc
000001d0: f039 04be 4404 1d3d bc54 47bd b308 bfbc
000001e0: feb1 cbbd d4c5 7dbd d89b 37bd c35c 2bbd
000001f0: 131e c93c b604 87bd f930 f2bd d25d 43be
00000200: 9104 6c35 8524 d7b5 5adf 1f34 131f 2e35
00000210: 488a a033 bac7 e735 6039 aab3 409a e233
00000220: 5afd cab5 828d f035 e0fc 7533 0e71 d035
00000230: 4e66 9835 a4ec b935 8a15 c134 2cb6 82b5
00000240: 539c f434 4077 2fb3 f4d8 aeb3 4e13 beb5
00000250: 9acd 6835 9067 6831 9f10 a835 fec9 7535
00000260: 6e8a 0c33 a0f2 9335 8262 dfb5 66f4 b235
00000270: 30f8 0036 26db 61b5 9015 17b4 8eb4 0835
00000280: da52 a235 b227 bfb4 242e 0ab5 7442 8c35
00000290: 8a40 5834 263c f9b5 76a3 0e34 f7e6 37b4
000002a0: 13ba e134 6373 1736 9a02 8634 f9bf 2eb5
000002b0: e3aa 0436 7c8f 13b5 feea 32b5 a8d8 1eb6
000002c0: 5ffb 89b5 d6e2 c0b5 388b b834 542e 78b3
000002d0: 60f8 82b3 20f2 3c33 c221 98b3 2422 3ab5
000002e0: 9de2 9c33 801b c035 7933 0734 610b d934
000002f0: d5f1 83b4 611e c035 0c78 8fb5 8368 06b6
00000300: e3f8 2e35 ac37 0f35 89ca f435 b45d 7634
00000310: 8a8c 3435 955c 9fb3 b6bb 9f34 8ddd f0b5
00000320: 543f 0436 b95c 49b5 0920 24b5 9b4c 51b5
00000330: a84f f5b4 586e b333 b610 16b5 ba19 b1b4
00000340: 675e 4035 8a15 5334 d45d 30b4 549f 0c36
00000350: f789 8b34 8cd5 a4b4 fa9a 7335 f0a3 dfb2
00000360: c0c5 0eb4 70c5 1235 7cf3 dab2 889d aeb5
00000370: 152a f1b4 0c4c b034 7803 07b6 2ef7 8cb5
00000380: 28c4 0935 68dc b935 1a91 9e33 dec2 1db5
00000390: 1bb9 d435 e865 ccb5 3ad2 d9b4 0a49 de33
000003a0: abfb ff35 0c40 2534 974a a1b5 9a03 5eb4
000003b0: 8cbf 9b34 f4b4 ce35 3049 54b4 c100 f4b4
000003c0: 7a28 f734 9d35 87b5 b57e ec34 56a9 1535
000003d0: 1fb9 77b5 5fa4 f3b5 e42a dd34 74e6 b5b4
000003e0: d776 3bb5 3089 11b5 0061 78b4 d997 0236
000003f0: 8f23 25b5 076a 0e34 cc9a 4c35 ca1c 2235
-0.08340717 -0.13587426 -0.047170136 -0.105498046 -0.06366689 -0.16971344 -0.060850326 -0.0027790386
0.056337107 0.09211401 0.06378802 -0.23062259 0.018536903 -0.0384916 -0.024129178 0.032693215
-0.0010341285 -0.059217703 -0.03287354 0.010236942 -0.03863472 -0.026644053 0.0021586039 -0.0149352215
-0.13027342 -0.07598804 0.06961091 0.051922437 -0.18740107 -0.027626706 0.012905948 0.015364501
0.0037875348 -0.14033714 -0.0456156 0.020029493 -0.09307051 -0.08225291 0.0011644593 0.03558803
-0.084392026 -0.042982396 -0.024690522 -0.0022121565 -0.055838346 -0.057167105 0.0351645 0.018650897
-0.0685522 -0.08264911 -0.09449337 0.008516553 0.06003347 -0.041921806 -0.11303479 0.017558284
-0.0627885 -0.059966598 0.04487326 -0.093306944 0.14319271 -0.17253628 -0.0720919 -0.08633816
-0.061824158 -0.13652006 -0.17025161 -0.18009335 0.016735146 0.036402367 -0.034649126 -0.036172513
0.08183579 -0.029831411 -0.074669465 -0.10330958 -0.18009731 0.0030548626 -0.003160669 -0.19047609
-0.043291587 0.028299311 -0.14919406 -0.10194925 -0.059286088 -0.06756852 -0.03565547 -0.1446584
-0.09702536 0.03584482 -0.08950028 -0.056661483 0.0053837085 -0.17151599 0.026136056 -0.08068288
-0.09216027 0.014717565 0.0008860562 -0.060747504 -0.02236676 -0.04547421 0.016556956 -0.23392825
0.01567812 -0.061682165 -0.06360989 -0.088809475 -0.067602135 -0.13540483 -0.086667545 0.020931834
0.044988878 -0.12822606 -0.2529003 -0.024684066 -0.12912726 0.038334146 -0.048664793 -0.023319578
-0.09946059 -0.06195624 -0.04482636 -0.04183651 0.024550473 -0.065926954 -0.11825747 -0.19078758
8.7923496e-07 -1.6029377e-06 1.4889284e-07 6.486527e-07 7.475734e-08 1.7268969e-06 -7.926678e-08 1.0552003e-07
-1.5123908e-06 1.7922578e-06 5.7273496e-08 1.5530111e-06 1.1354657e-06 1.3852446e-06 3.5964723e-07 -9.738774e-07
4.5562282e-07 -4.085382e-08 -8.14197e-08 -1.4161722e-06 8.6725925e-07 3.3819312e-09 1.2521813e-06 9.156355e-07
3.272219e-08 1.1022967e-06 -1.6643464e-06 1.3333163e-06 1.921795e-06 -8.4137935e-07 -1.4070815e-07 5.092669e-07
1.2094054e-06 -3.5605404e-07 -5.147615e-07 1.0450153e-06 2.0140047e-07 -1.8569451e-06 1.3284247e-07 -1.7127228e-07
4.2044903e-07 2.2567917e-06 2.4961338e-07 -6.509941e-07 1.9769002e-06 -5.4970565e-07 -6.6652126e-07 -2.3669945e-06
-1.0280454e-06 -1.4371133e-06 3.4373966e-07 -5.7784135e-08 -6.098776e-08 4.3992372e-08 -7.084192e-08 -6.934008e-07
7.305537e-08 1.4313118e-06 1.259158e-07 4.042768e-07 -2.4576607e-07 1.4313956e-06 -1.0689268e-06 -2.002839e-06
6.518223e-07 5.3352665e-07 1.8238362e-06 2.2944624e-07 6.7259737e-07 -7.420855e-08 2.9752636e-07 -1.7945873e-06
1.9706395e-06 -7.5013264e-07 -6.114138e-07 -7.7970043e-07 -4.5692764e-07 8.3554085e-08 -5.590367e-07 -3.2987538e-07
7.166295e-07 1.9658742e-07 -1.6425412e-07 2.0954367e-06 2.599115e-07 -3.0702756e-07 9.0750075e-07 -2.6035167e-08
-1.3296722e-07 5.467655e-07 -2.5489264e-08 -1.3009858e-06 -4.4920367e-07 3.2837886e-07 -2.0118587e-06 -1.0502752e-06
5.132192e-07 1.3847721e-06 7.383842e-08 -5.8770627e-07 1.5849104e-06 -1.5228843e-06 -4.057236e-07 1.0350966e-07
1.9072226e-06 1.5390123e-07 -1.2017143e-06 -2.0676671e-07 2.9010369e-07 1.540086e-06 -1.9770664e-07 -4.544909e-07
4.6036786e-07 -1.0073887e-06 4.4050617e-07 5.575324e-07 -9.2284057e-07 -1.8152749e-06 4.1195665e-07 -3.3881554e-07
-6.9835863e-07 -5.4216343e-07 -2.3132088e-07 1.9459897e-06 -6.1519034e-07 1.3263353e-07 7.622118e-07 6.0391596e-07

bias_hh_l0 f4 [512]
00000000: df9b 16be 3fdb a9bc e1f2 3e3c 1547 03bd
00000010: 4e8d 1f3d 90a2 a1bd 4713 19bd 8d9c 17be
00000020: 2b89 1e3c f8bb f33c 4dc3 033d 7208 32be
00000030: 3da5 95bb 7bbf eabd 141e 37bb 5646 8dbd
00000040: 0797 b4bd 71d2 0cbd f209 2ebd 3773 83bd
00000050: 93a4 9bbb d384 83bd 2828 b5bd a0ad f4bc
00000060: 3ff3 27be 92bd 19be d7fb d43d 19ab 74bd
00000070: 1584 62be 432e c5bd 89e5 c03c 2a39 80bd
00000080: 2c29 8cbd 00c4 d2bd 3697 1d3d 2c98 11be
00000090: d368 0dbd 505e 98bd 7a29 453d d55e 503d
000000a0: 87af 34bd 665c 763c 9dd5 a8bd 1f65 11be
000000b0: 46ed 45be a116 663d 94b6 30bd 9d58 eabd
000000c0: 0598 7abd ca57 c7bd 5edd c8bd 7bef 9bbc
000000d0: 943b 923c 7b2c c73d bad6 62be 443b 16bd
000000e0: 6e8f 9bbd cc40 3cbd 6533 adbd 0f7a 2fbd
000000f0: 659d bd3d 6405 86bd edbd 28bd f295 c5bc
00000100: d0a4 e3bc 8bb3 b4bd ff1f ebbd 66a2 19be
00000110: 8b95 4f3c ba39 b4bd d48b 8bbd 808f 073d
00000120: c17e 9a3d 69fa be3c 59c0 d93c a637 08bd
00000130: b415 80be 7593 28bc eec3 7a3d 40ed a6bd
00000140: 92bf 56bd 4000 bcbd ec66 a2bd 2322 21bb
00000150: 7fa6 803d bb23 cbbd 7efd 07be ed8f 19bd
00000160: d49c 6ebd 2b15 e23b b61e 87bd 2551 b8bd
00000170: a513 2cbd efef 58be e227 943b 482f d4bc
00000180: 8592 09bd ef7d e5bd 9a83 20bd 7c3e 93bd
00000190: 350b 6fbd b24f 4abd 1ece 873b 8b6a 03be
000001a0: 8d7b b13c eee3 053d 78eb 73bd aa72 373a
000001b0: 1a90 b2bd 2007 ecbd dfc4 91bc 74c7 abbc
000001c0: 13ff 8abd ee5e 80bd 3d46 7bbe 1a3d 7dbc
000001d0: f275 4dbd da12 86bc f52b ce3d 3c21 0cbe
000001e0: 54d9 95bd c7a0 17bd fe3b 5abd d06f bebd
000001f0: 3a20 babd 912b 3e3d 8df7 d0bd cfdd 34bd
00000200: 54ff 1eb4 0800 b935 3f01 bf34 dfab 7b35
00000210: 6d46 3f35 476d 81b4 fc7b a235 4854 1536
00000220: e0b0 d331 d705 dcb5 342a 9735 9df4 0bb5
00000230: a89e 2433 85f2 08b6 65f7 1cb5 b824 ed34
00000240: 05a9 9835 7cb6 b834 7d91 55b5 a838 c435
00000250: d60e fc33 9a6f e6b5 04a2 ce35 4e9c fd34
00000260: a4ae a933 9c5a 9ab5 289f 1c35 e86e dcb4
00000270: 4e00 3835 301f b2b2 87c6 e0b4 c03f 81b4
00000280: d08d e535 0505 0736 678d 5b34 fcc4 c9b3
00000290: 9b45 8e35 5949 f735 0a37 14b5 06f7 aeb4
000002a0: 6e05 3d35 3ec4 8eb5 80d9 5931 a28a a935
000002b0: 3c40 9cb3 0060 9334 3898 b9b3 18e8 3235
000002c0: 60c5 85b4 4e1a f7b5 d60c 9835 6a85 22b6
000002d0: 763b b434 d695 cd33 9c9c 1f35 50fa a733
000002e0: 7cfa d3b4 e8c7 9ab4 677c 25b5 991c 9c34
000002f0: e7e7 db35 a081 2234 3428 3db5 c401 a1b5
00000300: 1ade e934 0bca ac35 de7a b335 6852 9835
00000310: 59a8 0f36 0997 ddb3 b2d4 1335 944e 49b3
00000320: 2c5a a6b4 aaa8 b534 2cb0 97b4 6368 76b5
00000330: 547b a634 a4e4 c0b5 6831 9fb4 586f f833
00000340: fbbb d335 0373 c1b5 7f42 1436 5d6e 2cb6
00000350: e1da 77b5 b1d9 7635 a439 0fb4 1c17 29b6
00000360: 31f8 5fb5 4e03 9fb5 de49 00b5 4269 31b5
00000370: 23da a0b3 3844 3f34 dcc7 77b5 1c28 4633
00000380: e07a edb2 5c0c 35b5 07d9 ffb5 4fdd 31b5
00000390: f832 1536 e020 44b5 887b cbb5 08e1 8d35
000003a0: c78b 2336 2277 6fb4 9782 4135 e773 b6b4
000003b0: 5a6b 7835 86a4 bbb4 0137 d3b5 ea55 6534
000003c0: 80da a2b5 184d 1535 6682 55b5 80ce 3634
000003d0: 11b7 73b4 1554 f8b4 98b9 0eb5 8f18 ccb5
000003e0: b255 b333 f2b1 5735 8ef1 48b4 a84b d9b4
000003f0: 724e 1035 e040 c035 e554 f1b5 9322 8634
-0.14707898 -0.020734427 0.0116545865 -0.03205021 0.038953118 -0.078923345 -0.0373719 -0.14805813
0.009676258 0.029752716 0.032168675 -0.17386034 -0.004566817 -0.11462303 -0.0027941512 -0.06898181
-0.08817869 -0.03438038 -0.042489953 -0.0641846 -0.0047498434 -0.064218186 -0.0884555 -0.029867947
-0.16401385 -0.15013722 0.10399597 -0.059733484 -0.22120698 -0.09627964 0.02354695 -0.06260903
-0.068437904 -0.1029129 0.038474284 -0.14218205 -0.034523796 -0.07439864 0.04813526 0.05087169
-0.04411271 0.015036678 -0.082438685 -0.14198731 -0.19328794 0.056173924 -0.04314287 -0.11442683
-0.061180133 -0.09733541 -0.098078474 -0.019035092 0.017850675 0.09725281 -0.22152224 -0.036677614
-0.075957164 -0.045960233 -0.08457068 -0.042841014 0.09258536 -0.06543997 -0.041196752 -0.024119351
-0.02778855 -0.088233076 -0.11480712 -0.15003356 0.012669931 -0.08800073 -0.068137795 0.033095837
0.07543708 0.023312764 0.026580976 -0.033256195 -0.25016558 -0.010289063 0.06122201 -0.081507206
-0.05242879 -0.09179735 -0.07929787 -0.0024586997 0.062817566 -0.099189244 -0.13280293 -0.037490774
-0.05825503 0.006899496 -0.065976545 -0.08999852 -0.042010922 -0.21185277 0.004521356 -0.025901452
-0.033586998 -0.112056606 -0.039188005 -0.07189652 -0.058360297 -0.04939241 0.004144444 -0.12833612
0.021665359 0.032688074 -0.059550732 0.0006997982 -0.087188914 -0.115247965 -0.01779407 -0.02096913
-0.06786933 -0.062681064 -0.24538513 -0.015456462 -0.05016131 -0.016366411 0.10066978 -0.13684553
-0.07316843 -0.037018564 -0.05327987 -0.0929867 -0.09088178 0.046428267 -0.102034666 -0.044156846
-1.4807785e-07 1.3783583e-06 3.557743e-07 9.375489e-07 7.125553e-07 -2.4107632e-07 1.2106025e-06 2.2251788e-06
6.1610166e-09 -1.6392977e-06 1.1262659e-06 -5.2137494e-07 3.8328523e-08 -2.0406744e-06 -5.8474535e-07 4.4171406e-07
1.1374074e-06 3.4405446e-07 -7.9560397e-07 1.4619627e-06 1.1737363e-07 -1.7168816e-06 1.5395349e-06 4.723865e-07
7.901443e-08 -1.1500265e-06 5.834613e-07 -4.1058888e-07 6.8545785e-07 -2.073611e-08 -4.18677e-07 -2.4074507e-07
1.7103102e-06 2.011949e-06 2.0447406e-07 -9.395623e-08 1.0600082e-06 1.8424281e-06 -5.521439e-07 -3.258976e-07
7.041589e-07 -1.0636938e-06 3.170129e-09 1.2631829e-06 -7.276e-08 2.7450733e-07 -8.642422e-08 6.664791e-07
-2.491679e-07 -1.841059e-06 1.1328618e-06 -2.4217538e-06 3.3570876e-07 9.5733114e-08 5.946001e-07 7.822075e-08
-3.9484064e-07 -2.8830186e-07 -6.164832e-07 2.9078072e-07 1.6384264e-06 1.5134583e-07 -7.046649e-07 -1.1995949e-06
4.3561232e-07 1.2873801e-06 1.3372298e-06 1.1348866e-06 2.1406652e-06 -1.03185876e-07 5.507128e-07 -4.6870426e-08
-3.0985518e-07 3.3836596e-07 -2.8254124e-07 -9.1794044e-07 3.1009642e-07 -1.4371658e-06 -2.9652006e-07 1.1568653e-07
1.5775435e-06 -1.4413093e-06 2.2092424e-06 -2.5694237e-06 -9.233318e-07 9.1958924e-07 -1.3338882e-07 -2.5196414e-06
-8.343514e-07 -1.1847385e-06 -4.7791207e-07 -6.609081e-07 -7.4902594e-08 1.7813079e-07 -9.2305504e-07 4.6136947e-08
-2.7646308e-08 -6.744574e-07 -1.9062144e-06 -6.6259685e-07 2.2232398e-06 -7.306353e-07 -1.5160631e-06 1.0570811e-06
2.4370254e-06 -2.230195e-07 7.2088136e-07 -3.3984472e-07 9.2543416e-07 -3.495117e-07 -1.5736733e-06 2.1358542e-07
-1.2133532e-06 5.561901e-07 -7.953844e-07 1.7025195e-07 -2.2697738e-07 -4.6254777e-07 -5.3169197e-07 -1.5206332e-06
8.350925e-08 8.0352686e-07 -1.8714329e-07 -4.0474447e-07 5.3758333e-07 1.4323996e-06 -1.7980607e-06 2.49846e-07

weight_ih_l0 f4 [256, 128]
00000000: cbf7 5fbc 134c 053e 8e05 f73d 13f6 443d
00000010: 8b41 fcbd e788 0e3d 2a13 efbb b637 d63c
00000020: 6980 b13d 5f57 36bc a565 39bd beda 3d3d
00000030: 64a5 383e 0e3d 0f3e d664 b4bd 1636 083e
00000040: 84cf a53e 9d98 5bbd f438 efbd 5510 4b3e
00000050: ba75 bf3d ae66 18be 5c2e 82be b1ac 98bd
00000060: ae6b 38bd 7ba4 7d3d daac 26be 2af1 2e3d
00000070: 6e7b 053d 201c 193e be34 183e 2cc4 c5bd
00000080: a1ae 013d 3127 033e 3d52 413e b908 1c3e
00000090: 2883 a5bd 35e3 2dbe 57af bc3d 1215 40be
000000a0: 5f76 9a3d 6e30 72bd 9183 123e 098a b9bd
000000b0: 17b5 0fbe 2ab3 67be 343a fcbd 6713 7bbe
000000c0: 6e94 44bd fdca 293e e21a 663e a927 bb3d
000000d0: ef33 533c 6191 193e ca62 a63c 1bc7 93bd
000000e0: 54b7 123e c47a 523d 9d83 753e 2525 90be
000000f0: 8cb8 08be 56d3 22be c323 4c3e 8460 31bd
00000100: bf3d 0d3e 8e24 953e 4538 d5bd 9c3d 063d
00000110: 3a32 93bd 6d5e 4cbd eeec d3bc ad2a 92be
00000120: 62a0 47bc 31d4 4dbd d2b1 3dbe 6071 aebd
00000130: 9b51 023d 4c27 04be 0a4e 58be f963 943d
00000140: 2827 373d 3ffa 873e c97e a1bc 2970 0bbe
00000150: 96c2 2e3e 3b80 e33c 7cc1 29be c661 e33c
00000160: 6e88 18be 81f9 593e 62ac b93c 6673 68be
00000170: e5fe f63c d7f1 833d e75b 293e 43c3 8abd
00000180: b6b9 dcbd 56f7 133e 7e15 6cbe 8c9d 0d3e
00000190: b98b 2e3d 2e1d 93bd cf7b 913d e6fe 96bd
000001a0: d46c 16be 2331 273e 0cf5 80be 3898 a33b
000001b0: d66f c1bd 8cb5 2a3d 2a23 eabc 84ee 49bc
000001c0: 7578 47bd a25e 4abe c149 07be a39a 9c3e
000001d0: f55c 933e 8521 6d3d 0750 4e3d 703c 32bd
000001e0: a757 533d 969b 113d 74f2 a3bd 2f17 a4bd
000001f0: a1cc 833e 09e3 323d 0d9e 253d a00a 7a3d
00000200: e975 db3d 3343 56bd e052 e83c 1832 2b3e
00000210: 1e3e a63b cce7 42bd 0379 36be e698 9cbd
00000220: b4b8 ed3c 3a2d adbd f64d 95bd 6923 7c3e
00000230: fac9 0b3e ebb0 1f3e 703e cb3d f3a1 1b3d
00000240: 0692 a93d b47e ea3d 3828 a536 78a7 14bc
00000250: 3195 f9bd ce71 af3c a42c 7d3d 6fc5 3c3c
00000260: 44e5 8cbd 35bd 70bd 464f c63c df2f 38be
00000270: 78b4 7f3d ab75 1e3e 5619 aa3d 0c2e 1f3e
00000280: 12c4 a93d 5ff8 233d 34e8 ed3c 1752 21be
00000290: 7195 913d bd16 babc 88ee 813c 493b 2b3d
000002a0: 89c7 853d 95d5 e2bd 30e9 42bd 941e 20bc
000002b0: 4d70 063d 030c aebd b0f7 b4bd e23c 74bd
000002c0: 95ac 823e a8f9 2e3e ca82 193e 713e a3be
000002d0: 4241 123e 91a3 61bd 5099 14bc 141c 05be
000002e0: 92b9 0d3d 9c2d 1cbd 3c54 f33d 5292 82bd
000002f0: 1b1e b1bc f04d 76bd bd3e d0bc 4e79 6dbd
00000300: dd7e 8fbe db73 533c f4a0 2e3d 161f 93bd
00000310: 18b8 66bd 296d 25bd fc38 673e fe94 a2bd
00000320: 2a69 dc3d 593d c93c 12e1 04be 78e3 e73d
00000330: 3216 5bbc f4be 8e3d 770c 27bc 947a ddbd
00000340: 55aa e33d a71d 1c3e 8122 ee3d 3a80 b1ba
00000350: 4d75 2e3d ea82 093c 8cff aaba beae ad3c
00000360: 4236 b13c 862c 813c 5e45 6b3d 9865 8fba
00000370: d78e 0fbe 80c5 f23d 203d 3c3c c68e f33b
00000380: 5b28 ad3d b9c3 f53c 8c75 ec3c ba21 8dbd
00000390: f6c8 3fbc 80d0 27be cfdf 343d 1a17 e53d
000003a0: f06d b5bd f203 d03d d53b fdba 3601 b03d
000003b0: 105d ce3d 40f3 7d3d 8510 cfbd 87ca d4bd
000003c0: ea5a 59bd 2504 eabd 3253 a33c b216 0a3d
000003d0: 9197 1e3b 1aa6 473b 031b 15be c125 23bd
000003e0: 6231 e93d 597e c4bd e108 d1bc fa51 c63d
000003f0: 4fdb da3d 9921 f7bd e167 933d c24c 95bc
-0.013669918 0.13017301 0.12061606 0.048086237 -0.12317189 0.03479853 -0.0072959857 0.026149612
0.086670704 -0.011129229 -0.04526295 0.046351187 0.18031842 0.13988134 -0.088082954 0.13301882
0.32384884 -0.05361234 -0.11680785 0.19830449 0.093486264 -0.14882919 -0.25425994 -0.07454813
-0.045024566 0.06192444 -0.16276875 0.04271046 0.032588415 0.14952135 0.1486387 -0.096565574
0.03166068 0.12807919 0.18879028 0.15237702 -0.08081657 -0.16981204 0.09213131 -0.18758038
0.07542109 -0.059128217 0.14308001 -0.09059531 -0.14033924 -0.2262694 -0.12315789 -0.2451912
-0.047993116 0.1658134 0.22471192 0.09138424 0.0128908 0.14996864 0.020310778 -0.07215711
0.14327747 0.05138661 0.23975988 -0.2815334 -0.13351649 -0.15900931 0.19935517 -0.043304935
0.13793086 0.29129452 -0.10411123 0.0327736 -0.07187314 -0.04989474 -0.025869813 -0.28548184
-0.012184234 -0.05025119 -0.18524864 -0.08517718 0.031816106 -0.12905616 -0.2112352 0.07245631
0.044715077 0.2655811 -0.019713776 -0.13617004 0.17066416 0.027771106 -0.16577715 0.027756583
-0.14895794 0.21286584 0.022665206 -0.22700271 0.03015084 0.06442612 0.16538964 -0.067755245
-0.10777609 0.1444982 -0.23055074 0.1382963 0.04261372 -0.071833 0.07103693 -0.07372837
-0.14689952 0.16327338 -0.25186956 0.004992511 -0.09445159 0.041677043 -0.02858122 -0.012324933
-0.04869886 -0.19762662 -0.13211729 0.30586728 0.28781858 0.057893295 0.05036929 -0.04351467
0.051597264 0.03554877 -0.08005229 -0.080122344 0.25742057 0.04367355 0.040433932 0.06104529
0.10715849 -0.05231018 0.02835983 0.16718328 0.005073323 -0.04758434 -0.178196 -0.076463506
0.029018737 -0.08455892 -0.072902605 0.24622883 0.13651267 0.15594833 0.099240184 0.037996244
0.08279805 0.11449948 4.9220653e-06 -0.009073131 -0.12186659 0.021416571 0.06181015 0.011521681
-0.068796664 -0.058774192 0.024207722 -0.17987011 0.062427968 0.15474574 0.08305614 0.15544909
0.082893506 0.040031787 0.029041387 -0.15753971 0.07108582 -0.02271592 0.01586081 0.041804586
0.06532199 -0.11075894 -0.047585666 -0.009772915 0.032821942 -0.08498385 -0.08836305 -0.059628375
0.25522295 0.17087424 0.14991298 -0.31883577 0.14282706 -0.05508763 -0.009069756 -0.12998992
0.0346008 -0.038129434 0.11881301 -0.06375565 -0.0216208 -0.06013292 -0.025420541 -0.057977013
-0.28026477 0.01290604 0.042633966 -0.071836635 -0.05632791 -0.040387306 0.22580332 -0.07938574
0.10762246 0.024565386 -0.12976483 0.11322683 -0.013371991 0.06970015 -0.010195843 -0.108143955
0.11116473 0.15245686 0.11627675 -0.0013542243 0.042592335 0.008393029 -0.001304613 0.021201488
0.021632317 0.0157683 0.0574392 -0.0010940311 -0.14019333 0.118540764 0.011489183 0.0074327914
0.08454963 0.030000554 0.028864644 -0.068911985 -0.011705628 -0.1638813 0.044158753 0.11186047
-0.088588595 0.101570025 -0.00193202 0.08593981 0.10076344 0.06199956 -0.10110573 -0.103901915
-0.053065218 -0.11426572 0.019937132 0.03371305 0.0024199227 0.0030463994 -0.14561085 -0.039830927
0.11386372 -0.095944114 -0.02551693 0.096836045 0.10686361 -0.12066955 0.07197548 -0.018225078

weight_hh_l0 f4 [256, 64]
00000000: 411b 20b5 a1b5 60b6 7dc2 bc35 2b62 d635
00000010: 4e01 42b4 e860 a3b3 5753 11b5 b088 1433
00000020: 8866 a934 462e fb34 1cc5 86b4 e137 5bb6
00000030: aeb8 aab5 6e01 20b5 62e3 60b6 e4aa 4035
00000040: a99c 0db5 9063 ca35 c9a8 2635 c5ef c935
00000050: 85d7 a7b5 e55d 21b5 58e1 e5b2 5876 c2b3
00000060: aa2c ad35 bef5 5d36 46a8 93b4 049b b735
00000070: b8d0 36b5 48b8 11b6 18b1 1834 fea8 5736
00000080: f22b 02b5 0b68 57b6 900f 6136 0722 41b5
00000090: b0f4 39b3 cc03 0234 321d bc35 4012 9335
000000a0: 208a 6ab5 a04e 92b3 c80b 0f34 5a58 fe33
000000b0: 9058 52b3 f12d aeb5 735e 5db6 6902 3bb6
000000c0: 40e2 0cb3 eeed 17b6 b808 7032 128d 52b5
000000d0: aaf7 8d35 aee9 3ab4 3ab0 5c35 72cd 8533
000000e0: 7ca6 4ab4 decb 7e34 74f5 12b5 d59e 8cb5
000000f0: 38ae a934 28b7 1136 cb6a 05b5 d0e2 0534
00000100: e051 ef33 165b 3db6 9fcb 77b4 a31d dd35
00000110: 28ad d632 77e0 c534 4c13 1bb4 6269 ab35
00000120: fe34 0e35 2a80 25b6 4b56 0035 3301 59b6
00000130: 31c1 8db5 11db 5335 00db 02b2 95c5 a735
00000140: 1813 d034 685e be33 4e38 6034 fcea 08b6
00000150: 9e61 9735 c3a8 3eb6 f814 e833 0a6a 7736
00000160: 17f5 3235 1cff 0eb6 4a05 1e34 cb97 3cb4
00000170: bce5 e435 098d 2a36 fc83 5536 4c20 3fb6
00000180: 0ea2 3635 383a ffb1 9fb2 b8b4 b3c6 ed35
00000190: 3009 78b3 c3ba 86b5 dd94 12b6 04c4 edb5
000001a0: 8c16 a6b5 b25f 5a36 7814 f333 0046 30b3
000001b0: f463 2836 ed5b 2935 d54b 5e36 a5cc 8a35
000001c0: 4705 07b5 ca79 c935 4a28 a134 b808 f934
000001d0: cddb 45b5 2c8d 27b5 64d4 5a36 bef9 c235
000001e0: 4603 8db4 30cd a633 7059 5db4 4754 0e35
000001f0: 9e3b 88b5 c8a8 fc34 5f9c 0535 64af 6b35
00000200: ca48 c7b4 e454 1e35 3853 89b3 c05b f534
00000210: 667b 6135 2c0b 3db5 775a 2c36 0aef 3736
00000220: 8806 60b3 6c2f 9034 4040 d531 a648 d135
00000230: 9226 18b6 c707 3ab4 cc15 f733 2444 ce33
00000240: be89 9ab5 129a c4b5 5866 06b4 db0d 0934
00000250: 3bc3 d334 5926 a0b5 a0e7 1f36 5e10 df33
00000260: 10e1 1eb6 a6a0 1236 b23c c133 f7e5 09b6
00000270: e05c 81b2 4a19 21b5 a4b5 3bb6 74e1 0f36
00000280: 20c1 0534 1815 5935 746d 8e35 666d 8bb4
00000290: 0ee9 5533 6f86 acb5 72a9 b5b4 6fe8 8e33
000002a0: cc78 2936 0235 b735 5e9a 1636 20a7 1f33
000002b0: a1ce 0db6 9e01 2e34 a079 14b5 a8b1 a235
000002c0: 85e1 2736 fc30 fbb3 b40e 8cb5 64bb e235
000002d0: 783d 3f34 79bd e035 f0ea 2536 0766 4b34
000002e0: 4ae0 7eb4 20a4 2036 24de 2335 dc66 e9b5
000002f0: c4a3 2eb3 769a d435 2395 9e35 387b ae33
00000300: 8a8f ddb5 5b78 a9b5 cfdd e333 c901 a9b5
00000310: a468 aeb5 b63b 20b5 3312 3cb6 7c57 7cb5
00000320: 13cb 5eb6 36a6 aab5 7329 91b5 f072 9fb2
00000330: 0189 b3b5 f072 01b5 0696 3636 7b56 55b6
00000340: 97ac 4236 340b 7735 586c ed35 e07a 07b6
00000350: 0ad9 38b6 6b8a 1735 e6ea 6cb6 e71e 4436
00000360: 5b19 7736 fb2c f0b5 390e 9bb3 2c2e 2735
00000370: 9005 b235 fa43 f034 dd24 ad34 bc35 f2b5
00000380: 2ec0 53b4 6ce0 1d36 f4ed 7bb4 32fd 8c35
00000390: 46fb 41b3 d05d 60b3 f97f 2e36 902d 02b6
000003a0: 21b9 1eb5 7bae 4336 cbe7 5936 56c8 4436
000003b0: 5817 3633 b06f 5d34 a4ef a235 e3e1 2c35
000003c0: f216 5535 828d 1eb5 7b78 d9b4 00b3 1a36
000003d0: 6ce6 28b5 9676 1bb5 4c8f 1036 750b 21b6
000003e0: a2a2 bbb5 bf60 3ab5 d767 a134 44ad 5eb5
000003f0: c0e6 bbb2 d7de dbb5 27db 09b6 3f28 8cb5
-5.9644304e-07 -3.3484323e-06 1.4063695e-06 1.5972813e-06 -1.8068133e-07 -7.607906e-08 -5.4137985e-07 3.4583252e-08
3.1553304e-07 4.6786062e-07 -2.510286e-07 -3.2666069e-06 -1.2719736e-06 -5.9606725e-07 -3.3510955e-06 7.177425e-07
-5.2754564e-07 1.5079149e-06 6.2085434e-07 1.5045449e-06 -1.2505194e-06 -6.011381e-07 -2.6761583e-08 -9.0553556e-08
1.2902503e-06 3.3074607e-06 -2.750332e-07 1.3679678e-06 -6.810401e-07 -2.171395e-06 1.422053e-07 3.2135863e-06
-4.849272e-07 -3.2098058e-06 3.3536671e-06 -7.194762e-07 -4.329621e-08 1.2108575e-07 1.4015588e-06 1.0957665e-06
-8.737279e-07 -6.8129566e-08 1.3322199e-07 1.1843868e-07 -4.8974982e-08 -1.2977381e-06 -3.2986543e-06 -2.7866574e-06
-3.2802063e-08 -2.2639247e-06 1.3971821e-08 -7.843638e-07 1.0577398e-06 -1.7407612e-07 8.221283e-07 6.2306654e-08
-1.8873283e-07 2.372976e-07 -5.474642e-07 -1.0477039e-06 3.1605464e-07 2.1713295e-06 -4.9701765e-07 1.2469104e-07
1.1144198e-07 -2.8216214e-06 -2.3077745e-07 1.6474409e-06 2.4991621e-08 3.685743e-07 -1.444252e-07 1.2771163e-06
5.2976236e-07 -2.4661517e-06 4.780929e-07 -3.2336218e-06 -1.0561545e-06 7.892241e-07 -7.616791e-09 1.2499974e-06
3.8756912e-07 8.864737e-08 2.0882109e-07 -2.0402358e-06 1.1278787e-06 -2.8410439e-06 1.0807156e-07 3.686759e-06
6.666682e-07 -2.1308142e-06 1.4716821e-07 -1.7564086e-07 1.7054185e-06 2.5414067e-06 3.1816298e-06 -2.8480017e-06
6.8036104e-07 -7.4280955e-09 -3.4402635e-07 1.7715705e-06 -5.7750356e-08 -1.0038133e-06 -2.1842345e-06 -1.7714924e-06
-1.2374526e-06 3.2540233e-06 1.13192925e-07 -4.1041858e-08 2.5092131e-06 6.3091176e-07 3.3124718e-06 1.0341361e-06
-5.02991e-07 1.5011112e-06 3.00179e-07 4.6386208e-07 -7.370807e-07 -6.241778e-07 3.260816e-06 1.4526811e-06
-2.6265678e-07 7.767301e-08 -2.0614766e-07 5.302176e-07 -1.015014e-06 4.7061462e-07 4.977391e-07 8.779955e-07
-3.71196e-07 5.898312e-07 -6.394697e-08 4.5701563e-07 8.39986e-07 -7.0424244e-07 2.5682655e-06 2.7408264e-06
-5.2160004e-08 2.6856594e-07 6.2064203e-09 1.5592857e-06 -2.2672216e-06 -1.7325429e-07 1.15057986e-07 9.605017e-08
-1.1513982e-06 -1.4647978e-06 -1.2516955e-07 1.276416e-07 3.9443862e-07 -1.193209e-06 2.382767e-06 1.0387224e-07
-2.3674838e-06 2.1849205e-06 8.998303e-08 -2.0548448e-06 -1.5059811e-08 -6.0013974e-07 -2.79709e-06 2.1439891e-06
1.2456849e-07 8.0869495e-07 1.061168e-06 -2.5970365e-07 4.980489e-08 -1.2854124e-06 -3.3837165e-07 6.65467e-08
2.5253275e-06 1.364999e-06 2.2441595e-06 3.717207e-08 -2.113091e-06 1.6205601e-07 -5.5311284e-07 1.2121645e-06
2.5016209e-06 -1.16970085e-07 -1.0435092e-06 1.689285e-06 1.7810623e-07 1.6744444e-06 2.4723668e-06 1.8942966e-07
-2.3737189e-07 2.3937391e-06 6.104549e-07 -1.7389789e-06 -4.0661476e-08 1.5840185e-06 1.1815322e-06 8.12492e-08
-1.6507558e-06 -1.2626509e-06 1.0610858e-07 -1.2592001e-06 -1.2994465e-06 -5.9691536e-07 -2.8024776e-06 -9.400462e-07
-3.3198783e-06 -1.2714361e-06 -1.0815405e-06 -1.8562304e-08 -1.3376413e-06 -4.82235e-07 2.7207439e-06 -3.1789812e-06
2.9008713e-06 9.2030973e-07 1.7689408e-06 -2.018809e-06 -2.754447e-06 5.645331e-07 -3.530347e-06 2.9224263e-06
3.6820627e-06 -1.7894484e-06 -7.220337e-08 6.2279537e-07 1.3263652e-06 4.4752943e-07 3.2250583e-07 -1.8046044e-06
-1.9720821e-07 2.3525454e-06 -2.3462763e-07 1.0504502e-06 -4.5164846e-08 -5.2239386e-08 2.600251e-06 -1.939803e-06
-5.9128985e-07 2.9158825e-06 3.247044e-06 2.9322887e-06 4.2396408e-08 2.062286e-07 1.2139685e-06 6.44037e-07
7.9382073e-07 -5.906551e-07 -4.050706e-07 2.305198e-06 -6.2920185e-07 -5.7914565e-07 2.1541082e-06 -2.3997538e-06
-1.3979918e-06 -6.9431184e-07 3.006414e-07 -8.295358e-07 -2.1874598e-08 -1.6381626e-06 -2.0542154e-06 -1.0442526e-06

bias_ih_l0 f4 [256]
00000000: 24c0 c1bd eb81 acbd 2eb0 8ebd a522 2dbd
00000010: 3766 f23b 608d f7bd 18be 613d 3f47 ea3d
00000020: b86f 8e3d d3d8 4f3d 2202 f1bd b168 15bc
00000030: e06d b1bc 836d e53c 77fa 96bc bcfd 3f3e
00000040: 3955 53bd 3746 edbd bb1b a4bd c590 ecbd
00000050: 3cfc 2bbe 688e 4ebe 52a1 11be 933c 86bd
00000060: f377 9ebd fde3 69be 03b5 0cbe ee62 3ebd
00000070: d48f 6abe 7dc3 51be 6e39 36be 9be9 053d
00000080: d0e5 7bbe a84f 3dbd c864 59be c56d 79bc
00000090: d0db 93be ba55 65be 45b7 c2bd c337 23be
000000a0: 60a9 63be ec16 55be b74d f0bd 38e7 fabd
000000b0: 1b3d c2bc 45e4 29be 9f1a 933d 7c4d a0bd
000000c0: 16af 5abd 1b1a 33be 1378 0cbe 048e 2bbd
000000d0: 4e0d 033e f6ba a9be b464 aa3d e03c ecbc
000000e0: 7c55 92be 12f9 ec3c ee0f 70be 095d 133e
000000f0: 9a62 1cbe 9c1b 89bd bca3 97bd 2e49 29bd
00000100: 03dc 11b6 c035 d7b5 73bd 11b6 ac13 1bb5
00000110: ae1b 40b5 2a74 9eb5 34d8 5a35 ca24 bcb4
00000120: 6e8e 5eb5 7672 9934 002e aa32 5f1c 95b5
00000130: a0c2 12b6 5478 9e32 12c0 0336 9ab5 9c33
00000140: e848 c033 279e 1ab6 18e2 cd33 c71c 2b35
00000150: 90ed db35 c00c e633 eb47 0eb4 7fa6 00b6
00000160: 3ad0 4a36 74ec a635 159b d1b5 f50d 6936
00000170: c2bc cd35 e023 58b2 6885 a233 8345 f0b5
00000180: 98df 2735 f161 d7b4 5dcf 9835 3e8c ecb5
00000190: 6773 9db4 d0ff 7035 0081 c0b4 aabe b734
000001a0: fab6 55b5 1aab 6eb5 a309 06b5 ae54 87b5
000001b0: 9ce2 eeb4 50ad 1435 50f6 b733 52e9 c0b4
000001c0: ef74 a4b5 cedc 17b6 7bf2 60b6 f995 3b36
000001d0: da89 42b5 caec a0b5 acad 48b5 33f0 3db5
000001e0: 34dc 2eb3 ba64 0836 f40a 74b4 ee4d beb4
000001f0: 51c9 0735 80af 2e34 f651 e635 b3ff ebb4
00000200: 3785 d7bd 8a3e e23d 2ed4 4e3c 6cf3 0abe
00000210: 4ac0 c13d efc4 f33b 3d19 b03d 1726 383d
00000220: 2b02 b33d 3da2 bfbd c155 a7bd e3f7 ddbd
00000230: 8515 ae3d 2e3e d63d 2e12 3b3d 779e c4bd
00000240: ca4d 913a 352d 6cbd 4d30 02bd 8cf3 a7bb
00000250: 48f5 c23d 08ff debd b125 993d 3c1a 0bbe
00000260: d337 373c 5d22 973d 3c5b 0e3e 562c 08bd
00000270: e88f 803c 1042 68bd 8172 033d 90a9 783d
00000280: e06e 9ab7 3529 513c 4da5 d73d ab52 0e3d
00000290: 2f12 483c 9003 2a3d 6ed1 0b3e 6191 09be
000002a0: c55d 4dbd 6028 de3d bb99 dfbd 7927 193b
000002b0: 6d64 383e 294a d03d 8de1 40be 0d42 093c
000002c0: 1371 f3bd 0f9a e5bc bd42 cabd 5280 e1bd
000002d0: b306 d43d 539d 9e3d 46c2 0ebe f0bc 10bd
000002e0: 4807 103d f26b 8cbb 6459 f23d 1b14 89bd
000002f0: f40d e63c 821b 1e3e dfbc 3b3e 164e 833d
00000300: 9c8d c1bd 94c4 37bd 2bf8 08bd 131a 4e3d
00000310: 763f 8a3d f6fe 85be 4353 563d 1998 cbbd
00000320: 3e02 81bd ee57 55bd d31b f03b bdc1 30bd
00000330: 928e 60bd 2afb 56bc d0b3 e6bd 50e2 973d
00000340: 038a 12be d4e4 e3bc 015a 05be c5cb 46be
00000350: 4181 a2be 39a5 7cbe 5bc2 40be be83 b9bd
00000360: 02d8 0dbe 4fe8 b2bd 9c24 30be 95b6 1e3c
00000370: aa38 78be 4ae6 00be e783 23be a946 66bb
00000380: 328a 26be 9442 c93a 2f43 89bd 0e12 0ebe
00000390: 12fd bcbe b903 85be b84b 5e3c d8ef 753c
000003a0: 3174 a4bd 3bc9 4dbe a10b 413c d03d 4cbd
000003b0: 02b7 c1bd 6a18 a9be c84f 02be 3784 e33c
000003c0: c9c5 94bc 97c9 80be d9ec dfbd c7b6 92bd
000003d0: def6 b3bd 7e12 a9be f8b1 8bbc af47 033e
000003e0: ddc6 5ebe dcff 31be d5a4 6ebe 3141 8a3c
000003f0: e797 94bd 3c3b 21be a2e3 c93d 127e 2bbd
-0.09460476 -0.084232174 -0.06967197 -0.042269368 0.007397439 -0.12087512 0.05511293 0.1143937
0.069549024 0.05074389 -0.11767985 -0.009119199 -0.021658838 0.02800632 -0.018429978 0.18749136
-0.051594947 -0.11585658 -0.08013102 -0.1155105 -0.16795439 -0.20171511 -0.14221695 -0.06554522
-0.07737722 -0.22840877 -0.13740925 -0.046481065 -0.22906429 -0.20484729 -0.17795345 0.032693487
-0.24599385 -0.046218544 -0.21229851 -0.015223925 -0.2887864 -0.22395983 -0.09507612 -0.1593924
-0.2223258 -0.20809525 -0.11733573 -0.12251133 -0.023710778 -0.16590984 0.07182812 -0.07827279
-0.05338963 -0.17490427 -0.1371768 -0.041883484 0.12798044 -0.33150452 0.08319989 -0.028837621
-0.28580844 0.02892736 -0.23443577 0.14390959 -0.15271989 -0.06694719 -0.07404277 -0.041329555
-2.1734747e-06 -1.6034392e-06 -2.1716958e-06 -5.7770626e-07 -7.1565853e-07 -1.1805726e-06 8.1525945e-07 -3.5044496e-07
-8.2908707e-07 2.8581752e-07 1.9811523e-08 -1.1109622e-06 -2.1868982e-06 1.844834e-08 1.963232e-06 7.297349e-08
8.953958e-08 -2.3039845e-06 9.5871826e-08 6.374434e-07 1.6385911e-06 1.0712529e-07 -1.3250944e-07 -1.91704e-06
3.022155e-06 1.2436781e-06 -1.5616848e-06 3.472783e-06 1.5328626e-06 -1.2581012e-08 7.567979e-08 -1.7901624e-06
6.253772e-07 -4.0118132e-07 1.1385233e-06 -1.7624186e-06 -2.9327495e-07 8.9779223e-07 -3.5856647e-07 3.4225133e-07
-7.961495e-07 -8.8910895e-07 -4.9932913e-07 -1.0082929e-06 -4.4495835e-07 5.53865e-07 8.5664055e-08 -3.593255e-07
-1.2252984e-06 -2.2629279e-06 -3.3519743e-06 2.7952467e-06 -7.247123e-07 -1.1989844e-06 -7.475853e-07 -7.075752e-07
-4.0712806e-08 2.032421e-06 -2.2728256e-07 -3.544696e-07 5.0584373e-07 1.626886e-07 1.7160189e-06 -4.3958207e-07
-0.105234556 0.11047085 0.01262383 -0.1356942 0.09460504 0.007439248 0.08598564 0.0449582
0.08740648 -0.09357116 -0.08170653 -0.10838296 0.08500198 0.104610786 0.045671634 -0.09600537
0.0011085805 -0.0576603 -0.031784344 -0.0051254686 0.0951944 -0.10888487 0.07477892 -0.13584226
0.011182743 0.07379601 0.1390199 -0.033245407 0.01569362 -0.056703627 0.03209162 0.060708582
-1.840986e-05 0.012766172 0.105295755 0.034746807 0.012211367 0.041507304 0.1365411 -0.13434364
-0.050138254 0.10847545 -0.10917994 0.0023369475 0.1800706 0.10170395 -0.18836041 0.008377564
-0.118868016 -0.028027562 -0.098760106 -0.11010803 0.1035284 0.07744851 -0.13941297 -0.035336435
0.035163194 -0.004285329 0.11833456 -0.06693288 0.028082825 0.15440181 0.18333767 0.06411378
-0.09450838 -0.044865206 -0.033439796 0.050317835 0.067503855 -0.26171082 0.0523255 -0.0994112
-0.06299256 -0.05208581 0.0073275357 -0.043153513 -0.054823466 -0.013121406 -0.11264765 0.074162126
-0.1431046 -0.027819075 -0.13022615 -0.1941367 -0.31739238 -0.24672402 -0.1882414 -0.09058331
-0.13851932 -0.087357156 -0.17201465 0.009687086 -0.24240366 -0.12587848 -0.15968286 -0.0035137332
-0.16263655 0.0015354925 -0.067022674 -0.13874075 -0.36911827 -0.25979403 0.013567857 0.0150107965
-0.08029974 -0.20096295 0.011782558 -0.049863636 -0.09458734 -0.3302644 -0.12725747 0.027773006
-0.018160718 -0.251538 -0.10933847 -0.07163768 -0.087873206 -0.3302192 -0.017052636 0.12820314
-0.21755548 -0.17382759 -0.23305066 0.016876789 -0.072555356 -0.15745252 0.09857871 -0.041868277
