Comparative_Evaluation/Baselines/LSTM/models_u/model80.pt (torch, 499143 bytes, 10 tensors)

weight_ih_l0 f4 [512, 10]
000000 e3 c6 77 bd 15 73 8c ba d9 b3 eb bb 43 dd c0 bc
       -0.060492408 -0.001071545 -0.0071930704 -0.023543006
000010 f3 ee 75 bc 0b 59 ae 3d 81 98 e4 3d fa fe 30 3c
       -0.015010583 0.08513077 0.111619 0.010802979
000020 39 5b b0 3d fa 54 cb 3d d7 6f 68 bd 96 20 ba 3d
       0.08611149 0.09928317 -0.056747284 0.090882465
000030 8a 0a 47 3d 66 99 9b 3d 9a 9a 3b 3d f1 1b 2e 3d
       0.048594035 0.07597618 0.045801736 0.042507116
000040 fd cb ba bc 98 0a 07 bd c7 1b f5 3c 39 3f 79 3d
       -0.022802347 -0.032969087 0.029920472 0.06085131
000050 7f b1 6f bc 42 8b 7f bd 82 ed 14 3c 05 1b 3b bd
       -0.014629721 -0.062388666 0.009089829 -0.045680065
000060 f3 04 44 bd a4 be 42 bd 3c c1 49 bd 52 2e cf bd
       -0.047856282 -0.04754509 -0.04925655 -0.10116257
000070 5d 4a 8a bd 24 68 78 bd 38 ed 30 bb 6b 95 eb 3c
       -0.06752465 -0.06064619 -0.0026996862 0.028757771
000080 de 0d 8e 3d 83 0d 52 bc aa a6 95 3c d8 d1 a8 3d
       0.06936239 -0.012820604 0.018267948 0.082431495
000090 d2 b2 92 bc 4a 84 68 3a 68 13 3d bd b2 fa ba 3c
       -0.017907534 0.000886981 -0.046161085 0.022824619
0000a0 03 ac 64 3c 7c a0 e0 3d 95 0b 0a 3e e8 05 26 3c
       0.013957026 0.1096811 0.1348098 0.010133244
0000b0 e6 fc 1c 3e e3 db e0 3c 81 2a 8e 3d ad 47 0d 3e
       0.15330848 0.0274486 0.06941701 0.13796873
0000c0 76 fb 27 3d 13 58 25 3e 29 ce 45 3d fb cb cc 3d
       0.041011296 0.16146879 0.048292313 0.09999844
0000d0 77 6f d0 3d 82 09 3a 3c de c4 84 3c c1 6f 99 3c
       0.1017751 0.011354806 0.016207155 0.018730046
0000e0 43 4d f0 3d be 93 02 bc ed f5 6d 3d fb bf 23 3e
       0.117334865 -0.007969795 0.05809586 0.15991203
0000f0 20 67 ac 3c ac d5 44 3d 39 e7 93 3c 42 ce b1 bd
       0.021045268 0.048055336 0.018054591 -0.08681919
000100 24 c6 8c bd 8e 31 29 3d 36 3e 59 bd 2c 04 b6 3d
       -0.0687373 0.041307025 -0.053037845 0.088875145
000110 fc e5 8b bd b1 f7 89 bc f0 92 94 3d d3 8e b9 3d
       -0.068309754 -0.016841741 0.072545886 0.09060445
000120 ea 91 a6 3c fb 32 01 3d 99 a4 12 3e ea 35 aa 3d
       0.02033325 0.03154276 0.14320602 0.083110645
000130 6b d9 9f 3d ce ee eb 3d 1c 25 5e bc 1d 0d 1f 3d
       0.07805141 0.11520158 -0.013558652 0.038830865
000140 ba 57 4c 3c 39 08 ba 3c db 64 97 bd 60 38 c0 3b
       0.0124720875 0.022708999 -0.073922835 0.0058660954
000150 ca e1 24 bc 03 72 b0 bd 6f 38 9b bd 5c c3 d5 bc
       -0.010063598 -0.08615496 -0.07579123 -0.026094131
000160 b1 b6 2a 3d 83 18 a3 3d 4f 56 bc 3d 20 25 4e 3d
       0.041678134 0.079636596 0.091961496 0.050328374
000170 d4 5b b0 3c 4c b9 2c 3e c6 46 27 3e 67 71 12 3d
       0.021528162 0.1686756 0.16335592 0.03575268
000180 1f 45 ba 3d 48 b1 f8 3d 4c 70 a1 3d fc d2 2e 3e
       0.09095215 0.12143189 0.07882747 0.17072672
000190 23 cd 60 3d ab c4 99 3c 01 cc 09 3d 42 59 49 3d
       0.054883134 0.018770536 0.03364182 0.04915739
0001a0 af 6a b8 bc f3 0e e4 3d 42 c7 c7 3b 85 f5 5b 3c
       -0.022511808 0.11135664 0.0060967514 0.013425236
0001b0 ea 8b ef 3c 4d 53 50 3c 7f e4 97 3d 48 b4 d1 3b
       0.02924152 0.012715173 0.07416629 0.006399665
0001c0 e2 17 9e 3d ad 81 44 3d 33 01 31 bd 4e 5b b1 3d
       0.07719399 0.04797523 -0.043214034 0.08659993
0001d0 f2 f5 d9 bb 80 cc b7 3d 30 2a bf 3d 45 66 da 3d
       -0.0066516334 0.08974552 0.093342185 0.106640376
0001e0 d9 91 53 3d b3 f6 7a bd 46 4c 44 bd ce ed 90 bd
       0.051652763 -0.061270427 -0.047924303 -0.07076608
0001f0 77 61 8a bd 39 08 90 3d 66 14 cf 3c fb e6 00 bd
       -0.06756871 0.07032818 0.025278281 -0.03147028
000200 13 bd 29 bd 6a 24 1c 3d 4d ee 69 bd d9 3d 04 3e
       -0.04144008 0.038120665 -0.057112027 0.12914218
000210 be da 7c 3d 26 7f 00 3e ca 2d bb 3d 54 ca 4a 3d
       0.061732046 0.12548503 0.09139593 0.04950936
000220 3a df 96 3d d2 d2 1b 3e 9e e5 36 3d 02 08 89 3d
       0.07366796 0.1521714 0.044652574 0.066909805
000230 12 f3 c0 3d ee 88 03 3d fb 81 03 bc ad 83 6c bd
       0.09421362 0.03211301 -0.008026595 -0.057742763
000240 67 ff 67 bd bf 48 a9 3d a2 56 e0 bc bf d5 31 3d
       -0.056640055 0.08265828 -0.02738506 0.043416735
000250 30 84 fc bc c7 ee 7b 3d b5 56 85 bc b9 36 9d 3d
       -0.03082475 0.061507013 -0.016276697 0.07676453
000260 a7 3b c1 3d b8 6d ab bc 35 63 b5 3d 12 72 d4 3d
       0.09435206 -0.020926341 0.08856813 0.1037332
000270 41 a1 7f bc 83 d4 55 3c f3 cd b6 bb da f2 88 3c
       -0.015602411 0.013051155 -0.0055787503 0.016717363
000280 26 26 bb bc 1e a4 c1 bd 27 26 4f bd 30 5c a6 3d
       -0.022845339 -0.09455131 -0.050573494 0.08123052
000290 b5 82 4c bc 48 ee 16 3d 6a 30 c2 3c 0a 66 6f bd
       -0.012482335 0.036848336 0.023704726 -0.05844692
0002a0 0d 5a 97 bd 81 78 51 bd f3 89 45 3e 8f 43 5f 3d
       -0.07390223 -0.051140312 0.19290905 0.05450779
0002b0 a4 c4 24 3e 30 c1 46 3b 92 6e 29 3d 43 15 d7 3d
       0.16090637 0.003032755 0.041365214 0.10502102
0002c0 f9 94 ea 3d 4f 48 67 3d 75 52 d8 3d 96 0b c9 bc
       0.114541955 0.056465443 0.105626024 -0.024541657
0002d0 04 e0 6e bd ff f1 40 3d 4e d4 c8 bc 3c 63 19 3d
       -0.058319107 0.047105785 -0.024515297 0.037448153
0002e0 da 4b 5a bc 3f e0 a5 3c 09 a5 bb 3d 05 33 b6 3c
       -0.0133237485 0.02024853 0.09162337 0.022241125
0002f0 4f 60 49 3d ad 52 5b bc 0d 89 01 be 62 45 0d bc
       0.049164113 -0.013386411 -0.12649937 -0.008622499
000300 3f cb e7 3c f2 8d fc bc 48 c8 ed 3c 1c 1e 2c 3d
       0.028295157 -0.030829404 0.029026166 0.042020902
000310 ab 17 0b 3e 73 2f bc 3c 5c fb d4 3d 78 41 81 3d
       0.13583247 0.022971844 0.103995055 0.06311315
000320 bf 3d d3 ba f8 d0 9d 3d 22 e4 63 bd 2e 34 1f 3a
       -0.0016116424 0.07705873 -0.055637486 0.0006073144
000330 0d 25 18 bd 5c be a0 bc a8 58 d3 3d 34 7a d1 3d
       -0.03714471 -0.01962202 0.10319644 0.102283865
000340 d7 0e 85 3d 8b bc b1 3d e4 56 d8 3d fd 15 73 3d
       0.06496971 0.0867854 0.10563448 0.05934714
000350 e1 80 aa 3d e0 c2 54 bb cc b7 c9 bb 10 4f 80 bc
       0.08325363 -0.0032464787 -0.0061559435 -0.0156627
000360 fd 9e 95 3d 8d 45 c8 3d 1c 99 67 3c d5 a0 a5 3b
       0.07305715 0.09778891 0.014135625 0.005054573
000370 93 ca a3 bd b7 a8 21 3d 1d f4 a1 bd 17 78 0b bd
       -0.07997622 0.03946754 -0.07907889 -0.034050073
000380 a1 c1 03 bd f0 63 3f 3c a3 79 d6 bc 0d bb 26 bd
       -0.03216708 0.011681542 -0.026181048 -0.04070573
000390 3a 5a 99 3d 3e a7 05 3e 8c 96 4c bd 64 4b 83 3d
       0.074879125 0.13052079 -0.04994826 0.06410864
0003a0 0e 78 fc 3a 75 24 a5 3d 2f 76 e0 bc 77 c1 05 3e
       0.0019261853 0.08063594 -0.027400104 0.13062082
0003b0 dc 40 04 3e ae 25 b3 3c 1e 92 85 3d 30 d7 a5 3d
       0.12915367 0.021868553 0.0652201 0.080976844
0003c0 24 e8 c1 3d f4 03 1c bd 78 0b 06 3e 12 b2 9e bb
       0.094681054 -0.038089707 0.13090312 -0.004843005
0003d0 b8 47 20 3d 26 fa 6f 3d f6 09 1b 3e a4 bd 91 3d
       0.039130896 0.05858817 0.15140519 0.07116249
0003e0 1e 2a 1d 3e 47 21 c1 3d 29 61 d2 bd 41 bb c0 bc
       0.15348098 0.09430175 -0.10272438 -0.02352679
0003f0 be fc 37 3d 76 16 46 3d b1 5d 86 3d 91 62 a0 3d
       0.044918768 0.048361264 0.06560839 0.078313

weight_hh_l0 f4 [512, 128]
000000 da 2f 22 bc 0f ec 0c bc 5f 2e 93 3b a1 df 53 3a
       -0.009899104 -0.008601203 0.004491612 0.00080823345
000010 72 6e 19 bc 40 26 e9 39 b3 23 22 bc 8b bf 5e bb
       -0.009364711 0.00044469722 -0.009896207 -0.003398868
000020 ba 6b 48 3a 7a 58 b5 3b 98 85 21 bc 78 d2 49 3a
       0.0007645447 0.005534229 -0.009858511 0.0007698904
000030 9e c3 47 3c a9 21 0e 3c 39 38 1b 3c 03 51 83 bb
       0.012192635 0.008675017 0.009473854 -0.00400746
000040 80 82 fd b6 32 b0 41 bb 89 49 f4 3a 9a 04 f1 3b
       -7.5551798e-06 -0.0029554483 0.0018637638 0.007355285
000050 ac ff 8c bb 05 fc 0e bb 98 89 94 39 35 82 4a bb
       -0.0043029394 -0.0021817696 0.00028331275 -0.0030900363
000060 c3 3d f2 bb fc 95 ce bb 35 05 0b 3c 5e bc fa 39
       -0.0073926165 -0.0063045006 0.008485128 0.0004782406
000070 58 9b 21 3c 06 78 8f bb 2c 5d 0b 3a 94 67 0d 3c
       0.009863697 -0.0043783216 0.0005316313 0.008630652
000080 72 8c 4b bb 84 a4 de ba 5d 0a 22 bc 8a 01 fb bb
       -0.0031059054 -0.0016986285 -0.009890166 -0.0076600956
000090 ca d6 00 3c 95 21 88 bb 32 7a b4 bb 75 ac 87 3b
       0.00786371 -0.004154394 -0.005507731 0.0041404315
0000a0 50 01 46 3a 75 c6 8b bb 24 18 21 3c 82 cc 11 bc
       0.0007553296 -0.0042656013 0.009832416 -0.008898856
0000b0 6a 0f 37 3b 49 a0 05 bb 6d c8 95 3b 84 ea bc bb
       0.0027932771 -0.0020389727 0.0045710118 -0.005765261
0000c0 80 24 a9 b7 0e 31 4a bc f2 8e a9 bb 40 91 55 3c
       -2.0163367e-05 -0.012340797 -0.005174511 0.013035119
0000d0 40 fb d4 38 7c 75 7d 3a 4a 06 f1 bb 45 da 20 3c
       0.00010155747 0.00096686906 -0.007355486 0.0098176645
0000e0 3c 11 db 39 bc 22 32 3a a1 83 17 3c ac 21 97 3b
       0.00041783776 0.0006795337 0.009247691 0.0046121683
0000f0 2e ae 9c ba 26 f2 21 bb 6d 5e 42 3b a0 47 4d 3a
       -0.0011953765 -0.0024710982 0.0029658333 0.00078308024
000100 ff 89 ea bb 24 a2 de bb 7c 15 81 3a f1 8e 08 3c
       -0.0071575637 -0.006794231 0.0009848322 0.008334861
000110 10 a0 a8 3b 6a 62 c6 3a 4c c1 e8 ba 7e 3a f4 b8
       0.005146034 0.0015135531 -0.0017757802 -0.00011645722
000120 25 11 95 bb 50 58 49 3b e0 ed 5c bc 19 16 20 3c
       -0.004549163 0.0030722804 -0.013484448 0.0097708935
000130 ac b7 b0 ba c4 d1 d3 b9 18 fa 76 bb 3f af 90 3b
       -0.0013482473 -0.00040401344 -0.0037685689 0.004415422
000140 0a 8f 04 ba d4 03 c9 ba b6 3e d0 3a 62 a8 96 bb
       -0.0005056715 -0.0015336224 0.001588783 -0.0045977095
000150 ba ce ea bb 01 44 9b 3b 98 0b 10 3b 26 17 be bb
       -0.007165757 0.0047383313 0.0021979567 -0.0058010994
000160 70 3a 81 3a ef 74 c4 3b 1c ea f5 3b 06 48 06 3b
       0.0009859335 0.005995385 0.0075047147 0.0020489707
000170 90 be 82 3b d0 1b 83 3b fb 5d b6 3b 4e 99 8a bb
       0.003990002 0.0040011182 0.0055654026 -0.004229701
000180 a2 1a d2 3a ee 15 b6 bb 40 30 6f b8 09 cc 19 bc
       0.0016029666 -0.0055568134 -5.7026977e-05 -0.009387025
000190 6c 49 3a 3b d6 bb 20 bc 5e 8e 20 bc e9 82 9a bb
       0.002842511 -0.009810409 -0.009799568 -0.0047153127
0001a0 a7 9c 16 3c 1e 72 a1 3a e0 a3 4c ba 0e 81 22 3c
       0.009192622 0.0012317335 -0.00078064017 0.009918464
0001b0 00 cd f1 bb cb 2d 72 3b 62 d2 13 3a d4 04 21 bb
       -0.007379174 0.0036953564 0.00056389545 -0.0024569528
0001c0 a8 7c 19 bb a0 1e 11 b8 09 e6 ea ba fa 00 af 3a
       -0.0023420248 -3.4599216e-05 -0.0017921339 0.0013351731
0001d0 a0 92 90 3b 41 83 16 bc 81 c2 e6 3b 49 fa f2 3a
       0.0044120103 -0.009186567 0.0070422296 0.0018537726
0001e0 ac 14 1f 3c a8 e5 c7 3b c3 56 8c 3b bc d7 16 bc
       0.009709518 0.006100375 0.0042828037 -0.0092067085
0001f0 e0 ea ad 39 c4 48 e2 3b a0 4a f1 bb db 5c 53 3c
       0.00033172127 0.006905647 -0.0073636323 0.012900556
000200 6e 54 cd ba 38 0d fc ba 73 fa 95 bb fe 83 0a 3c
       -0.0015665421 -0.0019230014 -0.004576975 0.008454321
000210 4f 57 3d bc c2 f3 96 bb 96 3a 7a 3a 4a 58 90 bb
       -0.0115564605 -0.004606695 0.0009545473 -0.004405056
000220 bc 9c 70 ba 69 81 22 3b c9 52 19 3c 13 23 35 3b
       -0.00091786287 0.0024796373 0.009358116 0.0027639314
000230 c0 c0 f9 ba f1 08 d1 bb 16 9f d0 3a 8d a1 c5 bb
       -0.0019054636 -0.0063792397 0.0015916552 -0.0060312212
000240 63 89 14 3c b9 0e 12 3c 40 60 dd b7 c2 d8 b4 ba
       0.009065959 0.008914643 -2.6390073e-05 -0.0013797509
000250 3e 86 db bb de 07 b1 ba 86 67 28 bb a9 45 0b bc
       -0.0066993525 -0.0013506373 -0.002569647 -0.008500495
000260 47 37 55 3c 1a 62 57 bc 56 12 88 3b e8 58 ca 3b
       0.013013667 -0.013145948 0.0041525764 0.006175149
000270 7f 9f 2d bb 22 3b 81 bb 9f 72 45 3c 75 28 22 bc
       -0.0026492772 -0.0039438168 0.012051254 -0.009897341
000280 20 d9 f4 38 e5 93 94 bb f6 87 43 bb b3 0a 43 ba
       0.00011675269 -0.004534232 -0.0029835678 -0.0007440254
000290 1b e2 22 3c 5f 72 cc 3a 00 67 56 3b 33 b8 8b ba
       0.009941603 0.001559805 0.0032715201 -0.0010659754
0002a0 b2 62 05 3c 3d c1 cc ba d4 da cc bb 50 91 0e ba
       0.008141207 -0.0015621554 -0.0062516723 -0.00054385234
0002b0 70 b8 fb ba 25 73 71 bb cf ab e0 ba f4 02 05 3c
       -0.0019204747 -0.0036842313 -0.0017141047 0.00811838
0002c0 7b 03 1d bc d0 67 85 3b 0a ae 20 3c 2d 78 24 3c
       -0.009583349 0.0040712133 0.009807119 0.010038418
0002d0 0d 58 86 ba e0 a7 0d 3a 65 50 ac 3a 7e fe a4 3b
       -0.001024963 0.00054037385 0.0013146518 0.0050352206
0002e0 e0 25 cb bb e9 a5 2d bb a0 01 ce 39 e1 42 1f 3c
       -0.0061995834 -0.0026496595 0.00039292593 0.009720535
0002f0 94 9d 00 ba b8 96 5d 39 10 36 75 bb 46 09 e1 bb
       -0.00049062935 0.0002113235 -0.0037416257 -0.0068675606
000300 40 7b af 3a ee 87 2d 3b 7c 06 e6 ba b4 98 e2 39
       0.0013388172 0.0026478725 -0.001754954 0.00043219852
000310 3e b2 c9 bb ca 01 bd bb f0 53 2d 3b 85 46 57 bc
       -0.0061552813 -0.0057680355 0.0026447736 -0.013139372
000320 1a 66 f2 bb 99 a9 85 bb 25 22 99 3b 14 14 20 b9
       -0.0073974254 -0.0040790555 0.00467326 -0.00015266269
000330 cf 3e 6f ba 4c c3 65 ba bc 38 1d bc 3d 5b b4 3b
       -0.00091264857 -0.0008764758 -0.009596046 0.0055040405
000340 50 2c 0b bb 90 33 d9 38 24 21 6b bb 2a 1f a4 3a
       -0.002123613 0.000103569706 -0.0035877908 0.0012521495
000350 63 a3 9a bb 64 bf 4a 3c 76 ed 21 3c 52 62 e3 ba
       -0.0047191842 0.012374733 0.009883275 -0.0017348027
000360 b4 b0 2f 3a d4 94 d9 3b c6 62 02 3b bd 78 70 3b
       0.0006702051 0.006640056 0.00198953 0.003669306
000370 90 ad 18 bc cd 61 2a bb 0e 6c 1f bc 7a 7c 1d 3b
       -0.009318724 -0.0025998235 -0.009730352 0.0024030493
000380 e9 cb 91 3b 92 3c 20 3c ca 21 af 3a 86 26 a0 ba
       0.004449357 0.009780066 0.001336151 -0.0012218512
000390 5d bd 29 ba 0b 67 22 3c 00 15 82 38 54 91 17 bc
       -0.00064750557 0.009912263 6.2027946e-05 -0.0092509575
0003a0 f2 1c da bb f6 fd c8 3b f0 c4 90 38 a0 45 0c 3c
       -0.0066562826 0.00613379 6.9031375e-05 0.008561522
0003b0 36 ae 1b bc 63 d3 12 3c 1e 71 b5 bb 25 a8 19 3c
       -0.009501984 0.008961531 -0.0055371663 0.009378468
0003c0 99 f3 1f bc 97 cf fc bb e5 53 12 bc fc b9 4c 3b
       -0.009762668 -0.0077151763 -0.008931135 0.0031238785
0003d0 b8 a8 a4 b9 b9 e2 8e 3b 7e 2f 2b ba 59 29 0f bb
       -0.00031406223 0.0043605235 -0.0006530209 -0.0021844713
0003e0 3a 38 75 bb ee 9b 0f bc 54 76 17 bc 30 16 da bb
       -0.0037417547 -0.008765204 -0.00924452 -0.006655477
0003f0 30 14 c6 bb e0 c6 11 bc 65 cc 1a 3c b2 1c 91 bb
       -0.006044887 -0.008897513 0.0094481455 -0.0044284696

bias_ih_l0 f4 [512]
000000 28 9b af bc d6 95 9a bc 87 45 e7 3d 57 9f 53 bd
       -0.021436289 -0.018870275 0.11292558 -0.05166563
000010 2c 76 28 bd 37 ba 21 3d 42 5f 95 3d 6c 38 c5 bd
       -0.041128322 0.03948423 0.072935596 -0.09629902
000020 95 e3 5c bc 22 4c e2 bb 8d df ae bd ae 04 08 be
       -0.013481994 -0.0069060484 -0.08538733 -0.13283035
000030 6e f2 96 bc 70 b9 8b bd 55 65 b5 3c 54 f3 07 bd
       -0.018426146 -0.06822479 0.022143045 -0.03319104
000040 86 c4 a8 3d 3f 05 00 be 37 7d 43 3d ad ac c3 3d
       0.08240609 -0.12502001 0.047726836 0.0955442
000050 15 dc bd bc 1e ef 10 3d 28 f5 b1 bd 4d 8c 3f 3c
       -0.023176232 0.03538429 -0.08689338 0.011691165
000060 69 d5 b0 3c 5d e3 35 ba b2 f7 dc bd 46 ed 9b 3d
       0.021586137 -0.0006938482 -0.10789432 0.07613616
000070 ce d0 be 3d 5e a2 89 3d 90 24 a4 3d 0a 01 f3 bd
       0.0931717 0.06720422 0.08014786 -0.118654326
000080 2f 62 8c 3d 7f 83 80 bd d3 ef fd bd 8d ec 73 bd
       0.068546645 -0.06275081 -0.123992585 -0.059551764
000090 c6 57 d0 bc 97 ac 86 3d a8 81 52 3c 0e b9 72 bd
       -0.025432479 0.06575888 0.012848295 -0.059258513
0000a0 b1 e1 39 bd 8c 74 b4 3d 80 64 08 3c 54 9c 01 3d
       -0.04538125 0.08811292 0.008324742 0.031643227
0000b0 5d c9 1c bd f6 cc c7 bc 21 b3 90 bd c2 68 36 3c
       -0.038277972 -0.024389725 -0.07065416 0.011133375
0000c0 75 4e 0f 3b d9 d3 e9 bd af 3e 07 3d 85 20 c5 bc
       0.0021866832 -0.1141736 0.033018764 -0.024063358
0000d0 a0 54 ce 3d ee 85 b7 bd 86 ac 80 3d 48 d3 60 3d
       0.10074735 -0.08961092 0.06282906 0.054888994
0000e0 fd 31 98 3d e7 73 0e bd b8 ed 5c 3d c0 8d 0e be
       0.074314095 -0.0347785 0.053937644 -0.13921261
0000f0 f8 df 25 bd 02 36 32 3d c4 8a 00 be 63 b1 0e 3d
       -0.040496796 0.043508537 -0.12552935 0.034837138
000100 da e5 f1 bd 49 2c 17 bc 3f fc 5f bd 50 c0 e8 bc
       -0.11811419 -0.009226867 -0.05468392 -0.028412014
000110 9e ee 33 3c af 43 04 bd f8 fc 55 bd eb 95 a1 bd
       0.010982184 -0.03229111 -0.052243203 -0.07889923
000120 1e c1 de 3d 19 14 59 3d f2 92 15 3c 89 5e 18 3d
       0.10876678 0.052997682 0.009129273 0.03719953
000130 61 07 3b bd d4 88 b3 3d 9e 9f 22 3d 4c ac 84 3c
       -0.045661334 0.08766332 0.039703004 0.016195439
000140 8d c5 42 3d 56 1b 84 bd b4 bd cd 3c 20 c1 72 bb
       0.04755168 -0.064505264 0.025114872 -0.003704138
000150 c9 b6 cc 3c d3 e3 86 bd ed 02 e2 bd 75 2a 4d be
       0.024989503 -0.06586423 -0.11035714 -0.20035727
000160 16 a3 a9 bd be a1 6c bd bf 33 a0 3d cc 05 51 bd
       -0.08283059 -0.057771437 0.0782237 -0.05103092
000170 72 7a 27 3b 89 d1 39 3e 84 32 d4 3c fd f7 10 bd
       0.002555516 0.18146338 0.025902994 -0.03539275
000180 d9 a2 3d 3d aa 91 85 3d 8e d6 5d 3c 0f b7 4e 3d
       0.04629788 0.06521924 0.013539923 0.050467547
000190 9b f6 a4 bd 14 94 fb bc 94 9f ab 3d 3e 0b 12 3c
       -0.08054849 -0.030710258 0.083800465 0.008913813
0001a0 21 63 21 bd d5 81 ff bc 63 0e b3 bd 06 74 d4 bd
       -0.039401177 -0.031189838 -0.087429784 -0.10373692
0001b0 d9 40 15 bd 62 c0 e1 3c 01 4d 3d bd 24 89 01 bd
       -0.036438797 0.027557556 -0.046216015 -0.031624928
0001c0 85 64 b6 bd 4e 98 78 3d 4e 65 2e 3d 3d 55 76 bd
       -0.08905891 0.060692124 0.04257708 -0.060139883
0001d0 5f 04 f1 bd 4b b7 88 3c 2d 1a 4d 3d 5a 27 50 bd
       -0.11768412 0.016688963 0.05007379 -0.05081878
0001e0 4c 88 90 3c 94 43 a1 3d 7a c5 ca bc b1 cf 8a 3d
       0.017643116 0.07874218 -0.024752367 0.06777895
0001f0 21 cb 1a bd 82 88 97 bc 9a 19 2d bd 6d ad 28 bd
       -0.037791375 -0.01849771 -0.042260744 -0.041181017
000200 70 3b 18 3c bf 0a b2 bb 3c f0 64 3c c4 d6 e1 b9
       0.009291515 -0.00543341 0.013973292 -0.00043075357
000210 52 9f 19 3c b4 ac 1f bc 7a be 20 3b e0 b7 fb 3a
       0.009376364 -0.0097457655 0.0024527595 0.0019204579
000220 3d 57 51 bc 81 8a bc 3b fa e4 e3 3b 73 53 1d 3c
       -0.012777147 0.0057538156 0.0069547864 0.009602415
000230 8e a1 cf bb 40 6a 7f 3b b4 8f 6b bb 90 16 2a 3a
       -0.0063363975 0.0038973242 -0.0035943808 0.00064883474
000240 20 a6 bc b9 5d a2 5f 3c 0a 5d 5c bc 08 02 f8 bb
       -0.00035981927 0.01364955 -0.013449917 -0.0075686015
000250 4c 3c 92 bb 35 53 18 3c 2c 28 97 3a 12 e1 ed 3a
       -0.0044627544 0.009297182 0.0011532358 0.0018148741
000260 e4 d0 21 3c 77 ce 1c bc 78 83 ae 39 ed cf 21 bc
       0.009876464 -0.009570709 0.00033285818 -0.0098762335
000270 76 b5 26 bb 6a 54 02 bb 93 f6 a9 3b 80 27 da 39
       -0.002543775 -0.001988674 0.0051868646 0.0004160963
000280 74 8e 0a 3c d4 e2 d9 3b 4e 17 89 bb a5 40 80 3b
       0.008456815 0.0066493545 -0.0041836863 0.003913956
000290 aa 5e 0f 3c 6e 52 3e bc 4d 2c 54 3a a0 3a 9e b8
       0.008750597 -0.011616332 0.00080937595 -7.544947e-05
0002a0 aa d6 5f bc e7 13 c0 ba 30 b5 18 3b 19 d2 1b 3c
       -0.01366202 -0.0014654369 0.0023301356 0.00951054
0002b0 43 c4 0f bc de f4 12 3c 9f 85 18 3c df 4a 84 3a
       -0.00877482 0.008969514 0.0093092015 0.0010093114
0002c0 36 9e 81 bb 80 72 1f b9 0a be b5 3b 1f ee 0d 3a
       -0.003955628 -0.00015206076 0.005546336 0.0005414206
0002d0 1c 05 62 bc dd 5f 11 3c 5b 79 0e 3c f9 42 94 ba
       -0.0137951635 0.008872953 0.008695926 -0.0011311463
0002e0 c7 c7 84 bb 78 90 07 b9 40 59 27 bb c0 17 1d b9
       -0.0040521356 -0.00012928422 -0.0025535375 -0.00014981534
0002f0 3e c7 9a bb b3 5f b8 ba d4 8b 29 3b bb 87 b4 3b
       -0.0047234586 -0.0014066607 0.0025870698 0.0055093444
000300 94 aa 39 3b 51 7c 06 bc ff fb 15 3c e3 aa 1f bc
       0.0028330432 -0.00820835 0.009154319 -0.009745332
000310 ec 74 2f 3b c4 54 4e bc 1a 9a 1b 3c 1c 77 1a ba
       0.0026772572 -0.012593452 0.00949719 -0.00058923825
000320 0e 2a 3e bc 3f cd da bb 6f 60 a9 3b 38 5a 5f 3a
       -0.011606706 -0.0066772993 0.0051689665 0.00085202185
000330 be c2 2a 3b 9d 3b 9b 3b a4 2d 13 3a da 01 b9 3b
       0.0026056017 0.004737331 0.0005614406 0.0056459727
000340 cc 80 1b 3b b2 a2 b8 ba 48 75 19 3b 26 96 d7 bb
       0.0023727892 -0.0014086573 0.0023415852 -0.0065791784
000350 b4 6a ce 3b 3f 77 fc 3b e4 75 4d 3a 02 a9 25 3c
       0.006299341 0.007704645 0.00078376965 0.010111095
000360 e9 27 3a bb e8 c7 94 bb 23 80 bb 3b c6 6e 28 bc
       -0.0028405136 -0.0045404322 0.005722062 -0.010280317
000370 be 56 27 3c fa 8e b2 b9 f4 4e 00 bc 14 28 4a ba
       0.010213552 -0.00034057332 -0.007831324 -0.00077116606
000380 2b a6 85 3b 6f db 1d 3c 82 79 0a 3c 5e f7 21 bc
       0.0040786467 0.009634837 0.008451821 -0.009885637
000390 63 ca 19 3c ca c5 a0 39 77 51 18 bc 42 f9 0e bb
       0.009386632 0.00030664942 -0.0092967665 -0.002181605
0003a0 8d 43 11 bc 19 4c 16 3c c6 5a 18 3c 77 6a 05 3c
       -0.008866203 0.0091734165 0.009298986 0.008143059
0003b0 55 78 20 3c 59 63 3a 3a b4 e6 58 3a 0d 2b 03 3b
       0.009794314 0.0007110141 0.00082741235 0.0020014674
0003c0 ea 44 80 3a 5e 4a e4 3a df 70 65 3c 82 61 73 bb
       0.0009786163 0.0017417183 0.014003961 -0.0037136977
0003d0 48 fa 99 3b 9f 7a 64 bc 94 86 fe ba 60 27 d6 39
       0.0046990253 -0.013945251 -0.001941877 0.00040846597
0003e0 05 b5 b1 3a ae 72 87 3b 04 5f 2e 3a 62 14 80 3b
       0.0013557976 0.004133544 0.00066517317 0.00390868
0003f0 cd 57 03 bb 5e 8a 5a 3c d8 59 12 ba 90 1c ee 3a
       -0.0020041347 0.013338653 -0.0005582846 0.0018166471

bias_hh_l0 f4 [512]
000000 c6 60 a4 3d 40 e8 a3 bd 98 e4 8e 3d 3c 61 20 3d
       0.080262706 -0.080032825 0.069771945 0.03915523
000010 f2 e6 c6 bc 93 8e 29 bd 03 58 a4 3d b7 4e d9 bd
       -0.024280045 -0.041395735 0.080245994 -0.10610717
000020 49 9e 5c bd fd f9 ef bc 81 fd e8 bd 74 d9 f8 bd
       -0.05386189 -0.029294008 -0.11376477 -0.12150851
000030 b5 ef 25 bd 4e f5 13 bd f6 32 b5 3d d0 e2 ce 3c
       -0.040511806 -0.036122613 0.08847611 0.025254637
000040 b0 77 8c bd 43 21 e9 bd ae ee b4 3d 2b 01 19 3e
       -0.06858766 -0.11383297 0.08834587 0.14941852
000050 f6 83 0b bd 5a 06 1f 3d 7e 8e b2 3b 41 53 72 bd
       -0.034061395 0.038824417 0.0054491153 -0.05916143
000060 43 22 67 3d c5 31 1f 3d 56 d4 af bc b7 3d 91 bd
       0.05642916 0.038865823 -0.021463554 -0.07091849
000070 f2 b4 15 3d 8e 89 5e 3d ff 9d f3 3d 7c cd 91 bc
       0.036549516 0.0543304 0.1189537 -0.017798178
000080 cc 5d be bd 70 ea b6 bb fe 0c 14 bc 06 8b 29 bd
       -0.09295234 -0.0055821463 -0.009036301 -0.04139235
000090 0e 34 ca bd 3d b5 e7 3b 8d 43 94 bc eb 51 a5 3c
       -0.0987321 0.007071166 -0.018098617 0.020180663
0000a0 5e 17 ab bd 9a a6 ec 3c 96 4a 09 3b 81 e9 8d bc
       -0.08354066 0.028888036 0.0020948998 -0.017323257
0000b0 bd 50 cc bc 5a 48 f0 3c a3 70 40 3d f8 0b 92 bc
       -0.024940843 0.029331375 0.04698242 -0.017827973
0000c0 ac 07 30 3d 32 3a 0e 3d 5b 28 4e bd bb e4 4b bd
       0.042976066 0.034723468 -0.050331455 -0.04977868
0000d0 2e 9d dc 3d 1d 01 5c bd 5e 55 16 bc e6 2c cd 3d
       0.10772167 -0.053712 -0.009175627 0.10018329
0000e0 9e 72 d1 bc 95 7b 41 3c e3 8a f7 3d 2a 64 29 be
       -0.025567349 0.011809249 0.120870374 -0.16542116
0000f0 5b 3a bd bd 72 9c 41 3b 1e 14 26 bd 2c 84 d3 3d
       -0.09239646 0.0029542712 -0.04054653 0.10327944
000100 19 aa 11 be cb 78 3d 3c 97 59 f0 3c a3 3b b7 bc
       -0.14225043 0.011564444 0.029339595 -0.022367304
000110 87 9d ae 3d 0b 30 19 be a7 df f1 bd 34 e4 8a bc
       0.0852614 -0.14959733 -0.118102364 -0.016954519
000120 a0 1f 1d 3c a8 08 00 bd 26 44 b8 bb 36 fa 81 3d
       0.0095900595 -0.031258255 -0.0056233583 0.06346552
000130 41 0d d0 3c 5e 1f 93 3b 46 a3 47 bd cb 2e c5 3c
       0.025396945 0.0044898232 -0.048739694 0.024070164
000140 ee 0e a6 3d 72 e4 bd bd 9c e3 e7 3d 18 f0 28 3d
       0.08108316 -0.09272088 0.1132271 0.041244596
000150 79 f0 d0 bd 83 1c 0c 3d e3 8a 71 3c a4 cc 65 bd
       -0.102021165 0.03420688 0.014742586 -0.056103364
000160 16 c2 a4 bc f3 dc b5 bd e3 f9 11 bc 92 22 67 3d
       -0.020112079 -0.08880033 -0.008909675 0.056429453
000170 fa cc 09 3d 11 50 6d 3e 6c 02 82 3d c8 ad 63 3d
       0.033642747 0.23175074 0.06348118 0.055585653
000180 e9 3a 64 3d 5c 5d 3a 3d d8 77 81 3c 82 e5 28 bc
       0.055720244 0.04549919 0.015804216 -0.010308625
000190 17 34 9f 3d e5 ad 82 bd ae 0b 0f 3d c3 a6 63 bd
       0.07773607 -0.06380824 0.034923248 -0.05557896
0001a0 22 51 df bc 33 36 7a bd a7 64 62 bd 18 87 f1 bc
       -0.027260367 -0.061086845 -0.05527177 -0.029483363
0001b0 50 08 96 3d cf d3 d8 bb f3 68 ed bd 5e 78 01 bd
       0.07325804 -0.0066170464 -0.11592283 -0.03160893
0001c0 dc 35 a1 bd 9c 80 6b bd 9a ed 00 bb 94 97 89 3c
       -0.07871601 -0.0574957 -0.0019672872 0.01679591
0001d0 9e b2 1b be 6d 75 2a 3d 88 33 5b 3c f7 93 c5 bd
       -0.15204856 0.041615892 0.013378985 -0.09647363
0001e0 24 83 07 3a be 8a ac 3c 85 41 e1 bc 2f 49 87 3d
       0.0005169383 0.021062251 -0.027497062 0.066057555
0001f0 80 b0 e4 bd 8f 84 a8 bd 53 4c 11 3c bf 33 f1 bd
       -0.11166477 -0.082284085 0.008868295 -0.11777448
000200 3d 0d 13 bc e0 cc df 3b d6 d5 94 ba 88 fe 6d ba
       -0.008975324 0.006829843 -0.0011355232 -0.00090787606
000210 d6 ef 5e 3c 06 2f 86 bb df e6 1a 3c 3c 71 21 3b
       0.013606986 -0.004094961 0.009454458 0.0024634143
000220 37 d4 01 bb 6a af ad 3b 65 90 aa ba a8 ff 01 bc
       -0.0019810328 0.005300452 -0.0013013004 -0.007934488
000230 7d 0e 79 3b 00 4a 44 38 6e ca 21 bc fe 22 b1 bb
       0.003800302 4.679896e-05 -0.009874923 -0.0054057827
000240 11 86 22 3c d4 9d 26 ba 1e 66 5c bb 1b dd df bb
       0.009919659 -0.00063559157 -0.0033630203 -0.0068317777
000250 f8 b2 d1 3a ec da c9 ba 92 83 99 3b aa e0 ac bb
       0.0015998771 -0.0015400327 0.004684874 -0.0052758055
000260 2e c9 95 3b 93 f6 54 ba 9b 00 3a bc e8 86 0b 3a
       0.0045711016 -0.00081239006 -0.011352683 0.0005322532
000270 02 59 3b 3b a0 df 20 3c fe 04 ec ba 7f 9a 15 3c
       0.0028586988 0.009818941 -0.0018006859 0.009131073
000280 d7 f8 09 bc c8 f2 c9 ba 10 5d e4 ba e1 d9 16 3c
       -0.008421144 -0.0015407437 -0.0017422754 0.00920722
000290 cd 2a 9b 3b 44 92 1e bc a5 d2 d1 3a 2e 5b 81 ba
       0.004735327 -0.009678427 0.0016008212 -0.0009869093
0002a0 ba cc 07 3b 60 9a dc 39 b0 de f2 39 58 89 da bb
       0.0020721392 0.00042076688 0.00046323752 -0.0066692047
0002b0 ee 28 c6 ba de 37 83 ba e5 8b a7 3a 61 28 a5 3b
       -0.0015118399 -0.0010011157 0.0012782781 0.005040214
0002c0 4c cf 03 bc e9 3d 97 3b b0 81 2b bc 9c 08 d7 bb
       -0.008045029 0.0046155346 -0.010467932 -0.0065623056
0002d0 f0 50 41 b9 88 d3 e9 ba 98 28 86 3b a4 73 87 ba
       -0.00018436066 -0.001783953 0.0040941946 -0.0010334146
0002e0 c0 a3 6c ba 10 3a 56 3a 92 bc 11 bb 02 66 b7 bb
       -0.0009027086 0.0008172104 -0.002223764 -0.005596877
0002f0 9d 3b 71 3b 18 cc 60 39 10 21 e1 3b 12 d8 4a bb
       0.0036809214 0.00021438336 0.0068703964 -0.0030951542
000300 e4 46 b1 ba f5 3c b5 bb 78 0a 64 ba 01 c2 81 bb
       -0.0013525155 -0.0055309483 -0.000869907 -0.0039598946
000310 2c 35 5e 3a 18 4b 0a ba d7 ed 99 3b 88 87 26 bb
       0.0008476551 -0.0005275472 0.004697542 -0.0025410373
000320 fe 9f b6 3a 7e 26 2d 3a 9b 76 94 3b 5e 85 87 3b
       0.001393318 0.0006605162 0.0045307404 0.0041357717
000330 f7 a6 1b 3a 9a 16 3b 3b 97 82 e8 bb f0 fa f2 b9
       0.00059376605 0.0028547407 -0.0070956456 -0.000463448
000340 42 2f dc b9 18 93 f2 bb dc fe d3 3a 1b 11 0c bc
       -0.0004199688 -0.007402789 0.0016173976 -0.008549
000350 fb cd 0d bc e6 be 3f 3b ea b8 e3 bb c5 0e b1 ba
       -0.008655067 0.0029258071 -0.0069495337 -0.001350843
000360 bd 85 8d 3a ec de 22 3b f8 9a c2 3b 99 8c 18 3c
       0.0010797303 0.002485211 0.005938884 0.009310865
000370 9f 13 2d 3b ac f9 59 bc 66 3f 87 ba 47 c3 07 bc
       0.00264094 -0.013304155 -0.0010318577 -0.008286304
000380 43 8b 51 bb d0 4e 9a b9 6e b3 0f b9 7e a4 8b 3b
       -0.0031973876 -0.0002943189 -0.00013704385 0.0042615524
000390 a6 40 40 3c 1e bd 49 3c 74 a3 d4 3b 5e b2 37 3b
       0.011734163 0.012313155 0.0064892117 0.00280299
0003a0 d9 dc 85 bb 25 14 2b 3b 6f 37 1d bc 34 f8 20 ba
       -0.004085165 0.0026104536 -0.009595736 -0.0006140501
0003b0 02 61 db bb 82 34 5d bb d6 df fc bb 50 78 de 3b
       -0.006694914 -0.003375322 -0.007717113 0.0067892447
0003c0 70 2a e5 3b ca be 9a 3b b8 4d 51 ba be db 8d 3b
       0.0069935843 0.004722451 -0.0007984298 0.004329174
0003d0 7a 6d 95 ba 10 4c 1f 3c 5d b5 36 bb 60 61 99 bb
       -0.0011400424 0.009722725 -0.0027879097 -0.0046807975
0003e0 f7 b9 b3 3a 25 7f 1c bc a8 d1 d1 3a 34 ba 00 3b
       0.0013712038 -0.009551798 0.0016007917 0.0019642236
0003f0 22 f2 c7 bb 77 fa a9 3b d9 69 17 3a 20 18 99 3b
       -0.0061018625 0.0051873284 0.00057759654 0.0046720654

weight_ih_l0 f4 [256, 128]
000000 7c 4d f2 3d 5e 9d bb bd da 57 0b 3e 08 14 c8 3d
       0.11831185 -0.09160875 0.13607731 0.09769446
000010 62 07 91 3d bc 28 14 3d b1 6b d6 bd 04 fa 86 3c
       0.07081486 0.03617166 -0.10469759 0.016476639
000020 e2 84 f0 3c 55 1b 5a 3d 41 df d6 bb 4a 81 20 bc
       0.029360238 0.053248722 -0.0065573757 -0.00979645
000030 f6 b6 e7 bd a9 f8 70 3d bd 72 82 bc f6 8c 93 bd
       -0.11314194 0.05883089 -0.015923852 -0.072046205
000040 56 3b ce bd 10 ad e4 bd 2a e5 e8 bd ce d8 0f 3e
       -0.10069911 -0.111658216 -0.113718346 0.14047548
000050 e0 33 06 bd fc e7 7e bb 87 75 cc 3d b5 74 b0 3d
       -0.032764316 -0.0038895598 0.09983354 0.0861601
000060 3a 74 d9 bd c4 09 a9 bb c4 1b 55 3d e8 91 ac 3d
       -0.106178716 -0.005158635 0.052028432 0.08426267
000070 a2 d7 30 3d 44 37 83 bd 28 4f 4d bc dc da 99 3d
       0.043174393 -0.064070255 -0.012531079 0.07512447
000080 37 9f 95 3d 96 b4 4e 3d 23 61 9a bd d4 ac 8f 3b
       0.073057584 0.05046519 -0.075380586 0.0043846164
000090 2b 20 38 bd b0 77 21 3b 2a e4 9e bd 43 24 8b 3c
       -0.044952553 0.002463799 -0.077583626 0.016985064
0000a0 e0 cb 82 bd dd c5 b2 bd cb 3d c2 3d ca dc 17 bd
       -0.06386542 -0.08729146 0.09484442 -0.037075795
0000b0 93 f2 5b 3d 3b 7b 9a 3d f4 96 02 bd ec b3 fa bd
       0.053698134 0.075430356 -0.03188224 -0.122413486
0000c0 ee f3 5d bd 83 d7 db bc 4e e4 30 bd 0c 9d 57 bd
       -0.054187708 -0.026836162 -0.04318648 -0.052640006
0000d0 98 d8 73 3d 92 fb af bd a5 86 e3 3c ae 63 04 be
       0.05953273 -0.08592905 0.027774164 -0.1292865
0000e0 fb 6b d9 3d 6d 5b 4c bc c2 47 11 be b7 6a 4b bd
       0.10616299 -0.0124729695 -0.1418753 -0.049662318
0000f0 70 bb cf 3d 48 a8 3f 3d f6 e4 4e bc 8a cc b9 3d
       0.10143173 0.046791345 -0.012627831 0.09072216
000100 9e de 68 bc 4b de 34 3c cc 48 cf 3d ab 4f 09 3d
       -0.014213232 0.011039327 0.10121307 0.033523243
000110 37 5e dd 3d 26 ac 82 3d ba 21 63 3d 75 a7 05 3e
       0.10808986 0.06380491 0.055452086 0.13052161
000120 6b 75 d0 bd 0e 7b 12 bd 76 a9 0a bd f9 69 ec bc
       -0.10178646 -0.035761885 -0.033853017 -0.028859125
000130 e3 39 ce 3d 73 fe 82 bd 02 1d ed bc 8d 08 d4 bc
       0.10069635 -0.063961886 -0.028944496 -0.025882984
000140 09 05 0c 3d b1 a8 1b be 54 42 05 be 4e 6d 8c bd
       0.03418449 -0.1520107 -0.13013583 -0.06856786
000150 6b e4 98 3d dd ad b3 bd 70 a1 04 3d b5 3d b2 3d
       0.07465442 -0.08773396 0.03238052 0.08703176
000160 4c 1e d1 bd bd c0 9c 3d e7 88 f4 3a 3a 62 1a 3c
       -0.10210857 0.076539494 0.0018656523 0.009422833
000170 cb 9c 65 bd f0 11 a1 3d 00 ce f9 bc 3f 50 83 3b
       -0.056057733 0.078647494 -0.030493736 0.004007369
000180 aa 78 e3 3d 84 eb de 3d f3 6c f1 bd c6 bf 81 3b
       0.11106999 0.10884765 -0.117883585 0.0039596288
000190 ad b2 fc 3b e7 18 1f be 47 3d 55 bd f2 5d cf 3d
       0.0077117295 -0.15536843 -0.05206039 0.101253405
0001a0 51 58 47 bd 8f 71 6e bd 49 0c 3c 3d 04 10 ff 3d
       -0.04866821 -0.058213767 0.045910154 0.124542266
0001b0 27 97 79 3d e1 6f c6 3d db da 02 be af 8d 8e bd
       0.060935166 0.09689308 -0.12778799 -0.06960618
0001c0 b4 d7 b6 3c 89 18 b3 3d a0 f8 a2 3d df 5b 2c 3d
       0.022319652 0.08744914 0.07957578 0.042079803
0001d0 6c 4d 1c bd 6c b5 62 bd c6 72 e8 bc 87 d8 24 3d
       -0.038159773 -0.0553488 -0.02837504 0.04024556
0001e0 bd 4d 20 3c 9e be d3 3d e3 9e 9c bc 0e bd 0c be
       0.009784159 0.10339092 -0.019118732 -0.13743994
0001f0 c8 4a e3 3d c1 f0 9c bd 3c 12 af bd 14 48 ea 3d
       0.11098248 -0.07663108 -0.085484 0.11439529
000200 58 9d fa 3c dc 64 c2 3d ee f3 2d 3e d2 ee 0e 3c
       0.030592605 0.09491894 0.16987583 0.008723931
000210 90 6c 6b 3c 3a ba bc 3c 4c 43 00 be 16 9e 0b 3c
       0.014369145 0.023038018 -0.12525672 0.008521577
000220 2b 25 ea 3d ac 4b 30 be d1 68 fb 3d dd f5 0c 3e
       0.114328705 -0.17216367 0.122758515 0.13765664
000230 df 3c b3 3d 23 e1 be bd 18 a9 cb 3d c4 13 f3 3c
       0.087518446 -0.09320285 0.099443614 0.02967251
000240 f2 56 63 bd 58 67 e3 bc 14 e0 f8 3d 1a cd a8 bb
       -0.05550284 -0.02775924 0.121521145 -0.005151403
000250 cd 38 b8 3d 53 e5 5f be 3c bb 58 3d e2 0c 8e bc
       0.08995209 -0.21864824 0.052912936 -0.017340127
000260 2c 46 06 3e b8 93 ca 3c ed 58 8c 3d 06 e2 60 bd
       0.13112706 0.02472864 0.06852899 -0.054903053
000270 d4 12 1a bd b8 5d f8 bd 68 73 6d be c8 68 26 3e
       -0.037615612 -0.121272504 -0.23188555 0.16250908
000280 68 d0 c4 3d 88 e2 7d b9 31 44 df 3d 04 8f 79 ba
       0.09610063 -0.0002421235 0.10901678 -0.0009519907
000290 bf 94 87 3d 69 25 05 bd c5 01 de 3d 5f 9c bf 3d
       0.06620168 -0.03250638 0.10840181 0.09355997
0002a0 7c 44 e5 bd 3b 38 d8 bd ed 8f 80 3d 99 69 35 bd
       -0.11194703 -0.105576 0.06277452 -0.04429016
0002b0 f1 fc 9b bd 7b 2c 24 bd 3e 5e a5 bd 1f 93 96 bd
       -0.07616604 -0.040081482 -0.08074616 -0.0735228
0002c0 4c 3d a4 bd d6 1f e5 3d 1a d4 62 bd 40 5b 66 bd
       -0.08019504 0.11187713 -0.055378057 -0.056239367
0002d0 62 2c 4e bc 65 88 07 bb be c6 8d 3d 09 ec 18 bd
       -0.012583824 -0.0020680663 0.06922673 -0.037334476
0002e0 4c 6f be bd 6f 52 36 bd aa 55 38 bd f1 e7 d6 bd
       -0.09298572 -0.04451221 -0.04500357 -0.10493458
0002f0 e5 55 a1 3d 85 d8 b8 3a 95 3a 1f bd 3d 1b ba bd
       0.07877711 0.0014102614 -0.038874228 -0.090872265
000300 74 7a 40 3d 10 8b a9 bc 00 a7 ad 3d c9 cb 93 3d
       0.04699178 -0.020696193 0.08479118 0.07216603
000310 ac df 50 3d 84 94 1f be c6 3d 9d 3c 19 9b 37 3c
       0.05099456 -0.15583998 0.019194495 0.011206412
000320 88 04 17 3a 80 eb 2f be 16 88 50 3d 26 cc d6 bd
       0.0005760868 -0.1717968 0.05091103 -0.10488157
000330 a0 91 96 bd 36 4c dc 3d 83 f1 4c bd 3f 79 cf 3d
       -0.073519945 0.107567236 -0.05003501 0.10130548
000340 4a df 80 3d 85 d6 f3 bc 11 96 5e 3d 78 d4 5b bd
       0.06292589 -0.029765377 0.054342333 -0.053669423
000350 3f fc 07 be 0a ca c6 bd 53 cd 12 be 37 18 8c bc
       -0.13279818 -0.09706505 -0.14336137 -0.01710139
000360 06 b6 5f 3d 23 a1 f7 bc 34 01 0a 3d 62 35 d5 3d
       0.05461695 -0.030228203 0.033692554 0.104105726
000370 dc 78 03 3d 53 63 ef 3d c0 e8 59 3a b1 46 27 bd
       0.032097682 0.116888665 0.00083125755 -0.0408389
000380 63 9b dd 3d ca 63 20 bd 9b 48 25 3e e2 d0 f5 bd
       0.10820653 -0.039157666 0.16140978 -0.12002732
000390 a8 91 08 3d d1 82 97 3d 02 73 de bc 42 bf 75 ba
       0.033342034 0.07397998 -0.02715445 -0.0009374508
0003a0 fa ad f1 bc f9 13 96 bd 70 61 ff bd 9a 4d aa 3d
       -0.029501904 -0.07328028 -0.124697566 0.083155826
0003b0 d6 60 fe 3d 66 ac fc bc 24 3b 2d 3d e0 e6 86 3d
       0.12420814 -0.030843925 0.04229273 0.06587005
0003c0 7f f6 a9 3c 8a b8 83 3d 8c f6 ac bd 15 3b 48 bd
       0.020747421 0.064316824 -0.084454626 -0.04888447
0003d0 b4 14 a3 3c c6 c4 c3 bd 88 57 45 3d 1e 4c a2 3d
       0.019907333 -0.09559016 0.04817918 0.079246745
0003e0 f8 b7 49 3c 02 cd 31 3d 3a 2a cd bd c6 82 21 3c
       0.012311928 0.0434084 -0.1001782 0.009857839
0003f0 41 26 41 bd ab 40 8d 3d 99 1c a5 3c e6 6a bd bd
       -0.047155622 0.068971 0.020155238 -0.09248905

weight_hh_l0 f4 [256, 64]
000000 1e b1 93 3c 46 ad bb bc 40 cf 5f b9 f8 5f 51 3b
       0.018028792 -0.022909772 -0.00021344144 0.003194807
000010 87 7a 28 bc 0e 63 a7 bc 09 90 22 bc 6a 2f dd bc
       -0.010283119 -0.020432975 -0.009922036 -0.027000148
000020 53 a8 c3 bc 5f ac 9e 3c 10 b8 06 3c e2 e5 90 bb
       -0.023883974 0.019369302 0.008222595 -0.0044219354
000030 15 09 0c 3c fb 25 58 bc ee a4 67 3a 41 62 12 bc
       0.008547087 -0.013192649 0.0008836527 -0.008934558
000040 16 fb 8a bb a5 5c 8d bb f2 6b d7 bc e4 2e 36 39
       -0.0042413576 -0.0043140226 -0.02629659 0.0001737434
000050 ba 68 94 3c 91 21 e4 bc ce 06 15 bc 09 1c c3 bc
       0.018116344 -0.027848037 -0.009095861 -0.02381708
000060 72 99 8e bc 5c f6 41 3b e8 db 8f bb b6 bc 9a bb
       -0.017407153 0.0029596305 -0.0043902285 -0.004722203
000070 99 fe 81 bb b0 ff 5f 3c 2a 07 ea bb 0a 35 19 bc
       -0.003967118 0.0136718005 -0.0071419673 -0.009351024
000080 bc 40 2a 3c 7c f4 61 bb c3 2f d5 bc d2 07 b6 3b
       0.01039141 -0.0034478 -0.026023751 0.0055551315
000090 f8 58 22 bc 77 8a 22 bc 9a 3f db bc e7 53 9b bb
       -0.009908907 -0.009920708 -0.026763726 -0.0047402265
0000a0 3b 97 10 bc 54 fc 1c bc 05 e9 de bc 5f cc 2b 3b
       -0.008825119 -0.009581644 -0.027210722 0.0026214344
0000b0 42 31 db 3c 40 43 f9 bb df 86 92 3c 34 93 c5 3c
       0.026756886 -0.007606894 0.017886577 0.024118043
0000c0 b8 50 22 bc cc f8 a0 3b d7 8e e0 bc c9 1e 41 bb
       -0.00990694 0.0049124714 -0.027411861 -0.0029467812
0000d0 3a 01 22 3b 4c 59 bd bc 98 89 a7 b9 ba 8e 19 bc
       0.002471997 -0.02311387 -0.00031955238 -0.009372408
0000e0 44 77 61 3b 68 85 d4 bc 93 54 20 bc 54 23 85 bb
       0.0034403363 -0.02594252 -0.009785789 -0.0040630493
0000f0 68 f3 0e 3a e4 8a a2 bc a8 b2 ab 3a 3f a6 2d bb
       0.00054531405 -0.019841619 0.0013099508 -0.0026496795
000100 4c 61 d2 bb 0e 65 8c bb 5b e4 10 bc 10 19 a9 39
       -0.00642029 -0.0042845076 -0.008843507 0.00032252865
000110 bc ee f1 3a bd 17 37 3a a2 db 00 bc e6 e3 08 3c
       0.0018457989 0.0006984433 -0.007864865 0.0083551165
000120 1e a1 9a bb 12 bc 31 ba 18 9a b4 bb 82 88 de bb
       -0.0047189137 -0.0006780039 -0.0055115335 -0.0067911753
000130 2f c4 d8 bc 76 cc 53 bb 64 ab cc ba 7e 02 04 3c
       -0.026460735 -0.0032317913 -0.0015615043 0.008057235
000140 2c ce 16 3c 46 df 28 bc 85 5b 13 3c 90 fd 03 bb
       0.009204429 -0.010307139 0.008993988 -0.0020140149
000150 21 91 8d 3b 4f e2 6d bb c6 fd 58 bb b2 5b 87 bb
       0.004320279 -0.003629822 -0.0033110245 -0.004130804
000160 75 0e 9b 3c 9a 63 df 3a 68 ea 40 3a 1e 5f b2 3a
       0.018927792 0.0017043233 0.0007359148 0.0013608669
000170 b2 f3 c4 bb 50 75 25 b9 0b c6 0a 3a 19 d1 7c 3c
       -0.006010496 -0.00015779329 0.0005293793 0.015430712
000180 d0 a0 f2 ba 3b a8 80 3a 88 2f ca 3c b2 ed 7e 3c
       -0.0018511061 0.0009815762 0.024680868 0.015559601
000190 3e b9 06 3c 3c 23 10 bc 8c 7d d6 3c 47 95 fe 3a
       0.008222876 -0.008797463 0.026182912 0.001942315
0001a0 2a c3 22 3b 07 4e 90 3b c7 63 20 bc 7f 4a 5a 3b
       0.0024835565 0.004403833 -0.009789414 0.0033308563
0001b0 ed e1 9a 3c 33 eb 95 bc b5 82 21 bc 5e c7 68 3a
       0.018906558 -0.018300628 -0.009857823 0.00088798057
0001c0 e1 39 2d bb 80 0a 68 bb 77 32 bc bc 4e 91 22 3c
       -0.0026432204 -0.003540665 -0.022973282 0.009922339
0001d0 68 b5 fb 3b df 24 98 3b bc 74 bd ba ef 40 9a 3b
       0.0076815374 0.0046430673 -0.0014454345 0.0047074477
0001e0 54 17 c9 bc 80 5c 56 3a 15 f8 1f 3c a2 cd d6 3c
       -0.024547257 0.0008177236 0.009763737 0.0262211
0001f0 88 78 17 ba 23 58 3a bb 36 5d 09 bc 1d 99 ae bc
       -0.00057781534 -0.0028433881 -0.00838404 -0.021313244
000200 00 ba 24 3a c9 11 c1 bc c6 76 9b 3b 56 f3 d1 bc
       0.00062838197 -0.023568051 0.0047443835 -0.025628727
000210 54 f4 58 3a e0 db 13 bc ee f6 94 ba af 1a 9e 3b
       0.0008276154 -0.00902459 -0.0011365095 0.0048249583
000220 07 9c ad bc f3 47 83 bb 9e 18 c4 3b e0 ca 19 bc
       -0.021192564 -0.0040063797 0.00598438 -0.009386748
000230 f5 3b 8f bc 27 60 c9 bc 0c c1 e5 bb 80 e8 d1 ba
       -0.017484644 -0.024581982 -0.0070115384 -0.0016014725
000240 f3 9e e1 3c 7a 01 60 bb 3e 1f 0f 3c 38 91 22 bc
       0.027541613 -0.0034180568 0.008735476 -0.009922318
000250 5f 5b cb bc 2a ac ca bc b9 83 7f ba 34 a0 f9 3a
       -0.024823843 -0.024740297 -0.0009747106 0.0019044937
000260 a6 ec d2 3a b6 6e de 3c dd f9 9a bc ff ae c2 3c
       0.0016092255 0.0271524 -0.018917972 0.023765085
000270 74 8b 07 bc 37 61 0d bb 5f 78 e3 bc 99 71 b2 3c
       -0.008272994 -0.0021572837 -0.027767358 0.021782683
000280 74 03 42 3b 4b 85 76 bb b2 45 69 3b ba 60 3e ba
       0.002960411 -0.003761607 0.003559452 -0.0007262338
000290 8c 7c 1d bc 83 53 d4 bc eb 9a e1 bc 0c 98 0d 3a
       -0.009612214 -0.025918728 -0.027539691 0.000540138
0002a0 29 39 2d bb 25 4a 91 3c f7 2d de bc 64 36 a3 bc
       -0.0026431775 0.01773555 -0.027121527 -0.019923396
0002b0 58 8a 6e b9 37 6f 23 bb ee 76 fa 3b 04 22 ac 3b
       -0.00022748986 -0.0024938115 0.007643572 0.0052530784
0002c0 a8 60 d1 bb 12 36 1c 3c 5d 27 a0 bc 4e 4d c4 ba
       -0.006389696 0.009534376 -0.01955002 -0.0014976652
0002d0 f4 6a 03 3c 5e ef 7b ba fe 77 b3 3b 30 09 69 ba
       0.008021105 -0.00096105586 0.0054769507 -0.00088896137
0002e0 23 3d df bc 7a 85 48 3c e6 0a d3 3c 2e c2 0a bb
       -0.027250832 0.012238855 0.025762033 -0.002117287
0002f0 b9 b9 1f 3c 6a 99 ba ba e8 5c af b9 34 2e 18 bb
       0.00974887 -0.0014236395 -0.00033447822 -0.0023220899
000300 b4 95 46 bb c7 4b b4 bc 4a 83 b3 bb aa a9 32 bb
       -0.0030301632 -0.02200879 -0.0054782974 -0.0027261772
000310 9a 33 97 3b f2 fe 20 bc e2 f1 c9 bb 34 44 0e bb
       0.0046143057 -0.009826409 -0.006162868 -0.0021708133
000320 e6 80 b1 bc f4 eb 7b ba ce 00 2d 3b 20 45 7e 3a
       -0.021667909 -0.000961005 0.0026398185 0.00096996315
000330 07 6e cc 3b 7c 54 81 3c 43 d8 83 bc 42 5e 5e bb
       0.006238702 0.015787356 -0.016094333 -0.0033930694
000340 84 7e c3 3c 51 5d 8d 3c e4 b8 8f bb 57 8a d7 3c
       0.023864038 0.01725641 -0.0043860544 0.026311083
000350 f7 a0 dd 3c f2 c1 dd bc 08 b3 46 3b 88 76 e0 bc
       0.027054293 -0.02707002 0.0030319113 -0.02740027
000360 d2 a3 03 bb 7a da 2a bb d4 1f 86 ba d2 da f3 ba
       -0.0020086658 -0.0026070164 -0.0010232874 -0.0018604642
000370 a4 98 51 3c 34 19 2d 3b 27 fc a6 3b b7 95 04 3b
       0.01279274 0.0026412727 0.005095977 0.0020230839
000380 ec b9 e3 3b 16 b8 67 ba d8 4e b0 bc 0c 27 df 3c
       0.006949654 -0.00088393816 -0.02152197 0.027240299
000390 52 76 df 3c 3b 2f 27 bb 87 30 66 bc b8 9a 49 3c
       0.0272781 -0.002551033 -0.014049656 0.012304954
0003a0 12 b7 80 bc f9 39 e8 3b 38 f4 0a bc 66 2d e6 3a
       -0.015712295 0.007086989 -0.008481078 0.0017561137
0003b0 13 3b c6 3b 2d d0 2a 3c 8a d3 0f bc c3 f8 e1 3c
       0.0060495227 0.01042561 -0.008778462 0.02758444
0003c0 6f 2a 2c bb 56 4e e1 3b 8f ec c4 3c 44 48 2b bb
       -0.002627041 0.0068757934 0.024038581 -0.0026135603
0003d0 46 df bf bb e7 b9 1e bb 3d f6 b8 3c f2 1e da ba
       -0.0058554737 -0.0024219693 0.022578353 -0.0016641302
0003e0 6b 93 9b bb 43 49 33 3b ac dd fb 39 f4 40 e4 3c
       -0.004747798 0.00273569 0.0004803961 0.027863003
0003f0 db 0a b1 bb 03 54 20 3c ed fa 73 3b 19 2a 89 3c
       -0.0054029054 0.009785655 0.003722842 0.016743707
