Comparative_Evaluation/Baselines/LSTM/models_u/model68.pt (torch, 499143 bytes, 10 tensors)

weight_ih_l0 f4 [512, 10]
000000 23 3b 87 bd 06 85 e3 bd 0d 87 05 bd a5 ce 16 be
       -0.06603076 -0.111093566 -0.032599498 -0.14727266
000010 99 4e 31 be f8 96 41 be 0b 42 c4 bd 08 b1 34 be
       -0.17315139 -0.18905246 -0.09582909 -0.17645657
000020 13 12 1e be b6 43 b8 bd 1c 23 0c 3d 36 5b 3b 3d
       -0.15436582 -0.0899729 0.03421317 0.045741282
000030 40 d0 41 3d d2 66 95 bc 81 78 54 3d 62 3a 94 3d
       0.047317743 -0.018237505 0.051872734 0.07237698
000040 0a 96 d1 bb 23 ca 93 bd fc b3 41 bd e8 66 06 3d
       -0.00639606 -0.07216289 -0.047290787 0.032812983
000050 18 5f df bd 8f ad 9b bd 04 95 0b bd 72 2b 20 bd
       -0.109068096 -0.07601463 -0.03407766 -0.039103933
000060 19 2e 8b bd f8 95 97 3d f4 c7 41 3d 46 f7 30 bd
       -0.06795902 0.07401651 0.04730983 -0.04320457
000070 b5 a6 ba 3c 00 ea 19 3c 20 69 34 3c 0c 2a 8e 3d
       0.02278457 0.009394169 0.011011392 0.069416136
000080 f3 a4 0e 3d b8 a4 e4 3d e4 da fa 3d 94 33 af 3d
       0.034825277 0.1116423 0.12248781 0.085547596
000090 60 59 40 bc ba 75 17 bc 62 8e 41 bd 6c a1 b0 bc
       -0.011740059 -0.009244377 -0.047254927 -0.021561347
0000a0 60 35 82 bd 9c ee a8 bd b4 31 2f bd c4 86 b3 3d
       -0.06357837 -0.08248636 -0.04277201 0.08765939
0000b0 6a 20 c2 3d 77 7e 04 3e f4 42 a8 3d cc 0c f5 3b
       0.09478839 0.12938868 0.08215895 0.007478332
0000c0 7d 99 e4 3c 5a 5f 5b 3d d9 e3 47 be 33 7f 09 be
       0.02790522 0.05355773 -0.1952051 -0.13427429
0000d0 a6 e2 06 be 91 38 da bc f8 20 f6 3b b2 a3 9d 3c
       -0.13172397 -0.026638301 0.0075112544 0.019243095
0000e0 fe 73 04 3d 1b 4e 1b 3d af 69 bb 3d 39 b9 61 bd
       0.03233718 0.037916284 0.09151017 -0.055108283
0000f0 33 b5 67 3b 11 8b 61 bd b0 84 81 bd 96 14 16 be
       0.0035355806 -0.055064265 -0.06324136 -0.1465629
000100 4c 82 84 bd 2b c9 3f bd 18 63 3c be 16 64 40 be
       -0.06470165 -0.046822708 -0.18397176 -0.1878818
000110 44 dd 47 be 81 cc 3f be 9b 56 bc bd 91 46 c7 3c
       -0.19518 -0.18730356 -0.09196206 0.02432564
000120 37 c3 cf 3c 86 eb 8b bd 98 93 8d 3d e7 bc fb 3c
       0.02536164 -0.06832032 0.06912917 0.030729724
000130 4b 54 37 bc ff 4e b6 3d 1c 53 a3 bc 76 9e 22 bd
       -0.011189531 0.08901786 -0.01993709 -0.0397019
000140 5b 42 c4 bc 3f 1d fd 3c 21 77 e8 3b 22 f6 ad 3d
       -0.023957422 0.030897735 0.0070942794 0.08494212
000150 20 4e 41 3d ce 2f 94 3d 63 7b 1a bd 0c 5f 74 bd
       0.047193646 0.072356805 -0.037715327 -0.059660956
000160 2e 5b 35 3d 1d 6f 31 bd f4 d6 03 3e 70 2b 29 3e
       0.04427641 -0.043318857 0.12874967 0.16520476
000170 7a 5d fe 3d 90 35 30 3d 52 34 2b 3e f3 64 23 3e
       0.12420173 0.04301983 0.16719177 0.15956478
000180 36 1d b2 3d 77 99 59 3e d7 37 36 3e a3 0f 1a 3e
       0.08696978 0.21249948 0.17794739 0.15045027
000190 48 e2 89 bd eb a1 ab 3d 0e fb 26 bc b3 1d 81 3c
       -0.06732613 0.08380493 -0.010191692 0.015761232
0001a0 21 cd 7b bc 86 1a e3 3a 3b 0f 2c bd ae fa 27 bd
       -0.015368731 0.001732663 -0.042006712 -0.04101055
0001b0 c8 17 3e bc 0c 17 5a 3d 58 70 12 be 38 99 47 be
       -0.01160235 0.053244635 -0.14300668 -0.19492042
0001c0 f1 2a 69 be e5 e2 6e be 77 b0 20 be c2 82 27 be
       -0.22770287 -0.23328741 -0.15692316 -0.16358474
0001d0 63 bd 7e be 79 05 75 be a7 25 e8 bd 8a 83 39 be
       -0.24876933 -0.23927869 -0.113353066 -0.18116584
0001e0 ad 64 a8 bd 21 0b 24 bd b4 6f f8 bd f8 16 26 be
       -0.082223274 -0.040049676 -0.12130681 -0.162197
0001f0 ed 78 42 be 11 45 89 bd a3 05 d3 bd ef 05 98 bd
       -0.18991442 -0.067026265 -0.103038095 -0.07423007
000200 57 02 04 be 22 e7 e7 bd db 58 9b bc 82 58 98 bd
       -0.12891518 -0.11323382 -0.018963268 -0.074387565
000210 6b 30 e7 bc b1 84 b5 3d c6 7e 9c 3d 7d 2a d6 3d
       -0.02822133 0.088631995 0.076413676 0.10457323
000220 57 80 bf 3c 72 12 fb 3d d2 e7 23 3d e0 58 e4 3d
       0.023376627 0.122593775 0.040016003 0.11149764
000230 5b aa 43 be ad a1 e6 bd 97 8f 17 bd c9 92 4e bd
       -0.19107954 -0.11261306 -0.037002172 -0.050432954
000240 43 58 17 be 77 ed 01 be d6 88 d2 3b 4e 66 97 bd
       -0.14779763 -0.12688242 0.0064250035 -0.0739256
000250 53 87 8c 3c ff cf 00 3c ca 01 84 bc 43 0f f4 bc
       0.017154371 0.00786209 -0.016114134 -0.029792434
000260 c7 b1 ac bd b3 39 ba bd 1d 97 dc 3b 6a b8 06 bd
       -0.08432346 -0.090930365 0.0067318813 -0.032890715
000270 5f 16 bd bd e2 e0 65 bb 68 4f 14 3d 57 bc 51 3d
       -0.092327826 -0.0035076668 0.03620854 0.051205005
000280 4b 8d 2c 3e 1f f0 22 3e 97 c2 83 3d c3 c8 04 3e
       0.16850774 0.15911911 0.064335994 0.1296721
000290 f8 6d 8e 3d f5 12 23 3e 0c 5f b5 3c f9 81 11 3e
       0.069545686 0.159252 0.022140048 0.14209737
0002a0 3c 76 04 3e 0c bb 80 3d 4c 3e 1c be 6e 71 64 bc
       0.12935728 0.06285676 -0.1525814 -0.013943059
0002b0 41 c6 21 be 13 df 06 be 66 f5 15 be 66 2c 28 3c
       -0.15798284 -0.13171034 -0.14644393 0.010264492
0002c0 62 95 89 bd 60 fe 0c bd c0 83 9a bd 6d bd 6b bd
       -0.06717946 -0.03442228 -0.075446606 -0.057553697
0002d0 a3 89 5b 3d 12 70 27 3d ba 13 c3 3d 4d a7 62 3d
       0.053598057 0.040878363 0.09525247 0.05533533
0002e0 58 50 fe 3d 83 13 f9 3d e7 59 b9 3d d4 3d 2e 3e
       0.12417668 0.12161925 0.09050351 0.17015773
0002f0 86 43 7b 3d a2 df 2b 3e f5 21 9f 3c 83 fd 63 3d
       0.061343692 0.16784528 0.019425372 0.05566169
000300 1f 6b 8d 3d 6a 4c 02 3d f8 54 7c 3c 81 cf 60 bd
       0.06905197 0.031811155 0.0154011175 -0.05488539
000310 b5 07 c0 3d 8e 65 5f 3d a7 03 1e bd 57 5f 3a 3d
       0.0937647 0.05454021 -0.038577702 0.04550108
000320 fc 8a 00 3e ef 19 50 bc f5 03 15 3d 18 c4 91 39
       0.12553018 -0.012701496 0.036380727 0.00027802656
000330 97 98 93 bc c0 45 86 3d 53 08 01 bd 16 a7 41 bd
       -0.018017096 0.065562725 -0.03150208 -0.047278486
000340 79 44 50 bd 48 a6 f2 b9 34 b1 82 bd 4b 33 e6 3b
       -0.05084655 -0.00046281726 -0.06381455 0.0070251576
000350 cf a2 ac bd f0 16 bc bd c6 95 15 be 88 23 f3 bd
       -0.08429491 -0.091840625 -0.14607915 -0.118720114
000360 dd 21 32 be 0d 02 3c be 5c 38 42 be 88 ab ea bd
       -0.1739573 -0.18360157 -0.18966812 -0.11458498
000370 d0 b2 97 bc a8 7c 66 3d 53 9d c8 3c b9 78 aa 3d
       -0.018517882 0.056271225 0.02448908 0.08323807
000380 e4 cd 03 3c fc c1 0e bd eb 6a 40 3d 3d 46 ab bb
       0.008044694 -0.034852967 0.046976965 -0.005226879
000390 44 3c 43 3d 45 e2 24 3d 1a b4 3e bc 51 09 ec 3d
       0.047664896 0.04025485 -0.011639619 0.115252145
0003a0 0e ab 88 3d 13 05 0a 3e 92 50 a0 3d 58 d8 5a 3d
       0.06673251 0.13478498 0.078278676 0.053428978
0003b0 20 1c 43 3e 01 05 3d 3e 9f d6 ec 3d b1 33 0a 3e
       0.19053698 0.1845894 0.11564373 0.13496281
0003c0 4e af f0 bd 40 b5 44 bd 62 bf a5 bd ad 54 03 be
       -0.11752187 -0.048024416 -0.08093144 -0.1282527
0003d0 78 23 94 bd 7b 53 3a bc f8 de 01 be c0 71 ab bd
       -0.072333276 -0.011372442 -0.12682712 -0.083713055
0003e0 31 d7 ba bc 23 61 39 bd d5 1e f3 bc 87 88 e5 bc
       -0.02280769 -0.045258652 -0.029677788 -0.028019203
0003f0 f9 fd 89 bd 89 d8 8d bd 1b 66 e7 bb e4 96 02 be
       -0.067378946 -0.069260664 -0.0070617325 -0.12752873

weight_hh_l0 f4 [512, 128]
000000 8a 5f 83 ba b6 17 3a 38 79 93 51 ba 5e 89 aa 39
       -0.001002298 4.436794e-05 -0.00079946924 0.00032527273
000010 36 20 d5 39 4a dc 50 38 cc 0e d4 39 ce 36 91 39
       0.00040650525 4.9796225e-05 0.00040446816 0.00027697388
000020 90 ac 4f b8 4e a3 6a 39 be 3f 18 bb 40 3e c6 39
       -4.9513357e-05 0.00022376815 -0.0023231353 0.00037811883
000030 10 29 ae 39 87 34 b4 3a ec 1c 15 b9 14 3a f1 39
       0.0003321846 0.0013748565 -0.00014220522 0.00046010374
000040 9d f0 f4 b8 24 a2 aa 38 82 d3 52 3a 71 19 42 ba
       -0.000116796444 8.136433e-05 0.00080423814 -0.0007404304
000050 f5 86 87 39 4e 35 f7 3a 89 9b d7 b9 ce 17 75 3a
       0.00025849757 0.001886049 -0.00041123878 0.00093495555
000060 f7 0c 46 ba 2d 5e 0e bb 78 5a 6a ba e8 dd f5 ba
       -0.00075550325 -0.0021723614 -0.00089398725 -0.001875815
000070 20 57 c1 37 36 ab 1b b9 36 51 31 3a b4 ec da b8
       2.3047964e-05 -0.00014845733 0.00067641155 -0.000104391394
000080 92 4f b6 3a 07 a7 c8 ba 16 ba 0a 39 a1 0d 08 39
       0.0013909212 -0.0015308567 0.00013230028 0.00012975048
000090 4c d9 a8 39 02 1a 29 ba 77 97 3c ba da 92 a0 ba
       0.00032205356 -0.0006450714 -0.0007194201 -0.0012250796
0000a0 30 ba d3 39 51 ce f6 b9 a7 c6 12 3b e9 af c2 3a
       0.00040383777 -0.00047074494 0.0022396238 0.0014853451
0000b0 84 8e 44 39 ed fe f2 ba c1 08 c1 ba de db 34 ba
       0.00018745108 -0.0018539109 -0.001472734 -0.0006899218
0000c0 6c 83 eb 38 8f 87 af 39 08 67 3f ba fb bd df 3a
       0.000112301524 0.000334796 -0.00073014246 0.0017070168
0000d0 f7 e8 4d 3a 1b 1b 7d b9 3c e7 1b 39 e4 62 13 3b
       0.0007854844 -0.00024138058 0.00014868093 0.0022489363
0000e0 28 d1 51 ba 7e 8b ba 3a 58 48 1e ba 30 93 ba ba
       -0.0008003884 0.0014232246 -0.0006038002 -0.0014234539
0000f0 30 53 1e 3a 39 a6 bf ba 11 eb 06 3b 70 ea 0d bb
       0.00060396176 -0.0014621682 0.0020586888 -0.0021654628
000100 f7 c2 00 3a d2 1d 47 ba ec 40 fb 3a 08 db 3f ba
       0.00049118645 -0.0007595691 0.0019169128 -0.000731871
000110 dc 7e d0 39 01 81 91 ba 30 2a 21 ba 68 e9 80 3a
       0.0003976737 -0.0011101068 -0.0006147949 0.0009835185
000120 cc b4 9c 3a e8 4e 7d 38 cf e9 f0 39 b6 7b b6 39
       0.0011955737 6.0393388e-05 0.00045950568 0.00034805917
000130 e4 ff c8 ba 88 fc 3c b9 88 05 ef 3a 58 59 88 ba
       -0.001533505 -0.00018023152 0.0018235901 -0.0010402603
000140 4c c6 51 3a 19 84 0f bb 0d df b5 3a 94 c3 50 3a
       0.0008002266 -0.0021898805 0.0013875678 0.0007963714
000150 ab 2e 00 3a d4 cf 12 b9 6f ec 0b 39 9e 09 6d b9
       0.00048897666 -0.00014001067 0.00013344151 -0.00022605664
000160 93 72 9b 3a 4d 58 d4 3a 12 ba 27 3a d0 2f 1a b8
       0.0011859707 0.0016200632 0.0006398271 -3.676099e-05
000170 fc 2a af b9 af 5f 74 b9 ba 54 15 bb 00 c5 de 37
       -0.00033410627 -0.00023305298 -0.0022786097 2.6556198e-05
000180 f1 30 e7 3a a9 d4 83 3a 1f cc 43 b9 72 08 ff ba
       0.0017638487 0.0010057885 -0.0001867269 -0.0019457473
000190 00 e3 78 b6 6f 53 91 ba 84 18 f6 39 f4 e8 84 ba
       -3.7087011e-06 -0.0011087487 0.00046939042 -0.0010140226
0001a0 15 b9 a1 b9 b5 93 9b 3a c4 64 23 3a 30 7e b2 b9
       -0.0003084621 0.0011869582 0.0006232972 -0.00034044823
0001b0 46 d1 b2 39 e8 24 46 39 44 d7 96 3a b8 07 bc b7
       0.00034106727 0.000188965 0.0011508246 -2.241494e-05
0001c0 ed e4 0b 3a 51 ac dd 3a 7e 6f 63 ba c0 94 1a 38
       0.0005336542 0.0016912316 -0.00086759764 3.6854995e-05
0001d0 78 32 73 38 7f ce 0e ba fc 75 22 ba e7 3b 4d 3a
       5.7982717e-05 -0.00054476404 -0.00061973906 0.00078290555
0001e0 fb 0b 7b ba 86 48 b9 ba 72 b5 8b ba 4a 70 cd ba
       -0.00095766754 -0.0014135994 -0.0010658933 -0.0015673724
0001f0 49 43 eb b9 f2 51 b3 b9 1b 7a a6 ba e6 c0 4a 3a
       -0.00044872824 -0.00034202595 -0.0012701185 0.00077344326
000200 c5 7f 54 ba 4a cc 14 ba aa 12 be b8 ea 9c a9 b9
       -0.00081061973 -0.00056761934 -9.0633825e-05 -0.00032351102
000210 ba 37 ca ba ae 39 0d ba 1e 7f 25 3a 38 12 e8 b7
       -0.0015427985 -0.0005387318 0.00063131924 -2.7665039e-05
000220 67 24 14 3b e7 e7 90 3a fa 34 ec 39 aa 6f e3 39
       0.0022604705 0.001105544 0.00045052898 0.0004338001
000230 7e 8b 56 b8 41 49 18 bb 9e 14 20 ba 6c c3 9e b8
       -5.1151488e-05 -0.0023237022 -0.0006106588 -7.570427e-05
000240 8e d7 d2 39 94 06 c1 b9 d6 ed 8d 3a ee 3f 5f 3a
       0.00040214922 -0.0003681673 0.0010828327 0.0008516301
000250 af e6 94 3a a5 ed 95 39 94 d3 94 38 21 ba c7 ba
       0.0011360253 0.00028596554 7.0965994e-05 -0.0015237966
000260 79 c0 62 3a a8 a3 1c b7 a3 6d f0 39 2b 89 16 3a
       0.00086498965 -9.336429e-06 0.00045858053 0.00057424855
000270 60 6d b4 b7 e6 c9 4c ba ec 77 a8 39 7d 1f 18 bb
       -2.1508604e-05 -0.00078120676 0.00032132806 -0.0023212128
000280 73 38 16 bb 84 11 ce b9 1a 50 02 3b 08 8c 23 3a
       -0.002292183 -0.00039304432 0.001988417 0.0006238823
000290 1e ef 14 ba 71 7f 39 3a d9 4a b9 ba 1d 4f ac 3a
       -0.0005681383 0.000707618 -0.0014136686 0.0013146136
0002a0 cc 12 80 3a d2 65 1f 3a 17 4e 7c ba 50 8b 58 3a
       0.0009771227 0.0006080541 -0.00096246734 0.0008260505
0002b0 99 f7 41 3a c2 9b 2a ba 87 7a 10 3a a7 1a cf 39
       0.00073992606 -0.0006508195 0.0005511422 0.00039501974
0002c0 be 23 d1 b9 9f 48 d9 ba 6e fa 98 39 2b 1a 02 3b
       -0.00039890216 -0.0016577429 0.00029178284 0.0019852023
0002d0 1c e9 08 39 aa b7 a1 b9 da 7d bf b9 5d 1d cc 38
       0.0001305681 -0.00030845153 -0.00036524126 9.7329474e-05
0002e0 9a c0 f3 b9 15 b2 70 b9 07 2c 18 3b ae 9b cd 3a
       -0.0004649207 -0.00022954524 0.0023219602 0.0015686655
0002f0 13 e0 99 ba 6c 48 70 3a 77 66 85 ba 59 77 8a 3a
       -0.0011739753 0.0009166065 -0.0010177632 0.0010564133
000300 14 4d cc 3a 60 5b 5f ba aa 31 d4 3a ce ea 8f 39
       0.0015586936 -0.0008520391 0.0016189117 0.0002745003
000310 8a bf 99 39 84 17 a7 38 0b d9 16 bb eb 2a 50 ba
       0.00029325142 7.967561e-05 -0.0023017551 -0.00079409656
000320 6d b6 92 b9 5c 8f 5b b8 47 2b db 39 df a3 a0 b9
       -0.00027983208 -5.2347183e-05 0.0004180318 -0.00030639672
000330 e8 d1 2d b9 c4 1e 49 b9 72 27 31 3a ca 04 11 bb
       -0.00016576762 -0.00019180315 0.0006757892 -0.0022128099
000340 c5 62 0c bb 2b 06 af 39 22 95 da b9 51 2a 48 b9
       -0.0021421176 0.00033383197 -0.00041691313 -0.0001908925
000350 14 df 0f 3b d2 49 27 ba c2 8a 9f 3a 3e 99 72 39
       0.0021953033 -0.00063815445 0.001217209 0.00023136006
000360 24 64 d8 b9 f4 2c fe 38 5c fd 67 39 9c 4b cc 3a
       -0.0004127334 0.00012120037 0.0002212426 0.0015586498
000370 59 d4 16 3a 98 3d 90 3a e8 fa 45 b9 4d 4a 6f b9
       0.0005753688 0.0011004684 -0.00018880854 -0.00022820495
000380 1e 58 b7 39 50 72 92 3a 96 48 6c ba 3e 06 06 ba
       0.00034970132 0.0011172984 -0.00090135017 -0.00051126245
000390 e9 9f fc b9 b8 c3 ce b9 36 7d 10 3b 3d c3 98 3a
       -0.00048184328 -0.00039437204 0.0022047288 0.0011654865
0003a0 98 0b 45 b8 20 48 fe b7 24 6b 6b b9 66 2d 35 ba
       -4.6979258e-05 -3.0312745e-05 -0.0002245126 -0.0006911367
0003b0 c8 c4 45 ba 80 13 13 3b 16 07 24 39 e8 fa bc ba
       -0.00075442763 0.0022442043 0.00015642899 -0.0014418038
0003c0 f0 7e d5 b9 b0 b1 1b 39 bc 5c 85 38 ff ac 1e 39
       -0.00040721102 0.00014848146 6.359207e-05 0.000151325
0003d0 70 b9 60 3a cb e7 07 bb 3d 3a 9c 38 d9 47 04 bb
       0.0008572554 -0.0020737525 7.4495074e-05 -0.0020184426
0003e0 54 9e b6 b9 9e 99 86 39 20 c9 7a 39 51 05 a6 ba
       -0.0003483171 0.00025672925 0.00023916783 -0.0012666379
0003f0 58 7a 65 b7 42 98 c5 ba 6d db 1f 3a 28 a3 40 b8
       -1.3677949e-05 -0.0015075284 0.00060980656 -4.592832e-05

bias_ih_l0 f4 [512]
000000 40 6d 83 bd 2e b8 0d 3d 30 b0 a3 3c 4e 96 15 3e
       -0.06417322 0.034599476 0.019981474 0.14608118
000010 69 24 85 3d 10 ec 1f be 5f d8 15 bd fd f2 5d bd
       0.06501085 -0.15617394 -0.0365833 -0.05418681
000020 fe cd f2 bd 91 d7 cc 3d 74 de 11 3b 15 f8 ca bd
       -0.11855696 0.100020535 0.0022257837 -0.09910599
000030 b2 00 94 bd c4 6c 95 3d c3 6b 1d be 4a 69 33 be
       -0.07226695 0.07296136 -0.15373139 -0.17520633
000040 73 5d 04 bd fd 37 d5 3c 04 47 97 3c 96 42 81 bd
       -0.032315683 0.026027674 0.01846648 -0.063115284
000050 a3 03 74 3d fe a6 02 be ce 53 e7 bb a4 30 bb 3d
       0.05957378 -0.12759015 -0.007059551 0.09140137
000060 eb 58 c7 3c 80 1e 7c bd 84 66 78 3c 94 84 9c bd
       0.024334392 -0.061552525 0.01516116 -0.07642475
000070 df 15 7f 3d df eb 3c bd a2 13 30 be 5b e4 87 bd
       0.062276717 -0.04612338 -0.1719499 -0.06635352
000080 81 12 dd bd 40 2e d2 3d 70 67 b6 bc 04 9a 85 3d
       -0.10794545 0.10262728 -0.02226612 0.06523517
000090 0a 24 33 be 1f 15 d3 3d 7a 59 3e be 92 4b 42 3d
       -0.17494217 0.10306763 -0.1858882 0.04743535
0000a0 e4 26 fc 3d d2 1b 19 bd 64 88 5e 3e 51 57 1a bd
       0.12312105 -0.037380047 0.21731716 -0.037680928
0000b0 26 46 49 3d 00 5f 57 bd cd 8a 63 bd 42 57 3b 3e
       0.049139164 -0.052580833 -0.055552293 0.18295005
0000c0 10 15 a7 3b 07 e9 f0 3c 84 76 21 3d cb 5d 46 3d
       0.0050989464 0.029407991 0.039419666 0.04842929
0000d0 43 e2 48 bd 7a 53 2a 3e 27 da 2e 3d 3c 92 8c bd
       -0.049043905 0.16633406 0.042688515 -0.068638295
0000e0 d1 0e e4 bc 28 8e c3 3d c8 35 28 3c 49 40 dc bd
       -0.027839096 0.095485985 0.010266729 -0.10754449
0000f0 f2 a5 ad bd 12 19 b8 3d d5 d1 6e bd c9 86 58 bc
       -0.08478917 0.08989157 -0.05830558 -0.013215729
000100 b7 ff bd 3d e9 9d bc bd ff cf d5 3d 28 da 15 bd
       0.09277289 -0.092098065 0.10440063 -0.036585003
000110 7b 36 78 bd ef 34 b6 3d 0c 7f e9 bc 75 0f ba 3d
       -0.06059883 0.08896815 -0.028502963 0.090849794
000120 30 5e 42 bd da 6e a4 3b c5 b9 b9 bd 34 c5 d4 bd
       -0.047453105 0.0050180973 -0.09068636 -0.10389176
000130 6f ba 86 3d 1e fc 4c bd c4 c4 a4 3d 89 cf 19 bd
       0.06578528 -0.050045125 0.080453426 -0.037551437
000140 d4 c6 2f 3b bc 10 12 3e 55 eb 8e bd 11 fe fc 3b
       0.0026821392 0.14264196 -0.0697848 0.0077207168
000150 e7 e9 d2 3d 74 b7 2a bc 2f 7c 44 bd ac 79 d5 bd
       0.102985196 -0.010419715 -0.047969993 -0.10423598
000160 d9 cc 91 bd ae d3 e3 bd 6c 54 b7 3d 47 52 a9 bd
       -0.0711915 -0.11124359 0.08951649 -0.08267646
000170 2f 3d 21 3c e8 4e da bd 3c 05 b4 bc d6 6a 99 bd
       0.009841247 -0.106595814 -0.021975152 -0.074910805
000180 70 f5 1a 3d a8 e6 80 3c 92 41 a3 bc f5 38 33 3c
       0.037831724 0.015734985 -0.019928727 0.010938873
000190 a8 34 99 bd 3f 50 24 3d e4 e1 04 bd 83 bd 96 bd
       -0.074807465 0.04011559 -0.03244199 -0.07360365
0001a0 68 8b 12 3d de 86 80 bd d9 44 19 bd 1c 2b 9a bc
       0.03577748 -0.06275724 -0.037419174 -0.018819384
0001b0 c9 a6 b9 bc b4 24 18 bd fa 7e b8 3b 0f 7b 0e be
       -0.022662537 -0.037144378 0.005630371 -0.1391413
0001c0 e8 45 0f 3d 80 36 36 bc a2 d4 00 3e 44 c8 bf bb
       0.034978777 -0.011121392 0.12581113 -0.005852731
0001d0 f4 6f 55 bb 42 5e 09 bd 4e dd c6 bd 94 d5 0c bc
       -0.003256795 -0.033537157 -0.09710179 -0.008595843
0001e0 11 fe 94 3d ab 39 0c bd 41 54 a7 3d 1e 1f f0 3c
       0.07275022 -0.034234684 0.08170367 0.029311713
0001f0 f4 c5 62 bd 74 5f 8e bd bc 50 97 bd d5 2c 30 3d
       -0.055364564 -0.069518 -0.07388446 0.043011505
000200 23 7e 75 b9 ec 59 06 39 30 5c db b7 9b 47 be ba
       -0.0002341201 0.00012812734 -2.6149763e-05 -0.001451719
000210 dd 68 17 3b ef 89 17 3b 5d f6 c3 3a 60 ed 15 bb
       0.0023103275 0.0023122986 0.0014950741 -0.0022877082
000220 f5 f3 9f 39 d0 bb 27 38 a2 cf 60 ba b4 aa 30 38
       0.00030508605 3.9990817e-05 -0.00085758616 4.212065e-05
000230 02 2d a4 b9 c3 7f 0f 3a 96 de 2e 39 77 04 cd 3a
       -0.0003131405 0.0005474055 0.00016676853 0.0015641589
000240 c1 5e ca 3a 50 2b 07 3b 87 27 53 ba c6 be 4c 39
       0.0015439616 0.0020625181 -0.0008054901 0.00019526025
000250 fe ae 88 3a 92 cc dd 3a e7 c8 91 b9 39 eb 06 3b
       0.0010428128 0.0016921929 -0.0002780624 0.002058698
000260 05 b3 0b 3b 1a 8b a9 ba 8f c9 01 b9 a0 3e 90 ba
       0.002131642 -0.0012935132 -0.00012377485 -0.0011004992
000270 50 bd b1 b7 1a 24 07 39 ee 86 59 ba 12 1d cd ba
       -2.11882e-05 0.00012888052 -0.0008297999 -0.0015648922
000280 60 74 3d b8 00 f0 ed 38 69 12 38 ba d0 c1 4e 3a
       -4.5169494e-05 0.00011345744 -0.00070217863 0.00078871567
000290 b5 ca 00 3a d2 64 14 3b 06 5c ed ba 93 3f f6 3a
       0.0004913018 0.0022643101 -0.001810909 0.0018787257
0002a0 b5 42 18 bb d7 60 5d 3a cf d4 1f 39 b2 c5 c9 3a
       -0.002323312 0.0008444911 0.00015242699 0.0015394001
0002b0 56 9f cd ba 48 91 d6 b8 d0 81 a3 37 c2 25 00 39
       -0.0015687745 -0.00010231376 1.9491563e-05 0.00012221097
0002c0 90 65 fe ba 5c 12 ee b8 b0 95 52 ba 2c af 6f 3a
       -0.001940893 -0.00011352144 -0.00080331694 0.0009143229
0002d0 f1 e4 d6 ba a4 ca a5 b9 4e d2 38 39 2f 1a 06 3b
       -0.0016395134 -0.00031622231 0.00017625952 0.0020462384
0002e0 ad 5d 79 3a 9e 13 c9 ba 72 00 67 39 58 a3 bd b8
       0.0009512555 -0.0015340929 0.00022030043 -9.0426474e-05
0002f0 fd 4d af 39 bf 8c 3f 3a a4 13 e7 ba 1f d7 11 bb
       0.00033436707 0.00073070446 -0.0017629755 -0.0022253466
000300 0b 66 cc ba f0 ca ad 38 9d 5c 80 ba 44 15 3d b9
       -0.0015594376 8.287083e-05 -0.0009793226 -0.00018032367
000310 8c 4c b3 3a f7 0d 8b 3a 34 ba 17 bb 62 03 9f 3a
       0.0013679429 0.001060902 -0.0023151757 0.0012131745
000320 a4 c6 06 b8 16 ff 9d 39 bc 1d 93 3a 86 a8 c5 39
       -3.2133088e-05 0.00030135427 0.0011224071 0.00037700328
000330 a5 08 c7 ba c0 86 81 3a 04 72 06 3a 7e 1b 04 bb
       -0.0015185071 0.0009882078 0.0005128684 -0.0020157988
000340 44 ec 42 ba f4 61 d5 39 07 19 bb 3a 11 8a 88 3a
       -0.0007435719 0.00040699507 0.0014274427 0.0010417124
000350 48 0d 14 39 76 e6 16 bb ed b1 53 ba 4b 79 c2 b9
       0.00014119328 -0.002302555 -0.0008075524 -0.00037092934
000360 38 28 8f 3a 9c e2 98 37 bc 59 75 39 4c 2b a4 ba
       0.001092202 1.8225335e-05 0.0002339845 -0.001252511
000370 a9 5f 86 ba 64 40 98 39 1f 67 36 ba 26 74 b5 ba
       -0.0010251898 0.00029039674 -0.0006958115 -0.0013843819
000380 38 0f e8 b8 b0 1b 43 b9 60 a2 b8 37 58 4b 55 b8
       -0.00011065457 -0.00018606964 2.2010121e-05 -5.0853327e-05
000390 c8 0c 94 ba d8 f6 06 3b c0 6b 54 ba 5c 42 92 3a
       -0.0011295313 0.0020593908 -0.0008103214 0.0011158693
0003a0 a4 94 98 b9 5c 7b aa 3a ee 88 74 b9 cc 68 35 3a
       -0.00029102445 0.0013006735 -0.00023320664 0.0006920218
0003b0 f7 46 7c ba 9e 37 59 ba bf a7 8b ba 93 c9 82 b8
       -0.00096236117 -0.00082861807 -0.0010654851 -6.236429e-05
0003c0 f1 1b 3a b9 f8 ea 60 ba 0f 2e 51 b9 a9 de 8e ba
       -0.00017748751 -0.0008579935 -0.00019948951 -0.0010900098
0003d0 03 ac 56 39 c8 ae 15 3b 74 f5 a0 3a 0b ec 0d bb
       0.0002047271 0.0022839773 0.0012280182 -0.0021655585
0003e0 de 0b c9 ba 7e 04 88 ba 54 31 55 ba b0 98 79 b8
       -0.001533862 -0.0010377315 -0.00081326556 -5.9508428e-05
0003f0 e0 52 3a b9 e9 90 87 b9 a4 86 03 ba 54 b3 e1 39
       -0.00017769216 -0.00025857173 -0.00050173164 0.00043048954

bias_hh_l0 f4 [512]
000000 34 c1 d5 ba c3 1d 3f 3d 7f 0b 77 3c 04 18 ba 3d
       -0.0016308189 0.046659242 0.0150784245 0.09086612
000010 ca 3a f5 bc 63 e0 1a be 09 e2 30 bd 05 70 9e 3d
       -0.02993526 -0.15124659 -0.043184314 0.0773621
000020 46 41 6d bd de 40 da 3d ca e4 18 bd ad b3 17 be
       -0.057923578 0.10656904 -0.037327565 -0.14814635
000030 bb aa e8 bb dc 37 49 3d 75 da c8 bd d4 43 2a be
       -0.007100431 0.049125537 -0.09807292 -0.16627437
000040 6b 86 a4 3b 27 4b ac bd 7d 4d 0f 3e d6 c2 72 3c
       0.0050209067 -0.08412772 0.13994403 0.01481696
000050 8f 3a 9f 3d 94 7e 1a 3c ed 82 88 bd 41 ff 5c 3e
       0.07774841 0.009429593 -0.06665597 0.21581747
000060 2b df 6b bc 3b e9 6d bc 1f 62 af 3c d8 63 95 bd
       -0.014396469 -0.0145209385 0.021409092 -0.07294434
000070 84 04 87 3c 8c d0 ed 3b 07 9e 83 bd 96 92 23 3c
       0.016481645 0.0072575267 -0.06426626 0.009983679
000080 b0 41 02 bd 72 0b bb 3c 86 e8 57 bd 4b 06 a2 bd
       -0.031800926 0.022832606 -0.052711986 -0.079113565
000090 81 cd 0c be 44 c5 71 3d 36 4f 87 bd fa 9e 17 3c
       -0.13750269 0.059026018 -0.06606905 0.009254212
0000a0 42 d7 02 3e f6 03 9d bd 0f 2f 06 3e 1c f9 4c be
       0.12777427 -0.07666771 0.13103889 -0.20016903
0000b0 9c 24 ff 3c fa 7e f6 3c 0f b5 11 be a6 e0 16 3e
       0.031145386 0.030089844 -0.14229225 0.14734134
0000c0 67 52 b7 bd 09 c8 5a 3d a8 b2 9d 3c 54 8a 91 3c
       -0.08951264 0.053413425 0.019250229 0.017766155
0000d0 d7 e5 9a 3d a8 28 a4 3d 79 a2 fe 3c 43 13 06 be
       0.0756337 0.08015567 0.031083332 -0.13093285
0000e0 bf d1 27 3d 5c 9d 64 3d 34 a5 53 3b 70 7d 8b bd
       0.040971514 0.055814132 0.0032294514 -0.06811035
0000f0 0a 8e f8 bc e1 73 54 bd 83 75 11 be 86 3d c8 bd
       -0.030341167 -0.051868323 -0.14204983 -0.0977736
000100 b8 bf 99 3c 03 c8 d4 bd dd e2 d6 3d 47 6a 32 3d
       0.018768176 -0.10389712 0.104924895 0.043558385
000110 04 ae 9f bd ab 6f 93 bc fd c9 99 bd 0d 9c 08 3d
       -0.07796863 -0.017997583 -0.07509229 0.033351947
000120 b6 dd 68 3d 0b 54 52 3d 5e b5 52 bd 24 f7 46 3c
       0.056852065 0.05134968 -0.051442496 0.012143884
000130 6c a8 10 3d b3 88 e1 3c 33 d8 2b bd 29 3e 08 3d
       0.03531687 0.027531004 -0.04195423 0.033262406
000140 9f a4 16 bd 95 ee d8 3d 75 ab 01 3c d8 6b d8 3c
       -0.03677809 0.10592381 0.007914414 0.026418611
000150 86 ab f1 3c bc 0b 0c 3d 1c a5 f7 bc dc d9 8a bd
       0.029500734 0.03419088 -0.030230097 -0.06779835
000160 b7 ec b8 bd da 50 05 be 58 3d 57 3d da 76 8f bc
       -0.09029525 -0.13019124 0.052548736 -0.017512728
000170 dc 13 d1 3c c2 e9 e9 bd 94 0d 14 bd a6 32 c6 bd
       0.025522165 -0.11421539 -0.03614576 -0.09677629
000180 ec 06 21 3c d7 2c e7 3d 51 d4 ca bd 76 96 e0 bd
       0.00982831 0.112878494 -0.099037774 -0.10966198
000190 f3 0c 8d 3d c3 6d 59 bd b0 b7 71 bd 36 2b 8a 3c
       0.068872355 -0.053083193 -0.05901307 0.016866308
0001a0 42 d1 a5 3b 77 6c ca bd 32 29 28 be 16 20 2c 3d
       0.005060346 -0.09883969 -0.16421965 0.042022787
0001b0 02 9b e0 bc 17 d0 45 bd 36 8e 74 bb 4b 45 06 3c
       -0.027417663 -0.048294153 -0.003731621 0.008195232
0001c0 ab 00 53 3d 0f a8 b9 bd dc 30 1f 3e 05 7e a4 bd
       0.05151431 -0.09065258 0.15545982 -0.08031849
0001d0 f4 4b 3f bb 75 52 1f bc d5 02 a8 bd 1b 94 9a 3c
       -0.0029189559 -0.009724249 -0.08203665 0.01886945
0001e0 4e 0d 92 bd 31 81 6e bd d4 de b2 3d 7a f5 90 bc
       -0.07131444 -0.058228675 0.08733907 -0.017695177
0001f0 bc 51 15 be e9 72 a7 bd a0 14 8a 3c 74 ff bc bb
       -0.1458196 -0.08176214 0.016855538 -0.005767757
000200 2b 8d 8a 3a ca 3b c2 39 f6 be 08 3b 8c 04 3b b8
       0.0010570636 0.0003704711 0.0020865775 -4.458851e-05
000210 4c c6 b4 3a 35 7d 17 bb 75 35 1e ba 70 45 94 3a
       0.0013792007 -0.00231154 -0.00060351874 0.0011312198
000220 f4 06 9c 37 78 56 18 38 ef 18 c2 39 78 86 4c 3a
       1.8599887e-05 3.6320154e-05 0.0003702114 0.000780202
000230 04 5c ed b9 c0 a5 92 37 27 18 b1 3a 3a 68 c3 b9
       -0.0004527272 1.748174e-05 0.0013511226 -0.00037270953
000240 0c fa e7 ba b4 4f ca b9 0d d0 06 39 92 c3 67 ba
       -0.0017698421 -0.00038587826 0.00012856741 -0.0008841093
000250 c6 56 ab ba 27 50 c3 3a c4 d6 8f b9 c9 81 cd ba
       -0.0013072125 0.0014901207 -0.00027435098 -0.0015678938
000260 3b 31 a5 ba 4c 01 14 bb 1f b9 4e 3a 78 a2 bb 3a
       -0.0012603173 -0.002258378 0.00078858616 0.0014315387
000270 0d 24 e5 ba f6 04 45 3a e4 a7 e4 3a d4 8d 45 b7
       -0.0017482057 0.0007515693 0.0017445055 -1.1775137e-05
000280 fb 7d c1 b9 90 21 9f ba d4 c5 50 b9 55 28 07 3b
       -0.0003690569 -0.001214074 -0.00019910123 0.0020623405
000290 e6 90 b5 b8 7a 07 e4 b7 38 e7 75 39 ba 31 18 3b
       -8.657742e-05 -2.71832e-05 0.00023451156 0.0023222999
0002a0 ab 5b aa b9 b9 79 0b ba 9e 28 48 ba e8 97 0e bb
       -0.00032493225 -0.0005320567 -0.0007635447 -0.0021758024
0002b0 c5 e7 39 b9 aa 4d 08 3a ca 74 68 3a b6 8f 66 3a
       -0.00017729316 0.0005199561 0.00088675006 0.00087952183
0002c0 91 e5 86 ba c1 a2 74 39 d6 4c e6 ba 62 6b a0 3a
       -0.0010291805 0.00023330284 -0.0017570506 0.0012239034
0002d0 3d 5e 21 3a ac 8c 62 b9 fe c0 e6 b9 90 b5 81 38
       0.0006155705 -0.00021605444 -0.0004401281 6.185018e-05
0002e0 ec 04 fb b9 fc 40 db b9 54 b3 a1 ba a4 0c 09 b8
       -0.00047878118 -0.00041819352 -0.0012336769 -3.2675118e-05
0002f0 80 15 95 38 b4 1b f3 b9 5a ad cf 3a 80 e9 e2 38
       7.108878e-05 -0.00046369212 0.001584451 0.000108200125
000300 68 62 ab 38 9f 1c f1 3a 2a 3c b6 b8 c5 3f c7 b8
       8.172245e-05 0.001839537 -8.689643e-05 -9.5009374e-05
000310 c8 db a9 b9 bc 88 ae 3a f3 39 21 ba a6 a2 8d 38
       -0.00032397942 0.0013315897 -0.00061502977 6.7536996e-05
000320 52 dc 3e 38 9d 28 09 3b 96 d3 8e 3a 81 7b 8a 39
       4.550472e-05 0.0020928748 0.0010896798 0.0002641343
000330 d4 66 9b b8 4a 6c 6d ba 84 20 78 38 2f 96 a8 ba
       -7.410129e-05 -0.0009056969 5.915809e-05 -0.0012862141
000340 0c cf 86 3a f6 de cb 3a ac 0b 49 b9 8a 87 d5 39
       0.0010285093 0.0015554118 -0.00019173202 0.0004072751
000350 e8 e3 12 bb f8 42 f6 b9 71 6f de 38 3b 4a 2e ba
       -0.0022413675 -0.00046970672 0.000106065425 -0.00066486344
000360 e3 47 1c 3a 2a c1 5e 39 a8 3f 21 39 e9 50 b4 b9
       0.00059616397 0.00021243529 0.0001537787 -0.00034392558
000370 f1 d4 38 3a 65 6b bd 3a 9c 86 02 ba bf 45 91 ba
       0.0007050774 0.0014451562 -0.0004979165 -0.0011083408
000380 96 32 33 3a 8c 76 79 ba fe e9 f0 ba 74 0b 8d b9
       0.0006835846 -0.0009516261 -0.0018380282 -0.0002690215
000390 fc dc 75 3a 64 e6 c5 ba 05 1f 46 ba 79 f3 16 bb
       0.00093789375 -0.0015098569 -0.0007557723 -0.0023033305
0003a0 93 94 ab 3a 8b 60 0a 3b 88 3d d0 39 c3 c0 03 3b
       0.0013090543 0.0021114673 0.00039718696 0.0020103909
0003b0 12 ce 15 39 6c a7 d1 3a 07 32 bb 3a 1d d6 e6 39
       0.00014286514 0.001599533 0.0014281877 0.00044028545
0003c0 96 a4 cd 3a 97 cc 19 b9 16 cb 87 39 54 cb 4b b9
       0.0015689309 -0.00014667433 0.00025900517 -0.00019435334
0003d0 f0 ad 05 b8 0c 02 37 ba d8 98 24 3a 46 33 15 3b
       -3.1871663e-05 -0.0006981201 0.0006278879 0.0022766157
0003e0 de 8d 70 3a e6 0d c6 3a 48 4e 83 ba 0f fa 20 ba
       0.00091764133 0.0015110343 -0.0010017836 -0.0006140777
0003f0 16 ae 7a ba fc 06 f9 3a 42 06 64 39 0c f6 fd 38
       -0.0009562684 0.0018999274 0.00021746106 0.0001210981

weight_ih_l0 f4 [256, 128]
000000 f6 2f 2a bd 6f 53 a4 3e 6b ef 68 3d 66 8b 82 bc
       -0.041549645 0.32094905 0.05686895 -0.015935611
000010 d7 fc 5c 3e 77 bd 73 3d 2b 21 62 bd e5 90 52 3d
       0.21580826 0.05950686 -0.055207413 0.051407713
000020 83 81 9c be 04 03 78 3c 62 ed a4 bd c5 30 ed 3d
       -0.3056756 0.015137438 -0.0805309 0.11581568
000030 6e 66 3d 3c ab 27 0e 3d 96 45 d5 3d 73 ad c3 3d
       0.011560066 0.0347058 0.10413663 0.09554567
000040 38 70 66 be c2 7c 1e 3d 7c de 29 3d 35 2a 87 3e
       -0.22503746 0.038693197 0.041471943 0.2639939
000050 0e e2 9c 3e c9 c9 18 be 0e d7 52 3e 1e 9f db bd
       0.30641216 -0.14920725 0.2058985 -0.107237086
000060 e4 7b 8b be 73 ac 8c 3e 9d 16 d8 bb 2a 40 10 3e
       -0.2724296 0.27475318 -0.0065944926 0.14086977
000070 a6 36 aa be 90 25 89 3e d0 85 ee bc 00 22 c3 3d
       -0.33244818 0.2678647 -0.029116541 0.09527969
000080 7d 60 50 3e 8a ec 1a 3d bb a6 01 3e c7 07 fc bd
       0.20349307 0.037823237 0.12661259 -0.12306171
000090 e1 8c ba bc 41 49 e7 3d d2 10 ba 3d 52 f4 51 bd
       -0.022772254 0.11293269 0.090852395 -0.051258393
0000a0 16 e0 f1 3d 4e fe bc bd c6 7b 5a 3e 3c 76 4f 3e
       0.11810319 -0.09228192 0.21336278 0.20259947
0000b0 e5 ab 8f be 56 8b 81 3e ab cd de bb 80 36 b5 bd
       -0.28060833 0.25301617 -0.00679942 -0.08848286
0000c0 f7 a2 6d bd bf ee 62 be d7 a8 5a 3e 0b b8 07 bd
       -0.058016744 -0.22161387 0.2135347 -0.0331345
0000d0 44 03 01 be 47 c0 b0 3d e3 7a 93 be cb 0e 11 3e
       -0.12598902 0.08630424 -0.28804693 0.141658
0000e0 d5 a3 00 3e e8 3c c6 ba 59 c2 66 3e 6a 36 1f be
       0.12562497 -0.0015124353 0.22535075 -0.15548101
0000f0 72 3e 61 be 02 98 67 3e f6 16 d3 bd ea dc 87 bd
       -0.21996477 0.2261658 -0.10307114 -0.06633933
000100 7e 7a 04 3e a6 f0 4f be 52 80 b0 be 46 3b fc 3d
       0.12937352 -0.20306644 -0.344729 0.12315993
000110 8b 8a f1 bd 98 34 2d be e5 76 25 3e aa 34 c2 bd
       -0.11794003 -0.16914594 0.16158636 -0.09482701
000120 56 46 83 3e fe 02 8f 3e c7 75 de 3c 30 f4 8b bd
       0.256396 0.2793197 0.02715577 -0.068336844
000130 23 df fd 3c 6e e3 17 3e a4 07 a4 3e a1 23 0e be
       0.030990189 0.14832851 0.3203708 -0.13880779
000140 98 61 73 be 17 63 fa 3d 4b 85 68 3d 78 a1 52 be
       -0.23767698 0.12225931 0.056767743 -0.20569408
000150 7c b3 2e be ce f6 85 bd 74 05 b9 bd 8a 4c 4f be
       -0.17060655 -0.06541215 -0.09034243 -0.20244041
000160 9e 9c 43 3e 76 8f 79 bd e6 18 63 be af cb 19 be
       0.19102713 -0.06092783 -0.22177467 -0.15019105
000170 2b 23 dc bd a1 f1 89 bd 0e 94 b8 3d c5 93 91 bd
       -0.10748895 -0.0673554 0.09012614 -0.07108263
000180 ed 98 de 3d a2 2a ff 3b b9 8a c9 3d 19 b2 0b be
       0.10869012 0.0077870646 0.09840912 -0.13642158
000190 38 d3 8f 3e a7 55 1a be bb 7c 06 be d8 cf 25 bd
       0.28090835 -0.15071736 -0.13133518 -0.04048142
0001a0 7a 49 df bc 93 4b 7f bd a4 6f 1b 3e 86 a3 8e 3e
       -0.027256716 -0.062327933 0.15179306 0.27859133
0001b0 5a 81 f5 3d 6e 24 89 3e 15 b5 5f 3e 8e 25 b9 bd
       0.119875625 0.26785606 0.21846421 -0.09040366
0001c0 e7 b9 8b 3e 07 f8 d8 bb 79 c9 13 3b 0d 43 85 be
       0.2729027 -0.006621364 0.0022550507 -0.26027718
0001d0 9d 23 72 3e d7 e4 89 3c a6 d4 76 3e 8f 3b 53 be
       0.23646398 0.016832752 0.24104556 -0.20628189
0001e0 93 3b 4c 3e fd de ad bd fc 59 ea bd 3c 2a c8 3d
       0.19944601 -0.08489797 -0.114429444 0.097736806
0001f0 8b df dc bc 0d c5 d7 bd e4 f1 9d be 54 75 37 be
       -0.026962062 -0.10535631 -0.3084861 -0.17915851
000200 aa 35 ac 3d 2f ba 2f bc 4a b8 ce bd ef 7d 2c be
       0.08408673 -0.010725542 -0.10093744 -0.16844915
000210 5c 9d 84 3d d4 52 1d be a2 29 0a 3e fe 20 27 bd
       0.064753264 -0.15363628 0.13492444 -0.04080295
000220 15 fe 08 3d 55 e3 65 3e 89 34 47 3d 01 18 02 3d
       0.033445437 0.22450002 0.048634086 0.031761173
000230 66 c4 b5 bc 42 74 fb 3d cb 4d 49 bd c5 66 01 be
       -0.022188377 0.12278034 -0.049146455 -0.1263686
000240 ff 16 98 3d b0 2a 0f 3e 88 ae 65 bd 9c f3 72 3d
       0.07426261 0.13981128 -0.05607465 0.059314355
000250 47 b2 bb 3c 40 33 d6 3d fb d4 c2 bd d2 ce 4d be
       0.022912158 0.10458994 -0.09513279 -0.20098427
000260 8f c5 14 3d 29 62 30 3d 30 a5 b2 3d 63 a8 e5 bb
       0.03632122 0.043062363 0.08722913 -0.0070085987
000270 93 04 b5 3d 8c 3d 02 3d 70 9f 33 3d 15 13 54 3c
       0.08838763 0.031796977 0.043853223 0.012944003
000280 80 6c a0 3d d8 c2 09 be ed 48 b6 bb 54 82 77 3d
       0.07833195 -0.13453233 -0.0055628926 0.060427025
000290 bc da 19 bd c6 b6 4a be 48 14 7a bd 54 39 ea 3d
       -0.037562117 -0.19796285 -0.061054498 0.11436716
0002a0 0d c8 7c 3d 55 0d a8 bd 6a 56 ff 3d 45 95 b7 3d
       0.06171422 -0.08205668 0.12467654 0.08964018
0002b0 9b 96 ce 3c ed 76 f1 3c e6 4e 2f be b9 93 34 be
       0.025218299 0.029475654 -0.17119941 -0.17634477
0002c0 d6 c0 8b 3d b0 8f 97 bc 4f b1 35 bc a7 39 1e be
       0.0682389 -0.018501133 -0.011089637 -0.1545168
0002d0 97 15 7b 3d dd f9 7b 3d ea da 3b bd 6f 71 91 3b
       0.061299887 0.061517585 -0.04586307 0.004438571
0002e0 6e 73 45 3d b5 cf bb bd 14 88 95 3c df 1e 8c bc
       0.048205785 -0.09170476 0.018253364 -0.017104564
0002f0 27 3a 39 3c 9a e3 67 3c 0d 49 1f bc f4 ce 94 3c
       0.0113053685 0.014153386 -0.0097220065 0.01816509
000300 73 a1 c6 3c 67 5e 16 bc 8a 21 42 bd ea f0 0b be
       0.024246907 -0.009177781 -0.047395267 -0.1366612
000310 71 5d 1d 3e 23 49 e5 bc 3e 3b 11 3d e3 71 e1 3d
       0.15367676 -0.027988976 0.03545689 0.1100805
000320 ff cd d5 bc 3c 39 e7 3d 1c 9a 49 3d ca 8f 81 3c
       -0.026099203 0.112902135 0.049219236 0.015815634
000330 6c 90 56 bd 52 3d 88 3c 20 11 39 bc 6d 43 05 be
       -0.052383825 0.016630802 -0.011295587 -0.13014002
000340 82 de 46 3d e7 e1 97 bc 2e a5 a7 3d 4c 10 7d 3b
       0.048552044 -0.018540336 0.081858024 0.003861445
000350 ed 0b c8 3b 60 03 c0 3d 8e 14 9f 3c 28 c3 d5 3d
       0.0061049373 0.09375644 0.01941898 0.10437614
000360 cb b6 e4 bd b4 49 1c 3d ad 3a 11 3d 28 5b 0a bc
       -0.111676775 0.038156226 0.03545635 -0.008444585
000370 6c 22 b1 bc 42 8f b2 3d 87 bc 8b 39 a2 ed aa bc
       -0.021622859 0.087187305 0.0002665261 -0.020865265
000380 b6 ed ac 3c 93 0c 25 3e 8e 60 64 bd 5b 87 b0 bd
       0.021109443 0.16118078 -0.055756144 -0.08619567
000390 c5 69 6f 3d 3c a4 9a 3d a3 07 dc 3d ca 0c 59 bd
       0.05845048 0.075508565 0.10743644 -0.052990712
0003a0 4b 0f 2a bd a1 2b 9b bc 85 7d 25 be 28 87 c9 3d
       -0.04151849 -0.018941702 -0.16161163 0.09840232
0003b0 ed e5 05 3d bb 67 e8 bd 42 df 88 bd 32 a6 ec ba
       0.032689977 -0.1134791 -0.06683208 -0.0018054901
0003c0 3c 71 54 3c fc 69 90 3d 79 50 16 3e 71 a0 37 3d
       0.01296645 0.07051465 0.14679135 0.044830743
0003d0 49 d8 34 bc 2f f2 cd 3c ad ff ff 3b 4b 20 8a bd
       -0.0110378945 0.025139896 0.0078124614 -0.06744441
0003e0 ae b4 6c bd 55 c0 ae bd d3 22 0c 3e f8 24 b8 3d
       -0.057789497 -0.08532778 0.1368516 0.08991426
0003f0 19 da ac 3d 30 2d 8b bd 32 6a 23 bc 50 1e 6b 3d
       0.08440036 -0.06795728 -0.009974049 0.057401955

weight_hh_l0 f4 [256, 64]
000000 b4 71 dd b9 93 8a 6a bb 96 67 d8 39 a2 b2 f2 3a
       -0.0004223712 -0.0035788163 0.00041275908 0.0018516371
000010 d6 70 43 3b a8 20 f6 38 b1 e1 c0 3a ed 41 3d 3a
       0.0029821894 0.00011736277 0.0014715699 0.00072196015
000020 30 3a 57 3a 5f 8a 9b 3a cc ee 3c bb 3e fa 5f 39
       0.000821027 0.0011866799 -0.0028828857 0.0002136016
000030 2d cf c7 b9 3b 64 87 ba cc b1 a2 b9 08 9a 8d b9
       -0.00038110596 -0.0010329554 -0.00031031517 -0.00027008378
000040 62 0e 69 bb ab ba fc ba 9a bc e4 b9 00 78 8f b6
       -0.0035561551 -0.0019281706 -0.00043628068 -4.275702e-06
000050 b8 65 08 bb 94 96 6e 3b 9a 25 b8 3a f0 6f 42 3a
       -0.0020812582 0.003640567 0.0014049292 0.00074171927
000060 a8 06 51 3b 04 b1 56 b8 d0 f5 7b 38 87 6a df b9
       0.0031894837 -5.1186435e-05 6.0071994e-05 -0.00042613244
000070 2c b9 f1 ba c4 da 24 39 98 73 57 b9 58 e0 30 3a
       -0.0018442026 0.00015721755 -0.0002054706 0.0006747297
000080 ea b1 ec 3a f5 ab 14 bb f6 c1 e8 3a 80 1a 51 b9
       0.0018058394 -0.0022685502 0.0017758 -0.00019941665
000090 47 b2 54 3a 30 4c 05 bb 0d b1 13 3b 66 74 85 39
       0.00081137236 -0.00203396 0.002253595 0.0002545446
0000a0 94 9b a1 b8 ea 59 54 3b 1a 00 89 3a b9 5b c8 39
       -7.706057e-05 0.0032402226 0.0010452301 0.0003821531
0000b0 44 e1 a3 38 ff 62 68 bb 87 2c 5c ba 89 82 ae 39
       7.814405e-05 -0.0035459397 -0.0008398969 0.00033285122
0000c0 f1 47 2f bb 66 22 c5 b9 84 71 ba ba 3c cb 2b 39
       -0.0026745761 -0.00037600397 -0.0014224504 0.00016383542
0000d0 6b 97 c1 3a 40 35 3f ba 36 30 90 b9 e4 0a ad 39
       0.0014769858 -0.00072940066 -0.0002750174 0.00033005245
0000e0 40 09 73 37 6b 4a 1b ba 6b 92 5a bb 9c 16 02 3b
       1.4486082e-05 -0.000592387 -0.0033351432 0.0019849902
0000f0 09 ac bd 38 d3 d9 cc 3a aa 4d 02 bb 7c 9a 8c ba
       9.044266e-05 0.0015628882 -0.0019882717 -0.0010727192
000100 1d 03 ab 3a 7f 1f 10 b8 38 54 6b bb f4 19 02 bb
       0.0013047192 -3.436161e-05 -0.0035908353 -0.0019851895
000110 b0 6a f9 b8 b1 07 00 3a c0 ec df 37 7e 9b ae 3a
       -0.00011893117 0.00048839586 2.6693917e-05 0.0013321487
000120 3d 82 6d 3b f8 fc f7 3a 69 b5 4a ba fd ed 54 3a
       0.0036240958 0.0018919995 -0.00077327207 0.0008122621
000130 44 70 36 b9 54 0f cc 38 83 b7 b2 ba ec d7 21 3b
       -0.00017398695 9.730333e-05 -0.0013635013 0.002469535
000140 96 c9 33 ba d6 09 6f 3b 00 d9 22 39 d8 a0 74 b9
       -0.0006858347 0.0036474369 0.00015530363 -0.00023329572
000150 a7 fc 6c bb 8e f8 1a 3a 61 62 e9 ba 8c 33 9a b9
       -0.0036161335 0.00059116713 -0.0017805808 -0.00029411574
000160 09 11 0c bb 56 4d 65 3b 58 97 eb b9 08 5c ae 3a
       -0.0021372458 0.0034988723 -0.00044935453 0.0013302574
000170 b8 a2 3d 3b b4 c9 0c 3a 40 75 73 37 90 f9 e4 38
       0.00289361 0.0005370632 1.4511228e-05 0.00010918372
000180 60 b3 b7 b9 0d be 3e ba 07 45 14 3a 98 8c bb 3a
       -0.00035038125 -0.00072762446 0.0005656038 0.0014308868
000190 eb e7 6d 3b 93 97 15 3b ae 9e 5b 3a c6 6e fe ba
       0.0036301564 0.002282594 0.0008377832 -0.0019411675
0001a0 77 a1 1d 39 7c 49 30 bb 65 2f 01 ba a5 91 87 3a
       0.00015032837 -0.002689927 -0.0004928022 0.0010343088
0001b0 e0 45 71 bb 8f ca ec ba 50 01 5c 37 b6 97 6f b9
       -0.003681533 -0.0018065738 1.3113327e-05 -0.00022849333
0001c0 a8 1a 1d bb 27 8f 6c bb 14 90 4b 3b 14 54 ca 3a
       -0.0023972187 -0.0036096068 0.003106122 0.0015436434
0001d0 96 c5 86 b9 38 02 6d 3b 86 11 22 b9 71 17 7a 3a
       -0.00025705685 0.0036164653 -0.00015456052 0.0009540236
0001e0 d3 34 09 3a bc 73 c2 ba 79 95 35 bb 68 e9 a7 b8
       0.00052340067 -0.0014835517 -0.00277075 -8.006656e-05
0001f0 b8 de 88 b8 1b 98 03 bb 30 74 37 3b a8 cf 34 b9
       -6.52647e-05 -0.0020079676 0.0027992837 -0.00017243496
000200 c1 6d 5c 3b 75 a5 46 bb 2b c8 8c ba 49 6a 16 3b
       0.0033634754 -0.0030311022 -0.0010740807 0.0022951534
000210 e6 38 c2 3a 34 d8 17 ba 91 10 65 bb 60 c6 27 39
       0.0014817982 -0.00057924096 -0.0034952501 0.00016000262
000220 12 e6 55 3a e6 ae 4d 39 95 e4 c4 ba 2e c6 70 3b
       0.00081595883 0.00019615478 -0.0015021736 0.0036739218
000230 f0 73 44 39 41 d7 91 3a cc 9f 24 bb a0 28 b7 ba
       0.00018735207 0.0011126773 -0.002511966 -0.0013973899
000240 fa 9e 1f ba 4f 6d 6d 3b 02 d9 42 39 f5 63 82 b9
       -0.0006089058 0.0036228483 0.00018582123 -0.00024870006
000250 05 b7 aa 39 c4 82 8f 3a 34 a8 3e 3a 01 f7 5d bb
       0.00032561287 0.0010949005 0.0007272989 -0.003386915
000260 26 a3 d1 3a 62 25 7a ba 8a 1b d4 3a a8 e0 6c 3b
       0.0015994057 -0.00095423136 0.0016182524 0.0036144648
000270 ba 58 47 bb 13 e9 2d b8 52 6f c9 39 bb a2 11 3a
       -0.0030417875 -4.146348e-05 0.00038420648 0.000555556
000280 fe e0 6f bb 6a ee 01 bb a2 ad 90 3a 1f c5 a5 3a
       -0.0036602612 -0.0019825944 0.0011038075 0.0012647248
000290 7c 74 75 39 56 48 6b 3b 0e 4b 2a b9 a2 2d 47 3b
       0.00023408415 0.003590127 -0.00016240423 0.003039219
0002a0 69 fa a3 3a aa 70 5c 3b 1e a7 b3 b9 28 5d ea ba
       0.0012510541 0.003363649 -0.00034266053 -0.0017880546
0002b0 08 68 d6 37 b9 46 11 bb 61 1d a6 39 cd 20 55 3b
       2.5559231e-05 -0.0022167398 0.00031683876 0.0032520771
0002c0 db ab 55 bb 12 34 1b 39 6d ba c1 ba c9 69 13 bb
       -0.0032603655 0.0001480135 -0.0014780291 -0.0022493473
0002d0 e4 98 6b b9 69 a4 e1 ba 18 89 bb 39 f0 74 7b ba
       -0.00022468303 -0.0017215136 0.00035769562 -0.0009592315
0002e0 69 ce 2d 3b 29 2d 4a ba 47 52 6d ba 00 9d 41 b8
       0.0026520735 -0.0007712418 -0.0009053093 -4.6161003e-05
0002f0 4e 5b 48 3b 5f 54 b5 3a 7b b4 1e ba 88 72 14 3b
       0.0030572 0.0013834349 -0.00060541154 0.0022651274
000300 07 51 40 bb 12 c2 a2 3a a9 da 01 b9 88 17 04 b7
       -0.002934517 0.0012417457 -0.00012383856 -7.873292e-06
000310 7a 7c b9 39 c4 39 bf b8 0f 08 5d 3a e4 fa 41 ba
       0.00035378692 -9.1183494e-05 0.0008431682 -0.00073997513
000320 3b e0 cc 3a 6b 0b 62 bb 82 12 70 3b 20 f8 4a bb
       0.0015630791 -0.003449167 0.0036632125 -0.0030970648
000330 ac 7a 6a bb 04 6f 24 b9 cb 52 0b ba e2 1c b5 b9
       -0.0035778685 -0.00015681615 -0.00053147663 -0.0003454453
000340 d2 1b 55 ba 38 87 91 ba cb f3 78 3a ed a2 c9 ba
       -0.0008129451 -0.001110292 0.0009496777 -0.0015383639
000350 88 41 4d 39 77 1b 06 b9 ac bf 47 bb fb de 33 ba
       0.00019574736 -0.00012789467 -0.0030479236 -0.0006861535
000360 df bd ab ba 80 4d 5b 37 b3 69 eb ba 2e 51 42 bb
       -0.0013102851 1.3071462e-05 -0.0017960578 -0.0029650438
000370 f0 f7 36 39 4e 98 b3 3a 77 0d 7f 3a 4b 80 0e 3b
       0.00017449236 0.0013702007 0.00097294844 0.002174395
000380 0e f3 5e 3b 24 25 3b 3a ef 40 bd b9 8e 3d cb b9
       0.0034019384 0.0007139018 -0.00036097268 -0.0003876504
000390 b1 f7 c9 ba 7b 55 b1 ba a9 aa 08 ba 2c db 28 38
       -0.0015408901 -0.0013529503 -0.00052134186 4.025844e-05
0003a0 a6 cc 62 3a 04 d1 f6 39 0e 16 8c ba 68 1c df b8
       0.0008651711 0.00047076505 -0.0010687725 -0.0001063876
0003b0 56 b7 01 ba f7 a4 6f bb 9c 87 90 ba e4 e4 e8 3a
       -0.00049482787 -0.0036566833 -0.0011026743 0.001776841
0003c0 a9 a6 53 ba 56 09 6e b8 b2 af aa ba 34 df 77 3a
       -0.00080738455 -5.6752317e-05 -0.0013022332 0.0009455562
0003d0 46 ef bc ba f4 cb 44 bb f6 f9 10 bb fb b4 85 39
       -0.0014414571 -0.0030028792 -0.0022121645 0.00025502578
0003e0 3e 4b 1e 3b 27 67 88 b9 b3 62 ca ba 10 63 c5 b7
       0.0024153735 -0.00026016796 -0.0015440792 -2.353036e-05
0003f0 40 c0 af 39 52 5d c2 3a 5c 10 46 b9 95 ed 27 3b
       0.00033521838 0.0014828837 -0.00018888846 0.0025623788
