Comparative_Evaluation/Baselines/LSTM/models_u/model63.pt (torch, 499143 bytes, 10 tensors)

weight_ih_l0 f4 [512, 10]
000000 b0 75 4b 3e c8 2f d7 3d 4f cc 50 3e 80 ae 70 3d
       0.19869113 0.105071604 0.20390438 0.058760166
000010 64 d3 9c 3d 35 08 84 3d 44 35 2a bc db b5 78 3d
       0.07657507 0.06446878 -0.010388676 0.060720306
000020 89 b3 87 bd 7c 74 a0 3c 4b 3c 32 3e 6f 22 0b 3e
       -0.066260405 0.019586794 0.17405812 0.13587354
000030 d7 31 24 3d a1 ae cc 3d 7e 48 82 3c 87 a8 59 3d
       0.040086593 0.09994245 0.015903708 0.053139236
000040 fc cd 92 b8 49 ae f8 bc 71 c6 ab bd 39 40 fa bd
       -7.00019e-05 -0.030356543 -0.08387459 -0.12219281
000050 ed c0 33 3e 9d 35 11 3e 4c c4 fe 3d 2b 2f 56 3c
       0.17554064 0.14180608 0.124397844 0.013072769
000060 60 91 d8 3a ee b2 95 3d 90 5f 80 bd 6b 30 73 bd
       0.0016522817 0.07309519 -0.06268227 -0.059372347
000070 c6 52 e2 bc 93 95 88 bd e4 05 54 3e cd 11 05 3e
       -0.02762736 -0.06669154 0.20705372 0.12995072
000080 fe e4 e7 3d 8e 79 d9 3d f0 59 1f 3e bf 40 e4 3d
       0.11322974 0.10618888 0.15561652 0.11145162
000090 bc bb 99 bc 5c a7 0d bb 6b 99 45 3d fb 25 70 bd
       -0.018766277 -0.0021614647 0.048242014 -0.05862997
0000a0 7a 9e 38 3e 95 46 1e 3e 97 46 3c 3e d5 f8 90 3d
       0.18029204 0.15456612 0.18386303 0.07078711
0000b0 d0 94 5a 3d c4 87 ee 3d 80 ce ed 3d 79 5e 90 3d
       0.053364575 0.11646989 0.116116524 0.07049269
0000c0 de f1 9e bd 47 8b ad bd c0 8f b2 3d ec a8 5e 3e
       -0.07760976 -0.08473831 0.087188244 0.21744126
0000d0 f8 b6 8d 3d 14 c0 f5 3d c7 ba f9 3c 90 e3 fe 3d
       0.06919664 0.119995266 0.03048457 0.12445748
0000e0 c4 78 d5 3d c1 0d b6 3d 14 98 8e 3c 45 f7 8b 3c
       0.10423425 0.08889342 0.0174065 0.01708568
0000f0 2a 9f e0 3d 3f 55 12 3e 54 24 e3 3d 89 4c cd 3d
       0.10967858 0.14290331 0.110909134 0.100243635
000100 5d 0d 04 3e 0c cb 33 3d 6a a0 3f 3d bd bd 06 3d
       0.12895723 0.043894812 0.046783842 0.032895792
000110 d7 c0 ed 3d 2b 8a cf bc 7f 39 f3 3c b5 3b 97 3c
       0.11609047 -0.025334438 0.029690502 0.018461088
000120 8e 4b a9 3b 7f b7 4d 3d 2b 28 8a 3d ba 30 2d 3c
       0.0051664775 0.050223824 0.06745943 0.010570699
000130 0a 98 7c bb f6 23 87 3c df 8e 33 3d 9f aa 3b bc
       -0.003854277 0.01649664 0.043837424 -0.011454253
000140 d7 30 18 3e 2d ff bd 3d 66 3b fa 3d 4a d8 dc 3d
       0.14862381 0.092771865 0.122183606 0.10783441
000150 cd 66 39 3e de 9e 12 3d 2c b4 d9 bc 8f 48 56 3d
       0.18105622 0.03579604 -0.02657517 0.05231529
000160 0f 00 c8 bc 96 7c 91 3d 1a 8b 0e be cf 0a 0a be
       -0.02441409 0.07103841 -0.1392025 -0.13480686
000170 e4 34 92 bb 8a 48 c5 bd b2 4e 0f 3d 4d 3a 8b bd
       -0.0044618715 -0.09632976 0.03498716 -0.06798229
000180 a0 1c 91 3d 1d c9 1b 3d be 9a 83 3d de d9 ea 3d
       0.07085538 0.038033593 0.06425999 0.11467336
000190 2c 58 cd 3d e5 73 b9 3d c9 bc 7c 3d 28 27 a5 3c
       0.10026583 0.09055308 0.061703477 0.020160273
0001a0 51 e1 15 3d 7d 77 ad 3d 81 d3 95 bc 10 c5 65 3d
       0.03659183 0.08470056 -0.01828933 0.056096137
0001b0 6a ed da 3b 30 20 36 3d fc 59 72 3d 36 9d 4f 3e
       0.006681134 0.04446429 0.059167847 0.20274815
0001c0 3b d6 24 3e b2 8e 0f 3e 6d 66 dd 3d 99 b2 49 3d
       0.16097347 0.14019278 0.10810552 0.04924259
0001d0 32 19 85 3d f8 55 16 bd 8f d2 78 bd f1 f4 1f bd
       0.06498946 -0.03670308 -0.06074768 -0.039051954
0001e0 b3 62 1c 3e 27 a9 0e 3e 24 cf 86 bc ce e3 5a bd
       0.15272026 0.13931714 -0.016456194 -0.053439908
0001f0 65 b1 1e 3c 7f 2e 1a bd 28 15 d8 bd 01 6b 89 bd
       0.009685849 -0.037642 -0.1055091 -0.067098625
000200 4b a8 12 3d c9 f5 06 be 7d c9 2c 3e 6b dc 29 3e
       0.035805028 -0.13179697 0.16873737 0.16587989
000210 cd 3f 50 3e 67 df d5 3d 59 b5 97 3d ca f7 35 bc
       0.20336838 0.10443001 0.07407636 -0.011106441
000220 c8 3c f8 3d af 31 80 bd c5 89 87 bd a0 b5 b9 bd
       0.12120968 -0.062594764 -0.06618074 -0.09067845
000230 c7 62 66 3e c6 d0 9a 3d 51 ae bc 3d 72 f3 96 3d
       0.22498618 0.075593516 0.09212936 0.07370652
000240 06 b8 3d 3e 1d 43 c0 3d e6 f3 4e 3d f4 6b e3 3c
       0.1852723 0.09387801 0.05052557 0.027761437
000250 c3 a5 c4 3b c0 8f e7 3c 3c 5a 94 3d ec e9 04 3d
       0.0060012056 0.028266788 0.07243773 0.032449648
000260 3a 4d d9 3d ef 74 f9 3d 3b 37 b9 3b d4 8b 99 3d
       0.10610433 0.121805064 0.005652336 0.07497373
000270 ec ff f5 3c 1e 2a f3 3c 36 db d6 bd bb 30 50 bb
       0.03002926 0.029683169 -0.1049103 -0.0031767327
000280 8a db 05 3e f5 f4 a5 3d cb 1c 30 3e 7b e4 1c 3e
       0.13072029 0.081033625 0.17198484 0.15321533
000290 b5 77 07 3e c6 31 04 3e 89 29 c6 3d 6e ea 3c bd
       0.13229258 0.12909612 0.09675891 -0.046122007
0002a0 c9 97 9b 3d e2 e7 1d 3c 84 3f 1d 3e 49 44 41 3e
       0.0759731 0.009637805 0.1535626 0.18873705
0002b0 07 10 5e 3e 8c 37 70 3d 4f 15 30 3e 1d 5e 92 3d
       0.21685801 0.058646724 0.17195629 0.07146857
0002c0 6a 58 2a 3d 54 88 88 3d d3 77 d8 bc a6 47 6d 3c
       0.041588224 0.066666275 -0.026424324 0.014482414
0002d0 56 58 12 3e 7a af 8a 3d 86 6b 95 3d fa d4 07 3d
       0.1429151 0.06771751 0.07295899 0.033162095
0002e0 1b ab 2c 3e 2b 9d 5d 3d 00 6a 91 bc 10 c2 24 bb
       0.16862147 0.054104965 -0.01775074 -0.0025140084
0002f0 aa ae 9d bd d9 5d e8 bc 41 65 1c 3e 90 2c 52 3d
       -0.0769933 -0.028365063 0.15273 0.05131203
000300 de 0c a4 3d 0d 07 eb 3d dc 15 14 3d e7 9a 02 bc
       0.08010267 0.11475954 0.03615366 -0.007971502
000310 2c ca a6 3d 8c 3b 6b 3d 1d 5a 65 bd aa bd bf bd
       0.0814403 0.057429835 -0.05599414 -0.093623474
000320 84 b5 58 3e 0b b9 ce 3d 8a 1b 12 3e 40 c5 1a 3e
       0.21162993 0.10093888 0.14268318 0.15114307
000330 e7 3d 5f 3c aa 00 16 3e 72 b0 2f bd e5 12 d7 3d
       0.0136255985 0.14648691 -0.04289288 0.10501651
000340 81 83 8a 3d 90 3b c6 bd ec 3b bb 3d 88 5b 46 3e
       0.06763364 -0.096793294 0.091422886 0.19370854
000350 f3 63 5d 3e 9f b0 1d 3e 00 ee 65 3d ad 12 c0 3b
       0.21620159 0.15399407 0.056135178 0.0058616013
000360 fc 72 3d 3c 59 b4 5d 3d 9b 99 b7 bd db 04 82 3c
       0.011563059 0.05412707 -0.08964845 0.015871456
000370 30 56 af 3c b3 2a c3 bd da 55 11 3c 85 53 e3 bc
       0.021403402 -0.095296286 0.008870566 -0.027749786
000380 3d 2f d1 3b 44 f4 37 bd b5 9e 97 bd 81 c8 e4 bc
       0.006383805 -0.044910684 -0.07403318 -0.027927639
000390 37 ed 9d bc 87 56 ff bc ab 70 71 3d d3 b7 58 bd
       -0.019278152 -0.03116919 0.05894534 -0.052909683
0003a0 46 2e a2 bc 8a 24 e9 bd 67 23 4c bd 03 6d fc 3c
       -0.019797456 -0.113839224 -0.04983845 0.0308137
0003b0 e2 55 be bd 72 52 bb bc 0a 7d 50 bd 3a a6 93 bb
       -0.092937246 -0.022866461 -0.050900497 -0.0045058997
0003c0 19 08 71 3e 8a 8d 39 3e f6 90 00 3e 2a 83 1a 3e
       0.23538245 0.18120399 0.12555298 0.15089098
0003d0 15 04 20 3e e8 ee e4 bc d7 13 75 bd e7 0e ba bc
       0.15626557 -0.02794595 -0.059833374 -0.022712184
0003e0 81 d6 62 bd 08 1e c0 bd 41 e3 0a 3e b0 77 a4 3d
       -0.055380348 -0.09380728 0.13563253 0.08030641
0003f0 f4 49 95 3d 38 92 82 3d a0 44 fe 3b 29 f2 78 3d
       0.07289496 0.06375545 0.0077596456 0.060777817

weight_hh_l0 f4 [512, 128]
000000 9c 5f e5 b6 a4 2a 76 39 f2 0b e1 37 8a 46 87 36
       -6.835862e-06 0.00023476273 2.6827653e-05 4.0315254e-06
000010 b0 20 b9 34 60 eb 02 b7 3d e9 62 b8 97 bb 5c 35
       3.4482719e-07 -7.803406e-06 -5.409982e-05 8.2229366e-07
000020 5a b6 d2 38 2a 4e 8c 37 63 d4 8c ba 2a c3 b7 b4
       0.00010047546 1.6725699e-05 -0.0010744449 -3.4228407e-07
000030 ae 01 97 35 f4 e4 cf b6 84 52 95 b6 b6 3a f8 38
       1.1250866e-06 -6.1957344e-06 -4.450152e-06 0.00011836497
000040 fc 96 66 37 cb 40 2f b7 ca f1 79 b9 21 7c 09 b9
       1.3744222e-05 -1.0445899e-05 -0.00023836564 -0.0001311158
000050 58 6f 6c b8 0d 16 47 39 40 af 81 36 44 a7 a4 34
       -5.637048e-05 0.00018986333 3.8649014e-06 3.0669082e-07
000060 34 ff dd b9 a2 b4 8a 39 69 4f 18 35 ce 95 00 37
       -0.00042342546 0.00026455993 5.673997e-07 7.664274e-06
000070 d2 5a 5f b8 bd 7a 88 ba 67 dd ed b6 98 e2 bc b6
       -5.3251926e-05 -0.0010412555 -7.088925e-06 -5.6292156e-06
000080 1a 18 8a b7 c0 9c 6b 38 8a f7 60 b8 6a 9e d8 b9
       -1.6462105e-05 5.617435e-05 -5.36363e-05 -0.00041316758
000090 07 a2 2a 36 1c 7f 8c b7 71 07 cf b8 04 ef 01 36
       2.5426286e-06 -1.674849e-05 -9.871915e-05 1.9361623e-06
0000a0 12 47 9e b6 58 59 38 36 cd c8 16 38 70 6f 87 35
       -4.7170406e-06 2.7470142e-06 3.5949797e-05 1.0090716e-06
0000b0 c8 ff aa b4 a8 6a 91 b6 c9 31 b3 b6 92 fc 3a b6
       -3.1851073e-07 -4.333753e-06 -5.3404115e-06 -2.7863175e-06
0000c0 ff 29 60 b7 c3 9c 5c 38 3e 48 ae b6 b1 32 6b b8
       -1.3361218e-05 5.2598083e-05 -5.194014e-06 -5.6075576e-05
0000d0 00 60 77 b0 7b f8 87 37 74 ca 08 36 88 c3 7d b4
       -8.99945e-10 1.6208962e-05 2.0383422e-06 -2.3633595e-07
0000e0 51 63 3d 36 38 50 3d b6 f6 9a d3 35 d0 c9 68 38
       2.8221004e-06 -2.8209888e-06 1.5765825e-06 5.5501063e-05
0000f0 47 f6 7c 3a f7 fd 50 38 e8 7e 8b b7 db 09 4e b3
       0.00096497353 4.9827588e-05 -1.6629187e-05 -4.7972076e-08
000100 32 39 47 b5 db bf 69 3a 5d aa 88 3a 5d 69 de 33
       -7.4216507e-07 0.00089168333 0.0010426749 1.0356846e-07
000110 1a ef b8 b6 ba 21 63 35 ce 9a 29 35 c8 97 45 b6
       -5.5114624e-06 8.461317e-07 6.3182677e-07 -2.9443636e-06
000120 ad 66 ed 35 f4 d6 17 36 8a 9c 44 b7 31 27 33 36
       1.7687759e-06 2.2625873e-06 -1.17189575e-05 2.669589e-06
000130 33 6c 9d 36 65 fc cc 33 0f 6d 9a b5 a5 ff 7f b6
       4.6915607e-06 9.5454006e-08 -1.1505634e-06 -3.8146766e-06
000140 bb 70 89 37 74 0f 10 38 7a f0 b4 b6 b2 c9 7c b7
       1.6384167e-05 3.4346667e-05 -5.392413e-06 -1.5067331e-05
000150 d4 03 0f 35 07 e6 7c 36 ea 3a e3 b6 17 25 46 b8
       5.327722e-07 3.768482e-06 -6.7719857e-06 -4.724142e-05
000160 ea a6 9d 36 60 18 92 b6 c5 5e c6 35 ae cb f5 b6
       4.698396e-06 -4.3539767e-06 1.4779731e-06 -7.3252804e-06
000170 61 91 06 b9 1e 33 35 36 0b cc 15 b8 78 c7 6d 39
       -0.00012833394 2.7000856e-06 -3.5714398e-05 0.00022676389
000180 78 d8 c6 36 57 ab d9 b7 a7 4f 3d b9 a7 c3 3a 38
       5.92606e-06 -2.5948202e-05 -0.00018054117 4.452807e-05
000190 d1 67 84 b9 52 08 6f 39 64 d9 af 39 8a 6f 88 b7
       -0.0002525435 0.00022795916 0.0003354057 -1.6264403e-05
0001a0 74 4e 8d b9 c4 53 66 38 ac f2 3d b5 3b 81 72 3a
       -0.00026952068 5.4914286e-05 -7.076112e-07 0.0009250824
0001b0 40 21 60 3a 20 0f a4 37 30 74 80 34 db be 5e b7
       0.00085498765 1.9557367e-05 2.3926395e-07 -1.3276668e-05
0001c0 a5 51 aa 36 58 e1 a7 34 21 22 9e b6 66 ed 90 32
       5.0758995e-06 3.1270133e-07 -4.71274e-06 1.6871763e-08
0001d0 0a 96 3e b6 8f 7f c8 b5 80 0d b6 36 ed d9 02 34
       -2.839954e-06 -1.4938286e-06 5.4255943e-06 1.2186474e-07
0001e0 b6 ac b0 b7 3f df 3d b6 8d 42 7f b6 de 9f 10 37
       -2.106126e-05 -2.829314e-06 -3.8036699e-06 8.620291e-06
0001f0 22 ab 9e 3a b0 76 23 b6 1d d1 55 b4 e2 be ad b9
       0.0012105445 -2.4357978e-06 -1.9913246e-07 -0.0003313935
000200 50 31 41 b4 a9 8d 4e 36 c8 7d d3 35 42 45 2b b7
       -1.7992465e-07 3.077885e-06 1.5757332e-06 -1.020852e-05
000210 53 a2 85 b5 c8 7e c4 b5 6a dc d6 b4 1f ac 7a 38
       -9.956515e-07 -1.4640036e-06 -4.0020979e-07 5.9764945e-05
000220 f1 95 eb 36 32 85 81 b7 64 2a e6 36 ab 8a 49 b7
       7.0210012e-06 -1.5440022e-05 6.859469e-06 -1.201282e-05
000230 47 c5 00 36 67 62 42 38 08 e6 86 34 32 0f 6b b8
       1.9188317e-06 4.634485e-05 2.5126815e-07 -5.6042518e-05
000240 41 d2 56 35 00 23 eb 34 2e f5 2c b4 3a 10 03 37
       8.002717e-07 4.3797627e-07 -1.6107944e-07 7.8119865e-06
000250 c6 9e 7f 36 f9 6b 3e b6 d8 74 1d 35 2a 14 43 b7
       3.809038e-06 -2.8375055e-06 5.865709e-07 -1.16276005e-05
000260 b3 4c e0 b3 74 61 ac 37 4a e5 8a b7 59 46 69 b5
       -1.0444764e-07 2.0549378e-05 -1.6557653e-05 -8.6901633e-07
000270 a8 a6 0b b8 ff 9b 73 35 a2 4e 02 b6 61 28 a2 3a
       -3.3295393e-05 9.075156e-07 -1.941728e-06 0.0012371653
000280 d9 6c b8 b6 28 9c ef b6 ea fa 26 37 9b 6f 45 3a
       -5.496299e-06 -7.140934e-06 9.9527915e-06 0.0007531584
000290 23 e0 98 b6 1d 63 65 b8 f0 22 14 b7 8d ec 4a 36
       -4.556046e-06 -5.469016e-05 -8.829622e-06 3.0238036e-06
0002a0 b6 9e 83 35 ce eb 8b 37 e0 db 5e b8 91 60 b5 b6
       9.806452e-07 1.6679896e-05 -5.31337e-05 -5.405462e-06
0002b0 9b a1 81 b6 13 84 23 b5 b6 b0 40 b6 b6 7f 8c 37
       -3.863313e-06 -6.0914425e-07 -2.8713089e-06 1.674877e-05
0002c0 6b 2d 54 37 42 09 7d b7 05 7e 73 3a da 99 0f b7
       1.2646759e-05 -1.5082131e-05 0.0009288493 -8.559286e-06
0002d0 99 68 bc b6 4c 27 f0 3a a5 85 f0 35 fe 15 da b4
       -5.6150134e-06 0.0018322258 1.7920289e-06 -4.0621666e-07
0002e0 86 c4 89 b6 41 db 25 b6 6d 8b 37 36 9f e3 29 b8
       -4.1057965e-06 -2.4714539e-06 2.7350281e-06 -4.050473e-05
0002f0 df 0d 63 38 7e 0f 8d 37 26 f2 16 36 e0 54 3d 38
       5.4133936e-05 1.6815724e-05 2.249269e-06 4.5140157e-05
000300 01 b0 0f b6 2f 28 e1 33 3e b0 b0 ba af ad 89 37
       -2.1411108e-06 1.0484688e-07 -0.0013480259 1.641255e-05
000310 1e fe 8b 37 2a d6 89 36 c6 5e dc 35 86 1c 0c b6
       1.6688424e-05 4.10785e-06 1.641886e-06 -2.0878228e-06
000320 9d 07 f6 37 fa 01 0a 36 e5 fc 26 ba fa a4 c6 b2
       2.932903e-05 2.0564753e-06 -0.00063700817 -2.3125256e-08
000330 67 0d 8d 37 4f bd cc b6 62 f3 93 35 f8 dd 52 b6
       1.681475e-05 -6.101712e-06 1.1023187e-06 -3.1421641e-06
000340 e5 76 fb 35 1d 2e dd 3a 7c 0d bd 37 e2 06 42 38
       1.873556e-06 0.0016874705 2.2536835e-05 4.6259614e-05
000350 5b 48 75 35 02 42 00 38 63 2a 7a b8 af d5 67 b8
       9.1374903e-07 3.0579053e-05 -5.964412e-05 -5.52737e-05
000360 38 d5 eb 36 5a ef 7f 37 9b 92 89 b5 f8 1f c3 ba
       7.0283677e-06 1.5254913e-05 -1.0249963e-06 -0.0014886847
000370 ab 1a 35 3a d5 40 0d b5 ee 9b 61 b9 7f ba 90 b4
       0.0006908576 -5.2620936e-07 -0.0002151576 -2.6957784e-07
000380 47 ac b2 39 89 63 ba b6 ec da 55 39 0b c6 e7 32
       0.00034079162 -5.5548194e-06 0.00020394818 2.6981999e-08
000390 61 02 ec 39 6c 6e 30 b6 07 98 7d ba cb 68 62 38
       0.000450152 -2.6290318e-06 -0.0009673838 5.3980195e-05
0003a0 3d d3 a6 b6 ab 8c 97 b6 9a ec 89 37 77 95 d6 39
       -4.971777e-06 -4.5165266e-06 1.6441849e-05 0.0004092862
0003b0 f8 32 ad b4 8f bf 13 36 e8 62 49 b8 2f 25 22 36
       -3.2260846e-07 2.2016209e-06 -4.8014248e-05 2.4161525e-06
0003c0 d4 b8 45 ba 96 fa 05 37 3d 91 d8 b6 15 e9 5c b6
       -0.0007542495 7.985762e-06 -6.4542096e-06 -3.2918226e-06
0003d0 fa 42 68 38 b5 81 b9 3a c7 29 29 b6 a7 b2 25 37
       5.5375487e-05 0.0014153036 -2.520728e-06 9.876362e-06
0003e0 a8 ac 62 b8 c8 bc 54 b8 aa 33 2c 36 9e fd 4a ba
       -5.4043398e-05 -5.0720555e-05 2.566007e-06 -0.00077434804
0003f0 7d b1 83 3a 3c 05 80 37 98 22 c5 38 a4 01 85 b7
       0.0010047402 1.5261227e-05 9.4001356e-05 -1.58556e-05

bias_ih_l0 f4 [512]
000000 64 17 1b 3e ae 2a 74 3d b2 71 b0 3d e0 f3 03 3d
       0.15145642 0.059611015 0.08615436 0.032215
000010 24 9d 82 3d 9c 56 54 3d ef 7e 25 3e a8 8f 4d 3d
       0.063776284 0.05184041 0.16161703 0.05018583
000020 8c ea 04 3c 1a 75 53 3d 05 90 92 3d 30 00 18 bd
       0.008112561 0.05162535 0.07156376 -0.037109554
000030 cf 22 0e bd e9 39 e0 3b 67 39 5f bc 23 db 92 3d
       -0.034701165 0.006842841 -0.013624526 0.07170703
000040 ac c8 0f bd e8 e4 97 3c 0a e9 11 3c 74 9a 9d 3d
       -0.035103485 0.018541768 0.0089056585 0.07695475
000050 e1 7a f0 3d 7e 35 52 bc 79 71 95 3d 30 14 97 bd
       0.11742187 -0.012830136 0.07297034 -0.07376897
000060 3d d0 b8 bc 06 f5 6a bd 09 b1 00 bc ef ce 85 3c
       -0.022560233 -0.05736258 -0.0078547085 0.016334025
000070 be 86 07 3d 74 3c d9 3c ef e0 8d 3d c1 17 1f 3e
       0.033087485 0.026518084 0.06927668 0.15536405
000080 2c 05 0d bd 0c 56 07 3d 43 32 fc 3b 26 cf bb 3d
       -0.03442876 0.033041045 0.0076964214 0.0917037
000090 39 a3 e1 3d b2 02 5b 3c 20 87 02 3d aa 36 97 3d
       0.110174604 0.013367342 0.031867146 0.07383473
0000a0 53 df 2c 3d bc fe ab bd e8 8d 88 bc 8f 99 07 bd
       0.042205166 -0.08398196 -0.016669229 -0.03310543
0000b0 ea 3e 93 3d e5 84 ac bc 9b 92 af 3d ab 5a 38 bd
       0.07189734 -0.021059463 0.08572885 -0.045008343
0000c0 b6 a3 94 3d 65 12 8c bd c7 f1 fa 3d c9 98 9d 3d
       0.07257788 -0.06839446 0.122531466 0.07695157
0000d0 25 92 da bb 2e 45 96 3d 05 24 2d bd 00 08 b4 bc
       -0.006670254 0.07337414 -0.04227068 -0.021976471
0000e0 b8 db 0e 3d ee ca b9 3d d5 19 cc 3c ec 0b 13 3e
       0.03487751 0.09071909 0.024914661 0.14360017
0000f0 7a 6d 95 3d ef 0c bd 3c 6b c4 27 3e 91 f6 f2 bc
       0.072962716 0.023077456 0.16383521 -0.029658588
000100 09 51 11 bc 08 4f 8c 3c cf e3 1f bd 85 22 00 bd
       -0.008869418 0.017127529 -0.039035615 -0.03128292
000110 54 5d cc 3d f3 2a 27 bc 12 53 32 3b 93 c8 af 3d
       0.099787384 -0.010203111 0.0027210158 0.08583178
000120 5c c0 e2 bc c0 93 18 3e 5e ec b3 3c 45 79 93 3d
       -0.027679615 0.14900112 0.021963295 0.07200865
000130 c2 01 fc 3c a9 4d be 3d e9 a9 9e 3d 75 f6 24 3c
       0.030762557 0.09292156 0.077472515 0.010068526
000140 2b d1 18 bd 68 78 95 3d 6d 9b e6 3d 93 5d a0 3d
       -0.037308853 0.07298356 0.11260114 0.07830348
000150 71 ab 9d 3d de d7 c8 3d d3 a0 7e 3d ab 60 cb 3c
       0.076987155 0.098067984 0.062165093 0.024826368
000160 cf 05 d2 3d c7 e5 5f bc f2 5a 0c 3d d8 d1 83 3d
       0.10255014 -0.013665623 0.03426642 0.06436509
000170 07 61 7a 3d fd 6e d2 3d cd cc 1a bc 5a a4 d5 3c
       0.06112769 0.102750756 -0.009448242 0.026079345
000180 35 32 2c 3c 55 0d a0 bc 30 e7 88 3d 97 d9 40 3c
       0.010510017 -0.019537607 0.066847205 0.011770627
000190 b1 af d3 3d 92 25 12 bd d7 99 db 3c ec 35 b4 3d
       0.10336245 -0.03568036 0.026806755 0.08799347
0001a0 a5 a9 bd 3d 4b a9 ff 3c d6 7d d9 bc a2 86 1b 3d
       0.09260873 0.031208655 -0.026549261 0.037970193
0001b0 e8 26 40 3d 32 32 a3 3d a0 14 ff bc b8 03 23 3d
       0.046912104 0.07968558 -0.031137764 0.03979847
0001c0 49 0a 79 3d c6 f2 86 bc 56 2a a1 3d 89 e1 c6 3d
       0.060800824 -0.016473185 0.07869403 0.09710986
0001d0 44 f7 5d bd c1 9e b0 bc 3e af e0 3d 85 e4 0c 3e
       -0.05419089 -0.021560075 0.10970925 0.13759048
0001e0 e5 a3 37 bc 00 49 d5 3d af 9e 9c 3d 12 7f df ba
       -0.011208509 0.10414314 0.07647454 -0.001705142
0001f0 dc 49 cd 3d e1 fc 83 3d 9f f1 55 3d fa 95 a5 3c
       0.10023853 0.06444717 0.05223238 0.020213116
000200 9e e6 9c 35 e8 15 5c 35 94 35 01 b8 a3 4b 39 b9
       1.1690024e-06 8.1988264e-07 -3.0805895e-05 -0.00017671152
000210 ba 57 89 35 d2 13 9d b6 77 ae 37 b6 f5 c6 bc 38
       1.0232827e-06 -4.681272e-06 -2.7370677e-06 9.001597e-05
000220 d8 92 dc 38 31 a9 92 33 f8 4e e6 36 bf e3 f8 b7
       0.00010517769 6.8294305e-08 6.8637273e-06 -2.9669956e-05
000230 01 ad fc 35 4a d1 04 b7 e6 90 ce b4 82 29 23 37
       1.8825814e-06 -7.916542e-06 -3.8475918e-07 9.725221e-06
000240 2e 58 b4 b3 f0 02 05 b4 c6 9b b7 b6 24 12 4f 3a
       -8.397943e-08 -1.2387659e-07 -5.4719594e-06 0.00078991265
000250 31 31 ec b7 3e b3 fe b6 2c 1c a6 b9 70 9d a5 b6
       -2.8156299e-05 -7.5906564e-06 -0.00031682977 -4.9357113e-06
000260 ac 3d 76 36 b7 93 75 37 49 b8 29 b6 10 8b 07 b7
       3.6692754e-06 1.46375305e-05 -2.529023e-06 -8.079005e-06
000270 a2 77 64 b5 8c 79 2a b3 22 a2 cd ba da 28 f0 ba
       -8.511071e-07 -3.9691756e-08 -0.0015688578 -0.0018322722
000280 d7 15 1a b3 a6 0c c4 b6 93 8e eb b6 3e af a6 b6
       -3.5875782e-08 -5.8427277e-06 -7.0201436e-06 -4.9675864e-06
000290 40 01 db 32 1c 50 84 b7 67 23 54 38 bf 70 ba b9
       2.5495524e-08 -1.577293e-05 5.057771e-05 -0.00035560687
0002a0 b8 a8 02 b7 30 c0 98 36 e5 01 80 b6 8f 1e e9 3a
       -7.787887e-06 4.5523266e-06 -3.814918e-06 0.0017785596
0002b0 bd 69 dd b6 68 1b 5f b8 ee 39 3b 3a 2a 35 71 32
       -6.598623e-06 -5.3192867e-05 0.0007142116 1.4040134e-08
0002c0 e8 b1 4e 34 56 66 f2 33 6e 90 3d 37 9f d7 bc 39
       1.9249967e-07 1.1287618e-07 1.12989055e-05 0.00036018805
0002d0 d6 15 51 b8 c2 65 6b 35 6b af fe 35 c3 b4 f1 ba
       -4.984982e-05 8.76924e-07 1.8975528e-06 -0.0018440712
0002e0 c7 3d b9 3a 45 39 ae 35 cb ca 39 36 b0 f5 93 b3
       0.0014132791 1.2980678e-06 2.768519e-06 -6.889911e-08
0002f0 4e 01 60 3a f5 e6 b7 ba 41 6d 07 b8 b2 00 8c 37
       0.0008545116 -0.0014030623 -3.228826e-05 1.6689624e-05
000300 98 de b4 b2 b8 5f c4 b5 4c ea 55 35 2e 48 8c b4
       -2.1055982e-08 -1.4630996e-06 7.968963e-07 -2.612955e-07
000310 30 76 8c 37 9d a6 a4 b9 46 49 00 37 fd 59 40 b5
       1.6744336e-05 -0.00031404654 7.646455e-06 -7.1656524e-07
000320 48 18 99 b9 bb 7a 46 38 eb d3 bc 32 01 9b 1b 39
       -0.00029200525 4.732118e-05 2.198245e-08 0.00014839695
000330 46 ca 60 39 99 0d 36 3a 22 2f 23 36 1a 53 2c 36
       0.00021437657 0.0006944775 2.4316328e-06 2.5678369e-06
000340 0a 4d 44 39 12 58 2f b7 f8 c8 10 b7 a6 21 6c b8
       0.00018720716 -1.0451318e-05 -8.6298605e-06 -5.6298122e-05
000350 82 f8 fd 36 dc 33 c9 b6 21 9c b5 b7 6b db 87 b7
       7.5689177e-06 -5.996304e-06 -2.1649585e-05 -1.6195429e-05
000360 44 63 a3 35 dd 8a 7f 36 38 b7 a4 34 ee 48 81 36
       1.2173336e-06 3.807879e-06 3.068069e-07 3.8529897e-06
000370 8c 43 09 38 6a 28 3e b6 de 2a 5c b7 06 c8 40 37
       3.2726253e-05 -2.833573e-06 -1.3123003e-05 1.1490663e-05
000380 49 60 b8 b9 56 ec 10 37 69 17 8d b7 ff 1e a6 36
       -0.00035166953 8.638095e-06 -1.6819411e-05 4.950794e-06
000390 04 8c d3 b5 03 3f 39 b5 ef b7 bb b9 66 86 41 b7
       -1.5761475e-06 -6.9009565e-07 -0.0003580446 -1.15349885e-05
0003a0 a4 3e 88 32 f0 8c 55 34 d4 ce 2d 36 48 60 0f b7
       1.586097e-08 1.9888444e-07 2.5899399e-06 -8.545881e-06
0003b0 87 8d 73 b7 4c bc 22 38 f2 51 40 b4 90 1a 5d 34
       -1.4516881e-05 3.8799175e-05 -1.7911205e-07 2.0591892e-07
0003c0 23 87 4f b8 c4 c3 54 37 cf 7d 84 36 3a 86 1b b8
       -4.94785e-05 1.2681765e-05 3.9485526e-06 -3.7079888e-05
0003d0 0e 43 fa b5 60 10 6b b4 54 4a 1f b6 02 0a a1 34
       -1.8645967e-06 -2.1892038e-07 -2.373611e-06 2.9995869e-07
0003e0 d4 a0 05 b4 f8 ff 5a b8 08 aa 3f 33 94 b8 91 34
       -1.2445099e-07 -5.221364e-05 4.4625295e-08 2.7142653e-07
0003f0 a9 5e bf b5 ec 8f 5e 37 72 b9 80 b7 b0 22 e4 b7
       -1.4258159e-06 1.3265741e-05 -1.5345144e-05 -2.719587e-05

bias_hh_l0 f4 [512]
000000 df c8 14 3e d9 60 a2 bc 74 72 6e bd 4f 30 a8 3c
       0.14529751 -0.019821571 -0.05821462 0.020530848
000010 65 5b 95 3c 94 93 c9 3d c7 ca 16 3e a9 0c af 3d
       0.018232057 0.098426014 0.14725791 0.085473366
000020 dd 62 3c 3b fc 30 88 bc 0f 1b b7 3d 2f 39 36 bd
       0.002874545 -0.01662492 0.08940708 -0.04448813
000030 6a 9c 30 3d b2 5b df 3d a5 96 aa 3d 4e 77 d7 3d
       0.043117918 0.10906161 0.083295144 0.105208024
000040 e4 dc 17 3d cf 8e d6 3d 90 66 09 bd cb 68 89 3d
       0.037075892 0.10476457 -0.033545077 0.06709441
000050 b1 fd 84 3d 38 be e6 3c c3 c0 62 3d 79 48 44 3d
       0.064937 0.028166875 0.055359613 0.047920678
000060 4d c4 40 3b b6 d0 21 3b e5 55 01 bd 7a f9 52 3d
       0.002941388 0.0024691052 -0.031576056 0.05150745
000070 e8 9d f0 bc de 65 8d 3d 23 36 92 3d 26 69 c4 3d
       -0.02937217 0.06904195 0.07139232 0.09590368
000080 c9 b7 57 3c 78 20 c0 bd f6 e0 a1 3d 78 48 2b 3d
       0.013166376 -0.09381193 0.07904236 0.04181716
000090 39 59 d9 3d 78 cc 9e 3d dd 94 f2 3d 46 87 24 3d
       0.10612721 0.07753843 0.118448 0.04016807
0000a0 36 fe 3a 3d 53 73 f2 bc 10 9a f2 3d af 57 25 bd
       0.04565259 -0.029596006 0.11845791 -0.040366825
0000b0 50 79 c2 3d 88 d1 d3 bc 6d 80 76 3d 84 c0 67 3c
       0.09495795 -0.025856748 0.06018107 0.01414502
0000c0 c1 85 9e bd 75 15 56 3d b4 03 cb 3d 08 06 9c 3d
       -0.07740355 0.052266557 0.09912816 0.07618338
0000d0 8c 89 e9 3a 0b 8e 89 3d 8d 05 c5 3d 24 5f 37 3c
       0.0017817481 0.06716546 0.09620199 0.011192117
0000e0 d5 dc 1c 3d ed 3e 6c 3d 26 22 d1 3d 86 97 c2 3d
       0.03829654 0.0576772 0.102115914 0.09501557
0000f0 8b 8f f9 bb 89 ea 94 3c 39 52 bd 3d 9c 3d 04 3d
       -0.0076159886 0.018178241 0.09244198 0.032285318
000100 03 0e 85 3d 6a 87 f3 3d 2c bc 9a 3d ae 66 f8 3d
       0.06496813 0.118910626 0.07555422 0.121289596
000110 b2 30 02 3e 88 30 79 3d 56 b1 97 3d 1c a0 de bb
       0.12713888 0.0608373 0.07406871 -0.006793989
000120 d8 58 dd bb b8 9e 4b 3e 5c 94 a3 3d 1d 17 76 3d
       -0.0067549758 0.19884765 0.07987282 0.060080636
000130 46 31 ca 3d 4a da e0 bb 85 20 74 3c 5e 69 53 3d
       0.098726794 -0.0068619596 0.014900331 0.051614158
000140 f2 b5 00 3d a3 74 b9 bc 2a 93 2c bc 26 7c 7e bc
       0.031423517 -0.022638625 -0.0105331335 -0.015532529
000150 56 6a 56 3d e2 bd da 3d 5a e9 d4 bc 57 65 7f 3d
       0.052347504 0.106807485 -0.025990177 0.062352505
000160 4d 6c b1 3d a4 ee 82 3c 94 38 ff bc 2a 89 c4 bc
       0.08663235 0.015982933 -0.031154908 -0.023991186
000170 e9 c3 06 3e cf 0e 82 3d 00 51 46 bd 0d b7 45 3c
       0.13160671 0.06350481 -0.04841709 0.0120675685
000180 04 59 a5 bc 13 67 b4 3d be 4e ac bb 44 ad 1d 3d
       -0.020184048 0.08808722 -0.0052584102 0.038495317
000190 05 07 b6 bc e0 c0 b2 3d c9 32 9a 3b cd d3 e9 3d
       -0.022220144 0.08728194 0.004705761 0.11417351
0001a0 c8 c2 be 3d 8d 01 d1 3d 7f c1 79 3c 03 60 98 3d
       0.09314495 0.10205374 0.015243887 0.07440188
0001b0 36 05 f1 3d 9c da 05 3e c2 11 3f bd 7f 11 f0 3c
       0.11768572 0.13071674 -0.046647795 0.029305218
0001c0 af 83 84 bc 71 c6 a0 3d 0b 5e 6d 3d 36 c5 82 3d
       -0.016176073 0.0785035 0.057951014 0.06385271
0001d0 31 b2 17 bc 71 03 c9 3d a5 01 be 3d 7d ea 1d 3d
       -0.009258793 0.098151095 0.092776574 0.038553704
0001e0 e9 08 bb 3d 5e dc 80 bc 5b 7d d1 3d fa 48 72 bd
       0.09132559 -0.01573008 0.10228988 -0.059151627
0001f0 97 57 06 3e d1 7d 94 3d 94 5c 73 3c 0e 0f 80 3c
       0.1311935 0.0725056 0.014853615 0.015632179
000200 5a 34 ac 39 ee 9c 14 b9 38 14 1d b9 84 23 ce 36
       0.000328454 -0.00014172841 -0.00014980219 6.143413e-06
000210 3e b6 e0 b5 3b 52 06 35 fb 52 43 33 9b c1 3a ba
       -1.674234e-06 5.003855e-07 4.5477446e-08 -0.00071241864
000220 58 68 03 38 ed e2 91 b6 5a 4d 81 36 4c b4 79 36
       3.133001e-05 -4.3477544e-06 3.8535045e-06 3.7208838e-06
000230 44 a9 98 b5 72 0b 07 ba 31 a5 73 3a cb 80 48 b5
       -1.1374145e-06 -0.0005151547 0.000929433 -7.4693224e-07
000240 78 d8 a9 3a 1d a7 74 37 9a 1f 1c b6 a5 68 0e 3a
       0.001295819 1.4582442e-05 -2.3264206e-06 0.00054324634
000250 d6 da 75 b6 22 2c be 35 96 d7 00 38 58 b7 d9 3a
       -3.6635224e-06 1.4168947e-06 3.0718358e-05 0.0016610427
000260 23 e9 8e 39 cf fc 8e 3a 01 af ad 35 18 87 95 ba
       0.0002725805 0.0010909083 1.2940437e-06 -0.0011408059
000270 26 94 5d b7 86 af c9 35 76 cc 8c b6 f5 d9 e2 b9
       -1.320712e-05 1.5026751e-06 -4.1961275e-06 -0.0004326847
000280 76 2a 0d 35 c1 13 40 b4 0b fe cb b4 1c 39 24 b5
       5.258838e-07 -1.788858e-07 -3.7996537e-07 -6.1177866e-07
000290 b5 44 aa b7 18 f6 a6 b6 b0 98 01 ba b6 24 84 37
       -2.0297573e-05 -4.9758346e-06 -0.00049437117 1.5752721e-05
0002a0 14 8b 16 3a f4 33 70 39 9d 0b af ba 6c eb 1c 38
       0.000574277 0.00022907538 -0.0013354901 3.7412552e-05
0002b0 94 53 e2 39 ca 71 8b 37 74 0a a8 b3 63 99 bc 3a
       0.0004316835 1.6623078e-05 -7.825011e-08 0.0014388975
0002c0 c4 ea 91 b9 1c 88 28 ba c6 e4 3c 38 81 fc aa 35
       -0.0002783147 -0.0006428973 4.5035755e-05 1.2739475e-06
0002d0 a1 05 c4 b6 77 8c 05 36 00 c7 11 37 e7 e1 5a b6
       -5.8419105e-06 1.9900306e-06 8.689007e-06 -3.2616024e-06
0002e0 9b 43 be b6 48 13 e1 38 de 54 de b7 8a 71 f2 ba
       -5.6703116e-06 0.000107324275 -2.6503982e-05 -0.0018496972
0002f0 ef f9 11 2e b6 a3 1b 36 e1 0b 3f 3a f9 70 50 38
       3.319117e-11 2.3192092e-06 0.0007287842 4.969628e-05
000300 e2 f1 8c 37 57 6b 8a b7 c5 36 2c 35 7f a8 33 3a
       1.6801936e-05 -1.6500866e-05 6.4154693e-07 0.0006853416
000310 11 c4 12 35 b4 56 92 b5 f6 9a 56 35 85 00 34 ba
       5.467455e-07 -1.0903082e-06 7.994671e-07 -0.00068665325
000320 c4 7c 10 37 a0 90 2f 34 46 55 89 37 84 07 cc b4
       8.612118e-06 1.635076e-07 1.6371381e-05 -3.800343e-07
000330 5d 91 d3 b4 eb 2b 59 ba 7b 73 85 37 02 73 1b 36
       -3.9407578e-07 -0.00082844374 1.590861e-05 2.3163743e-06
000340 fa 95 2f 38 c3 23 40 39 09 8b 84 b8 60 62 0e b6
       4.1862928e-05 0.00018323869 -6.320148e-05 -2.121691e-06
000350 26 ff 7c 34 72 8e ae b9 30 fb bf b3 b7 a7 88 b4
       2.3562151e-07 -0.00033293996 -8.939821e-08 -2.5454003e-07
000360 0a e1 d6 35 c5 01 19 b6 c8 6e 7e b6 89 86 b1 36
       1.6009737e-06 -2.2799807e-06 -3.7913433e-06 5.290673e-06
000370 b8 76 9d ba d0 b9 a6 b4 c6 52 71 3a df 8d 6a 38
       -0.001201353 -3.1055106e-07 0.00092057546 5.5922075e-05
000380 9b 32 2c ba be 60 a2 36 7f a3 a9 b8 1f d3 01 37
       -0.000656882 4.8392385e-06 -8.0890015e-05 7.738155e-06
000390 f3 5d 3f b7 13 6b 9e 3a 62 31 07 35 f0 b9 6f b8
       -1.1406361e-05 0.0012086354 5.036328e-07 -5.715521e-05
0003a0 9e 8e 82 b4 f4 81 d4 b6 cf 4c 1c b6 f1 fe d6 b6
       -2.4318155e-07 -6.333221e-06 -2.329052e-06 -6.407376e-06
0003b0 b6 b7 3c 38 ec e5 a5 b6 b5 4c d6 35 c2 98 80 36
       4.4993787e-05 -4.9441496e-06 1.5966567e-06 3.8324806e-06
0003c0 94 6b 49 37 9d b4 1a 35 95 e3 b2 3a 54 3a a6 35
       1.2005581e-05 5.76323e-07 0.0013648147 1.238494e-06
0003d0 17 69 d7 3a b6 22 44 b7 02 af c4 ba d8 61 f5 37
       0.0016434517 -1.1690592e-05 -0.001500577 2.9251838e-05
0003e0 a2 9b 9f b5 cb 5b 44 34 e7 f2 b8 36 e7 a8 51 38
       -1.1891718e-06 1.8287317e-07 5.511905e-06 4.9986786e-05
0003f0 2c 79 0b b4 fa f1 9d b5 10 36 5a b6 05 48 f7 b6
       -1.2989466e-07 -1.1767836e-06 -3.2516e-06 -7.369558e-06

weight_ih_l0 f4 [256, 128]
000000 0a b7 44 3d 99 d3 da bb 21 6c 16 be 8a be 43 bd
       0.048026122 -0.0066780564 -0.14689685 -0.047789134
000010 00 c8 ab bd 6e 8e 04 bd eb e4 32 3c c3 37 f7 bd
       -0.08387756 -0.032362394 0.010918836 -0.120711826
000020 8d dc b7 3c 78 4a d9 3a 71 d3 19 3e 30 88 fd 3c
       0.022444034 0.001657798 0.15022065 0.030948728
000030 ce 81 33 3d 7d 66 d7 bd 75 f7 69 3d 0b e9 a4 bd
       0.043824963 -0.10517595 0.05712076 -0.08052262
000040 61 0f a5 bd 11 eb ab 3d 8d 1d 3f ba 46 c3 81 3d
       -0.08059574 0.08394445 -0.0007290475 0.063360736
000050 4d 92 b6 bd 04 04 a9 bd b2 18 15 be 81 4e 30 bd
       -0.089146234 -0.08252719 -0.14560202 -0.043043617
000060 3e 03 48 3d d7 5f 05 be 0a e4 1d 3e be 40 84 3d
       0.048831217 -0.13024841 0.15419021 0.06457661
000070 b4 41 c2 bd 0c 5f 7e bd 51 0d e0 3d be 34 17 bd
       -0.09485188 -0.062102363 0.1094004 -0.036915533
000080 bd 19 e1 3c 0d 1e 4f 3d c0 d2 14 3d 09 e6 cb bc
       0.027478093 0.050565768 0.0363338 -0.024889963
000090 cf 5b 07 bd 0e 7e 72 bd 76 f4 99 bd 4b d8 f8 3c
       -0.03304654 -0.059202246 -0.0751733 0.030376574
0000a0 0d 3a 71 3d 4c 9b 8a 3a 91 fb 5d bb 7e 26 8d bc
       0.058893252 0.0010574847 -0.003387187 -0.017230269
0000b0 6f 1c 13 3e f7 d1 a4 3d 14 8c cf bd e9 36 86 3c
       0.14366315 0.0804786 -0.1013414 0.016383605
0000c0 0c 25 a0 bd 0a 26 c2 bd 0b af 42 3d eb e6 79 3d
       -0.07819566 -0.094799116 0.047530215 0.061011236
0000d0 5d d4 d6 3d 57 a1 37 3d 5e f6 34 3d 12 c7 0c 3d
       0.10489724 0.0448316 0.044180267 0.034369536
0000e0 20 91 6e bd 8c 74 1f 3e b6 71 d5 ba 0c 6a 9d 3d
       -0.05824387 0.15571803 -0.0016284499 0.076862425
0000f0 fa 4b 1f bd 79 bc 1f 3e 5a 64 90 bd 83 9e 78 bd
       -0.038890816 0.1559924 -0.070503905 -0.060698044
000100 74 60 00 be f3 a6 20 be 1b 43 da 3c 5e 27 77 bd
       -0.12536794 -0.15688686 0.026643327 -0.060340278
000110 f0 1f 8c 3c 98 50 23 3e 86 d5 2f 3d 1a 89 38 3d
       0.017105073 0.15948713 0.04292824 0.045052625
000120 e2 06 0f 3c 57 f9 cc bd 25 17 fa bb f0 27 0d be
       0.008729668 -0.10008495 -0.0076321536 -0.13784766
000130 45 58 89 3d fc 67 5f bd 2e c5 94 3d b6 63 59 bd
       0.06706289 -0.054542527 0.072641715 -0.053073607
000140 89 38 a0 bd a9 1f 85 3d aa f7 c9 3b ac 28 7f bd
       -0.07823283 0.06500179 0.006163557 -0.062294647
000150 61 f6 5a bd bd f4 b5 bc e8 e8 96 3d 1e 19 2f bd
       -0.05345762 -0.022211427 0.07368642 -0.042748563
000160 89 49 e1 3d c6 7c 01 bd 11 c1 80 bc 7c 15 b4 3d
       0.11000354 -0.031613134 -0.015717061 0.0879316
000170 5e 1e e2 3d ad e0 ef 3c ab 7b 3a bd 8b 02 88 3d
       0.11040948 0.029281938 -0.045528095 0.0664111
000180 cd 7e b0 3d 25 62 34 3d ae d1 4a 3d 05 5b 22 3e
       0.08617935 0.04403891 0.049516372 0.15855034
000190 a7 8c 43 bd fc 21 1d be e6 59 7e bb 60 6c 1b 3e
       -0.04774156 -0.15344995 -0.0038810908 0.1517806
0001a0 2f e4 f7 3c 01 84 b2 bc 4a bc 13 3e f4 56 50 bc
       0.030260174 -0.02179146 0.14427295 -0.012716044
0001b0 46 11 0b 3e 14 ca 65 3b 8b d3 85 3c 34 25 b5 3d
       0.13580808 0.0035063075 0.016336223 0.088449866
0001c0 1b f9 32 bc ca 32 11 bc 2e 4a db bc ec 0b b4 bd
       -0.010923649 -0.008862207 -0.02676877 -0.087913364
0001d0 2f be a3 bc ce aa 1f 3d a1 a3 f3 bd 59 c4 ae bc
       -0.019988148 0.03898125 -0.11896444 -0.02133386
0001e0 62 94 95 3d 38 e5 da bd aa 7f 37 3d bb ee 8f 3c
       0.073036924 -0.10688251 0.044799484 0.01756989
0001f0 13 f4 df bd 54 f0 13 bd ce e9 3d bd 74 70 51 3d
       -0.10935225 -0.036117867 -0.04636555 0.051132634
000200 cd b3 f3 bd 07 48 09 be 1c d1 18 be 9c cd 9f 3c
       -0.11899529 -0.13406383 -0.14923519 0.019507222
000210 31 f1 d6 3d ed 7e ce bd af c6 80 3b f7 a1 d1 bc
       0.10495222 -0.10082803 0.003929935 -0.025589926
000220 59 90 df bc 0b 2a ba 3c f6 92 4e bb 5c 4c 9b bd
       -0.02729051 0.022725126 -0.00315207 -0.07582924
000230 39 b5 fc bc db 7a 8e 3c 93 58 f9 3d 93 f5 87 bd
       -0.030848132 0.017392566 0.12175097 -0.066386364
000240 74 c8 b6 3d 7a 83 f0 bd 47 74 b1 3d 08 af a5 bd
       0.08924952 -0.11743827 0.08664756 -0.08090025
000250 4f c5 db bc 88 64 10 be e9 96 47 3d c4 80 18 3e
       -0.026827483 -0.1410085 0.048727904 0.1489287
000260 e1 ec 0b 3d b5 01 63 bd fe 34 b7 3d 9b b4 d6 bd
       0.034161452 -0.05542155 0.08945654 -0.104836665
000270 d5 79 39 3d c6 17 e8 bd 0b 2a 4a 3d 51 c7 95 3d
       0.045282204 -0.113326594 0.0493565 0.07313407
000280 09 3f 86 bd 79 23 7e bd 96 80 ad 3d 52 18 f8 bc
       -0.06554992 -0.062045548 0.084717914 -0.030285034
000290 44 a4 47 3d 6f a6 79 3c 63 0d 24 3e f8 6a 0c 3e
       0.04874064 0.015237435 0.16020732 0.1371268
0002a0 75 a0 b8 3d a2 f3 ac 3d 0c ca 7c bc 55 43 48 bd
       0.0901498 0.08444907 -0.015429031 -0.048892338
0002b0 82 6e e2 3d d5 e6 08 3c 6f 14 79 bd 24 a6 df bd
       0.11056234 0.008355816 -0.060810503 -0.10920361
0002c0 aa c5 37 3d 83 8e e1 bd 77 b9 f2 bd c6 58 03 bc
       0.04486624 -0.1101351 -0.11851781 -0.008016771
0002d0 aa b3 ab bd 76 2d 69 bd 62 67 ab 3d 19 42 e5 3d
       -0.083838776 -0.05692812 0.08369328 0.11194248
0002e0 6a a8 b4 3d 81 5c 0b bd 9b 6a 5f bd e3 9d a7 3d
       0.08821185 -0.034023765 -0.054545026 0.081844114
0002f0 62 59 39 3d 96 9c 35 3e c0 fe 15 bd c5 a5 ca 3b
       0.045251258 0.17735514 -0.0366199 0.006184312
000300 23 35 4a bd 1b 33 56 3c 9d 88 06 3e 8f 83 9a 3c
       -0.04936708 0.013073708 0.13138051 0.01886156
000310 38 cf 7b bd c9 df 37 3d 77 ab 17 3e 9a 5b 88 bb
       -0.061476916 0.044891153 0.14811502 -0.0041613104
000320 77 d2 dc 3d 5d 85 6c be 13 cb c6 3d 12 49 19 3c
       0.107823305 -0.23097749 0.09706702 0.0093558
000330 58 05 48 bc e4 17 2c 3d 4f 26 8b bd 61 d0 01 3d
       -0.012208305 0.04201497 -0.06794416 0.031692866
000340 fc 72 64 3d 27 7d bf 3a 51 96 13 3d 37 58 54 bd
       0.05577372 0.0014609442 0.036032025 -0.05184194
000350 f6 5e 0f be 4d b7 0d 3e 57 f2 28 3d 0a 4f 82 3d
       -0.14001068 0.13839455 0.04124674 0.06362732
000360 7a f3 0c bb 49 76 bc 3d ed 6e 96 3d 66 e6 eb 3c
       -0.0021507428 0.092022486 0.07345376 0.028796386
000370 cb fb 79 3d 86 cf f9 bd 50 cd 9b 3c bf d0 8a 3d
       0.061031144 -0.12197785 0.019018799 0.067780964
000380 e9 0d a2 bc 04 4d ce bc 61 f4 07 bd 44 9f 35 bd
       -0.019782024 -0.025183208 -0.033192042 -0.04434134
000390 29 68 ee 3d e2 b2 cb bc ae ff 32 3b 91 6c 6d 3c
       0.11640961 -0.024865571 0.0027313042 0.014491216
0003a0 a4 1b c1 3d ac 9f 9b 3d 1a 73 4d 3d a9 60 69 3d
       0.094291 0.07598814 0.050158598 0.056976948
0003b0 54 bb a2 3d 57 65 67 bd 86 d3 a4 bd 19 e0 1e 3d
       0.07945886 -0.05649313 -0.080481574 0.038787935
0003c0 3f 89 98 3d 30 89 49 bd 5c 67 02 be 9a 2d 22 3d
       0.074480526 -0.049203098 -0.12734741 0.03959427
0003d0 a6 33 85 bd 59 ae 06 be 56 cb 66 3c c7 c9 ad 3d
       -0.06503992 -0.13152446 0.014086565 0.084857516
0003e0 ba 37 8a bd b1 4c 01 be a6 c2 14 3d 61 0c e6 3d
       -0.0674891 -0.12626912 0.036318444 0.1123283
0003f0 06 db 2a 3d 74 77 7b bd 84 01 10 be 1e 73 85 3d
       0.041712783 -0.061393216 -0.14063078 0.065160975

weight_hh_l0 f4 [256, 64]
000000 ba 7e 2c 34 75 6b e1 b5 fa 8e d7 37 75 59 78 36
       1.6064851e-07 -1.679508e-06 2.5696576e-05 3.700695e-06
000010 e7 6a 0a 36 61 0f 2e 3a bc b8 68 b8 58 e2 22 38
       2.0625828e-06 0.0006639865 -5.5485158e-05 3.883461e-05
000020 60 9f 6b 39 68 e8 b8 b6 8b e7 4f 36 93 0a 8d b5
       0.00022470718 -5.510683e-06 3.098018e-06 -1.0508396e-06
000030 92 a0 56 b8 e8 f5 1b 36 37 27 30 3b 55 39 b3 b6
       -5.117112e-05 2.3239936e-06 0.0026878843 -5.34129e-06
000040 75 ed 5d 38 b1 30 4b ba 02 7a 4d b8 f0 0b 5f 3c
       5.2911655e-05 -0.0007751091 -4.8989437e-05 0.013613686
000050 8f 83 13 bc 7a e6 51 3b be e9 78 32 02 4b 20 37
       -0.009003534 0.0032028244 1.4488647e-08 9.554207e-06
000060 1a 5d 5a 36 b8 26 b9 bb 1c ae 17 36 85 02 3a b8
       3.2538724e-06 -0.0056503676 2.2602098e-06 -4.4348202e-05
000070 0e e7 b6 3a 54 b3 78 37 7d 27 bc 39 64 b1 22 b9
       0.0013954358 1.4823705e-05 0.00035887575 -0.00015515607
000080 fd 01 0a b6 6e dd 4f b7 25 2a ad 3b 10 a8 d4 b3
       -2.056476e-06 -1.2389717e-05 0.005284565 -9.90259e-08
000090 88 1f 17 b5 0c c2 96 36 13 40 04 3a 3d e5 28 3c
       -5.629777e-07 4.4929384e-06 0.0005044948 0.010308561
0000a0 dc 60 69 ba c3 99 2e 37 1c be 5a bb 38 1c 3e 36
       -0.0008902678 1.0407009e-05 -0.0033377474 2.8328632e-06
0000b0 cb c4 8b 36 59 6d 25 35 16 17 da 35 6f 32 68 bc
       4.1654325e-06 6.162641e-07 1.6248985e-06 -0.014172181
0000c0 ad 54 d4 3b a4 d6 63 b6 21 02 4e 38 3d de 54 bb
       0.0064798207 -3.3950573e-06 4.911621e-05 -0.0032481097
0000d0 a5 28 8d bb 41 25 7a ba fe fd 0f b8 3f a9 ca 3a
       -0.0043078237 -0.00095422944 -3.4330405e-05 0.0015461816
0000e0 41 9c 1a 3a 56 52 e5 36 63 c9 2a 3c 9c 4a 33 39
       0.00058979174 6.834317e-06 0.010423991 0.00017098564
0000f0 c2 f5 26 b6 a9 d2 c9 35 7b 38 7e 36 f1 8a 91 b5
       -2.4878977e-06 1.5036977e-06 3.7881825e-06 -1.0843779e-06
000100 ae f2 14 3b c2 3b 5b 3b db 1e 45 b6 b0 d8 ba 3b
       0.0022727656 0.0033452366 -2.9373248e-06 0.0057021007
000110 b1 8d a6 b7 32 20 11 37 e6 f0 48 3c 73 16 bb b9
       -1.9854722e-05 8.65017e-06 0.012264466 -0.00035684145
000120 f5 f9 2b bb c2 25 b1 b4 ed e6 88 3a f9 b5 25 bc
       -0.0026241515 -3.2996292e-07 0.0010444798 -0.010114186
000130 50 7a 89 34 38 f7 bc bb 8d 38 e2 3b 1a 75 95 35
       2.5607233e-07 -0.0057667755 0.006903714 1.1135446e-06
000140 09 b1 70 3c 4e ef 8e 3a c1 ce 4c 34 26 0e 0b 37
       0.014690646 0.0010905059 1.9074197e-07 8.28834e-06
000150 f2 27 63 3c a2 df 7e b6 31 d0 b7 36 b0 b0 6c 38
       0.013864504 -3.797912e-06 5.4780617e-06 5.6431338e-05
000160 38 85 0b 36 08 76 0a 3c 58 33 6a 38 7b b3 98 b9
       2.0790158e-06 0.008450992 5.5837765e-05 -0.00029125423
000170 d9 10 ac b6 93 d5 24 37 69 c2 54 37 c2 f4 ae 35
       -5.127961e-06 9.824888e-06 1.2681449e-05 1.3035244e-06
000180 b4 1d 01 3c 38 3c 12 b8 ec 50 23 34 52 39 05 30
       0.007880617 -3.4865196e-05 1.5209997e-07 4.8466575e-10
000190 e0 c9 f2 39 73 33 f2 b7 3c 65 40 3b 2c 3b f6 b6
       0.00046308246 -2.8872606e-05 0.0029357215 -7.33826e-06
0001a0 92 6a 1d 3b 2a 2d d3 3a 6e 03 8b 3b 02 d4 c3 34
       0.002401982 0.0016111482 0.004242352 3.6475836e-07
0001b0 06 3c 06 b8 44 6a 79 35 9a 78 bd ba 13 af 1b 34
       -3.200399e-05 9.2914365e-07 -0.0014455498 1.4499192e-07
0001c0 33 28 bc bb f6 31 43 bb 3f 53 91 b4 82 69 c4 35
       -0.005742097 -0.0029784418 -2.7068924e-07 1.4633845e-06
0001d0 b6 9f a2 b6 71 1e e3 b5 ad 5b 37 35 57 33 cf 3b
       -4.846569e-06 -1.6921678e-06 6.830622e-07 0.006323259
0001e0 36 8d 1c bc 0c 9e 93 b5 e6 9a 9a bb e4 a0 5d 38
       -0.009555152 -1.0998351e-06 -0.0047181724 5.2840347e-05
0001f0 5d 27 cc 3b 4d 2b 12 3b b0 48 ae bb 50 5e 30 bb
       0.0062302784 0.0022303641 -0.0053187236 -0.0026911683
000200 cb 9c 3e 3c 77 02 0c 36 0b 65 30 3c 94 b6 76 3a
       0.011634062 2.086306e-06 0.010766278 0.00094113615
000210 19 a6 5f 38 da 0b a1 39 f3 60 01 bb 84 48 10 b7
       5.3322034e-05 0.00030717143 -0.0019741624 -8.599953e-06
000220 84 5d 1a b6 19 ed ce bb 37 a1 0f b7 dc 74 ef 35
       -2.3002221e-06 -0.0063148853 -8.561e-06 1.7840898e-06
000230 92 62 8c 37 01 ff 6b b4 ce 03 63 37 cc f7 0c 37
       1.6735201e-05 -2.197885e-07 1.353114e-05 8.402345e-06
000240 26 e1 03 b7 7a 14 e8 ba aa 25 bd b4 45 e4 5c b3
       -7.86063e-06 -0.0017706298 -3.5231398e-07 -5.143035e-08
000250 68 c0 1d 3c 63 89 25 35 a9 00 fc b7 27 4a 4a bc
       0.009628393 6.1667214e-07 -3.0041048e-05 -0.012346781
000260 6a fa c9 3a 05 e0 28 35 b2 42 60 3c 20 c5 d6 b2
       0.0015409712 6.291087e-07 0.013687776 -2.5002521e-08
000270 18 31 86 34 6b 5d 68 3c ec e6 19 ba 9c 9c 53 34
       2.4995165e-07 0.014182429 -0.0005870897 1.970788e-07
000280 81 3c b0 3b 73 d4 88 3b f1 28 fb 36 05 39 5b 34
       0.0053783064 0.0041757165 7.485149e-06 2.0416708e-07
000290 82 af 5e bb cd 9d f3 b5 f9 3f 85 37 cc 6d 6a b7
       -0.0033979123 -1.8150837e-06 1.5884625e-05 -1.3973051e-05
0002a0 f2 4e 1a bb 92 d4 38 bb 26 be b5 b5 30 7e 87 ba
       -0.002354559 -0.0028202874 -1.3540891e-06 -0.001033729
0002b0 9e 6e b8 b6 17 52 8b 38 48 cf ae 3b f0 61 7e 36
       -5.496505e-06 6.643327e-05 0.0053347684 3.7905957e-06
0002c0 30 fd 5f 3c 35 9f b3 3a de 44 31 35 58 de e7 39
       0.013671204 0.0013704064 6.6037853e-07 0.00044225412
0002d0 ba 1a 1a bc 3e 1c 17 b9 82 0e d4 ba 24 30 75 b7
       -0.009405786 -0.00014411003 -0.001617864 -1.4614347e-05
0002e0 f4 cb 04 34 f9 ec 79 35 04 a1 0d 39 32 b8 8c 37
       1.2367656e-07 9.310457e-07 0.00013506791 1.6775073e-05
0002f0 42 17 8d b7 0e 30 69 38 53 87 6b b8 cc 33 70 b6
       -1.681934e-05 5.5596283e-05 -5.6154397e-05 -3.5792937e-06
000300 bc fc 3f 34 a7 b8 80 b6 12 ea 1b b4 50 44 74 36
       1.7880205e-07 -3.8361936e-06 -1.4520654e-07 3.6398596e-06
000310 72 b2 e2 3b 0d 74 c8 ba 4b 68 20 bc a6 71 5f 3b
       0.006918245 -0.0015293375 -0.00979049 0.003409484
000320 d3 80 a6 3a 0f 79 10 37 57 39 d2 3b 67 d3 aa bb
       0.0012703188 8.611255e-06 0.006415527 -0.0052131894
000330 86 f4 c7 35 7e 7f 0f 37 80 e0 8e ba 8f d7 6b 38
       1.4897821e-06 8.553148e-06 -0.0010900646 5.622912e-05
000340 b0 79 af bb b4 41 fa 3a 5c 70 e4 b6 84 3a cd b4
       -0.0053550825 0.0019093067 -6.80801e-06 -3.82268e-07
000350 6c 06 7f 35 af de 09 3c a8 af 68 b8 2d fc 06 35
       9.500425e-07 0.008414908 -5.5476703e-05 5.0285854e-07
000360 94 19 7d bb 9d 3b 3f 3b d5 61 dd b6 df c0 f0 ba
       -0.0038619982 0.002917982 -6.5977024e-06 -0.0018368027
000370 04 e3 cf bb 16 a3 97 b6 5e 9f 04 37 a9 0a 31 bb
       -0.006344201 -4.5191364e-06 7.904919e-06 -0.002701441
000380 9e d1 18 3b 6f 37 e0 ba 04 77 5a bc 07 66 57 b6
       0.00233183 -0.0017106364 -0.01333404 -3.2096884e-06
000390 50 1d e0 3a a9 fd b5 36 40 d1 55 39 28 25 d8 b7
       0.001709858 5.4237503e-06 0.00020391215 -2.5766509e-05
0003a0 f0 21 6c b6 66 76 60 b7 58 44 2c b9 92 dd 01 3c
       -3.5186495e-06 -1.3379007e-05 -0.00016428658 0.007926362
0003b0 72 c9 0c bb 3a aa 60 ba 88 9a ac 39 7e d8 15 3a
       -0.0021482375 -0.00085702876 0.0003292153 0.0005716159
0003c0 e8 b0 91 b9 b0 89 56 bc f1 70 04 3a 43 a3 87 ba
       -0.0002778836 -0.013094351 0.000505223 -0.0010348338
0003d0 64 ab d4 3b ab 4e 0f 3c f3 a5 94 36 29 a6 bb 39
       0.006490158 0.008746783 4.4300627e-06 0.00035791218
0003e0 5e 7d d3 bb d3 ef b8 b6 df e9 0f b7 3e 2e 82 3a
       -0.006454154 -5.5115465e-06 -8.577917e-06 0.0009931994
0003f0 62 bf 4f bc 61 2c e1 bb df 4f 25 38 7e 53 1d 36
       -0.012679907 -0.0068717455 3.941345e-05 2.3443422e-06
