Comparative_Evaluation/Baselines/LSTM/models_u/model119.pt (torch, 499143 bytes, 10 tensors)

weight_ih_l0 f4 [512, 10]
000000 07 58 7e 3d fc 11 24 3d ce 51 0b bd 78 de c5 3d
       0.06209567 0.040056214 -0.034013562 0.09661573
000010 0f ad b0 3d 3c b5 f7 3c d6 93 13 bd 09 49 ae 3c
       0.08626758 0.030237786 -0.03602966 0.02127506
000020 0d 26 14 bd c5 41 f2 bb d0 f0 86 bc 08 a0 3c 3d
       -0.0361691 -0.0073930942 -0.01647225 0.046051055
000030 a8 2a a3 3c 85 f7 66 3c 7b cc 93 3d 68 31 9a 3c
       0.019917801 0.014097099 0.07216736 0.018822387
000040 6a 39 ab 3b 61 23 f5 bc 21 ea d7 3d ad ab 83 3c
       0.00522535 -0.029924097 0.105427034 0.016073072
000050 a8 58 b7 bb 4f ed de 3c 21 f2 23 3d b7 90 83 bd
       -0.0055952854 0.027212767 0.040025834 -0.064240865
000060 66 59 d2 bd e5 7f 35 bd cb ad 37 bd 20 8d a2 bd
       -0.10270958 -0.044311423 -0.044843476 -0.07937074
000070 c8 69 91 ba 08 f7 26 be 03 f4 08 3d a9 d6 b4 bd
       -0.0011094147 -0.16305172 0.033435833 -0.08830006
000080 15 b7 85 3d bb bb 88 3d cf ae 56 bd 90 ce d4 3d
       0.06529061 0.06676432 -0.052412804 0.10390961
000090 f4 d3 89 bd 44 43 80 3a b9 06 1c 3d 3b 76 f2 3c
       -0.0672988 0.0009785672 0.03809235 0.029597392
0000a0 33 09 2e 3e 8d 0c 1b 3d f8 a1 9d 3d 14 64 f1 3d
       0.16995697 0.037853766 0.07696909 0.117866665
0000b0 0c c6 c5 3d d3 97 09 3e 8a 32 ef 3d 99 1a 9a bc
       0.09656915 0.13436823 0.116795614 -0.01881151
0000c0 67 38 16 bd ac 34 fd 3c b7 20 15 3d ae 25 94 bd
       -0.036674883 0.030908905 0.036408152 -0.07233749
0000d0 2f da c2 3c d6 5f 1d 3d 41 b5 af 3d 9f da 0a bc
       0.023785679 0.038421474 0.08579493 -0.008474975
0000e0 93 12 84 bd 51 50 8d bc cb ee 61 3d fc 71 78 3d
       -0.06448855 -0.017250212 0.05515937 0.06065558
0000f0 52 1f 40 bd cd 96 60 3b 9b c5 a8 bd 9e ce 01 3d
       -0.04690487 0.0034269572 -0.08240815 0.031691186
000100 5c 65 11 bd 3e 53 83 bb 77 2b a5 3d 70 32 ad bc
       -0.035497054 -0.004007726 0.08064931 -0.021142215
000110 7f c4 a0 3c 77 37 ae 3d 02 fe 09 bd f2 69 07 bc
       0.019624947 0.08506673 -0.033689506 -0.008265005
000120 a0 71 21 3d 2e 5b 96 3d 97 e1 fd 3c a9 72 1a bc
       0.039415002 0.0734161 0.030991359 -0.009426751
000130 bb 78 20 3d 54 aa 3b bc 37 6d 1d 3e 94 8f 3f 3d
       0.039177638 -0.011454184 0.15373693 0.046767786
000140 9a 07 e6 3d ee 07 73 3d 20 24 a9 3c 4c 04 26 3e
       0.11231919 0.059333734 0.020647109 0.16212577
000150 ae 16 d1 3d a5 e4 e8 3d 37 8e f5 3d 59 cd d7 3d
       0.10209404 0.113717355 0.11990016 0.10537214
000160 6a c4 9c 3d 13 a4 0d 3d 86 e7 05 3d a0 aa c4 3d
       0.076546505 0.0345803 0.0326915 0.09602857
000170 fd 0d 67 bd a3 40 00 3c 1e 84 9c bd 13 c6 64 3d
       -0.056409825 0.007827911 -0.07642387 0.05585296
000180 94 07 b9 3d 5f f6 af 3b 96 1a 9b bd d4 77 57 bd
       0.090346485 0.005369946 -0.0757343 -0.05260451
000190 02 28 a9 bd 26 b6 a3 bd ca 68 e8 3c 40 90 ac b9
       -0.08259584 -0.079937264 0.02837028 -0.0003291387
0001a0 67 7d 29 bd 82 db b5 3d f8 d5 d6 3d 35 72 04 3e
       -0.04137936 0.088797584 0.1049003 0.12934192
0001b0 f8 27 8c 3d c9 9c 84 3c 79 b9 12 3d 08 59 d8 bc
       0.06843561 0.016188042 0.03582141 -0.02640964
0001c0 e8 e7 68 bd ea 50 f3 3c c5 ea 0c bd a2 af 01 bd
       -0.056861788 0.029701669 -0.03440358 -0.031661637
0001d0 7a 75 4d 3b 64 d0 a2 3d 2a b6 f1 3c 40 88 01 3d
       0.003135054 0.079499036 0.029505808 0.03162408
0001e0 93 94 3a 3b 07 ff 10 3c a1 12 25 3d 25 ad 15 3d
       0.0028469905 0.008849866 0.04030097 0.036542077
0001f0 98 d1 0f bd f6 33 9c 3d 63 7f e9 3d 75 ca b1 bb
       -0.035111994 0.07627098 0.1140125 -0.005425746
000200 46 f3 03 3e ee e9 a6 3d 94 34 89 3d 09 3c be 3b
       0.1288577 0.08150087 0.066994816 0.0058054966
000210 c8 3c 97 bd e8 41 83 3c dd ec bf 3d 3b c9 44 bc
       -0.0738464 0.016022637 0.0937135 -0.012010868
000220 93 13 71 bd ab 5b 9c 3c 3a 2a a1 bb d6 89 58 bc
       -0.058856558 0.01908668 -0.004918364 -0.013216456
000230 da 50 44 3d 14 d4 ad bd 00 ca 83 bd de b1 3e bc
       0.04792867 -0.08487716 -0.06435013 -0.0116390865
000240 85 96 82 3d 1a 7b 84 3d b8 99 dc 3c 74 10 a0 3d
       0.063763656 0.06468792 0.026928768 0.07815638
000250 76 21 ad 3d f3 9d 80 bd 88 27 6e 3d 03 88 62 bc
       0.08453648 -0.062801264 0.05814317 -0.013826373
000260 9e 37 9e bd 0c 2c 7b 3d 35 53 7c 3c d6 04 7d bc
       -0.07725452 0.061321303 0.0154006975 -0.0154430475
000270 a6 f6 38 3d 8f 05 a1 bb 08 2b 81 bd 69 df 72 bd
       0.045157097 -0.0049139927 -0.06307036 -0.05929509
000280 58 f3 c7 3c 10 52 e2 3d 54 0e a7 bb 56 22 e5 3d
       0.024408028 0.110508084 -0.0050981436 0.1118819
000290 1c cd 8a 3d f7 43 b3 3d 18 a3 19 bc 2f af a1 bb
       0.06777403 0.08753198 -0.0093772635 -0.0049342136
0002a0 76 af d9 bb 37 9e 00 3e ad 3b b2 bd 6b 9a ad bb
       -0.006643231 0.12560354 -0.087027885 -0.005297949
0002b0 3f 35 2b bd a4 37 28 bc e1 64 58 3d 3e d3 ad bd
       -0.041798826 -0.010267172 0.05283058 -0.08487557
0002c0 e3 db 8f bd 9d 68 c1 bb 38 62 d2 39 e6 88 d2 bb
       -0.07024362 -0.0059023635 0.000401275 -0.006425011
0002d0 cc 9a 86 3d ce 4a 12 3e 98 6b da 3b 46 90 32 ba
       0.06572494 0.14286348 0.006665658 -0.00068116596
0002e0 d0 05 55 3d 46 d7 16 3c 61 3a 1d 3e ad e4 15 3e
       0.052007496 0.009206599 0.15354301 0.14638014
0002f0 69 ee fe 3d 90 11 83 3d 1c ff 37 bc 6b 27 4d 3d
       0.12447817 0.06399834 -0.011230256 0.05008642
000300 6d 9c c3 3d e6 b6 10 bc 51 b0 c9 3c aa 5a bd 3d
       0.0955132 -0.008832669 0.024620207 0.092458084
000310 fc 79 58 bc ef 6a e2 bb 18 82 5e 3c 56 ec cc bc
       -0.013212677 -0.00690972 0.013580821 -0.025015038
000320 f9 66 5c bc 18 c6 02 3d 62 b2 92 bd 5c c4 2d 3d
       -0.013452285 0.0319272 -0.0716293 0.04242359
000330 76 33 a2 bd 26 ff 03 bd 11 b5 c0 3d 5f 05 91 bd
       -0.07919972 -0.03222575 0.09409536 -0.070811026
000340 54 f4 8c 3c 6a bf 18 3d 7a 8a af 3c 4f c1 f8 bc
       0.017206348 0.03729192 0.021428335 -0.030365614
000350 73 c3 f0 3d 9c 56 c1 3d 64 5f e9 3d a9 7a bc 3b
       0.11756029 0.094403476 0.113951474 0.005751927
000360 4f db 0b 3e f3 ef b7 3d f4 2f a0 3d de 18 13 3e
       0.13657878 0.089813136 0.07821646 0.14364955
000370 1a 96 a8 3c 0c 87 96 3c 5e 43 cd bc e6 62 6f 3d
       0.020579387 0.018374942 -0.025056537 0.058443926
000380 6b 7e 52 bd 5d 86 9c bd 1a f5 b1 bd ca ec 44 bd
       -0.051390093 -0.07642815 -0.086893275 -0.048077382
000390 b8 8c 19 be 4c c9 36 be 71 b1 03 3d fc d1 61 3d
       -0.14995086 -0.17850226 0.032151643 0.055131897
0003a0 de 83 0b bd c1 e1 b8 3c d8 91 b8 3d 06 d8 14 bc
       -0.034061305 0.022568585 0.090121925 -0.009084707
0003b0 0e b2 a3 3c 2e bf a6 3d 27 c7 9c 3d f3 1b 69 3d
       0.019982364 0.081419334 0.07655173 0.05691142
0003c0 f6 fb b7 bc a7 f9 81 3a 85 07 c0 bc 16 02 3d bb
       -0.022459012 0.0009916321 -0.023441086 -0.0028840355
0003d0 2c 10 47 3d 78 85 20 3c d5 4e 00 bc 26 48 34 3c
       0.048599407 0.009797446 -0.007831295 0.01100353
0003e0 b9 b1 6e bd f2 1e d4 3d b4 e9 cd 3c 4a 19 f1 3c
       -0.05827496 0.10357465 0.025135852 0.029431004
0003f0 57 f4 18 3d 7c aa 8c bc 02 cc d9 3d da 51 8d 3d
       0.037342396 -0.017171137 0.106346145 0.069003776

weight_hh_l0 f4 [512, 128]
000000 56 f6 7b 3a 9c b4 8d ba 80 29 c1 bb 52 81 17 bc
       0.0009611597 -0.0010811272 -0.0058948398 -0.009247141
000010 dc cb c0 bb 5a 49 87 3a 32 9c b0 ba 1c 6a 14 bb
       -0.005883677 0.0010321543 -0.0013474284 -0.0022646254
000020 d6 e7 0c bc 12 09 21 bc 20 39 65 bb 52 cb 19 3c
       -0.008600196 -0.009828823 -0.0034976676 0.009386854
000030 82 d0 2f 3b a0 c0 10 3b 62 00 39 3c 72 de bc 3a
       0.0026827161 0.002208747 0.011291595 0.0014409556
000040 c9 2b ad 3a dc d7 cc 3b 19 48 0a bc b7 94 57 bc
       0.0013211902 0.0062513184 -0.008440041 -0.013158015
000050 92 ac 4a 3b af 59 96 bb fe c4 93 3b 80 1d ad bb
       0.0030925614 -0.004588328 0.0045095673 -0.0052830577
000060 42 9b 95 3b 3b cb 67 3b df 49 51 3b e4 73 af 3a
       0.0045656273 0.0035368938 0.00319349 0.0013385979
000070 e9 41 10 3b 58 24 d4 3a d8 6f 4f 3c c0 14 2d 3b
       0.0022011942 0.0016185148 0.012660943 0.0026410073
000080 2a 4b 50 3c 8f 71 97 ba 02 8d cb 3b 2e 42 ab 3a
       0.012713233 -0.0011554229 0.006211878 0.0013065988
000090 fe 39 82 ba 8d d9 c5 ba 34 2e 16 ba eb 3f a4 3a
       -0.0009935496 -0.0015094742 -0.00057289307 0.0012531256
0000a0 5a a2 e8 ba c3 89 16 3c 98 0f f4 3a 70 18 e1 ba
       -0.001774858 0.009188118 0.001862037 -0.0017173421
0000b0 fa 88 2d 3a 65 12 99 3b b8 9d 32 bc 6a 7f 1d 3c
       0.00066198374 0.0046713823 -0.010901861 0.009612897
0000c0 55 7c 23 ba 58 ed c5 b9 a6 f8 e2 39 50 43 93 ba
       -0.00062364835 -0.00037751603 0.00043291337 -0.0011235271
0000d0 8d 7c a9 3b c3 f3 11 3b 28 1f 19 3c 82 b0 2d bb
       0.0051723183 0.0022270537 0.009345807 -0.0026502912
0000e0 7a 68 1c bb ed b8 04 3c 84 8e 1a bc 24 b1 b9 ba
       -0.0023865984 0.00810073 -0.009433392 -0.0014167172
0000f0 35 60 9a 3b a6 45 ab bb dc 58 86 3a 57 fa 26 bc
       0.004711176 -0.0052268086 0.0010249871 -0.010191522
000100 05 48 1d bb 1a 1e c7 ba 56 7e d1 ba b0 50 d2 3b
       -0.0023999226 -0.0015191466 -0.0015983086 0.00641831
000110 24 86 1b bc 44 81 0c bc 5e b7 02 bb aa 7d 8d bb
       -0.009492431 -0.008575741 -0.001994572 -0.004317959
000120 ec 18 48 39 8f da 93 3b ba ea 8a b9 3c e5 98 bb
       0.0001908277 0.004512138 -0.00026496296 -0.0046659987
000130 60 c1 06 3a 38 1c 03 bb 57 30 00 bc 76 63 82 3a
       0.00051405095 -0.0020005833 -0.007824025 0.0009947855
000140 46 24 01 3c ea e2 ee bb 17 4d 21 3b a2 19 fa 3b
       0.007882183 -0.007290234 0.00246126 0.00763245
000150 43 bb 07 bc 20 1f 12 3b 23 80 c8 3a 55 f4 53 3b
       -0.008284393 0.0022296384 0.0015296977 0.0032341678
000160 fb 3a 0c bc c0 fb 3e bb 61 38 1d bc d0 7e 04 3c
       -0.008558984 -0.0029141754 -0.009595961 0.008086875
000170 26 4d 09 bb ee 36 b5 3b 30 dd 30 ba ba 7f 98 bb
       -0.0020950525 0.00553023 -0.00067468267 -0.004653898
000180 c0 64 3c ba b0 1c 9c 3a 10 34 d0 ba 65 db 56 3c
       -0.0007186644 0.0011910405 -0.0015884656 0.013113831
000190 52 df fb 3b 23 c5 17 3b 2c 53 86 3b 66 ae 2b bb
       0.007686534 0.0023158274 0.0040992703 -0.002619648
0001a0 da 82 a6 3a fe 79 2e bb ce 2d 87 3a 41 ed 20 3c
       0.0012703792 -0.0026623006 0.0010313333 0.009822191
0001b0 de b3 cf 3a d6 f4 c4 bb e0 e5 33 3b 71 e0 1b bb
       0.0015846451 -0.006010632 0.0027450249 -0.00237849
0001c0 ff b6 30 3a ba 6d 9c bb 7c 20 b5 bb 83 1a 19 bc
       0.0006741136 -0.0047738226 -0.005527554 -0.0093447
0001d0 2c 76 bb 39 77 4f 7f 3a fa 0b af 3a 9e 84 56 bc
       0.00035755464 0.0009739319 0.001335501 -0.013093142
0001e0 9a f1 97 b9 fa 11 65 3c 4a 25 1a 3c 78 c8 d7 3b
       -0.00028980972 0.013981337 0.0094083045 0.006585177
0001f0 8e d2 09 3c 51 3e 1d bc a0 4c 08 3c c6 24 21 bc
       0.008412017 -0.009597377 0.00831905 -0.009835428
000200 64 e8 e7 3a f4 64 8f 3b 5c a8 da 3b 2a e2 ce ba
       0.0017693159 0.004376048 0.006672902 -0.0015783955
000210 7c f8 cb 3b 5a 2a 12 bc 50 85 3a ba d3 ef f2 3b
       0.00622469 -0.00892123 -0.0007115202 0.007413843
000220 b0 1d 0c 3c 10 ab 33 3a 25 d0 1d bc 14 4a 7f ba
       0.008552 0.00068537984 -0.009632145 -0.00097385165
000230 f8 d9 85 3b fe 27 8f 3a 34 93 16 3b c8 45 e0 b8
       0.004084822 0.0010921953 0.0022975923 -0.0001069415
000240 ce 37 0f 3c 1f 8c 21 3c 89 34 28 ba fe b1 9d 3b
       0.008741332 0.009860068 -0.000641652 0.004812478
000250 e6 3f 16 bc 46 6e f3 bb 1a 40 20 3c 14 c5 8b 3b
       -0.009170508 -0.007428917 0.009780908 0.004265437
000260 a6 1f 57 3a af 66 32 3b 3a 21 21 3b 80 75 9f 3b
       0.0008206315 0.0027221849 0.0024586455 0.004866302
000270 0c c2 de 3b 5d c6 2d 3b 18 77 c8 ba 00 a2 9b bb
       0.0067980345 0.0026515939 -0.0015294282 -0.0047495365
000280 2c fd ae 3b 5f f9 fd 3b 78 f0 97 3b 08 fe d6 3b
       0.005340239 0.0077506746 0.0046368204 0.0065610446
000290 32 fb 0f bc 5e ef bd 3a c7 a3 d0 ba ac 30 8d bb
       -0.008787917 0.0014490893 -0.001591795 -0.0043087807
0002a0 79 2d 4f ba a4 07 20 bb e7 c5 fc bb ff 4a 1a bc
       -0.00079031993 -0.0024418617 -0.0077140215 -0.0094172945
0002b0 c0 da 2b 3b 19 1b 22 bc e9 af 20 bc 0d 4f 8c bb
       0.0026222914 -0.009894156 -0.009807565 -0.0042818845
0002c0 93 ed e6 bb 8b 37 8e bb 52 c5 ad ba 58 52 1d bc
       -0.007047364 -0.0043401173 -0.0013257659 -0.009602152
0002d0 a5 3e 5d bb b8 6d 53 3a 7b 31 7f 3b 94 ea 0a 3c
       -0.0033759263 0.00080653606 0.0038939405 0.008478779
0002e0 d9 0b 1a bc 80 a6 1c 3c 77 dd 03 3a 30 12 a3 39
       -0.009402239 0.009561181 0.0005030254 0.00031103333
0002f0 38 60 37 3c 2e 51 04 3c 52 2e 76 3b 6b 35 32 3b
       0.011192374 0.008075995 0.003756423 0.0027192484
000300 e5 3a 95 ba 5c c7 e2 ba a1 c6 a5 3b be 7e 19 ba
       -0.001138535 -0.0017301845 0.005059079 -0.0005855373
000310 53 a3 55 3c ce b2 66 bb 18 7a 67 3a 07 df ce 3a
       0.013039428 -0.003520179 0.0008830144 0.001578302
000320 68 16 86 3a c9 5f 1a 3c 3e 54 1b 3c 42 eb 59 ba
       0.0010230066 0.009422251 0.009480534 -0.0008312949
000330 63 11 2d bb de bd 98 3b fe 51 8b bb a0 50 b5 3b
       -0.0026408068 0.004661306 -0.0042517176 0.005533293
000340 b7 7a d3 3b ff a2 80 ba 92 4c c7 bb 19 11 13 bb
       0.0064538377 -0.0009814202 -0.006082126 -0.002244061
000350 9c a0 97 3a 34 5c 55 ba 38 d1 d6 b9 40 6f 68 39
       0.0011568251 -0.00081390445 -0.0004097314 0.00022166688
000360 e7 e0 8b 3b 83 3d 2d 3b f2 9f 1c bc 64 d1 11 bb
       0.004268754 0.002643437 -0.009559618 -0.002225005
000370 6a 1f c8 bb 55 d3 20 3c 5a 90 65 bc 7e b9 1a 3c
       -0.0061072605 0.0098160105 -0.014011467 0.009443639
000380 65 9b 9b bb d5 5e 13 3c a8 11 13 bb 98 06 c3 b9
       -0.004748749 0.008994778 -0.0022440944 -0.0003719821
000390 d1 1b 5a ba 55 0f 22 3c 5f 79 03 3c b4 f9 1f 3c
       -0.0008320185 0.009891351 0.008024543 0.009764124
0003a0 27 5f 22 bc 82 dc 40 bc d2 20 3f 3b 06 86 b0 3b
       -0.009910381 -0.011771323 0.002916385 0.0053870706
0003b0 44 e6 21 bc 16 76 01 bc 98 f7 b8 3b 0a 50 f5 ba
       -0.00988156 -0.007901689 0.00564475 -0.001871587
0003c0 80 54 37 bc 3e f8 63 3b a0 7d 32 b9 94 47 30 bb
       -0.01118958 0.0034785415 -0.00017022202 -0.0026898133
0003d0 03 80 c5 3b ac e5 76 bb 91 17 20 3c 7e 08 9a 3b
       0.006027223 -0.0037673516 0.009771244 0.0047007194
0003e0 46 7d 5d ba 42 39 2a 3b fb 35 51 3c 24 84 91 bb
       -0.0008449148 0.002597407 0.012769218 -0.004440801
0003f0 a0 e6 06 ba de e4 88 3a c4 1c 43 3a a6 bd c7 3a
       -0.000514606 0.0010444184 0.0007442946 0.0015239015

bias_ih_l0 f4 [512]
000000 24 5d ec bb 07 c7 08 3d 7d 93 94 3d 8f 55 8b 3d
       -0.0072132517 0.033392932 0.07254694 0.068034284
000010 90 e2 13 be ae 81 b2 3c c4 45 ec 3c 18 e4 9a bd
       -0.14441895 0.021790352 0.02884186 -0.07563037
000020 a4 7f e1 bd 1c 6d 2a bc 54 78 a2 bc 60 c9 b1 bc
       -0.11010674 -0.01040199 -0.019832768 -0.021702468
000030 3a 6a 30 bc 75 77 44 3d 5a 28 c5 3d 32 07 03 3d
       -0.010767514 0.047965486 0.09626837 0.031989284
000040 7a 78 9c bb 6f de 8f bc 7a 64 b0 bd 33 f1 91 bd
       -0.004775104 -0.01756212 -0.086129144 -0.07126083
000050 e6 4b 79 bd 7c aa 90 bd 57 9e 14 3d e0 ba af 3d
       -0.060863398 -0.07063767 0.036283817 0.085805655
000060 50 4d 8b bc ba e0 a3 3d f6 b5 12 bd 11 d6 a5 bd
       -0.017004639 0.080018476 -0.035818063 -0.080974706
000070 ea 96 10 bd cb 34 d3 3b bf 22 d2 bc 89 12 b4 3d
       -0.035300173 0.0064455024 -0.025651334 0.08792598
000080 ab 0d 44 3d 1c 86 2e 3d 7a c2 85 bd 31 9c 3a 3a
       0.047864597 0.042608365 -0.06531234 0.0007118611
000090 28 19 14 3d c3 3c cd bd 75 54 6b bd 81 5f 98 bd
       0.036156803 -0.10021355 -0.05745359 -0.07440091
0000a0 48 e3 0a be a2 94 4f 3d 18 2e 9a bc c0 4e 33 bd
       -0.13563263 0.050678857 -0.018820807 -0.043776274
0000b0 c5 0f a7 bd 0b df 87 bd 6b fc 9b 3d 41 f3 30 3e
       -0.08157305 -0.06634339 0.07616504 0.17280294
0000c0 f9 41 1e bd 64 04 68 3d 20 56 c6 3c 13 60 20 3c
       -0.038637135 0.056644812 0.02421099 0.009788531
0000d0 8e c9 66 bd 30 05 0f bb 6c b8 99 bd 02 93 47 bd
       -0.05634456 -0.002182316 -0.07505879 -0.048724182
0000e0 64 8c a4 bc fd b7 b1 bd 5b bd 76 3b 5c e0 0d 3d
       -0.020086475 -0.08677671 0.0037649486 0.034637794
0000f0 9a 62 ea bd d9 90 94 3d 41 d9 bf bc a8 ef 9b bd
       -0.11444588 0.0725419 -0.023419024 -0.0761407
000100 57 5e 68 bd 86 ed 9d bd a3 e3 13 bd 2e 66 a1 bd
       -0.056730594 -0.077113196 -0.036105763 -0.07880817
000110 2e 96 45 bc 88 b5 41 bd 0a f6 40 bd eb b2 17 3d
       -0.012059731 -0.047292262 -0.04710964 0.037035864
000120 62 01 31 be 2c 22 3b bc fd a1 de bd 85 30 6b bc
       -0.17285684 -0.011421721 -0.108707406 -0.01435483
000130 52 5f bb bd 12 5b d4 3b df bd 55 bd 26 7d 90 3d
       -0.0914904 0.006480583 -0.05218303 0.0705512
000140 a3 a3 40 bd b8 f6 b0 3d eb a1 9c 3d 90 1e dc 3d
       -0.047031056 0.08640808 0.07648071 0.10748017
000150 f4 56 ef bc ac a4 97 3d 63 a7 df 3b 93 db 46 3c
       -0.029216267 0.074044555 0.006825374 0.0121373115
000160 f6 84 ef 3c f5 87 47 3d d6 fd 5a be aa cf c8 bd
       0.029238205 0.048713643 -0.21385893 -0.09805234
000170 42 8d 4b bd d0 5b 42 3d 8e 96 59 bb ab a8 35 3d
       -0.04969526 0.04745084 -0.003320131 0.044350307
000180 a4 22 19 3e 26 43 9c bd 56 17 1a bd 40 4d a1 bd
       0.1495462 -0.07629995 -0.03761991 -0.078760624
000190 20 cf de bb 0f 51 46 bd 80 db 23 bd 15 93 ee bc
       -0.0067995936 -0.048417147 -0.040004253 -0.029122869
0001a0 da f2 46 bd 39 73 97 bd 8b 3b a4 bd 1d cd 6b bd
       -0.048571445 -0.07395024 -0.080191694 -0.05756866
0001b0 a2 7c 5e bd b4 db 7b 3d 7f 6d ff bd f0 f5 90 bd
       -0.054318078 0.061488822 -0.124720566 -0.07078159
0001c0 94 ea 97 bd ad 68 73 bd 1e 67 2d 3d 73 91 c0 b9
       -0.07417789 -0.059426 0.04233467 -0.00036729462
0001d0 f8 ff 22 bb f6 b6 7d 3c b7 ad a2 bd 6d 97 24 bd
       -0.0024871808 0.015485516 -0.0794329 -0.040183473
0001e0 84 97 4b bd 74 75 8a bd dd 6c 3c bb f4 41 0d bd
       -0.049705043 -0.06760684 -0.002875141 -0.034486726
0001f0 ea 59 18 3d cc 31 85 3d 4a 27 99 3c ce 19 0b be
       0.037195124 0.065036386 0.018695492 -0.13584062
000200 51 c1 0b 3c 2e 64 c2 bb 6e 82 fd ba 20 ca 35 bc
       0.008529977 -0.0059323525 -0.0019341239 -0.011095554
000210 77 cf 20 3c 24 50 ae 3a c9 ea 15 3c 9e 99 9b 3b
       0.0098150885 0.001329903 0.009150215 0.004748537
000220 bb 6d 21 bc 3c 87 3a bc a9 ab 19 3c 39 61 89 3b
       -0.009852822 -0.011384781 0.009379306 0.004192498
000230 31 51 c8 bb e7 26 90 bb 8c 2e 16 bc 3a 05 52 3b
       -0.0061131944 -0.004399169 -0.009166371 0.0032046572
000240 92 6f db 3a 10 63 42 b9 87 aa 83 3a 5e 8e 2d bb
       0.0016741625 -0.00018538185 0.0010045328 -0.0026482563
000250 34 04 82 3b 48 df 5b bc 0e bc 17 3c c9 42 20 bc
       0.003967786 -0.013419934 0.009261144 -0.009781548
000260 7d 1a 45 3c 2b 86 15 3c 1c a1 2d bb 80 6f 2f b8
       0.012030241 0.009126226 -0.0026493734 -4.1827094e-05
000270 3d 72 99 bb 3d 5b 02 bc da 51 ad ba 63 86 63 bb
       -0.0046828077 -0.007956323 -0.0013223246 -0.0034717552
000280 90 3f 2d 3c 92 59 d6 3b cc 64 93 ba be bb 0b bc
       0.0105742365 0.0065414393 -0.001124525 -0.008528648
000290 c5 36 b4 3b 5a 9c ca 3a 75 b6 12 bc 84 e2 1f 3c
       0.005499693 0.0015457973 -0.008954634 0.009758595
0002a0 ce fd 0d bc f4 85 79 3a fc 95 a9 bb 70 4f 5a b9
       -0.008666469 0.0009518557 -0.0051753502 -0.00020819693
0002b0 7e be 40 3a ea d1 9e 3a 0a 4d 59 ba 96 2e 0f bc
       0.00073526043 0.0012117003 -0.0008289373 -0.008739134
0002c0 c4 4b fd 39 62 88 98 ba bf d5 5d 3c 5b 22 21 bc
       0.0004831237 -0.0011637325 0.013539731 -0.009834851
0002d0 df 55 4d 3b ad 71 0b bc 80 54 1c b9 f1 71 e7 3b
       0.00313317 -0.008510989 -0.00014908798 0.0070631434
0002e0 d0 2c d2 ba 0c 71 20 bc d8 9a 50 3b d8 72 be bb
       -0.0016035084 -0.0097925775 0.0031830575 -0.0058120303
0002f0 62 fc eb ba 1f 9d 38 3b c0 76 ed 3b 26 76 22 3c
       -0.0018004293 0.0028169823 0.007246822 0.009915864
000300 40 68 36 39 af a7 1d bb d0 c3 ab ba 54 60 fc 3b
       0.00017395709 -0.0024056246 -0.0013104621 0.007701913
000310 8e a5 26 3a e0 ae 6c bb 7f d4 09 3c 1a fe 92 3b
       0.0006357067 -0.0036114976 0.008412479 0.0044858577
000320 03 f8 4e 3c d6 f1 95 ba 96 bc 19 bc 78 a4 73 bb
       0.012632373 -0.001143987 -0.009383341 -0.0037176888
000330 ec 5a 10 3b fa 96 cf bb c0 79 f8 3b 82 ca 51 bc
       0.002202685 -0.0063351365 0.007582873 -0.012804629
000340 ca ac f3 3b 96 7c 6c 3b a4 91 a8 bb 71 37 93 bb
       0.0074363695 0.0036085001 -0.005144315 -0.004492693
000350 e1 58 5a bb f6 24 2d bb 56 61 cb 3b 96 3c 32 bb
       -0.0033317136 -0.0026419736 0.0062066717 -0.0027196757
000360 20 70 9b ba b6 7b 5e 3b bc b3 48 bb 1f 1e f6 3b
       -0.0011858977 0.003394825 -0.0030624708 0.007510915
000370 dc 54 c9 3a e2 73 53 3b d2 99 76 bb 12 e6 21 bc
       0.0015360373 0.0032265116 -0.0037628305 -0.009881513
000380 54 7a 2d 3b ec 1e 5b 3a 90 e2 4a 3b 66 27 41 3b
       0.0026470618 0.0008358795 0.0030957796 0.0029472946
000390 70 06 1b ba 54 68 40 3c f7 1b 36 bc 76 ec b5 3b
       -0.000591374 0.011743624 -0.011115066 0.00555187
0003a0 c0 d3 ac ba 0d e2 10 bc 0a b8 e6 bb 42 80 ac bb
       -0.0013185665 -0.008842957 -0.007040982 -0.005264313
0003b0 d1 fd 1c bc 70 9b e0 3a 4f d3 f8 3a f2 f6 06 bc
       -0.009581999 0.0017136168 0.0018983873 -0.008237587
0003c0 7a dc bf 3a 6f 65 16 bc 56 a3 2d bb 04 6a 69 ba
       0.0014637851 -0.009179457 -0.002649506 -0.0008904042
0003d0 4d 89 1a bc 7b ba 2a 3b 84 e9 e2 39 81 18 0a bb
       -0.009432149 0.0026051092 0.00043280062 -0.0021071734
0003e0 b6 97 de bb 72 ba 0d 3a cb 65 4c bb c7 db 11 3c
       -0.0067929877 0.00054065057 -0.0031188603 0.008902497
0003f0 de d6 c0 bb f8 12 52 ba e9 1d 1d bc ed d9 e4 bb
       -0.005884989 -0.0008013691 -0.009589651 -0.0069839866

bias_hh_l0 f4 [512]
000000 e6 36 73 3a 71 8d 08 3d 06 e1 fb bc a7 17 6f bd
       0.0009277895 0.033338014 -0.030746948 -0.058372166
000010 7e 2f d4 bd 4c 18 81 3d 58 49 b1 3c 3c 04 52 3c
       -0.10360621 0.063034624 0.021641418 0.012818392
000020 92 38 d0 bd 53 9d 0c 3d 1c 8b b7 3d 24 a5 8c 3d
       -0.1016704 0.034329724 0.0896208 0.068674356
000030 cf 0e 21 bd 7b 7d 0c bc 57 8e 09 bd 8c 66 54 3d
       -0.039320763 -0.008574839 -0.03358301 0.05185561
000040 99 9a a8 bd 7a 61 22 3d 38 dd 1d be 7c b3 a7 bd
       -0.08232612 0.039643742 -0.1541642 -0.08188531
000050 ae b5 a9 bd 58 10 34 3c 60 a6 8b bc 46 13 8d bc
       -0.08286606 0.010990225 -0.017047107 -0.017221104
000060 74 db 34 bb 1d f4 a9 3d b1 70 81 3c fa db c9 bc
       -0.0027596625 0.08298514 0.015800806 -0.024641026
000070 ad 33 c6 bc ef cc 32 bc 7e 63 3c bd 97 15 a8 bc
       -0.024194563 -0.010913118 -0.04599332 -0.020518107
000080 4d e4 ea bc 78 1f 92 3d 68 eb 4d bd e7 60 a2 bd
       -0.028673315 0.071349084 -0.05027333 -0.07928639
000090 f7 2a 79 3c 5e 32 eb 3c a4 92 08 3d ad 45 25 be
       0.0152079975 0.02871054 0.033342972 -0.1613986
0000a0 55 50 12 be 36 47 6d 3c 7f da b4 bd 9d e1 b6 3c
       -0.14288457 0.01448231 -0.08830737 0.022324378
0000b0 15 5c 11 3d 70 66 08 3c 39 9c a4 3d 86 af 57 3e
       0.035488207 0.008325204 0.080376096 0.2106305
0000c0 5e 60 00 bc ce d4 19 3c e9 ec de bd 72 a7 e2 bd
       -0.007835476 0.0093891155 -0.10885031 -0.11067094
0000d0 c6 11 6a bb 9f 42 90 3d d7 fb cd bc e6 c0 58 bd
       -0.003571616 0.07043957 -0.0251445 -0.052918337
0000e0 5f 48 3f bd ae be 45 bd 25 58 a6 bd 87 52 24 3e
       -0.046699878 -0.04827755 -0.08122281 0.16047107
0000f0 de cf 07 be 94 ce 4e bd 9a a5 85 bd 5b fa 88 bc
       -0.13262889 -0.050489977 -0.065257266 -0.016720941
000100 d3 16 8d bd c4 f7 79 bc 5f f0 6f 3d f5 a5 64 bd
       -0.06889119 -0.015256826 0.058578845 -0.05582233
000110 df 06 c0 bd f4 4e 4f bc 61 3e 7d 3d f2 18 82 bd
       -0.093763106 -0.012653101 0.061827067 -0.06352414
000120 ae 54 e0 bd 50 92 91 3c 51 6b 34 bd 22 5c de bd
       -0.10953651 0.017769963 -0.044047657 -0.10857417
000130 4d e5 a1 bd f3 4b 9f bd 1e 62 ca bd 91 b2 88 3c
       -0.07905064 -0.07778158 -0.098819956 0.01668671
000140 fc 22 66 bd 0a 78 0c bd 8d 54 e3 3d fe b8 e0 3c
       -0.056185707 -0.034294166 0.11100111 0.027431961
000150 d8 43 89 3d 11 6c 88 bb b9 77 8a bd 27 01 b1 bd
       0.06702393 -0.004163273 -0.067611165 -0.08642798
000160 88 7e 26 3a d7 69 89 bd c6 0c 5c be ff 23 57 bd
       0.0006351252 -0.067096405 -0.21489248 -0.052524563
000170 4d 0f a0 bd 0f 1b b3 bd 80 97 11 3c 15 a4 50 bd
       -0.078154184 -0.087453954 0.008886218 -0.05093773
000180 e3 e9 ed 3d 68 b3 46 bd da 21 2b bc 91 22 f2 3c
       0.11616876 -0.04851094 -0.010445083 0.029557498
000190 5f 84 89 bd 00 be 1a 36 8e 3f 71 3d e1 9a d0 bd
       -0.06714701 2.3058383e-06 0.0588985 -0.10185791
0001a0 73 68 65 bd fa 7d 74 3d b9 58 a7 bd dc 2d bf bd
       -0.056007814 0.059690453 -0.081712194 -0.09334919
0001b0 2b 2a 21 3d b5 21 ee bc 8d 28 8e bd 34 12 69 bd
       0.039346855 -0.029068807 -0.06941328 -0.056902125
0001c0 7a 07 29 3d 96 e1 13 be ea 04 6d 3d 15 61 5f bd
       0.041266896 -0.14441523 0.057866015 -0.054535944
0001d0 1e 87 b8 bc 6b d3 07 3b 7e af ca 3c e8 bd a1 bd
       -0.022525366 0.002072538 0.024741884 -0.0789755
0001e0 c3 f5 42 3c a0 16 3f 3d 4a a9 ec bb 06 b9 8a 3d
       0.0118994145 0.046652436 -0.0072223293 0.06773572
0001f0 94 1f 57 3d 5e a0 ae bd fd ec 64 bd 82 1c 95 bc
       0.05252035 -0.08526681 -0.055890072 -0.01820207
000200 db 55 95 3b 6d e6 5d bb 28 ff c5 3b e4 13 1d 3c
       0.004557354 -0.0033859268 0.00604238 0.009587262
000210 98 50 34 ba f5 82 22 bc f8 d7 89 3b 32 3f 18 3c
       -0.00068784645 -0.009918918 0.0042066537 0.009292411
000220 16 27 ad 3a 68 80 75 bb 74 dd 40 3b f4 9f 80 bb
       0.0013210501 -0.003746057 0.0029428871 -0.003925318
000230 63 0d 88 3b 52 36 52 bb ac 64 22 3c a7 30 2c bb
       0.0041519864 -0.0032075834 0.009911697 -0.0026274116
000240 66 58 9d 3b 8f 31 14 bb 8b 75 66 3b f0 b2 20 3c
       0.0048017977 -0.0022612547 0.0035165276 0.009808287
000250 c0 b2 14 38 22 7d 06 bc 4c 3e 1c ba 28 a5 9b 3b
       3.5452424e-05 -0.008208545 -0.00059602107 0.004749913
000260 62 91 22 3c 06 69 ea 3b 16 46 20 3c 3a d7 ef bb
       0.009922357 0.007153633 0.009782335 -0.007319358
000270 63 61 00 bc c6 a4 9b 3b 7f d4 ec 3b 20 6e 57 3b
       -0.007835719 0.004749867 0.00722748 0.0032872036
000280 79 55 59 3a c9 18 c5 ba 96 7a 1e bc ae d1 6d bb
       0.00082906295 -0.0015037294 -0.009672781 -0.003628831
000290 98 d7 4f 39 58 3b 4b 3a 5a d6 2b 3c 9e 62 43 bb
       0.00019821373 0.00077526784 0.010488117 -0.002981342
0002a0 a6 98 74 3b ab 81 22 bc 9e e0 11 bc 20 7b 22 3c
       0.003732243 -0.009918611 -0.008903651 0.009917051
0002b0 03 66 1a bc 4e ee c6 3b 00 67 85 3b 20 89 69 3b
       -0.009423736 0.0060708886 0.0040711164 0.0035634711
0002c0 6c c6 01 bc 37 37 b8 ba 6a 06 bc 3b 03 14 05 bc
       -0.007920843 -0.0014054541 0.0057380693 -0.008122447
0002d0 f6 47 b9 3b a5 50 2d 3b a0 7f aa ba db 35 21 3c
       0.0056543304 0.0026445773 -0.0013008006 0.0098395
0002e0 c8 60 a9 3a f0 32 9a 3b 92 bc a5 3b 19 c4 09 3a
       0.001292252 0.0047057793 0.0050578797 0.0005255356
0002f0 1a 25 1d bc e0 63 ed ba 71 88 39 bb 23 8b 21 3c
       -0.009591365 -0.001811143 -0.0028310085 0.009859833
000300 f1 b2 1e 3c 93 54 2d 3b 26 ff 20 3b a8 06 6b ba
       0.009686218 0.0026448115 0.0024566143 -0.00089655304
000310 a9 9f f6 3b b1 81 51 bb de 4a 9b 3b 92 17 70 bb
       0.007526357 -0.0031968171 0.0047391495 -0.0036635143
000320 b8 0d 4b ba a0 8c 03 3c 88 e6 c9 bb aa a4 25 3b
       -0.00077458797 0.008029133 -0.0061615147 0.002527515
000330 8d 4a df ba 9a f2 dd bb 32 c8 4d ba e8 6d 10 bc
       -0.0017035768 -0.006773305 -0.0007849961 -0.008815266
000340 c1 77 87 3a 7c 14 57 ba 35 4c 1b bb 7e 0a 9b bb
       0.0010335372 -0.00082046515 -0.0023696546 -0.0047314754
000350 f6 69 a2 ba 70 9f 87 bb d5 40 ac ba 68 33 20 bb
       -0.0012391198 -0.0041388795 -0.001314188 -0.0024444703
000360 aa b0 81 3b 9b 70 13 bc f9 3c 93 ba ca d0 3b 3b
       0.0039578276 -0.008999015 -0.0011233381 0.0028658384
000370 b3 fc 02 3c 37 51 ec bb 14 6c 22 bc 59 51 9b 3b
       0.0079948185 -0.00721183 -0.009913463 0.004739922
000380 4a e2 19 3c 6e 58 c1 3b aa 77 de bb 60 1a 8c bb
       0.00939233 0.005900434 -0.0067891674 -0.004275605
000390 ba 3c c2 bb 0e ad 6d 3b 60 91 e0 b9 bd 93 bf 3a
       -0.0059276493 0.0036266479 -0.00042832922 0.0014616173
0003a0 68 aa 6b 3b 34 47 58 ba 42 57 00 3a 3a 1e 8e 3b
       0.0035959724 -0.0008250356 0.0004895815 0.0043370994
0003b0 b2 9e 1f 3c 5c 3b 9d bb aa d2 61 3a b6 ce 0e bc
       0.009742426 -0.004798336 0.000861446 -0.008716276
0003c0 45 05 82 3b 38 be 1d 3b 8a 32 21 bc 50 88 44 38
       0.0039679133 0.0024069678 -0.00983871 4.6856992e-05
0003d0 0a ab 63 ba 6b 00 37 bc 86 c8 32 3a 99 68 0b bb
       -0.00086848496 -0.011169533 0.00068200415 -0.0021272062
0003e0 44 52 97 bb de 9d 11 bc 58 bc 73 39 95 07 22 bc
       -0.004617961 -0.008887736 0.0002324445 -0.009889503
0003f0 18 cb 09 3a f0 2f 87 3b 6c a7 09 3b 2a c7 cc bb
       0.00052563986 0.0041255876 0.0021004332 -0.006249328

weight_ih_l0 f4 [256, 128]
000000 ce c5 ad 3d a7 b0 fa bd a9 a0 ac bc 18 2b 98 3d
       0.08484994 -0.12240725 -0.021072702 0.074300945
000010 9e 52 f4 bc 2b 55 9e bd 72 eb cf bc 78 fe 52 bd
       -0.029824551 -0.07731088 -0.025380824 -0.05151221
000020 0a 54 9c bb 7d 12 aa 3d 99 01 1c 3e 38 b7 df 3d
       -0.0047707604 0.083043076 0.15234984 0.10923618
000030 a7 0c 95 bd 67 fa ea bd 15 5f 04 bc ad fe ed bc
       -0.07277804 -0.11473542 -0.00807931 -0.029052103
000040 3b 8b bc bc c5 16 d9 3d 82 da 42 3d c4 65 17 3d
       -0.023015609 0.10600046 0.047571667 0.036962286
000050 8f 7b 87 3d a6 2d 16 3e 01 a7 eb bb e2 c6 e2 3b
       0.06615364 0.14665851 -0.0071915393 0.0069206813
000060 64 0f 58 3d 04 70 cc b9 aa 8e a0 bd 7c d9 11 be
       0.052749053 -0.0003899337 -0.07839711 -0.1424312
000070 ca d1 69 3c 82 8d b5 bc a2 8a f8 3d 11 00 3c 3d
       0.014271209 -0.022162203 0.12135817 0.0458985
000080 d7 94 ee bd 0a a7 42 bd 19 f5 2f bd 4d 8d a1 bd
       -0.11649483 -0.047522582 -0.042958353 -0.07888279
000090 69 c6 7f 3d 6f 79 13 be 6e b7 55 bd d5 3c 62 3d
       0.062445078 -0.14401792 -0.052176885 0.055233795
0000a0 f7 0b 4e 3d b3 bf 52 3d 76 0b 54 3c 3c 92 7c 3d
       0.05030438 0.05145235 0.012942186 0.061662897
0000b0 28 2c a9 bd a7 20 65 3d b9 da f1 3c 4b e9 9c bb
       -0.08260375 0.055939343 0.02952324 -0.004788553
0000c0 ba 86 81 bd 4f 4f cd bb 80 f9 c3 bd 29 98 df bd
       -0.06324525 -0.006265558 -0.09569073 -0.10917694
0000d0 7d 00 5a bc d0 b1 4e bd 5f d2 4f 3d b9 3f 20 3d
       -0.0133057805 -0.050462544 0.050737735 0.03912327
0000e0 8c 5a da 3c b5 da d3 bc d5 18 8b 3d e1 ed 16 be
       0.026654504 -0.025861124 0.06791846 -0.14739181
0000f0 43 61 50 bc 68 e5 db bd 33 62 1f 3d 61 51 a2 3c
       -0.0127185015 -0.10737115 0.03891201 0.019814195
000100 5d 8e 53 3d ee 81 e8 3d 12 29 86 bd c7 13 3f 3e
       0.05164944 0.11352907 -0.06550802 0.18659888
000110 95 1d 5a 3d 68 07 83 3c 75 85 9e 3d 8c a1 37 3c
       0.053250868 0.015994743 0.07740299 0.011207949
000120 39 16 c0 3b 19 5e e5 bd d9 88 bb 3c 68 29 98 bd
       0.005862024 -0.11199588 0.022892402 -0.074297726
000130 78 5c 27 bd 01 ce 51 3d 13 63 a7 bd d6 99 ea 3d
       -0.04085967 0.05122185 -0.08173194 0.11455123
000140 14 74 b7 bd af 40 be bd 20 33 59 bd e9 2c 0e 3e
       -0.08957687 -0.09289681 -0.053027272 0.1388432
000150 ce 64 aa 3d 82 4d 20 be 73 1d 9b 3d c3 9e 0e 3e
       0.08320008 -0.15654567 0.07573976 0.1392775
000160 cd d9 1b 3e c2 1f d8 bd 46 76 14 3d d1 e4 a7 3d
       0.15219803 -0.10552932 0.036245607 0.0819794
000170 f1 a0 9c bc 52 41 33 bd ed e8 97 bc 9d d3 fe bd
       -0.019119712 -0.043763466 -0.018543685 -0.12442706
000180 7c 68 a3 3c cc 0a ca bb a3 fd d1 bd 2f 60 23 bd
       0.019947283 -0.006165838 -0.102534555 -0.03988665
000190 e1 a6 66 bd 55 09 c0 3b 05 77 06 3d 1c 96 e1 3d
       -0.056311492 0.0058604875 0.03282835 0.11014959
0001a0 22 41 b1 3b f9 81 76 bd 0c 8d 80 bd dd a0 12 bd
       0.0054093758 -0.060182545 -0.062769026 -0.035797942
0001b0 78 ae c0 3d cb cc bc bd b3 61 a5 bd 12 43 ff 3c
       0.09408277 -0.09218749 -0.08075275 0.031159911
0001c0 32 7a 36 bd 67 db 26 3d 72 cb 62 bd fd f3 eb 3c
       -0.04455013 0.040736582 -0.0553698 0.028802866
0001d0 b0 be 9e bd 07 2b da 3b e5 cf d3 3d 49 98 ba 3d
       -0.077512145 0.0066579613 0.10342387 0.09111077
0001e0 40 8e 1f bb 4f 0d 08 3e aa 0e 18 3d dc b4 62 bd
       -0.0024346262 0.13286327 0.03712336 -0.055348262
0001f0 ae c7 94 bc 28 2e e2 bd 28 3e d7 3d 14 16 b8 3c
       -0.018161621 -0.1104396 0.10509902 0.022471465
000200 e8 1a ea 3d 0d ea df 3d d4 e7 d5 3c e7 44 4b bd
       0.11430913 0.109333135 0.02611152 -0.049626257
000210 c6 9e fe 3d 67 1d b1 bd 47 58 ac 3d 2a 78 57 3d
       0.124326274 -0.08648186 0.08415275 0.05260483
000220 c5 c8 0e 3d b4 c0 eb bd 0e 7f 95 bb cd 85 23 3d
       0.034859437 -0.115113646 -0.0045622652 0.039922524
000230 3e 32 27 3b 8a fd 34 bd 4a 9e bd bd 75 3e d5 bc
       0.0025512124 -0.044187106 -0.09258707 -0.026030758
000240 49 f1 ce bd 0e c1 ab bd e5 bc 26 3d 4d 50 f6 bd
       -0.10104615 -0.08386432 0.040707488 -0.12027035
000250 6b fc 7c bc 20 5b f4 3c cc 85 5f bd b1 b3 7c 3d
       -0.0154410405 0.029828608 -0.054570958 0.061694805
000260 05 2d c4 bd f8 31 23 3e 81 52 ec 3d 87 92 e4 bd
       -0.09578899 0.1593703 0.11539174 -0.111607604
000270 c7 41 d7 3c 72 e4 9a 3c 1b bf a8 bc 44 ef 21 3b
       0.026276482 0.01890776 -0.020598939 0.0024709264
000280 f3 88 9a bd 46 d7 85 3d 24 b2 ad 3d d4 85 c2 3d
       -0.07545652 0.06535201 0.08481243 0.09498182
000290 0b 78 42 3d 25 33 da bd 94 f8 da 3d dc 56 2f 3d
       0.047477763 -0.10654286 0.10691944 0.042807445
0002a0 d5 62 b2 bd f6 60 47 be fc 71 38 3c 7e c8 fd bc
       -0.08710257 -0.19470581 0.011257645 -0.030979391
0002b0 05 12 75 bd b0 41 a1 3d 7d 11 00 be fd 5e c0 bd
       -0.059831638 0.07873857 -0.12506671 -0.093931176
0002c0 78 2c d6 bc b3 4d 32 be 08 5b 5d bc 68 a7 13 bd
       -0.026144251 -0.17412452 -0.013510473 -0.036048323
0002d0 08 77 98 3d 40 85 d7 bd bd c6 7a bd 17 90 00 be
       0.074445784 -0.10523462 -0.061224688 -0.12554966
0002e0 d2 62 5d bd ba e1 14 be 87 63 b9 bd b5 bb 30 be
       -0.05404932 -0.14539233 -0.090521865 -0.17259105
0002f0 dc 9a 9b bd e8 d5 8e 3b c1 ed f7 bd 6e dc 35 bd
       -0.075978965 0.0043589957 -0.12105895 -0.04439967
000300 1d ff da bd ce ed 1c 3c 95 00 d5 bd 1c 6b 33 3e
       -0.1069319 0.009578181 -0.10400502 0.17521328
000310 db c7 bd 3d 4d bd 12 3e f6 04 38 be 23 14 e4 bd
       0.09266635 0.14330025 -0.17970642 -0.11136653
000320 6a 76 7b 3c 09 15 ae 3d b0 d1 8b ba dc 18 20 3d
       0.015348056 0.08500106 -0.001066735 0.039086208
000330 68 44 37 3d b0 e0 e8 bd 6a 92 71 3d e5 b6 62 3c
       0.04474297 -0.11370981 0.058977522 0.013837551
000340 36 45 d5 bd be 95 a5 bd de b7 87 bd 7a d4 2b 3e
       -0.104135916 -0.08085202 -0.06626867 0.16780272
000350 13 72 86 bd 64 b9 50 be 76 0e 41 3e 02 6a 08 3e
       -0.06564727 -0.20383221 0.18853173 0.13321689
000360 53 56 01 bd 12 5f e5 bd f2 de 3b 3d 3f fc ca 3d
       -0.031576466 -0.11199774 0.045866914 0.099113934
000370 39 b2 ea 3d de 1e f4 bd 71 79 c7 3d b9 a1 11 3c
       0.114597745 -0.1191995 0.0973996 0.008888655
000380 19 90 8f bd 50 13 eb bd 86 d3 7f 3d 9a aa 03 be
       -0.07009906 -0.11478293 0.062457584 -0.12858048
000390 2f 0f 03 3e 43 c7 ab bc 90 73 d6 3c 25 86 fa 3c
       0.12798761 -0.020969039 0.026178151 0.030581543
0003a0 9c a6 f0 3d dd fd 63 bd 36 2e 5c 3c e7 0a a9 3d
       0.11750528 -0.055662025 0.013438752 0.082540326
0003b0 8a 57 00 3e 20 21 63 bd 26 7c bb bd 26 67 8f bc
       0.12533394 -0.055451512 -0.09154539 -0.01750524
0003c0 17 f1 2b 3d 9e b3 e5 bc c1 02 66 bc 43 9b 17 3d
       0.041977968 -0.02803975 -0.0140387425 0.037013303
0003d0 7f 6f a3 bd 72 8a 55 bd 79 04 03 3e c6 c4 71 3c
       -0.079802506 -0.052133985 0.12794675 0.014756387
0003e0 97 fd 32 bd 91 5c e9 bc 9b 6f 98 bd d2 86 13 bd
       -0.043698873 -0.028486522 -0.07443162 -0.036017247
0003f0 99 28 9a 3d 7c 0a 3c 3d bf 12 d0 3c 3c 53 00 bd
       0.07527275 0.045908436 0.025399564 -0.03132938

weight_hh_l0 f4 [256, 64]
000000 53 4f 99 3c 87 cc dc 3c a6 99 ba bc 8a 94 04 3c
       0.018714583 0.026952995 -0.022778343 0.008092055
000010 51 eb 86 bc af 95 1e 3c ee f9 4e 3a 61 95 81 3a
       -0.01646963 0.009679242 0.0007895519 0.0009886437
000020 ef cf 92 3b 14 64 91 3c 16 7e 79 3b 52 e0 47 bc
       0.004480354 0.017747916 0.0038069538 -0.012199478
000030 ee 13 76 3a d4 f1 e7 3a dc 9f df 3c 37 eb 13 bc
       0.0009387125 0.0017695972 0.027297907 -0.009028248
000040 ad 30 2c bb 03 c0 95 3c 79 4a 9b ba ca 3e b5 3b
       -0.002627413 0.018280035 -0.0011847756 0.0055311667
000050 4e 05 f7 ba 9d 0a 7f ba 7c dc c0 3c 66 d9 c4 bb
       -0.0018846185 -0.00097290595 0.023542635 -0.006007361
000060 da 65 c6 ba 1c 6b 82 ba 68 85 22 bc a4 84 f5 3a
       -0.0015136555 -0.0009950134 -0.009919502 0.0018731547
000070 ba 11 8c bc 08 e3 1a 3c f8 74 da 3c ae 3f 08 bc
       -0.017098296 0.0094535425 0.026667103 -0.008315964
000080 cc 4d 59 bb 14 2e b2 ba 44 cc 84 bb de 9a ae 3a
       -0.0033157943 -0.0013594055 -0.0040526707 0.00133213
000090 89 ce 06 3c 72 39 94 3b 84 e8 57 bb 34 6b b8 3c
       0.008227953 0.0045234496 -0.0032944987 0.022512056
0000a0 7e d3 d3 bc 3d 93 b7 3c a5 47 10 3c 1f 43 47 bc
       -0.025857683 0.022409076 0.008806144 -0.012161999
0000b0 3f 28 df bc 4d 07 e4 bc a7 c3 67 3c 6a ef a2 3a
       -0.02724087 -0.027835513 0.014145768 0.001243097
0000c0 0b ec fa 3b e3 e5 76 bc 42 d0 ac 3c 86 69 f1 bb
       0.007657533 -0.015069458 0.021095399 -0.0073673157
0000d0 d0 dc 8c bc 52 3a 97 3a 78 6c 06 bc 99 9d 6f 3b
       -0.017195135 0.0011537767 -0.008204572 0.0036562441
0000e0 e9 c7 d7 3c 76 a8 6c bb 84 90 22 3c fd 1a ac bc
       0.026340442 -0.0036111153 0.0099221505 -0.021008963
0000f0 d1 bd 21 bc c6 9a 19 3c 7e 57 87 b9 65 06 e1 3c
       -0.009871916 0.00937528 -0.00025814393 0.02746887
000100 d4 e1 c4 ba 6f db e1 3c 5e c5 98 3a c9 78 d7 bb
       -0.0015020915 0.027570454 0.00116555 -0.006575678
000110 9f 7f 0b 3a 77 ff 4c bb cd ec 3a bc 24 a6 d5 3b
       0.0005321446 -0.0031280199 -0.011408997 0.0065200496
000120 33 0f e4 bc c2 e2 05 bc e6 d6 8c 3b f4 ad 17 ba
       -0.027839279 -0.008171739 0.004298079 -0.0005786114
000130 3c a8 8f bb ce 83 bf bc 1b 50 df 3c d4 16 c1 3c
       -0.004384069 -0.023378279 0.027259877 0.023570456
000140 36 3c 78 bb 40 90 43 bc 6c 32 c0 3c 3d 6f e0 3c
       -0.0037877685 -0.011936247 0.023461543 0.027396793
000150 fd a6 d5 3c 01 4d b6 bc b4 f7 20 3b ef 2f 22 3c
       0.026080603 -0.022253515 0.0024561705 0.009899124
000160 b3 da 73 3b ac 3c fb ba 1e bd 3a 3b 47 6a 49 bb
       0.0037209212 -0.0019167862 0.002849407 -0.0030733512
000170 fb 63 af 3b 4a e1 9a 3b 9b ef a5 bc 71 b2 80 bc
       0.005352495 0.0047265636 -0.020255854 -0.015710087
000180 93 39 b5 3b 7a 15 1b bc f2 95 a6 3c 24 14 86 3c
       0.005530545 -0.00946557 0.020335171 0.016367026
000190 8a 22 1f bc 52 1f e0 bc da 6d ce bc a6 f0 1a 3c
       -0.009712825 -0.027358685 -0.025198866 0.009456789
0001a0 91 92 0e bc 94 57 20 bc 36 d4 bb 3a fc a8 cb bb
       -0.008701936 -0.009786505 0.0014330212 -0.006215213
0001b0 1a 16 70 bc 3b 42 f4 3b 6f 82 21 bc 51 ad c1 3c
       -0.014653707 0.0074541843 -0.009857758 0.023642214
0001c0 6e 56 2f bc ec 2d b9 3c 44 f8 9a 3b fe 67 d2 ba
       -0.010701759 0.022604905 0.0047293026 -0.0016052721
0001d0 dd 94 4f 3a f2 8e ce bb ed 88 d8 bc eb c2 80 bc
       0.00079186057 -0.0063036615 -0.026432479 -0.015717944
0001e0 f9 09 99 bb 60 c1 41 b9 72 48 e7 ba c0 ea b8 b7
       -0.0046703783 -0.00018477952 -0.0017645492 -2.2043823e-05
0001f0 e1 bc ab bc 1d 6e 87 3a 9c 57 56 bb 39 70 92 bb
       -0.020964088 0.0010332499 -0.0032706028 -0.0044689444
000200 e4 61 ed bb 86 9f 9b bb 71 c1 1e bc cb fa 81 bc
       -0.0072443355 -0.0047492413 -0.009689675 -0.015866658
000210 7e d3 5c ba 8f ae 00 bb 00 b2 c1 bc 7b b3 ef bb
       -0.0008423849 -0.0019635295 -0.023644447 -0.007315097
000220 49 de 19 ba cb 1e b3 bc e7 40 52 bb bc 3c a5 bc
       -0.000586961 -0.02186527 -0.0032082142 -0.020170562
000230 8d 43 d5 bc 74 93 13 bc a9 dd 0e bc e4 89 e0 3c
       -0.026033187 -0.0090073235 -0.00871984 0.027409501
000240 48 d5 db b8 d6 83 1c 3c f9 26 89 3c f6 c4 5b 3b
       -0.000104824605 0.0095529165 0.016742216 0.0033534146
000250 60 e4 62 bc 74 c6 ce 3b 73 56 db bb 20 64 21 3c
       -0.013848394 0.0063102785 -0.006693655 0.009850532
000260 2b f9 c3 bc 5a 7e c1 ba 20 19 f3 bb c5 3b 6c bb
       -0.023922523 -0.0014762387 -0.0074187666 -0.0036046368
000270 2e b6 7b ba 90 40 d9 bb d5 63 c6 3b b5 7d c3 bc
       -0.0009602037 -0.006630011 0.0060543814 -0.023863653
000280 5c 1c 80 ba 30 a8 ce 3b e8 76 12 3c 10 96 e3 bc
       -0.0009774077 0.0063066706 0.008939482 -0.027781516
000290 06 7b e0 3b 51 e7 ca ba b4 f3 8f bc 99 46 8f bc
       0.006850603 -0.0015480315 -0.017572261 -0.017489718
0002a0 f8 36 c0 bc 6c a1 b6 bb d4 53 03 bc 72 12 84 3c
       -0.023463711 -0.005573442 -0.008015592 0.016122077
0002b0 ca 59 ef bb cc 20 9d bc 42 99 be 3a 1d f1 d3 bc
       -0.007304405 -0.019180678 0.0014541524 -0.025871808
0002c0 d8 2e b3 ba 37 03 cd 3b 41 7a 24 3b cc c5 e7 ba
       -0.0013670577 0.0062564868 0.0025097283 -0.001768285
0002d0 e3 33 fd bb c8 35 9c ba 08 dc 30 3b 21 7c a9 3c
       -0.0077271326 -0.0011917884 0.0026986618 0.020689072
0002e0 f6 73 e2 3c 5d e6 98 3a db 7c b5 ba 36 99 7f bb
       0.027643185 0.0011665333 -0.0013846414 -0.0039001233
0002f0 e6 b0 99 3b 89 04 a9 3c 70 98 41 ba cb 40 91 3b
       0.0046902774 0.020632045 -0.00073850807 0.0044327728
000300 bc b3 da 3c 44 a2 f8 bb 83 7f 79 bb e0 35 50 ba
       0.026697032 -0.007587703 -0.0038070388 -0.00079425983
000310 9e 09 56 bb 2d 6d 1d 3c 3d ed 94 3b 9d 68 e2 bc
       -0.003265954 0.009608549 0.0045448826 -0.027637774
000320 a6 fb de 3c e3 40 cb bc a3 56 de 3c 87 1e 4b ba
       0.027219605 -0.024811214 0.027140921 -0.00077483844
000330 a4 1f ae bc 72 60 a9 3b 38 cc 0e ba 67 92 1f bc
       -0.021255322 0.005168968 -0.0005447301 -0.009739495
000340 80 39 fc b7 8d 99 8d 3b 80 64 7e ba c9 11 e4 3c
       -3.0067516e-05 0.004321283 -0.0009704307 0.027840512
000350 b0 bd 7e 39 b1 4f 80 bb ce c0 b6 bc f7 e4 b9 3c
       0.00024293992 -0.00391575 -0.022308733 0.022692187
000360 32 f1 2c 3b ee ab af bb 7b 98 69 3c 86 22 dc bb
       0.002638888 -0.005361072 0.014257546 -0.0067179827
000370 6d 9d 16 3c e2 76 df ba a8 c8 6f 3b 79 19 8b bc
       0.009192807 -0.001704898 0.0036588106 -0.01697992
000380 22 41 91 3b e4 8b c8 ba 85 15 c6 bc 9e da 88 ba
       0.0044328133 -0.001530048 -0.024180183 -0.001044113
000390 5d aa 85 bc b7 e4 8b bc e6 27 0e 3c 78 7b a2 b9
       -0.016316587 -0.017076833 0.008676505 -0.0003099104
0003a0 19 28 eb 3b b9 97 75 3b ac cc d4 3c fc 31 66 b9
       0.007176411 0.0037474467 0.025976501 -0.0002195313
0003b0 20 82 a3 b8 15 80 d0 3c c4 6d c0 39 9c a5 97 bb
       -7.796683e-05 0.0254517 0.00036702876 -0.0046278965
0003c0 91 9c e0 bc d8 15 b5 bc d6 d0 7b bb c4 a6 6e 3b
       -0.027418407 -0.022105142 -0.0038424036 0.0036415318
0003d0 ae 3d 42 3b ab 49 86 bc 2b 9a dd bc 60 a2 28 ba
       0.0029638815 -0.01639255 -0.027051052 -0.0006432887
0003e0 d5 d7 a8 bc 5d f1 d2 3c a5 1d a2 3b 69 a6 c8 3b
       -0.02061073 0.025749857 0.0049473816 0.0061233533
0003f0 76 c9 83 3a aa 4a 16 3c c4 6d c3 3b 7b 7f 0f bc
       0.0010054547 0.009173075 0.005964013 -0.008758421
