Comparative_Evaluation/Baselines/LSTM/models_m/model2.pt (torch, 499143 bytes, 10 tensors)

weight_ih_l0 f4 [512, 10]
00000000: 9625 99bb a1da 073c 4a4e bf3b 30ce 83bd
00000010: 527f b33c 2d76 e1bc de91 c2bc 9a50 27bd
00000020: da3a 433d bc3d c83d bfdd 64bd fe9f 6f3b
00000030: 1faf adbc b244 80bd 1337 76bc 629e b2bb
00000040: 9d15 5bbd e856 4e3d 4a64 8f3d b659 4fbd
00000050: ac23 d93c e056 82bd eb47 e03c f4d1 853d
00000060: 70b7 943c dac3 a53d 1c47 9b3c 522a a73d
00000070: bb98 9bbd bf11 c23d b0b2 2a3a 8813 6ebd
00000080: b6b7 7fbd 0262 c3bc 1a0d 7bbd f2dd 27bc
00000090: 5493 443d 0462 713d 47d1 2a3d 7eea 16bd
000000a0: 5bd5 42bd d0bc ecba dbef fd3c 1b2f 55bd
000000b0: d0b0 593b 085c f73c de2f e1bb 1e64 25bd
000000c0: 38cf 243d 3778 20bd 5846 983c f427 77bb
000000d0: 7292 dd3b 237c 883d 0832 bc3b 1277 d33c
000000e0: 47ea ad3c 0813 c1bc 8b2d 97bd 7074 1fbb
000000f0: b8ab ddbb 4a30 b3bc f8f9 a9bc 64e8 9cbc
00000100: d41d e23b 10f6 603c 045a fa3c bec4 9f3d
00000110: 29c6 d93c b1fe c3bd 368a 53bd d6e2 003c
00000120: 893c 4bbd 6765 70bd d0a6 fd3b 7d6e 893c
00000130: 607d 0bbc 5c57 b6bd c737 a1bd f393 963c
00000140: f488 d03c 2f00 16bc 4401 80bc 73b5 80bc
00000150: 3ea0 cabc 8dc9 593d a5ee a43d b628 19bd
00000160: b3ca ff3b 3632 f7bc d45d d43a 191e bdbb
00000170: 4264 903b ea53 163b eb39 84bd 08e6 1b3d
00000180: b4bb 0ebd 0678 92bc 1037 a0ba 7216 3b3d
00000190: 00a0 86bd 60d3 573d 07d3 1bbc d4d0 b83b
000001a0: 2b0f 533d af4b 99bd b64f b0bc cea3 0e3d
000001b0: b7db 163d 0eaa 9bbd 2203 453c b9e4 1d3d
000001c0: 4ee2 e1bc ba4d 71bd fe8f 663d 1de7 863d
000001d0: 5161 b63c 0e5e ac3d 977c 57bd c064 72bc
000001e0: b60e 843d 1ac1 cbbc 094e 69bd 9094 4dbd
000001f0: 23f0 7c3d 68d8 35bc 75ed c43d 7a18 4c3c
00000200: 3bcf 9e3d e2bb 15bd ce75 02bd 4a16 21bd
00000210: 5e72 c3bc 2ce3 b93b 6c0b c63c 7fd8 8c3d
00000220: e662 913d 5a08 273d c94c 683c 28fa 993c
00000230: ceae 8dbc 2e9b 4dbd 5505 b8bc f5fc bbbb
00000240: f9f3 0ebc 3c76 39bd c5c3 273d d4b1 223d
00000250: 5ec8 efbc f23b 083d ba71 da3c 883c 9ebb
00000260: d40c b9bb 216a 233d 2966 89bb 057b 5dbc
00000270: 470b 8c3d 7847 833a 2e7f 64bd 8e3c d6bd
00000280: 769e c5bc 643e ae3c 299b 7f3d 31f5 3f3d
00000290: 574e 84bb 28d7 d3ba 744c 153d 4a2c 11bd
000002a0: ee55 5abd eecd 4ebd a623 67bd ff66 813d
000002b0: 7c9f 6f3d fbc0 54bd ea3e b63b 1c95 74bd
000002c0: 6a08 88bd 7e30 c0bd 05d2 13bd a870 b6bd
000002d0: 4845 863b 0646 bdbc a382 9a3c 93dc 52bd
000002e0: 92a1 483d ded1 3cbd 803a 8fbd c36f cb3d
000002f0: 4fca 8bbd 64f4 6dbb bb91 66bc 726a 2f3d
00000300: 5eda 0abd 0621 0e3d f692 35bd b886 063d
00000310: de4f 03bd 98ca 693d a356 9fbd 22a3 25bd
00000320: 232d 433c 2499 18bb 9305 433c 98a2 4fbb
00000330: 17a4 403d 70a2 cb3a 181d 30bc c320 40bd
00000340: f969 b73d caf9 b33c ad04 6e3c 5c02 aa3b
00000350: 86eb 84bd c21d e1bc 02e9 fe3c 64d3 083d
00000360: 2922 dbbc 9f14 82bd 7db2 b1bd 1f79 403d
00000370: 9c7d b1bc 48aa 69ba 520e febc fea6 ddba
00000380: 0d2a 2cbd eddc bc3c 7ea8 3ebb a359 85bd
00000390: 1da7 133d 0e4a 36bb c5e9 f23c 88c0 a83c
000003a0: df05 383d b3c9 8e3b b575 5a3d 1047 05bd
000003b0: be3d b83c 5c25 233c d8f1 27bd d60d 72bd
000003c0: d80d b43c f860 be3b 0fab 523d 66ab c3bc
000003d0: d845 bf3b 9cec 503d d11b 4cbd 1e4f ca3c
000003e0: 136b 643d e0d2 17bd 36cd 3ebd 0816 c03a
000003f0: 9a75 873d 385c f6ba a022 20bd 484e bf3c
-0.00467367 0.008291871 0.00583819 -0.064358115 0.021911297 -0.02752217 -0.023751196 -0.040848352
0.047663547 0.097774 -0.055875536 0.0036563869 -0.021201668 -0.062631026 -0.015027779 -0.0054510096
-0.05348741 0.05037585 0.070015505 -0.050622664 0.026506267 -0.06364226 0.027378043 0.06534186
0.018153876 0.08093996 0.018954806 0.08162369 -0.075974904 0.09476041 0.0006511612 -0.058124095
-0.06243106 -0.023850445 -0.06129179 -0.010245787 0.047992066 0.058931366 0.04170349 -0.036844723
-0.047566753 -0.0018061642 0.030998161 -0.052046876 0.003321696 0.030195251 -0.0068721613 -0.040378682
0.04023668 -0.039177146 0.01858823 -0.0037713023 0.0067618424 0.06664302 0.005743269 0.025813613
0.021229876 -0.023568645 -0.073817335 -0.0024330877 -0.0067648552 -0.021873612 -0.020749077 -0.019153781
0.0069005284 0.013730541 0.0305605 0.078011975 0.026583748 -0.09570063 -0.05164548 0.007866582
-0.049618278 -0.058690455 0.007740833 0.016776318 -0.008513778 -0.08903381 -0.07871967 0.018381095
0.02545593 -0.009155317 -0.015625603 -0.015711522 -0.024734613 0.05317073 0.0805333 -0.03739234
0.007806146 -0.03017531 0.0016202279 -0.00577141 0.004406483 0.00229382 -0.064563595 0.03806117
-0.034846976 -0.017879497 -0.0012223441 0.045675702 -0.06573486 0.052691817 -0.009510762 0.0056401286
0.051528137 -0.074851386 -0.021522384 0.034824185 0.03683063 -0.07600795 0.012024673 0.038548205
-0.02757373 -0.058912016 0.056289665 0.0658705 0.022263201 0.08416377 -0.052609053 -0.0147945285
0.064481184 -0.024872351 -0.056959186 -0.05019051 0.06175245 -0.011098959 0.09615604 0.012457008
0.0775437 -0.036556132 -0.03185063 -0.039327897 -0.023858245 0.005672833 0.024175368 0.06877231
0.070989415 0.04077945 0.014178463 0.018796042 -0.017295267 -0.05019682 -0.02246348 -0.005736942
-0.00872516 -0.045278773 0.040958185 0.03972037 -0.029270347 0.033260293 0.026665557 -0.004828993
-0.005647281 0.039896134 -0.0041930866 -0.0135181 0.068380885 0.0010015806 -0.05578535 -0.10460769
-0.024123412 0.021269985 0.06240383 0.046864692 -0.004037659 -0.0016162144 0.036449865 -0.035442628
-0.053304605 -0.05048936 -0.05643048 0.06318473 0.058501706 -0.051941853 0.005561699 -0.059712514
-0.0664223 -0.09384249 -0.036088962 -0.08908206 0.0040976144 -0.023104679 0.01886112 -0.051479887
0.04898221 -0.046098582 -0.0699358 0.09933426 -0.06825697 -0.0036308998 -0.014072831 0.042826124
-0.033899657 0.034699462 -0.044329606 0.03284332 -0.03205859 0.057077974 -0.077801965 -0.04043878
0.011912617 -0.0023284638 0.0119031845 -0.0031682607 0.04703149 0.0015536081 -0.010749124 -0.046906244
0.089557596 0.021969695 0.014527482 0.0051882695 -0.06490235 -0.02748001 0.031116966 0.033404723
-0.026749687 -0.063515894 -0.08676622 0.04699051 -0.02166634 -0.00089136185 -0.031012688 -0.001691073
-0.04203229 0.023054564 -0.0029092128 -0.065112375 0.036048044 -0.0027815136 0.029652486 0.020599619
0.044927474 0.0043575405 0.05333491 -0.032538474 0.022490378 0.009957638 -0.041002125 -0.059095226
0.021979257 0.0058098994 0.051432665 -0.02388544 0.0058371834 0.0510069 -0.049831215 0.02469593
0.055766176 -0.03706634 -0.046582423 0.0014655003 0.066142276 -0.0018795794 -0.03909552 0.023352757

weight_hh_l0 f4 [512, 128]
00000000: 14a8 c0bd 8e47 813d 6605 d9bc ab6d 80bd
00000010: 73a9 a3bc dc6b 943c eb0f 623d 49ce 2dbd
00000020: 2fea 563d 8e44 43bd 7681 a6bd ce28 28bd
00000030: 6fb8 dabd dfe6 7c3d 533c 1c3d 15b1 a2bd
00000040: 95d4 d53d 8f52 2abd b72b c0bc 12a0 b9bd
00000050: d024 3b3c e318 86bd 801d f6ba bd34 633d
00000060: 6065 613d abb7 843c a520 423d 823f 2abd
00000070: 56ce f5bc 64ff 26bd 5922 0dbd 9d6e 393d
00000080: b559 883d 7900 403d dac2 253d e7cd 2a3c
00000090: 7cfe 2bbb d83b e93b e516 153d 5eb5 9bbd
000000a0: 80de b83c 94bd cf3d 7259 26bd 8ba4 cf3d
000000b0: 6e97 513d 8959 4dbd 3f36 cc3c 882a 263b
000000c0: 0ea9 8b3c ea9f 1f3d f8b2 a93c 4153 8dbd
000000d0: 59bb ea3c b692 3dbd 9755 99bd 4fac c83d
000000e0: 1ab1 4cbd 2589 183d 9246 973d 6ed4 94bd
000000f0: d07d 133b bee6 12bc d34e 90bd 9430 8b3d
00000100: 24f6 803c 181e c93d b990 0e3d 8376 13bd
00000110: ea8b c7bd 17c8 673d 350d 1d3c 69ea 3d3d
00000120: 45e8 e63b 3014 0b3c 2de1 80bd 663c da3d
00000130: 9341 603c 085a 2b3c 8590 53bd 3ecc 7a3d
00000140: cda1 493d cad6 c9bc 8944 82bd cd4e 55bd
00000150: 486c 68bd 5c93 103d 374f 51bd 0ec7 fbbc
00000160: 6eed 643d 4717 813d 65dd c0bd 5c9e 3e3d
00000170: 3ac6 8e3d 7bab 213d c5f9 5dbd 5495 33bd
00000180: 6fc2 14bd 8cf5 70bd 07b3 353d 4cbc 71bd
00000190: 0254 8e3d 3a26 a73c d37b 83bd a550 37bd
000001a0: 30d7 9ebd 4f1e d73d 127e 623d 748b 60bc
000001b0: fe9c 80bd 5a7b ddbb d6cb a43d 22ea ca3d
000001c0: a92d b33d 7645 d4bc 700f 8f3d 0b5c e9bc
000001d0: f2e8 a73d 02a6 1fbd 46f8 b7bc ef7d c9bd
000001e0: 7f80 ba3c 0f37 f1bc d0a3 eb3c 8631 3b3d
000001f0: 1dd4 33bd fe30 e53b 7747 8fbc 0375 3c3d
00000200: 807e 653d 783c 563d b140 25bd b920 92bd
00000210: 63b6 e73c 315b 51bb 715c bd3d 6aca bcbd
00000220: 685d 0b3d 2b86 17bd 39be 2d3d 506b 7b3b
00000230: f843 6ebd bec3 443d ae88 cd3c 3820 a83a
00000240: ae2a 23bd 101d 533d 25f2 a6bd 0574 273d
00000250: 9656 fe3c 8490 a23c 082c c3bd 9f43 4dbd
00000260: 2018 9ebb aeb1 463d 9585 1fbd 8a99 8f3d
00000270: a306 7d3c 7710 bdbd 800d 483d bc97 83bd
00000280: 1ecd 24bc 82ec 323d e268 98bd f897 11bd
00000290: 5c06 31bd 849e 3dbd 782c 9dbd ae5d 24bd
000002a0: 58e8 1dbd a26e 2dbc 6cac 16bd 10f3 ac3b
000002b0: 7bc9 c2bc 6f3f 2cbd 46f0 b63d 3f68 babc
000002c0: 9841 e73b 46ef 233d 543a c2bd 5b8e 4cbd
000002d0: ced4 80bd 640f ebbc de61 bebd 415d d03d
000002e0: 8f62 97bd 1905 c23d 6e04 813b 10fa 95bc
000002f0: 238a 36bc d2ba fe3c 4d1f 933c 1ccf 8cbd
00000300: 218b 513d e4c8 043b 0774 00bd 930f b83d
00000310: 3da8 643d cada fb3c 4eec 913c 4d22 813c
00000320: 3720 68bd 8927 4c3d fada 9b3d afda 9abd
00000330: ac07 21bd f782 da3c f375 e8bc 7da8 f23c
00000340: 530a 8dbc 6dd6 9abd 3ee9 8d3d 4122 b1bd
00000350: 1caf f93c fdff 073d 08ce 9e3d e84c 323b
00000360: 5828 a9bd 55e6 a5bd f5a4 cdbc f33c 8cbd
00000370: f08d a1bd 7c43 413d c044 17b9 3eaf 043d
00000380: b940 83bd 7792 68bd c962 1ebc 827a d23c
00000390: f2ed 8ebd e738 f93c 940f 9abd e131 a6bd
000003a0: ae14 02bd c00e 20bd de11 f4bc 5cda 90bd
000003b0: 3062 29bd 1e82 133c c637 793d 0cf9 913d
000003c0: 482e de39 4586 96bd 709d 55bc 4d39 9a3b
000003d0: 6c9d 813c b914 76bd 3043 d93c 6289 2b3d
000003e0: f83b 93bd 33d7 abbd 66a6 81bd f150 7dbd
000003f0: 68f9 df3c 4f3d f33c a277 18bb 24f0 0abd
-0.09407058 0.06312476 -0.026491832 -0.062709175 -0.01997826 0.018117838 0.05519096 -0.042433057
0.05246943 -0.0476728 -0.081301615 -0.04105454 -0.10679709 0.061743613 0.038143467 -0.07943932
0.104409374 -0.04158264 -0.023458345 -0.09063734 0.011422351 -0.065477155 -0.0018777102 0.055470217
0.05502832 0.016200861 0.047394414 -0.041564472 -0.030005615 -0.040770903 -0.034456585 0.045271505
0.06657735 0.04687545 0.040469028 0.0104250675 -0.0026244214 0.0071177296 0.036398787 -0.076029524
0.022567034 0.10143581 -0.040612645 0.10138806 0.051169805 -0.050134216 0.02492821 0.002535494
0.017048385 0.038970865 0.020715222 -0.06900645 0.028653787 -0.046282493 -0.07487028 0.0979849
-0.049973585 0.037240166 0.07386507 -0.0726708 0.002250541 -0.008966146 -0.070462845 0.06796375
0.015742369 0.09820193 0.034805987 -0.036001693 -0.09743483 0.056587305 0.009585668 0.04636613
0.0070467317 0.0084887 -0.06292949 0.10656051 0.013687509 0.010458477 -0.051651496 0.061229937
0.04922657 -0.024638552 -0.06360728 -0.052077103 -0.05674389 0.035296783 -0.051100936 -0.030734565
0.055890493 0.06303268 -0.09417228 0.046537742 0.069714025 0.039470177 -0.054193277 -0.043843582
-0.03631824 -0.05882792 0.044360187 -0.059017465 0.06949617 0.02040397 -0.06420102 -0.044754643
-0.077558875 0.10503828 0.05529601 -0.013705123 -0.06279944 -0.0067590894 0.08046691 0.099079385
0.08748943 -0.025912028 0.06985366 -0.028486272 0.08198728 -0.038976677 -0.022457253 -0.09838473
0.02276635 -0.0294452 0.028764635 0.045701526 -0.04390346 0.0069943657 -0.017490132 0.04601003
0.056028843 0.05230376 -0.040344898 -0.071351476 0.028285211 -0.0031945223 0.092461474 -0.09218295
0.034024626 -0.036993187 0.04241774 0.0038363524 -0.05817029 0.048038237 0.025089588 0.0012826985
-0.039835624 0.051541388 -0.08151654 0.04088213 0.031047147 0.019844301 -0.09529883 -0.050113317
-0.0048246533 0.048509292 -0.038945753 0.07011707 0.015443477 -0.09231656 0.048841 -0.064254254
-0.010058669 0.043682583 -0.0744188 -0.03554532 -0.043218955 -0.04629375 -0.07674497 -0.040128402
-0.03855166 -0.010585459 -0.036785528 0.0052779987 -0.023777714 -0.042052682 0.08932547 -0.022754787
0.00705738 0.04002311 -0.094837815 -0.04994045 -0.06290589 -0.028693862 -0.092960104 0.10174037
-0.073918454 0.094736286 0.0039372956 -0.018307716 -0.011141333 0.031094942 0.017959261 -0.068754405
0.051158074 0.0020261342 -0.031360652 0.089873455 0.055824507 0.030743975 0.017812874 0.015763426
-0.056671347 0.04984239 0.07610126 -0.07561242 -0.039313957 0.026673777 -0.028376555 0.029621357
-0.017216837 -0.0756043 0.06929253 -0.086491115 0.030479006 0.033203114 0.07754141 0.0027206484
-0.08259648 -0.08100573 -0.025103072 -0.06847563 -0.078884006 0.0471835 -0.00014426094 0.032393686
-0.06408829 -0.056780305 -0.009667107 0.025693182 -0.06978978 0.030422641 -0.075225025 -0.081149824
-0.031758003 -0.039076567 -0.029793676 -0.07072899 -0.041353405 0.00900319 0.060844205 0.0712758
0.00042377622 -0.07349829 -0.013038024 0.004706538 0.015822135 -0.060078356 0.026521295 0.041879065
-0.071891725 -0.08390655 -0.06330566 -0.06184477 0.027340606 0.02969232 -0.0023264666 -0.033920422

bias_ih_l0 f4 [512]
00000000: 2487 cfbc b184 223d 5dc4 ce3c 4308 49bd
00000010: c05c 24bc f1ec 8e3d bc2e 843d a27e 7abc
00000020: ec7b 4abd 09d3 babd d0a7 e63a 09ea bd3d
00000030: 78ca 243d d278 01bd d665 253b 16e8 b03c
00000040: 180b 613d 0dd2 083d 7d82 1c3d 1d58 43bd
00000050: 5efc 903d 46d1 6cbd 4ad2 4fbd 8ae2 45bd
00000060: c290 7dbd fcca 8ebd 5419 ecbb 905a 88bd
00000070: 84c3 f43c 36b8 32bd cba2 073d 2243 89bd
00000080: 1740 fa3c 6473 5b3d cd2d ad3d fca0 623c
00000090: 5b07 9fbd 82c1 cabd c77c 3f3d c9be b8bd
000000a0: 7970 9bbd aaad 60bd c40e 06bd aba5 06bd
000000b0: 50db be3c f025 92bc 498e cebd 07ca 173c
000000c0: d79e cb3d fc79 d9bb f3e7 babc 74ad 95bd
000000d0: c264 bebd c4c2 5dbd 64a3 85bd a89a b7bd
000000e0: 3b2c 42bc 791c ab3d 786e cbbc f0c5 3dbd
000000f0: ffd9 893c 4fa8 283d 242b 8d3a eaac 163c
00000100: db5d 8f3d c4dd 733c 6d9b 8bbd a6b2 c0bd
00000110: a7e6 efbb ea4d 6e3d a6b8 983d cb9e a83c
00000120: 506f 3ebd 1cf8 a6bd c462 2b3d 26ef b43d
00000130: 5d40 34bc fef8 ac3d a0d7 633d cad9 583b
00000140: e4be 8b3d 7209 82bd 92d9 ca3c 58eb f1ba
00000150: 80d8 8bbd 08fa 9c3d 22cc 7c3c 4ffa e73b
00000160: e716 8fbd caf7 073d 4dfe 8cbd 5ff0 aabc
00000170: 38c3 9f3d e6b6 94bd deeb 42bd 8842 2a3d
00000180: d0be 0d3d 2c29 eebb b4e4 803d 85bc ad3c
00000190: 51f3 7f3d b65e 613d 0276 10bd b5a3 4c3d
000001a0: ad42 9fbc 43f9 753d 08f1 583b 7768 98bd
000001b0: da42 313b d27d ba3d 54fe e73c 1ca6 253d
000001c0: 4311 933d c643 163d b326 2dbd 549a cb3d
000001d0: c7de 0e3c b57d c0bd 2011 b1bc c602 24bc
000001e0: 63eb b43d 54ca 29bd e8ba dc3a ad29 393c
000001f0: f83b acbd 6b0e e63b 2212 4fbc 7095 ddbb
00000200: 0a6e d73d 500a 53bd 234e 4d3d 9b16 b03d
00000210: d972 3e3c 03bd cdbc 1bf1 ae3c 6e4c 1fbd
00000220: 78da 6dbd a343 83bd 1242 47bd d8ba 1fbd
00000230: c600 b13d 20fb 453d 7a98 893c 3e7f 513d
00000240: a400 d33c 54a3 3d3d 9943 83bd aed6 173c
00000250: abb7 6b3d ad92 753d b320 4cbd 2624 073d
00000260: 0965 68bd e7d6 a23c be80 863d 43fd d2bd
00000270: fac2 11bd dc3b 1bbd 5a56 03bd 8266 f0bb
00000280: 06db 95bd 968c 403d a2ae 503d d88b d63b
00000290: f289 b6bd 932f d93b 2446 49bd 714b a1bb
000002a0: 20d1 54bb 050f 95bd 212c ffbb b2e6 153d
000002b0: c950 243d 651b 82bd 4164 133d 90e4 223c
000002c0: c2cd 383d 5619 22bd 570a 853d 8ec4 dabd
000002d0: a02f 1c3d d248 9b3d f52a 2f3d 00f0 c8bd
000002e0: 4c6e 44bd 2b51 573d ee5d 953c d28c ba3d
000002f0: 1c38 34bd 2b82 b3bd cab9 a6bd c918 c4bd
00000300: 10fa 94bc f58e fc3c 5ca0 963d 88ad 4fbd
00000310: d67d 863d 224c 8b3c 2e1a 3e3d 3c3c d4ba
00000320: 8a27 d6bd 242b b23c abd0 963d a537 3cbc
00000330: 90dd 6f3d 989d d43c 5248 b23b 76a9 ccbc
00000340: afb8 bbbc 181a 72bc a081 e4bc 8007 913d
00000350: 5671 68bd 4885 47bd be35 ba3d ba80 6a3d
00000360: e14e 53bd 815a 99bc 12d3 593d 533c 87bc
00000370: 9abb a33d 8eb6 ddbc 7562 fbbc 3457 3ebd
00000380: f869 97bd e9b4 9bbc 7187 853c 24d2 cdbc
00000390: 7e98 5e3d ae98 25bb 24ac aabd 3830 373d
000003a0: a844 41bd 2c0e 74bc 3071 a6bb 4826 883d
000003b0: e221 2fbd 2421 8b3b b6b1 51bd 3204 1abd
000003c0: 0e52 813d 456b 93bd 6f22 4dbc 0c61 333c
000003d0: 987a 52bd cbb7 64bc 8ad0 a0bc 9dde 813c
000003e0: 5d80 cebc ea04 d3bb 4a92 993d 4dfa 22bd
000003f0: dc4a 773d 6074 12bd 54c7 8f3b 8293 b2bd
-0.025332995 0.039677326 0.025240118 -0.049080145 -0.010031879 0.06978787 0.064542264 -0.015288981
-0.049434587 -0.09122283 0.001759762 0.09273154 0.04023215 -0.031609364 0.00252377 0.021595042
0.05494222 0.033403445 0.03821038 -0.047691453 0.07079385 -0.057816766 -0.050737657 -0.048311748
-0.06190563 -0.0697231 -0.007205168 -0.066578984 0.029878385 -0.04363271 0.033114236 -0.06702258
0.030548139 0.053576842 0.084560014 0.013832327 -0.07765075 -0.0990019 0.046749856 -0.090207644
-0.07589812 -0.05485312 -0.032728925 -0.032872837 0.023297936 -0.017840356 -0.100857325 0.009264476
0.09942406 -0.006636856 -0.02281568 -0.07308474 -0.09296562 -0.05414082 -0.06525305 -0.08965045
-0.011851366 0.0835504 -0.024832949 -0.046331346 0.016827581 0.041176137 0.0010770303 0.009196499
0.070003234 0.014884416 -0.068167545 -0.094090745 -0.007321197 0.058179773 0.07457094 0.02058353
-0.046492875 -0.08152792 0.041842237 0.088346764 -0.0110016735 0.08445929 0.055625558 0.0033088797
0.06823519 -0.06349458 0.024761949 -0.0018456979 -0.068284035 0.07664877 0.015429528 0.0070793997
-0.0698679 0.033195294 -0.068844415 -0.020866571 0.07800907 -0.072614476 -0.04758822 0.041567355
0.0346058 -0.0072680917 0.06293622 0.021208057 0.062487904 0.055021964 -0.03526879 0.04996081
-0.019440973 0.060052168 0.003310265 -0.074418 0.0027047903 0.091060296 0.028319515 0.040441617
0.07181027 0.036685728 -0.042273235 0.09941545 0.008720106 -0.09398977 -0.021614611 -0.010010427
0.08833959 -0.04145272 0.001684037 0.01130144 -0.08409876 0.0070207617 -0.012638601 -0.006762199
0.10519035 -0.051523507 0.050123345 0.08598062 0.0116240615 -0.025114542 0.021355202 -0.03889125
-0.058069676 -0.06409385 -0.048646994 -0.038996547 0.08642726 0.048335195 0.01679634 0.05114674
0.025757141 0.04629834 -0.064093776 0.009267492 0.057548206 0.059954334 -0.049835872 0.03299346
-0.05673698 0.019877864 0.065675244 -0.10302212 -0.035586335 -0.037898883 -0.032064773 -0.0073364386
-0.07317166 0.047009073 0.050947793 0.0065474324 -0.0891303 0.0066279857 -0.049139157 -0.0049223234
-0.003247328 -0.072782554 -0.007787243 0.03659696 0.040116105 -0.06352881 0.03598428 0.009942189
0.0451181 -0.039574943 0.06496113 -0.10682021 0.038131356 0.07582249 0.042765576 -0.09811401
-0.04795675 0.052567642 0.018233266 0.091088906 -0.043998823 -0.08765062 -0.08140905 -0.0957504
-0.018185645 0.030829886 0.07354805 -0.0507026 0.0656697 0.017004076 0.046411686 -0.0016192268
-0.1045676 0.021749087 0.07364019 -0.011487876 0.058560908 0.025954053 0.00544075 -0.024983149
-0.022915212 -0.014776729 -0.027893841 0.07081509 -0.05674871 -0.04871109 0.09092282 0.05725167
-0.051588897 -0.018719913 0.053179808 -0.016508257 0.079947665 -0.027064588 -0.030686596 -0.046469882
-0.07393259 -0.019007163 0.016299935 -0.025124617 0.054344647 -0.0025268006 -0.083336145 0.04472372
-0.047184616 -0.014895957 -0.005079411 0.066479266 -0.042756923 0.004245894 -0.05119487 -0.037601657
0.06314479 -0.071981944 -0.012520417 0.010948431 -0.051386446 -0.013959835 -0.01963069 0.01585322
-0.025207693 -0.006439795 0.074986055 -0.039789487 0.060374126 -0.035755515 0.0043877754 -0.08719541

bias_hh_l0 f4 [512]
00000000: 7d26 183c c42c a63d 1eda 83bc 5aaa e0bb
00000010: 60d4 48bb 6464 e3ba d060 483d 098f 93bc
00000020: 4603 f5bb 610b 88bd 1294 4b3c 255a 4f3c
00000030: 307f 03bd 6f98 c6bc 75d6 a03d 31a3 a5bd
00000040: 5f63 00bd 4174 0a3d eedb 8d3d 0988 4fbd
00000050: 45ea 1dbd 8391 91bc c9af 1e3d 767f 46bd
00000060: 864e 403d bc2a b1bc aee8 0a3c fc88 733d
00000070: 1784 b13d ed44 b6bd 79e0 0bbd 2956 51bd
00000080: bfbc 223d 9651 ab3d 55ee 2cbc c439 863d
00000090: ecf8 03bd d2d2 94bd 08a7 20bd a6df 88bd
000000a0: e17c 763d 38e7 1c3c f5de c3bb f6cd 50bd
000000b0: 28b1 2d3b 04a2 b53d 60c0 f03c f055 b33c
000000c0: b7a5 79bd 7644 6fbc 7c03 9c3d a0eb 4b3d
000000d0: f3d6 8cbc db3b 853c 12f7 fe3c dd0d b3bd
000000e0: 22cb 863d 5365 5bbd 4a32 83bd c7ca 053d
000000f0: f391 35bc 1685 51bd 268d afbd 008e 513d
00000100: 914a 78bd 63b3 fe3c 8218 c03c a671 a2bc
00000110: 5d70 883d 8e79 833c 8177 0cbd 0d14 d3bd
00000120: 1243 3dbd 5ecf 643c 5057 b33c ce46 b8bb
00000130: 0ba6 083d 1811 273b 49a2 fb3c 5e48 a0bc
00000140: 471e 0d3d 8dc1 2dbd 2e42 27bc 61ee d53d
00000150: 08b9 c1bd 21b9 71bd af47 823d 381f 863c
00000160: ad55 50bd 26c6 3f3d 92ef a7bd eefa 9fbd
00000170: 56a1 81bc 1078 cd3c be4c 6a3d 74bc 9d3c
00000180: 642c 243d a2ea 2c3d 163f 59bd a430 703c
00000190: 1105 dfbb 0cd1 c53c ee14 fb3b bf9d 9bbd
000001a0: f9c6 933d 7049 5c3d 8730 bdbc f824 1fbc
000001b0: fedf 48bd d068 b03d 64fa 283d f863 9ebc
000001c0: b05f 66bd d0b5 ad3d 5c32 933c c8aa c03d
000001d0: d9fe cc3d 7b38 743d b46a 403d 77e3 9a3d
000001e0: 9350 bb3d b85c 6bbc 8736 41bd 02ce 54bd
000001f0: e072 beb9 4be3 d03b 95a1 d9bc 76ad 09bd
00000200: 67b4 553d 1cc3 32bd bd20 b93d aeaf 15bd
00000210: fbce d13c 6aec 823d 9aaa 573d 167a b1bd
00000220: fcb4 07bd 1cfc 47bc bad3 1d3b d247 97bd
00000230: 3812 a2bc b899 4fbc 9818 dcbc b5fe bebd
00000240: 7130 83bd 6756 cfbd 32bb 39bd 18d1 743d
00000250: 9fe4 35bd b272 b9bd 8048 aabb f3da 90bd
00000260: ba9b c9bd f098 bebb fffa 2fbd 9a67 293d
00000270: ab3e 1dbd bc55 2b3c c822 dfbc 1f80 b23d
00000280: 405d cebd 3e51 383c 25c6 97bd f70c 293d
00000290: 5695 f5bb f178 d13c 5a9e 31bd 81d0 82bb
000002a0: 5f65 95bc 2d08 a1bd f8e8 0fbd 97fd 89bd
000002b0: c4a4 eabb 1288 833d 0054 563d 9d98 963d
000002c0: 57ec bf3c d1b0 65bd eece 103c cc94 0e3d
000002d0: 3046 7e3d d333 91bd e16f b63d 51c7 043d
000002e0: 51cb 113c 2300 7dbd 42eb 3f3d d558 c63c
000002f0: 1efc 9abc 6371 cfbd 6d06 96bd 3703 953c
00000300: d061 60bd c4f4 5bbc 6cc2 6d3c 08cf 2fbd
00000310: efd9 37bd d228 483d 0ee8 4d3d 5caf 713b
00000320: 8cc0 803d fa28 3c3d dff5 8e3d 631e 3b3c
00000330: bc3c 85bd 0f43 423c 5b8a 953d 1812 d0bd
00000340: 85af 8cbd 4204 683d 451a 86bc 1495 9e3d
00000350: d88b 483d c126 7e3d 933e 90bd 6564 64bd
00000360: 9137 073d b93f 90bd 60d3 95bc a8de f3bc
00000370: 5ab9 453d cb64 573d 9e3d 853d 7c88 533d
00000380: 2ceb c63c 35a7 403d 80ae 98bd 7439 de3c
00000390: e9ed 963c a614 4b3d 27ef 1dbd c074 523d
000003a0: 05f3 523d c6d3 8ebd a35c e6bc 5831 4b3d
000003b0: 1c79 a6bd d85c 64bd 1a0c 293d 4aba 2dbc
000003c0: e10d c63c b985 92bd 03f0 8fbd 70a9 f2b9
000003d0: 3f4b cc3d 0c3d 663d 00d0 8ebd b21b 5ebd
000003e0: 367d 9cbd 5076 a4bd b646 3f3d 9c66 1ebc
000003f0: 6206 21bd 58c0 98bc 9ef5 a93b a724 9a3d
0.00928652 0.08114007 -0.016095217 -0.006856245 -0.0030644163 -0.0017348644 0.048920453 -0.01801254
-0.007477197 -0.06642795 0.012425439 0.0126557695 -0.032103717 -0.024242608 0.078534044 -0.08087767
-0.031344768 0.033802275 0.06926714 -0.050666843 -0.038553495 -0.01776958 0.03874186 -0.0484614
0.046949886 -0.021626823 0.008478327 0.05945681 0.08667772 -0.08899865 -0.03414962 -0.05110756
0.039730784 0.08365171 -0.01055487 0.06553987 -0.032219812 -0.07266773 -0.039221793 -0.066832826
0.060177688 0.009576611 -0.0059775063 -0.05097767 0.0026503298 0.08868793 0.029388607 0.021891564
-0.060949054 -0.014603725 0.07617852 0.049785256 -0.01719234 0.016263893 0.031123672 -0.087428786
0.06581713 -0.053563427 -0.06406076 0.032664087 -0.01108216 -0.05115231 -0.08571844 0.051160812
-0.060617987 0.031091398 0.023449186 -0.019829582 0.066620566 0.016049173 -0.034293655 -0.10306559
-0.04620654 0.013965456 0.02189222 -0.005623675 0.033361476 0.0025492366 0.030717032 -0.019565757
0.034452703 -0.042420913 -0.01020865 0.10445858 -0.0945912 -0.059014443 0.06361329 0.016372308
-0.050862957 0.04681983 -0.08199991 -0.07811533 -0.015824001 0.025081664 0.057202093 0.0192549
0.040081397 0.04221595 -0.05303868 0.014660034 -0.006806024 0.024147533 0.007662407 -0.07598447
0.072156854 0.053780973 -0.023094429 -0.009713404 -0.04904174 0.086137414 0.041254416 -0.019334778
-0.0562436 0.084819436 0.01796835 0.09407574 0.10009546 0.059624176 0.04697676 0.07562917
0.09146228 -0.014365368 -0.047171142 -0.051954277 -0.00036325213 0.0063747517 -0.026566306 -0.03361269
0.052174 -0.043643102 0.090394475 -0.036544494 0.025611391 0.06392749 0.052652933 -0.08665864
-0.033131585 -0.012206104 0.0024082498 -0.073867455 -0.019784078 -0.012670927 -0.026867196 -0.09325925
-0.06405724 -0.10123902 -0.04534454 0.05976972 -0.044407483 -0.090550795 -0.005196631 -0.07073011
-0.098441556 -0.0058165714 -0.042963978 0.041358568 -0.038389843 0.010457452 -0.027238265 0.087158434
-0.1007638 0.011249838 -0.0741084 0.04127213 -0.007494609 0.025570365 -0.043363906 -0.0039921408
-0.018236814 -0.078628875 -0.035134286 -0.067378215 -0.007160755 0.06422438 0.052326202 0.073533274
0.023428125 -0.05607683 0.008838398 0.034809873 0.062078655 -0.07089963 0.08908058 0.032416645
0.008898572 -0.06176771 0.04685522 0.02421228 -0.018919047 -0.10129049 -0.07325444 0.01819001
-0.05478078 -0.013425056 0.014511686 -0.04292205 -0.044885572 0.048867054 0.050270133 0.0036878204
0.062867254 0.045937516 0.0698049 0.011420819 -0.06505725 0.011856808 0.0730178 -0.10159701
-0.06869415 0.056644686 -0.016369948 0.07743278 0.04896149 0.062048677 -0.07043185 -0.055759806
0.033011977 -0.07043404 -0.018289268 -0.029769257 0.04827247 0.052586358 0.06505893 0.051643834
0.02428206 0.04703446 -0.07455158 0.027127005 0.018423991 0.04958024 -0.03855815 0.051380873
0.051501293 -0.06973986 -0.028120345 0.049607605 -0.081285685 -0.055752605 0.041271307 -0.010603497
0.02417654 -0.07154412 -0.070282005 -0.00046284078 0.099752896 0.056210563 -0.069732666 -0.05422563
-0.076410696 -0.08030379 0.046698295 -0.009668019 -0.039312728 -0.018646404 0.0051867506 0.07526522

weight_ih_l0 f4 [256, 128]
00000000: e85e d63c ec5c 40bd d279 cabc 55f5 87bd
00000010: 107a 37bc 7e5e c53d 5a28 72bd 11db dbbd
00000020: cb0d adbd a69b ddbd e599 d9bd e483 343d
00000030: 59cd c6bd 964b a6bd e97f e53d 4cb0 febd
00000040: d3fc 3bbd 5df7 843d 41ac 84bc e87b b2bd
00000050: 11fe 353d dcb0 8e3c ae51 b13d 5364 aebd
00000060: c136 16bc 81b5 1e3d 8387 c23d a658 073e
00000070: 8797 d13d 94f2 94bb 6c88 cebd b7ab 04be
00000080: 1ebb a3bb 0320 9f3d 8dce e9bc de5c 9b3c
00000090: 9ff2 27bd c6a6 b0bd d768 07be fb76 cb3d
000000a0: 2199 113d db2b b43b 31b8 efbc 8a04 ce3d
000000b0: 3c8a 68bd 40de 023d 9d4e 913d fc6a 073c
000000c0: 9d40 a7bd 7012 093e 6582 e13d 4a2b dc3d
000000d0: aa92 96bd a1ed 10be 444e f5bd 0251 b73d
000000e0: 967c bc3d dd44 b8bd d4f5 05be 4fe6 a03d
000000f0: a6f9 a63b 31be cdbd f55b c73d 8524 103e
00000100: 9409 063c 49aa bdbd 1ab2 3f3d 70ef c7bc
00000110: 1cf3 743d 2b53 abbd 4c6b 8e3d c2ca c0bd
00000120: e9a8 9c3d 53af be3d 7a76 c93d 661e 0b3c
00000130: 1fda 8f3b 4d22 a13d acf9 29bd 509f 963d
00000140: 706c 2e3c 3b85 ae3d 8471 f13d 5fe3 a33d
00000150: e8b6 c6bd cebc 1dbd e85b 8fbd 8d94 933d
00000160: e508 ab3d ca55 453d cceb 1a3d 1def a7bd
00000170: 44a4 f83d d363 b1bc da4e b63d 4d39 35bd
00000180: d465 d73d 1ddb b3bd a960 893c fe26 d33c
00000190: 6190 b53d 56bf 083d 2b04 cb3d e4f3 77bd
000001a0: 8dab f13c 5cb4 c33c a085 9f3d f2a2 5b3b
000001b0: 1a1e 0cbd b665 c3bd b596 dbbd f13a 523d
000001c0: e2cd dabd 3cb8 503c dfe8 d43d 4be6 bb3d
000001d0: 102b 73bd 659b e8bd 61cc 0c3e be10 c93b
000001e0: fd1d cbbd fb9d a33d 0c91 2cbb 5d0b 9fbb
000001f0: 92cf d63d ae0e 603d 5e36 d5bc c467 ffbd
00000200: b84f c3bd b608 c5bd 6388 d2bd 6d71 bc3d
00000210: ed76 a8bd e1aa 983d 6e4c 9a3d 264d fabd
00000220: 7d1a c1bd 26c1 2cbd f616 65bc 5016 35bd
00000230: a2ec 25bd 0e2c a73c 8914 6ebc 9442 243d
00000240: 7381 a4bd b6dc c0bd 3398 efbd 3036 983d
00000250: 814d a4bd 7495 d43d e15a c3bd 3172 a2bd
00000260: 3f56 173c 7e6c fc3c f5c5 55bc a2a2 6abd
00000270: 6da6 5ebc 4988 a1bd 138c c8bd 7d4d 46bd
00000280: e3f6 053e 5e9a 98bd 6268 8e3d 63ce 58bc
00000290: 3b69 cdbc 869d 64bd e9bb d03d b85d cbbd
000002a0: 40da 1f39 3fe3 c23d 79d8 123e 45c6 b1bd
000002b0: 3110 803d cf01 a5bd fa4c 003e 7436 183d
000002c0: 9dbe 83bd 3e5a bf3d cc73 d8bd 1b1b f33c
000002d0: 693f c83d c4f7 cc3d 39c9 88bd 32a3 0fbd
000002e0: a3f3 c1bd 839f c3bd 5f34 ffbd 9809 e8bb
000002f0: 80c0 58b8 03e8 713d 8c53 52bb 4c60 8abd
00000300: 2030 573d e86d 97bc a79d b3bd ddb6 593b
00000310: d802 f6bb 6afd 70bc 801e ee3d 6538 56bd
00000320: 71fa 21bd b3b8 c2bd c112 f2bd 8037 f2b9
00000330: 34ae 09be cc40 223d 4625 bdbd d02f 44ba
00000340: bd18 c63d a7b1 8abd d7ed 0a3e 4735 843d
00000350: 7ba6 a2bd 04c9 193d 32cd 0abe 0aff 88bd
00000360: 4744 bc3d e482 123d b3ef 30bd a374 2ebd
00000370: a6c9 7bbc 7c6a 99bd 260a 02be ed9a cc3c
00000380: 7898 ddbd 49ae 06bd 8cc2 89bc 638e 2bbd
00000390: 2315 24bc cf55 a23d 107b f7bd 214f 2c3d
000003a0: a436 213d e147 643c 00a2 06bd 34a4 f43c
000003b0: 589d c6bc 5351 19bd 0c35 bdbb 43b4 fb3d
000003c0: 5044 de3d f368 303d 9877 43bd 6c98 9d3d
000003d0: c5ce 263d d5e0 8f3d f475 073e 4030 dc3c
000003e0: eee0 5ebd 1151 c83d 0a42 02be af95 b7bd
000003f0: 10b7 9dbd 81de c3bd 2633 763d 783e 9d3b
0.026168302 -0.046963617 -0.024716292 -0.0663859 -0.011198536 0.096371636 -0.059120513 -0.10735143
-0.084498964 -0.10820703 -0.10625056 0.044071093 -0.09707136 -0.081198856 0.112060376 -0.1243597
-0.04589541 0.06492493 -0.016195418 -0.087150395 0.04443175 0.017418317 0.08658157 -0.08515229
-0.009168328 0.038747314 0.09498503 0.1321741 0.1023398 -0.004545519 -0.10084614 -0.12956129
-0.0049966713 0.077697776 -0.028540874 0.018965181 -0.041002866 -0.086255595 -0.13223587 0.09934803
0.035546426 0.005498392 -0.029262634 0.100594595 -0.056772456 0.031950235 0.070950724 0.008265253
-0.08166621 0.1338594 0.11011199 0.10750444 -0.07352193 -0.14153148 -0.119778186 0.08950998
0.092034504 -0.0899751 -0.13082057 0.07856428 0.0050956784 -0.10046042 0.09734336 0.14076431
0.008180995 -0.09260995 0.04680071 -0.024406165 0.05980216 -0.083654724 0.06954059 -0.09413673
0.076494046 0.09310784 0.09837051 0.008491134 0.0043900157 0.078678705 -0.04149787 0.07354605
0.010645971 0.085215054 0.117892295 0.08002352 -0.09702855 -0.038510136 -0.069999516 0.07206068
0.08351306 0.048177518 0.03782253 -0.08199904 0.12140706 -0.021654045 0.089017585 -0.0442441
0.10517469 -0.08782027 0.016769724 0.025775429 0.08865429 0.033385597 0.09912904 -0.060535327
0.029500747 0.023889713 0.07789159 0.003351387 -0.034208395 -0.09540884 -0.107221045 0.051325742
-0.106838 0.012739237 0.10395979 0.09174784 -0.05936724 -0.11357764 0.1374984 0.006136029
-0.09917829 0.07989117 -0.0026331572 -0.0048536495 0.1048881 0.0547015 -0.0260269 -0.124709636
-0.095366895 -0.09620802 -0.1027992 0.09201322 -0.08225808 0.074544676 0.07534109 -0.12221746
-0.0942888 -0.04217639 -0.013982525 -0.044210732 -0.040508874 0.02040675 -0.014531263 0.040102556
-0.08032503 -0.09417097 -0.116989516 0.074322104 -0.08022595 0.103800684 -0.09538818 -0.079319365
0.009236871 0.030813452 -0.013047685 -0.057284005 -0.013589484 -0.078873225 -0.09792342 -0.048413742
0.13082461 -0.07451318 0.06953503 -0.0132328 -0.025074592 -0.05581429 0.10192091 -0.09929985
0.00015244726 0.09516 0.1434039 -0.08680395 0.06253088 -0.080569856 0.12529364 0.037161306
-0.06432841 0.09343384 -0.105689615 0.02967601 0.097777195 0.10008195 -0.06679005 -0.035067745
-0.09470298 -0.09551909 -0.12461161 -0.007081222 -5.1677693e-05 0.059059154 -0.0032093255 -0.067566484
0.05253613 -0.018485025 -0.08770304 0.0033220567 -0.007507663 -0.014708856 0.11626911 -0.052299876
-0.03954548 -0.09507885 -0.11819983 -0.00046199188 -0.1344536 0.039612576 -0.09235625 -0.0007483931
0.09672687 -0.06772166 0.13567291 0.06455474 -0.0794191 0.03754522 -0.13554838 -0.0668927
0.0919271 0.03576936 -0.043197345 -0.042591702 -0.015367901 -0.074910134 -0.12699184 0.024976218
-0.10820097 -0.032881055 -0.0168164 -0.041883837 -0.010014805 0.07926523 -0.12084019 0.04206765
0.03935875 0.013933153 -0.03286934 0.029863454 -0.02424495 -0.037431072 -0.005774146 0.122902416
0.10852873 0.043068837 -0.047721475 0.07695088 0.040724535 0.07025305 0.1322859 0.026878476
-0.05441373 0.09781087 -0.12720504 -0.08964097 -0.07700932 -0.095639236 0.060107373 0.0047987066

weight_hh_l0 f4 [256, 64]
00000000: b48e 9bbd a286 953d c18b 93bc 02ed 0e3d
00000010: 6bdf 91bd f22d 653d 9c81 a3bd 1c39 033d
00000020: 75cd 90bd a74a 883d 9508 183d 3d7b 22bd
00000030: 7308 3cbd be1c 42bc a058 b3bd a91c b33d
00000040: 572e babd a109 e8bc e8ea c6ba 54f7 74bc
00000050: b4fb 273c f324 6fbd b491 84bd d9d3 d23d
00000060: 2e73 c63d 60e8 41ba 8900 c93c 2635 81bd
00000070: e0d6 89bc 06b0 cdbd 76a2 48bd ba5c 53bd
00000080: 86da bebd e300 073e 4606 85bd 1885 cfbd
00000090: 1c63 5d3d 6c5a 8ebd dfc5 2d3c e23d 90bd
000000a0: 1201 d3bc aee6 5d3b 45e2 e33d f095 683d
000000b0: fe3c 173a 21a6 89bd 0abc 3fbd d606 f53d
000000c0: e21d e8bc e18e b23c dba6 8fbd 8ba4 183d
000000d0: 3cec bcbc cd06 6fbd cd83 b53d 3f0e c23d
000000e0: 63b9 7dbd f24b 8fbd 1d1a f63d 952d a93c
000000f0: 50cb f63d dd1d c63d 88ed b6bd 3dbe 3abd
00000100: 4fb2 a0bd 0638 6d3d 34cc 353b f60d 08be
00000110: 164f c73d 74c0 3ebd 2dc6 d1bd ca40 7cbd
00000120: 643b 0cbe 0654 d23d d11c 64bd 15f9 aebc
00000130: 3c23 debc 8ac7 7fbd 3d62 a5bc 4870 bfbd
00000140: 748c 633d 30d1 b4bd 40df 5fbb c14c 8dbd
00000150: 9a3c d9bd 598a 963d 84d3 143b 5fd3 ffbd
00000160: bf58 83bd e64c a73d a8ae 483d b6d8 d3bd
00000170: 12d9 b63c 6515 d4bd ce8a fabd 1a08 67bd
00000180: 9aa5 fabc 16c6 b4bd 9de5 bbbd c873 74bb
00000190: 1986 65bd 4b4c 4e3d 346d 94bc 8ab9 acbd
000001a0: 679d 86bd 94ab 133d 8f20 313d 66d1 c8bc
000001b0: 3225 f53b eeaf 94bd a900 013d 8c13 1f3b
000001c0: b16c 19bd 9135 22bd 0194 c93d 9fee 95bd
000001d0: 0113 003e f591 abbd c5dd c2bd 1507 dc3c
000001e0: a268 2b3d 0b01 c13d 9e4b 43bd ca50 fe3d
000001f0: 0bfe cd3d cd15 18bd 5a25 73bc 29d2 cebd
00000200: ede4 9bbd 7a1f 4cbc 1829 883d 4dbd 553d
00000210: ded6 09bd 7f10 fabd e9db 593d a744 903c
00000220: f4d4 c0bd 4226 9a3c 2cdf c9bc c555 0fbd
00000230: d8c3 033e 6887 86bd 485b ffbb d49d 83bd
00000240: 8ac5 a63c 7d19 74bc 8ed0 03be a089 863d
00000250: 535a d93d 0613 813c f8ea be3b 5412 b43c
00000260: 74d6 313d ba70 8d3d ab45 f63d 650b 10bc
00000270: d705 5dbd 7ec1 d0bc cdae 153c e0ed bfbd
00000280: 849d 0bbb 7687 073d d95d 91bd aae2 413d
00000290: 40a4 d43d fd8e 503d a90f 77bd 133d d73c
000002a0: 7538 4d3c 9772 063e 36ff c7bd b7cc 113d
000002b0: 6619 b2bd b64f b53c 3060 38bc 26f3 aebd
000002c0: 9469 50bd a8b8 cfba 311c 0bbe 7b23 1f3d
000002d0: d6e9 0b3d ca00 de3d 02a3 e3bd d621 e8bd
000002e0: a887 44bd 74f3 b43c 3869 07bc 2a9a e03d
000002f0: a5e9 913d 9a1a 043e 30ba 0d3d ca9c ddbd
00000300: 8c03 12be d438 16bd 917e 2bbd d731 8abd
00000310: 80a6 1eb9 84a0 b33d 2dc3 eabd 59d8 113c
00000320: c7c0 333d 1a31 de3d b409 cf3d 34d0 82bd
00000330: 8a06 05be ecf3 9d3d 20fd a3bd 94c6 0c3d
00000340: 85ee 083e 66b3 013d 30c8 a6bd c619 a43d
00000350: a387 56bc 3022 c13c 04dd 2d3d ca5c b53d
00000360: 44ea 4c3d 1a59 be3d 3ddd cb3d f4a2 bb3d
00000370: d518 043e 3d39 4d3c 6699 d3bc e5dc 5bbd
00000380: 94a8 ffbd 7b95 6ebc 4743 a73d 57b4 97bd
00000390: 0c08 cf3d e104 a43d 6a02 873d d275 ee3b
000003a0: 8078 a93d 2888 71bd 6462 adbd 746f bb3c
000003b0: 09d1 123e 6488 08bd 74c3 473d c812 ae3d
000003c0: 7675 d63d 5a49 dbbb 98ba 723d b49a 633d
000003d0: 59cb 4c3d 6779 1abc fa22 a03d 2932 0fbd
000003e0: 22a5 4bbd b4b9 a73d b6bd 35bd f35d 1a3c
000003f0: 7a75 563d e99d 433c 3822 d7bd 1b60 9d3d
-0.07595578 0.0730107 -0.018010976 0.034893997 -0.07122692 0.05595202 -0.079837054 0.032036886
-0.07070438 0.06654864 0.03711756 -0.03966831 -0.045906495 -0.011847673 -0.08757138 0.08745701
-0.0909087 -0.028324904 -0.0015176209 -0.014951546 0.010252882 -0.058384847 -0.06473103 0.10294313
0.096899375 -0.00073969923 0.024536388 -0.063089654 -0.016826093 -0.100433394 -0.04898306 -0.051602103
-0.09319024 0.13183932 -0.06495337 -0.101328075 0.054049596 -0.0695084 0.010606258 -0.07043053
-0.025757346 0.003385942 0.11127142 0.056783617 0.00057692814 -0.0672114 -0.046810187 0.119641945
-0.028334562 0.021796646 -0.07014247 0.037266295 -0.023061864 -0.058356095 0.0886303 0.094753735
-0.061944377 -0.06996907 0.120166995 0.020651618 0.120504975 0.09673665 -0.08932024 -0.04559158
-0.0784651 0.057914756 0.0027740123 -0.13286576 0.09731881 -0.046570256 -0.10242877 -0.061585225
-0.1369453 0.102699324 -0.055691544 -0.021359006 -0.02711641 -0.062446155 -0.020188445 -0.09347588
0.05555387 -0.08828962 -0.0034160167 -0.06899405 -0.10607262 0.073506065 0.002270908 -0.12491488
-0.06413411 0.08168964 0.04899469 -0.10344069 0.022320304 -0.10355643 -0.12233506 -0.05640421
-0.030596543 -0.088268444 -0.09174655 -0.0037300456 -0.05603609 0.050365727 -0.018118478 -0.08433826
-0.06572991 0.0360523 0.04324394 -0.024513911 0.0074812407 -0.072601184 0.03149477 0.0024273125
-0.03745717 -0.039601866 0.09842683 -0.07320904 0.1250725 -0.083774485 -0.095149554 0.026858846
0.041847833 0.09424027 -0.047679536 0.12417753 0.100582205 -0.037130166 -0.014840448 -0.100986786
-0.076120235 -0.0124586765 0.06648463 0.052182484 -0.03365218 -0.12210178 0.05318824 0.017610861
-0.094156176 0.01881707 -0.02464255 -0.034993906 0.12867677 -0.065687954 -0.007792864 -0.06426588
0.020357866 -0.014898655 -0.12872526 0.06569219 0.10612931 0.015756141 0.0058263503 0.021981396
0.04341741 0.069062665 0.12025007 -0.008791779 -0.053960647 -0.02548289 0.009135914 -0.09371543
-0.0021303603 0.03308817 -0.07097978 0.047335304 0.10382891 0.050917614 -0.06031767 0.02627424
0.012525667 0.1312965 -0.097654745 0.035595622 -0.086962506 0.022132736 -0.011253402 -0.08542471
-0.050881937 -0.0015847879 -0.13584973 0.038852196 0.03415855 0.10839994 -0.11115076 -0.11334579
-0.047980934 0.022088744 -0.008264832 0.109669045 0.07124642 0.12900773 0.03460139 -0.10820921
-0.14259166 -0.03667529 -0.04186875 -0.067477874 -0.0001513008 0.0877085 -0.11463008 0.008901679
0.04388502 0.10849209 0.101092726 -0.06387368 -0.12990776 0.0771254 -0.08007264 0.034369066
0.13372238 0.03166523 -0.081436515 0.080127284 -0.013093862 0.023575872 0.042447105 0.08855589
0.0500281 0.092943385 0.09954307 0.0916194 0.12900098 0.012525854 -0.025829982 -0.05367746
-0.124833256 -0.014562006 0.08167129 -0.07407444 0.10108957 0.08008743 0.06592257 0.007277229
0.08274937 -0.05896774 -0.08466032 0.022880293 0.14337553 -0.033333197 0.048770383 0.08499676
0.10471623 -0.006692094 0.05925998 0.05556746 0.049998615 -0.009428359 0.07819171 -0.034959946
-0.04971803 0.08189717 -0.044370376 0.009421813 0.052358128 0.011939504 -0.105045736 0.07684346

bias_ih_l0 f4 [256]
00000000: 5749 c4bd ed06 3ebd 7454 a9bd e60c 843b
00000010: 0c2d 853d dc69 923c 34fe cebd 430f c73d
00000020: 1b0a dbbd 064c d2bd 22e3 bfbd 9ae9 5f3d
00000030: da8a 863d e58d febd 8228 8a3d b9aa ef3d
00000040: d00b 91bd 9ce8 febd 6ed3 13be 8fa5 58bd
00000050: e8ed 94bd e4f2 dabc 65a2 fbbc 70e7 8b3b
00000060: a74b d3bd f49e b53d 1809 06be e736 a6bd
00000070: 15b7 02be 4ec8 b0ba 8533 d0bd d55b 503d
00000080: 5908 18bd 93d2 2dbd cd6c ddbc 2835 3b3d
00000090: 274e 8dbc 941a 8bbd 836d 3e3c 82a7 5c3d
000000a0: de9f 99bd 84d6 b33d 3e74 013d 24b3 0e3b
000000b0: d4e2 993d 70c2 193d a775 c33d e10b ccbc
000000c0: a347 29bc 8684 b53d 2cc6 acbd a667 bf3d
000000d0: 70f2 85bd 1006 56bd c0cc 4c3d 0bb1 c8bd
000000e0: 29f2 823d 7cbe 6e3d 6379 d73d faf6 e13c
000000f0: bb9a 5c3d bdb3 8fbd 3e23 40bc a57f cc3d
00000100: 3cef 19bc c867 083e d8c3 91bc e161 a03d
00000110: dc81 9cbc 8291 ad3d 4090 9d3c b30a 99bd
00000120: a91c ad3d 24ed a7bd 66d3 163d 7fe0 c43c
00000130: 8408 cc3c 8f0e d03d f38d 793c ac24 cabd
00000140: dc27 a2bd 19af c6bd 2ac0 043d 5786 89bc
00000150: 6dac 263d 8b76 cebd 927d 9bbd 43b5 efbc
00000160: b3e2 a5bd b2f4 59bd 9a5a 033d 52ae 38bd
00000170: 4bb3 81bd dbf4 433d 88f2 68bd aad8 dabd
00000180: 0684 75bd 6714 40bc a26f 8f3c 0641 0cbe
00000190: edf8 8abc d959 ba3d c2a9 2fbd eae8 ce3d
000001a0: d091 59bd 5a00 0cbe 8ee6 5fbd e582 b5bd
000001b0: d6c4 dbbc 4cce 0a3d c2e9 e63d 11b3 4f3d
000001c0: 59b1 6a3d 6024 793d 3779 353d 7f0c 213d
000001d0: 4c49 93bb f5b2 d53d 8b66 78bd ebd8 98bd
000001e0: 5a02 623c 3549 b33d 8961 9b3c 8496 063c
000001f0: 87ae c13d f967 a8bd ccb9 423d cec1 423d
00000200: 8b97 333d fd65 94bd d972 b0bd 056f a8bd
00000210: aea3 1e3d 0f60 9ebd aa72 d53d 6cd4 bebd
00000220: 2263 9dbc 228c ae3d d617 b5bd 7c50 47bd
00000230: 1056 9c3a 5193 a4bd 7db1 663d 4e37 973d
00000240: 4892 bebd 963d 9d3d 62eb b4bd 267d 6b3d
00000250: d023 f0bd df39 133d eeef 40bd 1c6f 2fbd
00000260: 7132 89bd b145 bb3d 2fcc 9a3d e0f3 ba3c
00000270: d534 49bd 7025 9d3d a09e babd 6fd8 acbc
00000280: 3ada 003e 84f7 b33d f1e1 9cbd ee81 33bd
00000290: a554 3b3d 3c93 babc 92c7 a6bd 01d4 95bd
000002a0: 2d55 80bd a9e1 b23d afbf 933d e628 1c3c
000002b0: 7cef c6bc 7802 a33a a021 aabd fa5f abbc
000002c0: d889 9d3d f601 8d3d c34e 5cbc 3090 25ba
000002d0: b57d ba3d 0825 973d efad b1bd 1f5b 70bd
000002e0: dc39 92bd d9bd 8ebd ec6b 58bc a2cc b53d
000002f0: 76cb 663d 09d0 92bc 0a61 ccbd 9a22 403b
00000300: 68e8 83bd 2cc8 353b 6c17 2cbc e845 d6bd
00000310: 8996 b83d 35a0 d73c a62f a2bd 4948 8bbc
00000320: 9dab b53d 6dd8 87bd a845 913c d82b fdbd
00000330: ea6c 023d 9e7f e2bd 1621 993b fb13 9ebc
00000340: 510a ac3d d92d 08be 23c4 af3d a061 d0bd
00000350: ee9b eabc 7990 a3bc 28a8 373d a47a 6dbc
00000360: 523a a13d 6423 df3c 18a1 4abd de9f 083d
00000370: ca37 06be c376 703d 0900 f9bd b59b 9fbd
00000380: 721e 03bd 7979 8c3d d2f6 da3c a64b 05be
00000390: 35fe a03d c0b7 9cbd 88da 0fbe e511 77bd
000003a0: ecd6 533d 9d86 973c 8c9c bf3d a323 f4bd
000003b0: 2839 5a3c d646 993d 04bb ff3d 68b0 1d3d
000003c0: fa01 fd3d 6b64 ad3d f9b5 843c eef3 fb3c
000003d0: 4ead c73d b45a 09be 6fc2 c6bd d57c aabc
000003e0: 81f5 8a3d 4bf4 0d3d ad4b 87bc faba 5ebb
000003f0: 9abd 08be 9546 913d 5299 d83b 4a4f 483d
-0.09584301 -0.046393324 -0.08268061 0.004029858 0.06502733 0.017872743 -0.10107079 0.09719708
-0.10695287 -0.102684066 -0.09369494 0.05466614 0.065694526 -0.12429408 0.067460075 0.11702485
-0.07082331 -0.124467105 -0.14436123 -0.052892264 -0.072719395 -0.026727147 -0.030717084 0.004269533
-0.10317164 0.088682085 -0.13089406 -0.081159405 -0.12765153 -0.001348743 -0.101660766 0.050868828
-0.037117336 -0.042437147 -0.02702942 0.04570499 -0.01724918 -0.06792179 0.011622789 0.053870685
-0.07501195 0.0878115 0.031604998 0.0021774257 0.07513967 0.037538946 0.09543925 -0.024908008
-0.010332021 0.088631675 -0.08436236 0.09345941 -0.06540382 -0.052251875 0.049999952 -0.09799393
0.06393845 0.05828713 0.105211996 0.027583588 0.0538585 -0.07016704 -0.011727152 0.09985284
-0.009395417 0.1332084 -0.01779358 0.07831169 -0.01910489 0.08475019 0.019233823 -0.07472744
0.08452732 -0.08199528 0.0368227 0.02403283 0.024906404 0.10159027 0.015231597 -0.09870276
-0.07917759 -0.09701366 0.032409824 -0.016787691 0.04069178 -0.10081204 -0.0759231 -0.029261237
-0.0809988 -0.053211875 0.032068826 -0.04508812 -0.063330255 0.047840934 -0.05687192 -0.10685857
-0.05994036 -0.011723614 0.017509285 -0.1369668 -0.0169644 0.09099168 -0.042886503 0.101030186
-0.053117573 -0.13672009 -0.054663233 -0.08862857 -0.026827257 0.033888146 0.112750545 0.05070788
0.05729804 0.060825706 0.044305053 0.039318558 -0.0044948217 0.10434524 -0.060644668 -0.07463249
0.013794506 0.087541975 0.018967407 0.008214597 0.094571166 -0.08222956 0.04754047 0.047548108
0.043845695 -0.07246015 -0.086156555 -0.082243 0.038730316 -0.077331655 0.10422261 -0.0931786
-0.01921231 0.08522822 -0.08842437 -0.04866074 0.0011927504 -0.08035911 0.05632161 0.073835954
-0.09305245 0.07677762 -0.08833958 0.057492398 -0.11725581 0.035943862 -0.047103815 -0.04283057
-0.06699074 0.09144152 0.07558476 0.022821367 -0.04912265 0.07673156 -0.091122866 -0.021099297
0.12583247 0.08787444 -0.076602824 -0.043825082 0.04573502 -0.022775285 -0.08143534 -0.07315827
-0.06266246 0.087344475 0.07214295 0.009531235 -0.024284117 0.0012436649 -0.08307195 -0.020919789
0.07692307 0.0688514 -0.013446513 -0.0006315736 0.09106008 0.0738011 -0.08675753 -0.05868065
-0.07139942 -0.06969804 -0.013209324 0.08876921 0.05634638 -0.017921465 -0.09979446 0.00293175
-0.06440812 0.002773772 -0.010503631 -0.10462552 0.09013087 0.02632151 -0.079192445 -0.017002242
0.08870623 -0.06633077 0.01773341 -0.12361878 0.03184215 -0.11059497 0.0046731336 -0.019296637
0.08400405 -0.1329874 0.08582332 -0.101748705 -0.028638806 -0.01996635 0.0448381 -0.014494572
0.07872452 0.027238555 -0.049470037 0.033355586 -0.1310722 0.05870701 -0.1215821 -0.07793371
-0.032011457 0.068591066 0.026729021 -0.13017139 0.07860986 -0.07652235 -0.14048207 -0.0603198
0.051718637 0.018496806 0.09356031 -0.1192086 0.013319291 0.07484214 0.12486842 0.038498312
0.123538926 0.08466419 0.016200053 0.030755963 0.09749852 -0.13413507 -0.09705054 -0.020811478
0.067851074 0.034656804 -0.016515577 -0.0033985958 -0.13353577 0.070935406 0.006610074 0.04890374
