Comparative_Evaluation/Baselines/LSTM/models_m/model50.pt (torch, 137095 bytes, 10 tensors)

weight_ih_l0 f4 [256, 10]
00000000: 9600 82bc a56b a13d 4b62 373e 8ee6 6f3e
00000010: 923f 983e fd2a 833e c473 e23d 3521 203e
00000020: f30d 653e cf85 553e 5c23 b3bd ca2a 24bd
00000030: 6f10 15be 1c74 83be cc54 17be 7f37 91be
00000040: 14f8 08be d47d a5be 5838 5ebe 2cb5 88be
00000050: efe3 b23d 48e9 0bbe 289b a6bd 6fc8 42be
00000060: cdaa ffbd 7a52 d6bd 4d83 69be d346 92be
00000070: 1d94 91bd 74d2 81be 1c6c 6dbe 7baa 75bc
00000080: 937b 41be 5345 843d 7a17 a33d 58a6 07be
00000090: 1966 b33c 667f 97bd 8554 0dbc 4299 3ebe
000000a0: d6e9 263c 1e4f abbd ec72 4a3e 766a 673e
000000b0: a817 293e bb8b 823e 025b 653e 9c55 c73e
000000c0: a959 403e 476a 953e c401 c73d 85cf a03c
000000d0: a87f 13be 076c b2be b6c2 a3be 86a6 a6be
000000e0: eed8 abbe 1a14 a5be f236 76be 682c e1bd
000000f0: 2004 ea3d b96c 9dbb 826a 00be a7a4 3cbe
00000100: 715e bcbe c8ad b6be 0589 d0be 0987 6cbe
00000110: 049c 0bbe c12f 53be eb6d 07be 386c 5fbd
00000120: ebd8 75be 137e 29be e9d2 0fbe 9adc 3ebe
00000130: 3b09 babe e7dc 45be 75dc 32be 8aa3 0bbe
00000140: 2463 9d3e 9dbd 1c3e 0936 33be 0147 c7be
00000150: 8cca d3be e2a7 8dbe 7bf7 c1be 7a48 cdbe
00000160: 9b07 49be 9300 bbbe 33fc 4abc a18d 7bbd
00000170: d2ba 193e 0ec0 cdbb 242b 4e3d 502f a8bc
00000180: beeb 1e3e a296 d83d 772c 91bd af69 eabd
00000190: 9cda b8bd 7b11 363d e6d9 33be 33e4 27be
000001a0: 946f 5abe 6e44 0abe aa20 32bd ea47 3bbd
000001b0: a7ee 31bd 034d 68be 3599 9abd 4169 c23d
000001c0: 7d5e 8cbc cc45 d73d c54f 983d 18dd 353c
000001d0: 0373 523d 1195 0abd 9c4a a63d db67 c33d
000001e0: 8283 193d ee80 32bb 1de1 b3bd f070 23be
000001f0: 866f 80be 5090 60be 185c 4cbe 57f1 9dbd
00000200: 2c7c 11be 7b64 20be 16a4 683e bee4 273b
00000210: da9b 4fbd 5df0 4bbe ff03 50be 7bce 8bbe
00000220: a442 1dbe 0bc7 9fbd e343 8bbe efe7 4ebd
00000230: f7eb 15be 4d41 3cbd df9b 953d b4d7 043e
00000240: 4495 963d 2ab2 1a3e 9157 603e 5ecd 113e
00000250: 0931 5c3e 17f4 003e f385 be3c 12e9 afbd
00000260: 38e5 a7bd 69e4 fabd 7cf5 81be 635b c8be
00000270: 1998 5dbe 97ad a4be 84bb 09be 3a6b 6bbe
00000280: 7a2f 503e 065f ce3d 19d1 be3d ee3c 053d
00000290: 7427 283e 48bf c9bc 5c9a 23bd b326 1d3e
000002a0: 17cb 84bd 11c9 0e3d 9b8f 613d 1670 893e
000002b0: 1b5b 0a3f 31b3 fe3e 1087 de3e 0f8a e43e
000002c0: b7f6 db3e 97c3 d63e c829 bc3e 174f bb3e
000002d0: 3177 91bd 73c6 d2bd 8847 8c3d 923f fabb
000002e0: 5858 68bd 44b1 c7bc b34d 493d 9e5e 4a3c
000002f0: 5f86 873d 9321 6bbd 8425 49be 90a6 16be
00000300: 9f96 22be 5cde dbbd 6809 67bd 8611 72bb
00000310: a305 eebd a77c 29be c1ea 7fbd 96d4 ac3a
00000320: 5dc3 e03e 2162 8b3e 6dbe 943e 3d8e 133e
00000330: f16d b73d 8402 b93d 3cfc 6b3e 9ad8 f93d
00000340: 9b2e 6a3e 61c9 903e f9e2 893e 0191 913d
00000350: f08b 96bb 81cd ad3d f6f4 ef3c bff6 a03d
00000360: d017 a1ba 7e24 673d 7d82 05be eba6 013e
00000370: e293 dbbd b3ed 41be 3278 fcbd fb23 f8bd
00000380: 15d6 2dbe cd46 90be 7632 93be 778b 89be
00000390: 7b47 ffbd bca7 1dbe 41a8 883d be03 bbbd
000003a0: 19f7 673b bca5 01be 9088 62be 0283 16be
000003b0: 8453 0abe 1bdb eebd cac3 bebd 7b4b 1abe
000003c0: 295a 853e 5fd4 8e3e 6581 b83e 8932 773e
000003d0: 2dea c43e 4653 143e 549d 2f3e 4537 7c3e
000003e0: edde 853e 7f48 d93d c52a 3dbe d7a7 63be
000003f0: 1b7c ffbd da7d 59be afbd 03be 7e18 0dbe
-0.01586942 0.0788186 0.1790859 0.23427793 0.29736 0.25618735 0.11057237 0.15637667
0.22368602 0.20851825 -0.08746979 -0.04007987 -0.1455705 -0.25674522 -0.14778441 -0.28362653
-0.13375884 -0.32322562 -0.21701181 -0.26700723 0.08734881 -0.13663208 -0.081350625 -0.19021772
-0.124837495 -0.1046495 -0.22803994 -0.2856966 -0.071083285 -0.25355875 -0.23185772 -0.014994259
-0.18894796 0.06458535 0.07963462 -0.13247049 0.02189927 -0.07397346 -0.008626108 -0.1861315
0.010187587 -0.083647 0.19770402 0.22599205 0.1651293 0.2549723 0.22397998 0.38932502
0.18784203 0.29182646 0.09717134 0.019630203 -0.14404166 -0.34848043 -0.3198449 -0.32548922
-0.33563942 -0.322419 -0.24044397 -0.10994798 0.11426568 -0.0048042205 -0.1254063 -0.18422185
-0.36790803 -0.3567946 -0.40729538 -0.23098387 -0.13633734 -0.20623685 -0.13225524 -0.054546565
-0.24008529 -0.16552 -0.140453 -0.1863884 -0.36335167 -0.19322549 -0.1746691 -0.13636604
0.307397 0.15306707 -0.17501082 -0.3892136 -0.41365469 -0.27667147 -0.37884125 -0.40094358
-0.19631808 -0.36523876 -0.012389231 -0.061414365 0.15012673 -0.006278998 0.05033411 -0.020530373
0.15519616 0.10575606 -0.07088559 -0.11445939 -0.090260714 0.044450264 -0.1756359 -0.16395645
-0.21331626 -0.13502666 -0.043488182 -0.04572288 -0.043440487 -0.22685628 -0.07548753 0.09492732
-0.0171349 0.105113596 0.0743709 0.011100076 0.051379215 -0.033833567 0.08119699 0.09541293
0.03747893 -0.0027237493 -0.08783171 -0.15961051 -0.25085086 -0.21930051 -0.19957006 -0.077120475
-0.14207524 -0.1566333 0.22718844 0.0025618519 -0.05068574 -0.1991591 -0.20314024 -0.2730597
-0.15357453 -0.07801636 -0.2720023 -0.050514158 -0.14640795 -0.045960713 0.07305121 0.12972909
0.07352689 0.15107027 0.21908404 0.14238498 0.2150308 0.12593113 0.023257231 -0.085893765
-0.08198017 -0.12250597 -0.25382602 -0.39132223 -0.21640052 -0.3216369 -0.13450438 -0.22990122
0.20330611 0.10076718 0.09317226 0.03252881 0.164213 -0.024627343 -0.03994213 0.15346794
-0.06484049 0.03485972 0.055068593 0.26843327 0.54045266 0.49746087 0.4346242 0.4463658
0.42961666 0.41946098 0.36750627 0.36583778 -0.07102812 -0.102917574 0.06849581 -0.0076369727
-0.056724876 -0.024376519 0.049146365 0.01235166 0.06617426 -0.057405066 -0.19643217 -0.14711976
-0.1587777 -0.10735771 -0.056405455 -0.0036936714 -0.11622169 -0.16551457 -0.06247974 0.0013185914
0.4389905 0.27223304 0.29051533 0.14409728 0.089565165 0.09033683 0.23045439 0.121995166
0.22869341 0.2827864 0.2693098 0.071077354 -0.0045943186 0.084864624 0.029291611 0.07859563
-0.0012290422 0.056431286 -0.13038059 0.1266133 -0.10721566 -0.18938331 -0.12327613 -0.12116238
-0.16976197 -0.28179017 -0.28749436 -0.26864216 -0.12464806 -0.15396017 0.06672717 -0.09131573
0.0035395084 -0.12660879 -0.22122407 -0.14698413 -0.13508421 -0.11662885 -0.093146876 -0.15067856
0.2604535 0.278964 0.3603622 0.24140371 0.38459912 0.14484891 0.1714986 0.24630459
0.2614664 0.10609531 -0.18473347 -0.22231995 -0.12474843 -0.21239415 -0.12865327 -0.13778874

weight_hh_l0 f4 [256, 64]
00000000: a522 22be 9c9e 25bd 2996 27bd e8e1 063d
00000010: bda0 a83d 42fe 613c 3180 e0bc 5a88 3cbc
00000020: c260 4b3d 57d6 0cbe 13a5 36be 96b1 74bd
00000030: 8f71 833e ca90 953a 1bc2 223e 90fe efbd
00000040: 444d f0bd d8f3 41be deb8 9fbd 85a6 b4bd
00000050: 61be b7bc fbb3 533d e44e 5abe a7fd 56be
00000060: e72e c8bd a8fa 5fbd f53e 0ebc d0f5 28bd
00000070: acb0 5d3d d803 6ebc 2873 e53d e63e 90bb
00000080: 8f47 c93d 5948 a43c 82f4 783d b983 e8bd
00000090: 0968 0a3d e84b ab3d f336 c03d 000f 9fbc
000000a0: 886a 33be e630 253e 52e3 54be 05cf 703b
000000b0: 7940 a2bc aed0 b9bd a7a4 673e 6c50 92bc
000000c0: 4cec 90bd 4567 1bbc bf2f 263e 231f ab3d
000000d0: 9953 cabd 12be 78bc a86a 5f3b aeda 853d
000000e0: 031c 1f3e 0f39 88bc fc7a babd 1af1 3ebe
000000f0: fba4 263c 825c 23be 430d 0cbe 0f8b d33d
00000100: a51c 6bbe 1489 533d 2ba0 9f3d 48e0 483d
00000110: 954f 123e ae9a 3b3d dd82 4ebe 314c f93d
00000120: 2b77 e3bd 4740 10be 7936 bebb 7e64 3dbe
00000130: 2c7f 983e 13bc 943d 8a59 2b3e ecdb f7bd
00000140: 72eb 16be 8561 bfbd 8661 d0bd d698 b3bd
00000150: 30a6 6a3d 0571 ba3d c4e5 6fbe f3cd 96be
00000160: 5474 16bd 1c8f 583c 5849 843d d94b 4d3e
00000170: 93a6 d8ba 25cc 8a3d 83b5 9dbd 4eb4 843d
00000180: 3f8b 13bd a507 243d c16c 893d 53c2 57bd
00000190: 75cd c03d e3d8 623b 08ea 16be 361d d5bd
000001a0: 306c 2cbe e995 993c f481 08be c866 27be
000001b0: 369e b73d 97c5 cc3c ef06 393e 7f1d fdbd
000001c0: 87f4 903d 2a8e 7abe 92b9 703e da6f 4f3e
000001d0: 95e7 23bd 39cd 143c df05 293e 9e1a 2a3e
000001e0: 2137 213e b833 193c 35c8 2abd a070 673a
000001f0: e892 9e3c d23f 3bbd f3d9 003e 187f 4e3e
00000200: 1e09 20be 2cf8 9bbd db15 3b3e 54b6 54bd
00000210: e3b2 ad3d 5a3f 1abe 93c5 0f3d 4bcb cabd
00000220: d468 09bd 6a9f c83c 11d4 adbd 1991 50be
00000230: b99b 88bd b65e 773d 3d34 c73d bb18 30bd
00000240: 86f5 87bd 68b9 b93d 6229 9fbd a0fc fdbd
00000250: 1e6b 113e 6a4d f2bd a17a f63d bca3 873d
00000260: e386 033e 2b76 f93d bf35 d5bd de8e ddbc
00000270: d1f6 a13d db13 55bc 8a17 803a fa54 0c3e
00000280: f857 6a3c c241 173e f2ed 1d3e ac70 24bd
00000290: 827c 553b 52c9 4d3e e9da c03d 3496 e9bd
000002a0: 6f4d 24be 01e3 99bc 43a1 acbc 19a2 1dbe
000002b0: 3124 843d 7a6f 1d3e bcc2 29bd 0aef e53d
000002c0: f7b5 543d 32d8 053d cb8f 95bd aa09 873d
000002d0: ce3e f3bc 86dc 393c 5388 423e 524d 04bd
000002e0: 0582 7e3d 2762 38be 19be c5bd bc5b 0c3e
000002f0: 9173 293e 384b 2e3d 385b 1b3d 4597 183e
00000300: f869 fcbd c1fb 94bd b970 153c 76ac 19bd
00000310: 0eed 273e 7bb9 80bc 40d1 20be 5fbb 22bd
00000320: e9c7 b33c 5a88 1bbe 8510 43be dc56 86be
00000330: 0241 3b3e f647 503e 4285 ba3d 0e89 20bd
00000340: da25 24be 26e8 12be 5ef1 57be 9e1e 13be
00000350: f26a 2e3d b669 8cbd 3370 a4bd c405 87bd
00000360: 8616 bd3c 2225 ebbb bf70 62bd db95 853e
00000370: 666b 58bd d229 c13d 6aca a23b a40c d6bd
00000380: 47fd 28bc 3c4e 543e 9ecc ebbb e4fb 70bc
00000390: bd75 cc3d 9f60 06be f3ba f23c 6dd3 32be
000003a0: 416a 5fbe b773 b23d b3fa f7bd 8e53 90be
000003b0: 31d8 2abd 0638 3dbd 91af 613d c1d5 803c
000003c0: ce63 1b3e 5fed ffbd fb2a 56bc c5ed 093d
000003d0: 7d09 16be b751 24be 65f1 8c3e bc28 e93d
000003e0: d4a6 053e 89ce 5e3d 6f0a 233d 05d7 f0bc
000003f0: 41a7 1dbe a6f8 34be 06b0 cfb9 100a 513e
-0.15833528 -0.040434465 -0.04091469 0.032930285 0.082337834 0.01379353 -0.027404876 -0.011507118
0.049652822 -0.13753639 -0.17836408 -0.05973967 0.25672576 0.0011410948 0.15894358 -0.11718476
-0.11733487 -0.18940675 -0.077989325 -0.088208236 -0.022429647 0.051685315 -0.21319157 -0.20995198
-0.09774571 -0.054682404 -0.008682002 -0.04125005 0.054123566 -0.014527284 0.11203605 -0.0044020293
0.09828102 0.02005403 0.060780056 -0.11353249 0.033790622 0.08364087 0.09385481 -0.019416332
-0.17521107 0.16131935 -0.20789841 0.0036744487 -0.019806134 -0.090730056 0.22621404 -0.017860614
-0.0707632 -0.009485071 0.16229151 0.08355548 -0.09879226 -0.015182035 0.0034090672 0.065358505
0.1553803 -0.01662877 -0.09105489 -0.1864666 0.01017117 -0.15953258 -0.13676934 0.10329258
-0.22960146 0.0516444 0.077942215 0.049042016 0.1428817 0.04580181 -0.20167108 0.121727355
-0.11106714 -0.1408702 -0.0058048335 -0.18495366 0.29784524 0.07262435 0.16733375 -0.12102494
-0.14738253 -0.09344772 -0.10174851 -0.087693855 0.057287395 0.09103588 -0.23427492 -0.29454002
-0.036732033 0.013217714 0.06459302 0.20048465 -0.0016529135 0.06777219 -0.07700636 0.06479703
-0.036021467 0.040046353 0.06710196 -0.052675556 0.09414188 0.0034614138 -0.14737713 -0.10405962
-0.16838145 0.01874824 -0.13330823 -0.16347802 0.08965723 0.024996562 0.18069051 -0.123591416
0.0707789 -0.24468294 0.2350829 0.20257512 -0.040015776 0.009082132 0.16506146 0.16611716
0.15743686 0.00935071 -0.04169484 0.0008828733 0.01935716 -0.04571516 0.12583141 0.2016567
-0.15628478 -0.076156944 0.18270056 -0.051931694 0.084813856 -0.15063229 0.03510053 -0.09902056
-0.033547238 0.024490077 -0.08487714 -0.2036785 -0.06670327 0.060393058 0.097267605 -0.042992335
-0.06638627 0.090685666 -0.07771565 -0.124017 0.14201018 -0.11831172 0.12035108 0.06623027
0.12844424 0.12180742 -0.10410642 -0.027045663 0.079084046 -0.013005222 0.000977264 0.13704291
0.0143032 0.14771178 0.154228 -0.040146515 0.0032575433 0.20096329 0.09416754 -0.11405602
-0.16045164 -0.018785002 -0.02107299 -0.15393867 0.064522155 0.15374556 -0.04144548 0.11227234
0.051931348 0.032676883 -0.07302817 0.0659364 -0.029693034 0.011344081 0.18997316 -0.0323003
0.062135715 -0.18006192 -0.09655399 0.13706869 0.16547991 0.042552203 0.03792879 0.14901455
-0.123248994 -0.07274581 0.009121113 -0.037517987 0.16399023 -0.015713444 -0.15704823 -0.039729472
0.02194591 -0.15188733 -0.1904927 -0.26238143 0.18286517 0.20339951 0.09107448 -0.039193206
-0.16030064 -0.1434637 -0.21088168 -0.14367148 0.04258246 -0.068561 -0.08029213 -0.065928966
0.02308203 -0.0071760574 -0.055283304 0.26090893 -0.052836798 0.09431805 0.0049679773 -0.1045163
-0.010314292 0.20732969 -0.007196023 -0.014708493 0.09983394 -0.13122796 0.02963016 -0.17463465
-0.21817876 0.08713477 -0.12108364 -0.28188747 -0.041710082 -0.046196006 0.055099074 0.015726926
0.15174791 -0.12496447 -0.013071771 0.03367402 -0.14652057 -0.16046797 0.2752792 0.113847226
0.13051921 0.054396186 0.039804872 -0.029399404 -0.15395834 -0.17672977 -0.00039613264 0.20413995

bias_ih_l0 f4 [256]
00000000: 0b1d b3bd ecfa 72be f272 18be 88c8 f2bc
00000010: f4b8 093e dbed c7bd 2d98 e5bd 3442 81be
00000020: a232 82bd 120e e4bd 95f8 39be a7ad 95bd
00000030: 769f 7bbd 8ac0 1ebc 7fcb 01bd 0c6f 9abd
00000040: 0b5f 4bbc 36d9 7a3e 1809 98bd 4d62 aabd
00000050: bafa ab3e bfe1 b33d 92e4 48be 4190 0dbe
00000060: 2505 873d e965 1ebe bf34 3bbe fbdd 9c3b
00000070: 0e11 923e caed 3a3d bc8a 1dbd ff73 903d
00000080: b0e6 a23d 7e4f 6abe 3aca 2e3e 7faa a8bd
00000090: 2ba9 e3bd 0cd8 a9bd 3bf3 c7bd bc65 903e
000000a0: 6f6f 89bd 12e4 51bd b4af dcbd d1a1 a8bc
000000b0: db29 50bd 3c03 fc3c abb3 bebd 9b7d 0abe
000000c0: 21eb 01be 448f 80bd d3d7 bdbd 62c3 28be
000000d0: 7072 7a3d b029 77bd 4444 a3bd 2b42 b83c
000000e0: ee5f 08bc 80a4 34be 5da5 413e 9d65 943d
000000f0: 1b9b 9dbc 403d c1bd f44b 093c c434 0f3d
00000100: 81ff 2ebe 8c96 0bbe 7b8d 5bbd ae7d 7bbd
00000110: 8ce7 41be fdf3 5dbe 0f26 a7bd d8ce 1abe
00000120: 2fb0 1ebe 3048 30be d07e 0cbd 0ae1 fe3c
00000130: ad5a 5bbe 1c90 3fbe 8b08 83bc ee90 74bc
00000140: 17c7 68bc b916 8abd 3cfa 22be 8b12 7fbd
00000150: cd17 42be 224c 8fbe 0c9e a8bc 5c6a c5bc
00000160: f5cf 85be e0e1 d4bd b2de 88bd d67a 15bd
00000170: a6ac 33be 2c7d 78bd 5dcb 03be 5839 5cbd
00000180: 41f2 0bbe b680 74be 51f0 23be 3d5c dfbd
00000190: 3bfa ee3d c616 523c 31f5 093d 5367 20be
000001a0: e125 423d c969 b1bd ab37 73bd 75a0 1ebe
000001b0: 8ecc 14be 9ebb a0bd a8f4 8fb9 1867 00bd
000001c0: 2e97 f1bc 0484 743d 3270 d6bc 2cd4 a2be
000001d0: b910 18be a32a 87bd b219 3abd 8026 92bd
000001e0: 7d65 5bbe 5736 d4bd b8e1 28bd e9c5 30bd
000001f0: c3f3 1c3c c9a0 dcbd 36ad 11be 8cca a3bd
00000200: 71fb a0bd fb23 8e3d 91d0 303d d0f2 17bd
00000210: 8877 6cbc 5946 e1bd 4822 463d 238a 7abd
00000220: 10e1 d93b cc8e e4bd f9a6 debc eb69 c4bd
00000230: 6b4e bfbd 6986 8d3c 9a48 c93a 567c 1fbd
00000240: 30e6 4b3d 62bc 00bd 3eab 32bd 00dd e73c
00000250: 8c55 e5bc 8720 9b3d fcaa 833d 7620 62bd
00000260: b587 b4bd dd32 9ebc 6de6 0bbd 35fb 93bd
00000270: ba5c ac3c a88b a43c 773d 7e3d 9b21 89bc
00000280: 3440 dabd 08a9 793c ca4f 2bbc 64be ef39
00000290: 39d6 22be 90b6 ab3d 9bb4 b63c 6251 273c
000002a0: 1005 47bd 878d 2fbd 522b fa3d d323 8abd
000002b0: 3ee3 943d 7a49 debb 8a5b f23b ca17 ae3b
000002c0: 70b1 10bd 1bdd 9d3c 74d8 96bd 1fb3 073d
000002d0: 82ae c4bc 74bb fc3c 2ca9 333d 84d9 c1bc
000002e0: 340f c63b 90e7 043d edb1 74bd b427 14bc
000002f0: d908 023c 656d e7bb a2f6 c3bc 589a 95bd
00000300: 87dc 96bc 24a7 40bd 0e06 f03c 2584 49bd
00000310: 0e19 cdbc dbc0 223d 8513 35bd 050a 0abe
00000320: e56a 85bd f245 e3bd 9bda 56be 912b d13d
00000330: 93c2 bfbc f8c3 e8bc 6132 dc3d ac03 3cbe
00000340: 51d9 993d 8ce6 823e 4546 26be 7036 cfbd
00000350: 7870 803e 9a01 13bb e508 b2bd a86b a53d
00000360: 6e44 853e 891d 7dbe 7b45 aebd 0c3b 92bb
00000370: 8d2c d03e 1499 9bbc 5041 d7bd 2755 1e3e
00000380: 5ad0 f7bd 8d28 e0bd a0bc b33e 4043 2abc
00000390: 7d1b 92bd bf4e 4dbd 583e 853d c4b3 843e
000003a0: c664 bc3c ae36 cebd 1b44 663c b5d5 233e
000003b0: d226 39bc b6a3 71bd 3103 3fbd d631 0dbd
000003c0: 4d8a f8bd a9e4 27be 6ace 10be db2b fcbd
000003d0: 94ec 4f3e 2909 313d fce5 c23c ec1d cfbc
000003e0: 3315 c73d 3063 97bd 5283 bf3d 3579 2dbd
000003f0: 893b 74be 5eb2 27be 6ff7 9fbd d78f f1bd
-0.08745774 -0.23728532 -0.14887598 -0.029636636 0.1344946 -0.09762164 -0.11210666 -0.2524582
-0.06357314 -0.11135496 -0.18161233 -0.07308512 -0.06143137 -0.00968946 -0.03168821 -0.07540712
-0.012412797 0.24496922 -0.074236095 -0.08319531 0.33589727 0.08783292 -0.19618443 -0.1382456
0.06592778 -0.15468563 -0.1828184 0.0047872043 0.28528637 0.04563693 -0.038462386 0.070533745
0.079541564 -0.22881886 0.17069331 -0.082356445 -0.111162506 -0.08293161 -0.097631894 0.28202617
-0.067107074 -0.051242895 -0.107757 -0.020584973 -0.050821166 0.030763261 -0.09311613 -0.13524477
-0.12687351 -0.06277326 -0.09269681 -0.16480783 0.061144292 -0.06034249 -0.07972005 0.022492489
-0.008323653 -0.17640877 0.18910737 0.07245944 -0.019239 -0.09435511 0.008379925 0.03496243
-0.17089655 -0.13631648 -0.053601723 -0.061399154 -0.18935984 -0.21675105 -0.08161556 -0.15117967
-0.15496896 -0.17215037 -0.034300625 0.031113166 -0.21421309 -0.18707317 -0.015995285 -0.014927132
-0.014207623 -0.06742615 -0.1591577 -0.062273543 -0.18954392 -0.27987772 -0.020583175 -0.024098568
-0.2613522 -0.10394645 -0.06683101 -0.0364941 -0.17546329 -0.06066625 -0.12870546 -0.053765625
-0.13666631 -0.23877224 -0.16009642 -0.10906265 0.116688214 0.012822812 0.0336811 -0.15664415
0.047399405 -0.08662755 -0.05937926 -0.15490897 -0.14531156 -0.07848285 -0.0002745737 -0.031348318
-0.029491033 0.059696212 -0.026176546 -0.318025 -0.14850129 -0.06599929 -0.04543466 -0.071362495
-0.21425433 -0.10361927 -0.041230887 -0.04315749 0.009579602 -0.10772855 -0.14226231 -0.07997617
-0.07860459 0.069404565 0.043167654 -0.0370968 -0.014432795 -0.10999746 0.048372537 -0.061166894
0.006649144 -0.11160049 -0.027179228 -0.09590515 -0.09341129 0.017276006 0.001535672 -0.038936935
0.04978007 -0.031429656 -0.04362034 0.028303623 -0.027994893 0.075745635 0.06429097 -0.05520674
-0.088149466 -0.019311363 -0.034155298 -0.07225648 0.02104031 0.020086125 0.062070336 -0.016739657
-0.10656777 0.015238054 -0.010456035 0.00045727484 -0.15902032 0.083844304 0.022302916 0.010212274
-0.048588812 -0.04285958 0.12215294 -0.06745114 0.072699055 -0.0067836614 0.007396166 0.0053128945
-0.035325468 0.01927047 -0.07365504 0.033129808 -0.024008993 0.030851103 0.043862507 -0.02366329
0.006044293 0.032447398 -0.059739996 -0.009042669 0.00793668 -0.0070626014 -0.023921315 -0.07304829
-0.018415703 -0.047034398 0.029299762 -0.04919829 -0.025036361 0.039734703 -0.04420807 -0.13480385
-0.06514529 -0.110973254 -0.20981829 0.10213388 -0.02340821 -0.028413758 0.107517965 -0.18360776
0.07512153 0.25566518 -0.16237743 -0.10117805 0.25085807 -0.0022431375 -0.08693103 0.080771744
0.2602877 -0.24718298 -0.08509346 -0.0044626053 0.4065899 -0.018993892 -0.10510504 0.1546217
-0.12100287 -0.109452344 0.35104847 -0.01039201 -0.07134149 -0.050123926 0.06506032 0.259184
0.022997271 -0.10069023 0.014054324 0.15999492 -0.011300759 -0.058994018 -0.046633903 -0.034471355
-0.12135754 -0.1639582 -0.1414124 -0.12313052 0.20305091 0.043221626 0.023791306 -0.025282823
0.0972084 -0.073919654 0.09351219 -0.04235192 -0.23850836 -0.16376635 -0.07810866 -0.117950134

bias_hh_l0 f4 [256]
00000000: 26a4 e33d fb01 76be 1809 28be 3551 5bbe
00000010: 1e32 a33d 15f1 c7bd dd71 aabc eb9f 14be
00000020: a244 abbd 60be 6e3b fa71 3abe dab7 b5bd
00000030: e924 6abe 102e 7dbd a0b7 84bd 8d59 00be
00000040: 4b73 f93d 51fc 0a3e d0c2 79bd a63e b1bd
00000050: f275 1c3e 2332 213e 2b92 aabd cab0 af3a
00000060: 71cc e63d 364c 6bbd 2c6a 47be 1cd7 3bbe
00000070: 0bec d73e 96e2 403d 2645 f9bd 2189 593e
00000080: 5773 d73c 65a2 59be 82b7 b53e f8d2 22bb
00000090: 9300 b4bd 45bc 973d 8e98 12be 9b15 8a3e
000000a0: 6561 8ebc 2b41 23be 041c f2bd 2af6 853d
000000b0: 76cd 3bbe 84ae a53c d610 01bd 157a a9bc
000000c0: 8467 4bbd b94d 4c3c ee5c c73a f86e a3bc
000000d0: 9626 f83c 7983 15bc b73c 03be 4f9f afbd
000000e0: 95d4 c83c 0e09 47be 2625 26bd 504c febd
000000f0: ff2f 70be f0f9 06be 3b73 b7bd abee 903c
00000100: 8fa3 97bd 949d 31be a5bb 29be d828 85be
00000110: b14b 55be f06d ee3a 9163 72bd f6cd e8bd
00000120: c93c 05be 96fa 5fbe 81e3 a7bd dc2a f9bd
00000130: 6974 10be 2ec5 b6bd b29c 34be c085 2bbd
00000140: ede0 1cbe 5ad5 8dbe 7ed0 d5bc 7d67 75bd
00000150: eb5f 57bd d3a5 58bd da70 513d 3057 f13c
00000160: 2810 96be 178c 6dbe de2d 99bc 5288 90bc
00000170: 8639 47be d0ca b5bc d330 8ebd 0d45 d8bd
00000180: 230a f6bd 3a0b ffbc beed c2bd 4605 95be
00000190: 4d6a 44bb 3934 f83c d411 90bd c599 94bd
000001a0: feac 34bd 02ea 16be eed9 11be 825c 77be
000001b0: 3fb9 f1bd 9a38 5dbe f0f4 9abb 40d6 99bd
000001c0: 6e56 2dbe 75a9 1bbd 04c1 943d 8658 8dbe
000001d0: d891 69be 15cf a9bd 726b 84bc e764 2dbe
000001e0: c343 31be 1a17 07be 3c8f a5bd 29d3 2abd
000001f0: a01c c8bc 0ce0 1cbe c751 cf3b 51d5 24bd
00000200: 303f 183d 6f3b 21be 1bf3 a6bb f6a4 a13d
00000210: 086d 59bc a37c 083d 7165 e03c a4ab dcb9
00000220: 9f5b 113e dc26 943d 6aef c93b f999 d03d
00000230: ad51 753c fdaf f93b 86a0 30bd e0a7 983d
00000240: 62b8 7abd 4831 32bc 2909 843d 3ddf 403d
00000250: 3ed5 943d d352 d1bb b69a 6dbd dd33 1d3e
00000260: 8713 043d cb16 fd3c 2c6d a83d 36f8 163d
00000270: 5301 88bd bd61 b1bd 2a4a 893b 1d04 7f3d
00000280: ae9c e83c 9a47 f7bd 201e e43d 51bc 73bc
00000290: 7246 96bd 0b3e 053d af6b 073d aae0 a1bd
000002a0: a911 013e ba20 963d 3736 d8bd 2d6c 133d
000002b0: 01a6 b9bd f86f 8a3d 56ac 90bd 832d e13b
000002c0: 3aba 5bbc 1191 b63d 44d5 84bd 073d a83c
000002d0: c14a abbc 5daf 5e3d 0063 fdbc b98c 51bd
000002e0: f00f 913d d042 eebc e3fe 37bc b2c7 953d
000002f0: dbe4 29bb 04a9 5b3d 4613 f5bc 5c1f 91bd
00000300: 3570 e83d bec3 a8bd 0cb2 45bd bae2 b5bd
00000310: b8ea a1bc bb9c dc3c c703 9c3d 8538 65be
00000320: 3596 e6bd bcf7 4f3c ac45 d1bd 7c4c 93bd
00000330: dc4a 00be cda8 b03d ae4a 48bd 9ee6 44bd
00000340: 9627 3e3e 3c19 1a3e 0e3a 19be 7290 29be
00000350: 60d8 553e b492 c93d ea61 33bd d341 5fbd
00000360: afd8 473d 98f3 8dbe d712 54be ac4d bebd
00000370: 134e c83e 9a83 223e fc3a 5fbc 2da3 e23c
00000380: 1cd6 8e3d 5a69 3cbd 76cd 2b3e 5688 1abe
00000390: 44d6 ad3d 6447 96bd 3aab bebd 7e8f 673e
000003a0: 3f84 c7bd 04a6 1ebc baa9 64bd 24c5 7e3d
000003b0: 8d4a c0bd 7d1a 613d 6b6e 9e3d ec34 d6bd
000003c0: 529f eabd 4709 2f3d b9c1 46be ae86 2fbe
000003d0: d604 523e 7180 3bbe bec0 ca3d 42ec 3bbe
000003e0: 4f67 6f3e 1dd4 73be 9388 09bc 513a 24bd
000003f0: 55db 8bbc a54f 03be cc9f f3bd 6b5a b13c
0.11115293 -0.24024193 -0.16409719 -0.21417697 0.079685435 -0.097627796 -0.020806247 -0.14514129
-0.083627 0.003642939 -0.18207541 -0.088729575 -0.22865643 -0.061811507 -0.06480336 -0.12534161
0.121801935 0.13572814 -0.060976803 -0.08654527 0.15279368 0.15741782 -0.083286606 0.0013404128
0.11269463 -0.057445727 -0.19474095 -0.18343776 0.42172274 0.04709109 -0.12171392 0.21243717
0.026300116 -0.21253355 0.35491568 -0.0024844985 -0.08789172 0.074089564 -0.14316007 0.2696961
-0.017380426 -0.15942828 -0.1182175 0.06541093 -0.18340096 0.020224817 -0.031510197 -0.020688096
-0.049659267 0.012469702 0.001521019 -0.019950375 0.030291837 -0.009125584 -0.1281613 -0.085753076
0.02451543 -0.19437048 -0.04056277 -0.12416899 -0.23455809 -0.13181281 -0.08957525 0.01769193
-0.07404243 -0.17345268 -0.16575487 -0.26007724 -0.20829655 0.0018190723 -0.059176985 -0.11367409
-0.13011469 -0.21872935 -0.0819769 -0.12166378 -0.14106907 -0.08924328 -0.176379 -0.0418756
-0.15320177 -0.27701837 -0.026100393 -0.059913147 -0.05258171 -0.052892517 0.051133014 0.02946052
-0.293092 -0.23197971 -0.018698629 -0.017643128 -0.19455537 -0.022191435 -0.06942906 -0.105600454
-0.12013652 -0.031133283 -0.09518002 -0.29105586 -0.0029970587 0.03029834 -0.070346504 -0.07255892
-0.04411029 -0.14737704 -0.1424329 -0.24156383 -0.11802911 -0.21603623 -0.004728906 -0.07511568
-0.16927502 -0.038003404 0.07263377 -0.276066 -0.22809541 -0.08291451 -0.016164515 -0.16933022
-0.17311005 -0.13192406 -0.080839604 -0.041705284 -0.024427712 -0.15319842 0.0063268873 -0.040242497
0.037169635 -0.15745328 -0.0050948984 0.07892792 -0.013270624 0.033321988 0.027392121 -0.00042089552
0.14195107 0.07233974 0.0061625736 0.10185618 0.014973086 0.0076198564 -0.043121837 0.074538946
-0.061210997 -0.010876007 0.0644706 0.047087897 0.07267235 -0.0063880472 -0.058008872 0.15351816
0.032245185 0.030894658 0.08223948 0.036857806 -0.066408776 -0.0866122 0.0041897492 0.062259782
0.028395023 -0.12074204 0.111385584 -0.014876441 -0.07337655 0.032529872 0.03306168 -0.079041794
0.12604393 0.07330461 -0.10557216 0.035991836 -0.09064866 0.067596376 -0.070641205 0.0068718805
-0.013411099 0.08914388 -0.0648599 0.020536913 -0.020909669 0.05436646 -0.030930996 -0.051159594
0.07083118 -0.029084593 -0.011230203 0.073134795 -0.0025923762 0.053627983 -0.029916417 -0.070860595
0.11349527 -0.0824046 -0.0482655 -0.08881135 -0.019765243 0.026930204 0.07617908 -0.22384842
-0.112591185 0.012693342 -0.10218367 -0.071923226 -0.12528557 0.08625946 -0.048899345 -0.048071496
0.18569788 0.15048689 -0.14963552 -0.16559008 0.20883322 0.098424345 -0.04379455 -0.054506134
0.04879063 -0.2772491 -0.20710312 -0.092921585 0.39122066 0.15870515 -0.013624903 0.027665699
0.06974432 -0.04599891 0.16777596 -0.1509107 0.084881335 -0.073378354 -0.093100026 0.22613332
-0.09742021 -0.009683136 -0.055825926 0.062199727 -0.093892194 0.0549569 0.07735904 -0.10459313
-0.11456169 0.042733457 -0.19409837 -0.1714122 0.20509657 -0.18310715 0.09900044 -0.18351844
0.23379253 -0.23811384 -0.008394378 -0.040094677 -0.01707236 -0.1282335 -0.11895713 0.02164956

weight_ih_l0 f4 [128, 64]
00000000: 66d2 bfbd 9015 313b 7f26 113e 7f8a 50be
00000010: 6ff0 643e 16a2 c93d b4d7 36be 84fb 01be
00000020: 0c8c c43d 341d ccbd 4110 b8bc 90b1 a4be
00000030: eef8 a13c 8cdf 98bd a903 a93e 55c3 0cbd
00000040: 7bca 8cbb 3fb5 1bbe b661 7dbe 3bfa 4bbd
00000050: 82ff 093c fc87 1cbe 0c6a 1ebe 3ec7 76bd
00000060: 134e 4b3d a671 d3bd 9f87 f4bd 35f2 443e
00000070: 8dfe 24be 9ae2 cbbd 7972 b8bd 9a85 1f3e
00000080: 8f61 c13d 6e28 343d 4456 90bd 6155 093d
00000090: deaf 923e 7145 f3bc 4a2e 2c3e ed8b bdbd
000000a0: f157 32be f583 843d 0d3d 93be aa74 45be
000000b0: 1847 b0bd e4b3 d6bd c7c8 aebd 5523 3a3d
000000c0: 6d1e 163e 038c 77be aaad 1c3e 4059 9a3e
000000d0: f6a9 5bbe 7263 bfbd 8a46 b93c f0cc a43c
000000e0: 4e19 b33d f9ce 893d 3c4d 09be 2390 d23d
000000f0: 4986 5c3e aa42 81be 0033 033d 7a0c 1e3e
00000100: 2abb 43be 5b09 903d 5776 09be ccf9 323e
00000110: 8f06 4b3e e185 273e 1008 3e3d a407 dd3d
00000120: ad0e 94bd d075 1abe 52e7 ccbd 16c0 72be
00000130: 7e2e dbba 8150 f0bd 149b 633e ef45 1b3d
00000140: ea3f 5ebe 1d81 e13d 2dfd 56be 3e2d 7dbd
00000150: 4fa6 74bd 8746 21bd 3b96 ebbd 8c84 08be
00000160: e70d 7a3d e6d6 ae3d 9402 23be 5e37 843d
00000170: 61e6 bd3c 80a8 983d ab50 0fbd df26 183e
00000180: 0e93 10bd 8153 06bc c3e4 aabc d223 14be
00000190: 91cd 9dbd 87d3 b2bc a143 3abd 86f4 1fbe
000001a0: ef8a dbbd 61b5 63bd f9f5 7abd 3e01 8b3b
000001b0: 5a7a 9c3d f426 993c c70b 103e 274c 353e
000001c0: e73b aabc afe2 a33d 2df5 6a3e 73fc be3d
000001d0: 3f5f 51be 9550 76be d18f 83bd 5bf5 293d
000001e0: f84b 573d 320c 86bc 7df0 b73d 2c46 03bd
000001f0: a5db 09bd f37b f4bd 44be 01be 38f6 213e
00000200: 5966 0fbd f240 093d fbc2 3ebe 3fe9 c43d
00000210: 6518 16bd 2445 223e 58fd c43d ce5d b1bd
00000220: b74a 913d 7cba b9bc cdbc 04be 2222 d2bd
00000230: 82c4 023e 3923 883b e133 413d 115d 11bc
00000240: 6097 e63d e3ea 04be dd5f 44be 5817 ecbd
00000250: bf9b 883d fd3a 1ebe 2f2d 4fbe 008c efbd
00000260: 458c 953e 514c 88bd 024e 71be 1c2d 3d3e
00000270: 4132 393e 9a22 bd3d 3c38 463d e06c e1bd
00000280: 849d 703e f373 e73d 2079 fc3d ec15 4abe
00000290: 82ea 00bb 9a8e d5bd 9357 7ebd 1c0b 07be
000002a0: 3831 04be 4923 103d 0af9 74bd be3a a5bd
000002b0: 8639 563d 3216 41be 64dd 7a3d 2a9b 1a3e
000002c0: 2f36 93bd e117 d23d 8fd7 debd 0b5c 403c
000002d0: f31e c83d 12de 36be 2d6d 05be bfcc 353d
000002e0: 8a71 f7bc faad 70bc 14df 573e d616 d9bd
000002f0: faa3 3abd 1677 edbb b863 0c3e d3c8 6fbd
00000300: a432 0d3c 50df db3b 1800 a6bd 2fa3 dd3d
00000310: a697 573d a68c 09bd c282 f4bd 1447 863c
00000320: 7b51 56be ba07 5bbe 70de bdbc b604 1ebe
00000330: 3cd8 3e3e 642f 8dbd 39c6 e13c 8687 873d
00000340: af9e a13d 5526 4b3d 7521 87be e83c 84bd
00000350: aef3 95bd b32d cebd 79e0 593d 79b3 10be
00000360: 03b6 3f3e 1d38 b03c 4afc 50be 13e3 133e
00000370: 1632 ce3b 321e 533e ece4 02be aa47 57be
00000380: 029c 18be 3f6c 96bd cef7 e23d 94f0 c03d
00000390: ee38 ee3d c6ef 1abe 4cce 0f3d 160d ec3d
000003a0: 01c0 13be 3b8a a5be c942 3abe 9b13 0fbe
000003b0: 5915 f63b 92bf a83d 6592 cdbc b8b2 a5bd
000003c0: a86f 04be 3b12 10be eced c4bd 4025 543e
000003d0: ba2d 13be e778 0b3d 83fc 4c3e 061d 953d
000003e0: 1e58 cabd bbed 103d 92ca 8bbd 5c23 d93d
000003f0: 28fc 0a3d 6945 b6bb 852c 6fbd 2340 603e
-0.09366302 0.002702091 0.14174841 -0.20365332 0.22357343 0.098453686 -0.17855722 -0.12693602
0.09597024 -0.099665076 -0.022468688 -0.3216672 0.01977202 -0.07464513 0.33010605 -0.03436597
-0.0042965985 -0.15205859 -0.24744305 -0.049799185 0.008422734 -0.15286249 -0.15470141 -0.060248606
0.049635004 -0.10324411 -0.1193993 0.1923302 -0.16112728 -0.0995533 -0.09006209 0.15578309
0.09442436 0.04398387 -0.07047704 0.03352869 0.286498 -0.029696198 0.16814533 -0.09255204
-0.1741636 0.06470481 -0.28757516 -0.19282785 -0.0860731 -0.1048353 -0.08534389 0.04544385
0.14660044 -0.24174504 0.15300623 0.30146217 -0.21451554 -0.093451396 0.022616643 0.020117253
0.08745061 0.0672893 -0.13408369 0.10281398 0.215356 -0.25246173 0.03203106 0.15434447
-0.19114366 0.070330344 -0.1342405 0.17478102 0.1982672 0.16359664 0.046394408 0.10792473
-0.07229362 -0.15084004 -0.10005058 -0.23706087 -0.001672223 -0.11734105 0.22227126 0.03790849
-0.21704069 0.110109545 -0.20995016 -0.061810724 -0.059728917 -0.0393739 -0.115032636 -0.13331813
0.061048415 0.085370824 -0.15918952 0.06455873 0.023181142 0.07454014 -0.03498904 0.14858578
-0.035296492 -0.00819862 -0.020861035 -0.1446679 -0.07705224 -0.02182938 -0.045474652 -0.15620622
-0.10719859 -0.0555929 -0.061269734 0.0042420914 0.07640524 0.018695332 0.14066993 0.17704831
-0.020780517 0.08002221 0.2294509 0.093254946 -0.2044649 -0.24054177 -0.06423915 0.041493755
0.052562684 -0.016363237 0.089814164 -0.032049343 -0.033656735 -0.11937704 -0.12670237 0.15816581
-0.035009716 0.033509202 -0.18629067 0.09614801 -0.03664436 0.15846688 0.09618634 -0.0866047
0.07094329 -0.02267193 -0.12962647 -0.102604166 0.12770274 0.0041545895 0.047168616 -0.008872286
0.11259341 -0.12980227 -0.19177194 -0.1152789 0.06670331 -0.1545219 -0.2023208 -0.11696625
0.2920858 -0.06655181 -0.23564914 0.18474239 0.18085577 0.09235115 0.048393473 -0.110070944
0.23497587 0.113014124 0.1232779 -0.19734925 -0.0019671028 -0.1042759 -0.062095236 -0.13187832
-0.129094 0.0351899 -0.059807815 -0.08067845 0.052300952 -0.18856123 0.06124629 0.15098253
-0.07188069 0.10258461 -0.10880958 0.011740695 0.09771528 -0.1785815 -0.13029929 0.044384714
-0.030205507 -0.014689917 0.21081191 -0.10600059 -0.045566536 -0.007246862 0.13709915 -0.05854113
0.008618031 0.0067099705 -0.08105487 0.108221404 0.052634858 -0.0335814 -0.119390026 0.016391315
-0.2092952 -0.21389666 -0.023177356 -0.15431485 0.18637174 -0.06893805 0.02756034 0.06617646
0.078915946 0.049597103 -0.26392713 -0.064569294 -0.07321869 -0.1006731 0.05319259 -0.14130963
0.18721776 0.021511132 -0.2040874 0.1444209 0.006292592 0.20616987 -0.1278264 -0.21023431
-0.14903262 -0.07344865 0.11082421 0.09420887 0.11631952 -0.15130529 0.03510885 0.115259334
-0.14428712 -0.32332024 -0.18189539 -0.13972323 0.007509869 0.08239664 -0.02509422 -0.080907285
-0.12933218 -0.14069454 -0.096156925 0.20717335 -0.14372912 0.03405085 0.200182 0.072809264
-0.09880088 0.035382967 -0.068257466 0.106024474 0.03393188 -0.0055624736 -0.058392067 0.21899466

weight_hh_l0 f4 [128, 32]
00000000: ce2e 6b3d 6bcf 07be b7a1 8bbe 9d8d 813e
00000010: c753 2a3c 2cfc b73d 9fbf fc3c cce6 6d3e
00000020: 6fca 043e 6dd3 0c3e ff5b 58be 8fbc 783e
00000030: 2a17 683e 1f75 a8bd 022a 443e 030f 243c
00000040: 6e3f 16bc 5221 9dbe 0cd3 07be 4913 8c3d
00000050: 94ae 19be 133b 923d 81be cabd d222 5c3d
00000060: 65aa 20be b1ab 78be b365 17be c539 b4bd
00000070: 32ff b63d 60bf 42bd e9ad 12be 26ea dabc
00000080: 4b94 033e e7a4 8e3d c653 80bd 496b d73c
00000090: 6731 7bbd 052c 56be baf8 683e a78b 2abd
000000a0: 826c 543e 9650 16bd d3a1 63be e47b 343e
000000b0: 5ef4 06bd 6706 823d 808f 5a3e 45ec 64bd
000000c0: 0d28 b3bc 180d 8ebe 6f6b 84bd 0e19 5d3b
000000d0: cb2e 4bbd b48e 66be 860b d93d 5cd0 a2bd
000000e0: 4d8b 71be 6754 dfbd c571 23be 355a 313d
000000f0: 5422 25be 4f66 003e e84f a13d 4064 463d
00000100: 86d2 e93d 5ad3 60be 70c2 f2bc 78b1 debd
00000110: 6f8b a83d dfad 823d e445 c13c 7df8 703e
00000120: 034c debd 3317 823c aaf6 39be 32ce e1bd
00000130: 66c5 1f3e 5d18 4d3e cb7c f83d b614 e23d
00000140: c9dd 50be 177d 81be 1d05 e0bd 1d4f 01bc
00000150: 9bac 0abd 896d 023e 2f51 1abc 7899 e83c
00000160: 9cf7 4dbe bd83 013c 56cb 9abd ab13 c63d
00000170: 6677 f13d 84b7 30be 7297 183e 9665 2abe
00000180: b93e d1bd 79db 76be 8ce2 54be 9ff5 4c3e
00000190: d538 4b3e 4703 273e 8622 b3bd 8838 64bd
000001a0: 6d67 7fbd 8121 1ebe 0cb9 b23d 22e8 083e
000001b0: 3619 973c da02 fabd ef97 40be 9acc e7bc
000001c0: 122d 6dbd 50d1 95be 20e8 2abe 95ec 753e
000001d0: 39e3 f73c 6819 923c c6ff 6bbd 776f 3a3e
000001e0: 3925 8ebd 215f 78be e828 7fbe b08c 9d3c
000001f0: 020e 0bbe ac91 483d 9814 0bbe 7ed9 6f3d
00000200: a885 b0bc 42fa 51bd 0434 2d3e 8fee e1bd
00000210: 31e1 f93d 4f70 1a3e ade8 b73d 882f 5cbd
00000220: 4e0a 10be 6e10 cb3d 731e b9ba 43b2 31bd
00000230: a4f1 9dbc dd2d 03be 4255 363d e50f 113e
00000240: e096 77bd 82c1 4bbd 4a28 003d e3e8 d53d
00000250: 58af 663e 1bd7 6cbe 7884 953c 28df b73d
00000260: 70d3 7bbe c942 d4bd 7c97 80be 8d3c 49be
00000270: af1f 3abe 3f35 0fbe 79fb 92bd 9ea8 c03d
00000280: e6ea 213c 6d95 cabb faa8 a1be 4d87 8a3e
00000290: 8546 bd3d 9a59 f0bd 75ef 123e e4b3 8e3d
000002a0: 531f 4b3d d8fd 1abb 035f 36be 1d22 383d
000002b0: df46 423e dc13 ab3d 027a 7dbc bf17 963e
000002c0: 5fb5 3fbe 73d7 92bd ceae a5be 9fc0 ad3e
000002d0: b0be 1e3e bf7e 21be 98be 7bbd 5f03 003e
000002e0: 2983 88be ac71 57be 5aa1 54be 7e75 09be
000002f0: b3a7 13be 753a fe3c 3e1d 8bbe 1747 0abe
00000300: 9721 68bd fe8a 343e f6ee 91bd 3997 2ebe
00000310: 0400 b33c cc19 d03d f5b7 b6bd 578b 1abe
00000320: 39f5 26be 4931 733d 5e53 023e 58bf 07be
00000330: d490 c4bd 6e75 043e c9a8 983c a216 f13d
00000340: 4300 14bd 5379 afbd 705e 563c 19d9 c2bc
00000350: 8ec8 8fbd b218 e5bc da8f 12be 603a c73c
00000360: 36e8 d23d f9bb c3bd f7f3 36be dbb2 4a3e
00000370: 8f9d 123d 31bb 5a3e 5ca1 8f3e 844b 1ebe
00000380: 4f78 47be e284 053e efa0 07be 0ba1 3c3e
00000390: ce8a 043e fbe0 953c 0c60 53bd 6c53 f2bd
000003a0: 8b24 083e 2e00 55bd b95b f5bd d3d9 fabd
000003b0: 3fae 0a3e 47c7 963d f1cf 843d c4e4 8c3d
000003c0: 98e8 ca3d ecb9 19be 5cb4 25bd a82e 0abe
000003d0: 8b49 393e 9191 d9bc 0818 0dbe 0621 583d
000003e0: f4b0 2ebe fbb9 0d3e 999b 063e a356 e9bc
000003f0: 82a0 7d3d bb85 a23d 9d0d a7bc 661b 023e
0.057417683 -0.13262717 -0.27271816 0.25303355 0.010395951 0.08983645 0.03085309 0.23232573
0.12967847 0.13752528 -0.21128844 0.2429068 0.22665086 -0.08225464 0.1915665 0.010013345
-0.009170396 -0.30689484 -0.13264102 0.06839616 -0.15008003 0.07140174 -0.09899617 0.053744145
-0.1569 -0.24284245 -0.14784889 -0.08800081 0.089353934 -0.04754579 -0.14324154 -0.026722979
0.12849538 0.069650464 -0.062659785 0.026296275 -0.06132641 -0.2091523 0.22751132 -0.04163709
0.20744517 -0.036697946 -0.222297 0.17625386 -0.03294789 0.063488774 0.21343803 -0.055889387
-0.021869684 -0.27744365 -0.06465804 0.0033736858 -0.049605172 -0.22515374 0.10597901 -0.07949898
-0.23588295 -0.1090477 -0.15961368 0.04329892 -0.16126376 0.12539028 0.07876569 0.04843545
0.11417107 -0.21955624 -0.02963373 -0.10873693 0.0822972 0.063808195 0.023592897 0.23532291
-0.10854342 0.015880203 -0.18160501 -0.11025657 0.15602645 0.20028825 0.12133177 0.110391065
-0.20397104 -0.25290748 -0.10938475 -0.007892397 -0.033856016 0.12737097 -0.00941877 0.028393492
-0.20113987 0.007904944 -0.075583145 0.0967172 0.117903516 -0.17257506 0.14901522 -0.16640314
-0.102170415 -0.2410716 -0.20789546 0.20015572 0.19845898 0.16309844 -0.08746819 -0.055717975
-0.062354494 -0.15442468 0.08726701 0.13369802 0.018444639 -0.12207575 -0.18807958 -0.028295804
-0.05790431 -0.29261255 -0.16690111 0.2401603 0.030259715 0.01783438 -0.05761697 0.18206583
-0.069406934 -0.24255039 -0.24917948 0.019232124 -0.13579562 0.04896705 -0.13582075 0.058557026
-0.021548107 -0.051264055 0.16914374 -0.110318296 0.12201155 0.15081905 0.08979926 -0.053756267
-0.14066431 0.09915243 -0.0014123454 -0.043382894 -0.019280262 -0.12810464 0.044514902 0.1416622
-0.06044662 -0.04974509 0.031288423 0.1044481 0.22527826 -0.23128931 0.018251643 0.089781106
-0.24592376 -0.10364301 -0.25115573 -0.19652005 -0.18176149 -0.13985156 -0.07176871 0.09407161
0.009882664 -0.0061823637 -0.3157423 0.2705635 0.09241966 -0.1173584 0.14349158 0.06967905
0.04959042 -0.0023649838 -0.17809682 0.044954408 0.18972348 0.08353397 -0.015470983 0.29314992
-0.18721531 -0.0717 -0.32359928 0.3393602 0.15502429 -0.15771006 -0.06146106 0.12501286
-0.26662567 -0.21039456 -0.20764676 -0.13423726 -0.14419441 0.031033734 -0.27170748 -0.13503681
-0.05667266 0.17631146 -0.07125656 -0.17049874 0.021850593 0.1016117 -0.08921806 -0.15092216
-0.16304483 0.059373174 0.12727115 -0.13256586 -0.09597936 0.12935421 0.01863517 0.11771895
-0.036133062 -0.08568063 0.013084039 -0.02378516 -0.07020675 -0.027965877 -0.14312688 0.024319828
0.10298197 -0.09557337 -0.17866503 0.1979479 0.03579479 0.2136047 0.28052795 -0.15458494
-0.19479488 0.13038972 -0.13244985 0.18420808 0.12943575 0.018295756 -0.05160527 -0.11832318
0.1329519 -0.052002124 -0.11980385 -0.12248578 0.13543032 0.07362228 0.06484974 0.06879571
0.09907645 -0.1501233 -0.040455207 -0.1349436 0.1809446 -0.02655867 -0.13778698 0.05276587
-0.1705969 0.13840477 0.13145293 -0.028483694 0.06192065 0.07935663 -0.020392234 0.12705764

bias_ih_l0 f4 [128]
00000000: 0079 a7bd ce16 f5bd 5213 29be 1aff 0bbd
00000010: 470f 6fbe b2c1 16be 4f28 e73b c30a 73bd
00000020: 33ab 24be 5767 0dbe c547 4fbd 6223 60bc
00000030: 99f7 9ebe 917b 04be 85e7 08bc 36c9 733e
00000040: 9a90 bbbd ee5b 29bc eb12 5f3d 05e6 01bd
00000050: bb95 1fbe c261 89bd 8d9b 80bd c52f 12bd
00000060: d354 123e 1339 2e3b e930 c6bd b5ed 66bd
00000070: d492 9a3a d098 0ebe 51ee b4bd f393 d13d
00000080: db23 5bbe 261b 2fbe f14f 39be bbad e2bd
00000090: fbb2 c5bd cc7f 33be 7fea eb3b a343 e73c
000000a0: d041 47be 9f57 5abe 6c72 a53d 83ba 3ebe
000000b0: 4333 9fbd 4381 fcbd 9b86 65be a207 023c
000000c0: a671 18be dfb5 8c3c 6757 53bd fff0 92bd
000000d0: 6d8e 49be 8b8e 5a3d fc45 84be 2d63 9abd
000000e0: 7054 1bbe dbad 773d ce58 b9bc f974 c3bd
000000f0: 4764 83bd 454f 18bd a662 62be 4493 2bbe
00000100: ed37 cfbc e132 50bc 35eb 133e bdf0 18bd
00000110: 86be 9bbd 5316 68bd 741d 82bd b8ba a13c
00000120: ab03 00be de31 303c d246 d13d 2a66 1dbe
00000130: b6c9 1aba 6421 3c3c f0f9 10be 0b60 04be
00000140: b00f 8b3d 7ddd af3d 45e8 e33d 8aef a0bd
00000150: c4ac 60bd cdd1 c2bc 4c6a 9fbd bfed 25be
00000160: dacc 073e 4621 5e3d 4fc3 d73d 96a9 273e
00000170: da65 febc 89a6 c3bd 0f8e da3d 9548 a0bb
00000180: 6ecf b1be bb56 80be 77f2 45be b7a4 f6bd
00000190: 956a 81bd 81c3 64be 3f01 0abe 7c1a 2f3c
000001a0: 463b 6fbd ff01 cb3c 378d 09be 191f 0f3e
000001b0: 219b b83c 55e3 74be 4f2c 04be c13f 8c3d
000001c0: f5e6 963b 6291 70be baba d8bd e9fb a9bc
000001d0: 0d9d 12bd ab48 9d3d 4673 32be 6eba 9f3b
000001e0: de8b 59bd d8ab ec3d 920e 04be 9986 78be
000001f0: 0e52 85be e5f0 68be a850 39bd d6a4 ddbc
-0.08177376 -0.1196724 -0.16511276 -0.03417883 -0.23345672 -0.14722326 0.0070543657 -0.059336435
-0.16080932 -0.13808952 -0.050605554 -0.013680311 -0.31048277 -0.12937762 -0.00835598 0.23807225
-0.0915844 -0.010336859 0.0544614 -0.031713504 -0.15584461 -0.06708099 -0.06279669 -0.035690088
0.1429017 0.0026584312 -0.096772976 -0.05637904 0.0011793026 -0.13925481 -0.08834518 0.10233297
-0.21400397 -0.171002 -0.18096901 -0.11068293 -0.096532784 -0.1752922 0.007199585 0.028230494
-0.19458699 -0.21322487 0.08078465 -0.18625836 -0.07773449 -0.12329342 -0.22414629 0.00793639
-0.14887103 0.017176567 -0.051597025 -0.071748726 -0.19683237 0.053358596 -0.25834644 -0.075384475
-0.15168929 0.060468536 -0.022625353 -0.09543795 -0.06415611 -0.037184972 -0.22107944 -0.16755396
-0.025295222 -0.012707443 0.14445193 -0.03733896 -0.07604699 -0.056661915 -0.06353274 0.019742355
-0.12501399 0.010754077 0.10218586 -0.15371004 -0.0005904691 0.01148257 -0.14157844 -0.12927262
0.067901015 0.085871674 0.11128286 -0.078581885 -0.054852262 -0.023781681 -0.077839464 -0.16203974
0.13261738 0.05423095 0.10535299 0.16373286 -0.031054426 -0.095532484 0.10671627 -0.004891465
-0.3472857 -0.2506617 -0.19330774 -0.120431356 -0.06319157 -0.22340204 -0.13477038 0.010687467
-0.058406137 0.024781225 -0.13432775 0.13976707 0.022534909 -0.23914845 -0.12907527 0.068480976
0.004605169 -0.23492959 -0.1058249 -0.020750003 -0.035794307 0.07679876 -0.17426786 0.004874519
-0.053111903 0.11556214 -0.12896183 -0.24270095 -0.26039165 -0.22748144 -0.045242935 -0.027056139

bias_hh_l0 f4 [128]
00000000: 3f8d 18be b4f3 8abe 4e45 163e be04 55be
00000010: 0853 48bd bc6c 1cbe b3d2 53bd 4ddb 893d
00000020: b718 6cbe 1805 00be 27af 33be 5fca de3d
00000030: 1fe8 e6bd 9720 c3bd 64ac 1abd a634 2f3e
00000040: 5942 56bc 2d5e cabd c777 9c3d ea9b 3c3e
00000050: 2c20 52be 4552 3cbe dd1f ab3d 14ea c7bc
00000060: c9cc cfbd 5cca 2dbe a3de 35bc 79ef 853d
00000070: f84b a13b 21c3 a7bd 6d9c 81be e62d 59be
00000080: e160 69be 2a19 2fbe d590 8cbe 6fc1 01be
00000090: f907 3dbe 1023 52bd 412e f13c 5d9b 9abd
000000a0: 52ad 82be 9b4f 973c 0a9e f1bd c43f 323b
000000b0: d3f5 a7bd 28bf 11be 3446 32bd 6458 9a3d
000000c0: 7635 833d c0b9 f4bd 1211 c2bc a41f 62bd
000000d0: c178 00be 70f6 28bd a48a 863d b05b ecbd
000000e0: 9f0a 043c 4a02 44bc 195a 25be 6342 d0bd
000000f0: c7e5 8cbd 45e3 39bc 9935 3abe 4685 8abe
00000100: 4271 aa3d e64f 1b3e a5f1 18bd 755e 103c
00000110: fb27 0dbd 42f5 a33c 9c80 b83d aeec 4fbe
00000120: 2650 88bd ddfa 5b3d 7e3c 61bd a87b 29be
00000130: 8116 dcbd 4f49 da3d 5bbf 633d 125b 55be
00000140: f08e 053e ece3 5fbd e6c2 6c3d 293b 6abe
00000150: fd53 883d 13e3 b73d de9c 093e 5752 14be
00000160: 5fd8 da3d 6d75 2b3e 89dd bd3d 72f7 21bd
00000170: 8db6 093e cf5e 163e c277 703c 1ec8 8d3d
00000180: 3ffb 95bd d010 393d 4501 6bbd c6e5 e2bd
00000190: 2f83 5a3d 2197 bcbe 025f c03d a370 783d
000001a0: 89e4 5d3d d9fa 54bc 2020 66be 0514 db3c
000001b0: 1e05 4cbe 223f e7bd 21fd 14be 0ebc 053d
000001c0: 0b49 d0bd 9af0 89be 0480 c13d f842 df3d
000001d0: 8dd8 bebe 29a4 8ebd 3e85 10be 6c5d 4ebe
000001e0: 8346 933d 2c4e 6c3d 0a9a 44be 752d 3fbe
000001f0: 5b16 6cbe 0834 c63c 9a36 1cbe bed4 d53d
-0.14897631 -0.27139056 0.14674875 -0.2080259 -0.04890731 -0.15275854 -0.05171461 0.067312814
-0.23056303 -0.12501943 -0.17547284 0.10878443 -0.11274742 -0.095277004 -0.03776206 0.17109928
-0.013077342 -0.09881244 0.07640033 0.18418851 -0.20520085 -0.18390758 0.08355687 -0.02440361
-0.101464815 -0.16971725 -0.011100444 0.065398164 0.0049223863 -0.08191515 -0.25314656 -0.21208915
-0.22790863 -0.17099443 -0.27454248 -0.12671445 -0.18460073 -0.05130297 0.029441 -0.075491644
-0.25522858 0.018470576 -0.11797722 0.0027198652 -0.08201184 -0.14233077 -0.043523982 0.075363904
0.06406681 -0.119494915 -0.02368978 -0.055205956 -0.12546064 -0.041250646 0.06569412 -0.115409255
0.008059173 -0.011963436 -0.16147651 -0.10168912 -0.06879764 -0.011345689 -0.18184508 -0.27054805
0.083223835 0.15167198 -0.037339825 0.008811583 -0.034461956 0.020014409 0.09008905 -0.2030513
-0.06655912 0.05370604 -0.05498933 -0.16551077 -0.1074648 0.10658514 0.055602413 -0.20835522
0.13042808 -0.054660723 0.057803057 -0.2287413 0.066566445 0.08978858 0.13438746 -0.14484535
0.10685801 0.16744013 0.0927077 -0.039542623 0.13448544 0.14684604 0.01467699 0.06922935
-0.07323312 0.04518205 -0.057374258 -0.11078982 0.053347763 -0.36834052 0.09393121 0.060654294
0.054173026 -0.01299926 -0.22473192 0.026742944 -0.19923827 -0.112913385 -0.14549686 0.032650046
-0.10170182 -0.26941377 0.09448245 0.10901445 -0.3727459 -0.06964905 -0.14113328 -0.20152825
0.071911834 0.057691738 -0.19199386 -0.18669684 -0.23055403 0.024194732 -0.15255204 0.10440968

weight f4 [36, 32]
00000000: 942c fa3d 8ce3 43be e095 933d a613 0dbe
00000010: dfc7 59bd 65cb b7bb fcac b2bd ebfe 163e
00000020: b42c d73d 5c85 d03d 4026 d838 9456 e33b
00000030: f764 1bbe bd64 ea3c f82e ccbc bc89 bebd
00000040: 268b ce3b fa82 a8bc b0c6 ffbc 4b6b 97bc
00000050: f9ff 80bd 4beb 0dbe d68c 0c3c d464 99bc
00000060: ada8 72be 8d08 803d 68e2 eb3c 0bbf 2dbe
00000070: 172c 2a3d a9ed 0dbe 7737 04be f5bf 0cbe
00000080: b783 6e3d 96c7 f93d 9e60 113e f175 223d
00000090: dac6 8abd 8609 6d3d 50b7 0dbe 42f4 e03c
000000a0: ef96 bc3d 1832 1cbd 38e5 a83d b7dc aa3d
000000b0: 870e 3ebd 8caa 383d 8530 babd 66dc bd3d
000000c0: 6df4 d93d d498 b9bd 80ce ad3d 2059 4ebd
000000d0: 764a f73d 132d 71bc b06b f7bd 23a0 313e
000000e0: b527 3c3d d038 a03c 353a f3bd 5a39 1b3d
000000f0: 8f78 953c 6b53 2dbe 9f02 d2bd a459 fa3d
00000100: 778e 953d 2627 fb3d 227f b83d 6967 003e
00000110: e4bb 7dbd 165c b63d a602 d33c 7ab3 73bc
00000120: ba3e 8abc 322e 0c3d 5698 32be 2c25 2ebe
00000130: 70d3 cfbd 9989 8bbb 12d1 863d e78f e73d
00000140: aca8 213e bfab e73d cf79 55bd 050f 473c
00000150: 5566 09be 0975 83bd a83b 9e3b d5d4 52bd
00000160: f758 393e 1ff4 0d3e 8ad5 33bd 1833 f0bc
00000170: 4b4c ca3d 15bf 493e 59c7 163d baaf ebbd
00000180: a57f f53d 28e4 8fbd 8ea5 aa3d d7f4 6fbd
00000190: c62f 0fbd db7b d83c dece 5ebd f4ca 99bd
000001a0: f491 14bc 3180 aa3d ec26 383e 825a 433d
000001b0: 2db0 343d 559b 2f3d 0860 833d efc8 293d
000001c0: 583c ae3c fa86 1bbe 9856 a7bd f503 2dbd
000001d0: cce1 49be 18e3 71bd a3f6 28be 200d ac3d
000001e0: 8fb0 04be 2e7b 88bd b7a9 76bc cfa9 9fbd
000001f0: d651 fcbb e926 7f3d d0f3 00be 307b 1a3c
00000200: 3c69 283e 9458 f53d af85 62be e6b7 53bd
00000210: fb29 0abe 6088 33bc 41fe 283e 7aff 5ebd
00000220: c0ef 673d cade 8ebc ae75 5c3d e855 16be
00000230: 9fcf babd 629c 293e 2053 3cbe daaf 4dbc
00000240: d8f9 1b3e 49e0 4fbd ef16 9e3d 3f5d c5bc
00000250: f999 28bd 2b8a 963d 411e da3d 20eb 1fbc
00000260: 8c5d 243e 8760 0a3d 025f c33d 1206 e63d
00000270: 07ba eb3d dc6e 8cbd b90a 2e3e ca10 e7bd
00000280: 7849 d43d cf9b de3d 2e94 a0bc ee9b 793d
00000290: 733d 263d 4c16 cdbd cdcc fb3d 7e12 30bd
000002a0: 5ca8 ed3d 7d96 e7bd 9f2f 4fbd c00b cf3c
000002b0: a880 d93d ee1f fcbd 3e94 babd ef88 263d
000002c0: 5a0d bdbd d84d 9fbd 0337 af3d 48b2 b53d
000002d0: da57 523d 2ee8 233e 5bb9 083d be90 26bb
000002e0: 92e7 1d3d e519 673d 75f0 453e fb95 7dbd
000002f0: 1f08 5f3e 9cc3 4e3c 367e b2bd 0af8 8cbd
00000300: 55cd c4bd 07f6 383e 1ed7 ca3d 7638 af3d
00000310: e6b5 1abd 0d5a d5bd 606e cc3d 02cf debd
00000320: e30b c3bd 28dd b13d c465 4abe c483 19be
00000330: ab2c 573d 9830 4f3e 205d 4fbd 78a2 1bbe
00000340: 84e3 453e 008c e03d 8b9a bf3d b716 59bd
00000350: 31cd 9f3d 7185 ec3c e769 a83b f6f0 e9bd
00000360: 6ad2 8f3c 02d7 84bd 99f6 d73d 5c87 a13c
00000370: ca00 dc3d c5e3 53bc 9132 1f3e bb8f 21be
00000380: 2673 523d c25c 13bd 3e8f 183e 8b2d b43d
00000390: e098 e23c f010 653e 5508 5d3d ddf8 d0bd
000003a0: 0d86 113e bb37 913d c5b7 01be dc09 0bbe
000003b0: 860b e5bc 8522 1a3d 4e2e 453e 234b a33d
000003c0: a642 bcbd 307b d33a 600f adbd 431d dbbd
000003d0: 2367 053e 1461 54bd b8ce 0cbe 678d f63d
000003e0: 75d9 49bd 306b a8bd 8efd 9b3d 7d39 a5bd
000003f0: aaae b3bd 62ba 9dbd 3c5f e8bd 389c 92bd
0.12215534 -0.19129771 0.07206321 -0.13777027 -0.053169128 -0.0056089633 -0.087244004 0.14745681
0.10506573 0.10181686 0.00010306807 0.006937811 -0.15175234 0.028612489 -0.02492474 -0.093036145
0.006303209 -0.020570267 -0.031222671 -0.018483778 -0.06298823 -0.13859288 0.0085785 -0.018724836
-0.23697157 0.06251631 0.028794482 -0.16967408 0.041545954 -0.13860191 -0.12911783 -0.13745101
0.05823108 0.12196271 0.14197013 0.03966326 -0.06776209 0.05787041 -0.1383946 0.027460221
0.09208476 -0.03813371 0.08246845 0.08342879 -0.046400573 0.04508452 -0.090912856 0.09270553
0.10642324 -0.09062353 0.084866524 -0.050377965 0.12074749 -0.014720219 -0.12081087 0.17346244
0.045936305 0.01955834 -0.118763365 0.03789649 0.018245963 -0.16926353 -0.10254406 0.12224129
0.07302564 0.12263326 0.09008624 0.12539448 -0.061946765 0.08904283 0.025758099 -0.0148743335
-0.016875613 0.034223743 -0.17440924 -0.17006367 -0.101477504 -0.0042583463 0.06582846 0.11306744
0.15787 0.11312055 -0.05211812 0.012149577 -0.13417943 -0.06418807 0.004828889 -0.051472504
0.18100344 0.13862656 -0.04390482 -0.029321238 0.09877833 0.19701798 0.036811206 -0.115081266
0.11987237 -0.07025939 0.08332358 -0.058583107 -0.03495767 0.026426246 -0.054396503 -0.07509413
-0.009068001 0.08325232 0.17983598 0.047693737 0.044113327 0.042872746 0.06414801 0.04145139
0.021269009 -0.15188208 -0.08170813 -0.0422401 -0.19715041 -0.059054464 -0.16500334 0.08400941
-0.12957977 -0.0666412 -0.015055112 -0.0779606 -0.0077001853 0.062292967 -0.12593007 0.009428784
0.16446394 0.119797856 -0.22121309 -0.05168905 -0.13492577 -0.010957807 0.1650324 -0.05444286
0.056625128 -0.017440218 0.053823166 -0.14681208 -0.09121632 0.16563562 -0.18391085 -0.012554133
0.15232027 -0.050751004 0.07719218 -0.024092315 -0.041162465 0.07350572 0.10650302 -0.009760648
0.1605131 0.033783462 0.09539606 0.112316266 0.11510091 -0.06857082 0.16996278 -0.11282499
0.103655756 0.10869562 -0.019601908 0.06093972 0.040585946 -0.100140184 0.12294922 -0.042986386
0.116043776 -0.11308 -0.050582524 0.025274158 0.10620242 -0.123107776 -0.09110306 0.040657934
-0.09231062 -0.077785194 0.085554145 0.08871895 0.051353313 0.16006538 0.033379894 -0.0025415863
0.03855092 0.05642118 0.19330008 -0.06191061 0.21780442 0.012619879 -0.08715479 -0.06883247
-0.096094765 0.18062602 0.099043116 0.08555691 -0.037771128 -0.104175664 0.0998199 -0.10879327
-0.095237516 0.0868476 -0.19765383 -0.14991671 0.052532833 0.20233381 -0.05062592 -0.15198696
0.19325072 0.10964203 0.093556486 -0.05300018 0.07802809 0.028872224 0.0051395777 -0.11422913
0.017556388 -0.06486322 0.10545082 0.019717865 0.10742338 -0.012932722 0.15546633 -0.15777485
0.051379345 -0.035977133 0.14898393 0.08797749 0.027660787 0.22369742 0.053963024 -0.10203717
0.14211293 0.07090708 -0.12667759 -0.1357798 -0.027959596 0.037630577 0.19255945 0.079733156
-0.091924 0.0016134735 -0.08450198 -0.106989406 0.13027625 -0.051850393 -0.13750732 0.12038689
-0.04927965 -0.082235694 0.07616721 -0.08067606 -0.08773549 -0.07701565 -0.113462895 -0.071587026
