Comparative_Evaluation/Baselines/LSTM/models_m/model37.pt (torch, 137095 bytes, 10 tensors)

weight_ih_l0 f4 [256, 10]
000000 91 66 c7 bc 79 f2 5c 3c 91 51 85 3d 71 a3 ac bd
       -0.0243409 0.013485544 0.06509698 -0.084296115
000010 61 45 4e bd 77 55 5e 3d 7e ff 84 bd 9b 19 f1 bc
       -0.050359134 0.054280724 -0.06494044 -0.029431155
000020 d6 4a 8e bc e5 e0 14 b8 aa 5e c1 bd 7c 03 ae 3d
       -0.017369669 -3.54954e-05 -0.09441884 0.08496758
000030 4b ea 74 bd 0a 0d 95 bd 72 d9 d7 bc 3e e5 13 3d
       -0.05979375 -0.07277878 -0.026348803 0.036107294
000040 e7 94 48 3a b0 9d 24 bc 93 b3 9a bd a4 d6 60 3d
       0.0007651583 -0.010047361 -0.07553782 0.054892197
000050 a7 73 49 3d 6e 06 26 3c be f5 b3 bd 40 60 03 bc
       0.04918256 0.010133369 -0.08787106 -0.008018553
000060 f9 72 34 bd 87 5d 1f bc eb f8 9a bc 91 84 68 3a
       -0.04405496 -0.0097268885 -0.018917521 0.00088698516
000070 de fc 11 38 71 6f c4 bd af 8a 46 3d 7b f7 61 bd
       3.4806195e-05 -0.09591568 0.048472103 -0.055167656
000080 76 9b 70 38 3f 3d 93 3d dc 09 bb 3d 8e 70 92 3c
       5.7365243e-05 0.07189416 0.0913274 0.017875936
000090 39 7e b9 3c d4 80 ae bd 0d e3 93 bc 86 99 32 bc
       0.022643195 -0.08520666 -0.018052602 -0.010900861
0000a0 5e f7 21 3c ce 9d d2 3b 85 b4 c9 b9 14 75 b1 3d
       0.009885637 0.006427503 -0.00038472205 0.08664909
0000b0 20 14 dc bc fb bb ad 3d f5 83 c8 3d 71 54 a2 3d
       -0.026865065 0.0848312 0.09790794 0.07926262
0000c0 bc 29 16 bd 09 9f b2 3d 1f 3a 97 bd 82 74 70 bd
       -0.036660895 0.0872174 -0.073841326 -0.05870486
0000d0 30 45 6c bc b7 0a 44 3d 7c 49 6b ba 50 f8 77 bd
       -0.014420792 0.04786178 -0.00089754886 -0.060539544
0000e0 7b 96 de 3c d1 9f b0 3a 3b 11 80 bd f2 ef 62 3a
       0.027171364 0.0013475363 -0.062532865 0.00086569705
0000f0 ba 3a 93 39 b9 2b 28 3d 7c f8 d4 bc 68 26 bb bc
       0.0002808178 0.041057322 -0.025997393 -0.022845462
000100 08 fe c6 bd b3 75 cb 3d 10 ea 98 bd 40 ad 93 bd
       -0.09716421 0.09934559 -0.07466519 -0.07210779
000110 54 39 b6 bd b1 bb 1e 3d 65 20 e7 3c ae 7d 3f 3d
       -0.08897653 0.038753215 0.02821369 0.046750717
000120 d3 bc b4 bd 10 2e 58 3a 03 b2 25 3d 88 f4 6c bd
       -0.08825078 0.000824661 0.04045297 -0.05785039
000130 16 f4 86 bd 07 30 97 3d 1b 29 68 3d df 3c 9b bd
       -0.065895244 0.07382207 0.056679826 -0.075799696
000140 e0 d6 75 b9 89 68 94 3d c8 51 61 b9 4a 48 a7 3d
       -0.00023445068 0.07246501 -0.00021488138 0.08168085
000150 4f d8 86 bd 09 0b 97 bc 5a b7 74 38 7c 64 21 bc
       -0.06584226 -0.01843788 5.8344893e-05 -0.0098506175
000160 23 5e 1e bd 1f c3 15 3d 3c 74 c0 3c d8 e1 3c 3d
       -0.038663995 0.036563035 0.023492925 0.04611382
000170 9a 43 2c bd bd f7 0a 3c 61 ab 99 bd 05 52 f4 3c
       -0.042056657 0.008481917 -0.07503391 0.029824266
000180 b7 19 97 3d cc d1 ab 3d a6 1a aa 3d 54 97 c6 3a
       0.073779516 0.08389625 0.08305864 0.00151513
000190 c2 5e c6 bd 7e 2e 98 bd 93 ab a3 3d 0f 8f 30 3d
       -0.09686042 -0.07430743 0.079917096 0.04310518
0001a0 3f ab 84 3c fc 57 c1 bd 58 be 9e bd 6b 65 8b bd
       0.016194938 -0.0944061 -0.07751149 -0.06806453
0001b0 42 3b c2 3d f7 bc 36 3c b9 5a ce 3d ef 4c bf bd
       0.09483959 0.011153451 0.10075898 -0.09340846
0001c0 b8 8e c3 3d 5a 8d b5 bd 72 40 6a bd 60 50 a1 ba
       0.09548706 -0.08864851 -0.057190366 -0.0012307279
0001d0 6a 07 d7 3b 8c 08 97 3d ba 9c 8f 3d b2 b9 87 3d
       0.006562163 0.07374677 0.07012315 0.066272154
0001e0 b8 32 c5 3d 49 e5 1f 3d 5c 44 97 b6 0e 13 2b bd
       0.096288145 0.039037023 -4.5081088e-06 -0.04176622
0001f0 ad 43 c1 3c 36 7b cc 3d c6 91 89 bd 4f 10 5f bd
       0.02359184 0.09984438 -0.06717257 -0.054458912
000200 e4 a2 33 bd 9e 9b 12 3d c9 03 bd 3c 2e c1 3b bb
       -0.043856516 0.03579294 0.023073094 -0.002864908
000210 63 f7 30 3c 18 67 5c 3a 2a 2a 7f 3d 87 62 ea 3c
       0.010801169 0.0008407696 0.06229607 0.028611435
000220 78 67 96 b9 37 b0 c1 bd 04 52 1b bd 8b fe a5 3d
       -0.0002868732 -0.094574384 -0.037920013 0.08105191
000230 5f 9b 03 3d 8f ca 4c 3d 0e 0b b5 3c 56 04 be 38
       0.032130595 0.049997862 0.022099998 9.060714e-05
000240 5a 6d ab bc a0 ca 00 3c dd 17 e5 3c b7 c9 11 bc
       -0.020926166 0.00786081 0.02796548 -0.00889819
000250 e5 e1 9c bd 33 06 66 3c 30 f6 7e 3d 67 fe 9a bd
       -0.076602735 0.014039564 0.0622465 -0.07568055
000260 7d 32 63 bd b3 e1 98 39 cb 9f b7 3d e6 c4 03 bb
       -0.05546807 0.00029159858 0.08966025 -0.0020106374
000270 36 f6 ab bd 96 dc 88 3d 1a 90 8a bd 10 78 b9 bd
       -0.083965704 0.066826984 -0.067657664 -0.09056103
000280 e1 73 93 bc 1c d8 9f 3d 32 1f c6 bd 93 1b c2 3d
       -0.017999591 0.078048915 -0.09673919 0.094779156
000290 a7 de 27 bd 24 a1 8a bd e4 c7 b4 3d b6 5a 8a bc
       -0.040983822 -0.067690164 0.088271886 -0.016888957
0002a0 6c 3a 1c b8 7a 32 dc 3c b5 3e a9 bc a8 80 cb 3d
       -3.7247708e-05 0.026879538 -0.020659784 0.099366486
0002b0 d8 56 cd 39 03 2b be 3d 75 8e 61 38 e5 2e 55 39
       0.0003916535 0.092855476 5.3776854e-05 0.00020330733
0002c0 08 6b 51 3d 92 4a c4 3d db 61 a9 bd a3 d4 87 bd
       0.051127464 0.09584536 -0.082706176 -0.06632354
0002d0 79 3f a0 3d 5c f7 b8 bd fa 21 11 bd b6 cf a1 3d
       0.078246064 -0.09031555 -0.035432793 0.07900946
0002e0 a7 df 95 3c 4e 31 8f 3d d5 a4 5f 3c af 5c 8b 3b
       0.018295122 0.06991826 0.013650139 0.004252992
0002f0 98 4b 91 3d f7 2f 26 bd 29 83 30 3d 2b a9 c6 3d
       0.070944965 -0.040573087 0.043093834 0.09700235
000300 52 f2 cb bd 50 75 bc 3d 57 7c 48 bb bd ed af bd
       -0.09958328 0.09202063 -0.003059169 -0.08590267
000310 d4 8f 01 37 ff 20 f5 bc 66 4f 7d bc c6 61 5e bd
       7.722487e-06 -0.02992296 -0.015460825 -0.054292463
000320 05 d8 b8 bd 9a 74 74 bd af c5 46 bd 5e 50 92 39
       -0.090255775 -0.059681512 -0.04852837 0.00027907168
000330 ba d4 a9 bc 6c 5c 38 bc 06 e2 87 bd 7f db d1 3a
       -0.020731319 -0.011252504 -0.066349074 0.001601085
000340 08 27 1d 3b f1 46 98 bc 0a 78 3e 3a 43 6d ad 3c
       0.0023979563 -0.018588515 0.0007265812 0.021170264
000350 56 6c d7 3b dc ba fc 3b c6 35 72 bd e9 c1 aa 3d
       0.006574194 0.007712705 -0.059133314 0.08337767
000360 69 b7 64 bd 70 4b 09 bc f4 38 91 3c 9a db ac 3d
       -0.055838976 -0.008379802 0.017727353 0.08440323
000370 e7 5e e4 3c 7a 15 1e bd 3d 05 b0 bd c7 1b 64 b8
       0.027877284 -0.0385947 -0.08594749 -5.4385306e-05
000380 38 f2 ed bc 5c 38 03 3d a9 b4 8c 3d bf 8b f3 bc
       -0.029046163 0.03203617 0.06870396 -0.029729722
000390 e6 b3 1c 3a 17 f1 4f 38 9c a4 91 b9 85 22 b1 b8
       0.00059777347 4.957718e-05 -0.000277792 -8.4464475e-05
0003a0 c5 7e 90 3d 29 65 97 bd 80 9e 77 bc bc be 6a 3d
       0.07055429 -0.07392342 -0.015113473 0.057310805
0003b0 6f 90 5e bc 78 bd 1a bd ad 1d aa bc f0 32 6e bb
       -0.01358424 -0.037778348 -0.020766104 -0.003634628
0003c0 8b 72 84 3d ef 8a e2 b7 f5 6a 42 bd ce 0c 13 bc
       0.0646716 -2.7005995e-05 -0.047465283 -0.008975221
0003d0 80 86 aa 3b 8f 4a ad bd 3b 53 9a bd 47 fc 90 bd
       0.005204022 -0.084614865 -0.07535406 -0.07079368
0003e0 dd 35 0c bb 07 e9 e8 b7 21 be ad 3d 21 58 8c bd
       -0.002139441 -2.7765067e-05 0.0848353 -0.06852747
0003f0 9e 63 53 36 a6 42 77 bd ff 0d 65 3d 3b 89 8a bc
       3.1499435e-06 -0.060366295 0.05592155 -0.01691114

weight_hh_l0 f4 [256, 64]
000000 12 5c b1 bd 49 fb eb bc fb be 80 bd 8c 1b f3 3d
       -0.08660139 -0.028806346 -0.06286427 0.118704885
000010 72 36 04 3e 2a 17 b7 bd ea ce 67 3c ef 55 12 3c
       0.12911394 -0.08939965 0.014148453 0.008931621
000020 b0 5b a5 bd 0d d1 06 bc 5b d6 44 3d 9b 2f cb 3d
       -0.08074129 -0.0082285525 0.048055988 0.099211894
000030 b7 33 e4 bd cf f5 bd 3d 75 3b d9 3b d8 a5 e3 3d
       -0.11142676 0.092754 0.0066294023 0.111156166
000040 db 66 ff 3d 4f 8f 1b bd a5 df d0 bc d2 ee 45 bd
       0.1247079 -0.037978467 -0.025497267 -0.04832346
000050 49 94 a8 bd 44 5e e2 bc 74 6c 19 bd 6b bb 84 bc
       -0.08231408 -0.02763284 -0.037456945 -0.01620265
000060 10 dc 0b bc 78 a2 d2 bd a0 19 00 3b 3f c3 98 3d
       -0.008536354 -0.10284895 0.0019546524 0.07459115
000070 19 89 3a 3d 88 b6 87 3d aa 42 98 bd ae 39 fa bd
       0.045540903 0.06626612 -0.0743459 -0.12218033
000080 9d 29 bc 3d 4c e7 ab 3d c3 fa 97 3d 7a 03 dc bd
       0.091876246 0.08393726 0.07420876 -0.107428506
000090 ea 2d cc 3d c6 09 f5 3c de 7c 9e bd bb 86 ff bd
       0.09969695 0.029911887 -0.0773866 -0.1247687
0000a0 d9 f5 8f bd c7 a4 d3 bd 67 c0 e3 bc 8d 37 b5 bd
       -0.070293136 -0.10334163 -0.027801706 -0.08848486
0000b0 d0 6b 97 3d f2 ab 8c 3d 7c 17 01 be 66 b3 cd 3d
       0.073936105 0.068687335 -0.12606615 0.10043983
0000c0 69 40 d3 3b 92 68 c5 bd 44 69 9d bc ae 39 0b 3d
       0.0064468873 -0.09639086 -0.019215234 0.033990555
0000d0 a7 6f 74 bd 1e 9f bd 3d b7 c7 8b bd cd 98 e9 3d
       -0.059676792 0.09258865 -0.06825202 0.114060976
0000e0 54 f0 8a bc 50 a6 05 3e ab de 95 3c 4c 22 39 bc
       -0.0169603 0.13051724 0.018294653 -0.011299681
0000f0 30 cf bd bc 9f e8 6f bd e4 34 18 3d 41 2a 8b bc
       -0.023170084 -0.058571454 0.037159815 -0.016987922
000100 c7 d7 92 bd a3 a9 0b be 43 f9 cd bd fa bf b3 bc
       -0.071700625 -0.1363893 -0.100573085 -0.021942127
000110 4f 83 bb 3d fb 82 b8 bb 2a 4e d9 bd fe 22 86 3d
       0.091559045 -0.0056308485 -0.10610612 0.06549643
000120 47 ab c9 bd a0 9b fb bb 1a af 36 3d a6 49 6c 3d
       -0.09847122 -0.007678464 0.044600584 0.057687424
000130 6f 20 95 3d 60 6b 88 3c 03 17 c5 bd 3f 8c 10 3d
       0.07281577 0.016652763 -0.0962353 0.03529
000140 f8 94 81 3d 08 18 84 bd 13 27 a5 bd c8 d8 a4 3d
       0.06327242 -0.06449896 -0.080640934 0.0804916
000150 79 d8 52 3d 8a b5 a7 3d 98 a7 12 bd 48 bc 71 bd
       0.051475976 0.08188923 -0.03580436 -0.05901745
000160 90 a3 c8 bd 5d 7d cc 3d 5f ae 5b 3d f8 27 19 3d
       -0.09796822 0.09984849 0.05363309 0.037391633
000170 0f 38 9b 3d bf e0 40 3d 84 41 d9 3c f3 65 29 bd
       0.07579052 0.047089335 0.026520498 -0.041356992
000180 53 51 9e bd fd 9e d2 3d 22 34 cf bd 30 af d0 3d
       -0.07730355 0.10284231 -0.101173654 0.10189664
000190 0f 85 7c 3c 9b be 44 3d db 14 12 be a7 d1 b5 3b
       0.015412583 0.048033338 -0.14265768 0.005548674
0001a0 10 53 ee 3d 82 a2 b2 3d 71 14 01 bd ed f7 b1 bc
       0.11636937 0.08722402 -0.031513635 -0.021724666
0001b0 45 e2 d3 bc 27 c2 d1 bd ad 6a 3a bc 4b e1 08 be
       -0.02586473 -0.1024211 -0.011377973 -0.13367192
0001c0 4f a1 08 bd 82 b6 1c bd d5 80 98 3c 28 35 7e bd
       -0.03335696 -0.03825999 0.01861612 -0.062062413
0001d0 0d 2c c2 bd 82 2e d7 bd 38 5c 00 3c df 9d 9f bd
       -0.09481058 -0.105069175 0.007834487 -0.077937834
0001e0 c1 a7 6d 3d da 33 e0 bd ba a8 7f bd ef 9d e0 bd
       0.05802131 -0.1094739 -0.06241677 -0.109676234
0001f0 9e fd 49 bd a6 b4 81 bd 1c 9a 3a bd 3a 5e ec 3c
       -0.049314134 -0.06333284 -0.045557126 0.028853524
000200 4c da 96 3d 95 ae bd 3d 0c de 6e 3d 2f de 25 bd
       0.073658556 0.092618145 0.05831723 -0.040495094
000210 9c 0e f7 3d a3 55 89 bd 65 34 a1 bd 28 e2 3d bd
       0.120633334 -0.06705787 -0.078713216 -0.046358258
000220 d9 7e 93 bc 46 44 c7 3d 59 b8 92 3c 8e a3 d7 bb
       -0.018004822 0.09729819 0.01791017 -0.0065807765
000230 ab d2 93 bc 37 c0 f4 bd ce 72 64 3d f3 39 3c bd
       -0.01804479 -0.119507246 0.05577355 -0.045953702
000240 f4 93 8b bc 6f 6f c0 3d 27 a2 b5 bd f1 c1 f3 bd
       -0.017038323 0.09396254 -0.08868819 -0.11902226
000250 f9 93 07 be ec fe ed 3d fa d5 d2 bd a8 a3 f3 3d
       -0.13240041 0.11620888 -0.10294719 0.11896449
000260 79 86 76 bd 0a af 8f bd 44 21 5f 3d 24 f5 9f bd
       -0.060186837 -0.07015808 0.054475084 -0.07810429
000270 d3 01 9e bd de dc 23 bd 34 79 01 3e 2a e6 bc bd
       -0.07715192 -0.040005557 0.12643892 -0.09223588
000280 53 6c 4d 3c 5f 33 99 bc 8f 05 ff 3c 13 c3 ae 3d
       0.012538034 -0.018701253 0.03113058 0.08533301
000290 8c 97 98 bd ec 5b b0 bb ca 6e 01 bc 33 3e 99 bd
       -0.0745078 -0.0053820517 -0.007899949 -0.07482567
0002a0 c8 be 98 bb 1c 44 3a bc 0f 16 28 bd 51 c7 63 3c
       -0.004661415 -0.011368778 -0.04103666 0.013902501
0002b0 b7 c8 e1 bd 3f 5d 81 3c 0f ae a4 3c bf 70 8f 3c
       -0.110246114 0.015791534 0.020102529 0.017509816
0002c0 8e 4f d2 3d da ae 29 bd 83 36 8f bd 20 68 4d 3d
       0.1026908 -0.041426517 -0.06992819 0.05014813
0002d0 12 b0 02 be 55 0f ad bd 54 ea 08 bd e1 d2 98 bd
       -0.12762478 -0.0845019 -0.033426598 -0.07462097
0002e0 13 00 61 bd 31 f6 f7 3d e6 7b 51 3c 32 92 12 3d
       -0.05493171 0.12107504 0.012785887 0.035783954
0002f0 f0 f4 a5 bc a1 49 eb bd 6e 1b 9e bc 2d b1 63 3d
       -0.020258397 -0.11488653 -0.019300189 0.05558889
000300 58 e8 f1 bd 5f d4 e9 bd d1 2b 84 3d 02 84 af 3c
       -0.11811894 -0.1141746 0.0645367 0.02142525
000310 7e 15 eb bc 01 1b d1 bb 72 2b 80 ba 98 aa 27 3c
       -0.028696772 -0.006381393 -0.0009778573 0.010233544
000320 7b ec cf bd 21 59 b9 bd 58 8e 0c bd 28 68 a7 3d
       -0.10152527 -0.09050203 -0.034315437 0.08174163
000330 b9 fa 94 3d ec 00 94 3d 23 2a 54 3d 29 7f 89 bd
       0.07274384 0.07226738 0.051797997 -0.06713707
000340 2b 6d cb bb b4 58 e1 3b c5 70 12 3d 05 f2 82 bc
       -0.006208082 0.0068770293 0.035752077 -0.015984545
000350 05 bc 13 3e 2f 32 0d 3d 33 e1 c5 3c 34 7e e1 bc
       0.14427193 0.034471687 0.024155235 -0.027525999
000360 56 5b 4a bd f2 49 10 3d 45 13 73 3d e2 78 9d 3d
       -0.04940351 0.03522677 0.05934455 0.07689072
000370 91 9c e5 3c 03 3a a3 bd 8b c9 26 bd 85 28 51 3a
       0.028028758 -0.07970049 -0.04071955 0.0007978755
000380 d4 df 9f bd b1 a6 e7 bd 42 be 63 bd ef c9 f3 3d
       -0.07806364 -0.11311091 -0.055601366 0.1190375
000390 25 69 cd 3d 32 37 65 bd 30 e6 01 be 31 d3 6b 3b
       0.1002982 -0.05596084 -0.12685466 0.0035984034
0003a0 1d 4e b8 3c 5c da c7 bc 0f 9f 48 3d 2b b4 e7 3c
       0.022498185 -0.024396114 0.048979815 0.028284153
0003b0 da 1b e2 3d a7 0f 94 b9 38 18 bb 3d f7 c0 75 bd
       0.110404685 -0.00028240422 0.09135479 -0.05999848
0003c0 1c d6 f6 3b 38 a7 fd 3d 82 90 07 be 8a a6 bb bc
       0.007532848 0.1238541 -0.13238719 -0.02290656
0003d0 b0 70 94 3d b1 86 06 be 0a 58 10 3e c2 20 76 3d
       0.07248056 -0.13137318 0.14096084 0.060089834
0003e0 ef 3e 8f bc 1d d2 25 bd 8d eb 14 bd 7f 14 86 3c
       -0.017486064 -0.040483583 -0.03635745 0.016367195
0003f0 79 3f 63 bc 79 d0 f6 3d 2f a2 66 bb 04 b7 a3 bc
       -0.0138701135 0.12051482 -0.0035191884 -0.01998473

bias_ih_l0 f4 [256]
000000 07 2d bb 3d d3 4e 22 bd cf f5 e9 bd 8c 01 38 bd
       0.09139448 -0.039625954 -0.114238374 -0.04492335
000010 85 3a e8 bb 6d 8a cd bd 0a eb fb 3c b6 3f f8 bc
       -0.007087054 -0.10036168 0.030751724 -0.030303817
000020 8c 25 f2 3d 37 e6 c4 bd b9 38 56 3d 92 16 a4 bc
       0.11823568 -0.096142225 0.05230019 -0.020030294
000030 e9 27 98 bd 08 c7 91 3d 8e 28 7e 3c 4d af bc 3d
       -0.07429487 0.0711804 0.015512599 0.092131235
000040 f1 3c 50 bc e7 96 6a bd f5 37 b3 3d d2 44 53 bb
       -0.012709842 -0.057272818 0.08750907 -0.0032237065
000050 94 80 b8 3d b5 f9 fd bd 9a b0 16 3d 7d e1 85 bc
       0.09008899 -0.124011435 0.036789514 -0.016342873
000060 45 d5 4d bd 5a 2c d8 bd cc b4 af 3d ed 17 a7 bd
       -0.050252218 -0.105553344 0.08579406 -0.0815886
000070 c2 61 f0 3d 71 f8 ca 3d 5b d8 fe bd 3c be 7b 3d
       0.11737396 0.09910668 -0.1244361 0.06146072
000080 11 4b 7d bc 4b de 45 bd c2 92 4d bc 0f 4e 03 3e
       -0.015459792 -0.0483077 -0.012547197 0.12822746
000090 6c 59 c4 3d 7a f1 48 bd c1 34 c3 bd 2e 01 ca 3d
       0.09587368 -0.049058415 -0.095315464 0.09863506
0000a0 63 09 c1 bd a0 15 90 3d 25 b6 01 3c c7 7a 10 3e
       -0.094256185 0.07035375 0.007916962 0.14109336
0000b0 f0 5e ac bd 29 72 8e bc 44 a9 91 3c e9 8a 4b bd
       -0.084165454 -0.01738842 0.017780907 -0.049693022
0000c0 81 89 af bb 4b 80 0d 3d ee e6 cc 3d 16 81 97 bd
       -0.005356968 0.034546178 0.10004984 -0.07397668
0000d0 3e 11 58 3d f8 d5 9c bc 35 95 d6 3d ad a1 b5 3d
       0.05275082 -0.019144997 0.10477678 0.08868728
0000e0 48 c8 41 3d fc ff 3d bc c0 13 04 be c0 bb d2 3c
       0.047310144 -0.011596676 -0.12898159 0.025724292
0000f0 6d ac cd 3d 1c 59 cd 3d c4 4b 4f bd 86 73 6d bd
       0.10042653 0.10026762 -0.050609365 -0.0579715
000100 b6 45 26 bb 69 00 37 bd 7d 6f d1 3d 47 1f 5f 3d
       -0.002537114 -0.044678126 0.10226343 0.054473188
000110 91 38 a2 bd d9 b7 d4 bd 08 93 f1 3d 25 42 32 3d
       -0.079209454 -0.10386629 0.11795622 0.04352011
000120 7c 0e e6 3d 00 66 b4 3d a9 9b 27 3c e4 f5 ba 3d
       0.112332314 0.088085175 0.010229983 0.09128931
000130 74 94 76 bc ee a2 bc bd ec 1c 7e bd d2 b5 93 bd
       -0.015050042 -0.09210764 -0.0620393 -0.07212414
000140 f5 49 83 bd 10 a1 16 bc 14 af b3 3d 10 78 82 3d
       -0.064105906 -0.009193674 0.08773628 0.06370556
000150 fb a4 50 3d aa 80 e6 bd 78 5b c0 3d aa 32 b0 bd
       0.050938588 -0.112550095 0.09392446 -0.086034134
000160 40 59 ef 3c 4a 30 19 3d 51 fd 5d 3d d2 bb 23 bd
       0.029217362 0.037399568 0.05419666 -0.03997404
000170 75 ec 9f 3d f1 f7 9b 3d 67 a2 c6 3d fb 5e 29 3c
       0.078087725 0.076156504 0.096989445 0.0103375865
000180 d1 46 b4 3c 86 e3 b8 bc 80 97 ea bd 53 6c eb bd
       0.022006424 -0.02256943 -0.114546776 -0.114952706
000190 d6 c9 6a 3d 3e 06 70 bd 96 07 2c bd fc b6 ea 3c
       0.057321392 -0.058599703 -0.041999422 0.028651707
0001a0 e5 d6 22 3d ee 30 5d 3d b2 b1 53 3c 18 7b 06 3b
       0.03975572 0.05400174 0.012920784 0.0020520147
0001b0 ae e9 f5 bd 54 c9 e4 3d 55 63 ce 3d 8f c4 c7 3d
       -0.120074615 0.11171213 0.1007754 0.097542875
0001c0 fd 33 4d bd a3 72 75 3c 67 ff cc bb 31 7e 96 bc
       -0.050098408 0.014980945 -0.0062560323 -0.01837072
0001d0 5a d9 41 bd a9 45 3e bd c7 88 4d bd 94 a7 d9 bd
       -0.047326423 -0.04645315 -0.05017927 -0.10627666
0001e0 96 db e5 3b c6 e7 e1 bd 80 07 d5 3d 58 00 01 3d
       0.007014702 -0.110305354 0.10401821 0.03149447
0001f0 e6 ae 3e bd 86 43 c0 3d b6 33 b1 bd ad b2 98 3b
       -0.046553515 0.09387879 -0.08652441 0.0046599717
000200 66 6a 0e bd de 6a 0f be bc 10 d7 bd a2 d3 5a bc
       -0.03476944 -0.1400561 -0.10501239 -0.013356121
000210 0a 8a af 3c 1f 52 ac bd 98 e3 9a bd 6f f6 91 bd
       0.021428127 -0.08414101 -0.07562941 -0.071270816
000220 41 1e 6c 3b f1 58 0a be 4d 59 14 3d 6b 49 5e bd
       0.0036028775 -0.13510491 0.036217976 -0.054269236
000230 e0 d4 cb bd 4e 88 a6 bc dd c7 d0 bd dd 88 82 bd
       -0.09952712 -0.020328667 -0.10194371 -0.06373761
000240 ab 1b 1e 3d c7 2f 13 bd 42 ab 17 bd dd 86 b9 3d
       0.038600605 -0.035934236 -0.03702856 0.09058926
000250 8a f3 10 3c ac e5 a1 3d 3a 9f d9 bd b0 0d d7 bd
       0.008847127 0.079051346 -0.10626073 -0.105006576
000260 3f e1 24 3d d3 2f 85 bd 80 78 f8 bc 74 0f f0 3d
       0.040253874 -0.06503262 -0.030330896 0.117216974
000270 9b ff 65 3d 30 6b c8 3d 99 ea b7 3d 2e d5 93 3d
       0.056151967 0.097860694 0.08980293 0.07218395
000280 9d 0f d1 3d 8e 3b d5 3c fd 9d e4 bc c5 ad 0a 3e
       0.10208056 0.026029374 -0.027907366 0.1354285
000290 87 c1 c8 bd 92 9f ba 3d 7a 67 ae b9 f0 a0 a1 3d
       -0.098025374 0.09112467 -0.00033264962 0.078920245
0002a0 47 f9 0d 3d ca df cd bc 7b 0c fa 3d e4 d4 39 3a
       0.034661558 -0.025131125 0.12209412 0.0007088913
0002b0 47 33 a1 3d 0d e1 ff bd ec 7e 8a bd e1 ab 77 bd
       0.078711085 -0.12494097 -0.0676249 -0.06046665
0002c0 42 0e f5 3c 2d 98 bc 3d c1 17 e0 bd 6a 87 f0 bc
       0.029914025 0.09208713 -0.10942031 -0.029361445
0002d0 6e e9 87 3d d4 2e 2c bd 94 85 ac bc a5 7d 36 bd
       0.0663632 -0.042036846 -0.021059789 -0.044553418
0002e0 92 96 d9 3d a1 7a 19 3d 0f e9 67 bb ab 7c fc bd
       0.10624422 0.037470464 -0.0035386716 -0.12328466
0002f0 56 bb 62 3d 6e cb cb 3d ed 92 b9 bc 22 ee c7 3d
       0.05535444 0.099509105 -0.022653067 0.09762217
000300 c2 34 f5 bd 30 e7 c2 3d 32 af 05 be 88 63 61 bc
       -0.119729534 0.09516752 -0.13055113 -0.01375664
000310 0c 0b e3 3d 5b 6c 0c bd 0f fa dc bd 8d 0c e7 3c
       0.110860914 -0.034283023 -0.107898824 0.028204227
000320 fe f4 5c 3c 3a 22 7d bd 57 fd d8 bd a4 e6 06 bc
       0.013486145 -0.06180022 -0.10595196 -0.0082337
000330 ff 81 5a 3d 56 30 28 bd 3e f8 41 bd 6e 50 b7 bd
       0.05334663 -0.04106172 -0.047355883 -0.089508876
000340 1f 3d 82 3d 3b b9 3c 3d c3 dc 23 3d b8 8f cc 3d
       0.06359314 0.046075087 0.040005457 0.0998835
000350 f6 fd 64 bd 2f 5b 40 bd e1 c7 27 bb ed 8f d0 bd
       -0.05590626 -0.04696196 -0.0025601315 -0.10183702
000360 e0 33 d0 3c c8 b6 5c bd ea 25 e6 bd 89 05 7d 3d
       0.02541536 -0.05388525 -0.112377 0.061772857
000370 fe 48 6a 3b 98 a4 52 bc 75 61 da bd a3 52 91 bd
       0.0035749073 -0.012856625 -0.1066312 -0.0709584
000380 92 0f 51 bd fe 84 70 bd b5 b4 88 3d fc c8 09 3e
       -0.05104024 -0.05872058 0.06675092 0.13455576
000390 f8 92 81 3d b7 eb e5 3d 8d 46 47 3c 6d e0 3f 3d
       0.0632686 0.112266 0.012162817 0.04684489
0003a0 bb d5 5e bc 44 7b 37 3d cc 7a 92 3d a7 e4 01 bd
       -0.013600762 0.04479529 0.07152328 -0.0317122
0003b0 2c e4 2a bd 6a a4 8e 3c 1b 7f 86 3c 4e d0 97 bd
       -0.041721508 0.017412383 0.01641803 -0.07412778
0003c0 ec df 03 be 99 07 08 be 16 ba e1 3d 04 56 4f bd
       -0.12878388 -0.13284148 0.11021821 -0.05061914
0003d0 f7 1a 96 3d 16 e3 a5 3d 67 6c b1 bd 2f 31 37 bd
       0.07329362 0.08099954 -0.08663254 -0.04472464
0003e0 85 39 32 bd b6 95 9e 3d f5 db cf bd e6 3c fe 3b
       -0.043511886 0.07743399 -0.10149375 0.0077587245
0003f0 ce d6 f4 3d c0 fc d7 bd 0a 1b 31 bd 90 87 9d bd
       0.11955033 -0.10546255 -0.043238677 -0.07691872

bias_hh_l0 f4 [256]
000000 ed cd b5 bc 0f 2c 35 3d 33 16 a3 3d 56 4d 44 3d
       -0.02219292 0.04423147 0.079632185 0.047925316
000010 b4 3c 8e bd f2 9c a6 bc 56 af ba bc 54 67 ce 3c
       -0.06945172 -0.02033851 -0.022788685 0.025195755
000020 62 ac 2d 3d c1 8e 22 bd 8e 67 a7 3d 05 08 0d 3e
       0.042400725 -0.039686922 0.08174048 0.1377259
000030 52 57 3d bd 62 0b 02 3e 79 f2 ae bb dc 46 ca bd
       -0.046225853 0.12699655 -0.0053389636 -0.098767966
000040 2f d4 b7 3d 85 8e bc 3c 0f 28 40 bb 43 30 63 3d
       0.08976018 0.023017177 -0.0029320752 0.055465948
000050 85 87 ec 3b 4c 2d 81 3d 16 b0 21 3b ee 26 0f bd
       0.0072183036 0.06307468 0.0024671606 -0.034949236
000060 24 7d a8 3d 3f 2c 52 bb 47 20 23 bd 52 6d cc bd
       0.08226994 -0.003206983 -0.039825704 -0.09981789
000070 0d a2 ec bd ce 8e 51 3d e7 90 c5 bd 33 89 5c bd
       -0.11554346 0.05116158 -0.096467786 -0.05384178
000080 6b 7f a4 ba 8f ed af 3c 85 30 9d bd 7e db 00 3e
       -0.001255018 0.021475581 -0.0767527 0.1258373
000090 bc d9 3d bd a4 80 12 3e f3 47 dc 3d e2 eb 03 3e
       -0.046350226 0.14306885 0.10755911 0.12882951
0000a0 4f e8 72 3c d9 25 54 3d 13 84 d8 bc b2 1c 8e 3c
       0.0148258945 0.051793907 -0.026430165 0.017347667
0000b0 8d f1 4b bd ff 05 f1 3d 40 b4 91 3b 91 35 30 3d
       -0.049790908 0.11768722 0.0044465363 0.043019835
0000c0 9a f2 17 bd 30 8d 53 3a f2 bb cf 3d 35 f4 f2 3d
       -0.037096597 0.000807005 0.101432696 0.11862985
0000d0 fe d1 05 3e 7a 87 d2 bd c9 13 e5 bb 83 33 cb 3d
       0.13068387 -0.10279746 -0.006990884 0.099219345
0000e0 24 c5 99 bd db 4a e2 3d c9 6a e7 bb 09 a6 df 3d
       -0.07508305 0.11049434 -0.0070622903 0.109203406
0000f0 2f 6e 78 3d a7 1f 7f 3d 43 e4 05 be a7 c4 56 3d
       0.060651954 0.062286045 -0.13075356 0.052433636
000100 dc d3 c6 3d 37 be f2 3d 5f 6f d5 3b 76 cf 08 3d
       0.09708378 0.11852687 0.0065135206 0.033400975
000110 16 38 b4 3d af 9a 08 be 45 4e a3 bc d8 4b 77 bd
       0.0879976 -0.13340257 -0.019934783 -0.060375065
000120 82 49 16 bd 97 81 ff 3c 86 62 b4 bd af 1e 88 3d
       -0.036691196 0.031189723 -0.08807854 0.066464774
000130 28 9c cc bd f6 23 bb bd a5 07 67 bc 1b b5 43 bd
       -0.09990722 -0.091377184 -0.014100944 -0.047780138
000140 65 ca d5 bd d2 6f ab bd 92 eb 45 bc 23 fb 30 bd
       -0.10438994 -0.083709374 -0.01208009 -0.043208253
000150 f2 e4 a7 3d 85 89 84 3c cc 02 60 bb 7a 0f 21 bd
       0.08197965 0.016178856 -0.0034181355 -0.0393214
000160 71 45 dc 3c 95 81 72 bd 43 e4 af 3d 60 35 b9 bd
       0.026888581 -0.05920561 0.08588459 -0.090433836
000170 f8 54 09 bd b5 95 9c bd e4 bb 3f bd 5b 28 12 3c
       -0.0335283 -0.07645742 -0.046810046 0.008920754
000180 aa c4 e3 bd 10 b6 b6 bd 63 ae f2 3c 40 6d 22 3c
       -0.11121495 -0.089214444 0.02962417 0.009913743
000190 ed ff 01 3d a5 2c ee 3d 12 e3 68 bd d8 76 97 bd
       0.03173821 0.11629609 -0.056857176 -0.073957145
0001a0 48 ce d1 3d a5 94 ba bd a8 19 aa 3d e4 e4 64 3c
       0.10244423 -0.09110383 0.08305675 0.013970587
0001b0 92 25 da 3d d9 f1 a1 bc 2f a6 f6 3b e5 57 53 bd
       0.10651697 -0.019768642 0.007527135 -0.051597495
0001c0 47 e4 df bd 9d 79 ca 3d 22 c1 a6 bc 57 8a c8 3d
       -0.10932212 0.09886477 -0.020355765 0.09792011
0001d0 7b d2 7d 3d 91 4b 83 3d 8c 48 52 3d c7 50 bf bc
       0.061968308 0.064108975 0.051338717 -0.023353947
0001e0 70 cd 74 bd d5 ed e9 bd 4b e3 cc 3d f1 69 79 bd
       -0.059766233 -0.11422316 0.1000429 -0.06089205
0001f0 34 bf af bd 95 d3 f1 bd 1e cd 99 bd 88 d9 94 bd
       -0.08581391 -0.11807934 -0.07509826 -0.07268053
000200 81 95 75 bd 7f 33 04 be a7 cc e3 3d 43 5c 04 be
       -0.05995703 -0.12910269 0.11123019 -0.1292582
000210 9e b2 66 bd 69 96 80 3d c8 48 fc bd 01 3c a2 bd
       -0.056322686 0.062786885 -0.123185694 -0.07921601
000220 6a 7d a3 3d dc 39 6b bb 0e 1b c8 bc a1 ef 50 3a
       0.07982905 -0.0035892641 -0.024426963 0.0007970278
000230 3b 3c 45 bd cb f7 aa 3d de d4 30 3d a2 a9 53 3d
       -0.048153143 0.08348044 0.043171756 0.051675446
000240 2a 61 9d bd 4a 9c d7 bd 32 07 f4 bd 78 6a 0d bc
       -0.07684548 -0.10527857 -0.11915435 -0.008631341
000250 1f 51 a2 3d a1 97 b0 bd 29 30 0e bd 3c 2a 6b 3d
       0.07925629 -0.08622671 -0.034713898 0.057413325
000260 e3 77 be 3d ca 4e 68 bc 86 73 53 bd f7 53 47 3d
       0.0930021 -0.014178941 -0.051623844 0.04866406
000270 cf 8c af 3d 22 2d a6 3d 48 68 b1 bd ba 83 81 3d
       0.08571779 0.08114077 -0.08662468 0.06323953
000280 e6 e9 d4 bd a6 7c eb bd 86 16 50 3d 33 0b 87 3d
       -0.10396175 -0.11498384 0.05080273 0.06593933
000290 15 5b 11 be d7 d5 e9 bd 12 33 e1 bd 13 2d 68 3d
       -0.14194901 -0.1141774 -0.10996069 0.05668361
0002a0 7f 6e 3d 3d 98 19 66 bd d5 f3 e3 3d 0f f5 12 3e
       0.046247955 -0.05617675 0.11130492 0.14351295
0002b0 15 5e 85 3d ff 75 c2 3d 72 45 de 3d df 0e b1 bd
       0.06512085 0.09495162 0.108530894 -0.086454146
0002c0 1f ab 8d 3d 31 07 8e 3d 31 50 bf bd c2 be 04 3d
       0.069174044 0.069349654 -0.09341467 0.032408483
0002d0 9f 64 e0 bd 7c 25 6a 3c da b9 c9 3d 65 fc db bd
       -0.10956692 0.0142911635 0.098499015 -0.107415
0002e0 6e 6e a7 3d 10 33 83 bd 83 5a af bd ee 7c 31 3c
       0.0817536 -0.06406224 -0.085621856 0.010833008
0002f0 12 8d bf 3d 9a 85 9b 3d 64 7d 98 3d b3 73 87 bd
       0.09353079 0.07593842 0.07445791 -0.06613865
000300 ec 85 1e 3d 53 41 0b bd 28 4b 0d 3d fd 7f a6 bd
       0.038701937 -0.033997845 0.034495503 -0.081298806
000310 34 14 d1 3c 99 5b 50 3d 03 6b 21 bd 72 4f 61 bb
       0.025522329 0.050868604 -0.039408695 -0.0034379628
000320 eb ba f8 3d 3d c4 cc 3c 9f 6c d7 bd d7 e4 b4 bd
       0.12145027 0.024995917 -0.10518765 -0.0883271
000330 61 08 4e 3c f4 d4 db 3d b1 5c 82 3d 0d 5a 81 bd
       0.01257524 0.10733977 0.06365336 -0.06316004
000340 95 e6 5e 3d cc 30 a9 3d 83 0e b6 bc 44 bf ab bc
       0.05441912 0.082612604 -0.022223717 -0.020965226
000350 8e 21 bd 3d 34 34 67 3d 6f 2d 27 3d 43 59 53 3d
       0.09234916 0.05644627 0.040814813 0.0515988
000360 e9 4f 0d bd ac 7a d3 bd 07 54 02 3d 07 f9 6c 3d
       -0.034500036 -0.10326132 0.031818416 0.05785468
000370 08 e8 87 bd bd f1 a8 bd 7f 03 b9 bc 68 31 96 b9
       -0.06636053 -0.08249233 -0.022584675 -0.0002864704
000380 ec a6 18 3c 92 e8 7a 3c 5f e1 7a 3d 0d be 0f 3c
       0.009317141 0.015314238 0.061250087 0.008773339
000390 83 fd c3 3d 03 d4 16 bb bb 4c 4f bd c2 0d 8c 3d
       0.09569838 -0.0023014552 -0.050610285 0.068385616
0003a0 31 a4 ae bd e0 3e e8 bd 99 88 b1 bd bf 19 a0 3d
       -0.08527411 -0.113401175 -0.08668632 0.07817411
0003b0 dd 63 98 3d ed ae ce bd 62 b7 97 3d 1b 76 5e 3d
       0.074409224 -0.10091958 0.07408024 0.054311853
0003c0 6b 88 45 3d 7d df 16 3d fe 5a e8 3c 34 3f c1 3b
       0.0482258 0.03683423 0.028363701 0.005897427
0003d0 48 b5 2e bb b1 80 ec 3c 2a 86 c9 3d 46 4d cc 3d
       -0.0026658345 0.028869959 0.09840043 0.09975676
0003e0 ee 08 ec bd a4 14 62 bd 55 d9 a4 bb f8 16 c0 bd
       -0.11525141 -0.055195466 -0.005030791 -0.09379381
0003f0 96 71 af bd 19 24 0a be 35 67 f8 bc 02 6e c4 3d
       -0.08566587 -0.13490333 -0.03032265 0.09591295

weight_ih_l0 f4 [128, 64]
000000 e0 3a 9a 3d 67 fa 38 be b7 e1 cc bd e4 0f 14 3e
       0.07530761 -0.18064271 -0.10003989 0.14459187
000010 3e c7 b2 3b ec 7e 97 3d ba 37 05 be 14 a8 ff bc
       0.0054558804 0.07397255 -0.13009539 -0.031208076
000020 c7 0e dd 3d 79 ae 11 be f2 d1 ed 3a 1d cf 26 3d
       0.10793834 -0.14226712 0.0018144234 0.040724862
000030 8f 8c 75 3d a2 20 dc bd 75 1d 8f bd 81 c9 2a 3e
       0.0599485 -0.10748412 -0.0698804 0.1667843
000040 ed 6f 18 3e 69 0a 07 be c5 21 63 bd 27 a5 18 3d
       0.14886446 -0.13187565 -0.055452127 0.037266877
000050 b1 9a 03 3e 9f 94 bc bd 12 19 e9 bd 92 a2 ea 3c
       0.12851979 -0.09208035 -0.11381735 0.028641973
000060 62 80 2e be 0d e5 4f bc 51 85 16 3e 4d ab e0 3d
       -0.17041162 -0.012688887 0.14699294 0.10970173
000070 1b c8 d0 3d 4b cb 22 be 75 ae 0b 3e ed e3 8e bc
       0.10194417 -0.15897863 0.13640769 -0.017442668
000080 af ad ec 3c 02 ff b9 3c f1 41 bf 3d de 31 1f bd
       0.028891413 0.022704605 0.09338749 -0.038865916
000090 05 2b 19 be c2 51 0d be 2f b5 f8 3d 0a 93 d2 bd
       -0.14957817 -0.1380072 0.12143933 -0.10281952
0000a0 a7 db 3f 3d c2 a1 38 3d 0e 94 08 be e2 a6 1e be
       0.046840336 0.04507614 -0.13337728 -0.15493348
0000b0 17 1e a7 bc 3b 1f 86 bd 11 13 95 bd 85 b5 ca bd
       -0.02040009 -0.065489255 -0.07279027 -0.09897903
0000c0 c7 61 2c be 95 b3 6f 3d 28 c2 59 3d e1 51 76 3d
       -0.16834174 0.058520872 0.053163677 0.06013668
0000d0 4b ea 8c bd 89 00 c5 3d 22 86 1a be 48 a2 20 be
       -0.06880625 0.09619243 -0.1509023 -0.15686905
0000e0 d0 3c c5 3b a4 2f c8 3b b6 d8 f9 bc 1a 48 01 3d
       0.0060192123 0.006109195 -0.030498844 0.031562902
0000f0 97 97 00 3e 38 43 e3 3d ba 39 cf bd 19 76 eb bd
       0.12557827 0.11096805 -0.10118432 -0.11497135
000100 09 c8 bb 3d 37 08 b5 bd 2e 0c 4c bd 5b 35 bf b9
       0.09169013 -0.088394575 -0.049816303 -0.00036470112
000110 25 30 c8 bd 55 41 0c bd 9a db 13 3e b9 d0 12 be
       -0.09774808 -0.034241993 0.1443924 -0.14337434
000120 c8 26 27 bd 40 fc af 3d 0f 6d d5 bd 94 74 6a bd
       -0.04080847 0.08593035 -0.10421192 -0.057240084
000130 61 44 13 be 6f 37 b5 3d e6 96 27 be 82 2f 8f 3c
       -0.14381553 0.08848464 -0.16366157 0.017478708
000140 1a 1f 3e bd 53 9f 58 bd 10 a2 07 3e 22 5a 3e be
       -0.04641638 -0.05288632 0.13245416 -0.1858907
000150 c1 f0 29 be 61 a5 42 bc 56 92 0e be 97 67 b9 3d
       -0.16595747 -0.01188025 -0.1392301 0.09052961
000160 4b 2e 18 3e a5 78 2b 3e 59 a4 f2 3d 20 14 2d be
       0.1486141 0.16745241 0.11847753 -0.16902208
000170 c7 c6 05 bd 2a 92 50 bc 02 cf 1e 3e d8 20 d0 bd
       -0.032660272 -0.012730161 0.15508655 -0.101625144
000180 fe 03 00 3e b4 20 df bc 04 d4 f8 bd 42 4b 40 be
       0.12501523 -0.027237274 -0.12149814 -0.18778709
000190 db 85 2a 3d bc 3e eb bd 94 4b 1b 3e e3 ba 91 3c
       0.04163156 -0.11486575 0.1516555 0.01778931
0001a0 dc a3 1c 3c 4f 2b 1d 3e 0b 19 20 3e 9f c3 c2 bd
       0.0095605515 0.15348552 0.15634553 -0.09509968
0001b0 db e0 d2 3c 72 74 be bd 89 d4 1d 3e fd 08 14 be
       0.025741985 -0.09299554 0.15413107 -0.14456554
0001c0 c6 d6 c1 bc 7d e1 8a 3d 7e f6 4f 3d cb 5b 2a be
       -0.023661982 0.0678129 0.050772183 -0.16636579
0001d0 0f 5e 13 be f3 5a 17 3e e2 fe 9c 3d 3d 10 d0 bd
       -0.1439135 0.14780788 0.076658025 -0.10159347
0001e0 a0 f7 88 3d a2 eb 38 3e ee fc 1b be e9 4e 0d be
       0.06687856 0.18058637 -0.15233204 -0.13799633
0001f0 50 a5 14 3d 65 5e af bc d8 af 84 3d 2d 19 fe 3d
       0.036290467 -0.021407316 0.06478852 0.12407146
000200 35 cb 3f 3e 6f 81 21 3e 84 f7 0e bd 5e 50 03 3e
       0.18729861 0.15772031 -0.034904018 0.12823626
000210 8b 6c 00 3e d4 9c 99 3d c0 78 46 bc 28 cc 41 bd
       0.12541406 0.07500616 -0.01211375 -0.04731384
000220 d9 e2 1c be 7d 97 cc 3d 0e 59 e0 3d de 05 72 3d
       -0.1532091 0.099898316 0.10954486 0.059087627
000230 35 44 00 be 6a 62 e8 bd 24 e9 00 bc 9e a4 ef 3d
       -0.12526019 -0.11346896 -0.007868085 0.1170132
000240 1d 25 72 bd 59 08 07 bd de 81 76 3d 20 51 06 38
       -0.059117425 -0.032966945 0.060182445 3.2023643e-05
000250 34 0b 5a 3d 74 c5 01 be 93 15 83 3d 0e 94 c1 bd
       0.05323334 -0.12672979 0.06400599 -0.09452067
000260 48 c7 3c be 24 39 ba 3d c2 52 ff b9 36 07 85 3d
       -0.18435395 0.0909293 -0.0004869905 0.06495516
000270 4a 67 23 be c7 e7 6c 3d 70 b8 e7 3d d4 fc 04 3e
       -0.1595737 0.057838228 0.113144755 0.12987071
000280 4f 83 31 be ac e4 07 bd fa 68 f9 3d df 1b e1 bd
       -0.17335247 -0.033177063 0.12178226 -0.10991644
000290 b9 9b 23 be be b4 e4 bd 7f f0 98 3d 2f cb 85 3c
       -0.15977372 -0.11167286 0.07467746 0.016332237
0002a0 34 a8 f1 3c bf 7d 07 3e db 31 a8 bc 6f 67 38 be
       0.02949915 0.13231562 -0.020531585 -0.18008207
0002b0 c9 2a b3 3d 41 0f 1b 3e 50 7a f3 3d ce 4d 2e 3e
       0.08748395 0.15142538 0.11888564 0.17021868
0002c0 7f 5c 0f 3e fb 2c d0 bd 89 f8 a0 3d cd d4 0c be
       0.14000128 -0.10164829 0.07859904 -0.13753052
0002d0 38 3e 24 3e 60 a2 fb 3a a0 47 14 be 02 02 c7 3b
       0.1603936 0.0019198172 -0.14480448 0.0060732374
0002e0 41 78 33 3c 62 c5 40 3e 76 bc b5 3d 27 27 21 3e
       0.010953964 0.18825296 0.08873837 0.15737592
0002f0 61 67 c2 bd c6 7f a4 3d 7a 88 05 bd e5 a8 05 be
       -0.09492374 0.08032183 -0.032600857 -0.1305271
000300 5d b5 23 3e 26 5d 34 bd c3 15 df 3d f8 7f 42 bd
       0.15987153 -0.044034146 0.108928226 -0.04748532
000310 d3 6f 30 bc e7 5f 7b b9 20 3d 40 bc 35 29 ae bd
       -0.0107688485 -0.00023972952 -0.011733323 -0.08503953
000320 92 4d 00 bc b2 df 76 bd cd df ea 3b 06 99 69 bd
       -0.007830994 -0.060271926 0.0071677924 -0.0570307
000330 53 7b 81 3d da 60 8c 3d 24 be 06 3e fc 08 21 be
       0.0632235 0.068544105 0.1315847 -0.15726084
000340 10 6b c6 3d 06 ba 32 bd 27 63 cc bc de 29 1d bd
       0.09688389 -0.043634437 -0.024949623 -0.038370006
000350 73 c2 27 3d b3 d1 68 bc 78 88 29 be bd 87 9c 3d
       0.040956926 -0.014210152 -0.16555965 0.076430775
000360 94 47 34 be 2e ad 77 3c 62 39 ea 3d 17 d5 21 bc
       -0.1760543 0.015116973 0.11436726 -0.009877465
000370 6a bf 29 bd 4d af 12 3e 7e 9f 37 be 54 df 81 3d
       -0.041442312 0.14324684 -0.17931935 0.063414246
000380 d1 91 a7 3d 81 d8 d8 bd 13 6b b2 bd 9a c3 d3 bd
       0.08182109 -0.1058817 -0.08711829 -0.103400424
000390 78 1d 98 3d 3a 85 93 3d e3 49 15 3e 06 8d 08 3c
       0.07427496 0.07203145 0.14578967 0.008334404
0003a0 9e 25 0c be 94 57 a2 bc d4 74 51 bb 6b 8d a2 bd
       -0.13686225 -0.019817151 -0.0031960504 -0.079371296
0003b0 d1 ae 24 be cc 99 26 be 38 5a 53 3d 76 ea 22 3e
       -0.16082312 -0.16269606 0.05159971 0.15909752
0003c0 14 42 1c 3e 73 46 c8 3c 21 2f d0 bd 21 88 a6 3d
       0.15259582 0.024447655 -0.10165239 0.08131433
0003d0 c2 d9 20 be 58 30 7f 3d d8 87 fc bc 8c 15 e5 3d
       -0.15708068 0.062301964 -0.030826494 0.1118575
0003e0 b7 11 5e bc b2 a0 b8 bd 1a c3 1c be 13 38 12 3e
       -0.013554028 -0.09015025 -0.153088 0.14279203
0003f0 61 92 c2 bc 80 1d 20 3d 21 e5 48 3c 63 05 b7 3c
       -0.02375144 0.039090633 0.01226166 0.022341436

weight_hh_l0 f4 [128, 32]
000000 de 1f 28 be ea 49 a6 bd 01 a6 ea bd 02 b3 90 bd
       -0.16418406 -0.08119567 -0.11457444 -0.07065393
000010 11 67 28 be fe 08 ed 3d 0d d4 65 bd 7a 10 a1 bc
       -0.16445567 0.11573981 -0.05611043 -0.019661177
000020 8f b4 b3 3d 38 cf 35 be 7e 3f 99 bd bc 83 08 3e
       0.08774673 -0.17754829 -0.07482813 0.13331503
000030 16 5c 8f bc f8 7c 13 be c0 c7 1e be 0a c7 00 bd
       -0.017499965 -0.1440314 -0.15505886 -0.03143982
000040 a7 5e 9b 3b 48 27 60 3a 95 3c c7 3d 28 4c cc 3d
       0.004741508 0.0008550775 0.09728352 0.09975463
000050 e7 a5 02 be 23 4b d2 bd 2e bf 42 bc 72 1f 8a bd
       -0.12758599 -0.102682374 -0.011886401 -0.06744279
000060 9b 68 5f 3d 3a 77 62 3d 37 07 92 3d c6 3d d6 bd
       0.05454312 0.055289485 0.07130282 -0.10461001
000070 1b c4 1e be 3c af 0c 3e 2a 88 8a bd d6 ef 2b be
       -0.15504496 0.13738722 -0.067642525 -0.16790709
000080 0e f4 f9 bb 8b 97 91 bd 4d c7 37 bd 3e 51 09 bd
       -0.0076279705 -0.07108983 -0.044867802 -0.033524744
000090 35 77 23 3e a9 45 fa bc e4 82 16 3c 2d 7f 45 3d
       0.15963443 -0.030550795 0.00918648 0.048216987
0000a0 d0 fb 1a 3e 0c f4 d2 bc 45 6e 61 3d 7c 14 d7 bb
       0.15135121 -0.025751136 0.0550368 -0.006563721
0000b0 32 03 14 be a5 b8 59 bd 62 84 26 3e e1 aa c5 bc
       -0.14454344 -0.053154606 0.16261438 -0.024129333
0000c0 b2 88 87 bd 9d 2a 2a 3e 24 62 5a 3d 16 39 dc bd
       -0.066178694 0.16617818 0.05331625 -0.10753076
0000d0 f2 9f cf 3b c7 b3 18 3e 39 be 8a 3c da 53 82 bc
       0.0063362056 0.1491233 0.016936408 -0.015909124
0000e0 3f 9d d7 bd 4b 41 3c be a5 60 de bd 43 47 37 3e
       -0.10528039 -0.18384282 -0.10858277 0.17898278
0000f0 e9 29 2b 3d 2e 3b ec 3c c5 e8 7d 3d 6a fe cf bd
       0.041788016 0.028836813 0.061989564 -0.101559475
000100 06 ea 6b 3c e7 50 65 3d bc 5f 1f 3e b2 8d 85 3d
       0.014399057 0.055985358 0.15563864 0.06521167
000110 de 6b 8a 3c 9a 32 20 3d 9e 3d 3a be 25 59 d2 bb
       0.016897138 0.039110757 -0.18187568 -0.0064193183
000120 ae 0c 58 bd 96 f4 2d bc 7f 6d a2 3d cf 4a b9 3c
       -0.052746467 -0.010617396 0.07931041 0.02261868
000130 84 d9 11 be 02 32 79 3d 51 2b 20 be 47 d3 5d 3d
       -0.14243132 0.060838707 -0.15641524 0.054156568
000140 4d de 04 3e d6 cc 81 bd fe 35 37 3d 03 97 af bc
       0.12975426 -0.063378975 0.044729225 -0.021434313
000150 15 d2 84 bd 38 05 cf bd cf aa 39 3e 1d 60 1f 3e
       -0.064853825 -0.10108417 0.18131565 0.15564008
000160 ef ef fd 3d 0a f3 1e be 51 d6 3a 3e 68 9b 25 bd
       0.12399279 -0.155224 0.18245818 -0.04043141
000170 d8 4c 6e 3c 99 95 d5 bd ed 7a 54 bb 57 e0 ba bd
       0.014544688 -0.10428924 -0.0032421902 -0.09124821
000180 0f 63 46 bd 29 27 43 bd 00 b2 f1 bc 98 56 91 3d
       -0.048434313 -0.047644768 -0.029503822 0.070965946
000190 1f b6 25 be 3e b6 a3 bc 04 f3 bf bd 1f 62 93 bd
       -0.16182755 -0.01998436 -0.093725234 -0.071964495
0001a0 55 ce 9b 3d 8e e0 9e 3d 5e 22 01 3e 83 21 a1 3c
       0.07607714 0.07757674 0.12610766 0.0196693
0001b0 65 7f cc 3d 73 97 04 bd 21 c2 e9 bd 79 22 80 3d
       0.09985236 -0.032370996 -0.1141398 0.06256575
0001c0 a3 33 88 3c 9d fa 0b be e6 48 e1 bc f9 b0 24 3e
       0.016626185 -0.1366982 -0.027500581 0.16083135
0001d0 a6 a0 38 be ae 4d 6f bd 06 62 11 be e5 48 1a 3e
       -0.18030033 -0.05842369 -0.14197549 0.1506687
0001e0 e1 f7 81 bd fd 35 16 be 1f cb 34 3e 04 8f 2d 3e
       -0.06346107 -0.14669032 0.1765561 0.16949087
0001f0 e6 ce 88 bb 28 eb d8 3d e9 4d 94 bc 25 08 38 3e
       -0.004175055 0.105917275 -0.018103557 0.17971857
000200 4e fa cd 3d c6 77 c2 bd 40 85 1e be c9 2c 45 bc
       0.100575075 -0.09495501 -0.15480518 -0.012034603
000210 7e 6d 92 bd cb 50 7a bd f6 4c 21 be 1c 22 32 3e
       -0.0714979 -0.061112206 -0.15752015 0.17395824
000220 18 5f 30 be 50 4d dc bd a3 12 41 bd 77 1b 08 be
       -0.17223775 -0.10756934 -0.047136914 -0.13291727
000230 52 6b 38 3e 56 f6 a3 3c d7 e3 da bc 3b 7f e2 bd
       0.1800969 0.020014923 -0.02671997 -0.110594235
000240 62 21 81 bd b5 a5 c3 bc 06 45 d8 3c fc bd dc bd
       -0.063051954 -0.023882726 0.0264001 -0.10778424
000250 1a 22 1d be 74 8f 0c be 2f 13 2a 3e 64 02 d9 bd
       -0.1534504 -0.13726598 0.1660888 -0.10596159
000260 87 fc ee 3d 8c 33 18 bd ad b8 2c 3c c9 0c c6 bd
       0.116692595 -0.037158534 0.010542077 -0.09670407
000270 12 5d 68 3d a3 d6 03 bb 47 99 09 3e c3 66 6f bd
       0.056729384 -0.0020116947 0.13437377 -0.05844761
000280 e5 e9 a9 3d a3 df 04 be 35 dd 38 3d e9 fb 31 be
       0.08296565 -0.12975936 0.045132834 -0.17381252
000290 14 78 b8 3c c1 a7 6b 3d db f7 3c 3e 69 67 aa 3d
       0.022518195 0.05753303 0.18453924 0.08320505
0002a0 a7 33 ab 3c 15 1a 09 bd 13 c7 33 3e d0 a9 71 bc
       0.020898653 -0.03347214 0.1755641 -0.014749959
0002b0 a1 82 14 3d d0 27 1f 3e 65 a2 2c 3e 4a 68 1b be
       0.03625739 0.15542531 0.16858824 -0.15176502
0002c0 05 7b 70 bd 58 0b 3e be d8 ba 65 bd 80 54 b2 3d
       -0.05871107 -0.18559015 -0.05608639 0.08707523
0002d0 2f 3e 21 bd 3e b7 fb bb f7 43 8a bd 22 ef 17 be
       -0.039365944 -0.0076817563 -0.067512445 -0.14837316
0002e0 f2 87 32 3e 04 ce 5e bc cb e2 1a be c9 0a 22 3e
       0.17434672 -0.013598923 -0.15125577 0.15824427
0002f0 c5 57 2c bd 70 47 19 3e 44 95 9d 3d e6 2f cc 3d
       -0.04207589 0.14968657 0.07694486 0.099700734
000300 0c 9d c8 bd ec 04 ee bd f9 6e fe bd 43 d7 7e bd
       -0.09795579 -0.116220325 -0.1242351 -0.06221701
000310 7c e9 b2 bd 83 da eb 3d e7 26 10 3e ac 5d 62 bc
       -0.0873594 0.11516287 0.1407734 -0.013816278
000320 d5 aa ce 3d 88 8a d4 bd 53 00 be bd 0f 4c 90 3d
       0.100911774 -0.10377985 -0.092774056 0.07045757
000330 5b cb b5 bd 75 5a 23 3c aa da 57 3d 5d 46 9d bd
       -0.088766776 0.009970297 0.05269877 -0.07679436
000340 d7 36 a4 bd 56 4e fa bd 73 17 11 be 2b 90 48 3d
       -0.08018272 -0.12221973 -0.14169101 0.048965614
000350 c9 58 f8 bd 9d 6f cb 3c 21 e7 c7 3d 4b b6 fe 3c
       -0.121263094 0.024833495 0.09760881 0.031092783
000360 d9 11 24 be e9 30 03 be 2c 49 b1 bd 7f 6d 87 bc
       -0.16022433 -0.12811626 -0.086565346 -0.016531704
000370 88 94 24 be 3f e3 b5 bc 16 bb a3 bd 23 56 7f 3d
       -0.16072285 -0.022203086 -0.07994668 0.062338006
000380 27 b9 c0 bd c7 97 b6 bd ad fd 26 be 1f 88 1f be
       -0.09410315 -0.08915668 -0.16307707 -0.1557927
000390 86 97 25 bd 2f f9 28 bd ff ca ad 3c 59 83 32 3d
       -0.040427707 -0.041253265 0.02121496 0.043582294
0003a0 0e d9 bb 3d a1 5d 02 3e ce 63 0b 3d eb 84 ce bd
       0.09172259 0.12731029 0.034030728 -0.10083946
0003b0 22 db e1 bb d2 e9 d9 bb 1e 64 97 3c 3a c7 81 bd
       -0.0068925777 -0.006650188 0.018480357 -0.063368276
0003c0 ca c0 95 bd 98 58 d5 3c 67 1d 41 be 93 ea f4 bd
       -0.07312162 0.026043221 -0.18858872 -0.11958804
0003d0 06 93 23 be 64 de 0c 3e 4c d0 e8 bd e4 1c 9a bd
       -0.15974054 0.1375671 -0.113678545 -0.07525042
0003e0 dc 5f e7 3c 02 87 df bd c4 55 06 be 00 94 8f 3d
       0.028243951 -0.109144226 -0.13118654 0.07010651
0003f0 83 be c1 3d b1 bf 20 be ff e3 00 be 6f 86 b4 3d
       0.09460165 -0.15698124 -0.12586974 0.08814704

bias_ih_l0 f4 [128]
000000 b0 ab b4 3d 0b a6 0a 3e 5d c1 98 3c 5a 44 1f 3e
       0.08821809 0.13539903 0.01864689 0.15553418
000010 9f 10 2c 3e 87 18 3b 3e 8d b0 36 3d 15 df 22 be
       0.16803215 0.18271075 0.044601966 -0.15905412
000020 c9 cd 8b bc 4b 15 23 3e 22 79 91 3b 2e 9d 8e bd
       -0.0170659 0.15926091 0.004439489 -0.069635734
000030 10 99 d5 bd 60 61 d6 3c e4 b1 9c 3d 94 10 bd bc
       -0.10429585 0.026169479 0.076511174 -0.023079194
000040 a0 9c 6e 3c f8 36 2f 3a 98 bb aa bd 7d 59 1b bc
       0.0145637095 0.0006683911 -0.08336562 -0.009481785
000050 86 9d 9f 3c 90 1d 20 3e 22 34 2b 3e 37 8c 7e 3d
       0.019484293 0.15636277 0.16719106 0.062145438
000060 d1 9e 1a be 7e 39 08 3e 77 03 4a bd 04 2e 16 3e
       -0.15099646 0.13303182 -0.04931971 0.14665991
000070 d5 56 cd bd b1 d5 7d bc f3 1e 99 3d 86 98 d4 3d
       -0.100263275 -0.0154928425 0.07476606 0.10380654
000080 0e ed 64 3c 40 8a 0c be 87 6f 05 be d1 67 59 bd
       0.013972534 -0.13724613 -0.13030826 -0.053077523
000090 6e a7 ad 3d 6a 47 9e bc ab d5 1d 3e 29 89 8f 3d
       0.084792 -0.019321162 0.15413539 0.07008583
0000a0 ed a8 b7 bd 34 86 b6 bd 96 3f 02 bd f9 d2 0e 3e
       -0.08967767 -0.08912316 -0.03179892 0.13947667
0000b0 2e 3f 25 bd c5 80 d2 3d 62 d6 8e bd d3 4d 66 3d
       -0.040343456 0.10278467 -0.06974484 0.056226563
0000c0 ca 4c 20 3e cf 8c 8c 3c fc 50 09 3e d2 26 6c 3d
       0.15654293 0.017156987 0.134098 0.05765421
0000d0 94 f7 14 be 3d 7a a6 3d 83 d9 8b bd 33 42 eb 3d
       -0.14547569 0.08128784 -0.068285964 0.11487236
0000e0 a0 b7 b2 3d 63 43 36 3d a8 3a e6 bd 1f 0c 8a bd
       0.0872643 0.04449786 -0.112416565 -0.06740593
0000f0 f3 77 ab bc 29 60 2f be 9b 26 f5 3c f5 60 3d be
       -0.02093122 -0.17126526 0.029925635 -0.18494017
000100 15 12 2e be 36 87 0a 3e 54 db 0f 3e be 00 8f 3d
       -0.16999085 0.13528141 0.14048511 0.069825634
000110 9c ad 3a 3d af 87 0f 3e 7d 39 10 3e d7 21 32 3d
       0.045575723 0.14016603 0.1408443 0.043489303
000120 53 64 21 bd 35 72 a2 bd b2 6c 1e 3e c6 42 06 be
       -0.039402317 -0.079319395 0.15471151 -0.1311141
000130 e9 99 47 bd 54 7e 2e be 6b 56 42 3e 08 9d 1d be
       -0.048730765 -0.17040378 0.18978278 -0.15391934
000140 7a 06 f0 3d 36 9f 32 bd 42 7d 1e 3d 16 e2 e7 bd
       0.11719985 -0.043608867 0.038693674 -0.11322419
000150 ae 37 18 3e ca bb 9b bd a3 e4 b9 3c af 14 7a 3d
       0.1486499 -0.07604177 0.02269203 0.06105488
000160 bf 64 f0 bd 5a c2 1e 3e 6d 3e 16 be 59 ef 04 be
       -0.11737966 0.15503827 -0.14672251 -0.12981929
000170 56 d9 25 be bf f6 2f 3e 34 1d 9f 3d 15 9f 38 bc
       -0.16196188 0.1718397 0.07769242 -0.011268397
000180 bf 58 27 be 19 c8 9d 3d e0 ff b3 3d f3 60 49 bd
       -0.16342448 0.07704181 0.08789039 -0.049164724
000190 05 ac cb bc 4d 61 cf bd 30 ed 7e bd 16 70 2d be
       -0.024862299 -0.101259805 -0.06223792 -0.16937289
0001a0 5f 5d 39 be d5 7e 84 3d a7 ac 60 bd 87 e2 87 bb
       -0.18102024 0.06469504 -0.054852154 -0.004146877
0001b0 3f d8 ae 3d 25 81 17 3e 15 ac 7b bd f9 d1 da bd
       0.085373394 0.14795358 -0.061443407 -0.1068458
0001c0 b7 39 21 3e fb 03 8b bd 03 16 bd bd ce 48 50 3c
       0.15744673 -0.067878686 -0.09232714 0.0127126705
0001d0 d3 f0 da 3c 93 88 19 be fa ba 0a be 16 cb d7 bd
       0.026726162 -0.14993505 -0.13547888 -0.105367824
0001e0 fb 66 50 3d a2 84 81 3b 12 2a 02 be 94 19 26 3e
       0.05087946 0.0039525786 -0.12711361 0.16220695
0001f0 23 87 82 bc 69 a5 0d be 2c e4 0b 3e ea c0 9e bd
       -0.015933579 -0.1383263 0.1366126 -0.07751639

bias_hh_l0 f4 [128]
000000 21 7a b9 bd b3 88 dd 3d e4 d8 74 3d d9 d6 be 3d
       -0.09056497 0.10817089 0.059777156 0.09318323
000010 9a 0a 86 bd 5c 1b b9 3d 94 da fe 3d 26 12 2a be
       -0.06544991 0.090384215 0.12444034 -0.16608486
000020 e0 77 1c 3e 6a 89 bf bd ea af 1f 3e 94 ce 9b bd
       0.15280104 -0.093523815 0.1559445 -0.07607761
000030 32 49 bd bd 3e 59 2f 3d 6f dd 3c 3e e2 32 2d be
       -0.092424765 0.042809717 0.18443845 -0.16913942
000040 68 b8 2b 3d 26 2b 25 3e 75 2d a3 bd c6 b7 58 3d
       0.04192391 0.16129741 -0.079676546 0.052909635
000050 2b 19 00 3e 9a 50 cd bd 66 d7 30 3d ff db b3 3d
       0.12509601 -0.10025139 0.04317417 0.08782195
000060 ca a1 c9 bd da 8f c1 3d 12 0c 41 be 2c 55 22 3d
       -0.09845312 0.09451266 -0.1885226 0.039632007
000070 b1 ab 5b 3d 59 9f ee 3d fa 0d 05 be 0d e4 7f 3d
       0.053630535 0.11651487 -0.12993613 0.062473346
000080 d8 98 14 be 57 08 a6 3d da d2 41 3d 1c 63 11 3c
       -0.1451143 0.081070594 0.047320224 0.008873727
000090 8b 75 24 bd 1a 5b 8d bc 7e 82 ec bd 7b 0f 1d 3e
       -0.04015116 -0.017255355 -0.11548327 0.15337937
0000a0 28 ed 37 be b8 cb 0a 3e d0 9b 03 be 1f 45 4a 3e
       -0.17961562 0.13554275 -0.12852407 0.1975293
0000b0 b6 7b 0f be 81 13 37 3d f7 8a 28 be be 93 0c bc
       -0.14012036 0.044696335 -0.16459261 -0.008580146
0000c0 de 0f f8 3c fa 26 da bd 1b 7e d0 bd ff 9e d5 bd
       0.030281004 -0.106519654 -0.10180303 -0.10430717
0000d0 38 72 16 bd de b9 5a 3d f8 52 26 3d 7a 36 13 be
       -0.03673002 0.053399913 0.04060647 -0.1437625
0000e0 00 66 13 3e 93 77 bb 3d 97 82 c3 bd bd c4 f6 3d
       0.14394379 0.09153666 -0.095463924 0.120492436
0000f0 6c da 38 3d 2e 09 60 3d 85 fe e0 bd fb 06 b4 3b
       0.04513018 0.054696254 -0.10986046 0.005493996
000100 d5 08 23 be d4 a3 bf bd 64 22 62 bd 8f 76 15 be
       -0.15921338 -0.093574196 -0.05520858 -0.14596008
000110 5f 8a 04 3e de 93 f3 ba 65 3b fa 3d 5c 98 da 3c
       0.1294341 -0.0018583497 0.1221836 0.026683979
000120 4e 30 aa 3c c8 0e 2e 3e 59 60 b8 bd e3 3f d2 bd
       0.020774987 0.16997826 -0.09002752 -0.10266092
000130 41 57 10 3e b5 20 36 3c 82 2c 1c be a3 29 1b 3e
       0.14095785 0.011116196 -0.15251353 0.15152602
000140 e2 77 1f be 9d 2a 91 bc ca 54 5b bd 7a 23 e6 bd
       -0.15573075 -0.017720515 -0.053547658 -0.11237235
000150 c5 37 06 3e bf 6d d7 bc e3 4b 18 be b3 a5 19 bd
       0.13107212 -0.026297448 -0.14872698 -0.03751154
000160 e1 69 43 3e e7 f8 86 3d dc d9 6d bb ea 04 69 3d
       0.19083358 0.06590443 -0.0036293184 0.056889452
000170 8c 32 ce bd 1b 14 12 3e 48 b0 03 3d 4e 6f 0a be
       -0.10068235 0.14265482 0.032150537 -0.13519022
000180 0d 2a 08 be 26 02 0d 3e d1 b7 22 be f8 89 9c bd
       -0.13297291 0.13770351 -0.15890433 -0.07643503
000190 dd 82 bc bb 33 18 c2 3d 01 af b7 bc 31 99 52 bc
       -0.005752905 0.09477272 -0.022422316 -0.0128539065
0001a0 03 7f 8c bd 97 b7 06 3e 28 ed 20 be 16 1d 82 bd
       -0.06860163 0.13155971 -0.15715468 -0.06353204
0001b0 34 ec 4b bd ea bb 50 3d 6f 49 73 bd dc e7 bc bd
       -0.049785808 0.05096046 -0.059396204 -0.09223911
0001c0 2f 99 57 3d 14 86 0d 3e 2c c0 c0 bb c1 90 90 bd
       0.05263632 0.13820678 -0.0058822837 -0.070588596
0001d0 fd 5d 17 be cc 12 66 bd 3a 0a 83 3d d0 d3 dd bd
       -0.14781947 -0.05617027 0.06398435 -0.10831416
0001e0 59 1e 66 bb 18 63 c4 3d 61 1c 8c bd c2 32 20 3d
       -0.0035113303 0.09589213 -0.0684135 0.039110906
0001f0 fd 86 89 bd d4 5b a0 3d 1a 80 f4 bc 71 30 24 be
       -0.067152 0.07830015 -0.02984624 -0.16034104
