Comparative_Evaluation/Baselines/LSTM/models_m/model11.pt (torch, 499143 bytes, 10 tensors)

weight_ih_l0 f4 [512, 10]
00000000: f6e1 ff38 43ee 01ba d965 00bf 5071 d8be
00000010: 81cc 88be b5c5 87be 1647 49be fa22 95be
00000020: d80d 9bbe 1f3a 82be 84c1 29b8 bcd9 0e3a
00000030: 91a5 10be 7cdd 0cbd 7750 adbd ce16 f83b
00000040: f2d6 64bd 53ef 18bd 6418 24be 5158 b4bd
00000050: 25df 4239 c69a 9eb8 4cd9 edbd 5db7 5fbe
00000060: 7727 4bbe d6d8 abbe d69e e5be f758 f4be
00000070: 387d dcbe 6356 d5be d8d5 8a37 88db 86b8
00000080: b017 74be 2aaa c0bd 969d d3bc a518 58bd
00000090: 0d3d cd3d 4284 363c 9474 b6bd 9435 26bb
000000a0: aa5b ae38 de43 3f39 b62d 32be fe01 6cbe
000000b0: bfcf 55be 0c63 f8bd ea8d 14be e2dd 22be
000000c0: 12e4 9dbc 63fe e8bd c635 ed39 0d37 f0b9
000000d0: 3d01 bbbe d84b bcbd f0bf f6bc ac4b 07be
000000e0: bbd9 29bd 6c4e edbd 2076 acbd 544d 933d
000000f0: d214 4339 faa3 2ab8 7c99 e7be 96a3 ccbe
00000100: 000c 08bf 6cbf d1be ebd3 ccbe df53 05bf
00000110: 1685 e1be f7d9 1bbf 5943 3b3a cf70 6938
00000120: db88 00be b896 533d 49f3 4b3d 5f2c d03d
00000130: 4c7b 063e 2fd2 c23d 7932 9d3c c29f 0a3d
00000140: fe96 7239 54dd 1d37 b9fe f3be d75f f8be
00000150: 8878 e2be bde3 02bf ce9c 02bf 0942 2bbf
00000160: d3db 1cbf 9f0f 15bf e14b fb38 a450 a737
00000170: 58f1 c4be 11d6 eebe b43d 9cbe 8c9a 98be
00000180: 422a d9be 6962 dbbe 566a c5be 74b5 a5be
00000190: 44b8 37b9 d0ea 1d3a de86 e3bc c062 eebb
000001a0: 6c6b aebd ea9d a1bd 6c6b 59be 207a 3abe
000001b0: 9b0e acbd 565d 04be 1a3b 56b9 92d4 afb9
000001c0: e85e e3be ce2d 5abe bf29 6ebe 0898 3abe
000001d0: 1a75 0bbd 58a9 c8bd ed0c 53be 137f 91bd
000001e0: 9100 ea39 817b 4c39 f446 0fbf cc60 edbe
000001f0: ffe0 c9be 7525 84be 1a6b 5cbe d448 58be
00000200: 0138 90be 6eba a7be 5ab0 1e39 7602 8439
00000210: fd89 48be 2466 c3bd 9eda 7fbd dd82 91bd
00000220: f283 823d 7939 1f3d e270 1cbd b5da 653d
00000230: 42b0 bcb8 12f1 06ba 3cd1 37be 9dbd 83bd
00000240: dba7 bbbd 31e4 80bc a9b0 76bb bc86 ddbd
00000250: 8c34 b2bd 459e b4bd 926f 9a39 8eeb 26ba
00000260: 057d bdbd a9c1 13be efac b7bd 3525 e6bd
00000270: 55c9 2bbe b447 0ebe 3541 53be 1b35 82be
00000280: f42d 8c39 1019 9eb9 6159 bebe 2916 d3bd
00000290: d24e 203d ded2 203c 30ec a33d 0a19 b13d
000002a0: 1651 213e a973 1a3e 6a96 22ba 2b9d 143a
000002b0: 50af 08be bfb9 cabd 1d49 37be dd47 8ebd
000002c0: 419b 33be 4637 c1bd 9c76 00be e343 1dbe
000002d0: 610e 1ab9 d0d4 ddb7 5d8b 2f3b 4fe0 7ebd
000002e0: 9f07 04be bc80 a8be 0be4 cebe 9679 d7be
000002f0: 7f88 d7be 64af adbe 40e2 b539 7b22 1ab9
00000300: 190c b9be 10b2 f7bd 4011 82bd 16a5 0a3e
00000310: fbe3 283e fe52 ef3d 10ed 3e3e 004d 463e
00000320: 7426 3339 1ea1 003a 8e50 8fbc 4aa1 673d
00000330: 3d28 cabd cd2e e0bc 6764 2cbe 84ff c0bd
00000340: a995 3ebe c924 c4bd d6e1 8bb9 8859 1ab8
00000350: f9bd 23be d047 90bd 9822 d8bc d9f9 ddbc
00000360: 02d0 903d e5c4 e23c 5d14 813d d185 0a3e
00000370: 9050 bf39 75ca df38 b39b 85be 3588 0bbe
00000380: be66 2cbd 3349 a0bd 889c ecbc 0c6d d23d
00000390: 5717 80bd a3db 703d 0411 4eb8 5a01 22b8
000003a0: 6c50 eabe c20f c7be 1172 97be d5d5 bdbe
000003b0: b680 d1be 44ff 1abf a7a0 f1be 5d84 02bf
000003c0: 2293 f1b8 04f4 bb39 a124 a1be e350 c2be
000003d0: 1da6 91be f72c a7be b841 c4be 44ba c6be
000003e0: 74d8 cfbe be12 c8be cd4e 2539 fcaa 4539
000003f0: 34eb 82be 9dcb 40bd 98cd 34bd d198 d03d
0.00012201436 -0.0004956463 -0.5015541 -0.4227395 -0.26718524 -0.26518026 -0.19656023 -0.29128247
-0.30284 -0.25434968 -4.0472965e-05 0.0005449315 -0.14125659 -0.03439091 -0.08462613 0.007571078
-0.05586905 -0.037337612 -0.1602493 -0.088059075 0.0001858441 -7.562856e-05 -0.11613712 -0.21847291
-0.19839273 -0.3356387 -0.44847745 -0.47724125 -0.43064284 -0.4166747 1.655046e-05 -6.430509e-05
-0.23837161 -0.09407456 -0.025831979 -0.052757878 0.1002141 0.011139931 -0.08908954 -0.0025361525
8.31404e-05 0.00018240462 -0.1740025 -0.23047635 -0.2088003 -0.12128267 -0.14507261 -0.15904954
-0.019273791 -0.113766454 0.00045244227 -0.00045817383 -0.36524382 -0.091941535 -0.03012082 -0.1321246
-0.04146741 -0.115872234 -0.08420968 0.071924835 0.00018604405 -4.0683874e-05 -0.45234287 -0.39968556
-0.5314331 -0.40966356 -0.4000543 -0.520811 -0.4404685 -0.6087946 0.00071435195 5.565659e-05
-0.12552206 0.05165741 0.04979256 0.10164713 0.13132972 0.095127456 0.019189106 0.033843763
0.00023135167 9.409461e-06 -0.47655275 -0.4851062 -0.44232583 -0.5112875 -0.51020515 -0.66897637
-0.61272925 -0.5822696 0.00011982746 1.9945503e-05 -0.3846538 -0.46647695 -0.30515826 -0.2980541
-0.42415053 -0.42848518 -0.3855769 -0.32365 -0.00017520884 0.00060240645 -0.02777427 -0.0072749555
-0.08516583 -0.07891448 -0.21232384 -0.1821065 -0.08401223 -0.1292623 -0.00020430647 -0.00033536978
-0.44408345 -0.21306536 -0.23258112 -0.18222058 -0.034047224 -0.09797925 -0.206104 -0.071043156
0.0004463238 0.00019500965 -0.5596764 -0.46362913 -0.3942947 -0.25809827 -0.21525231 -0.21121532
-0.28167728 -0.32759422 0.0001513375 0.00025178835 -0.19583888 -0.09540966 -0.06246435 -0.07105038
0.06372823 0.03887317 -0.03819359 0.05611678 -8.997369e-05 -0.00051476166 -0.1795091 -0.0643265
-0.09162875 -0.01573381 -0.0037641919 -0.10816714 -0.08701429 -0.0881925 0.00029456295 -0.0006367498
-0.09252361 -0.14429344 -0.08968531 -0.112375654 -0.16776021 -0.1389454 -0.20630343 -0.2543114
0.0002673712 -0.0003015478 -0.37177566 -0.10306961 0.03913767 0.0098159 0.080040336 0.08647354
0.15753588 0.15083183 -0.0006202223 0.0005669172 -0.13348126 -0.098987095 -0.17898984 -0.069473006
-0.17539693 -0.09434371 -0.12545246 -0.15357928 -0.00014691941 -2.6444352e-05 0.0026785948 -0.062225636
-0.12893532 -0.32910717 -0.40408358 -0.4208495 -0.42096326 -0.33922875 0.0003469158 -0.0001469943
-0.36142042 -0.120945096 -0.063509464 0.13539538 0.16493218 0.116857514 0.1864512 0.1936531
0.00017085095 0.0004906821 -0.017494466 0.0565503 -0.09870956 -0.027366066 -0.16835175 -0.09423736
-0.18611778 -0.09577329 -0.00026680407 -3.6799844e-05 -0.15990438 -0.07044947 -0.026383683 -0.027096676
0.07070924 0.027681777 0.06302712 0.1352761 0.00036490383 0.00010671179 -0.26095352 -0.13626178
-0.04209017 -0.07826462 -0.028883234 0.10274705 -0.06254452 0.058803212 -4.9130074e-05 -3.862507e-05
-0.45764482 -0.3887921 -0.29579213 -0.37077203 -0.4091851 -0.60545754 -0.4719288 -0.5098322
-0.00011519181 0.00035849225 -0.31473258 -0.37952337 -0.28447047 -0.32651493 -0.3833139 -0.38813984
-0.40594828 -0.390768 0.00015764982 0.0001885108 -0.2557007 -0.04706918 -0.044141382 0.101853974

weight_hh_l0 f4 [512, 128]
00000000: f6cc 5c3d 64aa 01be 9e56 a6bc 4be2 513d
00000010: 92ea 25bc 0cea af3d 30b6 47bd 0988 92bc
00000020: eda8 83bd cf76 e2bb 655c b33d cee1 90bd
00000030: 6467 dabc 385b 1ebd 3538 ca3d 73ee 1dbe
00000040: a2e4 e13d 21ef 3a3e 1c9c 133d 05a3 b5bd
00000050: 768c 8cbd 8693 2f3b d309 7c3c 72f8 cf3b
00000060: 1230 9fbc 1f2a 97bd 8005 26be bca8 00bb
00000070: 85af 08be 4708 4dbc 9e6e d6bb 0cf2 0dbd
00000080: 6499 50bd 6fb2 14be 87c2 093d 7ded 11be
00000090: e557 36be 6c6d d53d b5f5 443b 66ae 063e
000000a0: 0460 f5bc d80c 343d 8d1a b1bc 0e41 9ebd
000000b0: fee7 09bc d32e 383c e726 16be 4149 8d3d
000000c0: 1b9e 7ebd 11c1 383d 94df 23bd bf81 cfbc
000000d0: 834e 363d 0845 b5bd cf12 fbbd 8481 923d
000000e0: 7c4f 95bd d8f2 d83d 1291 88bd d9b4 fabd
000000f0: 3840 00be 0b75 13be 6a89 0cbe f494 6abd
00000100: bebe e2b8 8598 a6bc 93f2 903d 53d8 ea3d
00000110: 43a6 d13d d657 723c 6386 86bd daf5 0cbe
00000120: a5c0 6dbd fb53 433d ddea cabd 42c3 eabd
00000130: 3813 d93d 890b c13d af1e e83d 899d 403e
00000140: 71bd 9dbb 342d 923c 7e26 99bd 8329 c63c
00000150: 0a1b 20bd 473f 0dbe 4e04 b63c f11b cf3d
00000160: bac4 a23d a8cb 003e c0b4 41bd d209 a43c
00000170: 4585 ae3d a777 013e 7938 253e 6a20 873c
00000180: b73a 6c3c 3862 71bd 94c6 fdbd 17de acbc
00000190: e868 d0bd afec 633d ed1d be3d 742d e2bd
000001a0: e8d1 f0bc 2a8f 9f3b 9047 0d3d 8615 fd3c
000001b0: 5a1f 6fbd 8f41 6d3b 6520 debd b5ae 0c3d
000001c0: bce9 2dbc 8ebc 0fbe f086 adbc 36aa 4ebe
000001d0: 3026 f8bd bc66 903d 0a39 133e 0ef0 033d
000001e0: 3855 d73d 62ef 77bd fa7f 563d 95bf 443e
000001f0: 6341 74bd 9c61 853d 87c0 d63c 68f8 b5bd
00000200: ea47 a7bd e076 d63c e43d 39bd fcb4 81bd
00000210: 9119 77bc 2172 003d 32d5 a03d 8a6f e63b
00000220: c66a 073d 3ea6 953d 2c3f 98bb f709 82bd
00000230: c921 edbd 9bfe b9bd 4e35 cc3d 10e6 f8bc
00000240: 9248 fabc c5a6 a8bc e703 003e f8bc 08be
00000250: 3d82 cbbc 7b30 1c3e 8dad 84bd 49f4 b5bd
00000260: d3e0 333e 4a6c f2ba bb51 843d 8439 2abb
00000270: 020c e0bd 32e0 c73c 781e a73d 68e8 e9bb
00000280: 562d 3fbd 6727 353c 7f57 3fbe 4e33 9fbb
00000290: 4371 11bd ef21 aabc 1b5e 573d c118 673c
000002a0: 77de c73c 7797 97bd 8847 96bd b089 bbbd
000002b0: b130 96bd 5074 73bb 91cb 10be 50d3 183c
000002c0: 9c30 963c 68e9 41bd 0ed8 7ebd ec29 c1bd
000002d0: 8de2 023d 6c0c 933b 58e9 a33b 76ec dcbc
000002e0: a6c8 3abd 0a97 cd3d 702d a5bc d63a edbd
000002f0: f5d1 b4bd 23db efbd 5078 99bd 2648 f73d
00000300: 4cfe d73c 7aec c2bd ea22 a53c 0023 bcbd
00000310: 9929 91bd 1b93 55bc 1afb be39 a905 8cbd
00000320: ad5d 3f3d 677b 32bc 2b5d f5bd a00f 37be
00000330: 8573 1e3d 284f 4a3c 55a0 38bc 83fc 4bbd
00000340: 1283 4c3c c33a 013e 04a5 733d b647 75bd
00000350: 03e4 abbc e9f4 1b3a c311 ee3d 7be7 febd
00000360: 287a 1b3e d54e b3bd fc6d 57bd 4509 0c3e
00000370: 823d b13d 0df3 29ba 7ed5 803d 1985 cfbd
00000380: e3df 1a3e 2efe ecbd 7257 f53c 66a6 1b3e
00000390: 5661 bbbd 0ee5 eb3d a799 1a3c 3cc1 d7bd
000003a0: 46a2 1cbd 4e85 fa3d 94e6 81bd d920 243e
000003b0: 992d afbd 680d a0bc da1c c6bc dc38 d7bb
000003c0: b755 0dbe c3e4 6f3c 74d9 eebc 1fbb 55bd
000003d0: 1d69 11bd 30a5 623d 563d 643d 1669 a3bb
000003e0: 2576 a23d 3c32 603c 492f 1e3d 6523 ac3c
000003f0: f964 d7bd dfd1 a3bd b75b 023d 667f 12bd
0.053906403 -0.12662655 -0.020304974 0.0512412 -0.010126727 0.08589563 -0.048757732 -0.017887132
-0.064287044 -0.0069111357 0.08757857 -0.07074319 -0.026660629 -0.03866121 0.09874002 -0.15422992
0.110299364 0.18255283 0.03603755 -0.08868984 -0.06862728 0.0026790812 0.015383202 0.0063467557
-0.019432101 -0.07381081 -0.16213036 -0.0019631824 -0.13348205 -0.0125141805 -0.0065439483 -0.034654662
-0.050927535 -0.14521192 0.03363278 -0.14250751 -0.17806967 0.10421261 0.003005368 0.13152465
-0.02995301 0.04395756 -0.021619106 -0.07727252 -0.008417128 0.0112416325 -0.14663278 0.06898738
-0.0621625 0.045105997 -0.040008143 -0.025330422 0.04450847 -0.08851057 -0.12259447 0.071536094
-0.07290551 0.10593194 -0.06668295 -0.12241525 -0.12524498 -0.14400117 -0.13724294 -0.05727096
-0.00010812048 -0.020336399 0.07077517 0.11467042 0.1023679 0.0147914495 -0.06568601 -0.1376566
-0.05804505 0.047687512 -0.09908078 -0.11463024 0.10599369 0.09426028 0.113339774 0.18810095
-0.004813843 0.01784382 -0.07478045 0.024189716 -0.039088286 -0.1379367 0.02221885 0.10112751
0.07947679 0.12577689 -0.047291517 0.020024214 0.08521513 0.126433 0.16134824 0.016494948
0.014418296 -0.05893156 -0.123913914 -0.021101994 -0.10176259 0.05564564 0.09283052 -0.11043826
-0.029396966 0.0048693614 0.034492075 0.030894052 -0.05837951 0.0036202406 -0.108460225 0.0343463
-0.010614809 -0.14036772 -0.021182507 -0.20182118 -0.12116659 0.07050845 0.14377227 0.032211356
0.10514301 -0.060531028 0.05236814 0.19213708 -0.05963267 0.06512758 0.026214851 -0.0888527
-0.081680134 0.02617973 -0.04522504 -0.06333348 -0.015081779 0.03135884 0.07853164 0.0070323395
0.03306081 0.07307099 -0.0046462025 -0.06349557 -0.1157871 -0.09081765 0.099711046 -0.03038314
-0.030552182 -0.020587334 0.12501489 -0.13353336 -0.024842376 0.15252869 -0.06478415 -0.08884484
0.17566232 -0.0018495407 0.06460901 -0.0025974223 -0.1093979 0.024398897 0.08160108 -0.0071383007
-0.046674095 0.0110567575 -0.18685721 -0.004858411 -0.035508405 -0.020768134 0.05257998 0.014105023
0.024398072 -0.074019365 -0.07337862 -0.09157121 -0.07333506 -0.0037148185 -0.14140154 0.009327725
0.018333726 -0.047341734 -0.062217765 -0.09431824 0.031954337 0.004487565 0.005002182 -0.026968222
-0.04560151 0.10038574 -0.020163268 -0.11583488 -0.088291086 -0.11711719 -0.07493651 0.12074308
0.026366375 -0.095177606 0.02015825 -0.09186363 -0.07088012 -0.013035561 0.0003642671 -0.06837017
0.046720196 -0.010893679 -0.11980661 -0.17877054 0.038684387 0.012347974 -0.011268695 -0.04980136
0.0124824215 0.12620072 0.059483543 -0.059882842 -0.020982748 0.0005949275 0.116244815 -0.12446495
0.15183318 -0.087552704 -0.052595124 0.13675411 0.0865431 -0.0006483056 0.062907204 -0.10132808
0.15124469 -0.115719184 0.029948924 0.15200195 -0.09149425 0.11518298 0.009436048 -0.105349034
-0.038240694 0.12232457 -0.063428074 0.16028155 -0.08553619 -0.019537643 -0.02418368 -0.0065680575
-0.13802229 0.014641943 -0.029156424 -0.052180406 -0.035500634 0.055333316 0.055722557 -0.0049868925
0.079326905 0.013683852 0.038619313 0.021012971 -0.10517306 -0.07999014 0.031825747 -0.035766028

bias_ih_l0 f4 [512]
00000000: 7c4a 6abd 9988 4dbe 8955 693c 9fe1 8f3d
00000010: 4a42 e2bd f63b 483d 9cb7 49bd c632 873c
00000020: 3db1 0a3e 6109 c1bc 89af 2dbd 6036 443d
00000030: bb4c 193d 5d96 9abd ea3d 2abe bb51 263d
00000040: 0a20 863d 1783 24be 7ae7 4cbd 63d0 b93d
00000050: bcf0 b7bc 5ebf 61bd 4d3d 96bd de1a ac3c
00000060: d17d b4bd bd41 c9bd d92f 703c 27ed 69bd
00000070: 4769 20bd 5abc 2ebd 9cbb e73c 1862 0fbe
00000080: fe3c 663c 5c63 f2bd 00bd 413c 4132 1fbd
00000090: c2f7 a8bd 54ee 213d d57f 86bd d170 8bbd
000000a0: 5d72 b8bd dacc 583a a808 37be df61 fbbc
000000b0: 4464 fcbc 64eb 44bc 4916 63bd 9413 5cbe
000000c0: 715f 1ebe 37b7 1e3e 60fa ccbd cf88 7ebd
000000d0: 6a50 c1bc e943 a1bd b434 8bbd 8856 b8bd
000000e0: 4b38 0cbe 92dd 13be a011 de3c 695c b23d
000000f0: 4372 d1bd 5623 333d 6129 f13d 5899 f83b
00000100: 8059 f9bd 69ad 803d c007 98bd 90fe 0bbe
00000110: 2c9f 60be 9c09 64bd bdd9 00be f61f debd
00000120: f16a ffbd 6d52 d03d 9ac3 5abe 72f1 c03c
00000130: c192 90bd cb0a b9bd b1fb 7d3b fbfb 6fbd
00000140: b0f5 d2bd ef1a 933d 6a55 d43d 7111 57be
00000150: fefa 253c b067 e3bc 3fc0 98bd f391 e13d
00000160: 90f8 8cbd bb73 233e 930b cfbd 059d 4dbd
00000170: f70f 2ebe 6a82 25be 66c4 55bd db0c 9dbb
00000180: 345b 29be 87a4 8fbd f30a 9abc c666 ec3d
00000190: afc9 433d 8af1 653c 4a7d 363c 940d 6ebc
000001a0: 6d6b a33c 932d e93c 6b34 e2bd 54db 30ba
000001b0: 8bab e7bc 5760 f43b ba03 8fbd 4895 b13d
000001c0: f814 e8bd 0b5e 80bd b535 77bd 6c67 d8bd
000001d0: 9f69 613c 1ac8 41bd decb 15be a67c 08be
000001e0: d833 29be c5b8 bebd ba0e 9cbd 4be2 19be
000001f0: 9c51 c0bc d4da 01be a2c7 9bbc 8e4d ccbd
00000200: 5811 3bbd be42 89bc 7aa2 c4bd 3ae2 12be
00000210: 2dd6 f9bc 900f d3bd 0dc9 21be 1cb3 ebbd
00000220: 0369 fbbd db85 9dbd 8bed 8c3c 4df1 08be
00000230: 4c7b 13be 6db6 66bd 3f7f 7abd 1503 613d
00000240: 9946 ddbd 619a 91bd dbae 4abd df36 fdbd
00000250: 083e 71bd 08d6 89bc fecc ce3c 8a7c 8bbd
00000260: 33ad 00be b9f8 cebc 416e 01be b787 d3bd
00000270: 5a4b 41bc 961b d9bc f22c 05be 241b 19be
00000280: 6aa9 473b 85b8 2abd 3c53 47bd b2a2 fcbd
00000290: 2ed2 6cbc de4c 89bd 1326 f4bd d08e 04bd
000002a0: 25e7 0ebd b11d 8fbc 0c3e 0cbe 5c6e f9bd
000002b0: 75b9 18be cb49 b4bc 8638 c3bc 94de 3cbe
000002c0: b58b c5bd 9b76 9dbd 4359 e5bd 09ef 04be
000002d0: d3be 0dbe 8d4b 043d 560f 09be c624 6fbd
000002e0: 534c a2bd 233c 9cbd f63c 01be 8fe1 c53c
000002f0: 7482 e53c 0062 d5bd f853 2abe 4ef6 e0bd
00000300: e3cc 8c3c 1b19 adbc a911 3cbd a327 fcbd
00000310: ab22 5dbe 4776 21be e1b0 50bd a333 bdbd
00000320: 6e83 503c 4548 adbd 246e 8cbd 4787 1fbd
00000330: 16e8 0fbd 2bda 99bd 2d50 2bbe 7890 e0bd
00000340: 5dd4 313b 9358 0dbe ead3 37be 6654 30be
00000350: 1489 cbbd b7a0 c6bd 0232 a0bc 0f18 d6bd
00000360: b912 debd 8c71 a9bd 0132 69bd 1e4f c7bb
00000370: 4cc4 d0bd 4790 f0bd 1f6a b0bd baac cdbd
00000380: 1f63 5ebe be9c 14be 9e31 c4bc f794 abbd
00000390: 0f57 6cbc f6d8 183d ba3b eebd 928c a6bd
000003a0: 3e06 ef3c 4206 20bd 3042 5b3c d7d8 2bbd
000003b0: f379 3abd afad 073d 20d7 f7bd 8444 50bd
000003c0: 29b5 953c 1f89 ffba 52d4 c7bd 8b92 98bd
000003d0: 80df d5bd de9b ef3c 389f 3ebd 1f21 bdbd
000003e0: d69c f7bd 8828 cabd d981 d23c 972e 22be
000003f0: f0f7 e0bd 8d79 5bbd ecef 35be fa78 e53b
-0.05719994 -0.20071639 0.014241585 0.07025456 -0.110478 0.04888531 -0.04924737 0.016503703
0.13544174 -0.023564043 -0.04240373 0.04790342 0.03742669 -0.07548211 -0.16625181 0.040605288
0.0654908 -0.16065632 -0.05002544 0.0907295 -0.022453658 -0.055114143 -0.07335911 0.021008905
-0.0881306 -0.09826992 0.014659845 -0.05711093 -0.0391629 -0.042660095 0.028287701 -0.14002264
0.014052628 -0.118353575 0.011824846 -0.038866285 -0.08250381 0.039533928 -0.06567351 -0.068086274
-0.09006188 0.00082702714 -0.17874396 -0.030686317 -0.03080953 -0.012019012 -0.055441175 -0.21491843
-0.15466096 0.15499578 -0.10008693 -0.06214219 -0.023597915 -0.07874281 -0.06797162 -0.090008795
-0.13693349 -0.14439991 0.027108014 0.08709032 -0.10226872 0.04373487 0.117754705 0.0075866394
-0.12175274 0.06283075 -0.07423353 -0.13671327 -0.21935719 -0.055673227 -0.1258306 -0.1084594
-0.12471569 0.101719715 -0.21363679 0.02355263 -0.07059241 -0.09035262 0.0038754756 -0.058589917
-0.103007674 0.071828716 0.10367854 -0.21002747 0.010130642 -0.027759403 -0.07458543 0.11014166
-0.06883347 0.15962116 -0.101096295 -0.050198574 -0.16998278 -0.1616303 -0.052189253 -0.0047927923
-0.16538697 -0.07013803 -0.01880405 0.1154304 0.047799762 0.014034638 0.01113827 -0.014529604
0.019948686 0.028464114 -0.11045154 -0.00067465496 -0.02828004 0.0074577737 -0.06983133 0.08671051
-0.113321245 -0.06267937 -0.060353953 -0.10566601 0.013758092 -0.047309972 -0.1462855 -0.133288
-0.16523683 -0.09312586 -0.07619996 -0.1502773 -0.023476414 -0.12681133 -0.01901609 -0.0997573
-0.045670837 -0.016755458 -0.096013024 -0.14344111 -0.030497635 -0.10305703 -0.15799351 -0.11508772
-0.12275889 -0.076915465 0.017203113 -0.13373299 -0.14402503 -0.05632632 -0.061156508 0.05493458
-0.10804481 -0.071095236 -0.04948316 -0.123639815 -0.05889705 -0.01682569 0.025244232 -0.06810863
-0.1256607 -0.025265085 -0.12639715 -0.1032862 -0.01179775 -0.026502412 -0.13005427 -0.1495176
0.003046597 -0.041679878 -0.048663363 -0.12335719 -0.014454408 -0.067041144 -0.119213246 -0.03236276
-0.034888405 -0.017470213 -0.13695544 -0.121792525 -0.14914496 -0.022007843 -0.023830663 -0.18444282
-0.096457876 -0.07688638 -0.11198666 -0.1298181 -0.13842325 0.032298613 -0.13384756 -0.05838468
-0.07924714 -0.07628658 -0.12620911 0.024155406 0.028016306 -0.10419083 -0.16633594 -0.10984479
0.017187541 -0.021130135 -0.04591528 -0.123122476 -0.21595256 -0.15767775 -0.050949935 -0.092383645
0.012726648 -0.0846105 -0.06856945 -0.03894737 -0.035133444 -0.07512315 -0.16729803 -0.10965055
0.0027134635 -0.1380332 -0.17951933 -0.17219695 -0.09938255 -0.09698623 -0.019555096 -0.104538076
-0.10843415 -0.082736105 -0.056932453 -0.0060824296 -0.10193691 -0.11746269 -0.08613991 -0.100427106
-0.21717499 -0.14512917 -0.02394944 -0.08378022 -0.014425053 0.037316285 -0.11632486 -0.081322804
0.029177781 -0.039068468 0.01338248 -0.04195484 -0.045526456 0.033124622 -0.12101579 -0.05084659
0.01827486 -0.0019495821 -0.09757294 -0.07449826 -0.1044302 0.029249128 -0.04653856 -0.09234833
-0.12090461 -0.09871012 0.025696682 -0.15838085 -0.1098479 -0.053582717 -0.17767304 0.007002947

bias_hh_l0 f4 [512]
00000000: e04b 1e3d 5739 42be fa52 d0bd 5877 563c
00000010: 1562 2b3c f528 c33c a454 b9bc a3ec d93b
00000020: e141 f93d dc1a 8bbd eb6a 2bbe 5e60 213d
00000030: 5e4d d43c 1f69 c5bd 15a6 23be 5fcb 193c
00000040: 34ec 0f3e bbec 21be ce56 8bbd dc4f 8e3b
00000050: a12d e4bc 42f3 5d3c 5b88 ccbd a40d 2dbd
00000060: 6ede a2bd 5401 713c 8c95 acbd d759 d4bb
00000070: 77bb 2d3c eb6f 843d 46b6 843d 5d8b 03be
00000080: 37f0 c3bc 0ba6 2cbe 48e9 9dbd 41e7 88bd
00000090: 3f55 e6bc 0a64 9a3d 0610 2cbe 1052 7a39
000000a0: bfc8 bcbd b58c 063d 5260 21be 3150 1cbd
000000b0: a5ed f6bd 7c32 75bb ccac 9abc d64a 54be
000000c0: 65e4 b5bd d165 a13d 9de3 88bd 4e3e 21bc
000000d0: 0c25 9a3c c97f d7bd b015 4bbd 1601 8fbd
000000e0: 698e 51be 29fc 6fbd e93f a2bc df4d 213d
000000f0: 1938 b1bc 64e4 b5bc 3c2d 093e 3a70 bfbd
00000100: 1468 c5bd 6319 903d af71 873c 6b5a 47be
00000110: 6a8b 2bbe 89d2 773d 9d2b 42be c3a4 b0bd
00000120: abb0 fdbd 2705 6dbd a250 57be 0d71 17bc
00000130: acaf 13be e710 efbd ab29 cdbd c915 70bd
00000140: 5cd4 81bd c3ba 0a3e 2c92 ab3c 9df4 5ebe
00000150: 80d5 dfbd 56ed 19bc 8cd8 bbbd 1061 c43d
00000160: 2b62 deba aae1 fa3c c3be c7bc 2033 d2bc
00000170: 39b0 76bd b9de 06be f872 0b3d 8680 5abd
00000180: 7c5d 32be 325d d9bc ab70 2fbb 657a aa3d
00000190: cb91 433d da5a f6bd 4415 7c3d ac24 1a3c
000001a0: c688 4ebb f2ba a03d 76c7 c1bd ae94 64bd
000001b0: 4c7f cabd 9412 efbc d490 1abc f02c 5cbd
000001c0: e936 3c3d 2e4d f4bd 4316 21be b965 bebc
000001d0: 5467 65bd 6b5a cabd 6359 2fbd 9e96 b8bd
000001e0: bd72 5cbd 16b4 9fbd 9e10 b13c ecb1 8fbd
000001f0: 1688 7c3c bd55 4cbd 09f5 5e3c 2261 e43c
00000200: 5d4d c3bd 7a8b 2ebe 53e6 d0bd edc1 33bd
00000210: 2bd5 8abd 5f84 003a 10ef 89bd fbf1 2dbe
00000220: 70c9 40be 25bb f5bd 4acf eebb 4a95 8cbd
00000230: 6681 0dbe 203b 1abb 60c3 88bd af7b 713d
00000240: 4c08 f6bd affc 29bd 8792 edbd 3e9d ecbd
00000250: 04e1 9abc e644 a8bd cecf 94bd f328 1bbd
00000260: 222c eebd c04b 1ebc fcce f1bc d46a 4cbd
00000270: 3671 44bd e310 8fbd 3b31 50be 76ce bdbd
00000280: f816 2abe 5ad2 b6bc b49f 14bd 0a4c 06be
00000290: 610b c1bd 1fc2 aebd 6090 27bd 0539 d93c
000002a0: 7ce0 10be fdfb 11bd 0e7a 34be 43a7 8cbd
000002b0: 7a0f 01be a734 cdbd 1a60 a6bd a73c d7bc
000002c0: e146 1ebe f475 b1bd f3e1 1dbe 9aa3 f5bd
000002d0: 00af c1bd 2b28 9bbc ccab 20be 3034 1bbe
000002e0: f69d a8bd 4631 45be c3b9 c1bd 24b7 e1bd
000002f0: a784 14bc d83e d4bd fd87 2fbe 81a9 54bd
00000300: 98d0 5c3b 632f 9dbc ce67 d7bd 942a 37be
00000310: b530 69be b902 aabd 3bab f2bd 535d a9bd
00000320: ffb5 d1bd 9894 cebd 45c8 85bd c3f3 d2bd
00000330: 1d7e 42be 669c 9abd 69c7 b3bd 2137 f0bd
00000340: 6763 b1bd 58fc 06be 2337 08be 8ae3 04be
00000350: 58e7 68bc e0b3 03be 025e 4fbd 4b09 15be
00000360: 0dcf ddbd d44b 4abe 3888 053d 2b45 43bc
00000370: 82fa 11be ca52 12be 30e9 7fbd 4bf8 9fbd
00000380: 392c ddbd a726 563c 60f7 dabc ed22 15be
00000390: ec5a e93b 3ae0 babd 7aee 4fbd 9132 03bd
000003a0: fcfb b1bd 5b5a 39bb 3cf4 87bd 3331 abbd
000003b0: 26ba 38ba 998b ce3c d2b3 c73c 6454 0abe
000003c0: 2231 20bd 1da8 c4bd b38d 3abe b52c ddbd
000003d0: 3cc3 b3bd dcca a23c 70bd 96bd 5d25 24be
000003e0: b72e aabd 5b7b 89bd bda6 273b ad71 5fbd
000003f0: 688e 06be 8dc3 1ebe 5b2f 24be 3f87 78bd
0.03864658 -0.18967186 -0.101720765 0.013089977 0.010460396 0.02382324 -0.022623368 0.0066505237
0.121707685 -0.067922324 -0.16740005 0.039398544 0.025915798 -0.09639191 -0.15981324 0.009386866
0.14054948 -0.15812962 -0.06803666 0.004343016 -0.027853789 0.013546767 -0.09986945 -0.042249337
-0.07952581 0.014709789 -0.08426961 -0.0064804363 0.010603777 0.06466659 0.064800784 -0.12846132
-0.023918254 -0.16860215 -0.077105105 -0.06684733 -0.02811682 0.07538612 -0.16802987 0.00023872429
-0.09217977 0.032849032 -0.157594 -0.038162414 -0.12057046 -0.0037414124 -0.018881224 -0.20731673
-0.088814534 0.07880748 -0.06684039 -0.009841515 0.018816493 -0.1052242 -0.04958123 -0.06982629
-0.20464481 -0.058590088 -0.019805865 0.039380904 -0.021633195 -0.022203632 0.13396162 -0.093475774
-0.09638992 0.07036092 0.0165337 -0.19468085 -0.16752401 0.060503516 -0.1896195 -0.08625176
-0.12387212 -0.05786624 -0.21026853 -0.009243262 -0.14422482 -0.11673146 -0.10017713 -0.058614526
-0.063393325 0.13547806 0.020943724 -0.21773 -0.10929394 -0.009394964 -0.091721624 0.09588826
-0.0016966512 0.030625183 -0.024382954 -0.025659144 -0.060226653 -0.131709 0.03404519 -0.053345226
-0.17418474 -0.026533697 -0.0026770036 0.08324126 0.04774646 -0.12029047 0.061543718 0.009408157
-0.0031514629 0.07848157 -0.09461872 -0.055805854 -0.09887561 -0.029183663 -0.009433944 -0.053753793
0.045950804 -0.11928783 -0.15731148 -0.023241865 -0.056006745 -0.09880527 -0.042809855 -0.09013103
-0.05382036 -0.077980205 0.021614369 -0.07016358 0.015413305 -0.049886454 0.013608226 0.027878348
-0.0953624 -0.17045394 -0.10200181 -0.043886114 -0.0677894 0.00049025373 -0.06735051 -0.1698684
-0.18826842 -0.119985856 -0.0072878944 -0.06864412 -0.13818893 -0.0023533776 -0.0667789 0.058955844
-0.12013301 -0.041500743 -0.116002135 -0.11553429 -0.018906124 -0.08216266 -0.07266198 -0.03788085
-0.116295114 -0.009661615 -0.029517643 -0.049906567 -0.04795953 -0.06985643 -0.2033128 -0.09267895
-0.16610324 -0.0223171 -0.036285117 -0.13114944 -0.094259985 -0.085331194 -0.04090917 0.026516447
-0.14148134 -0.035640705 -0.17624685 -0.0686784 -0.1260356 -0.10019808 -0.08123799 -0.026274038
-0.15456726 -0.08665076 -0.15418224 -0.11994095 -0.09457207 -0.018940052 -0.15690535 -0.15156627
-0.08233254 -0.19257078 -0.09459259 -0.110212594 -0.00906483 -0.10363549 -0.17141719 -0.051919464
0.0033693668 -0.019187635 -0.10517846 -0.17887336 -0.22772487 -0.083013006 -0.11849066 -0.08269753
-0.10239791 -0.10086936 -0.06532339 -0.103004 -0.18993421 -0.07549362 -0.08778269 -0.11729265
-0.086615376 -0.13182199 -0.13302283 -0.12977424 -0.014215313 -0.12861586 -0.050626762 -0.14554326
-0.108305074 -0.19755489 0.03260061 -0.011918346 -0.14255717 -0.14289394 -0.062478244 -0.0781103
-0.107994504 0.013070739 -0.026729286 -0.14564104 0.0071214344 -0.09124799 -0.05076454 -0.032030646
-0.0869064 -0.0028282616 -0.06638381 -0.083589934 -0.0007046781 0.02521305 0.024377737 -0.13508755
-0.039109357 -0.096023776 -0.18218116 -0.10799543 -0.087774724 0.019872122 -0.07360351 -0.16029878
-0.083096914 -0.06712981 0.0025581561 -0.05455177 -0.13140261 -0.15504284 -0.1603369 -0.060675856

weight_ih_l0 f4 [256, 128]
00000000: 775d 34bd d373 bdbd ba73 5abd bccb e73c
00000010: 7988 d6bd 8b40 08bd 3b5a 963c d191 f4bc
00000020: 6f9a 7e3d d7ee 693d 0722 e7bc 7a16 913d
00000030: 187d 97bd 8d6b ac3b 0e8d 5a3d 8a95 ddbd
00000040: 95ee 9a3d f235 9abc e3ce 083e 3c79 30bc
00000050: 032e 09be 41ef e33b 0562 113e ae6f cbbd
00000060: 2d91 343e dffc ad3d 6bb3 d73c 3f0e 55bd
00000070: bc26 c9bd d33f c03d 039b 5cbb 6a9f 223e
00000080: a248 39bd 0270 bd3c 2f31 fcbd 2953 b2bd
00000090: 4077 25be 25fb ad3d 89ed 01bd c8f4 73bd
000000a0: 000a 23bd 5cd9 3abd ebb9 56bd cce8 6f3d
000000b0: b792 c03c b639 8c3d 858c 78bc 47d6 b8bc
000000c0: d00a cbbd 86e1 a53d b332 b73d a8fd d7bd
000000d0: 2e4c 253d 3e5f 3bbe 0c66 a33d ba7a eebc
000000e0: 9a10 7dbd b036 3e3d 9fc2 313e fbfb ad3d
000000f0: 3aec 36bd 3428 d7bc 21f5 803b 84f1 1f3e
00000100: 863e 0e3e 63c6 003d f96b b7bd 7cec 913d
00000110: 214e 62bd 4012 d8bd 5065 683d 0100 9c3d
00000120: a0a8 03be 19e9 083d e1a7 9b3b 46d2 13bd
00000130: 8248 15bd f072 993a 22ac 16be 0f46 133e
00000140: f4e7 0abe 14d1 f33d 6248 a6bd cc0c 8abd
00000150: 7f03 12bc 6323 24bd 75e6 703d 392d f5bd
00000160: 5396 b23d d4ca 09be e5d9 413c 6ccd ec3b
00000170: 461f b63d 62d2 e7bd 6d44 14bd 35c0 653d
00000180: c124 bcbd 8bed ea3d 1529 bf3d 9bef d0bd
00000190: 5981 083e 8d09 ad3c f68f ad3d 4aa6 5c3d
000001a0: 2074 763a 11ad 2c3d c7d7 e33d bab4 883d
000001b0: 42bc ad3d 174a b93b b42b fd3d 0da7 053e
000001c0: aea2 ddbd e859 98bd 029a 23bd 4ed3 debb
000001d0: 183f fb3d 6a22 27bd 1efd 06bd 2605 9abd
000001e0: c47e d5ba 017a c83d 17a4 4fbd 0ca5 8838
000001f0: daa5 2c3c 5020 18be 5093 c53d b326 2b3d
00000200: 2b41 553e 4a4a 51bd 53c2 153e d2a8 cc3a
00000210: bf83 d9bb 52b2 6c3d f6bd a53d e9f1 7bbd
00000220: 5005 4dbd 217b 52bd 27e4 dcbd fa48 e5bd
00000230: c299 04be d03e edbd d125 853d c422 a83d
00000240: ad91 143e 4a99 48bd 0f68 0dbd b0d1 66be
00000250: 4e47 543d 37a8 033e 5af6 c8bd f564 e23d
00000260: e52b e03d 7c0b 79be 669c 73bd e3c4 c23d
00000270: 1537 f3bd 6f4e c8bc d451 3b3c b9b7 f4bd
00000280: 6d65 d53d 1a68 9abd dcea 313e d954 33be
00000290: 5235 07bd 8db1 603b dcb8 3bbd 8c22 8fbd
000002a0: 0ad3 1cbe ca25 cb3d c86b cf3d 98fc ddbc
000002b0: 3e4e 1ebd f883 ec3d a983 41be ca5f 77bd
000002c0: 16d5 043e f61d 473d d102 7cbd 9686 05be
000002d0: 8ed6 993d 7768 a03c c696 b03c c9c3 85bc
000002e0: 379f 0d3e cbe3 313c 72e7 563c d8b2 31bd
000002f0: 0f27 ad3c 2a71 f4bc f812 9bbd 9843 fbbd
00000300: 86e1 60be 3396 51be 7343 343e 8907 90bc
00000310: 206d 25be d01d 40be 34cd 343d 5e19 bcbc
00000320: 068f 433d 575c b93d 2fa7 1cbe 5416 ea3d
00000330: b92a bd3c 363c 63bd 67d9 dd3d 0f76 13bd
00000340: 113b 953c 37b7 47bd 46b9 0e3e 806c b33c
00000350: e2bd 1fbe a0f7 dc3c 7683 323d 8c26 09bd
00000360: a3d2 313e 376f 693d cd2d 36bd 615b 9b3d
00000370: 3b9b 3abc c635 de3d 8e0d aa3d e14f b9bd
00000380: 12d5 ccbd e16d eebd 797c 31bd 3b42 d9bd
00000390: f886 16be afc5 613d 6a36 93bc 302f 10bd
000003a0: dbcc 24bd 11bd ce3d 6ae6 563e 1232 21be
000003b0: c9ab 8bbd 5d4f 56be 41f4 47be ff92 f2bb
000003c0: 9581 083c ab7b 92bc 5298 023e 02f0 b0bc
000003d0: d8a7 f6bd 3e2e 3d3d e249 223d e528 63bc
000003e0: 4ed6 dabc e924 d73d de74 203e bac6 613b
000003f0: 865f 12be dc8e d83d 905b 6c3d e6e6 10be
-0.044034448 -0.09250607 -0.05333302 0.02829539 -0.10475249 -0.033264678 0.018353572 -0.029854687
0.062158998 0.05711254 -0.028214468 0.07084365 -0.073969066 0.0052618445 0.053357176 -0.10819538
0.07565037 -0.018824551 0.13360171 -0.010771092 -0.13396458 0.0069560115 0.14197548 -0.099334106
0.17633505 0.08495497 0.02633067 -0.05201554 -0.09821841 0.093871735 -0.003366173 0.15881124
-0.045235284 0.023124699 -0.123140685 -0.08707268 -0.16158772 0.08495168 -0.03172067 -0.059559613
-0.03980446 -0.045617446 -0.0524234 0.05857162 0.02350746 0.06846945 -0.015170221 -0.022563113
-0.09914172 0.08099656 0.08945217 -0.10546428 0.040355854 -0.18298051 0.07978448 -0.029111255
-0.06178341 0.046438873 0.17359398 0.08495327 -0.044658877 -0.026264288 0.0039354716 0.15619475
0.13891038 0.031439196 -0.08956141 0.07125184 -0.05525029 -0.10550356 0.056737244 0.07617188
-0.12857294 0.033425424 0.0047502373 -0.036089204 -0.036446102 0.0011707228 -0.14714101 0.14382194
-0.13565046 0.11905113 -0.08119275 -0.06740722 -0.008911966 -0.04007281 0.05881353 -0.11971516
0.08720078 -0.13456279 0.011831735 0.0072266366 0.08892684 -0.11319424 -0.03619807 0.056091506
-0.09186698 0.11471089 0.09334008 -0.10201951 0.13330592 0.021122718 0.08474724 0.053869523
0.0009401459 0.042157236 0.11125141 0.06675096 0.08483173 0.005654584 0.12361851 0.13052006
-0.10822044 -0.07439023 -0.039941795 -0.006800092 0.122678936 -0.040804304 -0.032956235 -0.07520513
-0.001628839 0.097888954 -0.050693598 6.515728e-05 0.010537589 -0.14856076 0.09647238 0.041784953
0.20825641 -0.05109624 0.1462491 0.0015614277 -0.00663802 0.057787247 0.08092873 -0.06151
-0.050053895 -0.051386956 -0.10785704 -0.1119556 -0.12949279 -0.11584246 0.065013535 0.08209756
0.14508696 -0.048974313 -0.034523066 -0.22540927 0.051825814 0.12857138 -0.09812613 0.11054412
0.10945872 -0.24320787 -0.059475325 0.095102094 -0.118757404 -0.024451463 0.011433084 -0.11949105
0.10419736 -0.07539387 0.17374748 -0.17512836 -0.033009835 0.0034285516 -0.045830593 -0.06989011
-0.1531488 0.09919317 0.101279795 -0.027097985 -0.038648836 0.115486085 -0.1889788 -0.060394086
0.12971911 0.048612557 -0.061526123 -0.13039622 0.07511626 0.019581063 0.02155627 -0.01632871
0.13830267 0.010857533 0.013116704 -0.04338345 0.021136789 -0.029839117 -0.075719774 -0.12268752
-0.2196103 -0.20467453 0.17603855 -0.017581718 -0.16154909 -0.18761373 0.04414101 -0.022961315
0.04774382 0.090508156 -0.1529815 0.1143004 0.02309166 -0.055477343 0.10832482 -0.03600126
0.018216642 -0.04875871 0.13937864 0.021902323 -0.15599778 0.026973546 0.043582402 -0.033484027
0.17365508 0.05699083 -0.044477273 0.075857885 -0.011389549 0.108501 0.083033666 -0.09048439
-0.100015774 -0.116420515 -0.043331597 -0.106083356 -0.14699924 0.055120166 -0.017970283 -0.03520125
-0.040234428 0.10094655 0.20986333 -0.15741757 -0.06819875 -0.20928712 -0.19526769 -0.007402777
0.008331676 -0.017881235 0.12753418 -0.02159882 -0.120437324 0.046186678 0.03962124 -0.0138647305
-0.026713517 0.10505087 0.15669581 0.0034450726 -0.14294252 0.10574123 0.05770451 -0.14150581

weight_hh_l0 f4 [256, 64]
00000000: 19e5 c03d 614a 28be 3261 783c e83e 7e3d
00000010: b8a4 093e c19b d63c 8f6f 1b3d 7973 ba3d
00000020: 34e5 cf3d f7b3 103e a16f 91bd 5592 c33d
00000030: 2c18 793d ff68 b63c e28f 03bd ecc2 19bd
00000040: f9e4 e93d 1072 a9bb c788 003d 2790 ae3d
00000050: 0344 913d 7e53 fdbd 6756 98bd 6589 be3c
00000060: 09c9 0cbe 7010 e33c 8be2 ebbd 12a6 92bc
00000070: f259 bebc 9dc4 013e 05bb ac3d f17d a4bc
00000080: 6bfc 123d 77d2 0c3e 4414 b03d 278c 823d
00000090: 9f63 713d 5003 62bc 0f64 0d3e c675 2dbd
000000a0: 18fd 87bb c4da 42bd b47b 8abd 60d7 9a3d
000000b0: 08ab 673d 2c37 f5bd b8a4 9abd 4b27 b83c
000000c0: 42ca 193e ace8 c93c 26b1 9c3d 73a1 28bc
000000d0: 3644 12be 03b7 143d 32bf eabd 23f3 833d
000000e0: c828 6c3d 6699 063d c2a4 b93d bc25 d53c
000000f0: acbc 00bd 1e7b 79bd 2c6e dabd 2cec 763d
00000100: 6f35 283e 127a d1b9 f57c cfbd 9a36 c4bd
00000110: b01e 813e a25f 09be a467 853e a9b3 e6bd
00000120: 6fad 2ebe c429 e03d 6f64 97bd 12b1 f33d
00000130: f143 e0bc d49c 3bbe 13dd b93c e15d dcbd
00000140: afcb 3d3d 67de 203e 58d4 603c 3b85 943d
00000150: 98ac 18be aa4f 32be a9d9 d5bc 7f56 57be
00000160: 72b6 ff3d 4a26 61be bdc9 bbbd 9eb5 ef3d
00000170: 8190 883d f96f 7fb9 3044 f8bd 191f d7bb
00000180: 5c53 26be 23e9 673d 3633 86be b6bb 193e
00000190: 614a 093d 3601 3f3e ec46 45be cba3 b2ba
000001a0: 0ffa 823e a746 b5bc 3089 35be fe19 74be
000001b0: f18f e8bd 803c 49be d185 07be b6e6 42be
000001c0: 1cc3 b13d 9c34 5dbe fce3 e9bd d4c6 c63c
000001d0: eb08 3d3c 999c 88bd 4062 22be dc65 e63d
000001e0: 4a54 9fbc 71b7 c7bd c2db a03c 0c4f 083e
000001f0: 1615 203d e6d7 94bd 05ef 14be 9d79 0b3e
00000200: 3ca8 de3d fe49 babd 6acc 9bbd 02c3 4f3d
00000210: 1be2 7b3d a899 c73c f84e b9bc 5081 0bbe
00000220: 628f ef3c 025d c13d 425a 0d3d c8c7 4a3d
00000230: 817b babd d864 003d 9f11 09bd e123 fdbd
00000240: e5ce 963d 967b ecbc 1063 b2bd ed88 d6bc
00000250: 824a 26be 8820 18bd 9df6 f1bc 5547 7dbd
00000260: eafa a03b ffce 25be fb71 45be 71a8 ec3d
00000270: 6cd6 69bc 59c1 493e 1ed5 14be d234 18be
00000280: 7d20 06bd b997 ff3d 7b1d 003c b423 873d
00000290: 2784 63be fdbb 433c b9e7 673d 3521 e83b
000002a0: 6cc4 cf3c 39fc 163c e20f 1a3e 46d8 29be
000002b0: 9275 883d 9d98 823c c895 873d d9a3 2bbc
000002c0: 156c 633d ccd7 0a3c aeca 25be 0c2e 5f3c
000002d0: d13a 36be 66ba 2fbe a212 c8bb 90f9 13be
000002e0: 0407 b1bd 1e1c 09be fd5b db3d cb9a 3e3e
000002f0: 28f2 77ba efe0 18be 8977 543d 2e31 0fbd
00000300: 44d3 c7bd 60d6 dc3d bc08 2cbd 1713 29bd
00000310: ce41 953d 1677 acbd 4984 d63d 69ec ed3d
00000320: 9b80 8d3c d4a9 cbbd 96a1 31bd b995 9bbd
00000330: 69b4 0a3e f4ff 0cbe 7cf3 863d a2b9 903d
00000340: fdd4 9c3d be25 91bd 35a6 a23d 7562 afbc
00000350: 457a 9c3d 5c8a f4bd 2f61 1d3e 82fd 7fbd
00000360: c534 623e cc98 d5bd c584 ef3d 4df8 fc3b
00000370: 5c38 19bc a0cc 24bd e22e 213d 308b 9dbd
00000380: 8d36 ac3d 9ee8 4ebd 67a5 ad3d 9664 fabd
00000390: b0e7 6e3d 518b 113e 4736 c53d c0bc 323b
000003a0: 0497 d13d ba4b c33d e557 8dbc 9ed1 1a3e
000003b0: 66b0 a5bd 6a52 95bb 21d7 97bd 0a87 443d
000003c0: 8f81 03be 2e3d 143d 2da3 013e 9908 0e3d
000003d0: 7619 27bc 461c 82bd 3994 033d 5467 d8bc
000003e0: a336 bebd 5ba2 00be 881c 583d 1261 cabd
000003f0: ffa3 3f3e 1f32 00be 454f 5c3d aafe 173e
0.09418697 -0.16434623 0.015159892 0.06207171 0.13441741 0.026197316 0.037948187 0.09104056
0.10151139 0.14131151 -0.0710137 0.09549395 0.060814068 0.022266863 -0.03211964 -0.037539408
0.11420626 -0.005171068 0.03138044 0.08523589 0.0709305 -0.123694405 -0.07438355 0.023258874
-0.13748564 0.027717799 -0.11517819 -0.017901454 -0.023236249 0.12672658 0.08434109 -0.020079585
0.035885256 0.13752161 0.08597615 0.06374388 0.058932897 -0.013794735 0.138077 -0.042348646
-0.004150044 -0.047571912 -0.06761876 0.07560611 0.056559592 -0.11973414 -0.07550949 0.022479674
0.15018561 0.02464708 0.07650976 -0.010292399 -0.14283833 0.036307346 -0.11462249 0.06442859
0.05765608 0.032861136 0.09064628 0.02601897 -0.03142993 -0.06090843 -0.10665545 0.060283825
0.16426633 -0.00039954536 -0.101312555 -0.09580727 0.25218725 -0.13415387 0.26055634 -0.11264736
-0.17058347 0.10945466 -0.07392203 0.11899008 -0.027376147 -0.18321544 0.022688424 -0.107600935
0.046336826 0.1570984 0.013722502 0.07251974 -0.1490959 -0.17413202 -0.026104765 -0.2102909
0.124859706 -0.21987262 -0.09169338 0.117045626 0.06668187 -0.00024360408 -0.12122381 -0.0065649864
-0.16242737 0.05661882 -0.26210946 0.15013012 0.0335182 0.18652806 -0.19265336 -0.0013629136
0.25581405 -0.022128416 -0.17728114 -0.2383804 -0.1135558 -0.19651985 -0.1323464 -0.19033322
0.08679792 -0.216021 -0.11420438 0.02426473 0.011537771 -0.06670494 -0.15857792 0.11249897
-0.019449372 -0.097517855 0.019636039 0.13311404 0.03908261 -0.07267742 -0.14544304 0.1362061
0.10871932 -0.09096144 -0.07607348 0.050723083 0.061494928 0.024365261 -0.022620663 -0.13623548
0.029243175 0.09441568 0.034509905 0.049506932 -0.09105588 0.031346172 -0.03346407 -0.12360359
0.07363681 -0.028867524 -0.08710301 -0.026188338 -0.1623936 -0.0371404 -0.02953654 -0.061835606
0.004912724 -0.16192244 -0.19281761 0.11555565 -0.014272314 0.19702663 -0.14534423 -0.148639
-0.032745827 0.12480111 0.007819529 0.06598607 -0.22218381 0.011946675 0.056617472 0.0070840367
0.025362216 0.009215408 0.15045121 -0.16586408 0.0666305 0.015941912 0.066203654 -0.010476076
0.055522997 0.008474302 -0.16190597 0.013621818 -0.17795874 -0.17160949 -0.006105737 -0.1445067
-0.08643916 -0.13389632 0.10710905 0.18613736 -0.00094583863 -0.14929555 0.05187181 -0.03495901
-0.097570926 0.10783076 -0.042000517 -0.04127797 0.07287942 -0.08421151 0.1047445 0.11617357
0.017273238 -0.099445015 -0.04336699 -0.07596917 0.13545384 -0.13769513 0.0658941 0.07066657
0.07657812 -0.07087277 0.07941858 -0.021409253 0.076405086 -0.119404525 0.15369104 -0.062497623
0.22090442 -0.10429534 0.11695246 0.0077200294 -0.009351816 -0.040234208 0.03935135 -0.076925635
0.08408842 -0.05051481 0.084788136 -0.122262165 0.058326423 0.14213301 0.09629493 0.0027273148
0.10233882 0.09535928 -0.017253825 0.15119025 -0.08090286 -0.0045569437 -0.074140795 0.047980346
-0.12842391 0.036191158 0.12659903 0.034676168 -0.010198941 -0.06353049 0.032123778 -0.026416458
-0.09287765 -0.12561934 0.052761585 -0.09881796 0.18714903 -0.1251912 0.053786535 0.1484324

bias_ih_l0 f4 [256]
00000000: 00a0 60bc 6bf5 22be f4b1 1f3d 239e a6bc
00000010: 60ab 45bd 16bd 8f3c 4b53 133d 061c d23d
00000020: cab3 1ebd 92fb f8bd fa95 183d 8893 11bd
00000030: 8be7 023e 115d dabd 5690 eebd c5a3 dabc
00000040: d7d1 00be 9a65 20be f9c0 d33b 7b4b 2d3d
00000050: f7a6 d03c 38ae 0bbe 1c3e 92bd a2a7 0b3e
00000060: a165 e73d c950 6e3d d7b5 433b ec8a 123e
00000070: 0e41 c2bb 03a6 fcbd 05ef 383c 22e2 7cbd
00000080: 49d7 fe3d 57f6 153e 0c23 50bd 4da1 353e
00000090: c6b3 51bd 98da 20bd 7058 10bc becc 953d
000000a0: cb3e 52bd 8c74 a1bd 46f3 37bd 70e4 d93c
000000b0: 72ca 923d 6d90 aebd a01f b7bd 76ba cfbc
000000c0: 44da 35bd f70e c03d f6c8 393d 5ccb c8bd
000000d0: ba1a 96bd 816a c8bd e06b 043e 5216 d3bd
000000e0: 8b25 19bd 8aa1 43bc d4d5 d23d d4b9 f9bd
000000f0: 1008 80be 9416 513d 7e5a 823d 1132 3fbe
00000100: b6eb a93d 047a 77bd 50fa 6b3d e39a 0fbe
00000110: d809 a4bd 62ad 5abd 4dfc 003d a879 2ebc
00000120: e817 85be 137c 42bd b520 97be 57cd 963d
00000130: 9b5e 53bc 6b34 b9bc 2932 74be 8bc8 acbd
00000140: 6523 233d 1ce2 f5bd fc7e 55be bb9e e4bd
00000150: b4ad 573d 3e4a 12be f422 3abe 4d18 4a3d
00000160: a71b babd 0299 743d 5989 4dbe 7f77 1a3d
00000170: bfdf 65bd aa6d 62be 422e c3bd db90 c5bd
00000180: 68a7 89be fb37 103d b9d1 d2bd c3e0 47bd
00000190: 325b 54bd 2fb4 53be 28a3 da3b 6852 6fbd
000001a0: b020 033d d4ee 20be 0cc4 7ebe 3e11 2b3d
000001b0: 2319 a43b 454d 843d 1388 1dbe daff 20be
000001c0: 1634 66bd 30f3 4abd 6c54 fbbd db05 2cbe
000001d0: 1f77 63bd 24c0 86be d437 813b 64f2 48bd
000001e0: 7763 27be 478e 1abe c69f 0cbe 2dd4 07be
000001f0: 862e 18be 8f15 28be a28a d5bd 05b0 84be
00000200: b406 4fbe 1f65 9d3b 821d c5bc 4be1 353d
00000210: db9c 63be fa09 d93d 5c1a 093d 0ecd aab9
00000220: 8172 0abc 21c1 3ebe 1b2e e6bd 5da8 2bbe
00000230: fe07 143e 3d23 793c 988d 953d 78b7 8abb
00000240: 3d6d 11be caf1 95bd 2325 213e bff0 0dbe
00000250: 6472 003d 1953 a93d 74dd c6bd 7c6e 723e
00000260: be94 9cbd 7149 d63d 6353 083d fa36 48bd
00000270: 59ad a53b a4cf b6bc fec1 983d 7e9c a13c
00000280: 28e0 94bd e684 1cbe 9104 313d a6f6 36bd
00000290: 360e cebb 2303 95bd 84b5 fbbc 90b2 243d
000002a0: d428 523c 36d6 a53d ad29 c7bd 1ce9 053e
000002b0: 1fd8 133e e843 133e f02a c13d 0128 2e3d
000002c0: 4810 5ebc 518c b13d 4c18 0f3e 87eb e8bc
000002d0: cf79 153e 0579 83bc 5b26 023e e802 6f3d
000002e0: 6003 cc3c b99d 033e 1a4c bfbd 1672 aabd
000002f0: 35fb ba3d dbe8 fe3c 8516 db3d 6d2a 20bd
00000300: 939e 33bd 3680 bfbd e797 eebd 8473 2bbe
00000310: 8840 75bd 6c91 09be 95b6 0a3c a7b8 d83c
00000320: 8877 9abd 1cf8 5ebd 21c6 4ebd 1986 82bd
00000330: 8fbd 833d 5b90 1b3d cc6e 28bd e0b5 c53d
00000340: 7e22 9c3c 498f 523c 514e 9bbd 9591 8ebd
00000350: f8ae 02be b6f4 33bd fbb1 42be 6c26 eebc
00000360: 59d0 90bd 0d87 01be 51ba d5bd 1894 4bbc
00000370: f253 d5bd 0c90 cd3d 08c4 a43d f339 24be
00000380: 6199 5c3c e84e 493d ad78 96bd 9120 1b3e
00000390: 4662 cfbd 11a2 9ebd e5ed fc3c 97cc d6bd
000003a0: 36fe 05be 5a93 a9bd 814d 7e3b fdbf 153e
000003b0: 5ee3 483d 8a71 e03d 6eec 89be 9c30 813b
000003c0: c3a9 d9bd 6be4 44bd 2608 e33c da4c edbd
000003d0: 3bbc 13bd a421 adbd 5e18 e2bc 455d 70bd
000003e0: 3b1f e8bd ee05 41bd 2c05 3cbd e4ba 6f3d
000003f0: 4ea3 4dbe 5863 46bd a272 3dbd fdf1 6cbe
-0.013710022 -0.15913932 0.03898807 -0.020339077 -0.04825914 0.017546218 0.035968106 0.10259251
-0.03874568 -0.12157358 0.037252404 -0.035541087 0.12783639 -0.10662282 -0.11648624 -0.02668942
-0.12580048 -0.15663758 0.006462213 0.042308312 0.02547024 -0.13640678 -0.07140753 0.13638166
0.11298681 0.05818251 0.0029863024 0.14310807 -0.0059281653 -0.12336352 0.011287455 -0.061739095
0.12443406 0.14644752 -0.050814673 0.17737313 -0.051196836 -0.039270967 -0.008810148 0.07314442
-0.051329415 -0.07883558 -0.044909738 0.026598185 0.0716752 -0.08523641 -0.08941579 -0.025357466
-0.044397607 0.09377854 0.045357667 -0.09804413 -0.073293164 -0.09785939 0.12931776 -0.10306992
-0.03738932 -0.011940369 0.10294691 -0.12193647 -0.2500615 0.051046923 0.06364916 -0.18671443
0.082969114 -0.060419098 0.057611763 -0.14023928 -0.0800969 -0.053388007 0.031490613 -0.010649122
-0.25994802 -0.047481608 -0.2951714 0.07363384 -0.012900974 -0.022608003 -0.2384726 -0.08436688
0.039828677 -0.120060176 -0.20849222 -0.11163088 0.05265589 -0.14286134 -0.18177396 0.04933958
-0.090873055 0.059716232 -0.20071925 0.037711617 -0.056121584 -0.22112146 -0.09530307 -0.096467696
-0.26885533 0.035209637 -0.10293908 -0.048798334 -0.051844783 -0.20674203 0.006672282 -0.058428198
0.032013595 -0.15716106 -0.24879473 0.04176449 0.0050078793 0.064600505 -0.1538394 -0.157226
-0.056202017 -0.049548328 -0.122719616 -0.16799109 -0.055533525 -0.26318467 0.003943423 -0.049059287
-0.16346537 -0.15093337 -0.13732824 -0.13264532 -0.14861497 -0.16414474 -0.10426833 -0.25915542
-0.20217401 0.0048033143 -0.024061922 0.04440431 -0.22227804 0.10597606 0.033472404 -0.00032577704
-0.008450151 -0.1862836 -0.11239263 -0.16763444 0.14456174 0.015206155 0.073023975 -0.004233297
-0.14201827 -0.07321508 0.15736823 -0.13861369 0.03135909 0.08267803 -0.097102076 0.23674959
-0.07645558 0.104632266 0.03328265 -0.048880555 0.005056065 -0.022315808 0.07458876 0.019727942
-0.07269317 -0.15285072 0.043217245 -0.044668816 -0.006288315 -0.07275989 -0.030726202 0.040209353
0.012827117 0.08097498 -0.09724746 0.13077205 0.14437912 0.14381373 0.09432018 0.04251862
-0.013553686 0.08669341 0.13974112 -0.02843262 0.14597248 -0.016048918 0.12709944 0.05835238
0.024903953 0.12853135 -0.09340687 -0.083225414 0.09129945 0.031116894 0.10697655 -0.03910296
-0.0438524 -0.09350626 -0.11650067 -0.16743284 -0.059875995 -0.1343438 0.0084663825 0.026455237
-0.0754233 -0.054435834 -0.05048192 -0.06373233 0.0643264 0.037979465 -0.04112129 0.096538305
0.019059416 0.012851545 -0.07583297 -0.06961361 -0.12762058 -0.043934546 -0.19013207 -0.029071055
-0.07070989 -0.12649174 -0.10435928 -0.012425445 -0.10416402 0.100372404 0.080452025 -0.16037731
0.013464303 0.049147516 -0.07347236 0.15149142 -0.10126166 -0.077457555 0.030875156 -0.10488241
-0.13085255 -0.08280058 0.003880352 0.14624019 0.04904496 0.10959156 -0.26938194 0.0039425623
-0.106280826 -0.0480694 0.027713846 -0.11586924 -0.036068182 -0.08453682 -0.02759951 -0.0586827
-0.11334082 -0.047124796 -0.04590337 0.058527842 -0.20081827 -0.048434585 -0.0462519 -0.23139186
