Comparative_Evaluation/Baselines/LSTM/models_m/model122.pt (torch, 137095 bytes, 10 tensors)

weight_ih_l0 f4 [256, 10]
00000000: 2155 36be 427b 67bd 0cc0 723b 6dce aebd
00000010: 46e1 86bd 0aa0 f8bc 9f16 7abd 8b81 6abd
00000020: 1c2c aabc 59fd b7bd a65a 8d3d 8abd f43d
00000030: 33c8 0f3d 41e6 113d 0937 e53d f811 ccbd
00000040: 140f cebd b239 823d 8935 acbd 44cb b4bc
00000050: 0fb8 90bd 3a91 bb3b 4c30 53bc 48b2 9cbb
00000060: 4ed4 583d 8eaf 5b3d faab 99bd 8f0d 8d3c
00000070: e4fb 81bd 064e c63c 5d47 88bb 9941 133e
00000080: ef4b 32bd bc1f 9cbd 7573 89bd 30c2 d8bc
00000090: 0ff1 86bd 4a77 763d 09b0 193e 255a 2abd
000000a0: 494f e6bd dddc 10be 7349 a3bd 083a 2b3d
000000b0: a166 613d b62c 82bc 13da 043e f6dd 7a3d
000000c0: ace4 2d3c 0ec3 633e 6cba 0c3b 1166 23bc
000000d0: 2a8f 853d 26fb e53d 9874 9f3d 82a4 26bd
000000e0: 9c64 b23d 899c bf3d f111 0cbd 02c8 1bbe
000000f0: afcb 563d e683 383d 57bf 9dbd 93a3 dd3d
00000100: 0156 e43d 88aa 4a3d 16ba d13d 3aec c1bc
00000110: fd30 233e c7cc df3c fd7b 02bd 26bd e0bd
00000120: 3bdd 5dbd c45f 66bc 975e 973d cfb7 3b3d
00000130: 1cf4 0ebe 73d3 02be 1566 0dbe 6a92 2abe
00000140: 6268 9f3d 9ff5 183e 245a 9e3d 54d1 013e
00000150: 68f9 2ebd 69cb 23bc ae2c c3bc 9d28 39bd
00000160: b4ce 68bc 1a39 22bd 710b 0bbe 91f4 97bd
00000170: f054 8cbd 8636 febd b7c0 a9bd 146f ddbd
00000180: 479a 6f3d d743 15bd c6d6 d43d a941 553d
00000190: 671a 31be e0e2 86bd 44c2 153d c82f 07be
000001a0: db1c 0b3b 7238 763d f98f eabb 9d66 5dbd
000001b0: 06aa 083e fb4c bf3d 4563 c33d 7bda 133d
000001c0: fc03 163e 5b1d 07bd e89d 103d 8008 943b
000001d0: 105a 9fbd f458 e9bc 38da 83bd 02bd f4bd
000001e0: d8e4 063e 8a2b b83d d2ba 613d d25e bb3d
000001f0: 80f2 903d 4b22 683d 183e df3d dd99 7d3d
00000200: f639 693d 2c02 14bd c998 f4bd 3963 a1bd
00000210: e60c 503d c6ca dd3d 5c75 283e 3ca0 263e
00000220: 7c8a 823c 217a 933d 0c9a 2c3e 4842 883e
00000230: f5d8 2bbd 0aef 0bbe 1b44 ec3d 0351 f63d
00000240: 01ac a53c 06ff a7bd 8507 183e 537f e83d
00000250: 812b dd3d b8d3 103e 285b e83d 31dd 8e3d
00000260: 2a39 053c 2d04 1b3d 759a d53d 0f49 283e
00000270: 4647 bb3d aa2b 253e 3f32 553e 4fe1 de3d
00000280: 740a e33d d3bd 6c3d d95d 93bd e451 103e
00000290: ec2d a33d b6f7 56bd 27bd c53d e4d1 28bb
000002a0: 8870 283b dd31 21be 28f9 293c df14 cabc
000002b0: 5412 2e3d 5fe3 71bd e542 0f3e 46a0 d13d
000002c0: e42e 923d b1e7 2f3e 27a8 0e3e d951 503e
000002d0: 43b3 0e3d 526d 603b 8497 2c3d d46b cd3d
000002e0: ad69 363d 5a2c 0a3d 8168 463e c4cc 093e
000002f0: 70e1 193e 8230 3e3e a78d c03d f3bc 043e
00000300: 9b1b 133d 90dd 10bd 3cb2 55bd af45 ddbb
00000310: d3b9 943d c251 bb3d b10b 2cbd e86f bcba
00000320: 0df2 bfbd c880 fcbd f439 2b3d fd3a 8c3d
00000330: 1554 ddbc 9cfe d13c 364d c83d 2fbc 4f3d
00000340: 0636 703c d252 993c 88ba 32bd 6ea1 89bc
00000350: 882c f93c 6465 773d f0eb 953d b2d4 2abd
00000360: 5cf2 1abd b1f7 1cbd 5063 a1bc 56b8 9d3d
00000370: 85c8 0dbe 606a 2bbd 0728 653d f00e 09bd
00000380: 5285 d7bc 6fde d73d bc83 f8bc adfa a6bd
00000390: 9e62 0b3c 990b 813e e66d d9bd 75b0 063d
000003a0: be11 c0bd 313f 203d 66e9 f4bd 8917 3ebd
000003b0: 4596 4cbd 4f88 393e c03d b63d be27 953e
000003c0: 5498 70be 7fd5 8bbd 6b2b 43be cdee 50be
000003d0: 328a e5bd ebe5 8dbd d623 5abe 16f6 80be
000003e0: ea15 63be 0437 09be 6454 8d3a 8d82 d83d
000003f0: 3f1a 103e 888d 8c3d 204d de3d 55ec 6cbd
-0.17805912 -0.056514032 0.0037040738 -0.08535466 -0.06585936 -0.03034975 -0.06105673 -0.057252448
-0.020772986 -0.08983869 0.069020554 0.11950214 0.035103034 0.035619978 0.11192138 -0.09964365
-0.1006147 0.06358661 -0.084086485 -0.02206958 -0.070663564 0.0057240995 -0.012889933 -0.004781995
0.052936845 0.05363422 -0.07503505 0.01721838 -0.063468724 0.024207126 -0.004158898 0.14380492
-0.043529447 -0.0762324 -0.06711475 -0.026459783 -0.06588947 0.060172357 0.15008558 -0.041589875
-0.11245591 -0.14146753 -0.07972994 0.04180339 0.055029515 -0.01589046 0.12973814 0.061246835
0.010613602 0.22242376 0.002147342 -0.009973065 0.06521447 0.112295434 0.0778591 -0.04068423
0.08710596 0.093560286 -0.034196798 -0.15213016 0.05244034 0.045047663 -0.07702511 0.10822215
0.111492164 0.049479038 0.10240571 -0.023672212 0.15936656 0.027319325 -0.031856526 -0.10973577
-0.05416606 -0.014060918 0.073910885 0.04582959 -0.13960308 -0.12775974 -0.13808472 -0.16657415
0.07783581 0.14937447 0.07732037 0.12677509 -0.04271832 -0.009997227 -0.023825016 -0.045204747
-0.014209438 -0.039605238 -0.13578583 -0.07419694 -0.06852138 -0.12412743 -0.082887106 -0.10812202
0.05849674 -0.03644165 0.10392527 0.05206457 -0.17295228 -0.06586242 0.03656222 -0.13201821
0.0021226916 0.060112424 -0.007158276 -0.054052938 0.13346109 0.09340855 0.095404185 0.03609703
0.14649957 -0.03298698 0.03530684 0.004517615 -0.0778085 -0.028484799 -0.06438106 -0.11950113
0.13173234 0.089926794 0.055109806 0.09148945 0.07077503 0.05667333 0.10900515 0.061914314
0.05694004 -0.036134884 -0.11943204 -0.07880253 0.05079355 0.108296916 0.16451019 0.16272062
0.015935175 0.072010286 0.16855639 0.2661307 -0.041954953 -0.13665405 0.115364276 0.120271705
0.02022362 -0.08202939 0.14846618 0.1135241 0.10799313 0.14143264 0.11345512 0.06975783
0.008131305 0.03784578 0.10429851 0.1643412 0.09144454 0.16129938 0.20819949 0.10882818
0.11085978 0.057798218 -0.071956344 0.14093739 0.07967743 -0.05248233 0.096552186 -0.002575987
0.002570184 -0.15741678 0.010374345 -0.024668155 0.042497948 -0.05905473 0.13990362 0.10235648
0.0713785 0.17178227 0.13931333 0.20343722 0.034838926 0.0034244847 0.042136684 0.10030332
0.044534374 0.033733703 0.19375803 0.13457018 0.15027404 0.18573192 0.09402018 0.12962703
0.035915 -0.03536755 -0.05217193 -0.0067526917 0.07262006 0.091464534 -0.042003337 -0.0014376612
-0.093723394 -0.123292506 0.041803315 0.068471886 -0.027017632 0.025634103 0.09780352 0.050716575
0.014661318 0.01871625 -0.04363492 -0.016800608 0.030416742 0.060399428 0.07320392 -0.04170675
-0.03782879 -0.038322154 -0.019700676 0.07701175 -0.13846023 -0.041849494 0.055946376 -0.03346151
-0.02630869 0.10540473 -0.030336253 -0.08153281 0.008507399 0.2520416 -0.106166646 0.032883126
-0.09378384 0.039122764 -0.1195858 -0.046409164 -0.049947996 0.18118404 0.08898497 0.29131883
-0.23495609 -0.068278305 -0.19059531 -0.20403595 -0.11207999 -0.06928619 -0.21302733 -0.2518775
-0.22176328 -0.13399893 0.0010782597 0.105717756 0.14072512 0.068629324 0.10854554 -0.05784257

weight_hh_l0 f4 [256, 64]
00000000: 2316 103e ff63 223e 5d7c 753d acdb 9e3b
00000010: c376 2ebe d4af 263c b787 6a3d 3590 2a3e
00000020: 41a4 e8bd 015c 96bb 6b89 e7bd 54e3 ddbd
00000030: 1222 243e c9cb 823b 8c63 5dbb 8ebb 17be
00000040: 2ff1 fd3d 5531 23bd 2f4f c3bd 3deb 063d
00000050: 4eaf efbc c569 073e 3c37 153c 6ba3 193d
00000060: 19f5 373c 2829 cfbd 8a8e a43d e7b7 0abd
00000070: b64e 5c3c 8460 f73d 08f9 a93d 5165 513c
00000080: 4a92 5b3d 69cf 20bd 3847 5a3d 8361 0bbe
00000090: a562 f4bd dee6 be3d b30a 573d 99d1 cb3d
000000a0: caef 303e 320e 1b3d 83b8 f5bd 005f a03d
000000b0: 3587 f8bd 1e78 45bd f58c 343e 1f30 04be
000000c0: 3334 8e3d a159 a1bc bb38 d43d 7311 f6bd
000000d0: a8f6 353d 38ee 573d 258d 8cbc a4e3 13be
000000e0: 1a46 2d3e b68e 193d e6fb eb3d 80d6 0e3e
000000f0: 9c91 1abe 4270 0fbd c84d 18be 3eed 053d
00000100: fb44 023e 5acf 433e 7f50 e9bc 45b8 3dbe
00000110: adca febd 89c0 97bb 806b 59bc e455 c93d
00000120: b966 14be d649 2abc 64b3 d8bd 382f 07be
00000130: 4172 3fbd 276d 0fbe 27f0 e0bc e42a 7a3d
00000140: 1848 91bd bc8e ccb9 4732 f6bd 47ff 72be
00000150: 5882 00bc 43aa 0d3e 13b3 923c 189b 8dbc
00000160: 48de 233e 6f42 a7bc 667a da3d bb79 46be
00000170: a306 07be 6af4 113e fd7a 0c3d e9a3 afbd
00000180: fdf2 00be b5e6 4dbc c47f 313d be89 e0bd
00000190: 2cf2 c1bd 2512 86bc 04de 3dbe 14e6 f93d
000001a0: 151b c13d 947a 563e afeb 9bbd 87cd 463b
000001b0: da22 033d 248e 4abe 33f3 d03d 55e9 3ebd
000001c0: 20eb 83bd b930 cd3d 443b 1f3d 8425 4f3d
000001d0: 74e8 46bd b321 533d f978 e23c e741 07be
000001e0: 7285 0c3e ea40 04be fee4 d8bd fa87 2b3e
000001f0: 3484 b0bd 54b7 9ebd d737 2bbe 0db2 d73d
00000200: 45d0 11bd 91a7 b53d a931 443c 66ec 16bb
00000210: edb1 2ebe cb87 53bd 0e78 74bd 48fd e73c
00000220: 0e63 bf3a 0bc2 963b 8024 36bd 565c 3bbd
00000230: 43fa 053d eca8 c2bd eb2d 303e cc56 fe3c
00000240: 83ff e13d d5b3 fcbd 27ee 28be 1a9e 5ebe
00000250: 52e4 3c3e 7fb1 4abc 415f 5bbd 6770 063e
00000260: 7f91 2ebd 8b5d 943d 93a7 593d 6dd9 01bd
00000270: f60d 323d 04a2 9bbd 95e0 d2bb 226b 843c
00000280: 2707 2abe f241 babd 7817 7c3c fd83 25be
00000290: 50ac 22be 3708 b63d 0896 acbd d6a6 cc3d
000002a0: 00c7 003e 066d 343e c2fe 6abd 5c2b 4f3d
000002b0: d300 edbd 2807 8cbc fb05 e23d f3d1 fbbb
000002c0: b04d 143d 1770 293e d8c8 38bd 8a61 9abd
000002d0: ef08 93bc a934 003e 9dba 4ebd 70bb 02bd
000002e0: dd1e 2b3d 9a04 03be 7ef6 23bd 9b0b 783d
000002f0: 10e8 7b3c d4fd 493c fee7 82bd a62f c4b9
00000300: 62ba 223e 20c6 943c 0f73 63bc da06 a7bd
00000310: 7824 a4bd 1ca8 893d 77c4 f6bc db5d b93d
00000320: 383e a0bd 35b4 13bd f0ac 6fbd a5c6 81be
00000330: 9d52 2a3e 437c 813d cf26 7b3d 5142 00be
00000340: f48e 143e 3976 aa3d 9246 aebb 1992 993d
00000350: 3012 973c 9a0a a43d a98f 233e 7caa 93bd
00000360: eeb4 143e 7a28 aa3c 0aeb 303e dfc7 ddbc
00000370: 7cc1 05be 9890 3a3d 325b 37be f63a 85bd
00000380: 03e2 01be 8de0 c4bd 740e 193e 6646 1ebd
00000390: 5047 233d dd0b 62bd 180f 933c db04 f93d
000003a0: 14fa 0d3e 4070 263e d14a f1bd c98c c03d
000003b0: 2497 e7bd 6f62 073c fffe 153d d664 903d
000003c0: f876 be3d 2580 d53d d454 093e 928d d5bd
000003d0: 0936 26bd fe25 f93c 4e32 f8bd 6663 cfbd
000003e0: 4691 15bd 80b8 1b3d 3e0c 373d 3318 553e
000003f0: fb1e 35bd 068d 153c a814 babc a265 a53d
0.14070944 0.15858458 0.059933055 0.0048479643 -0.17037492 0.010173757 0.057258334 0.16656573
-0.11359454 -0.0045886044 -0.11305507 -0.10834375 0.16028622 0.0039915782 -0.0033781258 -0.1481764
0.12399518 -0.03984197 -0.095365874 0.032939184 -0.029258396 0.13223942 0.009107407 0.037509363
0.011227869 -0.10115272 0.08035 -0.03386679 0.0134465005 0.12078956 0.08299452 0.012780503
0.05360631 -0.0392603 0.053290576 -0.13611417 -0.119328775 0.09321378 0.052500438 0.09952087
0.17278972 0.037855335 -0.119980834 0.0783062 -0.12135164 -0.048210256 0.17631896 -0.12908982
0.0694355 -0.019696059 0.10362383 -0.12015047 0.044424683 0.052717417 -0.017157147 -0.14442307
0.16921273 0.037489615 0.11522655 0.13949013 -0.15094608 -0.035019167 -0.14873421 0.032696955
0.12721626 0.19122067 -0.028480766 -0.18527324 -0.12441001 -0.0046311063 -0.013270259 0.098308355
-0.1449231 -0.01039358 -0.10581091 -0.13201606 -0.04673982 -0.14006482 -0.027458264 0.06107606
-0.07093829 -0.00039016258 -0.120213084 -0.23730193 -0.007843576 0.13834481 0.017907655 -0.017285869
0.16002762 -0.02041742 0.10667877 -0.19382374 -0.13186125 0.14253393 0.03429698 -0.08576185
-0.12592693 -0.012567212 0.043334737 -0.10963772 -0.09470019 -0.016366074 -0.18541723 0.12202087
0.094289936 0.20945197 -0.076133125 0.0030334906 0.03201566 -0.19780785 0.102026366 -0.04660924
-0.06441331 0.10019059 0.03887488 0.050572887 -0.04856153 0.05154581 0.027645575 -0.13208733
0.1372278 -0.12915388 -0.10590552 0.1675109 -0.08618966 -0.07749811 -0.1672052 0.10532007
-0.035599012 0.088698514 0.0119747305 -0.0023029088 -0.17060061 -0.051643174 -0.059684806 0.028319016
0.0014601664 0.0046007684 -0.044468403 -0.045742355 0.03270937 -0.095048755 0.17205016 0.031047247
0.11035063 -0.12338988 -0.16497098 -0.21739998 0.18446472 -0.01237142 -0.053557638 0.13128816
-0.042619225 0.072444044 0.053138327 -0.031701494 0.043470345 -0.075992614 -0.0064354637 0.016164366
-0.16604291 -0.09094609 0.015386455 -0.16163631 -0.15886045 0.088882856 -0.08427054 0.09992759
0.12575912 0.17619714 -0.057371862 0.05057846 -0.11572423 -0.017093256 0.11036297 -0.00768494
0.0362069 0.16546665 -0.045113415 -0.07538135 -0.017948596 0.12520088 -0.050470937 -0.031917036
0.04177748 -0.12794724 -0.040029995 0.060557943 0.015375152 0.012328584 -0.06391905 -0.00037419534
0.15891412 0.01816088 -0.013882413 -0.08155604 -0.08014768 0.067215174 -0.030122979 0.09051105
-0.07824367 -0.03606053 -0.058514535 -0.25346866 0.16633077 0.06322529 0.061316308 -0.12525298
0.14507657 0.083233304 -0.005318471 0.07498569 0.01844129 0.080098346 0.15972771 -0.07210252
0.14522144 0.020771254 0.1727716 -0.027072845 -0.1306209 0.04554805 -0.17905882 -0.065053865
-0.12683873 -0.09613142 0.1494692 -0.038641356 0.03986293 -0.055187095 0.017951533 0.12159129
0.13864928 0.16253757 -0.11781848 0.09401853 -0.11308125 0.0082632145 0.036620136 0.07050483
0.09300035 0.10424832 0.13411266 -0.10427393 -0.040578876 0.030413624 -0.1211897 -0.101263806
-0.036515497 0.03801775 0.04468941 0.20810013 -0.044219 0.009127861 -0.022714928 0.080760255

bias_ih_l0 f4 [256]
00000000: 7e9d 153d bb18 64bd bc0e a93c adc1 0f3d
00000010: 777a 043d e65b 12bd 20eb a4bd 7286 4b3c
00000020: 4f9d 9e3d 546f ef3b a5bf 153e 92d8 15bd
00000030: 4623 163d 5147 1c3e e2a9 fa3d f6ec bcbd
00000040: 3587 01be 85d7 d33d 901b 553d 06db 78bc
00000050: 9ffe 7fbd f229 aa3d d7ed 103e 3b23 d83c
00000060: d7ee 2e3d 281d 7a3d 4fcf c0bd 1524 5b3d
00000070: 4dcb 19bd b992 ec3d 62ab 5a3e 1ec4 b73d
00000080: 0ccb 573e e3fe 413e bf0a 98bd 38a2 bf3d
00000090: 1b3f c93d ef4b aebc b349 fbbc 2923 08be
000000a0: 3a28 d93d fc55 303e 4cc3 f4bd 0721 0d3e
000000b0: 4f9e 383e b297 ca3d 112a 493e 3c40 fb3d
000000c0: 1195 bf3d 66fa b53c 1e0c 533d 464e 843d
000000d0: aada e93d ec2a b53d 25e0 18bd 899a aebd
000000e0: a1dc c33d 606c 233e 48f1 9a3d cfb1 423d
000000f0: 8290 363d b558 64be 8e47 fd3d 3837 ec3c
00000100: 58d6 0539 8c9d 6f3c 567e 1cbd 74af 16be
00000110: cab0 893d ea52 abbd 1e99 c13b 86fa 5b3d
00000120: 4ade 953d fc8f 9d3d fc08 713d 10f8 f7bd
00000130: b2ea bbbd bed1 403d 747e 603d cf91 a5bd
00000140: ffeb 33be 7958 64be f51d 15be d518 40be
00000150: 829e 75ba a2db bdbb 5602 213d cb91 85bd
00000160: 2906 6e3d 2703 47be 2b10 05be a9da 88bd
00000170: 8c5d 60bc a096 95bd e943 8abe c0a8 c53c
00000180: 1e29 b53d 7ff7 b8bb 6b00 1f3c 4fc8 16bd
00000190: 4573 d6bd 72d4 21be 9b53 1bbc d0ac 3cbe
000001a0: 2bc3 273e 7dc3 93bc 7ca7 63bd bc78 ae3d
000001b0: dc22 60bd 6d96 c8bd 86a9 183d 7da4 873d
000001c0: e49d b0bc dca8 30be 089d 983d a0ca 0fbe
000001d0: 08e6 8e3d a84e 78be 7a1a d03d 1a87 19be
000001e0: 457a b2bd e862 883c 3db7 e9bd 9cd4 05be
000001f0: 3f13 a8bd 6595 2ebe 97c8 df3d 3a49 45bc
00000200: 3769 5bbe 05b1 72bd f82d 733d a3b2 9f3c
00000210: cf9a df3d 74c3 83bd 8378 763d 5e07 c43d
00000220: e953 f03d 690a 853e 8f8c a53d 712b 27bd
00000230: c5ae e3bc 6507 003e 35fd 4e3d 8ee1 c4bd
00000240: c207 a93c ddf8 d23d f33c b73d 7374 793d
00000250: 12d9 e3bd 00e9 43be 0ec9 6bbe fa1d 09be
00000260: 328f 5cbe 2a9c 6a3d d88a 28be e046 8b3d
00000270: 7ed1 0d3e 3632 1dbe 69b8 0fbe aa1e d53d
00000280: 4119 da3d a51a ccbc 5f62 e8bd 92e7 e33d
00000290: 1bac 003e a4f9 10be 392f f13d b03e ed3b
000002a0: 7e64 80be b619 85be f150 dd3d d59c d5bd
000002b0: 453e 413c 051f 423e e824 16be 6509 3c3e
000002c0: 2b00 593d 25a4 dfbd 61ad e8bd b22c 933d
000002d0: 476b c6bc e1e8 143d b1f4 663e ec13 a13c
000002e0: b2ba 523c 3d01 233e ca3d 663d d405 07bd
000002f0: 39ab 5b3e 8280 a5bd f93a e93d eb66 55be
00000300: f900 65bd adfc 383d dfdd 403d 9d20 ab3d
00000310: 12ec 8dbb 5b70 a63d a61c 40bd 8019 113d
00000320: 9aa1 9b3c 35c9 b73d 0943 6cbd 5893 2fbd
00000330: c003 b4bd 060b f0bb 17a4 8dbb 4ccb 403c
00000340: b2be c3bd a5d7 a93d eb73 ef3c 3d28 28be
00000350: bba1 5a3d 2b03 d63d a7fd 093e e48a 2d3e
00000360: 9520 153e b29a b0bd e901 113e d60d 6bbd
00000370: 0884 e23d 21cc cdbd 1de3 043e 30df 873d
00000380: a855 a93d 8c20 2e3e 6dc0 c4bd 049a c63d
00000390: 4dcb bbbd 4509 2dbc 8d92 20bd 0bc1 603d
000003a0: 2f18 623e 4f28 a83d c580 5b3d 507c 553d
000003b0: a97d 4c3e e8b3 a63d e58e 2d3e 675d 063e
000003c0: 89e3 ca3d 2fd9 83bd 1605 073e 5527 833d
000003d0: 23a4 823c 7412 81bc 7220 583c 9548 4dbd
000003e0: 50c8 b23d 4aa6 50bd 6f65 9d3d beff 183d
000003f0: 4576 bc3d 7648 26be f5f0 d53d ce12 8c3d
0.03652715 -0.055687647 0.020636909 0.035096813 0.032343354 -0.035732172 -0.08052659 0.012422191
0.07744848 0.0073069725 0.14623888 -0.03658349 0.036654733 0.1526158 0.12239434 -0.09224884
-0.12649234 0.103438415 0.05202824 -0.015188938 -0.062498685 0.08308782 0.14153229 0.026383987
0.042708244 0.06106296 -0.09414541 0.053501207 -0.0375474 0.115514226 0.2135444 0.08972953
0.2107355 0.18944888 -0.07423925 0.09357113 0.098264895 -0.021276442 -0.030674791 -0.13294663
0.10603376 0.172203 -0.119513124 0.1378213 0.1802914 0.09892215 0.19644953 0.12268111
0.09354604 0.022214126 0.051525228 0.06460242 0.1141866 0.08846077 -0.037323136 -0.08525569
0.09563566 0.1595931 0.07565552 0.047532853 0.044571407 -0.22299464 0.123671636 0.028834924
0.00012763718 0.014624964 -0.03820642 -0.14715368 0.06723173 -0.08365424 0.0059081456 0.053705715
0.07317789 0.076934785 0.05884646 -0.12107861 -0.09175624 0.047075026 0.054808095 -0.080844514
-0.17570494 -0.22299375 -0.14562209 -0.18759473 -0.0009369628 -0.0057940045 0.03930887 -0.065219484
0.058111344 -0.19434796 -0.12994449 -0.06682331 -0.013694178 -0.0730412 -0.27004936 0.024128318
0.08845733 -0.005644738 0.0097046895 -0.036812123 -0.10471205 -0.15803698 -0.009480382 -0.18425298
0.16383044 -0.018037552 -0.055579647 0.08519122 -0.054720744 -0.097943164 0.037271045 0.066231705
-0.021559663 -0.17251915 0.07451826 -0.14042139 0.06977469 -0.24248755 0.101613 -0.14992943
-0.08714727 0.016648725 -0.11411903 -0.13069385 -0.08206796 -0.17049177 0.10926931 -0.012041384
-0.21426855 -0.05925085 0.05937001 0.01949436 0.10918199 -0.06433764 0.060173523 0.09571718
0.117347546 0.25984505 0.0808345 -0.040812913 -0.027793298 0.12502821 0.050534446 -0.09613334
0.020633582 0.10301373 0.08947172 0.06090207 -0.11125387 -0.19131851 -0.23025915 -0.13390341
-0.21539 0.057277836 -0.16459215 0.06800628 0.13849446 -0.15351185 -0.1403519 0.10406239
0.10649348 -0.024915049 -0.11346888 0.11128153 0.12565653 -0.1415773 0.11776585 0.007240139
-0.2507667 -0.25996178 0.10806454 -0.10430304 0.011794631 0.18957146 -0.14662516 0.18362959
0.052978676 -0.1091998 -0.113611944 0.07186259 -0.024221076 0.036354903 0.2255428 0.01966282
0.012861894 0.15918441 0.05621127 -0.032964543 0.21452035 -0.080811515 0.11388201 -0.20840041
-0.05590913 0.045162845 0.047086593 0.0835583 -0.0043311203 0.08126899 -0.04690232 0.03542471
0.018997956 0.08973924 -0.057681117 -0.042865127 -0.08789778 -0.007325533 -0.0043225395 0.01176722
-0.095578566 0.08293084 0.029230079 -0.164216 0.053376894 0.10449823 0.13475667 0.16947514
0.1456321 -0.08623256 0.14160885 -0.05738624 0.11060339 -0.100487 0.12977262 0.066343665
0.08268291 0.17004603 -0.09607015 0.09697345 -0.09169636 -0.010561292 -0.03920226 0.0548716
0.22079538 0.08210813 0.0535896 0.052120507 0.1996981 0.08139783 0.16949041 0.13121568
0.0990668 -0.06437909 0.13185534 0.06403986 0.015947407 -0.01575587 0.013191329 -0.050118048
0.08729613 -0.050939836 0.076853625 0.03735327 0.092022456 -0.16238579 0.104463495 0.06839524

bias_hh_l0 f4 [256]
00000000: aecc 2d3e f890 133d 3a8f 98bc c66b bc3d
00000010: c361 803d 2e7d d73d 4b85 083e 6354 09bd
00000020: ec04 86bd 422e 113d d473 7cbd 3919 6b3d
00000030: af9e febd b344 55bd 97fb 0c3c 84b4 15bd
00000040: 366d 8fbd 38ec 01bd a83e af3d 049a 7bbc
00000050: e03b 0fbd 369d c9bd 5c24 fd3d 6fc5 4a3e
00000060: 2bc9 433d 3023 ecbd a632 c43d e864 c339
00000070: 603b d03d 2d16 e0bd 61f9 433e 93ec 243e
00000080: dd60 c83c f87c 2f3e 0b74 0c3e 1ebb 1fbd
00000090: 8fda bfbd 0432 02bd 497a a5bd 0a26 813d
000000a0: 3c55 0a3e b2ff 403d 4671 b63d e8d9 b63d
000000b0: 9908 633e 5c62 373d 642e 8a3d 6e8a 9b3d
000000c0: 4456 d03d 30e3 eb3d 930c 44bd 011c f9bd
000000d0: b01e d9bd 9b99 a63d e8b2 adbc 9855 5d3d
000000e0: 142e 703d 77ed 24bd 12b4 6fbc 1b75 3f3d
000000f0: f5ec 893d 12ad 39bd 6c4e 323e b39f a93d
00000100: 8c48 afbd 5a5a d23c f40c c13c d55a d2bb
00000110: c2e3 a53b b4be 26bd bc7e 40bd d8e6 dcbd
00000120: 4fdc babd 4297 6bbd a087 9b3c 7177 a03c
00000130: 62f4 f6bd 74fe f3bd 1c03 13bd 67ae ec3c
00000140: 631e 833d 777b cdbd 5e6d 0fbe 0634 01bd
00000150: 32d6 84bd 7951 4bbd 6f34 cf3d 6aef 5bbb
00000160: b81c f7bc 2811 12bd bb0f efbd a9f9 ddbd
00000170: 6712 12be 1438 07be 28d1 6ebe 2d06 05be
00000180: ffa9 b0bc 5577 0bbe c8aa c53d f689 b13d
00000190: 46e2 223d 4e30 39bd d390 33be 5c34 21be
000001a0: c884 29bd 6ea9 47bd 96dd 17be b0e1 843d
000001b0: 9de7 83bd 724c 45bd 28ab 6f3c a3e6 913c
000001c0: 6191 0ebe e04f 3b3b 7847 cebd df5c a43b
000001d0: ed2d 2ebc 8d6a 2dbe 4f2e 813d b764 343d
000001e0: c923 4ebe 976f ac3c 7a55 153d 0ca9 37be
000001f0: 4589 22be 528b d1bc c335 3a3d 918c 8e3d
00000200: a66f 00be 25b8 91bd 3857 2ebe f320 ae3d
00000210: 3259 c33d 59ce a5bd d0bf 3f3e b074 bbba
00000220: b229 6f3b aaa9 6a3e b78a 243e f579 1dbd
00000230: f2a2 0bbd f0ab 573e 94c4 2abe be5a a33c
00000240: 4c33 603d e7c1 d03d 3c94 313e b286 553d
00000250: 9de4 5ebe e2c5 a9bd 9756 ecbd 6183 41be
00000260: 44fd 31be f2ea e43d f93e 50bd b447 a03d
00000270: 4cc0 083e fa75 b6bb 13a7 f7bd 683f bb3d
00000280: e921 623e 466e 793d 1b0c f2bd 5837 6c3e
00000290: 82b5 653d 69a3 fe3c 474c 7e3d 0f54 41be
000002a0: 0566 67be 817a 8dbd 3eb2 9d3d 68fc c6bd
000002b0: 196b 293e 4678 cb3d 00e5 82be 3eb5 9f3d
000002c0: 6464 0cbd b536 d4bd d752 1bbe c131 98bc
000002d0: 31e4 debd 1d25 bfbc c0e9 543e d571 1e3e
000002e0: f088 ebbd 7364 4f3e 3cca 2a3a 6493 9d3b
000002f0: ab3d 263e dbd2 d3bd b3e2 2e3e 14e7 3fbd
00000300: e30d b5bc 0345 24bc 6a22 1dbe f707 42bd
00000310: bf51 cf3c d858 233d dfd2 403d 6d3b 87bd
00000320: e326 e1bd ece1 043e 979b c43d acd7 d6bd
00000330: edad edbd c10b 753d 5a29 58bd 5e6c 19be
00000340: 8f16 ae3c fdc7 00be 58d9 ad3c 5ead 60bd
00000350: 2a56 a73d 565e 2c3a 53eb 683d 5879 483d
00000360: 2f3a 1c3e aeb1 7f3d db38 ba3d 261c 423b
00000370: a483 dd3b f5d3 e33d 792c 8e3e eecb 36bd
00000380: 8752 bebb 4911 583d 1b9b f7bc 9d99 663d
00000390: 1590 993d 0424 ce3d b62d b83d ceab 2fbe
000003a0: ab75 353e 6a90 dcbc 643d 3f3d f615 153e
000003b0: 2f70 c33c c9d0 c63d 1c8f 0a3e 59d3 063d
000003c0: 54bf 3cbd a0e7 73bc 2fe4 07bd 3cc3 9c3c
000003d0: 5c97 92bd 0541 7cbd 297a de3d 5925 72bd
000003e0: 7fa2 663c 7fd6 4cbd a2b8 00be 3f24 5fbd
000003f0: c751 e93d ba59 d0bd c5e7 e83d f566 0abd
0.1697261 0.036026925 -0.018622983 0.09200244 0.062686466 0.10521923 0.13332097 -0.033527743
-0.065439075 0.035444506 -0.0616339 0.0573971 -0.1243261 -0.05206747 0.008604906 -0.036549106
-0.07003252 -0.031719416 0.085568726 -0.015356544 -0.03496921 -0.09844439 0.123604506 0.19801877
0.04779927 -0.11530149 0.09579973 0.0003726848 0.10167575 -0.1094173 0.19138099 0.16105871
0.02446025 0.17137516 0.13716142 -0.03899681 -0.093678586 -0.03178598 -0.08079965 0.063060835
0.13509077 0.04711885 0.08908324 0.08928281 0.22171248 0.044771537 0.067471296 0.07594763
0.10172704 0.11517942 -0.047863554 -0.121635444 -0.10601556 0.08134767 -0.021203473 0.054036707
0.058637694 -0.040265527 -0.014630334 0.04674254 0.06734649 -0.04533107 0.17412728 0.08282413
-0.08558759 0.025677849 0.023565747 -0.0064195194 0.0050625512 -0.040709212 -0.046995863 -0.107862175
-0.09124052 -0.057517298 0.01898557 0.019588204 -0.12058331 -0.119137675 -0.035891637 0.028891755
0.0640228 -0.10033315 -0.14006564 -0.031543754 -0.06486167 -0.049638245 0.10117423 -0.003355945
-0.030165061 -0.035660893 -0.11672922 -0.108386345 -0.14264832 -0.13204986 -0.23321974 -0.12990637
-0.021565435 -0.1361974 0.096517146 0.08668892 0.039766572 -0.045212083 -0.17535715 -0.1574263
-0.041386396 -0.048745565 -0.14830622 0.06488359 -0.06440661 -0.048168607 0.014628209 0.017810171
-0.13922645 0.0028581545 -0.10072225 0.005015954 -0.010631067 -0.16935177 0.06307661 0.04404136
-0.20130838 0.021049304 0.03645847 -0.1793558 -0.15872677 -0.025579128 0.045461427 0.06960405
-0.1254259 -0.07115201 -0.17025459 0.08502378 0.09538497 -0.08095998 0.18725514 -0.0014301743
0.0036493358 0.22916284 0.1606854 -0.038446385 -0.034090944 0.21061683 -0.16676551 0.01994073
0.05473642 0.10193234 0.17341703 0.05213041 -0.21766897 -0.08289696 -0.11539953 -0.18897773
-0.1738177 0.11177625 -0.050841305 0.07826176 0.13354605 -0.005568263 -0.12092414 0.09142953
0.22083248 0.06089618 -0.11818715 0.23067987 0.056081302 0.03108378 0.062084462 -0.18879722
-0.22597511 -0.069081314 0.077000126 -0.097161114 0.16544761 0.0993505 -0.25565338 0.07798241
-0.034275427 -0.10361997 -0.1516832 -0.018578412 -0.10883368 -0.023333127 0.20792294 0.15473111
-0.11500728 0.20253162 0.00065151206 0.00480883 0.16234462 -0.10342952 0.17078666 -0.046851233
-0.022101348 -0.010026219 -0.15345159 -0.047370877 0.025307534 0.03987965 0.047076102 -0.066031314
-0.10993745 0.12976807 0.09599989 -0.10490355 -0.11605439 0.059825663 -0.05277381 -0.14982745
0.021250991 -0.1257629 0.021221802 -0.054852836 0.08170731 0.00065753364 0.056865048 0.048943847
0.1525657 0.062425308 0.090928756 0.0029618829 0.0067600776 0.11124412 0.27768305 -0.044628076
-0.005808178 0.05275086 -0.030225327 0.05629884 0.074981846 0.10065463 0.08993094 -0.17155382
0.17720668 -0.02692433 0.046689406 0.14559159 0.023857204 0.09707791 0.13531154 0.0329164
-0.046080902 -0.014886767 -0.033176597 0.019136064 -0.07157776 -0.061585445 0.10863144 -0.05911765
0.014076828 -0.050009247 -0.12570432 -0.054477926 0.11392551 -0.10173364 0.113723315 -0.033789594

weight_ih_l0 f4 [128, 64]
00000000: d92d b3bd 2ccb 23bd 0fb2 bb3d f11f efbc
00000010: cc71 02bd b30f 6cbe fafa 353e 7427 103e
00000020: 1257 e1bc 21d5 8dbd e352 f5bd 5343 983d
00000030: 7a5b c63c da6d 583e 017a d3bc 64cf c1bd
00000040: e4df 2e3d a03d 4d39 f4db f63d 4e49 e0bd
00000050: ce85 3bbe f6ad 91bb 2fa9 f33d 2ed8 b6bc
00000060: 85e3 93bd 7b0c 783d 9a69 fe3d 5159 21bd
00000070: 8174 4d3e 76cd 1e3d 7a5b d1bd b06b ae3d
00000080: 1f8e 0d3d 614d 553d 8e8c a0bd 0041 a03d
00000090: 17f1 283e ef66 323e 142a cebd f271 2a3e
000000a0: d07c 39bd 1799 3abe 8b6d 2ebd 4584 cebd
000000b0: 5b98 513e 0c90 563d 696c 2ebe e370 ffbd
000000c0: 0010 2f3e f531 7f3d 436f 39bd 5a57 123b
000000d0: e769 d7bd b695 4e3e 141b 083d c395 c6bd
000000e0: 9d9a 883d 5f6e 8f3d 9d8b 123d b414 7a3e
000000f0: efd4 2d3e 36dc 8fbd 77dd 473d c9b9 103e
00000100: 8e05 0bbe 69b4 71bd 4678 c6bd 90ed f23b
00000110: fddb 06be 9bb0 4ebd ce5c 7dbc ce9a 6dbd
00000120: db79 243e 6640 f1bc 2447 233d 8751 1bbd
00000130: 1a9d 8d3c fdeb ab3d c44a 96bc 36ef 953d
00000140: cb16 613e ebcb 1e3e 6917 4a3d 1041 8d3e
00000150: e008 e4bd 6dac 5ebc 73ad a63d cfbc bc3d
00000160: 8e44 1cbe 3d5b eebc cff6 36bb 5e3a fcbc
00000170: 3a7e 0c3e 958b 903d d7f5 803e 50ce 58bc
00000180: 8219 29bc 9424 b2bd 4d3d 9c3d 4da5 0f3d
00000190: b4ac 4a3d 6db6 87bd b5bb 7c3e 6de2 493d
000001a0: e4e3 31be 49ba b6bd 3c81 093e ec2b 513d
000001b0: daf6 95bc 8cfa a73c 78d9 0dbe 0440 103e
000001c0: 6768 0bbe 91e8 bf3c c7c5 db3d 37f6 3cbe
000001d0: 15fb c9bc 29aa e7bd 26de bb3d 13d3 473d
000001e0: 4081 973d 600a f0bd aab6 383e f680 383e
000001f0: b270 133e de67 cc3d c473 263d 2f3b a7bd
00000200: 6b04 2a3d e75a 60bd 56f6 b3bd 4c7a 02be
00000210: c7fe 13be 5a36 76be 78d9 1d3e 8a06 09bd
00000220: 008d 05be 81f1 cdbc c99d 943d bf2c ebbc
00000230: 999b c5bd 4a53 e33d 796b 2ebe 4c05 fa3d
00000240: 3ddc f93d dfce a33e 5e3c 243d af24 19bd
00000250: bbb3 07be 33d6 71bd 1742 3ebe 3a1a 6fbe
00000260: f485 433d 11cb e0bd 1f07 0ebe 1d34 c3bd
00000270: b447 153e ed42 d7bd c9f0 bfbe 79a6 743e
00000280: 915d 0f3d d94d 45bd 159a a2bd ee41 003c
00000290: 4200 133e 3f86 bbbb 951d 003e acf7 e43d
000002a0: 7cb9 38be dd9c c53d aaca bb3d 2ac3 a9bd
000002b0: 54dc d33d fd95 8fbd c31e aebc d3fc 983d
000002c0: 481f 843e e237 6dbd c5ad b9bd 55fb 5cbe
000002d0: 925e 0ebe ba2c 9d3d 531b 56bd 8c70 20bd
000002e0: 28ce 0dbe da03 d2bd de12 023d a1b7 9fbd
000002f0: 6566 8e3d 5a54 04bd 257b 2c3e 8e7e 8dbd
00000300: 4648 b4bd 4476 283c ef47 143c 98a6 1c3e
00000310: e927 2f3e af39 cfbd ef66 dc3c 15ad 273c
00000320: e92e dabc 0a63 053e feff 9d3d 537c 10be
00000330: dff9 a23d 6958 eb3c 4b68 263d d3e1 a63c
00000340: 8817 5d3b 1bef 2d3e d241 f0bb fe03 5b3e
00000350: 5fc3 2fbe 6f5c 1ebc 5cf7 37ba c6ba 8ebe
00000360: 6353 75be cbfb 373e ea32 c03d a955 813e
00000370: 5809 8c3e b8e3 4cbd 6f02 a7be 2e69 043e
00000380: 61ba 073d da78 203d 8f20 6a3d 86d1 013e
00000390: 9e99 f9ba f2f7 d7bc 7d81 483e c8bf e4bd
000003a0: a105 0ebe e095 3f3d 171a 8a3e 7c3d 3fbd
000003b0: f1b2 853e e3a5 bf3d a1ad f2bd 370d 5e3e
000003c0: 3005 823e 55ce a4be f530 76bd 1aa4 38be
000003d0: 1d2a b0bd 640f 1c3d 1692 43bd 4b79 eabc
000003e0: 3867 65bd 0ac6 593e fd04 543d 4b8d e13d
000003f0: f7de 0a3d 90c6 223d b220 cdbc cb09 4bbe
-0.08748979 -0.03998868 0.09164821 -0.029190036 -0.031846806 -0.23052864 0.17771521 0.1407755
-0.027507339 -0.06925417 -0.119787 0.07434716 0.024213541 0.21135655 -0.025815012 -0.09463385
0.042693987 0.0001957328 0.120536715 -0.10951482 -0.18312761 -0.0044457866 0.118975036 -0.02231988
-0.0722113 0.060558777 0.12422486 -0.03939182 0.20063974 0.03877016 -0.10222526 0.085166335
0.034559365 0.052075747 -0.07839309 0.07824898 0.16498218 0.17422079 -0.100666195 0.16645029
-0.045285046 -0.18222462 -0.042584937 -0.10083822 0.20468275 0.052383468 -0.17033543 -0.12472703
0.17095947 0.062303502 -0.045272123 0.0022329898 -0.10518246 0.20174298 0.03322895 -0.096965335
0.06670115 0.070034735 0.035777677 0.2442196 0.16975759 -0.07024424 0.04879519 0.14133371
-0.13576338 -0.059009943 -0.09690909 0.0074135736 -0.13169856 -0.050461393 -0.015464021 -0.05800896
0.16062109 -0.029449653 0.039862767 -0.037919547 0.017286826 0.083946206 -0.018346198 0.073210165
0.21981351 0.15507476 0.049338732 0.275887 -0.11134505 -0.013590914 0.081385516 0.092157
-0.15260527 -0.02909624 -0.0027918105 -0.03078955 0.13720027 0.07057873 0.2518756 -0.0132327825
-0.010321023 -0.08698383 0.0762888 0.035069752 0.04948111 -0.06626592 0.2468098 0.049288202
-0.1737209 -0.0892225 0.13428205 0.051067278 -0.018306185 0.020505212 -0.13852489 0.1408692
-0.13614045 0.023426326 0.107310824 -0.18453299 -0.024655858 -0.11311752 0.09173231 0.04878528
0.07397699 -0.11720729 0.18038431 0.18017945 0.14398459 0.099807486 0.040637746 -0.08165585
0.04150812 -0.05477419 -0.08787219 -0.12741965 -0.14452659 -0.24044171 0.15414989 -0.0334535
-0.13042068 -0.025139572 0.07256658 -0.02870786 -0.096488185 0.110998705 -0.17033185 0.122080415
0.1220021 0.31993768 0.040096633 -0.0373885 -0.13252155 -0.059042167 -0.18579899 -0.23349848
0.04773517 -0.10976232 -0.13869904 -0.09531424 0.14578134 -0.10510812 -0.37488392 0.2389163
0.03500134 -0.048169944 -0.07939545 0.007828219 0.14355567 -0.0057227905 0.12511285 0.11180052
-0.18039507 0.0964906 0.091695145 -0.08289178 0.10344759 -0.0701103 -0.021254903 0.074700974
0.25805116 -0.057914622 -0.09066347 -0.2158025 -0.13903263 0.076745465 -0.052272152 -0.039169833
-0.13848174 -0.10254641 0.031756274 -0.07798696 0.06953124 -0.032307006 0.16843851 -0.06908904
-0.088028476 0.010282103 0.009050353 0.15297925 0.17105068 -0.10118424 0.026904551 0.010234137
-0.026633697 0.13026062 0.07714842 -0.14109926 0.079578154 0.02872868 0.040626805 0.020371353
0.003373595 0.16985743 -0.007332065 0.21388242 -0.17164372 -0.009665593 -0.00070177554 -0.27876872
-0.23957591 0.17967145 0.09384711 0.25260666 0.2735088 -0.050021857 -0.32619044 0.12930748
0.03313673 0.039177753 0.057159957 0.12677583 -0.0019042974 -0.026363347 0.19580646 -0.11169392
-0.13869335 0.04677379 0.2697303 -0.046689495 0.26113084 0.09357812 -0.11849523 0.21684729
0.25394583 -0.3218867 -0.060105283 -0.1803135 -0.086017825 0.038100615 -0.04774674 -0.02862229
-0.05600664 0.21266952 0.05176257 0.110132776 0.033904042 0.039740145 -0.025040004 -0.19827954

weight_hh_l0 f4 [128, 32]
00000000: 43e3 323d 47fe 95bd cd97 b6bd de2f 0dbe
00000010: f6fe 30be 9e70 8abd 6b9c 5cbe b0bc f1bb
00000020: 9e05 f63c 7879 913c 83ef 81bc 86c6 0fbd
00000030: 2c28 183e 4976 103d 16f7 083e 934f 023e
00000040: 21ee b43d 224c 18be fd4b 8cbd 2d46 4bbb
00000050: 1200 20be 32ff 49bc 7a66 8abd c0f5 d03c
00000060: fb12 32bc 4a31 78bb c297 5e3d 3594 ecbd
00000070: 8df5 4cbe 95bd 33be 612c 0ebe 1955 39bd
00000080: cf5f 3e3d d38d 1fbe 4ae3 293e 2703 263e
00000090: 9a8f dbbd 95b1 3a3e f3ca 0dbe 8bc7 90bd
000000a0: a927 973c 83ab 56bc 867e 8ebc ed42 1d3d
000000b0: 9bc6 e4bc 8463 203e 1349 bfbd be78 4bbd
000000c0: e437 1fbe d978 f4bd 4602 253e 9851 f53c
000000d0: dce6 9e3d 066e 263c 5e91 06be b89e cfbd
000000e0: c7cf 28bc 6fb3 a3bc bc3d 243e 152b bdbd
000000f0: b7b6 08be d73b e03c 6cfd 1c3b 4977 243e
00000100: 7726 2d3e a8ca 6bbb 8ec6 64bd 890a 113e
00000110: 5531 03bd 905d debd b096 41be 3660 223e
00000120: 172e 973d b9e1 10be 1391 5b3d ea50 a73d
00000130: 340e 50bd b1b9 b9bd e7e8 433e 8a90 a53d
00000140: 33c7 933d 5006 02be df9c 9cbb 99af a5ba
00000150: 79f6 f43c f54c 023d 742e c63d ea68 00be
00000160: 911a ed3d d916 b53d 7d93 3b3e 93ce 1dbe
00000170: 29f4 35be c999 ef3d dbc6 69bd 85ca 6fbd
00000180: c7c5 91bc bacd 96bd ab25 b6bd 0ad8 48bd
00000190: 68fc a43d 2cf5 acbd 14df 65bc 0c1b 5c3e
000001a0: d31c 923d 48fc f7bd 5c8b b13d bcad d9bb
000001b0: 4aae 903a 6925 fdbd 226a bdbb 1e93 b0bc
000001c0: aa82 323e 65b7 e1bd 3847 0bbe f24c b3bd
000001d0: 0727 a93d b085 463d f001 323e 7351 76bd
000001e0: 4a84 993d 2fc1 18be b38b 90bd ea75 e0bd
000001f0: f759 933d c171 14bc f814 47bd ed54 0b3e
00000200: 665d 9e3b 53ba cc3d 0a27 203e 5b27 443e
00000210: b8c1 05be a22c f3bd 690f 73be a185 243e
00000220: e96e 0b3d 8fe1 4ebe 3986 243e 8ebd bbbc
00000230: d6f1 0c3e 9c81 8b3d 6560 e3bd 73b4 c03d
00000240: 8b43 d63d 86aa 9dbe 3729 a93d 5cb8 06be
00000250: be9e 77bb 4640 b1bd 27a3 2cbe 0676 bf3d
00000260: 21aa 13be 6dbc 0b3e 96d1 d6bb 3f8b cebd
00000270: a8b8 0b3e e3b0 47be 306f ebbb c350 b3bd
00000280: de9c f6bc ff7e c03d 116c fe3c e8b0 9c3b
00000290: 44d5 2bbe a7eb 00be 2486 88bc 9539 043d
000002a0: 0e3e 34be 3e26 aabd a887 203d bb3a d9bd
000002b0: 987e 153e 489c 0bbe d1ab 493e e2a8 63bd
000002c0: 350d fc3d db4d 8cbd 4dc3 0a3e 8b92 cf3d
000002d0: 130a dc3a a59d e33c 39d6 3abe 514c 16be
000002e0: 70b3 16be ebfa c93d 05b6 343e 4bf7 d9bd
000002f0: a63d 1abe 3323 1f3b bdc0 a13d 3dfc fcbc
00000300: 50a5 4dbd 255e a23d 3987 00be b9f2 483d
00000310: c0e3 11be e7aa 463e 23ef 78bd e82b 26b7
00000320: 0b18 063c 1caf 58bd 5bed 76be 3934 e73d
00000330: 63b4 acbe 609b 12bd 1c87 d5bc 9cbc e1bd
00000340: 05ed 7fbe fd26 93bd 6ea9 4b3d b4c1 0bbd
00000350: 6c24 973d 4b5b a03c ee08 803d 618c ac3d
00000360: acd7 2cbd 1006 88be e3ad a63d 2aad 12be
00000370: 1d52 5dbe 5264 0fbe f93e 523e d53f 1abe
00000380: 5083 efba f9c5 9dbb 32b4 053e e024 533e
00000390: ea3f 44be 2ad8 613d 1139 0dbe f8d5 903d
000003a0: 4bff 0cbe 9eec b9bd d9b0 33bd 65c3 e03d
000003b0: 2ee0 7dbe 4196 3abd cb0b 17bd 014b 823d
000003c0: 7f0e 42be fa4e a9bd 5516 113d 3b14 823e
000003d0: d6cd 5fbe de1e 103e 1b74 6dbe 578c 4cbd
000003e0: 4edd 2a3d a611 d5bd 746d 2ebe daa8 c93c
000003f0: d095 c6bd 95ac 30be 1269 1d3e cda0 c63c
0.043673765 -0.0732389 -0.089156725 -0.13787791 -0.1728476 -0.06759761 -0.21544044 -0.0073772296
0.030031975 0.017758116 -0.015861278 -0.035101436 0.14859074 0.035269056 0.13375506 0.12725668
0.08834482 -0.14872792 -0.06850431 -0.003101717 -0.15625027 -0.01232891 -0.06757827 0.025507808
-0.010868783 -0.0037871175 0.054343946 -0.11551706 -0.20015545 -0.17552789 -0.13884117 -0.04524717
0.04647809 -0.15581445 0.1659061 0.1621214 -0.10720749 0.18231805 -0.1384695 -0.0706931
0.018451529 -0.013102415 -0.017394315 0.038393904 -0.027926734 0.15662962 -0.0934011 -0.049675696
-0.15548664 -0.11937112 0.16114148 0.029946133 0.07758877 0.010158068 -0.1314139 -0.10137695
-0.010303444 -0.019983022 0.16039175 -0.09236733 -0.1335095 0.027372284 0.0023954762 0.16061129
0.16909204 -0.0035978947 -0.05585342 0.14164175 -0.03202947 -0.108576894 -0.18905139 0.15857014
0.07381838 -0.14148606 0.05360515 0.0816973 -0.050794795 -0.09068621 0.19131814 0.08084209
0.072157286 -0.1269772 -0.0047794427 -0.0012640833 0.029902684 0.031811673 0.09676829 -0.12540022
0.11577333 0.088422485 0.18317981 -0.15410833 -0.17768921 0.11699254 -0.05707441 -0.058542747
-0.017794503 -0.07363458 -0.08893903 -0.049034156 0.08055955 -0.084452 -0.014030237 0.21494693
0.07134404 -0.12108666 0.08669159 -0.006643025 0.001103827 -0.12360651 -0.0057804743 -0.021554526
0.17432657 -0.11021308 -0.13601387 -0.087549105 0.08259397 0.048467338 0.17383552 -0.06013627
0.07495935 -0.14917444 -0.070578955 -0.1095999 0.07194894 -0.009060324 -0.04860398 0.13606615
0.0048329113 0.09996476 0.15639892 0.19155638 -0.13062179 -0.118737474 -0.23736347 0.160666
0.03404132 -0.20203231 0.16066827 -0.022917535 0.13764128 0.068118304 -0.1110237 0.09409418
0.104621015 -0.30794162 0.08259814 -0.13156265 -0.0037783827 -0.08654837 -0.16859113 0.09348683
-0.14420368 0.13646097 -0.0065557463 -0.10085153 0.1364466 -0.1950107 -0.0071848854 -0.087556385
-0.030104097 0.093992226 0.03105739 0.004781831 -0.16780573 -0.12589894 -0.016665526 0.032281477
-0.17601797 -0.08308075 0.039191872 -0.10606905 0.14599073 -0.13633835 0.19694449 -0.05558098
0.123072065 -0.06850787 0.13551064 0.10135373 0.001678767 0.027785132 -0.18245782 -0.1467755
-0.14716887 0.09862312 0.1764756 -0.106428705 -0.1506258 0.0024282455 0.0789809 -0.030881995
-0.050206482 0.07928113 -0.12551583 0.049059603 -0.14247036 0.19401132 -0.060774934 -9.904594e-06
0.008184443 -0.052901372 -0.24113981 0.112892576 -0.33731374 -0.03579271 -0.026065402 -0.110223025
-0.2499276 -0.07185171 0.049722128 -0.034120277 0.07379994 0.019574782 0.06251703 0.08425213
-0.04219787 -0.26567125 0.08138635 -0.1432387 -0.21613355 -0.14003113 0.20531835 -0.15063412
-0.0018273387 -0.00481486 0.1305702 0.20619535 -0.19165006 0.05513779 -0.137913 0.07072061
-0.13769262 -0.09078334 -0.043869827 0.109747685 -0.24792549 -0.04555345 -0.03687648 0.06361962
-0.18950842 -0.08267017 0.035421688 0.2540606 -0.21855864 0.14074275 -0.23188822 -0.049938526
0.04171496 -0.10403757 -0.1703394 0.024616648 -0.09696543 -0.17253335 0.15372112 0.024246598

bias_ih_l0 f4 [128]
00000000: 43dd d43d f17c f83d 3252 813e 7a44 b63e
00000010: b040 60bd 3d52 e3bd 4971 723d 06cd 5b3b
00000020: d03c 293e fed9 7dbe aa37 0e3d 8979 5b3e
00000030: a536 5cbd c73f c5bd 39f0 bc3d 0fbc 163e
00000040: b812 adbd 43ee 80be 946b 59bd 901c 213d
00000050: 3faf 2a3e 6dd5 acbd 340f bcbc f11c a83d
00000060: 1cb1 3c3e 0877 503d 0e0b f7bd d01a c23c
00000070: 511a 2b3e 3fe1 19be 3d37 42be 9228 cc3d
00000080: a290 fabd f4f9 013e 3827 32be 5e30 023d
00000090: efa4 3bbd 8551 1dbe 444e 8dbe c8e7 23be
000000a0: b7b9 77be 1afe e0bd 8675 a1bd 1202 1fbe
000000b0: d884 bcbd c889 1b3d a640 cf3b a3ab 9a3d
000000c0: 2e3b 9bbe 08ea c23c 2a1e 183d 0de4 77bd
000000d0: 4186 733d 8df0 52be 0d9e f6bd e702 373d
000000e0: 6729 493e de2c 88be 2e97 f5bd b1c1 8f3c
000000f0: 5991 793c 0e8a c8bc 6ae3 bdbd 5a25 b0bd
00000100: 56b9 dbbd 9efa afbe 7ca0 36be 5141 98be
00000110: e75e e53d 0454 9cbd 3914 6abd 665f a23d
00000120: 345c 96bd 95d1 50bd 4654 da3d 87f3 36be
00000130: 3b2b 52bc e648 933e 5546 37be 5b82 c5bb
00000140: c96e 80bd 794a 10be a776 6abe 5e22 67be
00000150: 6580 1d3e f9c8 92be 428c 803e 9514 65be
00000160: 0801 3b3e 3d47 873d e9e6 ffbc 9882 283e
00000170: 3afc 5f3e b2f9 783d 1682 af3d 58ae 223c
00000180: 0cb5 61bd 113f debd 22a3 fcbd 17e1 a33d
00000190: 44b2 84bd fadf d8bd 735f 0dbe 9f9f 16be
000001a0: d438 413e fae4 72be cc0d 2ebe 0ac9 65bd
000001b0: c6ac 8ebd d620 543c bcb4 9ebb 9989 433e
000001c0: 92b8 0d3e 3786 41bd 852b 8b3d b0ba edbd
000001d0: 5db2 a4bd a093 873b b513 2dbd 00ea 143e
000001e0: b656 313d beee ecbc d0d3 a7bd ad98 41be
000001f0: 2413 89bc 332e afbd 9eb2 ce3b f55b c4bd
0.10393765 0.12133206 0.25258023 0.35599118 -0.05474919 -0.1109967 0.05919007 0.0033538952
0.16527104 -0.24790189 0.034721054 0.2143308 -0.05376305 -0.09631305 0.09225506 0.14720176
-0.08450836 -0.2518178 -0.05308111 0.03933388 0.16668414 -0.08439145 -0.022956468 0.08208645
0.18426937 0.050894767 -0.120626554 0.023694426 0.16709258 -0.15027331 -0.18966384 0.09968676
-0.12234618 0.12693006 -0.17397773 0.031784408 -0.04581159 -0.15363128 -0.27598774 -0.16006386
-0.24191938 -0.10985966 -0.07883744 -0.15528134 -0.092050254 0.037973195 0.0063248454 0.07552268
-0.30318588 0.023793235 0.03713814 -0.06052022 0.059454206 -0.20599575 -0.120418645 0.044680502
0.196447 -0.2659673 -0.11991726 0.017548414 0.0152324075 -0.024479892 -0.092718914 -0.08600874
-0.107287094 -0.34370893 -0.17834657 -0.29737332 0.11199742 -0.07633212 -0.057148192 0.07928352
-0.07341805 -0.050981123 0.10660605 -0.17866336 -0.01282769 0.28766555 -0.17897923 -0.0060275025
-0.062711306 -0.14090909 -0.22896825 -0.22571704 0.1538101 -0.28668955 0.25107008 -0.22371133
0.18262112 0.066053845 -0.031238036 0.16456068 0.2187356 0.060785003 0.08569734 0.009929262
-0.0551043 -0.10851873 -0.123358026 0.08001917 -0.06479314 -0.10589595 -0.13805942 -0.14709328
0.18869334 -0.2372016 -0.1699745 -0.05609993 -0.06966548 0.012947282 -0.0048433226 0.19095458
0.13839939 -0.047247138 0.0679541 -0.116078734 -0.080418326 0.0041374713 -0.042255122 0.14542389
0.043295585 -0.028922435 -0.08194697 -0.18905897 -0.01673276 -0.08553734 0.006307914 -0.09587852

bias_hh_l0 f4 [128]
00000000: d8ff 5f3e ac98 433e 2106 383e 62bf 103e
00000010: 5b88 d33d 8b94 ac3d 6cca d03d 4168 20be
00000020: 6ebd 583e 5369 38be b69d 773c 4a94 213e
00000030: 3fda 76be 290c 693d cca7 d9bc 1e70 903d
00000040: 63ab fb3d 321e 1a3d 60ea cdbd 1d44 8bbd
00000050: 88fc d03d 24de 09bd ff4e 823d 42c2 39be
00000060: fc14 413d c084 173d 786e 94bc 2a60 debd
00000070: 8cfa f63b 5d8b bebd 966c d63d 94e8 40bd
00000080: f8b0 003d d20b 83bd 8f6c d4bc a578 f1bd
00000090: 8828 c6bc fb0c 813d 0968 1ebe 9701 74bd
000000a0: fd04 acbe 8b49 ba3c fb4e 56be 0a4e e3bd
000000b0: 3d2b 33be 7c61 ccbd 56da 9cbe 6d81 be3d
000000c0: a818 c3be 4674 4c3d 9f30 813d 121d 803d
000000d0: 9643 ba3d 10e1 cabd e15b 683c a4dd 8e3d
000000e0: 79f7 4f3e 4a18 8ebe dcf3 7fbe d4a6 35bc
000000f0: 5c09 04be 2060 84bb 9035 85be be24 963c
00000100: fcbe 84be 1d8d 5cbe 5085 4cbe 8a13 93be
00000110: bbf5 a93e a3d2 7dbe ba35 143e 3fba a1bc
00000120: dd7e 2c3e 6c7f 803e c0f8 173e 2259 e6bd
00000130: 1c11 343e 0359 923e 9557 41bd a152 99be
00000140: a6ac e5bc 5041 2ebd c806 cebc a2fb 51be
00000150: 196e 993e 7ce6 24bc 595b 273e 0b59 1abd
00000160: 9254 533e b7ce 783e 177b b1bd e521 973d
00000170: c291 5c3e b176 593e 4c2e 803d 6fcf 03be
00000180: 321e 3c3e f6e5 0d3e 84e7 323e 2278 e63d
00000190: 7afb 69bd aa79 593d c84c 56be 1618 a33c
000001a0: 0b9f 653d e478 27be 0722 04be 9271 2a3e
000001b0: be7e 49be 3042 d53a eab6 833c b8b4 08be
000001c0: a216 033e 53e1 0bbe 9f21 d9bc 78a3 8f3c
000001d0: fe55 853d 172c a33d d729 bd3d 4447 b0bd
000001e0: c05a 363e ed64 2ebd d639 67bd 0a01 8bbd
000001f0: 8f77 2b3e 33bc 41be ad96 a33d efbf 88bd
0.2187494 0.19101208 0.17971088 0.14135507 0.10328742 0.0842677 0.10194859 -0.1566477
0.21166012 -0.18008928 0.015113285 0.15779224 -0.24106692 0.056896362 -0.02656927 0.07052635
0.12288549 0.037626453 -0.10054469 -0.06800101 0.102044165 -0.033659115 0.063627236 -0.1814051
0.047139153 0.036991835 -0.018119082 -0.108581856 0.0075371917 -0.09303925 0.1046993 -0.047096804
0.03141877 -0.06398739 -0.025930671 -0.11790589 -0.024189249 0.06301304 -0.15469374 -0.05957183
-0.33597556 0.022740146 -0.20928566 -0.11098869 -0.17496963 -0.09979531 -0.30635327 0.0930203
-0.3810475 0.049915574 0.06308102 0.06255545 0.09094922 -0.099062085 0.014182062 0.06975868
0.20309247 -0.27752906 -0.24995369 -0.011087138 -0.12894195 -0.0040397793 -0.26017427 0.018328067
-0.2592696 -0.21538205 -0.1997273 -0.28725845 0.3319529 -0.24787383 0.1447362 -0.01974213
0.1684527 0.25097215 0.14840984 -0.112474695 0.17584652 0.28583536 -0.047202665 -0.29945853
-0.028036427 -0.042542756 -0.025149718 -0.20506147 0.2996681 -0.010064717 0.1634344 -0.037682574
0.2063773 0.24297605 -0.08666056 0.07379512 0.21539977 0.21236683 0.062588304 -0.12872098
0.18370894 0.13857254 0.17471129 0.11253382 -0.057124592 0.053094544 -0.20927727 0.019908946
0.05605988 -0.1635471 -0.12903605 0.16644886 -0.19677255 0.0016270336 0.016078431 -0.13350189
0.12801602 -0.13660173 -0.02650529 0.017534003 0.06510542 0.07967394 0.09236496 -0.08607343
0.17808056 -0.04257672 -0.05645164 -0.067873076 0.16744827 -0.18919449 0.079877235 -0.066772334

weight f4 [36, 32]
00000000: ff7b 733d be29 e23d 58b8 6aba 6084 3c3c
00000010: 82ed 003d 785d 10be 9f34 2b3e 9948 47be
00000020: 2bb0 9e3e 0db0 25be cd34 f53d 81b0 acbe
00000030: 3119 8f3d dc65 a93c 4cb6 c93d 13fd bf3d
00000040: 21ea 04be 1331 c63d 978a 20be a118 dbbc
00000050: 2069 2c3e 4ab1 e83a 7dda ddbd e931 1ebd
00000060: 9cd6 45bd 7d4c af3d 90d9 2dbe 240a 593d
00000070: 106b 493e 557e 0ebe ffe5 fd3d 4d4e 10be
00000080: 7e85 96bd 69ae 16bd ac95 133d a8e5 fbbc
00000090: d4de dcbd ba51 a5bd 8c74 0c3d c4dc c1bc
000000a0: 786d 933e 794a 1c3c aaed 0c3e a8ae 9bbe
000000b0: c578 473e 0ecc bc3d 86ee a03d a7af 333d
000000c0: 8380 8cbe 58fa c73d 2c7e ebbc 9f26 373d
000000d0: 1937 903a 421c 223d b06d d1bc 8e8d cabd
000000e0: 9f1b 8f3c fd0b a4bd a303 74bd 0258 dabd
000000f0: 7a53 c53c 5c51 0abe b2f1 babd fba6 adbd
00000100: ec9f 26bc c946 c83d 3f15 6fbd 7401 39be
00000110: e3d5 3f3e 286a 653c 4814 49be d2e2 373d
00000120: 411f 343e fa31 bf3d 94c3 f6bb 1f82 56be
00000130: 608d 163e 90f8 0d3c dc79 f7bc a125 923d
00000140: 6553 8cbe 0033 0abd 122b 1dbd 7a60 5fbe
00000150: 9f62 8d3d b5d7 b8bd 112c 0f3e 4454 cfbc
00000160: 4a4f 243e 39c4 423e 0212 2c3e 0c81 abbd
00000170: 69e8 743d 8d10 083e bfa0 d63d 9e5a a3bd
00000180: e074 2bbe 6bef 4f3d 611d 71be 1567 36bd
00000190: 8544 2f3e c898 16be 4df7 c73d 329a 2a3e
000001a0: 6331 883e f5e8 433d 68ec a83d dac1 6abe
000001b0: 5544 a93d 162d 753d befd 8d3d b709 0dbd
000001c0: 430f 90be 8edd 68be f7d9 473d 7c6e 603d
000001d0: ddf3 843e a340 bdbd e673 0e3e b8eb f33b
000001e0: 7e96 50bd 2764 083d 79ce 6abd de46 1e3e
000001f0: a040 1fbd 9fa7 b9bd 4620 eabd b34d 1cbe
00000200: 662a 123c 780b f3bb 7153 bbbd b2a8 07bd
00000210: b454 763d bfa0 6cbe 5a5e 41be beb3 f43d
00000220: d1d1 803e 995a 153e a1e8 a93d 9ffd 4abe
00000230: 2ff0 303e 3852 203e f742 f9bd 328b 94bd
00000240: 53d5 fabd ad32 aabd e4b4 abbd 2368 44be
00000250: 9de6 8fbd c97b 5dbe d89a 443e 5266 10be
00000260: 207c 1e3e 5246 d9bb 9a9e be3d f8c4 48bd
00000270: b92e b9bd 1c0f babd a34d 513e b321 323e
00000280: 058a 99bd 87af 893d 90d8 bdbd 8b67 74be
00000290: 7ba7 7cbd 4f20 57be 1bfd 703d 4432 bdbd
000002a0: b25f c23e 686e 7f3d 1880 1c3e bcde 76bc
000002b0: 033d 55bb 37a3 32bd 0e95 053e a96a 25be
000002c0: ecdf 7bbe 05ad bfbd 2533 e4bd 9f57 38be
000002d0: 7288 583d a4e3 c83d 0c19 96bd de51 9dbd
000002e0: 7170 973c f225 553e 61f6 9ebd 6e12 913d
000002f0: 6e38 843e eed4 7b3e e951 483e d683 5bbd
00000300: fb0e 4dbe 3f27 ebbc 5c52 d73c 9569 a43d
00000310: 97fd 033d d515 35be c141 b5bd 1761 fdbd
00000320: 9bf2 543e 78cb 0abe a1d0 ef3d ecc0 673b
00000330: 3ed1 9c3d f530 823e 196d 6ebd b783 d93d
00000340: 9b27 66be 12cd b5bd ebdb 66bd 768d 32be
00000350: f800 b73d 8dd5 d3bd b72a a1bd ab16 333d
00000360: 56d6 8c3d 60c1 343e 17cd 63bd 8e18 c23d
00000370: fcc9 6bbd dd04 573c c569 d1bd 8e9f 1fbd
00000380: 93d7 84bd 6473 863d 61e5 7ebe 3dcb 6abe
00000390: a448 583e 112b 56be 327c 8fbc da98 3dbe
000003a0: 6775 0a3e 6532 afbd 4fed 873a 5242 8abc
000003b0: f9a3 90bd cafa 31bd 27dd b9bd 6c38 f9bd
000003c0: 494c e1bc 9372 ddbd 2a3a e8bb 76a8 0b3c
000003d0: a7fb 803e aefb f1bd 0df9 9abc 3c78 99bc
000003e0: e564 a83c 683f 693e 79e0 f0bd 7e77 643e
000003f0: e6ae eb3d ce5f 3d3a 74ee 403e f1a7 1dbe
0.059444424 0.11043118 -0.0008953861 0.01150617 0.031476505 -0.14098155 0.16719292 -0.19461288
0.3099378 -0.1618044 0.119729616 -0.33728412 0.06987227 0.020678453 0.098492235 0.09374442
-0.12979938 0.09677329 -0.15677868 -0.026745142 0.16836977 0.0017753032 -0.10832689 -0.038621817
-0.04830037 0.08559511 -0.16977525 0.052988186 0.19669747 -0.1391538 0.12397384 -0.1409237
-0.0734968 -0.036787424 0.03603141 -0.030749157 -0.107846886 -0.08072229 0.034290835 -0.02366484
0.28794456 0.00953924 0.13762537 -0.3040669 0.19479664 0.09218608 0.07857995 0.043868687
-0.27441797 0.09764546 -0.028746687 0.044714566 0.0011002749 0.03957773 -0.025564998 -0.09890281
0.017469225 -0.08010099 -0.05957378 -0.106613174 0.024087656 -0.13507599 -0.09128131 -0.084791146
-0.010169964 0.09779126 -0.05836987 -0.1806696 0.18733935 0.01400236 -0.19636643 0.044894047
0.17590047 0.09335704 -0.007530639 -0.20948075 0.14702368 0.008665219 -0.030209474 0.071360834
-0.27407375 -0.033740044 -0.038371153 -0.21814147 0.06903576 -0.09025518 0.13981654 -0.025308736
0.16045871 0.19020166 0.16803744 -0.08374223 0.059791956 0.13287564 0.10479879 -0.07976268
-0.16743803 0.050765436 -0.23546363 -0.0445319 0.17115982 -0.14706719 0.09763966 0.16660383
0.2660018 0.047829587 0.08248216 -0.22925511 0.082649864 0.05985745 0.06933163 -0.034433093
-0.28136644 -0.22740766 0.04879185 0.054792866 0.25967303 -0.09240844 0.13911399 0.0074438713
-0.05092477 0.033298638 -0.057325814 0.15456721 -0.03887999 -0.09065174 -0.11431937 -0.15264015
0.008921241 -0.0074171387 -0.091467746 -0.033119865 0.060139373 -0.23108195 -0.18883649 0.119483456
0.25160077 0.14585342 0.082963236 -0.19823311 0.17279123 0.15656364 -0.12170976 -0.07253112
-0.122477196 -0.08310447 -0.083841115 -0.1918035 -0.07026408 -0.21629252 0.19199693 -0.14101532
0.15477037 -0.0066306973 0.093075946 -0.04901597 -0.09042115 -0.09084913 0.20439772 0.17395668
-0.07497028 0.06722932 -0.09269822 -0.23867624 -0.06168316 -0.21008419 0.05883513 -0.09238103
0.37963635 0.06236115 0.15283239 -0.015067752 -0.0032537587 -0.043612685 0.13045141 -0.16153969
-0.24597138 -0.09359173 -0.111425675 -0.18002175 0.0528645 0.09809044 -0.07328996 -0.076816306
0.018486233 0.20815256 -0.07761837 0.07083593 0.25824302 0.24592945 0.19562496 -0.053592525
-0.20025246 -0.028705237 0.02628439 0.08027951 0.032224264 -0.1768411 -0.08850432 -0.12372034
0.20795672 -0.1355418 0.11709715 0.0035362793 0.07657097 0.25427976 -0.058209512 0.10620826
-0.22476046 -0.08877005 -0.056362074 -0.17436776 0.08935732 -0.10343466 -0.07869475 0.04372279
0.06876819 0.17651892 -0.05561551 0.0947734 -0.057565674 0.013123718 -0.10225252 -0.038970523
-0.0648643 0.06564978 -0.24892189 -0.22929092 0.2112146 -0.20914866 -0.017515276 -0.1851534
0.13521348 -0.08554534 0.0010370406 -0.016877327 -0.07062525 -0.04345206 -0.090753846 -0.12168965
-0.027502196 -0.10812869 -0.007087012 0.008524051 0.25191996 -0.11815582 -0.018917585 -0.01873409
0.020555923 0.22778094 -0.11761565 0.22311208 0.115079686 0.0007224054 0.18840963 -0.15396096
