Comparative_Evaluation/Baselines/Transformer/models_m/model132.pt (torch, 548629 bytes, 48 tensors)

in_proj_weight f4 [30, 10]
0	0xbe8f3b93	-0.2797514
1	0x3e5773f8	0.21040332
2	0x3e3f2a92	0.18668583
3	0x3eafca98	0.34334254
4	0xbe31fbec	-0.17381257
5	0xbcd478c9	-0.025936501
6	0x3ebe6052	0.37182862
7	0xbe8f689e	-0.28009504
8	0xbd0eb9d6	-0.034845196
9	0x3e1e8144	0.15478998
10	0xbe6277e5	-0.22116049
11	0xbdfb471c	-0.122694224
12	0xbe11ce58	-0.1423887
13	0x3dcc4966	0.09974937
14	0xbd914196	-0.07092588
15	0x3ebdaaf6	0.37044495
16	0xbe7c2aa4	-0.24625641
17	0xbde98d57	-0.114039116
18	0x3e8e79c8	0.27827287
19	0xbe697944	-0.22800165
20	0x3d521746	0.051291727
21	0x3e09b328	0.13447249
22	0xbec7455a	-0.389201
23	0x3e4e201f	0.2012944
24	0xbea2f7b9	-0.31829622
25	0xbe5c36c1	-0.21505262
26	0xbe2f3de0	-0.17113447
27	0x3e7184e9	0.23585857
28	0xbde0e3a0	-0.10980916
29	0x3e940d3f	0.28916356
30	0x3e04f6f3	0.12984829
31	0xbea424d6	-0.32059354
32	0x3e40c0f1	0.18823601
33	0xbd9a42be	-0.07532261
34	0x3e06737a	0.13129988
35	0xbe57229b	-0.21009295
36	0xbe13591b	-0.1438946
37	0x3e471ea5	0.19445284
38	0xbe7c68ab	-0.24649303
39	0x3e4d2b8d	0.20036145
40	0xbea73b35	-0.3266236
41	0x3e8d2ae6	0.2757179
42	0x3daf7f4e	0.08569203
43	0xbd1add1e	-0.03780853
44	0x3e0c814b	0.13721196
45	0x3e688257	0.2270597
46	0x3e665602	0.22493747
47	0x3ea5b474	0.32364237
48	0xbd2bbad1	-0.04192621
49	0xbd343fd4	-0.044006184
50	0x3eb3e12b	0.35132727
51	0xbdb7e377	-0.08978932
52	0x3d83ef71	0.06442154
53	0xbe556f56	-0.20843253
54	0x3e8f147d	0.2794532
55	0xbe35a6e5	-0.17739446
56	0xbd8582f3	-0.06519117
57	0x3eb8791b	0.36029896
58	0x3e043925	0.12912424
59	0x3e151471	0.14558579
60	0xbe8bc6e4	-0.2730018
61	0xbe406284	-0.1878758
62	0x3e8b2e4b	0.27183756
63	0xbd4b2cbb	-0.049603205
64	0x3c00a5ec	0.007852059
65	0x3dcb7217	0.0993387
66	0xbd90e09c	-0.07074091
67	0xbc254e17	-0.010089419
68	0xbe1f6638	-0.15566337
69	0x3d4e8a59	0.050424907
70	0x3e5c15d0	0.21492696
71	0xbe83db9d	-0.2575349
72	0xbea8437b	-0.32863984
73	0xbcf74f44	-0.030189164
74	0x3e803914	0.25043547
75	0xbeacd7b0	-0.33758307
76	0x3d7ce5a5	0.061742444
77	0xbe82ad80	-0.25522995
78	0xbea3fb08	-0.3202746
79	0xbe903994	-0.2816893
80	0x3e8df834	0.27728426
81	0x3ec18cec	0.37802827
82	0x3e0c6cfc	0.13713449
83	0x3e632849	0.22183336
84	0x3eb758bf	0.35809895
85	0x3e8a97fc	0.2706908
86	0xbda4d7c3	-0.08048966
87	0x3e8035db	0.25041088
88	0xbe39c9a7	-0.1814333
89	0xbd5f9a95	-0.05459078
90	0x3e6fbf8f	0.23412918
91	0xbd5f5364	-0.054522887
92	0xbe8a5be1	-0.27023223
93	0xbe9582cf	-0.29201362
94	0x3dae5150	0.08511603
95	0x3e45afbf	0.19305323
96	0xbe949f19	-0.29027632
97	0xbe9f2d49	-0.31089237
98	0xbe278911	-0.1636088
99	0xbe861fdd	-0.26196185
100	0x3ea3193a	0.31855184
101	0xbeaaa0b9	-0.33325747
102	0x3e525ab7	0.20542417
103	0x3e976839	0.29571703
104	0xbd4e1799	-0.050315473
105	0x3e54879a	0.20754853
106	0xbd3771d1	-0.04478628
107	0xbd6d9deb	-0.05801193
108	0x3a69fc77	0.0008925865
109	0xbeb4cad7	-0.35311005
110	0x3e93136d	0.28725758
111	0xbc585aae	-0.0132052135
112	0x3ebeaa6f	0.37239406
113	0xbdb65b05	-0.08904079
114	0xbe90fd64	-0.28318322
115	0xbd627361	-0.055285815
116	0x3b96ee28	0.004606027
117	0x3ea7f7c2	0.32806212
118	0xbdf5cef5	-0.120023645
119	0xbeb42dd1	-0.35191205
120	0x3e8ea2f0	0.27858686
121	0x3eb396f3	0.35076103
122	0xbeaecb06	-0.3413927
123	0x3e2b4939	0.16727151
124	0x3e4360eb	0.1907994
125	0xbe26e0d9	-0.1629671
126	0xbe7e9830	-0.24862742
127	0x3de3c7b3	0.11122074
128	0x3d93c536	0.072153494
129	0x3e873c5c	0.26413238
130	0xbe38a40c	-0.18031329
131	0x3e8c5bf6	0.2741391
132	0xbd29d651	-0.041464154
133	0xbda55e3a	-0.08074613
134	0x3cd4ca80	0.025975466
135	0x3ec216b4	0.37907946
136	0x3e9da08f	0.3078656
137	0xbe3bc1e6	-0.18335685
138	0x3dc204c2	0.09473564
139	0x3e635cba	0.22203341
140	0x3ea9f449	0.33194187
141	0xbe4cad81	-0.19988061
142	0xbeab681e	-0.33477873
143	0xbd479b17	-0.04873189
144	0x3ddbf10b	0.10739335
145	0xbe02290a	-0.12710968
146	0xbec059df	-0.37568566
147	0xbe6001c3	-0.21875672
148	0x3d95ab5a	0.07308073
149	0x3eac61f8	0.33668494
150	0x3d321a47	0.04348209
151	0xbe8459a8	-0.25849652
152	0xbea423ca	-0.32058555
153	0xbac43c4a	-0.0014971581
154	0x3e60a1f0	0.21936774
155	0x3e417d19	0.18895377
156	0xbeb7b3d8	-0.35879397
157	0x3dff4874	0.12464991
158	0x3e8525f2	0.26005512
159	0x3daf529d	0.08560679
160	0xbd9bf3eb	-0.07614883
161	0x3e2b643a	0.16737452
162	0x3df8d038	0.121490896
163	0xbec146d0	-0.37749338
164	0xbe3ef175	-0.18646796
165	0x3d930e48	0.07180458
166	0xbd0f5413	-0.03499229
167	0xbe9ac552	-0.30228668
168	0xbcaf24ea	-0.021379907
169	0x3e2646bd	0.16237922
170	0xbe8c766f	-0.27434108
171	0x3ce63d83	0.028105503
172	0x3e78c6ef	0.24294637
173	0xbd9919b1	-0.07475603
174	0x3d434228	0.047670513
175	0xbe94f5f5	-0.290939
176	0x3c730171	0.014831887
177	0x3e86bb6e	0.26314873
178	0x3d3b16f3	0.045676183
179	0xbce01d5b	-0.027357748
180	0xbe24636f	-0.16053556
181	0x3e5742ee	0.21021625
182	0xbe653a6e	-0.2238557
183	0xbc80a08f	-0.01570156
184	0x3e28d713	0.16488294
185	0x3db0158d	0.085978605
186	0xbe5768c1	-0.21036054
187	0x3de33b5d	0.11095307
188	0x3eba30b7	0.3636529
189	0xbe24e204	-0.16101843
190	0xbe29985b	-0.16562025
191	0xbe8b55e0	-0.27213955
192	0xbe307154	-0.17230731
193	0xbc84306c	-0.01613637
194	0x3e8b6aa1	0.2722979
195	0x3ea9936a	0.3312028
196	0x3bd21a56	0.006411831
197	0xbec710d8	-0.38880038
198	0xbea85756	-0.32879132
199	0xbe5c9d48	-0.21544373
200	0xbe9b67cc	-0.30352628
201	0xbe87f3d2	-0.26553208
202	0x3ec3c351	0.38234952
203	0xbe372446	-0.17884931
204	0x3e9776af	0.29582736
205	0x3e73e273	0.23816852
206	0x3e83b44f	0.25723502
207	0x3ebcb8ae	0.3685965
208	0xbec1ed13	-0.37876186
209	0xbe93ae11	-0.2884374
210	0xbeca5fde	-0.39526266
211	0x3e965958	0.2936504
212	0x3c848941	0.016178729
213	0xbe8b8801	-0.272522
214	0x3e92f18d	0.28699914
215	0xbd964418	-0.073372066
216	0xbe6f857c	-0.23390764
217	0x3ea0ec7a	0.31430417
218	0xbd89802a	-0.067138985
219	0x3ddcb2b4	0.107762724
220	0xbe0af37a	-0.13569441
221	0x3d1dbc49	0.03850964
222	0xbe19dcba	-0.15025607
223	0x3d87d21b	0.06631871
224	0xbe9f2c01	-0.3108826
225	0x3db8da7e	0.09026049
226	0x3eaa6878	0.33282828
227	0x3ea09444	0.31363118
228	0xbdcca117	-0.09991663
229	0x3e057b31	0.13035275
230	0x3ebedbce	0.37277073
231	0xbec081da	-0.3759907
232	0xbd64c512	-0.055852003
233	0x3e9870c0	0.2977352
234	0x3e4d4701	0.20046617
235	0xbec43033	-0.38318023
236	0xbd85e29b	-0.06537362
237	0x3e8b000c	0.27148473
238	0xbbb61fbe	-0.005557983
239	0x3d054b62	0.032542594
240	0xbe7cccc8	-0.24687493
241	0x3e96cc6b	0.29452834
242	0xbc9a61ce	-0.018845465
243	0x3cfbfd09	0.030760305
244	0x3df9f71f	0.12205338
245	0x3e0f57c0	0.13998318
246	0xbd945faa	-0.07244809
247	0xbe89bab6	-0.26900262
248	0x3cdeddd8	0.027205393
249	0x3de98f8d	0.11404333
250	0x3e988248	0.29786897
251	0x3e917bf5	0.28414884
252	0x3daa5625	0.08317212
253	0xbe006df5	-0.12541945
254	0x3e16f06c	0.14740151
255	0xbebe7f9d	-0.37206736

in_proj_bias f4 [30]
0	0x3b2bdec6	0.0026225313
1	0xbbf764df	-0.0075498666
2	0xbc04b5be	-0.008099971
3	0x3c4c94ae	0.01248662
4	0xbc46d400	-0.012135506
5	0x3b4d463b	0.0031322378
6	0xbc221d39	-0.009894663
7	0x3ac443b4	0.001497379
8	0x3c14b811	0.009077088
9	0x3bd3017f	0.0064393873
10	0xb7923a04	-1.7431572e-05
11	0x3518ea00	5.696493e-07
12	0x378fc210	1.7137296e-05
13	0x359536dc	1.1117331e-06
14	0xb7e52f65	-2.7320997e-05
15	0x361d390c	2.3428029e-06
16	0xb5123190	-5.446136e-07
17	0x37e5ff33	2.7417764e-05
18	0xb852f253	-5.0293584e-05
19	0x36d7851e	6.422996e-06
20	0x3be3e88c	0.006955212
21	0xbc4a67fc	-0.012353893
22	0x3c152626	0.009103334
23	0x3b1f6735	0.002432299
24	0x3b87859e	0.0041358015
25	0x3b897df8	0.004195925
26	0x3c24fb14	0.010069627
27	0xbb3e127a	-0.0029002712
28	0xbae65e1e	-0.0017575657
29	0xbae96a54	-0.0017808178

weight f4 [10, 10]
0	0x3db8f6bd	0.090314366
1	0x3e8c458e	0.27396816
2	0x3e90e7a5	0.2830173
3	0x3e87f681	0.26555255
4	0x3edd23eb	0.43191466
5	0x3d134b4a	0.035960473
6	0xbe7d96db	-0.24764578
7	0x3e843a3a	0.25825673
8	0x3f005b69	0.5013948
9	0xbca84a15	-0.020543138
10	0xbecee09d	-0.4040574
11	0xbe0d3fca	-0.13793865
12	0x3e8d091b	0.2754601
13	0xbbf59b66	-0.0074953316
14	0x3e2cc3a5	0.16871507
15	0xbe50ba96	-0.20383677
16	0x3cb82b9a	0.022481728
17	0x3f0bf2b6	0.5466722
18	0xbd373e2b	-0.044737022
19	0x3e5376c9	0.20650782
20	0xbd97601e	-0.0739138
21	0xbd75d906	-0.060021423
22	0x3f077940	0.5291939
23	0xbd456003	-0.048187267
24	0x3f05734a	0.5212904
25	0x3e827415	0.2547919
26	0xbcb74826	-0.02237327
27	0x3e96fa10	0.29487658
28	0xbedf444b	-0.4360679
29	0x3b878e45	0.004136833
30	0x3ec16d31	0.3777862
31	0x3e65df5d	0.22448488
32	0xbed47de2	-0.4150229
33	0x3da51c2d	0.08062015
34	0x3d38000c	0.04492192
35	0x3b38cd90	0.0028198697
36	0xbee6e79a	-0.45098573
37	0xbeaa1e14	-0.33226073
38	0xbede00c4	-0.4335996
39	0xbf051c0f	-0.5199594
40	0x3ed6c2a0	0.41945362
41	0xbed20639	-0.41020373
42	0x3e002f67	0.12518083
43	0x3b29050a	0.0025790357
44	0x3e98daa5	0.29854313
45	0xbe38e61d	-0.18056531
46	0x3ee58e57	0.4483516
47	0x3d25ee68	0.040510565
48	0x3beff2e8	0.007322658
49	0xbcf172f0	-0.029473752
50	0x3b647d5f	0.0034864766
51	0xbe643de8	-0.2228924
52	0x3ed8bb90	0.423306
53	0xbec80bfd	-0.39071646
54	0x3e53e6af	0.20693468
55	0xbe8ebbd4	-0.27877676
56	0x3efeb64c	0.49748456
57	0xbefc8fa2	-0.49328333
58	0x3e0a70bc	0.13519567
59	0xbe7b39b4	-0.24533731
60	0xbe5448d9	-0.20730914
61	0x3eaa6984	0.33283627
62	0xbe3c6d7c	-0.1840114
63	0x3ebda084	0.37036526
64	0xbe9ca923	-0.3059779
65	0x3e3cc6be	0.18435189
66	0x3eaec595	0.34135118
67	0xbe267d71	-0.1625879
68	0x3ecbf7d2	0.3983751
69	0x3e83e1d7	0.2575824
70	0xbec03874	-0.3754307
71	0x3d875911	0.06608785
72	0x3e5ba344	0.21449
73	0x3e94054c	0.2891029
74	0x3e5eb941	0.21750356
75	0x3ea6ed86	0.3260309
76	0xbc9e9c4a	-0.019361634
77	0xbf052817	-0.520143
78	0xbee6fdda	-0.45115548
79	0xbf005a82	-0.50138104
80	0x3e959d8c	0.2922176
81	0xbdfd83a3	-0.12378623
82	0xbc17422c	-0.009232085
83	0xbe966ae6	-0.29378432
84	0xbf014cf7	-0.50508064
85	0xbe34902b	-0.1763312
86	0xbe9f6da6	-0.31138343
87	0x3d32c5bd	0.04364561
88	0xbf080f56	-0.531484
89	0xbe6e0201	-0.23242952
90	0xbe99b15a	-0.3001812
91	0x3eb044fe	0.34427637
92	0x3ecbf3ae	0.3983435
93	0xbe62b683	-0.22139935
94	0xbefeba5c	-0.49751556
95	0xbdc43d76	-0.09582035
96	0xbed7aaa6	-0.42122382
97	0x3da0f17d	0.0785856
98	0xbdeb077a	-0.114760354
99	0xbe2011ab	-0.1563174

bias f4 [10]
0	0x3bc53cb3	0.006019199
1	0xbbffb561	-0.0078036045
2	0x3c3d6350	0.0115593225
3	0xbc3c1004	-0.011478428
4	0x3aa65385	0.0012689686
5	0x3be9b85e	0.007132574
6	0x3b25f2fa	0.0025321827
7	0x3b052eb1	0.002032202
8	0x393bdcf2	0.00017916018
9	0xbba888ed	-0.005143276

weight f4 [2048, 10]
0	0x3d39142b	0.04518525
1	0xbd53866c	-0.051641867
2	0xbaeb3e7e	-0.0017947701
3	0xbd0576e0	-0.03258407
4	0xbd0e03d5	-0.034671623
5	0x3ca3e8fe	0.02000856
6	0xbd58dc44	-0.052944437
7	0x3b0f0f32	0.0021829125
8	0xbc4b5dbd	-0.012412486
9	0x3d33633e	0.043795817
10	0x398eb464	0.00027218752
11	0x38eb05cc	0.00011206753
12	0xb7b5c986	-2.1670723e-05
13	0xb68621be	-3.9974393e-06
14	0x39a67c94	0.00031754805
15	0x3904bbf3	0.00012658518
16	0x3a214490	0.0006151879
17	0x38485aee	4.77684e-05
18	0x3a2a6c38	0.0006501111
19	0x397a93b5	0.00023896883
20	0xb9182c83	-0.00014512432
21	0xb8c052d9	-9.170705e-05
22	0xb9800673	-0.00024418868
23	0xba002553	-0.0004888374
24	0xb8a2e892	-7.7680816e-05
25	0x3a1c8268	0.000597036
26	0x38f8e27e	0.00011867749
27	0xb9308d28	-0.00016837253
28	0x371c50cf	9.317139e-06
29	0x3a264209	0.00063422375
30	0x38f29d92	0.00011568809
31	0x3a0aee25	0.00052997685
32	0xb9cdabea	-0.00039228733
33	0xb6210ab4	-2.39971e-06
34	0x3950c1da	0.00019908641
35	0xb455e100	-1.9919025e-07
36	0xb986dae1	-0.0002572155
37	0xba08fd49	-0.0005225731
38	0xb86288e8	-5.4010103e-05
39	0xba22bde7	-0.0006208107
40	0xbd1c0d82	-0.03809882
41	0xbd6f25fd	-0.058385838
42	0x3cf5099d	0.02991181
43	0xbd3eaa55	-0.04654916
44	0x3ce2fe8a	0.027709264
45	0xbd43c984	-0.047799602
46	0xbcdd4fb2	-0.02701554
47	0xbd3ad836	-0.04561635
48	0xbcaa9e89	-0.020827549
49	0xbd2a71fd	-0.041612614
50	0xbc84b11c	-0.016197734
51	0x3c173172	0.009228097
52	0xbc981678	-0.018565401
53	0x3ccddd3a	0.025129903
54	0xbcef2168	-0.029190734
55	0xbd1a2a04	-0.037637725
56	0xbcba3445	-0.022730002
57	0xbc448314	-0.011994142
58	0xbd6e578f	-0.05818897
59	0xbc82d2d3	-0.01596967
60	0x37490474	1.198157e-05
61	0x3873bd09	5.8111767e-05
62	0x382755b6	3.9895727e-05
63	0x381faf54	3.807184e-05
64	0x39c31855	0.00037211427
65	0xb98b30ea	-0.0002654859
66	0xb9295609	-0.00016149147
67	0x398e94a4	0.00027195096
68	0x38fac5e4	0.00011957789
69	0xb908e982	-0.00013056959
70	0x3d67c0f6	0.056580506
71	0x3d18c5b8	0.037297934
72	0x3d2f4e1f	0.04279911
73	0x3cc10512	0.023561988
74	0x3d0ab8a1	0.033867482
75	0xbbce680c	-0.0062990244
76	0xbd3f6054	-0.046722725
77	0x3c088f59	0.008334958
78	0xbc363069	-0.01111994
79	0xbc067788	-0.008207209
80	0x3c28f256	0.010311684
81	0x3c2ccb93	0.010546583
82	0xbca52797	-0.02016048
83	0xbc955f6c	-0.018233977
84	0x3c0b6220	0.008507282
85	0xbd53e309	-0.05173019
86	0xbb0e6409	-0.0021727106
87	0x3b241493	0.0025036677
88	0xbcbfd486	-0.023416769
89	0xbca4b460	-0.02010554
90	0x3a2bd215	0.0006554437
91	0x3a16281b	0.0005728022
92	0x3a90a292	0.0011034778
93	0x3a07f893	0.0005186882
94	0xb8b33b2c	-8.546407e-05
95	0x391e8ae9	0.00015119802
96	0xb86c28ec	-5.6304896e-05
97	0xb91327e3	-0.00014033871
98	0x39f25d84	0.00046227511
99	0xb813b6aa	-3.521765e-05
100	0xbd44f9e7	-0.048089888
101	0xb941af3a	-0.00018471191
102	0x3c513176	0.01276814
103	0xbd1dcad8	-0.038523525
104	0x3c867fcf	0.016418366
105	0x3d174783	0.036933433
106	0x3d229b87	0.039699104
107	0xbca5c86a	-0.020237166
108	0x3c2babcc	0.010477971
109	0xbcbef20f	-0.023308782
110	0x3bc5c0d5	0.0060349503
111	0xbd5360ff	-0.051606175
112	0xbc6ea231	-0.014565037
113	0x3af3fbe3	0.0018614497
114	0xbbca15a3	-0.00616713
115	0xbd47bae7	-0.04876223
116	0xbcefd932	-0.029278371
117	0xbc9f042a	-0.019411165
118	0xbc10377f	-0.008802294
119	0xbc1fdf0a	-0.0097577665
120	0x3c9fdb7a	0.019513834
121	0x3ba5e630	0.005062841
122	0xbd581f57	-0.052764263
123	0xbd02c26e	-0.031923704
124	0xbd4ffaaa	-0.05077616
125	0xbd3378da	-0.043816425
126	0xbd21d373	-0.039508294
127	0x3c270816	0.010194799
128	0x3c484e9c	0.012225773
129	0x3acfd88b	0.0015857382
130	0xbc68026f	-0.014160736
131	0x3c588e79	0.013217562
132	0xbd41e68f	-0.04733902
133	0xbcbaf520	-0.022821963
134	0xbc8667e6	-0.016406965
135	0xbc8ce122	-0.017197195
136	0x3d301a3f	0.04299378
137	0x3bf044f7	0.00733244
138	0x3d04906c	0.032364294
139	0xbd58cce3	-0.05292977
140	0xb8b8af45	-8.80645e-05
141	0xb7a534c7	-1.969411e-05
142	0x39854e34	0.00025426003
143	0x3a2864bb	0.00064237014
144	0x3918134c	0.00014503038
145	0x3a2b2834	0.0006529123
146	0xb9901894	-0.00027484132
147	0xb83e335e	-4.534737e-05
148	0xb8777a1a	-5.9003105e-05
149	0xb9513391	-0.00019951003
150	0xbccf3361	-0.025293054
151	0xbb36c7c4	-0.0027890066
152	0x3bf264b6	0.0073972596
153	0x3d4c3aa7	0.049860623
154	0xbcfde30f	-0.030992059
155	0x3ca459a7	0.02006228
156	0x3c9e3106	0.019310486
157	0x3bcb8215	0.0062105753
158	0xbd67f638	-0.056631297
159	0xbc0e9ce9	-0.0087044025
160	0xbca000f4	-0.019531704
161	0xbc0f6682	-0.008752467
162	0xbd4d1352	-0.050067253
163	0x3cc97ed8	0.024596617
164	0x3aa37e16	0.001247349
165	0x3cb72b12	0.022359405
166	0x3d3a96a0	0.045553803
167	0xbcc3a498	-0.023882195
168	0xbd302952	-0.043008156
169	0x3baee3ac	0.005337199
170	0xbb5cd3e9	-0.0033695644
171	0x3d3e5210	0.04646498
172	0x3d30fff4	0.043212846
173	0xbd0edc09	-0.03487781
174	0xbca85779	-0.020549523
175	0xbbd78d67	-0.006578136
176	0xbc2ef4f2	-0.010678517
177	0x3c8647ae	0.016391601
178	0x3cbef172	0.02330849
179	0x3d28d0b1	0.04121465
180	0xbc7fc368	-0.015610553
181	0xbc382428	-0.011239089
182	0xbc90fe60	-0.01769942
183	0x3c7eef80	0.015560031
184	0xbd2d5ee3	-0.04232682
185	0x3ca347d4	0.019931711
186	0xbd58fd28	-0.052975804
187	0xbd36de5e	-0.04464566
188	0x3d482c9a	0.04887066
189	0xbd201d51	-0.03909046
190	0x3d07197d	0.032983292
191	0xbc791929	-0.015203753
192	0x3d76259e	0.06009447
193	0x39fb6e9f	0.0004795687
194	0x3c6945b8	0.014237814
195	0x3ccaaab1	0.024739595
196	0x3cb67eb2	0.02227721
197	0x3cd51fd0	0.026016146
198	0x3d29678c	0.041358516
199	0xbbfa198f	-0.0076324414
200	0xbce4a5ae	-0.027911033
201	0xbb936bd7	-0.0044989395
202	0x3bcf82dd	0.006332739
203	0x3d4dd43e	0.050251238
204	0x3caeedf0	0.021353692
205	0x3c53ecf9	0.012934917
206	0x3c0b6b6b	0.008509497
207	0xbd17b246	-0.03703525
208	0xbc4c112f	-0.012455269
209	0xbcdebfc3	-0.027191048
210	0x397b081b	0.00023940245
211	0xb653e260	-3.1573218e-06
212	0xba0d01f2	-0.0005379013
213	0x3a1afe44	0.00059125223
214	0x3967c1a1	0.00022102009
215	0xba9082b3	-0.001102528
216	0xb97b3ef8	-0.00023960683
217	0xb9341122	-0.0001717252
218	0xb8935031	-7.024443e-05
219	0x35a1c0f2	1.2051589e-06
220	0xbc4b9691	-0.012426035
221	0x3d3ad908	0.045617133
222	0x3cd5d3c4	0.026101954
223	0xbc60eb85	-0.013728027
224	0xbb49d516	-0.0030797175
225	0xbd344f75	-0.04402109
226	0x3c849338	0.01618348
227	0x3d0decc6	0.034649633
228	0xbc2b48f8	-0.010454409
229	0xbb3f2bf5	-0.0029170488
230	0x3b9b9e3b	0.004749087
231	0xbca89db6	-0.020583015
232	0x3cf84047	0.030304087
233	0x3c5370f8	0.012905352
234	0x3ccbb571	0.024866791
235	0xbbd8f513	-0.006621012
236	0xbd1c909f	-0.03822386
237	0xbcf7f149	-0.03026642
238	0x3c1e0c8b	0.009646545
239	0x3d511f8d	0.05105548
240	0xba2a0460	-0.0006485637
241	0xb99a2587	-0.0002940113
242	0xb937e2fe	-0.00017536801
243	0xb7f222ba	-2.8864819e-05
244	0xb7a7e7a9	-2.0015827e-05
245	0x354ff68a	7.747227e-07
246	0xba2baae4	-0.0006548597
247	0x39f8aa3e	0.00047429086
248	0xb8e1ed3f	-0.000107730266
249	0x37c89f53	2.3916049e-05
250	0xbd293dbc	-0.04131864
251	0xbd140485	-0.036137123
252	0xbd410a71	-0.0471291
253	0x3d3f5327	0.04671016
254	0xbcfb0d06	-0.030645858
255	0x3d1c5aa8	0.038172394

bias f4 [2048]
0	0x3e98e530	0.29862356
1	0xbe6dd78c	-0.23226756
2	0xbd94591a	-0.07243557
3	0xbdcd8f67	-0.100371175
4	0xbdc29203	-0.09500506
5	0x3e02249d	0.1270928
6	0xbde6f9bc	-0.11278102
7	0x3e4b2b65	0.19840772
8	0x3d0cdc32	0.034389682
9	0xbe59d16d	-0.21271296
10	0xbd29bd22	-0.041440137
11	0x3ddb7e74	0.107174784
12	0xbd8b5b68	-0.06804544
13	0x3dde2eeb	0.10848793
14	0xbe29a737	-0.16567694
15	0x3e41b42c	0.18916386
16	0xbc428ae0	-0.011873931
17	0xbc0e288f	-0.008676662
18	0xbd385ec4	-0.04501225
19	0xbd1256c8	-0.035727292
20	0xbd0d1661	-0.03444517
21	0xbe1f6316	-0.15565142
22	0x3e89d3dd	0.2691945
23	0x3cf2e425	0.029649803
24	0xbdfb7f36	-0.12280123
25	0xbe649a56	-0.223245
26	0x3e92976b	0.28631148
27	0xbe170832	-0.1474922
28	0xbd871312	-0.06595434
29	0xbddaaa94	-0.106770664
30	0x3e1afcc9	0.15135492
31	0x3e906342	0.28200728
32	0x3dde50f1	0.10855282
33	0xbe6bd0d9	-0.23028888
34	0x3e827c1f	0.25485322
35	0x3c119c3e	0.008887349
36	0x3d616ddd	0.055036414
37	0xbe505822	-0.2034612
38	0x3e9b5c3e	0.30343813
39	0xbd2eebab	-0.04270522
40	0xbe370424	-0.17872673
41	0x3ce6a0b7	0.028152807
42	0x3e4de178	0.20105541
43	0xbc542e5d	-0.012950507
44	0xbd8e77af	-0.069564216
45	0x3d33b373	0.043872308
46	0xbe3fdbd7	-0.18736206
47	0xbdb9d174	-0.09073153
48	0x3d4fee86	0.050764583
49	0xbc30b0d2	-0.010784345
50	0xbd862a9d	-0.065510966
51	0xbda24a43	-0.079243205
52	0x3e155e07	0.1458665
53	0x3e952273	0.29127845
54	0xbe0a5385	-0.13508423
55	0xbdd7327e	-0.105076775
56	0x3e935c24	0.28781235
57	0xbe395a2e	-0.18100807
58	0xbe0abf29	-0.13549484
59	0x3d844de4	0.06460169
60	0x3d179931	0.03701133
61	0x3e97e12b	0.29663977
62	0x3e9e9bbf	0.309782
63	0xbe0e3010	-0.13885522
64	0x3d12299b	0.03568421
65	0xbbe8826d	-0.007095626
66	0xbdffeab4	-0.12495938
67	0x3e441acb	0.19150846
68	0xbe0ef369	-0.13960041
69	0x3e4898b6	0.19589505
70	0x3c56acd5	0.01310273
71	0x3def1d2b	0.11675485
72	0x3e4a52ea	0.19758192
73	0x3e8d8f71	0.276485
74	0xbd468ad0	-0.048472226
75	0x3e340995	0.1758178
76	0xbdda975a	-0.10673399
77	0xbe559233	-0.20856552
78	0x3e107263	0.14106135
79	0x3e5cd15e	0.21564242
80	0xbcbb941c	-0.022897772
81	0x3e2d0c56	0.16899237
82	0x3e9cd512	0.3063131
83	0xbe513022	-0.20428517
84	0x3e73d74e	0.23812601
85	0xbe60903d	-0.21930023
86	0xbe1d07f5	-0.15335067
87	0x3e565320	0.20930147
88	0xbded4632	-0.11585654
89	0xbd03dc69	-0.03219262
90	0xbdd703cd	-0.10498772
91	0xbc0bfae8	-0.008543707
92	0x3d45b65c	0.048269615
93	0x3dc55925	0.096361436
94	0x3e8d464d	0.27592698
95	0x3cc18bbb	0.023626199
96	0x3d9b4ed4	0.07583395
97	0xbe6810aa	-0.22662607
98	0xbe0f2903	-0.13980488
99	0x3db7adf5	0.089687265
100	0xbcf60b2a	-0.03003462
101	0xbe31276c	-0.17300195
102	0xbe6509c0	-0.22367
103	0x3e89c55d	0.2690839
104	0xbcfc0287	-0.030762924
105	0x3e1c2702	0.15249255
106	0x3e3dc134	0.18530732
107	0x3e7793d7	0.2417749
108	0x3e7a81b7	0.24463545
109	0xbb58fafe	-0.0033108587
110	0xbe11634a	-0.14198032
111	0xbd071566	-0.03297939
112	0x3da4cd0e	0.080469236
113	0x3e6871fd	0.22699733
114	0xbd339445	-0.043842573
115	0xbe2aff5c	-0.16698974
116	0xbdc99ecb	-0.098447405
117	0x3e832c7c	0.25619876
118	0x3dae22f2	0.08502759
119	0xbdd437db	-0.10362216
120	0xbdee563f	-0.11637544
121	0x3e007a35	0.12546618
122	0xbd306e76	-0.043074094
123	0x3dde9860	0.10868907
124	0x3d8a821c	0.06763098
125	0x3dc1fcbd	0.09472034
126	0xbcf0c299	-0.029389666
127	0xbdb102ce	-0.08643113
128	0x3e6eaf8f	0.23309158
129	0xbe69bdcc	-0.22826308
130	0xbd06cf51	-0.032912556
131	0x3e20765e	0.15670153
132	0xba02f7d2	-0.00049960345
133	0x3e24afeb	0.16082732
134	0xbdaa6951	-0.08320869
135	0xbdf51123	-0.11966159
136	0x3c5f5204	0.013630394
137	0x3ceeecc6	0.029165637
138	0x3e7da743	0.24770837
139	0x3d443b6e	0.04790824
140	0xbd454364	-0.04815997
141	0xbe4bd046	-0.19903669
142	0xbd4fe120	-0.050751805
143	0xbb833e35	-0.0040052184
144	0xbdf29f34	-0.11846772
145	0xbda23244	-0.07919744
146	0x3dd5651d	0.104196765
147	0xbe3c4019	-0.18383826
148	0x3e629dd8	0.22130525
149	0xbe061743	-0.13094811
150	0x3ea066b5	0.3132836
151	0x3e54aa5d	0.20768113
152	0xbe44a25d	-0.19202562
153	0x3e37d3ea	0.17951933
154	0xbe5c9e4f	-0.21544765
155	0xbe444fa7	-0.1917101
156	0xbdd40354	-0.10352197
157	0xbd842548	-0.06452423
158	0xbe1ab527	-0.15108167
159	0x3e1a9316	0.15095171
160	0xbdb11179	-0.08645911
161	0x3ce8f64e	0.02843776
162	0x3e52856a	0.20558706
163	0x3d16f782	0.036857136
164	0xbe0a563e	-0.13509461
165	0x3dbef35f	0.09323763
166	0x3ccc29fd	0.024922365
167	0xbdfa4cae	-0.12221657
168	0xbe3c05ba	-0.1836156
169	0xbe0eed83	-0.13957791
170	0x3e237418	0.15962255
171	0xbe59bc78	-0.21263301
172	0x3e22e412	0.15907314
173	0x3db1048e	0.08643447
174	0x3e9fb824	0.31195176
175	0x3e87b3c6	0.26504344
176	0x3e9c5521	0.30533698
177	0x3e8f60a6	0.28003424
178	0xbe699989	-0.22812475
179	0xbd886bc9	-0.066611834
180	0x3e4f354f	0.2023518
181	0xbe6b7404	-0.22993475
182	0xbc133a48	-0.008986063
183	0x3e3fef10	0.18743539
184	0xbdbb9423	-0.09159114
185	0xbd6a4641	-0.057195906
186	0xbe6a86b8	-0.22902954
187	0xbe37520a	-0.17902389
188	0xbd77e5f2	-0.060522027
189	0x3d75f7e9	0.06005088
190	0x3dbecc68	0.09316331
191	0x3e482e96	0.19549021
192	0x3e23c780	0.15994072
193	0x3dc17d62	0.09447743
194	0x3d9004c2	0.070321575
195	0xbd49b64d	-0.04924612
196	0xbe3489ae	-0.17630646
197	0x3e7b44e9	0.24538006
198	0xbe1dd60c	-0.15413684
199	0xbbc1db97	-0.0059160697
200	0x3e65cf68	0.224424
201	0xbe5fb1cf	-0.21845172
202	0x3e54bc12	0.20774868
203	0x3e4305e6	0.19045219
204	0x3e8c0e2b	0.2735456
205	0x3df251f9	0.11832041
206	0xbe1626e1	-0.14663269
207	0xbe3d1b49	-0.1846744
208	0xbe067c5b	-0.13133375
209	0x3dfea68a	0.124341086
210	0xbe2885c9	-0.16457285
211	0x3e7dc121	0.24780704
212	0x3d716aba	0.058939673
213	0x3e0f6325	0.14002664
214	0xbe3c8b1e	-0.18412444
215	0xbe593941	-0.21213247
216	0xbe13ce08	-0.14434063
217	0xbd46188e	-0.04836326
218	0xbdc37f3d	-0.09545753
219	0x3e94f1de	0.2909078
220	0xbdf3bd0b	-0.119012915
221	0x3e807860	0.2509184
222	0x3e94a45c	0.29031646
223	0xbe455285	-0.1926976
224	0xbab1ecda	-0.0013574616
225	0x3c7ee29c	0.015556958
226	0x3e67ef38	0.22649848
227	0x3e4c7786	0.1996747
228	0xbdc5edb8	-0.09664482
229	0x3e0d0442	0.13771155
230	0xbe6b1f38	-0.22961128
231	0x3e34549f	0.17610405
232	0xbda941a7	-0.08264475
233	0x3e223357	0.15839897
234	0x3e928cec	0.2862314
235	0x3e2405a9	0.16017784
236	0x3e8eccfd	0.2789077
237	0x3ddb3750	0.107039094
238	0xbd460944	-0.04834868
239	0xbda1c546	-0.07898955
240	0xbe5e1cbc	-0.21690649
241	0x3e96c2b7	0.2944543
242	0x3e71681f	0.23574875
243	0x3e0260bd	0.12732215
244	0xbe2703c3	-0.16310029
245	0x3e67430b	0.22584169
246	0x3e5e2703	0.2169457
247	0x3e8e5d29	0.2780545
248	0x3c95d1a5	0.018288443
249	0xbcdd7abf	-0.027036069
250	0x3e8a3f52	0.27001435
251	0x3d8169c4	0.06319001
252	0x3ea038fc	0.31293476
253	0x3e8a427d	0.27003852
254	0xbca449eb	-0.020054778
255	0x3d80e860	0.06294322

weight f4 [10, 2048]
0	0x3d62f5f2	0.055410333
1	0x3893c706	7.046577e-05
2	0x372976be	1.0100832e-05
3	0xba8bfc58	-0.0010680063
4	0xbc7df65e	-0.015500633
5	0xbd1ffd4a	-0.039059915
6	0xb8ad7ca8	-8.272502e-05
7	0x3d35a8ad	0.044350315
8	0x3b41f4c3	0.0029595352
9	0x39147709	0.00014158724
10	0xbd130d40	-0.035901308
11	0x3d01370f	0.03154665
12	0x3cc085a8	0.023501232
13	0x3d04b6ec	0.03240101
14	0x3a51d81c	0.000800492
15	0xbd0cafbe	-0.03434729
16	0xbd4cde8b	-0.05001692
17	0xbcfa09c5	-0.030522237
18	0x3d1cc517	0.038273897
19	0x3c8c8c2b	0.017156681
20	0xbd1e6ac5	-0.038676042
21	0xb88b38f9	-6.6386485e-05
22	0x3d1de7dc	0.038551196
23	0xbd5781eb	-0.052614134
24	0xb8c0422b	-9.167598e-05
25	0xbd0ad01e	-0.033889882
26	0x3d0ac58f	0.033879813
27	0xb803c2c7	-3.1414234e-05
28	0x3d321d88	0.043485194
29	0x3734f080	1.0784832e-05
30	0xbd196520	-0.037449956
31	0xbcb8e487	-0.022569908
32	0xbc39e450	-0.011345938
33	0x3a2a5990	0.0006498331
34	0xbc8ea782	-0.017413858
35	0x3d04da52	0.03243477
36	0xbad492f2	-0.001621811
37	0x39214149	0.00015378477
38	0xbcb33b2e	-0.021878805
39	0x3c2df393	0.010617155
40	0x3a076ef0	0.0005166372
41	0x3d0ee2a9	0.03488413
42	0xbd2e15d1	-0.042501274
43	0x355cfb6d	8.232226e-07
44	0x3a23536d	0.0006230388
45	0xbd0d6976	-0.034524404
46	0x39fca933	0.0004819125
47	0x3b5814cc	0.003297138
48	0x3ce1b45c	0.027551822
49	0xba2a768e	-0.00065026514
50	0xbd12dae4	-0.03585328
51	0x3781196a	1.5389833e-05
52	0x3cc081a8	0.023499325
53	0xbb2c3c54	-0.0026281076
54	0xb75de26c	-1.3225344e-05
55	0x3d03ea33	0.03220577
56	0xbc66b51c	-0.014081266
57	0xbcea7c94	-0.028623857
58	0xb92fd801	-0.00016769768
59	0xbcb33f39	-0.021880733
60	0xbd117748	-0.035514146
61	0x3959a7f4	0.000207573
62	0xbaca7d8f	-0.0015448796
63	0x3980508b	0.00024474072
64	0xbc95f63d	-0.018305892
65	0x3b89275d	0.0041856007
66	0xb906db66	-0.00012860968
67	0x3d489a5c	0.048975334
68	0x3c44c836	0.012010625
69	0xbd2be2e2	-0.04196442
70	0x3cad70b2	0.021171901
71	0xbd1af412	-0.03783042
72	0x39448cf4	0.00018744526
73	0x3d51354c	0.05107622
74	0xbd3acf3b	-0.045607787
75	0xbcc02489	-0.023454921
76	0x3cd47236	0.025933366
77	0x398da654	0.0002701754
78	0xbd2b8dad	-0.04188316
79	0x3d363ffe	0.04449462
80	0x3a16a314	0.00057463464
81	0xbc729ae1	-0.014807434
82	0x3cce210e	0.025162246
83	0x35522fc0	7.830058e-07
84	0x3a6440d7	0.00087071717
85	0x39201f87	0.00015270534
86	0x39499eb4	0.00019227975
87	0xbc820e46	-0.015875947
88	0x399cf40d	0.0002993647
89	0x3a111cab	0.0005535583
90	0x37f4e11c	2.9191891e-05
91	0xbbfa58f4	-0.0076399986
92	0xbcc02f5d	-0.023460085
93	0xbd0a33e1	-0.03374088
94	0x3ad37c09	0.0016134988
95	0xbd25fe29	-0.04052559
96	0xb94e17c0	-0.00019654538
97	0x3a519a30	0.0007995693
98	0xbcd808c7	-0.026371373
99	0xbb3396f8	-0.0027403217
100	0x3c9110a6	0.017708134
101	0xbcd5deff	-0.02610731
102	0x3a258792	0.0006314452
103	0x3c347736	0.01101475
104	0xbc794e8b	-0.01521648
105	0xbd168eb4	-0.036757186
106	0x3cc37f8d	0.023864532
107	0x3c3153a5	0.010823165
108	0xbb326ce2	-0.0027225544
109	0x3d3e406e	0.046448164
110	0xba009162	-0.0004904476
111	0xbbc94b60	-0.0061430186
112	0x3d2b16bf	0.04176974
113	0xbd0c8f1b	-0.034316164
114	0xbce7762d	-0.028254593
115	0xb8ae494b	-8.3106184e-05
116	0x39abed30	0.0003279238
117	0xbbb13f82	-0.005409182
118	0xbd6d71dc	-0.057969913
119	0xba26e41d	-0.0006366389
120	0xbc2a6798	-0.010400675
121	0xbaab6bcd	-0.0013078392
122	0x390240c5	0.00012421895
123	0x3c958e8a	0.018256444
124	0x3c9f557b	0.01944994
125	0x3ca70775	0.020389298
126	0xbcd5c58f	-0.02609518
127	0xb98d1c57	-0.0002691473
128	0x3cad435e	0.021150287
129	0x3897f084	7.2450406e-05
130	0xbcd70aea	-0.026250321
131	0xbceef21e	-0.029168185
132	0x3ad5f888	0.0016324678
133	0xbd1fefc3	-0.039047014
134	0xba122b20	-0.0005575884
135	0x3c6cec92	0.0144607
136	0x3d2f0429	0.042728577
137	0x3c926fd6	0.017875593
138	0x3d2044a8	0.039127976
139	0xbd2a5145	-0.04158141
140	0x3bfb0e40	0.007661611
141	0xb780ebf9	-1.5368672e-05
142	0x3cfc3658	0.030787632
143	0xbbb1e33f	-0.005428701
144	0x3be1fb16	0.006896387
145	0x3bc6e7d5	0.006070117
146	0xbd231a0e	-0.03981977
147	0x39ba3fe8	0.00035524298
148	0xbbc91ec4	-0.0061377008
149	0xb8f39932	-0.00011615678
150	0x3c254de6	0.010089373
151	0xbce3f9b9	-0.027829038
152	0xb9a6d590	-0.00031821104
153	0xbd1466d0	-0.036230862
154	0x39a8ab5d	0.00032171133
155	0xba083de1	-0.0005197209
156	0x37b73fa0	2.1844928e-05
157	0x39fb6f82	0.0004795753
158	0xb990e06e	-0.00027633033
159	0x3d4295d2	0.04750616
160	0x38db930e	0.00010470125
161	0x3d328dea	0.04359237
162	0xbcdc139f	-0.026864825
163	0x3d26ba7a	0.04070518
164	0xbccc582f	-0.024944393
165	0x3cbf19d7	0.023327751
166	0x3ca10603	0.019656187
167	0x39badbb0	0.00035640365
168	0x3a039c8c	0.0005020581
169	0xb9a0111c	-0.00030530326
170	0xbd1cc71d	-0.038275827
171	0xb730ab03	-1.0530234e-05
172	0x3d5d31c7	0.05400255
173	0x3d284245	0.041078825
174	0xbd0c681d	-0.034278978
175	0x3c7d82a7	0.0154730445
176	0xbb44f402	-0.0030052667
177	0x3b891e54	0.0041845236
178	0xb8183446	-3.6288307e-05
179	0xbccd108b	-0.025032302
180	0xbd27c4aa	-0.040959038
181	0xb9090d77	-0.00013070354
182	0x3d14bf9d	0.03631555
183	0xbd0eb54c	-0.034840867
184	0xba14ab88	-0.0005671312
185	0x39a4374a	0.0003132171
186	0x395d3aa5	0.00021098049
187	0xba56fa7f	-0.0008200779
188	0xba28c90d	-0.00064386503
189	0x3d3b8604	0.045782104
190	0x3d413fba	0.047179915
191	0xbd03665c	-0.03208004
192	0xbb8a759a	-0.004225445
193	0xbcda1ac3	-0.02662409
194	0x3c63f9e2	0.013914557
195	0xbd38c513	-0.04510982
196	0x3cc4397f	0.023953198
197	0x3babc8f7	0.0052424627
198	0x37c2c1b5	2.3216804e-05
199	0xbc062d3b	-0.008189495
200	0x3cd0d5cd	0.025492573
201	0x380ec122	3.4035307e-05
202	0x3c04a779	0.008096569
203	0xbd3aadce	-0.04557591
204	0x3d3e1477	0.046406236
205	0x3d4e1cd7	0.050320473
206	0xb94806a3	-0.00019075959
207	0xb79ce868	-1.8704872e-05
208	0xb95adfe2	-0.00020873503
209	0xbc30ac5b	-0.01078328
210	0x375cb644	1.3155459e-05
211	0xbd1771ed	-0.036973882
212	0x3d306cc6	0.043072484
213	0xbd23d34e	-0.039996438
214	0xb7fb8b72	-2.9986466e-05
215	0x370cff26	8.404057e-06
216	0x39a61e1f	0.0003168443
217	0xba34d0e4	-0.0006897582
218	0x3b855a35	0.0040695914
219	0xbc46801a	-0.012115503
220	0x398da118	0.0002701364
221	0x3c1c243a	0.009530121
222	0x3bb4e882	0.005520881
223	0x39b6c69c	0.0003486172
224	0xbd367bc8	-0.04455164
225	0x3d2ae3c8	0.041721135
226	0xbd07e62e	-0.0331785
227	0xbd47263d	-0.04862045
228	0xb9725706	-0.00023111337
229	0x3a672d1c	0.00088186725
230	0xb7566221	-1.2778241e-05
231	0x3d47fcc2	0.048825033
232	0x3b5f5276	0.003407625
233	0x3d70cb28	0.058787495
234	0xbb4c4920	-0.0031171516
235	0x3d416111	0.04721171
236	0x3d648522	0.055791028
237	0x3d07d996	0.03316649
238	0xb97e4e63	-0.00024252529
239	0xbccf141a	-0.02527814
240	0xb92a5698	-0.00016244722
241	0x3d1d4ae7	0.03840151
242	0x3d5981d6	0.053102337
243	0xbc88c9e5	-0.016697833
244	0x395e8bca	0.00021223645
245	0xbd4f2c85	-0.050579567
246	0x3cb12127	0.021622254
247	0x3d5cfa62	0.05394972
248	0x3d00f438	0.031482905
249	0xbd6f0226	-0.05835166
250	0xbd0e66c3	-0.03476597
251	0xba631d20	-0.0008663703
252	0x3d619f8d	0.0550838
253	0xbcd4cd70	-0.025976866
254	0xbd0bf555	-0.034169514
255	0xbd43a37b	-0.04776333

bias f4 [10]
0	0x3cbffd37	0.023436172
1	0x3c234014	0.009964008
2	0x3c82dc3f	0.015974162
3	0xba83581b	-0.0010020764
4	0xbca03e13	-0.01956085
5	0x3bee49cd	0.0072719813
6	0xbc869147	-0.016426696
7	0x3b50e1dd	0.0031872906
8	0x3ca9e3e8	0.020738557
9	0xbc80f72c	-0.01574286

weight f4 [10]
0	0x3f803e6c	1.001905
1	0x3f7f55f8	0.9974055
2	0x3f7d0aeb	0.98844784
3	0x3f819764	1.0124326
4	0x3f7fc72b	0.9991328
5	0x3f80dcf4	1.006743
6	0x3f802884	1.0012364
7	0x3f7e3409	0.9929815
8	0x3f7feb98	0.9996886
9	0x3f80b7f6	1.005614

bias f4 [10]
0	0x3b95a21e	0.004566445
1	0xbc0d7e5d	-0.008636084
2	0x3c3abdd9	0.011397802
3	0xbc2d454e	-0.010575606
4	0x3ad26a1a	0.0016053349
5	0x3bedc3b1	0.0072559942
6	0x3a7bcfb7	0.0009605842
7	0x3ab406a7	0.0013734893
8	0xbad31665	-0.0016104697
9	0xbb8caf11	-0.0042933305

weight f4 [10]
0	0x3f7eb77f	0.9949874
1	0x3f7f72e3	0.9978468
2	0x3f804de4	1.002377
3	0x3f818a19	1.0120269
4	0x3f7ea83e	0.9947547
5	0x3f819b2a	1.0125477
6	0x3f8048cc	1.0022216
7	0x3f7dab63	0.9908964
8	0x3f7f478f	0.99718565
9	0x3f802b32	1.0013182

bias f4 [10]
0	0x3b46e47d	0.0030348592
1	0xbc07d2b4	-0.008289982
2	0x3c5a1646	0.013310974
3	0xbc3b6482	-0.011437537
4	0x3bb7892c	0.005601069
5	0x3c4eca82	0.012621524
6	0x3b28bb08	0.0025746245
7	0x39991267	0.00029196145
8	0x3989e982	0.00026304653
9	0xbb10e2b1	-0.0022107775

in_proj_weight f4 [30, 10]
0	0x3ea34963	0.31891927
1	0x3d15a9c0	0.03653884
2	0x3e920571	0.28519776
3	0x3e4a1a51	0.19736601
4	0xbe7f7290	-0.24946046
5	0x3eb3066f	0.34965846
6	0x3ec90687	0.39262792
7	0x3d833b3f	0.06407785
8	0x3e604b50	0.2190373
9	0xbea4240d	-0.32058755
10	0x3ec2af9f	0.38024613
11	0x3dc1f06a	0.094696835
12	0xbec04eff	-0.3756027
13	0x3e0a935a	0.13532773
14	0x3df99602	0.12186815
15	0xbdd799b8	-0.105273664
16	0xbe14dee7	-0.14538155
17	0xbea30758	-0.3184154
18	0xbe356337	-0.17713629
19	0xbe2f8e58	-0.17144144
20	0xbdf01b14	-0.11723915
21	0xbeb49a78	-0.352741
22	0x3e1fdac5	0.15610798
23	0x3ea93e91	0.33055547
24	0xbe0cf770	-0.13766265
25	0x3eb6dce0	0.3571539
26	0x3d647474	0.05577512
27	0xbebc35d4	-0.36759818
28	0x3e84aa96	0.25911397
29	0x3d041499	0.032246206
30	0xbe4bce24	-0.19902855
31	0xbe9cd68d	-0.3063244
32	0x3d506103	0.050873768
33	0xbc0d65ee	-0.008630259
34	0x3e1bdd91	0.1522124
35	0x3da2bfb9	0.079467244
36	0x3e00f430	0.1259315
37	0xbebc5f59	-0.36791494
38	0xbddfabbe	-0.10921429
39	0x3de8fdeb	0.11376556
40	0x3eab3fe4	0.33447182
41	0x3eb88903	0.36042032
42	0xbeaf30f8	-0.34217048
43	0x3d24bd9f	0.0402199
44	0x3e03c7e2	0.12869218
45	0x3dd732d5	0.10507742
46	0x3e0ea1cc	0.13928908
47	0x3e7377ae	0.23776123
48	0xbe6a9cf0	-0.2291143
49	0xbe8fdaec	-0.28096712
50	0x3952caa1	0.00020102646
51	0x3e50dfb8	0.20397842
52	0x3e9831a1	0.29725364
53	0xbe48f57f	-0.196249
54	0x3da48c55	0.08034579
55	0xbea695c5	-0.3253614
56	0x3e629977	0.22128855
57	0xbe890813	-0.26763973
58	0xbd342ce6	-0.04398813
59	0xbe202c5c	-0.15641922
60	0x3eba3065	0.36365047
61	0x3e73c05e	0.23803851
62	0x3e985f37	0.29760143
63	0xbc82416c	-0.015900336
64	0x3def44fd	0.1168308
65	0x3ea64430	0.32473898
66	0x3eae41f6	0.340347
67	0xbd859048	-0.0652166
68	0xbeae2561	-0.34012893
69	0xbea6d7e1	-0.32586578
70	0x3e95f382	0.29287344
71	0xbe4c7282	-0.19965556
72	0x3ec1adf3	0.37828025
73	0x3ebe1cc4	0.3713132
74	0xbdcb467c	-0.09925553
75	0x3e856c3d	0.26059142
76	0x3e27fc66	0.16404876
77	0xbe28a5f6	-0.16469559
78	0x3eae7ce3	0.34079656
79	0x3e934e50	0.28770685
80	0x3e87b810	0.26507616
81	0x3e6ba685	0.23012741
82	0xbe868568	-0.26273656
83	0x3e8b101b	0.27160725
84	0x3e8b0043	0.27148637
85	0x3981ca59	0.00024755558
86	0xbe406ed5	-0.18792279
87	0xbe2cd153	-0.16876726
88	0xbeb51b65	-0.35372463
89	0xbe2216e7	-0.15829049
90	0xbb8dec52	-0.00433115
91	0xbd78295f	-0.06058633
92	0x3e80e0ab	0.25171408
93	0xbe88c287	-0.26710913
94	0xbeb731d4	-0.35780203
95	0xbeb74721	-0.35796455
96	0x3d8107d4	0.06300321
97	0x3eb4656a	0.35233623
98	0x3d7bb2d8	0.061449856
99	0xbe00849e	-0.1255059
100	0xbea16f4a	-0.3153022
101	0x3eb83de0	0.35984707
102	0xbd58b919	-0.052910898
103	0x3d1d6fa1	0.038436536
104	0x3e1e5cc6	0.15465078
105	0x3d5fb89c	0.054619417
106	0xbdeb92aa	-0.11502583
107	0xbe9a2809	-0.3010867
108	0x3d5b5e63	0.05355681
109	0xbe0d9562	-0.13826516
110	0x3dd62f49	0.10458238
111	0x3ecbd160	0.39808178
112	0x3eb101a4	0.34571564
113	0x3e0aa879	0.1354083
114	0x3ebdcaf8	0.37068915
115	0xbe644efb	-0.22295754
116	0xbcded41b	-0.02720075
117	0x3e037203	0.12836461
118	0xbec042cd	-0.37550965
119	0x3dd0669e	0.10175823
120	0xbc20a555	-0.009805043
121	0x3eb43401	0.35195926
122	0x3e8ab292	0.27089363
123	0xbdfcb2df	-0.123388045
124	0x3e9141e5	0.28370586
125	0xbdb6319e	-0.088961825
126	0x3ebbd7df	0.36688134
127	0x3e197bc0	0.14988613
128	0xbdcf975b	-0.10136291
129	0x3e6f5d77	0.23375498
130	0xbdb4cb9f	-0.088279
131	0xbe7ec5c5	-0.2488013
132	0x3eba9124	0.36438859
133	0x3ec1ef50	0.37877893
134	0xbe80e743	-0.2517644
135	0xbe011a21	-0.12607624
136	0xbe170dd3	-0.14751367
137	0xbec19e69	-0.3781617
138	0xbd703b83	-0.058650505
139	0x3e3f961d	0.18709607
140	0x3eb68edb	0.35655865
141	0x3e560ba4	0.20902878
142	0x3ebe9c9a	0.37228853
143	0x3dd509ff	0.10402297
144	0xbebd338b	-0.36953387
145	0x3e92a93e	0.28644747
146	0xbea3efb1	-0.32018808
147	0x3df2561c	0.1183283
148	0xbec4e016	-0.38452214
149	0xbe51a918	-0.2047466
150	0xbec55a0a	-0.38545257
151	0x3eac4464	0.33645928
152	0x3dd308cf	0.103044145
153	0x3e66cae2	0.22538331
154	0xbe541060	-0.20709372
155	0xbea2fa9f	-0.31831834
156	0x3eb6019b	0.355481
157	0xbebdf9e1	-0.37104705
158	0x3e848b2c	0.2588743
159	0xbe875b28	-0.26436734
160	0xbe119c23	-0.14219718
161	0x3d345905	0.04403021
162	0x3e670a89	0.22562613
163	0xbe9fce89	-0.3121226
164	0xbe9fb43f	-0.31192204
165	0xbe016aad	-0.1263835
166	0xbe05d0de	-0.13067958
167	0xbdc33e8e	-0.09533416
168	0x3e7f247c	0.24916261
169	0xbe8f6fa4	-0.28014863
170	0x3ca34b90	0.019933492
171	0xbd54f547	-0.051991727
172	0x3ec1f4fe	0.37882227
173	0x3e85ba5d	0.26118746
174	0x3d10435c	0.03522049
175	0x3bfb50dd	0.0076695518
176	0xbeadda61	-0.33955672
177	0xbe00c6a2	-0.12575772
178	0x3e5e39f8	0.21701801
179	0x3eb1ada5	0.34702793
180	0xbe99fc25	-0.30075184
181	0x3c807d5a	0.015684772
182	0xbddfbee8	-0.10925084
183	0x3e085143	0.13312249
184	0xbe4451c3	-0.19171815
185	0x3ced038b	0.028932353
186	0xbd8ea350	-0.06964743
187	0xbe588bb4	-0.21147043
188	0x3d88d42c	0.066810936
189	0x3d063f0c	0.03277497
190	0x3ea2c7fa	0.31793195
191	0xbe2d3218	-0.1691364
192	0x3d1f132f	0.038836654
193	0xbdc44639	-0.095837064
194	0x3e431045	0.19049175
195	0x3ddb1d86	0.106989905
196	0xbe455afd	-0.1927299
197	0xbd3888e7	-0.045052435
198	0xbe85106a	-0.25989085
199	0x3e6ab755	0.22921498
200	0xbda3ee3f	-0.08004426
201	0x3d8c5a7a	0.068531945
202	0x3ea0408c	0.31299245
203	0xbe9b411e	-0.30323118
204	0xbeb4b99d	-0.35297862
205	0xbec05c35	-0.37570348
206	0xbc278b6e	-0.010226114
207	0x3df43194	0.11923519
208	0x3ea610d0	0.32434702
209	0x3eb60151	0.3554788
210	0x3eaaa340	0.33327675
211	0x3eb45e24	0.35228074
212	0xbd4c03db	-0.049808364
213	0xbeaf1f02	-0.34203345
214	0x3e824115	0.2544028
215	0xbc132d26	-0.008982932
216	0xbcbbb0e7	-0.022911502
217	0x3e208b96	0.15678248
218	0xbdaedbae	-0.08537994
219	0x3c88b171	0.016686173
220	0x3d4e8f1b	0.050429445
221	0xbea5dbe9	-0.3239434
222	0xbd4fa9d7	-0.05069908
223	0x3ead849c	0.33890235
224	0xbe1f8f16	-0.15581927
225	0x3e2d22fe	0.1690788
226	0xbec39f60	-0.3820753
227	0x3e0a55ca	0.13509288
228	0x3e77d398	0.2420181
229	0x3ce509c5	0.02795876
230	0xbdf93237	-0.12167781
231	0xbeac8095	-0.3369185
232	0x3ebfda11	0.3747106
233	0xbd8fce80	-0.070218086
234	0xbdaaff85	-0.08349518
235	0x3e8481ac	0.25880182
236	0x3de2571c	0.11051771
237	0xbe87de8e	-0.26536983
238	0x3dda47ca	0.10658224
239	0x3e3cc142	0.18433097
240	0x3ea2ba78	0.3178289
241	0x3e6d5c0a	0.23179641
242	0xbeb54a7e	-0.35408396
243	0xbe50182d	-0.20321722
244	0xbebf7763	-0.37395772
245	0xbda1a71f	-0.07893204
246	0xbcb58ae5	-0.022160957
247	0x3ea006c7	0.3125517
248	0x3ebc7c9d	0.36813822
249	0xbe6c1c9d	-0.2305779
250	0xbd60e78f	-0.05490833
251	0x3ead7263	0.33876333
252	0xbe990f04	-0.2989427
253	0xbd78fe6e	-0.060789518
254	0x3ce16202	0.027512554
255	0xbe51b441	-0.20478918

in_proj_bias f4 [30]
0	0x3c0bf25a	0.008541668
1	0x3c247a16	0.010038873
2	0x3c10c518	0.008836053
3	0xbabeadcb	-0.0014547644
4	0x3c28ee9c	0.010310795
5	0x3c03e368	0.008049823
6	0xbc24626b	-0.01003323
7	0xbbb225bc	-0.005436627
8	0xbbb9b463	-0.0056672557
9	0xba12977f	-0.00055920327
10	0xb9af249c	-0.00033405877
11	0x3a3bd4dc	0.00071652024
12	0xb9802895	-0.00024444298
13	0xb99d4d02	-0.0003000275
14	0x39909730	0.00027578464
15	0xb9833e64	-0.00025032752
16	0xb9baddf4	-0.00035642053
17	0xb95a0fd6	-0.00020796
18	0x39ea90b2	0.00044739764
19	0xb9a9864d	-0.00032334254
20	0x3c33cb58	0.010973774
21	0x3ab44098	0.0013752161
22	0xbadfae8d	-0.001706557
23	0xbb1f3be9	-0.0024297184
24	0xbc47e0c6	-0.012199586
25	0xbc5e8336	-0.013581088
26	0x3bb203ba	0.005432573
27	0x3b0a7539	0.0021127
28	0x3c413831	0.011793182
29	0x3c3aa850	0.011392668

weight f4 [10, 10]
0	0xbe62e259	-0.22156657
1	0x3e845caf	0.25851962
2	0xbe35e3ba	-0.17762652
3	0xbe1daf10	-0.15398812
4	0xbd130801	-0.035896305
5	0x3e0aabb1	0.13542058
6	0xbddbcd1c	-0.10732481
7	0x3d21baff	0.039484974
8	0x3e87f46c	0.26553667
9	0x3ef58b6d	0.47957936
10	0x3e79747e	0.24360844
11	0x3ebe1442	0.3712483
12	0x3ef692a1	0.48158744
13	0xbf0b77cf	-0.5447969
14	0x3e75d1d3	0.24005823
15	0xbde97bd4	-0.114005715
16	0xbe6c89c3	-0.23099427
17	0x3db8e271	0.09027565
18	0xbe97e54a	-0.2966712
19	0xbec58d29	-0.3858426
20	0x3e335672	0.17513445
21	0x3edd9d27	0.4328396
22	0x3f024128	0.5088067
23	0xbef2c9c6	-0.47419566
24	0xbefc93cb	-0.49331507
25	0xbeac4c8d	-0.33652154
26	0x3de94ecf	0.11391985
27	0x3e7def70	0.2479837
28	0xbe72428e	-0.23658201
29	0x3eccf1f0	0.40028334
30	0xbe1a8719	-0.15090598
31	0x3d8cc723	0.0687392
32	0x3e44ac44	0.19206339
33	0x3eb1708f	0.34656188
34	0x3d818c5c	0.063255996
35	0x3f033364	0.5125029
36	0xbee67ab6	-0.45015496
37	0x3d475025	0.048660416
38	0xbee10a59	-0.43953207
39	0x3eac2ac8	0.3362639
40	0xbd31d6b7	-0.04341766
41	0x3e0b397c	0.13596147
42	0x3f0b6f5b	0.5446679
43	0x3e5cea99	0.21573867
44	0x3f0b03f2	0.54302895
45	0xbf0af2a0	-0.54276466
46	0xbdc8590b	-0.097826086
47	0x3e4089f1	0.1880262
48	0x3efaa82e	0.48956436
49	0x3e35eb72	0.17765597
50	0xbd777333	-0.060412597
51	0xbeb8ae3d	-0.36070433
52	0x3d0dbc10	0.03460318
53	0xbec8633d	-0.39138213
54	0x3e24b3b8	0.16084182
55	0xbecba633	-0.39775237
56	0x3e2b6fee	0.16741917
57	0xbef0d0d9	-0.47034338
58	0xbe98a7f9	-0.29815653
59	0xbecf37d4	-0.4047228
60	0x3ece52e1	0.40297607
61	0x3cc48604	0.023989685
62	0x3e883fb6	0.26611108
63	0x3f055697	0.5208525
64	0x3ea5daab	0.32393393
65	0xbe32b84d	-0.17453118
66	0xbe28a667	-0.16469727
67	0x3dd93b01	0.10606957
68	0x3e1ffc99	0.15623702
69	0x3eda8fab	0.42687735
70	0xbe97e58d	-0.2966732
71	0x3d8333cf	0.06406366
72	0x3f061f4d	0.5239151
73	0xbdd5d843	-0.10441639
74	0x3e93b08a	0.28845626
75	0x3eeca237	0.4621751
76	0x3efaa5f9	0.48954752
77	0xbe4d0ee8	-0.20025218
78	0xbe0a6c61	-0.13517906
79	0xbef405ed	-0.4766077
80	0xbd3666b0	-0.044531524
81	0x3e991059	0.29895285
82	0xbde3e671	-0.111279376
83	0x3f01856f	0.5059423
84	0xbe014da0	-0.12627268
85	0x3eb0a8b3	0.34503707
86	0xbd512030	-0.051056087
87	0xbea16bd5	-0.31527582
88	0xbe27e314	-0.16395217
89	0x3edefbd6	0.4355151
90	0xbe4adbcc	-0.19810408
91	0x3c9deb48	0.01927723
92	0x3ee7929d	0.45229045
93	0x3d021aba	0.03176377
94	0x3e7ad910	0.24496865
95	0x3ef96ef8	0.48717475
96	0xbdfd7746	-0.12376265
97	0xbedcf79d	-0.43157664
98	0xbef70cd7	-0.48251984
99	0x3dad799a	0.08470459

bias f4 [10]
0	0x3b9379e4	0.0045006145
1	0xbc55189b	-0.013006355
2	0x3c0eb07a	0.0087090675
3	0xbc807c46	-0.015684258
4	0x3bd18406	0.0063939122
5	0x3c2de0f4	0.010612715
6	0x3baaeeca	0.005216454
7	0xbb72154b	-0.003693896
8	0x3bb33221	0.0054686223
9	0xbb8b2490	-0.004246302

weight f4 [2048, 10]
0	0x3d74f63f	0.05980515
1	0x3d2776dd	0.04088484
2	0xbceeb544	-0.029139169
3	0xbd25d01f	-0.040481683
4	0x3ce9e1bb	0.02855002
5	0xbbd92b1b	-0.006627453
6	0xbd40c1dd	-0.047059882
7	0x3d3426f0	0.043982446
8	0xbd0db6da	-0.03459821
9	0xbd776230	-0.060396373
10	0xb9bec5db	-0.00036387038
11	0xba22f953	-0.0006216962
12	0x38acb428	8.235156e-05
13	0xb8e6e87d	-0.00011010559
14	0xba4ccc66	-0.000781244
15	0x39358e24	0.00017314457
16	0x39908af2	0.00027569343
17	0xb9d06576	-0.00039748446
18	0xb6d82ae0	-6.442293e-06
19	0xb8a817b4	-8.015279e-05
20	0x3801ba90	3.0929747e-05
21	0x38b942c2	8.833922e-05
22	0xba29910b	-0.00064684515
23	0xb67f9878	-3.808671e-06
24	0x3a06bf92	0.00051402405
25	0x3867e7ce	5.5290577e-05
26	0x3a709e20	0.0009178836
27	0x3853ee89	5.0528473e-05
28	0x3842f280	4.647905e-05
29	0xb9dc018f	-0.0004196283
30	0xba0c6e72	-0.0005357034
31	0x395ac138	0.0002086208
32	0x3901bb29	0.00012372121
33	0x36f3271b	7.246517e-06
34	0xb85b04e5	-5.2218227e-05
35	0x379d2938	1.8735052e-05
36	0xb867af47	-5.523793e-05
37	0x39806471	0.00024488897
38	0x37c3a7ae	2.3323893e-05
39	0xb9887c10	-0.00026032375
40	0x38ab4f1c	8.168651e-05
41	0xb4f2fa3a	-4.5258076e-07
42	0x39e139c9	0.00042958398
43	0xb8f270b5	-0.000115604525
44	0x399247a4	0.00027900666
45	0xb7a07661	-1.912861e-05
46	0x39d2670d	0.000401311
47	0xb990048f	-0.00027469217
48	0x38157818	3.5636214e-05
49	0x39d037e0	0.00039714482
50	0x3ca78efd	0.020453924
51	0x3cd8231a	0.026383925
52	0xbc9a5b6e	-0.018842425
53	0x3cbc995c	0.023022346
54	0x3d54f567	0.051991846
55	0xbd2e235e	-0.042514198
56	0xbd41c4ca	-0.047306813
57	0xbcef1ba4	-0.029187985
58	0xbc8fba58	-0.01754491
59	0x3d40325f	0.046923038
60	0x38dde67f	0.000105810344
61	0x3a6d987d	0.0009063555
62	0xb9877709	-0.00025837895
63	0x36f33894	7.248551e-06
64	0xba963795	-0.0011460657
65	0xb9200543	-0.00015260749
66	0x3a25d0b7	0.00063253514
67	0xb8c5b1af	-9.426788e-05
68	0x38ef5111	0.00011411508
69	0x381538d2	3.5577286e-05
70	0xbc509e23	-0.012733015
71	0xbd01de88	-0.031706363
72	0x3b5bb51c	0.0033524698
73	0xbc3b8e25	-0.011447464
74	0xbca321c5	-0.019913564
75	0xbd720b42	-0.059092768
76	0xbd35985c	-0.044334754
77	0xbbaebb2e	-0.005332372
78	0xbb11920a	-0.002221229
79	0xbc851552	-0.016245518
80	0xbd773877	-0.060356583
81	0xbcbfe16c	-0.02342292
82	0x3d93d09b	0.07217523
83	0x3d04fe2f	0.03246897
84	0xbcf7ce34	-0.030249692
85	0x3d0b5478	0.034016103
86	0xbbf7423a	-0.0075457366
87	0xbc27ddd2	-0.010245757
88	0x3a0a4840	0.00052750483
89	0xbd5c6a78	-0.053812474
90	0x39a509fd	0.00031478694
91	0x3a2bc28d	0.00065521226
92	0xb86b3b30	-5.608349e-05
93	0xba36cf8e	-0.0006973677
94	0x3a10cf31	0.0005524038
95	0xb9f6c420	-0.000470669
96	0x3823278b	3.8899056e-05
97	0x39c4497c	0.00037438783
98	0xba10aa20	-0.00055185147
99	0xb43ae0c0	-1.7404363e-07
100	0x3bfe6b12	0.0077642286
101	0x3bae0fee	0.0053119576
102	0xbc1759cd	-0.009237719
103	0x3bad030e	0.005279905
104	0xbbb00d17	-0.005372654
105	0xbb61c5af	-0.0034450104
106	0xbb86a735	-0.004109288
107	0xbb98872a	-0.0046547847
108	0x3bb1bf42	0.005424411
109	0x3c2403c1	0.010010661
110	0xbd280253	-0.04101784
111	0xbd2bcb7c	-0.041942105
112	0xbd28f571	-0.041249696
113	0x3b81144a	0.003939186
114	0x3d56a3ea	0.052402414
115	0xbca51ff2	-0.020156834
116	0xbd4c27d1	-0.04984266
117	0x3d407d93	0.046994757
118	0xbd4f701d	-0.05064403
119	0x39aca72c	0.0003293095
120	0x3bc379cf	0.0059654485
121	0xbd17ceff	-0.03706264
122	0xbbb827db	-0.0056199855
123	0xbbe26737	-0.006909277
124	0xbc513f5f	-0.0127714565
125	0xbb8c9d17	-0.0042911875
126	0xbd3d1aac	-0.046168014
127	0xbbab895a	-0.0052348794
128	0x3cffc09a	0.03121977
129	0xbcc6dc98	-0.02427511
130	0xbd6a5683	-0.05721141
131	0x3d2bd556	0.0419515
132	0xbc1e35ce	-0.009656383
133	0xbc88cf41	-0.016700389
134	0x3b278832	0.0025563356
135	0x3cb863fb	0.022508612
136	0xbd51cbcd	-0.05121975
137	0x3ab63254	0.0013900497
138	0x3b338029	0.0027389622
139	0x3b4fd063	0.0031709902
140	0xb93346cc	-0.00017097144
141	0xb7d98c30	-2.5933696e-05
142	0xb9a2d068	-0.00031054323
143	0x38d60e95	0.00010207031
144	0x39186893	0.00014534807
145	0xb8ad6fcb	-8.270106e-05
146	0x3948c083	0.00019145203
147	0xb9bef5f4	-0.00036422873
148	0xb91138b8	-0.00013849407
149	0xb838481f	-4.3936187e-05
150	0xbce0198e	-0.027355935
151	0xbd02b6ab	-0.031912487
152	0xbc2521f3	-0.010078895
153	0xbc340a82	-0.010988833
154	0x3d5d02e8	0.05395785
155	0xbcf3066e	-0.029666152
156	0x3d0221de	0.03177058
157	0xbcdda83a	-0.027057756
158	0x3bda67f3	0.0066652237
159	0xbcc0938e	-0.02350786
160	0x3b103580	0.0022004545
161	0x3cf48702	0.029849533
162	0xbb715ec1	-0.003683016
163	0x3d33fed6	0.043944202
164	0xbd4ae087	-0.049530532
165	0x3d48c645	0.04901721
166	0x3d0af85f	0.03392827
167	0x3c239978	0.00998532
168	0xbcbbaa67	-0.022908403
169	0x3d5ff391	0.054675642
170	0x3cd997ff	0.026561735
171	0x3c002d76	0.007823339
172	0x3d43198d	0.04763179
173	0xbd720d29	-0.05909458
174	0xbca01f65	-0.01954622
175	0x3cfcfa77	0.03088115
176	0xbd3d4099	-0.046204183
177	0xbcc1ec90	-0.023672372
178	0xbd24519c	-0.04011689
179	0xbd3dd5a1	-0.04634631
180	0x3d306d0f	0.043072756
181	0xbc288cdb	-0.010287489
182	0x3cb69ffb	0.022293082
183	0x3d239237	0.039934363
184	0x3d241f2b	0.040068787
185	0xbc3b93a2	-0.011448773
186	0xbcef76ac	-0.029231392
187	0xbd4a25ad	-0.049352337
188	0x3c44f910	0.012022272
189	0xbbd20f14	-0.006410489
190	0x3d61899e	0.055062883
191	0xbcfee152	-0.0311133
192	0xbd26fe5b	-0.040769916
193	0xbbee6e90	-0.0072763637
194	0xbbbb28f0	-0.0057116672
195	0xbc644d8e	-0.013934506
196	0xbc3eae75	-0.0116382735
197	0x3c9110a1	0.017708125
198	0x3c49b556	0.0123113
199	0x3d5f7dd2	0.05456335
200	0xbd3f1aad	-0.0466563
201	0xbd10a50e	-0.03531366
202	0xbd3c3155	-0.045945484
203	0x3d5306bc	0.051520094
204	0x3b0f8a15	0.0021902372
205	0xbd0f9dd1	-0.035062615
206	0xbcf5e767	-0.030017568
207	0x3d2b1849	0.041771207
208	0xbd159a40	-0.036524057
209	0x3c814b0b	0.015782854
210	0x38f314b0	0.00011590996
211	0x37f0f90c	2.8726201e-05
212	0x39519e3d	0.00019990742
213	0xba2bdb1f	-0.0006555784
214	0xb836c954	-4.3579683e-05
215	0xb79f7c77	-1.9012235e-05
216	0x3867ecbc	5.5295168e-05
217	0x3a262c7a	0.0006339025
218	0xb9f22735	-0.00046187048
219	0x3747f54c	1.1918437e-05
220	0xbc8551bd	-0.016274327
221	0xbc800d36	-0.0156313
222	0x3d7a73b1	0.06114549
223	0x3c918282	0.017762426
224	0x3d233ffa	0.039855935
225	0x3ae07d9a	0.0017127276
226	0x3ce12a08	0.027485862
227	0x3c6ad68e	0.01433338
228	0xbd8969ea	-0.06709655
229	0xbb6fd249	-0.0036593846
230	0xbd5753f2	-0.05257029
231	0xbd1b128d	-0.03785949
232	0x3c3d16ca	0.011541078
233	0xbd01f9ba	-0.0317323
234	0x3d121a5f	0.03566968
235	0xbd1b6fc4	-0.037948385
236	0x3ceb85c8	0.028750315
237	0xbc5e4a67	-0.013567544
238	0xbd04c16d	-0.032411028
239	0xbcd5b797	-0.026088519
240	0x39b47e1e	0.0003442624
241	0xb9de7721	-0.00042431898
242	0xb9b2b257	-0.0003408368
243	0x391c9167	0.00014931486
244	0xb8a9001b	-8.0585676e-05
245	0x397615d6	0.00023468523
246	0x39c86f02	0.0003822968
247	0x3a240401	0.00062567
248	0x398e9ed0	0.00027202675
249	0xba07f47a	-0.0005186271
250	0x39c5e836	0.0003774778
251	0xba05d28d	-0.0005104922
252	0x3951a264	0.00019992288
253	0x37b574f4	2.1631342e-05
254	0x396bddcc	0.00022493972
255	0x38090ae0	3.2673473e-05
