Comparative_Evaluation/Baselines/Transformer/models_m/model64.pt (torch, 548629 bytes, 48 tensors)

in_proj_weight f4 [30, 10]
00000000: 58eb e0bc 263b 253b 333e 6ebe f436 883e
00000010: c8b0 84b6 b9f9 b4bd 5647 b03d 3d77 0a38
00000020: 8701 36be 5ac5 1f3e 46e5 853e d383 a43d
00000030: 51e0 093e 2554 2039 b0aa 70be 6d1b 8dbc
00000040: e6bf d9b5 9cd7 8ebe 6f05 23bb f147 02be
00000050: c328 58be 49a6 6cbc 4d93 34be c0f8 bc38
00000060: 4752 923e 1e9d 503b 4b00 f73c bd83 503e
00000070: 0a05 59be 217d 973b 68e5 34b4 ef73 0d3d
00000080: 91a3 123e f7c0 693c 050c 3dbe ff99 7a3a
00000090: d20f aeb9 4130 613e 6235 77be ff47 1a3d
000000a0: 38b8 bdb8 836f 0a3e 6433 81be e4be 033e
000000b0: 068f 21b8 a614 623e 0184 653e 6df4 58bc
000000c0: 6017 3bbe 30de 91be 7877 703e 77f4 abb7
000000d0: 54e5 703e d032 523c 924d 28bc e328 bcb7
000000e0: 8ffd 503d 8a41 e4bc 733c ecb8 50a2 c438
000000f0: 845d f4bd 8d11 2abd 7ffa 00be 92f4 593e
00000100: a6fa 713e 62b7 0a38 6d0c 84b7 4202 743e
00000110: de3e 9ebc a427 5d3c 2890 d63c acaa 6a3d
00000120: a8a2 ba3c c9fc 11bd f6ae b5bd d4a9 14be
00000130: 1260 683d 7c2b 81be fc74 79bd 49c3 443e
00000140: c6ee f33d 259d cfb9 7bf8 3fbe c806 babc
00000150: 8110 333e 64e5 9f3d ae8d 11b9 e680 9739
00000160: 3078 a3bd 854c 8bbe d25b d8b9 2dac 0fbe
00000170: ecf8 563e 1faf 95bd 986e 103e d1cd 9938
00000180: 9ffa 453c 5029 77be aa46 2ebe 3869 ee3d
00000190: 6f55 03bd dea1 2c39 6635 c038 c3a7 deb6
000001a0: 77ba 82b7 3404 6f3d f921 ba37 1917 f8bb
000001b0: eba2 01be 89a9 a9bd e6bd 2e3d 4522 4cbe
000001c0: 930b 76be 3d05 88bc 0139 2c3d 8679 933e
000001d0: 54e7 00be 9f6d 3cbe f23d f9bd 6407 8bbe
000001e0: 3179 2e3d 6a10 e73d cdab 12be dbb5 9bbd
000001f0: 846c 213e 9ae0 25b8 9c3e 2a3e f49d 183d
00000200: f31a cb38 879c 013e 70ed 8c3b ce02 a6bd
00000210: 7f86 12bd cdfb 5e39 b930 d73d 1391 b3bc
00000220: b7ef 65be b7c3 953d 1324 1bbe 3518 bdbd
00000230: 4985 d9bd ec1e f03d 40e8 e3bd 47a2 483e
00000240: bf07 5cbe a81a 073d 7685 053e 69d3 e73a
00000250: c28f 7f3a 82ab c33d ed20 e73d 2f82 95bb
00000260: d643 153c 45f8 25be 208a 2f33 a5b2 263e
00000270: 4843 b93d 9dc0 12bb 6076 91be a4a6 f2bd
00000280: aa17 50be dce4 d239 2c4f 5ebe 14ba 67be
00000290: 25ce a03d 4cc2 6cbe 96e7 7c38 660c 933e
000002a0: c875 32bd f2ea d4bd ca69 493e 294f 0e37
000002b0: ca53 5937 f35d bdbd 9d9e ebbc 759d 7cbe
000002c0: a99c 263d 7dca a23d 3996 65be 00ef 173d
000002d0: 5a84 05be 703e 8bbe 9bec 823e d627 29b7
000002e0: ffef 3d3e 5b71 8c3e 8892 ccb9 7df2 44bd
000002f0: 2779 5ebe a4d2 54b7 ef42 12be e70b df39
00000300: 8b06 8e3e e583 193e 7ea7 b1b7 29f5 573c
00000310: 1a69 c03d 4dd8 533e ef50 91bd 5b34 6fbd
00000320: 4873 07be f4f1 7f3e c193 213e ec66 8bb9
00000330: 8cae bfbd e048 86be 807a bebd f94a fd38
00000340: 4a58 aabd 6ec4 11be 5317 473e e462 ce3d
00000350: 60d0 313e f819 73be 1256 c5bd b381 c3b7
00000360: d61e 8e3e 0e67 a2bc 2a5e 50be 6e06 c438
00000370: 996b b8bd 177e b73d e3cc c03c de69 34bb
00000380: 53a8 7f3d b4ec bebb 6054 303e 09d7 643e
00000390: b433 56be c68a a0bc 2ad7 e1bd 7f0e ff3d
000003a0: 503a 7abe bf16 adbd f6fe 033c b598 32bd
000003b0: b5d0 2fbe 8bf8 3539 3696 80bd a579 003e
000003c0: ca5f 14bc 97ce 823d 0e1e 003e 46d2 563e
000003d0: b6a8 41be ab4a bebd 793a 0a3e dc5a 3d3e
000003e0: 930a 053e 92e4 dc39 c221 7fbd cae4 d437
000003f0: 6bbc 583e c263 88be a937 dd3d 41bc 3a38
-0.02745597 0.0025212257 -0.23265915 0.26604426 -3.9544866e-06 -0.08836693 0.08607356 3.3012813e-05
-0.1777402 0.15602627 0.26151484 0.08032956 0.13464476 0.00015290135 -0.23502612 -0.017224992
-1.622361e-06 -0.27898872 -0.0024875065 -0.12722756 -0.211093 -0.014443942 -0.17634316 9.010872e-05
0.28578398 0.003183193 0.030151507 0.20362754 -0.21193328 0.004623071 -1.6847264e-07 0.03453439
0.14320208 0.014267198 -0.18461616 0.00095596904 -0.00033199653 0.21991064 -0.24141458 0.037666317
-9.046536e-05 0.13519101 -0.2523452 0.12865788 -3.8518592e-05 0.22078189 0.22413637 -0.013241869
-0.18270636 -0.28489828 0.23483074 -2.0498626e-05 0.23524982 0.012829497 -0.0102724 -2.2430386e-05
0.051023062 -0.027863283 -0.000112646165 9.376241e-05 -0.11931899 -0.041520644 -0.12595557 0.21284702
0.23630771 3.3072552e-05 -1.5741412e-05 0.23828986 -0.019317087 0.013498221 0.026191786 0.05729167
0.022782639 -0.035641465 -0.08871262 -0.1451791 0.056732245 -0.25228488 -0.06090258 0.1921512
0.11910777 -0.00039599198 -0.18747132 -0.022708312 0.17486764 0.07807425 -0.00013881057 0.00028897
-0.07981908 -0.27206817 -0.00041267142 -0.14030524 0.20993394 -0.07308792 0.14104688 7.333945e-05
0.0120836785 -0.24136853 -0.17019144 0.11641163 -0.032063898 0.00016463498 9.16522e-05 -6.6356456e-06
-1.5584037e-05 0.058353618 2.2188748e-05 -0.007571113 -0.12659805 -0.082842894 0.04266157 -0.19934948
-0.24027853 -0.01660406 0.04204655 0.28803653 -0.12588245 -0.18401192 -0.12170018 -0.27154076
0.042596046 0.112824276 -0.1432335 -0.076030456 0.15764052 -3.9548242e-05 0.16625446 0.03726001
9.684814e-05 0.12657367 0.0043007657 -0.08106004 -0.035772797 0.00021265373 0.1050734 -0.021919763
-0.22454725 0.0731272 -0.1515048 -0.09233133 -0.10621125 0.11724648 -0.111282825 0.19593154
-0.2148733 0.032984406 0.13039193 0.0017686907 0.00097488996 0.09554197 0.11285577 -0.0045626382
0.009110412 -0.16207989 4.0870987e-08 0.16279085 0.09046036 -0.0022392638 -0.28410625 -0.118481904
-0.20321527 0.00040224835 -0.21709889 -0.22629577 0.07851819 -0.23120993 6.0297163e-05 0.28720397
-0.043569356 -0.10396375 0.19669262 8.4822905e-06 1.2953717e-05 -0.09246435 -0.028762156 -0.2466944
0.040676747 0.07948778 -0.22420587 0.037093163 -0.1303877 -0.27196074 0.2557114 -1.008246e-05
0.18548582 0.27430233 -0.00039019086 -0.048082817 -0.21725903 -1.2685228e-05 -0.14283346 0.00042542742
0.27739367 0.1499172 -2.1178039e-05 0.013181009 0.093950465 0.20687981 -0.07095515 -0.05839954
-0.1322757 0.24994642 0.1577902 -0.0002658883 -0.09359464 -0.26227474 -0.09300709 0.00012077945
-0.08317621 -0.14235088 0.19442491 0.10077456 0.17364645 -0.23740375 -0.09635557 -2.3306207e-05
0.277579 -0.01982453 -0.2034842 9.347206e-05 -0.090048976 0.089595966 0.023535198 -0.0027528922
0.062416386 -0.005826557 0.17219687 0.22347654 -0.2091816 -0.019597422 -0.110273674 0.12453937
-0.24436307 -0.08451604 0.008056393 -0.043602664 -0.17169459 0.00017354095 -0.062786505 0.12546404
-0.009056041 0.0638706 0.12511465 0.2097865 -0.18912014 -0.092915855 0.13498868 0.18491691
0.12992315 0.00042131968 -0.062288053 2.5378908e-05 0.21165626 -0.2663861 0.10801632 4.452118e-05

in_proj_bias f4 [30]
00000000: 0000 0000 0000 0000 0000 0000 0000 0000
00000010: 0000 0000 0000 0000 0000 0000 0000 0000
00000020: 0000 0000 0000 0000 0000 0000 0000 0000
00000030: 0000 0000 0000 0000 0000 0000 0000 0000
00000040: 0000 0000 0000 0000 0000 0000 0000 0000
00000050: c17a bdbb 5d33 b1bb 4802 f33b 80fa cfbb
00000060: 6052 c4bb 7df7 a43b 77d9 37bb 46cb a63b
00000070: d1f3 cc3b e30a d93b
0.0 0.0 0.0 0.0 0.0 0.0 0.0 0.0
0.0 0.0 0.0 0.0 0.0 0.0 0.0 0.0
0.0 0.0 0.0 0.0 -0.0057824557 -0.0054077343 0.0074160434 -0.0063470006
-0.005991265 0.0050343857 -0.0028053203 0.00509015 0.006254651 0.0066236123

weight f4 [10, 10]
00000000: 0b70 c6be ab73 ac3e 0af5 a13e 9f7f 10bd
00000010: 6ea1 93be 8fa4 753e 76c1 753d 2707 4e3d
00000020: e39b 07bf 85c9 e73e eefa cc3b 0c4a a63e
00000030: 5da5 f53e 4cc7 fc3e a188 493b a9dd ae3e
00000040: 6a41 bd3d ecdf 283e 2f79 b73e f0e1 8c3e
00000050: 5678 fe3d 7ae4 ca3e 141d 503d ca5c 443e
00000060: 8872 77be 330a 163e aad7 f53e b7ef 9bbe
00000070: 702f d23e 6caf a9be 519f edbe a1ba 67be
00000080: da67 d7bd bddf 723e 6df2 80be 4b9e cbbe
00000090: f088 853e 7b5c a63d b945 e23b 8733 b43e
000000a0: a7ad 333e a41a 82be 7953 873d 3bc7 2f3e
000000b0: 30b7 7abd 2d0e c33e 4564 89bd bae9 833b
000000c0: ea67 01bf 4526 c3bd ef9e cc3e 1736 a03c
000000d0: a722 753e 60bd d23e 1b87 c53e e557 50be
000000e0: 6180 3b3e 2244 413e 243b a0be 9365 563b
000000f0: fc89 053f 76d2 b13e 7012 073f ad93 cf3e
00000100: 1e47 913d e53d 853e 675b f2be 50bf d2be
00000110: 0fad 333e b1ac f43e eeba 4c3d 5246 aebe
00000120: b9e2 dc3d 6a6e a8be be6f d0be f7b7 febd
00000130: 433b f7be 36b3 933d 2f17 093e 0906 163e
00000140: 1493 c0be f4d1 903e ce4b ae3e 512e bfbe
00000150: c4be 0d3e 4087 a03e d8ce 94be 7cf7 4dbe
00000160: fd82 6f3d 4fea debe 13c0 ccbe 55a1 c73e
00000170: 9b55 49be 430f 8f3e 4a0f ce3e 0cb0 acbd
00000180: 7781 3bbd 7e78 053e 8843 b53e 1792 0cbf
-0.38757357 0.33681998 0.31632262 -0.03527796 -0.288341 0.23988555 0.05999895 0.05029979
-0.5297224 0.45270935 0.006255499 0.32478368 0.47977725 0.493708 0.0030751603 0.34153488
0.09240992 0.1649167 0.35834643 0.27516127 0.12425296 0.3962744 0.05080898 0.19176021
-0.24164784 0.14652328 0.480161 -0.30456325 0.41051817 -0.3314165 -0.4641061 -0.22629787
-0.10517855 0.23718162 -0.25184956 -0.39769205 0.26081038 0.08123108 0.0069052842 0.35195562
0.17546712 -0.2541095 0.06607718 0.17165844 -0.061209857 0.38096753 -0.06708578 0.004025665
-0.50549185 -0.09528784 0.39965007 0.019557042 0.23939 0.41160107 0.3857964 -0.20346029
0.18310691 0.18873647 -0.3129512 0.0032714352 0.5216367 0.3473088 0.5276251 0.40542355
0.07093643 0.26023784 -0.4733536 -0.41161585 0.17546485 0.47788003 0.049982958 -0.34038025
0.107854314 -0.3289674 -0.40710253 -0.12437432 -0.482874 0.07211916 0.1338775 0.1465074
-0.37612212 0.28285182 0.3404221 -0.37340024 0.13842303 0.31353188 -0.2906406 -0.20113939
0.05847453 -0.43538138 -0.3999029 0.38990274 -0.19661562 0.2794133 0.4024604 -0.08432016
-0.045777764 0.13034245 0.35403085 -0.54910415

bias f4 [10]
00000000: f606 e53b 2171 bc3b 5bd5 ddbb ec39 c13b
00000010: de78 00bc c6b6 cfbb 6a0d 87bb 0e05 ca3b
00000020: 3d97 baba f8b9 c7bb
0.006989355 0.0057507907 -0.0067698187 0.0058967974 -0.007841317 -0.006338927 -0.004121472 0.0061651533
-0.0014235746 -0.0060951672

weight f4 [2048, 10]
00000000: d030 5235 3ade fbb8 793d 2db9 2656 0737
00000010: 90d6 0bb7 e835 bfb8 a115 bcb9 34a8 ddb7
00000020: 0cae b737 32c3 da39 9433 15b9 fc44 ce38
00000030: e92c f8b7 3e75 d237 a0bb 0439 a2a7 a3b9
00000040: 7fe8 2a39 37ea c1b8 14d5 39b6 8ccb 0f39
00000050: ae57 b737 0182 9337 91db 0039 bc13 4236
00000060: b404 df39 673c d4b9 9c86 cc39 d55a 02b8
00000070: 06fd bcb8 ba08 b5b8 4331 1d39 ecc7 c139
00000080: 2356 a0b8 6654 6736 d451 76b7 ad6d 13b8
00000090: 1762 1db8 a2d0 1638 baa6 8eb9 2eac 26b9
000000a0: e1f1 a73c 05f8 803b a94f 9a3c 772e 5abd
000000b0: 4467 b5bc bfe6 91bc e9fa ddbc a67f a53c
000000c0: 2a4e 25bd 5359 2dbd 1df0 7738 864c e0b8
000000d0: 7ada 5db8 056f cab9 2f9f f537 22d2 55b8
000000e0: 3196 6235 02aa db35 e0a5 53b9 e036 9436
000000f0: 17af 09bd 7553 82bc 7e63 ae3c 26a7 16bb
00000100: 97b4 663d cc32 323d 2dc6 53bc d77e bd3c
00000110: 93ba 263d dd88 4ebc 428c 1f3d 8f9b 553d
00000120: d98c 203d de86 0bbd 5cba 37bd e898 2dbd
00000130: a652 4ebc 0576 7bbc 2eb6 a93c 5ccf 203c
00000140: 355c 2a3d b7bb 51bc 35bd 9f3c 2d4e 09bd
00000150: da88 f13c 0944 903b 5f26 443d fd96 ddbc
00000160: 68e9 ddbc 741f bebc e432 083d be21 b4bc
00000170: d8fb acbc 45dd 26bd f6c8 e83c 90b9 fbbc
00000180: 4505 c33c 7fd4 51bd 5da5 1bbb cb2d 043d
00000190: 0b13 51bc 51d0 2dbd 618e 45bb 7a6b 09bd
000001a0: e834 5b3c 63e7 5dbd f2f5 2dbd 81b9 c1bc
000001b0: 79d0 27bd d673 bd3c efbb 26bd 6e02 c43c
000001c0: e680 653d cedb aebc 7fff eabc d471 603d
000001d0: 3c81 dfbc e0ee 91bc 8966 72bd ddbc d4bc
000001e0: da24 df36 4234 2fb9 4fd0 3b38 72fb ed37
000001f0: a4a4 9336 e51d af39 d5d4 24b8 f89b aab6
00000200: 3cb5 0eb8 7750 9bb9 c100 e538 a333 beb8
00000210: 2539 dfb9 4ad0 0c39 ce1b fa38 255e 2eb9
00000220: fa59 8b37 41d2 d739 d048 c938 34d5 0b38
00000230: b75c dd39 4a69 93b8 00cf 02b9 c07a cf38
00000240: 5273 8e39 42a3 9836 3b20 c4b9 bbe2 7e38
00000250: bbe0 ccb7 85b0 1439 c7a3 ca3c 3d99 fd3c
00000260: 4c4e 463d e59b 463d 1fff 4f3d c800 d43a
00000270: 1781 3a3c 7635 d8bc c84f 313d f718 923c
00000280: b63d 13bd a0a0 1b3d c214 473d 8f90 c03c
00000290: 8e8d 053d 17e7 223d 5c0a 48bd 2c20 1bbc
000002a0: a804 803c 5910 fabc 6ccd 7938 484b d0b8
000002b0: 8dd1 b8b9 364e b437 e2a0 d039 8582 25b7
000002c0: 46c3 3eb8 50b6 1e37 b3b3 2238 e15d bdb9
000002d0: 1b4b 1439 631c 1fb8 73b7 66b8 748e 27b8
000002e0: decb 85b8 8343 ad37 0b46 c5b7 f575 a0b8
000002f0: a3ee 30b9 9187 6f39 afc2 ed3b b14f 0d3d
00000300: 57dd 993c c2fc ebbc 0411 24bd d21b 103d
00000310: 8bf5 6bbd 539a 06bd adf1 c6bc 3a66 d33c
00000320: f760 a734 e3db 18b9 1306 3438 8ddf 9939
00000330: 549d 9eb6 8b9a da39 f157 d6b9 0d71 cbb9
00000340: 5b9e 6ab8 f9f3 12b8 ac53 8db7 7069 9639
00000350: 7e21 d737 2c1f ceb8 a25e 71b8 1e02 6437
00000360: f113 b9b8 cdab 0937 e6c9 5eb9 a0be 7337
00000370: ed29 c838 d2d1 4639 7e3b 5939 76fe 7f38
00000380: 5640 1239 7c41 ce38 bb61 0636 96f1 d239
00000390: df17 6c37 9ef7 a2b9 4116 083c febc 133c
000003a0: 0011 713d 0cfc 81bb 5e05 15bd 9121 ac3b
000003b0: e26e 5a3d 94a7 8fbc 82f3 173d 638d 973c
000003c0: 80b2 f0bc 599c 0e3d 8c40 adbc 1761 01bc
000003d0: 355d e2bc 5c26 563d 5ae5 4fbd 8894 07bd
000003e0: 386a 393d 142a 91bc abb1 6b3c f5e7 c43c
000003f0: b7ae 07bd 9082 e8bc a5a4 f3bb bf97 7e3c
7.830213e-07 -0.000120100056 -0.00016521466 8.066685e-06 -8.335002e-06 -9.1176305e-05 -0.0003587427 -2.6423579e-05
2.1896347e-05 0.00041725632 -0.00014228962 9.835695e-05 -2.9584817e-05 2.5088546e-05 0.00012658397 -0.0003121468
0.00016299075 -9.246583e-05 -2.7691176e-06 0.0001371337 2.1856129e-05 1.7584303e-05 0.00012288826 2.891974e-06
0.0004253738 -0.00040480794 0.00039010204 -3.107901e-05 -9.011668e-05 -8.632378e-05 0.00014991038 0.00036960782
-7.645439e-05 3.4470809e-06 -1.4681795e-05 -3.5149675e-05 -3.752307e-05 3.595709e-05 -0.00027208572 -0.00015895136
0.020501079 0.003935816 0.018836813 -0.05326697 -0.022143967 -0.017810224 -0.027097182 0.02020247
-0.040357746 -0.042321514 5.9113012e-05 -0.00010695406 -5.2893978e-05 -0.00038611158 2.9280402e-05 -5.097886e-05
8.441012e-07 1.636625e-06 -0.00020184321 4.417132e-06 -0.033614244 -0.015908936 0.021287676 -0.0022987812
0.056324568 0.043505475 -0.012925667 0.023131771 0.040705275 -0.012605873 0.03895212 0.052150305
0.039196823 -0.034064166 -0.04485546 -0.04238215 -0.012592947 -0.015347962 0.020716753 0.009815063
0.04159184 -0.012801102 0.0194994 -0.03352182 0.029484201 0.0044026417 0.047888156 -0.027049536
-0.027088836 -0.023208357 0.033251658 -0.021988746 -0.021116182 -0.040738363 0.028416138 -0.030728132
0.023806224 -0.051228043 -0.0023749687 0.032270234 -0.012760888 -0.042434994 -0.003014468 -0.033549763
0.013379313 -0.054175746 -0.04247088 -0.023648025 -0.0409703 0.023126524 -0.04070657 0.02392694
0.05603113 -0.021345045 -0.028686283 0.054796055 -0.027283303 -0.0178141 -0.059179816 -0.025968963
6.650208e-06 -0.00016708768 4.4778277e-05 2.836969e-05 4.400108e-06 0.00033400874 -3.9298862e-05 -5.084552e-06
-3.4024226e-05 -0.00029623855 0.00010919711 -9.069524e-05 -0.0004257645 0.00013429034 0.00011926108 -0.00016629005
1.661199e-05 0.00041164647 9.597989e-05 3.3338743e-05 0.00042221483 -7.029118e-05 -0.0001247488 9.893393e-05
0.0002717027 4.5489587e-06 -0.00037408047 6.076948e-05 -2.4423343e-05 0.00014180139 0.024736298 0.030956859
0.048414513 0.048488516 0.05078041 0.0016174549 0.0113833165 -0.02639268 0.043288976 0.01783417
-0.035947524 0.03799498 0.04860378 0.02350643 0.0326057 0.039771166 -0.048838004 -0.00946812
0.01562722 -0.030525373 5.955754e-05 -9.932235e-05 -0.00035251342 2.1494092e-05 0.0003979272 -9.865155e-06
-4.5481393e-05 9.459982e-06 3.8791168e-05 -0.00036118834 0.00014142359 -3.793499e-05 -5.5007124e-05 -3.9948573e-05
-6.3799074e-05 2.0654645e-05 -2.3516846e-05 -7.651366e-05 -0.00016873567 0.00022843319 0.007255874 0.034499828
0.0187823 -0.028807048 -0.04005529 0.03518278 -0.057607215 -0.03286202 -0.024285162 0.025805581
3.1176725e-07 -0.00014577764 4.2921e-05 0.00029348992 -4.7270823e-06 0.00041695344 -0.00040882782 -0.00038803407
-5.5937428e-05 -3.503633e-05 -1.6847473e-05 0.00028688787 2.5645593e-05 -9.828652e-05 -5.754701e-05 1.3590352e-05
-8.825202e-05 8.205837e-06 -0.00021246783 1.4528312e-05 9.5445524e-05 0.00018960916 0.00020716895 6.1033723e-05
0.00013947612 9.835043e-05 2.0024443e-06 0.00040234317 1.4072254e-05 -0.00031083537 0.008306087 0.009017227
0.058854103 -0.003966814 -0.03638207 0.005253025 0.053328402 -0.017535962 0.03709746 0.018500036
-0.02938199 0.034817073 -0.021148942 -0.007896683 -0.027632335 0.052282676 -0.050755836 -0.033100635
0.045267314 -0.01772026 0.014385621 0.024036387 -0.033125605 -0.02838257 -0.0074353986 0.015539109

bias f4 [2048]
00000000: 2132 91bd 3dad bfbd 49f8 b9bd 5b2c b5bc
00000010: 95f7 8f3e 0e86 14be 8e1e 333e e750 8b3d
00000020: 8031 7e3e 8a92 963d 8755 9c3e 73a0 893e
00000030: bf8c 1bbd d5e6 27bd 4393 5dbd 1eba 8e3e
00000040: dad5 333e 4399 f0bb d9de 40ba 5d07 243e
00000050: 1070 c4bd a49b 37be a4ef deba de4d 2f3e
00000060: e775 e53c b53c 553e a0a0 25bd 0a93 093d
00000070: 9173 b7bd c46f a3bd 7455 aa3d 7c6d 793d
00000080: 2a2f a13e 854c 5bbe 8be2 14bc 145f a33e
00000090: 7c58 b1bc e98b 913e 44ef 4b3d 0ab0 f3bd
000000a0: bfc5 963c 88da d9bd 2ba7 173e 57f4 783d
000000b0: 387b 403e f0e5 b03d 8503 9d3e e7a5 3dbc
000000c0: 5ac8 1f3e 0722 8a3e 4eef ebbd ddb7 f3bd
000000d0: e9f5 1dbd dacf 8d3e 77da 253e d40d 26be
000000e0: eddd 683e 9152 7ebd 2458 1c3d d47a 4ebe
000000f0: 83de 4b3e 1162 093e 5223 ae3c f1e7 45be
00000100: 5560 57bc d101 55be ad3a 9c3d 4223 3fbe
00000110: 6018 47be dc0d 203e eda4 10bd 1ec5 933e
00000120: df03 7bbd 6beb 923e 86ee 57be 052c 813c
00000130: 03a1 333e 1e8e 623d b69f 9f3d d992 02bd
00000140: a6e1 0cbd af5b 4bbe 64e3 40be 0215 133e
00000150: f317 7fbd 3d79 18be 43c9 e03d 1546 4f3e
00000160: 491a 3fbd 11d0 52bc fe05 1e3e 5ab9 24be
00000170: d3f8 b1bc 0a39 89bd caf2 08be da24 01be
00000180: 4cf4 1dbe 3c76 083d 8126 4e3e e0dd 98bd
00000190: 6f5a 673a ae3d 7a3e 9d85 27be 0d7e b0bd
000001a0: 6a4a 16be 13b3 07be 0e28 46be deea 5a3d
000001b0: 2954 4dbe a5d5 c9bc 8cc1 823e 8342 afbc
000001c0: fac7 17bb ff11 16be fcbd a43c 3761 883e
000001d0: 680d 573e 95b5 433e 70f5 bebd 8009 80bc
000001e0: 6938 a6bc 96cf 26be e5a9 9d3e f2ef 65bd
000001f0: 75da 643d f62c 26be 076e 943d 6f48 55be
00000200: ef58 85bd b57f 0c3e b7f9 733c 3c0a 58be
00000210: f558 1f3a 4004 ff3d 7211 14be 5e3a 27bc
00000220: 8ee2 32be 5ada 3a3e d7ae f7bc 2b09 4fbe
00000230: 759e afbb e8dc 623e c2fb e5bd c8a5 9cbb
00000240: 6578 26be 1c76 57be 76f9 a33e 7f89 18ba
00000250: d1fc b3bd b863 c43d 5bb5 6a3e 4cb2 4fbe
00000260: 3cb2 4bbd 0df5 8b3d e62f 3abe d2ca 9bbc
00000270: e009 2a3e 4d65 0a3e e953 37be 099e 3d3e
00000280: de57 6a3e 9c48 7b3e a35a 07bc c552 7b3d
00000290: 1339 9dbd 48b2 14be 6480 163d 6b20 d0bc
000002a0: 5cba 973e 3898 43bd cc2a 80bb d64d 9c3e
000002b0: b928 0abe b284 893e 8535 07bd 836f 503e
000002c0: 3b10 37bd b055 d5bc 5c5c 1abe b0e4 753e
000002d0: 3559 8e3d 9c1d 623e d6f8 963e 4274 c53c
000002e0: b860 993e debf 413e 8780 903d 8c95 5c3e
000002f0: 8055 91bb 80df 1dbb 6fe2 9b3e 7fee c83d
00000300: 5315 4f3e 7eb4 dd3c 216f 743e f140 1bbd
00000310: d8ee 793e c2b9 8fbd 204d 19be 5b70 48bd
00000320: da78 a33d 2b4b 953e e2b1 3e3e 8968 e7bd
00000330: dfcf d7bd 2ba3 97bc 4328 07bd 7a54 9f3d
00000340: 106f 753e b6ad 0dbe 2212 c1bc 128c d53d
00000350: 8ad3 2abe 5ecd 51bd c26b b2bd ccba 593e
00000360: 9044 333e c9b6 c73d c02c 0dbe cddf 613e
00000370: ed11 8dbc 865c 7a3d da9e 4bbd ac9f 243e
00000380: a8e6 13be 8557 553d ca9a b4b6 81b0 d13b
00000390: e503 bcbd d8cc 5fbd 69f9 0c3d a16d 30bd
000003a0: 9f7e cd3d 09b1 3a3e e222 d03d 57f1 9c3d
000003b0: 402a c73d 3757 d1bd 5d38 8b3e d700 8a3e
000003c0: 219a 813e 1b3a 563e 959e 273c 9b9b 603e
000003d0: 8793 973e 48df 06bb c6d6 813d 9198 4ebe
000003e0: db98 10be 9db2 21be 7338 eb3d 792a 763d
000003f0: 5dd6 863e 0a18 12be a1d0 e2bc a397 9fbd
-0.070896395 -0.093592145 -0.0908056 -0.022115877 0.28118578 -0.14504263 0.17492124 0.0680254
0.2482357 0.07352169 0.30534002 0.26880226 -0.037976023 -0.040991623 -0.054095518 0.2787637
0.17562047 -0.007342489 -0.00073574256 0.16018434 -0.09591687 -0.17930466 -0.0017008674 0.17119548
0.028010322 0.20823939 -0.040436387 0.033587493 -0.089575894 -0.07980302 0.0831708 0.060895428
0.31481296 -0.21415909 -0.009087215 0.31908476 -0.021648638 0.28427055 0.04978873 -0.11898811
0.01840484 -0.10637385 0.14809863 0.060779896 0.18797004 0.08637607 0.30666748 -0.011575199
0.15603772 0.26979086 -0.11520253 -0.119003035 -0.038564596 0.2769764 0.16196619 -0.16216213
0.22740908 -0.06209046 0.038169995 -0.20164043 0.199091 0.13416316 0.021257076 -0.1932676
-0.013145526 -0.20801474 0.07628379 -0.18665794 -0.19442892 0.15630287 -0.035313535 0.28861326
-0.06128299 0.28695235 -0.21087083 0.01576806 0.1754189 0.055311315 0.07794134 -0.031878326
-0.034394883 -0.19859193 -0.18836743 0.14363483 -0.0622787 -0.14889999 0.109758876 0.20241578
-0.046655927 -0.01286699 0.15431973 -0.16086331 -0.021725094 -0.067003325 -0.13373867 -0.12611714
-0.15425223 0.033315882 0.20131876 -0.07464194 0.00088254263 0.24437591 -0.16359563 -0.08617792
-0.14676824 -0.13251905 -0.19351217 0.053446643 -0.20051636 -0.024638006 0.2553829 -0.02139402
-0.0023159967 -0.14655302 0.020110123 0.2663667 0.21001208 0.19112237 -0.09324157 -0.01562953
-0.02029057 -0.16290125 0.30793682 -0.056137033 0.0558724 -0.16228089 0.072475486 -0.20828412
-0.06511103 0.13720591 0.01489108 -0.21097654 0.0006078624 0.124519825 -0.1445978 -0.010206787
-0.17469236 0.18247357 -0.030234737 -0.20218341 -0.0053594657 0.22154582 -0.112296596 -0.004780505
-0.16256864 -0.21041149 0.3202626 -0.00058188284 -0.08788455 0.09589332 0.22920744 -0.20282859
-0.049730524 0.06833849 -0.18182334 -0.01901761 0.1660533 0.13515206 -0.17903103 0.18517317
0.22885081 0.24539417 -0.008261356 0.061358232 -0.07676902 -0.14521134 0.036743537 -0.025406083
0.29634368 -0.04775259 -0.003911352 0.30528134 -0.13492097 0.2685905 -0.033010025 0.20355038
-0.044693213 -0.026041836 -0.15074295 0.24013019 0.06950609 0.22081608 0.29486722 0.024103288
0.29956603 0.18920848 0.07055765 0.21541423 -0.004435241 -0.0024089515 0.30446193 0.098111145
0.20222978 0.027063604 0.23870517 -0.03790373 0.24407518 -0.07017852 -0.14970827 -0.048935276
0.07982035 0.2915891 0.18622544 -0.112992354 -0.10537695 -0.018510422 -0.03299738 0.077797845
0.23968148 -0.13835797 -0.023568217 0.10427107 -0.16682258 -0.051221244 -0.087119594 0.21262664
0.17506623 0.097516604 -0.13786602 0.2205803 -0.017220462 0.061123393 -0.04971204 0.16076535
-0.14443457 0.05208542 -5.382438e-06 0.0063992147 -0.0918043 -0.054638714 0.034417544 -0.0430733
0.10033917 0.18231596 0.10162903 0.076632194 0.097248554 -0.10221713 0.2719144 0.26953766
0.25312904 0.20920603 0.01023068 0.21934359 0.29604742 -0.0020579863 0.06339793 -0.20175387
-0.1412081 -0.15790792 0.11485376 0.0600991 0.2633542 -0.14266983 -0.027687373 -0.07792594

weight f4 [10, 2048]
00000000: 405c 40b9 6804 41b9 00a6 09b8 268d 0fb8
00000010: 0197 adbb dbc5 6b38 f777 2bbb 7545 a3bc
00000020: fde0 85bc 7670 e2bc 361c 3d3d 7cdb 593d
00000030: f591 43b9 3b96 24b9 a391 9d39 9f37 e4bb
00000040: 304a 6d3d 87bb 84b6 081c 9db7 9d27 773d
00000050: 1e94 7c38 f70f bb39 c035 0eb8 df28 383c
00000060: f335 15bc b401 463d 8abe 0a39 fb06 a8bb
00000070: 9fdb 49b8 6a54 b5b7 244d f93c 62bf 013c
00000080: 4f22 d9bc 882d a336 b5ff 3639 26dd e53c
00000090: 6ccd 5539 6174 e03c 98d2 e33c 0a5d a937
000000a0: c1b0 8a3b 225a 7fb8 b508 b03c 6889 2d3d
000000b0: 56ba 8c3c 4341 a73c b9f7 1d3d f00a 5b38
000000c0: 09b0 463d 88a2 123d 6c4e e9b8 7b20 5f38
000000d0: 2d3b ecbc 1314 00bd c2a2 db3c 2817 c336
000000e0: f18b e73c 6c3b b2b8 9fdd d93c 931c 3339
000000f0: f0e9 ae3a 4a23 d13c d9f1 f5bb b695 7db8
00000100: 5f21 30b9 1705 0039 3b7a 5a3d 9a6b dfb9
00000110: a468 ac37 f7b8 883c 239b 1e3c 542d aebc
00000120: 1aef 72ba b175 e0ba 59d2 cc36 3769 92bc
00000130: dff5 f13c 3cce 493d f030 623d 7d7a db39
00000140: aa3f c6b9 3702 3139 187b 1d38 8f1b a3b9
00000150: 065b 9b3c e804 f23c d8ce 8fbb 05fe 1a3d
00000160: 7250 8d38 4fa7 173d 4b37 3b3d 5355 a138
00000170: 383e 9fb7 0f37 fb3c 8845 2139 22a7 2238
00000180: c7de 2fb9 ab16 6f3d a76b e93c 2429 34b9
00000190: 884c 21bc cd00 1bbd 62f9 b1b6 4312 3439
000001a0: def8 b936 c58c 95b6 a54e beb8 4543 0f3c
000001b0: 0866 4f39 dda6 1bb8 9706 413a b76b b7bc
000001c0: 722c ce38 d484 9938 f11b 283d a7f3 c1bc
000001d0: 4a13 11bd 311f c7bc fcec 8837 9ff6 04b7
000001e0: 1c17 eebc 3222 7cb8 60f9 a43c 78c8 16bd
000001f0: 63f0 dcbc 6f29 c839 559e 64bc d559 d4b9
00000200: 566d bdb8 2942 28bd d1f0 ad3a a324 ac39
00000210: 5920 8e3a d86d 263d a615 5d36 ce49 6b3d
00000220: 68b6 f9b5 e0ab e83c e886 3039 52db 21b8
00000230: 64f2 9938 419c 603d a296 81b7 dcc7 6cba
00000240: 86ca cab7 9e6c ad38 7cab 3f3d 5637 1f3d
00000250: a5da 3639 7166 1d3d 36c9 683d 3a9a 7fb8
00000260: 0003 b0b9 dad6 22bd 84d1 ce38 fb15 bfbc
00000270: 6a5c 03bd 32d6 50bc 9392 97b7 7f15 24bd
00000280: da42 34bd 7bf3 923a 80a3 2ab8 7215 373d
00000290: bcac cf36 76ed 8bb7 86c3 ff3b 3e81 213d
000002a0: a617 3fbd f9dd d33b 4eab 883a 1135 1c3c
000002b0: 8981 d439 c429 183d 34f1 b2b9 4bed 3bbd
000002c0: c321 81b7 5f78 8038 1e62 cab9 595b 1f3d
000002d0: e646 f4bc 8622 283c 9f44 21bd e738 4b3d
000002e0: c38f d0bc e68c 033b 8777 fcbc fc5b 89ba
000002f0: 2136 9cb9 dfd2 083d 7834 cb3c 5cec fd3b
00000300: ea0a 27bd 1642 27bd 917e 31bd fab1 453b
00000310: 74f6 173d b1a9 ef38 76a9 06b9 e1dd 1f3d
00000320: 7d90 593c 3474 113d 1001 07bd 86fd 4f39
00000330: 343c 4cb9 a2b6 02bd 3ad1 9e3b 5cbe e23c
00000340: bbe5 383c a9e5 7339 1d64 2639 4793 293d
00000350: d041 4136 9b5f d1bb e36a c5b7 992a 193c
00000360: dd60 b03a b475 053d c892 b438 1eb3 653c
00000370: 3599 0e3c 9bd1 413d 8ac3 d237 7055 03bd
00000380: 62b1 3639 205f 913b 8dcc fdbb 3ad2 1dbd
00000390: 3403 e4b5 de76 b439 da00 693d 2e39 8cb6
000003a0: 4f0b 063d 4dc0 40bd 2de2 2f3d 3a2f 613d
000003b0: 8874 313d 9d8a db39 df2d 4b3c a62b 34bd
000003c0: c0b3 04bd 00cc 36bd 84dc 663d 94bf 503d
000003d0: d155 c33c 99cd 9aba a4ae 753c 8aee 3639
000003e0: 1aac c7bc 2166 a7b6 b310 5d3d 6144 1abd
000003f0: 506c 9abc 8659 08b8 fadd ce39 5318 053d
-0.00018344913 -0.00018407556 -3.2817945e-05 -3.422531e-05 -0.005297542 5.6212633e-05 -0.0026164034 -0.01993058
-0.016342634 -0.027641516 0.046169482 0.053187832 -0.00018651022 -0.00015696224 0.0003005388 -0.0069646384
0.05793208 -3.9557376e-06 -1.8728912e-05 0.060340513 6.0219427e-05 0.00035679314 -3.3905497e-05 0.011240213
-0.009107101 0.048341468 0.00013231687 -0.0051277853 -4.8126672e-05 -2.161619e-05 0.030432291 0.007919164
-0.026505617 4.863079e-06 0.00017452131 0.028059553 0.00020389789 0.027399244 0.02781038 2.0189695e-05
0.0042324965 -6.088068e-05 0.021488527 0.04236737 0.017178696 0.020416861 0.038566325 5.2223855e-05
0.048507724 0.035799533 -0.00011124913 5.3197593e-05 -0.028836811 -0.031269144 0.026811007 5.8141486e-06
0.028264971 -8.4987696e-05 0.026594935 0.00017081415 0.0013344865 0.025529522 -0.007505637 -6.045933e-05
-0.000167971 0.00012208927 0.053339224 -0.00042614044 2.0552725e-05 0.01668976 0.009680542 -0.021261849
-0.00092671963 -0.0017124919 6.1041615e-06 -0.017872436 0.029536186 0.049268946 0.05522245 0.00041862196
-0.00037812936 0.0001688086 3.7546357e-05 -0.00031110315 0.018964302 0.029543355 -0.0043886714 0.03783991
6.738388e-05 0.037024792 0.04570703 7.692971e-05 -1.898325e-05 0.030665902 0.00015380059 3.8779464e-05
-0.00016772292 0.058371227 0.028493715 -0.00017181464 -0.009844907 -0.03784256 -5.304043e-06 0.0001717294
5.5424016e-06 -4.4569338e-06 -9.074555e-05 0.008744066 0.00019779068 -3.7110283e-05 0.00073633477 -0.02239023
9.831124e-05 7.32035e-05 0.041042272 -0.023675753 -0.035418786 -0.024306865 1.6322818e-05 -7.925234e-06
-0.029063754 -6.011333e-05 0.020138443 -0.036812276 -0.026970094 0.00038177843 -0.013953765 -0.0004050272
-9.032588e-05 -0.04107872 0.0013270621 0.00032833693 0.0010843381 0.0406321 3.2944167e-06 0.057443433
-1.8605033e-06 0.028402269 0.00016834924 -3.858965e-05 7.340757e-05 0.054836515 -1.5448142e-05 -0.0009032467
-2.4174584e-05 8.2695144e-05 0.0467944 0.03887113 0.00017438324 0.038427774 0.056832515 -6.0940372e-05
-0.0003357157 -0.03975568 9.861871e-05 -0.02332591 -0.032070555 -0.012746381 -1.8068857e-05 -0.040059563
-0.044009067 0.0011211479 -4.068343e-05 0.044698186 6.1891897e-06 -1.6680668e-05 0.0078052906 0.039429896
-0.046653412 0.00646567 0.0010427029 0.009534136 0.00040532302 0.037149206 -0.00034130516 -0.045880597
-1.539372e-05 6.1259365e-05 -0.00038601545 0.038905475 -0.029818963 0.010262137 -0.039372083 0.049614813
-0.025459176 0.0020072996 -0.030818714 -0.0010479684 -0.00029794968 0.033404227 0.024805292 0.0077491235
-0.040781893 -0.04083451 -0.043333594 0.0030165897 0.03710027 0.000114280156 -0.00012842365 0.03902996
0.013279078 0.03551121 -0.032959998 0.00019835503 -0.00019477383 -0.031912453 0.004846719 0.027678661
0.011285241 0.00023259841 0.00015868289 0.04140022 2.879755e-06 -0.006389571 -2.3534003e-05 0.009348535
0.0013456602 0.032582954 8.610409e-05 0.014019756 0.00870352 0.047319036 2.5125006e-05 -0.0320639
0.00017422953 0.0044363886 -0.0077453316 -0.038530566 -1.6988256e-06 0.00034420838 0.056885578 -4.1789817e-06
0.03272563 -0.047058392 0.042940307 0.05497668 0.043324023 0.0004187421 0.012401073 -0.04398694
-0.032397985 -0.044628143 0.056362644 0.050963953 0.023844631 -0.001181054 0.014995251 0.00017445735
-0.024374057 -4.988877e-06 0.053971004 -0.037662867 -0.018850476 -3.2508302e-05 0.00039456767 0.0324939

bias f4 [10]
00000000: 7567 5ebc d4b0 15bc 6477 abbc b615 95bb
00000010: 690c 1bbc 0dcc c9bc 26c1 7fbc 5d69 aeba
00000020: ad0b a63c 94d4 0b3c
-0.013574471 -0.009136397 -0.020930953 -0.0045497073 -0.009463408 -0.024633432 -0.015610015 -0.0013306547
0.02026924 0.008534569

weight f4 [10]
00000000: 7cb6 803f cdbd 7f3f 8c85 7f3f 32e8 7e3f
00000010: c436 803f d464 803f 1618 7e3f b931 7f3f
00000020: 7529 7d3f 6271 813f
1.005569 0.9989899 0.9981315 0.9957305 1.0016713 1.003077 0.992555 0.99685246
0.98891383 1.0112727

bias f4 [10]
00000000: fd8e e83b f1e4 c13b 0463 d9bb 98f0 bb3b
00000010: 6a77 f4bb 0d89 d7bb 52fb 88bb bfdd c83b
00000020: 0c64 ecba e078 c9bb
0.0070971237 0.0059171845 -0.006634118 0.005735468 -0.0074605243 -0.006577617 -0.0041803503 0.00612995
-0.0018035187 -0.0061484426

weight f4 [10]
00000000: 5c49 813f 2b9d 803f a0ae 803f 0a1b 7e3f
00000010: d72a 803f 4ff2 7f3f 27e4 7d3f 0a93 7e3f
00000020: 64dc 7e3f 8369 803f
1.0100513 1.0047964 1.0053291 0.9926001 1.0013074 0.9997911 0.9917626 0.99443114
0.9955504 1.00322

bias f4 [10]
00000000: 0383 273c 328c e43b 2d4d cebb 067f 3c3b
00000010: ad5d 89bb 6180 f5bb 9cce 993a 3f5d 5f3b
00000020: ddb4 3639 aa30 08bc
0.010224107 0.0069747204 -0.006295821 0.0028762235 -0.004192075 -0.0074921106 0.0011734548 0.0034082679
0.0001742425 -0.008312384

in_proj_weight f4 [30, 10]
00000000: d12e 193e 6c77 30be 81eb 40be 0b69 4b3d
00000010: 9396 81be 8260 913e 7f88 81be 9bb7 67be
00000020: ba3b 7d3e 877c c53e e05f ba3e 4db2 63be
00000030: dc91 1e3e d847 4cbe 454f a73e b7f3 bebe
00000040: f0e9 9f3d c6ac 75bd b424 973e e347 10be
00000050: b96c ac3e 31e2 333e 9681 1ebe 2c4a b63d
00000060: f2bc c7be 3148 febd f6be bbbe 146b f53d
00000070: 479f b9be a367 9d3b 3bcf 56be 9c5b 533d
00000080: 383c aebe 0fc2 1abe 5e4a 9fbe 8b26 b3be
00000090: 2ab2 30bd 0576 c0bd 1833 8bbe ddb6 3dbe
000000a0: 490b 283e 5eda cdbd ad8c 163e dc9a b7bd
000000b0: ddd2 f2bd 486b 9abe e327 2c3c e0be b03d
000000c0: 8e72 8c3c 822c 2f3e 6c6d 083d 23d3 3fbd
000000d0: ffc5 183e 4484 34be b70d 40be fe00 88bd
000000e0: 21ee 92be 65f9 5a3e a582 bcbe 8e7b 05be
000000f0: 3e99 e6bd 191d 2bbe 292b 8cbe 0075 bbbe
00000100: 770c 2bbd 725e 863e ea3f 9e3e 9fbe bf3e
00000110: 50a3 b43e 6b93 b5bd 4172 6bbe 54fc a9be
00000120: fdaa aabe 0f5d 64bb 4a4c 913e 49c0 11be
00000130: e56f 3c3c 98df d83d 5184 b9be 7400 b5be
00000140: 50e3 0ebe a4f6 d83a 70ca 503e 19a5 42be
00000150: 76d9 7a3e 7825 dcbd dbef 1ebe c4b9 453e
00000160: 4f8c b8be 0c68 dabd 72a0 fbbd bf9f 5d3e
00000170: 9116 8e3e bd6f 623d 708d b7be b665 6a3e
00000180: 27ee 47be 2080 613d b5c7 a03e 02aa 82be
00000190: af27 c63e 31bd 833e f3fa 14be 61f8 23bc
000001a0: d345 74be e7fe b6be 2e50 c53e 43b3 c2be
000001b0: 7885 803e da90 10be 89e8 babe aacd b63e
000001c0: c0b2 a43e eb67 1f3e 079b f8bd 57b1 a03e
000001d0: 68b4 a1be 6892 bbbe 408f 253d 646e a9be
000001e0: 674b 0e3e 819f 163e 3a27 023e 01d0 81be
000001f0: 105c bb3e 19b3 f43d 6745 3b3e 9c5f 933e
00000200: 3c57 59be 22e6 8bbd 82ea 663e e03e 9a3e
00000210: dd05 b8be cf28 8ebe 8f82 4cbe eed7 e3bc
00000220: 7351 6c3e c0d1 6e3e 8627 263d 1445 00be
00000230: f46b 633c 3864 613e 0d6e 503e c568 98be
00000240: 78fd 4fbe 051a c4be e986 b6be 26c2 7ebe
00000250: 02c5 ad3e afe8 9d3e 7c09 9cbe e2c7 183e
00000260: 15ce 56be e54b 343e af5a afbc 63f4 673d
00000270: 642d 583e 127a a43e a567 b83e f0ee b9be
00000280: 62ef 2abe b156 35be 2147 ba3e 0ccb a9bd
00000290: caab bcbe 59aa 02be aafb 943d 9b73 aebd
000002a0: adad 7e3e 9d20 5d3e 16da 3c3e dd58 3cbd
000002b0: 0959 b4be 4968 bebe e799 08be e138 41bc
000002c0: 6e0f ebbb 7f21 7d3e b7b9 01be 3488 963e
000002d0: 5f5b 93be f350 493c 458a 803d d9ba 603d
000002e0: cee5 a83e 28e0 883d d7aa 4a3d 0e22 7cbe
000002f0: c78d 92be ea54 1ebe 0842 353e 688e 8c3e
00000300: 12be 533e b46c bd3e 6a37 28be 59f8 2abe
00000310: 8a99 3f3d 767e 98be 5269 13be 1d1f 7d3e
00000320: 8e16 533e 000a 9dbe fa23 a5be 52b1 06be
00000330: d3b1 09bd 0e53 96be c668 b0be aba7 883e
00000340: 7ee0 da3d b54e b4be 51b1 13be bc50 adbd
00000350: 8de1 eebd 1b14 5c3e 4cd6 96be 3d20 96be
00000360: 3850 b3be 76d0 85be d938 8f3d 33c6 433e
00000370: bbf1 96be 05e4 833b 6526 d2bd 4b27 fdbc
00000380: c4b9 3ebc b5e1 7b3e 6413 a1bd 6531 45be
00000390: d0b9 fd3d 712c 46bd 434b 4c3e f983 b9bd
000003a0: a7af a7be 2f1f f33d a62c af3e 1467 763d
000003b0: 781f 3f3e 0ff9 353e 584d 9dbe aca9 b8bb
000003c0: 9752 233e f078 a23d dc0a a83e 6f7e 59bd
000003d0: 1b62 bfbe 526f 6fbe d950 20be a99b 82be
000003e0: 9dc1 523e 799a 14be d9a6 a8be 8e8a 7b3d
000003f0: f125 13bc 2732 063e 5372 b03d 77fa 63be
0.14959265 -0.17233056 -0.18839838 0.049660724 -0.25310192 0.28393942 -0.2529945 -0.22628634
0.24729815 0.3857157 0.36401272 -0.22235985 0.15485328 -0.19949281 0.32677665 -0.37295315
0.07808292 -0.059979223 0.2952019 -0.14089923 0.336767 0.17566754 -0.1547912 0.08900866
-0.3901134 -0.12416113 -0.3666913 0.11983314 -0.3625433 0.004803614 -0.2097749 0.051601037
-0.34030318 -0.1511309 -0.31111425 -0.34990343 -0.04313866 -0.093975104 -0.2718742 -0.18526788
0.16410555 -0.10051416 0.14702101 -0.08965084 -0.11856625 -0.30159974 0.010507557 0.086301565
0.017144468 0.17106822 0.033307478 -0.046832215 0.1491928 -0.1762858 -0.18755232 -0.06640814
-0.28697303 0.21384199 -0.36818424 -0.13035414 -0.112596974 -0.16710319 -0.2737668 -0.366127
-0.041759934 0.2624393 0.30908138 0.3745012 0.35280848 -0.08866008 -0.22992803 -0.33200324
-0.3333358 -0.0034845506 0.28378516 -0.14233507 0.011501287 0.10589522 -0.36233762 -0.35351908
-0.139539 0.0016552997 0.20389724 -0.19008292 0.24497017 -0.10749334 -0.15521185 0.19309145
-0.36044547 -0.106643766 -0.12286462 0.2164297 0.27751592 0.055282343 -0.35850096 0.22890362
-0.19524442 0.05505383 0.31402364 -0.2552033 0.3870215 0.2573028 -0.14548855 -0.010007949
-0.23854761 -0.3574135 0.38537735 -0.3802739 0.2510183 -0.14117756 -0.36505535 0.35703784
0.32167625 0.15566985 -0.12138944 0.313853 -0.31582952 -0.36635137 0.040419817 -0.33092034
0.13895951 0.14709283 0.12710276 -0.25354007 0.36593676 0.11948223 0.18288194 0.28783882
-0.21224684 -0.06831004 0.22550395 0.30126095 -0.35941973 -0.2776551 -0.19971679 -0.027812924
0.23077945 0.23322201 0.040565036 -0.12526351 0.0138807185 0.22010887 0.20354481 -0.29767433
-0.20311534 -0.383011 -0.35649803 -0.24878749 0.33939368 0.30841586 -0.30475986 0.14919999
-0.20977052 0.17607076 -0.021405546 0.05662955 0.21111065 0.32124382 0.36016575 -0.36315107
-0.1669288 -0.17708851 0.36382392 -0.08290681 -0.36849815 -0.12760295 0.072745636 -0.08518144
0.2487094 0.21594472 0.18442568 -0.045983184 -0.35224178 -0.37188938 -0.13339959 -0.011793346
-0.00717347 0.24719809 -0.12668501 0.2940079 -0.28780648 0.012287366 0.06276373 0.05486569
0.32987827 0.066833794 0.04947933 -0.24622366 -0.28623793 -0.1546208 0.1770097 0.27452397
0.20677975 0.36996996 -0.16427389 -0.166963 0.046777286 -0.29783982 -0.14395645 0.247189
0.20614073 -0.30671692 -0.3225401 -0.1315358 -0.033616852 -0.2936024 -0.34454936 0.2669042
0.1068735 -0.352163 -0.1442311 -0.084626645 -0.11664114 0.21492045 -0.2946037 -0.2932147
-0.3502214 -0.26135606 0.06993265 0.19118576 -0.294813 0.004024985 -0.102612294 -0.030902525
-0.01164097 0.24597819 -0.078650266 -0.19257124 0.123889565 -0.048382226 0.19950585 -0.09058375
-0.327512 0.11871182 0.34213752 0.060156897 0.18664348 0.1777079 -0.3072307 -0.005635461
0.15949474 0.07933223 0.32820785 -0.053099092 -0.37379536 -0.23382309 -0.15655841 -0.25509384
0.2058167 -0.14512052 -0.32939795 0.061411433 -0.008981214 0.13105069 0.086155556 -0.22263514

in_proj_bias f4 [30]
00000000: 1323 193c 2195 c5bb ab41 bb3b e77d b13b
00000010: b8bd b7bb 69aa 603b fb2d a4bb 3850 403a
00000020: ab9f 0cbb 91e8 1bbb 4e43 c838 4dc4 ce37
00000030: 37f1 a1bb c825 0bbb 0a0b abb9 358c bb3a
00000040: 4d36 76ba 88d8 6eba 1277 e9ba 1ef4 ae3a
00000050: 6c71 9b3b 73da a13b ddb5 cfbb 864f b43b
00000060: 6e82 e63b d4b0 b6bb 086b f13a dc88 253b
00000070: 4478 2a3b 9ab4 1c3a
0.009346741 -0.0060297404 0.0057146153 0.00541662 -0.005607333 0.003428126 -0.005010364 0.0007336172
-0.0021457474 -0.0023789743 9.54928e-05 2.4648523e-05 -0.004942085 -0.0021232236 -0.00032623886 0.0014308753
-0.0009392247 -0.0009111245 -0.0017811975 0.0013347899 0.0047437456 0.0049393713 -0.0063388185 0.005502644
0.0070345914 -0.005575279 0.0018418739 0.0025258576 0.0026011625 0.00059778395

weight f4 [10, 10]
00000000: 550a 7c3d d030 3bbe 0698 f93e ebde a9be
00000010: 0bd4 bd3d e92b 003f bbaf 2bbe 4f22 cebe
00000020: 102f bd3e 9f0f 3d3e 1187 af3e 6e73 5b3e
00000030: 900c b6be 6723 cc3e 8394 983d e7b3 06bf
00000040: b47f 87bd 3277 28be 9805 38be 1ced 233e
00000050: 2a74 5b3e 3a21 083f 6321 e3be 4e15 d73d
00000060: 1cf8 d23e 021f 593e 5476 c5be e58b f4bd
00000070: 3d24 7abe 3020 a53e 1d85 46be 6779 053e
00000080: d2f0 cb3e d002 fb3e 03b1 f13e 17dd 8cbe
00000090: a0c9 b73e 9076 e43e 19cb eb3e a150 86be
000000a0: 1a09 0cbf 631f cebe 57f6 d6bd 3f66 96be
000000b0: e074 afbe 0e51 50bd 8e61 403d 2d57 e8be
000000c0: 5957 d93e 5a12 cebe 0743 913d ccd4 78bd
000000d0: a5e5 093d c8b0 09be a537 a8be f7ce 34bd
000000e0: d6e9 913c 6af7 603d 86e6 b7be e0bc aebe
000000f0: 9833 b73e 6d95 083e 77c9 b1be b358 13be
00000100: 9534 b53e 2979 11bd e4c6 a6bc a71d 4c3e
00000110: 83df c2be 4b81 e6be 8c78 ea3e 3b60 e6bd
00000120: d0f8 61be 7f72 973e 2122 ebbe 2001 1f3d
00000130: c7a8 fd3e 67cb c83e 273a ac3e 8f1e af3e
00000140: 5b04 10be c2a8 80be d72b 8dbe 99e9 9a3e
00000150: b9d1 fc3d 0760 51be 9052 353e 1de7 563e
00000160: 68e8 2b3e ec1c 003f 45a8 903e 549d fc3d
00000170: 584d c53e dacf 1fbe de3d d93e 1e0b 9fbe
00000180: c23d 033e d287 9bbd db2e c6bd ec12 ee3e
0.06153329 -0.18280339 0.48748797 -0.33177885 0.092689596 0.50067 -0.16766255 -0.4026055
0.36949968 0.1846299 0.34282735 0.21430752 -0.3555646 0.3987076 0.07450201 -0.5261826
-0.06616154 -0.1645172 -0.17970884 0.16008419 0.21431032 0.531757 -0.4436141 0.105021104
0.41204917 0.21203235 -0.3856684 -0.11940745 -0.24427886 0.3225112 -0.19386716 0.13034593
0.3983217 0.49025583 0.47205362 -0.27512428 0.35896015 0.44621706 0.4605339 -0.2623339
-0.5470139 -0.4025832 -0.10496204 -0.29374883 -0.34268856 -0.05085855 0.046968035 -0.4537901
0.42449453 -0.40248376 0.070928626 -0.060749814 0.03366627 -0.13446343 -0.32854953 -0.04414269
0.017811697 0.054923452 -0.35918063 -0.34128475 0.3578155 0.13338251 -0.34724018 -0.14389305
0.3539168 -0.035515938 -0.02035851 0.19933186 -0.3806115 -0.45020518 0.45795095 -0.11248823
-0.2206757 0.2957954 -0.45924476 0.038819432 0.4954283 0.39217684 0.33638117 0.34203002
-0.14064161 -0.25128752 -0.2757251 0.30256346 0.12344689 -0.20446788 0.17707276 0.209866
0.16787875 0.5004413 0.2825338 0.123346955 0.3853557 -0.15606633 0.42430013 -0.3106317
0.12816527 -0.07594265 -0.09676906 0.4649881

bias f4 [10]
00000000: 8587 edba 2335 eb3b 3dcb fbbb 58e7 923b
00000010: 0b22 45bb 22cc ebbb e119 0f3b 63b6 8fba
00000020: d474 fc3a 0b00 12bc
-0.0018122053 0.0071779652 -0.00768414 0.0044831447 -0.0030080106 -0.0071959654 0.0021835493 -0.001096439
0.0019260892 -0.008911143

weight f4 [2048, 10]
00000000: 9e5f d93c a1cf d53c 2376 a7bc 145b 013d
00000010: bde2 7bbc 598f 4ebc a3a6 033d 2883 40bc
00000020: ee01 ffbc db98 173d 682e 6d3a 32f4 0cbb
00000030: 0d38 fdbb 9896 3d3d 82d5 22bd 0cb4 30bd
00000040: f19c 64ba 754d fdbb 03bb 0d3d a544 403c
00000050: 5c9a 9b36 121e ad37 0920 8db9 a649 22b8
00000060: d9fa f6b8 2144 dab7 a552 9f37 0879 e937
00000070: 9c61 dfb9 4cc5 2d37 d659 453d 749e cc3c
00000080: fc53 3dbc 9740 4dba 181a 27bd f463 89bc
00000090: b084 e53c b9eb b23c 0309 5f3d 52e8 55bc
000000a0: bcb6 973a d397 92bc 0ca1 003d b8ca c63c
000000b0: f9b7 26bd 8cf7 a53c c387 483d 3758 3abd
000000c0: 94fd a63c 92e4 a63c e677 ccb8 26eb c0b7
000000d0: b865 afb8 f088 c0b5 856b 7eb7 93aa 34b8
000000e0: 86eb 11b8 3e65 f238 203f 5bb8 3d18 9ab8
000000f0: 6f78 4abd a4a1 473c 8ef5 2fbd fa70 f2bc
00000100: 0048 d73c a962 3fbd 711b 953b f2ee fa3c
00000110: 5d42 0cbb 9766 3dbc 2279 4bbd 7572 953c
00000120: a371 603c ccac 713d a689 3d3c 0938 5abd
00000130: d6fc a3bc f59b 1a3c eb81 f13b ca31 68bc
00000140: 515b 303d 4376 313d 03a8 a13c e944 fd3b
00000150: 213b 4dbd 175f 20bd 0226 3d3d 4771 15bd
00000160: 46b5 1dbb 0e6e 323d 23ed 0aba b637 1bbd
00000170: 9a0e 29bd b4ef 2e3d ce78 323d 7ce6 c4bc
00000180: dd43 253d ee74 303d 4dbe e23c a655 c83c
00000190: be7c 15bd ad7d 1fbd 658b 373d e63c efbc
000001a0: 2938 163c 6267 b3bb 07c3 c1bc 905b b8bc
000001b0: f321 1cbd 29da b23c 0940 bcbc e629 293c
000001c0: 77a6 ed3b c007 f43c db86 693d a363 10bc
000001d0: efd8 513d 3701 ac3c 17a0 683c a780 003a
000001e0: 571c dab9 816c 0d38 8bc6 acb7 6365 52b8
000001f0: 35cc 82b8 3c79 0137 215b d439 4a80 c0b7
00000200: c23d 32b9 bdce 4d38 f555 58b8 0c2b 8db8
00000210: 5d9f b5b9 3eae 1139 208e 91b9 620b 87b9
00000220: d898 a137 ee9d c437 c8cb d738 2411 fab7
00000230: 6a99 41bc 2418 1abd e8d9 16bd 7208 cc3c
00000240: 045e bcbc 87cb 423d a975 473c ba03 2fbd
00000250: 4af8 9d3c 51fe 1fbc 5e91 b43c c6e1 4c3c
00000260: 1100 bfbc cde0 13bd 01d3 9a3c a429 783c
00000270: c176 0bbc d4ed 16bd e876 8f3c f041 5f3c
00000280: 4ada 51bb d262 d5bc 3f4c ca3c 014d ad3a
00000290: e4d0 9c3c 7f11 c23c 7d82 0abd 20ef 08bd
000002a0: 5077 11bd 4feb 0d3d 5d20 23bc 9b58 aa3c
000002b0: 614a 47bd 1cee ea3c 5fa4 003d 5b5c d73c
000002c0: d0f9 2a3d 8d38 42bc 586f 2ebd b168 1b3d
000002d0: a172 b9bc 3541 283d 78f2 823c bdfb 3c3d
000002e0: b4d0 cdbc f876 d73c 126f 6bbd b6b1 ccbc
000002f0: 8c18 4b3c a74f 45bd 8bcd 093d b7e0 51bd
00000300: 3b32 8b3c 7f62 f7bc 9ac6 17bd 472b d33b
00000310: de57 2cbb dfb4 8dbb 9e39 773c 38e4 35bd
00000320: 80a7 dd39 0623 a3b8 939c 6cb8 5011 2839
00000330: af54 ceb9 2e42 1936 0e97 1a38 14f4 3638
00000340: df1d 3eb9 b9e6 b139 1499 3e37 6a7b 96b6
00000350: 4691 8cb8 b5b7 d239 3777 8db8 1034 4835
00000360: 4e11 dfb9 a011 21b8 6eb9 d838 8a3d 1638
00000370: 09d1 0e3d 2580 2a3d 46cb a5bc 1175 1abc
00000380: aed6 94bc 3ed7 9aba 18c3 81bc 214b 1ebd
00000390: bf1f 9e3c 32c1 db3c 6585 d53c ef36 4a3d
000003a0: 2d7e 2f3d 01af 5ebc 66ca 313d 45e6 493d
000003b0: 271e 04bc 838c aabc 66bd 813c bf3c 423d
000003c0: 83c8 3d3c ab87 303d 13f7 2abd 181b 18bd
000003d0: 1329 103d 38a6 42bd a167 aebc ccbf 7fbc
000003e0: ee34 7f3c 73ae 9a3b 672b 86bc ac3c d23c
000003f0: 1dd1 d0bb 5f4f 363d c8a7 023d eecc d03c
0.026534852 0.026099982 -0.020442074 0.031581 -0.015373883 -0.012607419 0.03214134 -0.01175002
-0.03112885 0.03701101 0.00090477476 -0.0021507856 -0.007727629 0.046286196 -0.0397544 -0.043140456
-0.0008720896 -0.007730181 0.034602176 0.011735116 4.6373298e-06 2.063721e-05 -0.00026917484 -3.86924e-05
-0.00011776918 -2.601935e-05 1.8992761e-05 2.7832124e-05 -0.000426066 1.035754e-05 0.048181377 0.0249779
-0.011555668 -0.0007829754 -0.04079637 -0.016771294 0.028017372 0.021840917 0.054451954 -0.013055878
0.0011574845 -0.017894661 0.031403586 0.024266586 -0.040702794 0.020259641 0.048957597 -0.045494284
0.020384587 0.020372663 -9.749811e-05 -2.2997683e-05 -8.363597e-05 -1.4344969e-06 -1.5164614e-05 -4.3074204e-05
-3.4790042e-05 0.00011558317 -5.227246e-05 -7.347807e-05 -0.04943126 0.012184534 -0.04295879 -0.029594887
0.02627945 -0.04672495 0.0045503904 0.030631516 -0.002140186 -0.011560104 -0.049676068 0.018243054
0.013698968 0.059002683 0.0115684625 -0.053276096 -0.020018023 0.009436597 0.0073702238 -0.014172027
0.043055836 0.043325674 0.019733435 0.007729162 -0.050105218 -0.039153185 0.046178825 -0.036484983
-0.0024064346 0.043561988 -0.00052996184 -0.037894927 -0.04127369 0.042709067 0.04357224 -0.024035685
0.040347923 0.043080263 0.027678633 0.024454903 -0.036495917 -0.038938213 0.04481067 -0.029203843
0.009168663 -0.0054749707 -0.023652567 -0.022504598 -0.038118314 0.021832542 -0.022979753 0.010324931
0.00725251 0.029788852 0.057013374 -0.008812818 0.051232275 0.020996673 0.014198325 0.0004901983
-0.00041601315 3.371807e-05 -2.0596452e-05 -5.0162325e-05 -6.2369196e-05 7.717226e-06 0.00040503687 -2.2947923e-05
-0.0001699841 4.906835e-05 -5.1578467e-05 -6.731422e-05 -0.00034641745 0.00013893188 -0.00027762447 -0.00025757687
1.9263869e-05 2.3438562e-05 0.00010289956 -2.9810304e-05 -0.011816362 -0.03762068 -0.036828905 0.02490637
-0.022994049 0.04755738 0.012174048 -0.042728163 0.019283433 -0.009765224 0.022041973 0.012505
-0.023315461 -0.03610306 0.018899443 0.015146647 -0.0085122 -0.036847904 0.017512754 0.013626561
-0.003202098 -0.026048098 0.02469456 0.0013221801 0.019142576 0.023689983 -0.03381585 -0.033431172
-0.035514176 0.034648236 -0.0099564465 0.020794204 -0.048654918 0.028677993 0.031406756 0.026289156
0.041742146 -0.011854303 -0.042586654 0.03794164 -0.022637667 0.04107781 0.015984759 0.046138514
-0.025123931 0.026301846 -0.05747897 -0.024987083 0.012395989 -0.048171666 0.033643287 -0.051239695
0.016991725 -0.030198334 -0.037054636 0.006444368 -0.002629749 -0.00432454 0.015089421 -0.0444071
0.00042277202 -7.778969e-05 -5.6412606e-05 0.00016028178 -0.00039354476 2.2837298e-06 3.6857142e-05 4.3619497e-05
-0.0001813094 0.00033931973 1.1360524e-05 -4.4847156e-06 -6.7027795e-05 0.00040191194 -6.7456094e-05 7.4581567e-07
-0.00042546768 -3.8401806e-05 0.000103342216 3.58201e-05 0.03486732 0.041626114 -0.02023853 -0.009427325
-0.018168774 -0.0011813415 -0.015840098 -0.038645867 0.019302247 0.026825521 0.026064584 0.049368795
0.04284494 -0.013591529 0.043405913 0.049291868 -0.0080638295 -0.020818954 0.015837383 0.047421213
0.01158345 0.043098133 -0.041739535 -0.037135214 0.03519542 -0.0475218 -0.021289648 -0.015609693
0.015576584 0.004720503 -0.016378118 0.025663696 -0.0063725845 0.044509288 0.03189829 0.025488343
