Comparative_Evaluation/Baselines/Transformer/models_m/model32.pt (torch, 369273 bytes, 36 tensors)

in_proj_weight f4 [30, 10]
0	0x3eaf4d17	0.34238502
1	0xbe6a6c46	-0.22892866
2	0x3da47ed0	0.08032
3	0xbe8ea817	-0.27862617
4	0x3e95a2ec	0.29225862
5	0xbd85938f	-0.06522285
6	0xbe107b30	-0.14109492
7	0xbb347d24	-0.002754041
8	0x3cc247cc	0.023715876
9	0x3e0da6ce	0.13833162
10	0x3e805f58	0.25072742
11	0xbe6211a8	-0.22077048
12	0x3e90e6f2	0.28301197
13	0xbea0018e	-0.31251186
14	0xbe46bc44	-0.19407755
15	0x3d85d5ae	0.06534897
16	0xbda1d48a	-0.07901867
17	0xbd874526	-0.06604986
18	0xbe398cdb	-0.18120138
19	0xbd875c68	-0.06609422
20	0x3ea4cb23	0.3218623
21	0x3e677654	0.22603732
22	0x3ecad9d6	0.3961932
23	0x3db456bc	0.08805606
24	0x3e89ee77	0.26939747
25	0xbe2d14dd	-0.1690249
26	0x3d74d4fd	0.059773434
27	0x3ea7a608	0.3274386
28	0xbe874724	-0.26421463
29	0x3e3b8c53	0.18315248
30	0x3d0943c4	0.033511892
31	0x3e83b8db	0.2572697
32	0xbe1d55d3	-0.1536477
33	0xbc89418e	-0.016754892
34	0xbe922969	-0.28547218
35	0x3e46c44f	0.19410823
36	0x3ea48b9e	0.3213777
37	0xbe87f3ba	-0.26553136
38	0x3e2879d8	0.1645273
39	0x3db2a86a	0.08723529
40	0x3e3f84f8	0.18703067
41	0xbebf8f56	-0.37414044
42	0xbe120d27	-0.1426283
43	0x3e4fff1e	0.20312163
44	0xbd40a0f4	-0.047028497
45	0xbdb670a9	-0.08908207
46	0x3ecc2f2e	0.39879745
47	0xbe2f7c7a	-0.17137328
48	0x3d8cc563	0.06873586
49	0x3e96c679	0.29448298
50	0xbe18d647	-0.1492549
51	0xbeadccc7	-0.33945295
52	0x3cf450a9	0.029823618
53	0xbe42d703	-0.19027333
54	0x3e58d81d	0.2117619
55	0x3e40d0ce	0.18829653
56	0xbe5f7d5c	-0.21825165
57	0x3e923856	0.28558606
58	0xbdc32bbd	-0.09529827
59	0xbd9b4b1f	-0.075826876
60	0xbdccc2d1	-0.09998096
61	0xbebb22d7	-0.36550018
62	0x3e405848	0.18783677
63	0x3e5a2773	0.21304111
64	0x3e85ced5	0.26134363
65	0x3eb6d204	0.35707104
66	0xbcaa83ea	-0.020814855
67	0xbe2b0bbe	-0.16703698
68	0xbed37ad5	-0.4130465
69	0xbe5be65d	-0.21474595
70	0x3d840e58	0.06448048
71	0xbc966f98	-0.018363759
72	0xbe1067be	-0.14102075
73	0xbe6f6827	-0.23379575
74	0xbe9d114f	-0.30677268
75	0x3e2dd3dc	0.16975349
76	0x3d198892	0.03748376
77	0xbece4965	-0.4029037
78	0x3e99eb58	0.30062366
79	0xbd82dc20	-0.06389642
80	0xbdcdd1cc	-0.10049781
81	0x3ec72c8c	0.38901174
82	0x3c8bc8fe	0.017063614
83	0x3e8fcff0	0.2808833
84	0x3e71c12a	0.23608842
85	0x3e8ed064	0.27893364
86	0x3ea3246b	0.31863722
87	0xbe7197ca	-0.23593059
88	0x3da9021f	0.08252358
89	0x3e658724	0.22414833
90	0x3d7d629d	0.061861623
91	0xbe3db3e5	-0.18525656
92	0x3e6167f5	0.22012313
93	0xbece7ac5	-0.4032804
94	0x3eb1fa6b	0.34761366
95	0x3e1a0e5c	0.1504454
96	0x3e66e6ce	0.22548983
97	0xbe9d2913	-0.306954
98	0xbe0dc93b	-0.13846295
99	0xbe73ef70	-0.23821807
100	0xbe01cf4f	-0.12676738
101	0x3e7c3350	0.24628949
102	0xbeafe395	-0.3435332
103	0x3e3310c8	0.1748687
104	0x3e803e73	0.25047645
105	0xbd94521b	-0.07242223
106	0x3d45c47f	0.048283096
107	0x3cc572ea	0.024102647
108	0xbe99fa14	-0.30073607
109	0x3cd36c67	0.025808526
110	0x3c82a64c	0.015948437
111	0xb9866029	-0.00025630117
112	0x3ed95739	0.42449358
113	0x3e35c73e	0.17751786
114	0x3e2292d3	0.15876321
115	0xbe5b357a	-0.21407118
116	0xbe2bb135	-0.16766818
117	0x3ea7270e	0.32646984
118	0x3ea32456	0.3186366
119	0x3b78cfa2	0.0037965556
120	0xbea30f86	-0.3184778
121	0xbde46ba7	-0.111533456
122	0x3e335eb1	0.1751659
123	0x3e1ec3bb	0.15504353
124	0x3ea586c9	0.32329395
125	0x3e996523	0.29959974
126	0x3e40bff8	0.1882323
127	0x3dd3c5c1	0.10340453
128	0x3c236245	0.00997216
129	0x3ddf44e5	0.109018125
130	0x3db7c231	0.08972586
131	0xbd930522	-0.071787134
132	0xbda53682	-0.08067037
133	0x3e000c1b	0.12504618
134	0xbd701898	-0.058617204
135	0xbeb6e7a8	-0.35723615
136	0x3ea10f6d	0.3145708
137	0xbe4c12d1	-0.19929053
138	0x3e72e9ed	0.23722048
139	0xbd2a4ed4	-0.041579083
140	0xbe9b19b7	-0.30293056
141	0xbdf450cc	-0.11929473
142	0xbba9d5e0	-0.0051829666
143	0xbec23ca0	-0.37936878
144	0x3e613868	0.21994174
145	0xbdbcac50	-0.092125535
146	0xbe1d89c2	-0.15384582
147	0xbe10c682	-0.14138225
148	0xbe67199b	-0.22568361
149	0xbe99e750	-0.3005929
150	0xbe8d5b78	-0.27608848
151	0x3da0c75d	0.078505255
152	0x3e0c6e40	0.13713932
153	0xbe3b521b	-0.1829304
154	0x3c3d3ff0	0.011550888
155	0x3b024bf1	0.001988169
156	0xbdda0865	-0.106461324
157	0xbe63e204	-0.22254187
158	0x3e523611	0.20528437
159	0x3d70016b	0.058595102
160	0xbe401c06	-0.1876069
161	0xbe1aa8eb	-0.151035
162	0xbeb2839e	-0.3486604
163	0x3dfc26da	0.12312098
164	0xbe31f38c	-0.17378062
165	0xbdde7fa4	-0.10864189
166	0x3ce61ee0	0.028090894
167	0xbe6869f3	-0.22696666
168	0x3e600b48	0.21879303
169	0xbebbe518	-0.36698222
170	0xbdb87bd7	-0.090079956
171	0xbe5d4f97	-0.21612392
172	0x3eab00a2	0.3339892
173	0xbddb13f7	-0.10697167
174	0xbe5eabbc	-0.21745199
175	0x3ca00680	0.01953435
176	0xbe28028d	-0.16407223
177	0x3e5f20e9	0.21789898
178	0x3e651f07	0.22375117
179	0x3e6c4ad1	0.23075415
180	0xbe939450	-0.2882409
181	0x3ecb3753	0.39690647
182	0xbe1d0e94	-0.15337592
183	0xbec11673	-0.3771244
184	0x3ca2c9bc	0.019871585
185	0xbe740d11	-0.2383311
186	0xbe8b0a37	-0.2715623
187	0xbea0cec6	-0.31407756
188	0xbe95f2d1	-0.29286817
189	0x3dffa1a2	0.12482001
190	0xbcc74d21	-0.02432877
191	0xbdb1f073	-0.0868844
192	0x3dab1ce0	0.08355117
193	0xbdf636d5	-0.12022177
194	0x3df105ab	0.11768659
195	0x3e29e087	0.16589557
196	0x3e9b4d00	0.30332184
197	0x3e86d16b	0.26331648
198	0xbeb1cc36	-0.34726113
199	0xbdf4464c	-0.119274706
200	0x3de8510f	0.11343586
201	0x3ed5030b	0.41603884
202	0xbe1f95ed	-0.15584536
203	0x3d822e0d	0.0635644
204	0x3e89886b	0.2686189
205	0xbe9d36bf	-0.3070583
206	0xbe0d617e	-0.13806722
207	0x3e86092c	0.26178873
208	0x3e86e2f3	0.26345024
209	0xbd9b2598	-0.0757553
210	0x3eb49557	0.35270187
211	0x3d2dfb8c	0.042476222
212	0xbe4870a7	-0.19574223
213	0x3e5e0001	0.21679689
214	0x3e8f8126	0.2802822
215	0x3e90f6fe	0.2831344
216	0xbd901ad1	-0.07036365
217	0x3cd4d617	0.025980992
218	0x3eaa66de	0.33281606
219	0x3d144b37	0.036204543
220	0x3e3343e6	0.1750637
221	0xbe3d22c8	-0.18470299
222	0x3e395052	0.18097046
223	0xbdeda60e	-0.11603938
224	0xbdac641c	-0.08417532
225	0x3e867c77	0.26266834
226	0xbdb450bd	-0.08804462
227	0xbe30c9b8	-0.1726445
228	0xbe536fa1	-0.20648052
229	0xbe0d08c0	-0.13772869
230	0x3ea38780	0.31939316
231	0x3eb13a4d	0.34614792
232	0x3e692149	0.22766604
233	0xbe5370d9	-0.20648517
234	0x3dd9cbbf	0.106345646
235	0x3dac51c7	0.08414035
236	0x3e87749f	0.26456162
237	0xbebf3503	-0.37345132
238	0x3dc923be	0.098212704
239	0x3dc11f4d	0.09429798
240	0x3e3d5519	0.18489493
241	0xbdd8b041	-0.10580493
242	0xbd7421b3	-0.05960245
243	0x3e6e699b	0.23282473
244	0x3e778cd1	0.24174811
245	0x3c211a02	0.009832861
246	0xbda9bc6e	-0.08287893
247	0x3de099b7	0.10966819
248	0x3e06d07e	0.13165471
249	0xbe35f4ab	-0.17769115
250	0xbe969632	-0.29411465
251	0xbebb098f	-0.3653073
252	0xbded9b70	-0.11601913
253	0xbec2dd37	-0.380594
254	0xbe47ffef	-0.19531225
255	0xbceaadef	-0.028647391

in_proj_bias f4 [30]
0	0xbcc524bb	-0.024065366
1	0xbcc604c2	-0.02417219
2	0xbcdafa3c	-0.02673065
3	0xbc9c4ea0	-0.01908046
4	0x3ca07f4d	0.019591952
5	0xbcbc07a9	-0.022952871
6	0xbca67a20	-0.020321906
7	0x3d0fdbdc	0.035121784
8	0xbce6253e	-0.02809393
9	0x3cfb2348	0.030656472
10	0x3a05379d	0.00050818344
11	0x3ae421d2	0.0017405099
12	0x3ac2b977	0.0014856298
13	0x39bc2f81	0.00035893547
14	0xbae1f53a	-0.0017239221
15	0xbb1bc806	-0.0023770346
16	0xba261cbe	-0.00063366804
17	0xbb449d32	-0.0030000922
18	0x3b57c919	0.003292626
19	0xbad19468	-0.0015989663
20	0xbcf196a2	-0.029490773
21	0xbccafddb	-0.02477925
22	0xbcc5b73b	-0.024135223
23	0x3cfa0762	0.030521099
24	0xbcd85fb5	-0.026412824
25	0x3d039b73	0.03213067
26	0xbd3e7f25	-0.046507973
27	0xbd56a2ba	-0.052401282
28	0xbc0d4a5f	-0.0086236885
29	0x3c079004	0.008274082

weight f4 [10, 10]
0	0xbd99ceea	-0.07510169
1	0xbf025687	-0.5091328
2	0xbecbb7af	-0.39788577
3	0xbd3d89b6	-0.04627391
4	0x3e1e4805	0.15457161
5	0xbe88b808	-0.26702905
6	0x3e78443c	0.2424478
7	0x3f170390	0.5898981
8	0xbda0d6b5	-0.07853452
9	0x3d8bc273	0.068241976
10	0xbdad8e44	-0.08474401
11	0x3e79b8bc	0.24386877
12	0x3df4813b	0.11938711
13	0xbee49068	-0.44641423
14	0xbf072214	-0.52786374
15	0xbe07e021	-0.13269092
16	0xbefdf2d0	-0.49599314
17	0xbebc9b14	-0.36837065
18	0x3ef35173	0.47523078
19	0xbc5b22ac	-0.013374966
20	0xbf05848e	-0.5215539
21	0xbedb2595	-0.4280211
22	0xbed40aca	-0.4141448
23	0x3e9114b8	0.2833612
24	0xbead793b	-0.33881554
25	0x3ec9fe93	0.39452037
26	0xbdb64bde	-0.08901189
27	0xbc7e0d12	-0.015506046
28	0xbf1253d6	-0.57159173
29	0xbe810a1a	-0.2520302
30	0x3ebb7cc6	0.36618632
31	0x3ea502fc	0.3222884
32	0x3ec5e420	0.38650608
33	0x3f06ed8e	0.5270623
34	0x3e7c4ecd	0.24639435
35	0x3ec55570	0.38541746
36	0xb9c05dba	-0.00036690925
37	0xbdf33b31	-0.11876524
38	0xbe38c983	-0.1804562
39	0xbedbda57	-0.42940018
40	0x3e88c023	0.2670909
41	0x3d3e6b90	0.0464893
42	0xbf0dc9d9	-0.5538612
43	0xbee48a97	-0.44636986
44	0xbdc36608	-0.09540945
45	0xbcf12895	-0.029438296
46	0x3e4e53b8	0.20149124
47	0xbe66318c	-0.22479838
48	0xbd190789	-0.0373607
49	0x3eafb735	0.34319463
50	0xbd915eb2	-0.0709814
51	0xbeab4c95	-0.33456865
52	0x3e23b08e	0.15985319
53	0x3ee3fb69	0.44527748
54	0xbe9e7a25	-0.30952564
55	0x3edb9491	0.42886785
56	0x3e70e62e	0.23525307
57	0xbecaaeeb	-0.39586577
58	0x3e88cb82	0.26717764
59	0x3e493200	0.1964798
60	0x3f0d8bf8	0.552917
61	0x3de78f16	0.11306588
62	0x3e91c789	0.28472546
63	0xbee98135	-0.4560639
64	0x3eb52110	0.35376787
65	0xbed060e9	-0.40698937
66	0x3f05214f	0.5200395
67	0xbf0e247c	-0.5552442
68	0xbe658d9c	-0.22417301
69	0xbdd11a29	-0.10210068
70	0xbcd4cb97	-0.025975985
71	0x3d809cec	0.062799305
72	0xbde93343	-0.113867305
73	0x3f01902c	0.50610614
74	0x3da9d3ac	0.08292326
75	0x3ec5790f	0.38568923
76	0x3e230210	0.15918756
77	0x3e292391	0.16517474
78	0x3e91ebf7	0.2850034
79	0x3e5e06da	0.21682301
80	0x3d0a6a8a	0.03379301
81	0x3d90479b	0.07044908
82	0x3b33653e	0.0027373577
83	0xbe729bd7	-0.2369226
84	0xbda38ee6	-0.0798624
85	0x3db7acfb	0.0896854
86	0xbe0bdeda	-0.1365923
87	0x3de23f95	0.110472836
88	0x3ebe0598	0.37113643
89	0x3d15a79a	0.03653679
90	0x3ec0db5f	0.37667367
91	0xbe5f6f52	-0.21819809
92	0xbe885570	-0.26627684
93	0x3ebc2901	0.36750033
94	0xbecdc5b0	-0.40189886
95	0xbed3fe3e	-0.4140491
96	0x3ea0dd8a	0.3141902
97	0x3ef74c9f	0.48300645
98	0x3ed51116	0.41614598
99	0x3eab51ce	0.3346085

bias f4 [10]
0	0x3cad2517	0.02113585
1	0x3d60899e	0.054818742
2	0x3d118f54	0.03553708
3	0xbc91b97b	-0.01778864
4	0xbd46a027	-0.048492577
5	0x3ccc0177	0.024903042
6	0xbce27740	-0.027644753
7	0xbd3fa9b1	-0.04679269
8	0xbcc45a50	-0.023968846
9	0xbd1e488d	-0.03864341

weight f4 [2048, 10]
0	0x3cb64633	0.02225027
1	0xbccf547f	-0.025308846
2	0xba38ccf1	-0.00070495816
3	0x3b875d67	0.0041310075
4	0x3c798368	0.015229084
5	0xbd0eac91	-0.03483254
6	0x3c6a15fd	0.014287469
7	0x3ca762a3	0.020432776
8	0xbc5e4995	-0.013567348
9	0x3c8d2222	0.01722819
10	0xbaf4b36a	-0.0018669192
11	0xbcf4f5e8	-0.029902413
12	0xbd0e3869	-0.034721766
13	0xbbb6f72c	-0.0055836644
14	0xbbc7aafb	-0.0060933805
15	0x3d8a5d84	0.06756118
16	0xba4ff72d	-0.00079332554
17	0x3b1c5670	0.0023855232
18	0xbd00b618	-0.031423658
19	0x3caf82f8	0.021424755
20	0xbb8f98dd	-0.0043822364
21	0xbcd46171	-0.02592537
22	0xbd071986	-0.032983325
23	0x3c0c6dba	0.008571083
24	0x3d0bc1d5	0.0341204
25	0xbca8f661	-0.020625295
26	0x3ce60899	0.028080272
27	0x3cd7e764	0.026355453
28	0x3c847704	0.016170032
29	0x3d14ad12	0.036297865
30	0x3d046031	0.032318298
31	0xbd0b5e98	-0.03402576
32	0xbcd3876c	-0.02582141
33	0x3ce838fa	0.028347481
34	0x3d02e29b	0.03195439
35	0xbcc894b8	-0.024484977
36	0x3ce73674	0.028224207
37	0x3cdd2340	0.026994348
38	0xbcce953f	-0.02521765
39	0x3c854408	0.016267791
40	0x3d7f8f46	0.062392496
41	0xbc706347	-0.014672107
42	0xbcd5a2a8	-0.026078537
43	0xbcf00fc1	-0.029304387
44	0xbc9b31ef	-0.018944709
45	0x3d23f933	0.040032577
46	0xbd97347d	-0.07383058
47	0xbde0a2ec	-0.10968575
48	0xbbcee326	-0.0063136993
49	0xbd831715	-0.06400887
50	0xbcf48fb1	-0.029853674
51	0xbcecf040	-0.028923154
52	0xbcf8d0e0	-0.030373037
53	0x3cd8906c	0.026436053
54	0x3d048cc6	0.032360815
55	0xbd025267	-0.031816866
56	0x3cfd0389	0.030885475
57	0x3d05ee43	0.032697927
58	0x3cd2b532	0.025721166
59	0x3d01609f	0.031586286
60	0xbcffb4d0	-0.031214148
61	0x3cc35fde	0.023849424
62	0xbc996f80	-0.018729925
63	0x3ce0f389	0.027459877
64	0x3c482ee4	0.012218211
65	0x3d8db4cd	0.06919251
66	0x3d56a5eb	0.052404325
67	0x3d0f4c77	0.034985032
68	0xbd9d94ce	-0.07694398
69	0x3c318959	0.010835969
70	0xbd34bf6a	-0.04412786
71	0xbd8ed353	-0.06973901
72	0x3acc7ff4	0.0015602098
73	0xbd92ca45	-0.07167486
74	0x3d47bba7	0.048762944
75	0x3b146c3f	0.0022647528
76	0x3d309234	0.04310818
77	0xbd5d958d	-0.0540977
78	0x3d054137	0.032532897
79	0xbc82d3ac	-0.015970074
80	0xbc8171fa	-0.015801419
81	0x3d45c7d2	0.048286267
82	0x3d046eca	0.03233222
83	0x3ceb9142	0.028755788
84	0xbda65384	-0.08121398
85	0x3d6a3524	0.057179585
86	0xbd235b30	-0.039881885
87	0x3cdc5bb7	0.026899202
88	0xbd3a00af	-0.04541081
89	0x3bb383c3	0.0054783537
90	0x3da07beb	0.078361355
91	0x3d4f755e	0.05064904
92	0x3c808a3d	0.015690917
93	0x3d5d142a	0.053974308
94	0xbd360070	-0.04443401
95	0xbc8186b5	-0.015811304
96	0xbd514b83	-0.051097404
97	0xba91b9d4	-0.0011118003
98	0x3c686919	0.0141852135
99	0x3c155332	0.009114074
100	0xbc37761b	-0.011197592
101	0xbc8e2ffc	-0.017356865
102	0x3d16c6ae	0.03681057
103	0xbc54ee59	-0.01299628
104	0xbd4a8094	-0.049439028
105	0x3d7880f4	0.060669854
106	0xbce8bd97	-0.028410716
107	0x3b33d80f	0.0027442013
108	0xbb361174	-0.00277814
109	0x3d015bb1	0.031581584
110	0xbca25ed5	-0.01982061
111	0xbd7fc2e4	-0.06244172
112	0xbca3d6be	-0.019999858
113	0x3d80def3	0.06292524
114	0x3d8090d3	0.06277623
115	0xbd81e7a2	-0.063430086
116	0x3d8045ee	0.06263338
117	0x3ca21af4	0.019788243
118	0x3c9de0f5	0.019272307
119	0x3d8256cc	0.063642114
120	0xbc916aa2	-0.017751042
121	0xbc836e0c	-0.016043685
122	0xb976b21b	-0.00023526738
123	0xbbb287f4	-0.005448336
124	0x3da4701a	0.08029194
125	0xbcbb280b	-0.022846242
126	0xbc3014ce	-0.010747148
127	0x3da0ce17	0.078518085
128	0x3d840aea	0.06447394
129	0x3d7ef9e3	0.06225003
130	0x38bf2370	9.1141905e-05
131	0x3685c236	3.986318e-06
132	0xb7598e95	-1.2967405e-05
133	0xb8afd29c	-8.383879e-05
134	0xb8382d54	-4.3911234e-05
135	0xb9451a31	-0.00018797141
136	0x383b8652	4.470937e-05
137	0x394f7852	0.00019785881
138	0x394436b3	0.00018712394
139	0x3811d114	3.4765413e-05
140	0xbcdd6718	-0.027026698
141	0xbcdd79d5	-0.027035633
142	0xbcddf39b	-0.0270937
143	0x3cdf27a4	0.027240582
144	0x3cddfd5d	0.027098352
145	0xbcdeef9b	-0.027213862
146	0x3cdc0b52	0.026860867
147	0x3cdd030d	0.026978994
148	0x3cda5178	0.026650175
149	0x3cddaf3a	0.027061094
150	0xbcf701a3	-0.030152148
151	0xbb1e5f25	-0.0024165597
152	0x3d864740	0.065565586
153	0xbd41f1fa	-0.047349907
154	0x39e9b4c9	0.0004457592
155	0xbbc4500f	-0.005990989
156	0x3c32332e	0.01087646
157	0xbc8ebd9e	-0.0174244
158	0x3d7c4624	0.06159033
159	0x3c64c04d	0.013961864
160	0x3cc28038	0.02374278
161	0xbd4ea8d0	-0.05045396
162	0x3c7d5cb9	0.015464001
163	0xbd46889d	-0.04847013
164	0x3b8244d6	0.003975491
165	0x3d37088e	0.044685893
166	0xbc9b08f7	-0.018925173
167	0x3c81b817	0.015834851
168	0x3bbdb59e	0.0057894727
169	0x3cd65a53	0.026166117
170	0x392af3fa	0.00016303352
171	0x382ee256	4.1695625e-05
172	0x360db500	2.1115993e-06
173	0xb92aa097	-0.00016272288
174	0xb8bf3126	-9.116744e-05
175	0xb70c55ee	-8.364657e-06
176	0xb8507e61	-4.9708764e-05
177	0x392e66f6	0.00016632289
178	0x384fde26	4.9559538e-05
179	0xb9501e3e	-0.00019847692
180	0xbd0630e8	-0.032761484
181	0x3c98d4fb	0.018656245
182	0x3ceb1d3a	0.02870046
183	0xbd715928	-0.058922917
184	0x3db9c971	0.09071625
185	0xbcf84888	-0.030308023
186	0x3d9916e7	0.074750714
187	0x3d61d730	0.05513686
188	0x3cf249fb	0.029576292
189	0xbbfd4398	-0.007729005
190	0xbc7dd941	-0.015493692
191	0x3d02f4c7	0.03197172
192	0xbd076be0	-0.033061862
193	0x3d545c8e	0.05184608
194	0xbd281dfa	-0.041044213
195	0x3c1fcea3	0.009753856
196	0xbc822528	-0.015886858
197	0x3cb66366	0.022264194
198	0xbd9bbd4c	-0.07604465
199	0xbd03c3e0	-0.032169223
200	0x3cf7e995	0.030262748
201	0xbd02f02f	-0.03196734
202	0xbd0b145f	-0.033954974
203	0x3d0e3899	0.034721944
204	0x3d106154	0.03524907
205	0xbd0adcec	-0.033902094
206	0x3cbfb18f	0.023400096
207	0x3d0ba5c2	0.034093626
208	0xbd06c051	-0.03289825
209	0xbcf8fa08	-0.030392662
210	0x3d244852	0.040108033
211	0xbd295be3	-0.041347396
212	0xbcd485c2	-0.025942687
213	0x3c33a074	0.010963548
214	0x3d05ec95	0.032696325
215	0xbceca0d8	-0.02888529
216	0x3d0a5ecd	0.033781815
217	0x3c836d0a	0.016043205
218	0xbd02d212	-0.03193862
219	0x3d2b4845	0.04181697
220	0xbc4d87ed	-0.012544614
221	0x3d058204	0.032594696
222	0xbcb08105	-0.021545896
223	0x3cfcf729	0.030879574
224	0xbd61e14d	-0.055146504
225	0xbcba2ef9	-0.022727476
226	0x3d044915	0.03229626
227	0xbd6519e9	-0.055932913
228	0xbcfbbc42	-0.030729417
229	0x3d2dd72c	0.042441532
230	0xbd8f0d4e	-0.069849595
231	0xbd5c926c	-0.053850576
232	0x3d304be4	0.043041125
233	0xbda4cde8	-0.08047086
234	0xbd2138c1	-0.039360765
235	0xbcf71980	-0.030163527
236	0x3cf79965	0.030224511
237	0x3d9bbb11	0.076040395
238	0x3d2b5529	0.041829262
239	0x3cdf65fc	0.02727031
240	0x3cfa5733	0.030559158
241	0x3cb9322a	0.022606928
242	0x3bbfebc9	0.005856965
243	0x3d895e6c	0.06707463
244	0xbd33c620	-0.04389012
245	0x3d2f4dc6	0.04279878
246	0x3c907c22	0.017637316
247	0x3d09eb79	0.03367183
248	0xbd33326c	-0.043749258
249	0x3d8b99a0	0.06816411
250	0xbdadcef8	-0.08486742
251	0xbd023244	-0.03178622
252	0x3da5d39f	0.08097004
253	0xbc16a614	-0.00919487
254	0x3d150ef7	0.036391225
255	0xbd5870bf	-0.052841898

bias f4 [2048]
0	0xbd15a6dc	-0.036536083
1	0xbe304698	-0.1721443
2	0xbd0d7afb	-0.03454111
3	0xbd506daa	-0.050885834
4	0xbd62e266	-0.05539169
5	0xbd030301	-0.031985287
6	0xbd570b35	-0.052500922
7	0x3e1834de	0.14863917
8	0x3e495882	0.1966267
9	0xbc45cc94	-0.012072701
10	0x3d09150e	0.033467345
11	0xbd8253d0	-0.06363642
12	0x3de047af	0.109511726
13	0xbc3e4228	-0.011612453
14	0xbcda4cbc	-0.026647918
15	0x3d3012d5	0.04298671
16	0x3e49af13	0.19695692
17	0xbb917070	-0.0044384524
18	0x3e4ccede	0.20000789
19	0x3d4f06c8	0.050543576
20	0xbd381e57	-0.04495081
21	0xbca6c602	-0.02035809
22	0xbc9219df	-0.017834602
23	0xbdc73535	-0.09726945
24	0x3e4c78af	0.19967912
25	0x3d39f587	0.04540017
26	0x3e2fdfc1	0.17175199
27	0x3bbdebe2	0.0057959417
28	0x3e530224	0.20606285
29	0xbe4975b1	-0.19673802
30	0x3d4632b8	0.048388213
31	0x3e5a10e6	0.21295509
32	0x3e2c9c7a	0.16856566
33	0x3e272158	0.16321313
34	0xbd60aabd	-0.05485033
35	0xbba2f2d2	-0.004972794
36	0xbc8dca1d	-0.01730829
37	0xbd31aafc	-0.043375954
38	0xbd1dd66e	-0.038534574
39	0x3df4a31b	0.119451724
40	0x3e23c3cd	0.15992661
41	0x3e4b3971	0.19846131
42	0xbe3909b3	-0.18070106
43	0x3e38e7dc	0.18057197
44	0xbdc7b57d	-0.09751413
45	0xbc086e9e	-0.008327154
46	0x3cbc9bb6	0.023023468
47	0xbd493135	-0.049119193
48	0xbd2c1a19	-0.042017076
49	0xbbf07cdc	-0.007339103
50	0xbc09ca01	-0.008409978
51	0xbc3353b9	-0.010945254
52	0xbd30fb34	-0.043208316
53	0xbd1221db	-0.03567682
54	0x3e59aec7	0.21258079
55	0x3c01df87	0.007926828
56	0x3ea51a02	0.32246405
57	0xbd0d02c7	-0.034426477
58	0x3c521a10	0.012823597
59	0xbcea6b2d	-0.028615559
60	0x3e12b1b7	0.14325605
61	0x3e01c159	0.12671413
62	0xbd289518	-0.041157812
63	0x3e04daff	0.12974165
64	0x3e540bc3	0.20707612
65	0xbd14f124	-0.036362782
66	0x3b93b2dd	0.004507406
67	0xbabda297	-0.0014468011
68	0x3e6207da	0.22073308
69	0x3cc53a4c	0.02407565
70	0x3d582052	0.052765198
71	0xbdaffb03	-0.085927986
72	0x3e9b8717	0.30376503
73	0xbb681b9a	-0.0035416842
74	0xbe1f7659	-0.1557249
75	0x3e9780f3	0.29590568
76	0xbd1f0d85	-0.038831253
77	0x3e566daf	0.20940278
78	0x3e5bff43	0.21484093
79	0xbd5d6a9b	-0.054056745
80	0xbdb835e8	-0.08994657
81	0xbce46ddb	-0.027884414
82	0x3e2ece3c	0.1707086
83	0x3de49314	0.111608654
84	0xbdac680e	-0.08418284
85	0x3e4ca3a3	0.19984297
86	0xbe17d44d	-0.1482708
87	0xbd30a032	-0.043121524
88	0xbde687ab	-0.11256345
89	0xbd1de520	-0.03854859
90	0xbd49bdcc	-0.04925327
91	0xbe339f12	-0.1754115
92	0x3d3e6ba0	0.046489358
93	0x3e0468e1	0.12930633
94	0xbcbc85f9	-0.023013102
95	0x3e873dd8	0.2641437
96	0x3d90df39	0.07073826
97	0x3d23c350	0.039981186
98	0x3e1027c7	0.14077674
99	0xbd8271b6	-0.06369345
100	0xbcefcc88	-0.029272333
101	0x3db84875	0.08998195
102	0xbd66ce07	-0.056348827
103	0xbcb4e5ff	-0.022082327
104	0x3daa51b1	0.08316363
105	0x3e8a1f35	0.26976934
106	0x3d7274b4	0.059193328
107	0xbccee8b1	-0.02525744
108	0xbd495d4b	-0.049161237
109	0x3de1d320	0.11026597
110	0x3e9441d4	0.28956473
111	0x3dd6b8cc	0.10484466
112	0xbcdeb370	-0.027185172
113	0x3e871280	0.26381302
114	0x3e298b24	0.16556984
115	0xbda4d5ee	-0.08048616
116	0x3e24dc14	0.16099578
117	0x3da3e25c	0.08002159
118	0x3dfa6cdf	0.12227797
119	0x3ea00960	0.31257153
120	0x3c804f88	0.015662923
121	0xbbb0f6e6	-0.0054005263
122	0x3d15d7cd	0.036582757
123	0xbbef8546	-0.0073095886
124	0x3e2d607e	0.1693134
125	0x3cdb37a8	0.026759937
126	0xbd81b1ff	-0.06332778
127	0xbd1d4b6b	-0.038402002
128	0x3ea7a97e	0.327465
129	0x3e6710b1	0.22564961
130	0xbe02a994	-0.12760001
131	0x3e65ba16	0.22434267
132	0x3e44e619	0.192284
133	0xbdafdeb5	-0.085874
134	0xbe825162	-0.25452715
135	0xbc1c9535	-0.009557058
136	0xbcf646c5	-0.030063042
137	0xbcf73386	-0.030175935
138	0xbd30b146	-0.04313781
139	0xbd161360	-0.03663957
140	0xbd253f65	-0.04034366
141	0x3e54f3db	0.20796148
142	0xbcfe1f59	-0.031020807
143	0xbcd1ea2d	-0.025624359
144	0xbd1bda57	-0.038050022
145	0x3e308f69	0.17242207
146	0xbaf21747	-0.0018470072
147	0xbd30ab67	-0.043132212
148	0x3e0cc22b	0.13745944
149	0xbd18910f	-0.037247714
150	0xbd885650	-0.06657088
151	0x3e4d45c3	0.20046143
152	0xbd17c40a	-0.03705219
153	0x3e2e6197	0.17029415
154	0xbd9b6e46	-0.07589392
155	0x3d90655a	0.07050581
156	0xbdb8457e	-0.089976296
157	0x3e0a946b	0.1353318
158	0xbb9cee84	-0.0047891755
159	0xbdf1b1ec	-0.11801514
160	0x3e3f2c02	0.18669131
161	0x3d627c73	0.055294465
162	0x3e17e371	0.14832856
163	0x3e245a3f	0.16050051
164	0x3e6a6617	0.22890507
165	0x3daa48d5	0.08314673
166	0x3e69e43e	0.22840974
167	0xbd30b2d8	-0.04313931
168	0xbc2e7212	-0.010647314
169	0xbbc84f6e	-0.0061129844
170	0xbdb389e7	-0.08766537
171	0x3e925636	0.285814
172	0x3e779426	0.24177608
173	0xbd332f6e	-0.043746404
174	0x3d3110fb	0.043229084
175	0x3ddd1a50	0.10796034
176	0x3d37b11d	0.044846643
177	0xbba42cf5	-0.005010242
178	0x3d18e6c6	0.037329458
179	0xbe34f7f3	-0.1767271
180	0xbd2f5293	-0.04280336
181	0x3cacf5d4	0.021113314
182	0xbd455539	-0.048176978
183	0x3ea0a5ad	0.313764
184	0x3e531b4e	0.20615885
185	0xbd6d2f36	-0.057906352
186	0xbd115648	-0.035482675
187	0x3e5a9b6b	0.2134835
188	0x3e433e74	0.19066793
189	0xbdfee886	-0.12446694
190	0x3e002144	0.1251269
191	0xbd88757b	-0.066630326
192	0x3e89d626	0.26921195
193	0x3ea85bd8	0.3288257
194	0xbd79ffea	-0.061035074
195	0xbd483e0a	-0.04888729
196	0x3e571e7b	0.21007721
197	0xbd1bf206	-0.03807261
198	0x3e19a905	0.15005882
199	0x3e8678b3	0.2626396
200	0x3e7abd51	0.24486281
201	0xbd2c4cdb	-0.042065483
202	0xbac74f8c	-0.0015206202
203	0xbd0f89de	-0.03504359
204	0x3eaffd70	0.34373045
205	0x3e65b2bd	0.22431464
206	0xbd0330c5	-0.032028932
207	0xb9dde855	-0.00042325506
208	0x3e3249d1	0.17410971
209	0xbd3fc09a	-0.04681454
210	0x3b7f5243	0.0038958944
211	0xbdba837b	-0.09107109
212	0x3e0573f3	0.13032512
213	0xbe244622	-0.16042379
214	0xbd36db96	-0.044643007
215	0x3ea66eb1	0.32506326
216	0x3e4d2985	0.2003537
217	0x3db1d8fd	0.08683965
218	0xbdece302	-0.11566736
219	0x3cd0372b	0.025416931
220	0xbb43f895	-0.0029902805
221	0x3e3df67a	0.18551055
222	0x3e9dd450	0.30826044
223	0xbc4483ad	-0.011994285
224	0x3e96cc8a	0.29452926
225	0x3e41ce80	0.1892643
226	0x3e40357e	0.18770406
227	0xbd1ed35d	-0.03877579
228	0x3e119cd7	0.14219986
229	0xbd6f5405	-0.058429737
230	0x3e4b4420	0.19850206
231	0x3be442e3	0.0069659813
232	0xbe47de19	-0.19518317
233	0x3dfb9f68	0.12286264
234	0xbdb61d02	-0.088922516
235	0x3e34010c	0.17578524
236	0xbc340461	-0.010987372
237	0xbd8500ae	-0.0649427
238	0xbcc7d64a	-0.024394173
239	0xbb709fa0	-0.0036716238
240	0x3e9968ad	0.29962674
241	0x3e8edd43	0.27903184
242	0xbd7269f0	-0.05918306
243	0xbd2a6b52	-0.041606255
244	0xbb236068	-0.0024929289
245	0x3d8b1f65	0.067930974
246	0x3d5565af	0.052098926
247	0xbb5e5830	-0.0033927076
248	0x3d2862f4	0.041109994
249	0x3de4cca2	0.11171843
250	0xbb6f3716	-0.003650134
251	0xbdc5aa70	-0.09651649
252	0xbd142956	-0.036172234
253	0xbd2270f0	-0.039658487
254	0x3d8b0a2b	0.06789049
255	0x3b808992	0.0039226497

weight f4 [10, 2048]
0	0x3d127c52	0.035763092
1	0xbba6cfa0	-0.005090669
2	0xbca4f476	-0.0201361
3	0x3ca2aa93	0.019856727
4	0x3c32ce9d	0.010913518
5	0x3cf3121d	0.029671723
6	0x3c264113	0.010147351
7	0xbbccc989	-0.006249611
8	0x3d6b60bd	0.057465304
9	0xbd84f9ec	-0.06492981
10	0xbaec4a7a	-0.0018027567
11	0x3d78fe6b	0.060789507
12	0x3ce67bf5	0.02813528
13	0x37dbbf1e	2.619583e-05
14	0x3cdcb49a	0.026941586
15	0x3c9c83dc	0.019105844
16	0x3d9b86c6	0.07594065
17	0x38c1f670	9.24886e-05
18	0x3be029ef	0.0068409364
19	0x3d026a14	0.031839445
20	0xb9372f35	-0.00017469826
21	0x3d0e2cda	0.034710743
22	0x3c682d7b	0.014171
23	0x3ca1b81b	0.019741109
24	0x3d292781	0.04129744
25	0x3d594182	0.05304099
26	0x3c29f2bb	0.010372813
27	0xbc94e491	-0.018175395
28	0x3ce7a486	0.028276693
29	0xbca7d5b0	-0.020487636
30	0x3c7cbc68	0.015425779
31	0x3cba02dc	0.022706442
32	0x3da1e7c9	0.07905538
33	0xbcff8f38	-0.031196222
34	0xbdbc8aac	-0.09206137
35	0xbc71da10	-0.014761463
36	0x3aec2588	0.0018016556
37	0xbc383542	-0.011243166
38	0x3d132a4c	0.03592901
39	0xbda87d76	-0.08227055
40	0x3d81cb10	0.06337559
41	0x3c8df4d7	0.017328663
42	0xbd8896bf	-0.066693775
43	0xbd66951a	-0.056294538
44	0xb8c35854	-9.314777e-05
45	0xb89286b2	-6.9869115e-05
46	0xbd4c74a8	-0.04991594
47	0x3c126af0	0.008936629
48	0xbd23aa1c	-0.03995715
49	0x380d4acb	3.3686676e-05
50	0xbc85df78	-0.01634191
51	0xb9650bcc	-0.00021843537
52	0x3d26805a	0.04064975
53	0xbd0110d5	-0.031510193
54	0xbd1e9dcc	-0.038724706
55	0xbbdf2e22	-0.0068109194
56	0x3d7531c1	0.059861902
57	0x3cf3c3e1	0.029756488
58	0xbda27df6	-0.079341814
59	0x3d1cb3b0	0.0382573
60	0x3d302114	0.043000296
61	0x3d0f6d20	0.03501618
62	0x3d2316f3	0.039816808
63	0x3d589bee	0.05288308
64	0x3c6637ce	0.014051391
65	0xbd3645fa	-0.04450033
66	0x3b985610	0.0046489313
67	0x3bb971cb	0.005659317
68	0xbc872141	-0.016495349
69	0x3d071f14	0.032988623
70	0x3cfc831b	0.030824235
71	0xbd7ed48d	-0.062214423
72	0x3d7d4ade	0.061838977
73	0xb7a9c795	-2.0239308e-05
74	0xbca32622	-0.019915644
75	0xbcaa620f	-0.020798711
76	0x3d208434	0.03918858
77	0x3d83d9da	0.06438036
78	0x3d3e6755	0.046485264
79	0x3c09d92b	0.008413593
80	0x3d505b2c	0.0508682
81	0xbc23eb16	-0.010004779
82	0x3d7ff1e0	0.06248653
83	0x3ab460ba	0.0013761737
84	0x3d80179f	0.06254505
85	0xbcedde10	-0.029036552
86	0x3d8eb42f	0.06967961
87	0xb9550972	-0.00020316782
88	0x3d9c208d	0.07623396
89	0x3d1f0ee2	0.038832553
90	0xbd1df4c5	-0.03856351
91	0x3bab6de8	0.0052316077
92	0xbcbb0797	-0.022830768
93	0xbdaa692d	-0.08320842
94	0x3c6ab5cd	0.014325571
95	0x3d857503	0.06516459
96	0x3d56da93	0.052454542
97	0xbc2b9af5	-0.010473956
98	0x3c08b6c2	0.008344354
99	0xbc9807ce	-0.018558409
100	0xbd2ede43	-0.042692434
101	0x3cbe0538	0.023195848
102	0x3c9c16cb	0.019053837
103	0x3c965c45	0.018354544
104	0x3d2b65d0	0.041845143
105	0xbcea2c55	-0.028585592
106	0xbd78832e	-0.060671978
107	0x3d62fa8f	0.055414733
108	0x3d074269	0.033022318
109	0x3d90f483	0.07077887
110	0x3d47c247	0.04876926
111	0xbbe5922c	-0.0070059504
112	0x3cdf2418	0.02723889
113	0x3d6e8ca3	0.05823959
114	0x3ca20789	0.019778984
115	0x3d1407f5	0.0361404
116	0x3d367809	0.04454807
117	0x3cd009a3	0.02539522
118	0x3d92a131	0.07159651
119	0x3d9726d7	0.07380455
120	0x3c834dc7	0.016028298
121	0x370f7a4d	8.55194e-06
122	0xbcb5e844	-0.02220548
123	0xbca542fa	-0.020173538
124	0x3cb5ec41	0.022207381
125	0xbd8a671a	-0.06757946
126	0x3d95564b	0.0729185
127	0x3d169325	0.03676142
128	0x3d6e347d	0.058155525
129	0xbcb15d01	-0.021650793
130	0x3d1de704	0.03855039
131	0x3bf38041	0.0074310605
132	0xba2d079a	-0.0006600559
133	0x3b48bbed	0.003062959
134	0x3c9c4495	0.019075671
135	0xbd68603a	-0.056732394
136	0xbcd46a84	-0.025929697
137	0x3cf81ae6	0.030286264
138	0xbccfa507	-0.025347246
139	0xbc47465b	-0.01216277
140	0xbc8724d7	-0.016497059
141	0xbca9bb6d	-0.020719254
142	0xbd0bed24	-0.0341617
143	0x3d4ab352	0.04948742
144	0xbc6b8833	-0.014375734
145	0x3d86ae2e	0.06576191
146	0x378ae984	1.6559621e-05
147	0x3d1b387e	0.037895672
148	0xbd876ffe	-0.06613158
149	0x3d1937e4	0.037406817
150	0xbce82215	-0.028336564
151	0xbdd71b65	-0.10503272
152	0x3d502d34	0.05082436
153	0xbcc19b9d	-0.023633773
154	0x3d059362	0.03261126
155	0x3b84e8cb	0.0040560714
156	0x3d873972	0.06602754
157	0x3d819cbf	0.06328725
158	0xb98fa9d1	-0.00027401609
159	0x3c1830ea	0.009289006
160	0xbc93297c	-0.017964117
161	0xbda8ee93	-0.082486294
162	0x3c29ba1b	0.010359312
163	0x3ba649f8	0.0050747357
164	0x3d9e1424	0.07718685
165	0xbda60fa0	-0.08108449
166	0xbd5357ec	-0.05159752
167	0x3d24fcd9	0.040280197
168	0xb7af0c75	-2.0867426e-05
169	0xb7fb2976	-2.9940838e-05
170	0x3962c3f9	0.00021626045
171	0xbcdb6f84	-0.026786573
172	0x3ae1b2a0	0.0017219372
173	0x3a67a613	0.00088366977
174	0x3d0db0a4	0.034592286
175	0xbdaad9b6	-0.08342306
176	0xbd3cb95c	-0.04607521
177	0xb7954336	-1.7793482e-05
178	0xbc21769e	-0.009854941
179	0xbc934624	-0.017977782
180	0x3c86ba67	0.016446305
181	0xbd647eab	-0.055784862
182	0xbcc3b347	-0.023889197
183	0x3cea8564	0.028628059
184	0xbbb5082e	-0.0055246567
185	0x3c585b1b	0.013205315
186	0xbd1105a6	-0.035405777
187	0xbcbd8433	-0.023134327
188	0x3c4a976c	0.012365203
189	0xbad5f154	-0.0016322532
190	0x3c7a0e0d	0.015262139
191	0x3c8a5553	0.016886389
192	0xbcc91f2e	-0.024551
193	0x3d9f62bc	0.07782504
194	0xbd056f94	-0.032577112
195	0xbc01cd2b	-0.007922451
196	0x3d9464d0	0.07245791
197	0xbcff305c	-0.03115099
198	0x3d345149	0.044022832
199	0xbca9c693	-0.02072457
200	0x3d843fd0	0.06457484
201	0xbd010f6d	-0.03150885
202	0xb9774b96	-0.00023583914
203	0x3814c820	3.547233e-05
204	0x3cae3375	0.021264771
205	0xbbcb588e	-0.006205625
206	0xbd06758f	-0.032826956
207	0xb7936e00	-1.7574988e-05
208	0xbc94bf74	-0.018157698
209	0xbb80b623	-0.0039279624
210	0xbbf6f2d6	-0.0075362725
211	0xbda7ab36	-0.08186953
212	0xbcbd9477	-0.023142083
213	0xbd1c2073	-0.038116883
214	0xbcd62c60	-0.026144207
215	0x3d45d3e6	0.048297785
216	0x3b7b2188	0.0038319547
217	0x3be39c6e	0.006946138
218	0xbd86a863	-0.06575086
219	0xbd794d81	-0.06086493
220	0xb8bfeeb2	-9.15205e-05
221	0x3d7d6764	0.06186618
222	0x3bb78350	0.0056003705
223	0x3d14a4ba	0.036289908
224	0xbc6f8d20	-0.014621049
225	0x3cdfd305	0.027322302
226	0x3d71a4fc	0.058995232
227	0xbd1ac67f	-0.037786957
228	0x3d4ddd6a	0.050259985
229	0x3c4f085e	0.012636272
230	0x3ca48f8e	0.020087983
231	0x3d85da06	0.06535725
232	0x3d9cd66c	0.07658085
233	0x3d98daec	0.07463631
234	0xbba33c2d	-0.0049815387
235	0x3b74fe7c	0.003738313
236	0x3b89bc9c	0.004203392
237	0x3c78e221	0.015190632
238	0x3be1a239	0.0068857935
239	0xbd62ed02	-0.05540181
240	0x3ca50551	0.020144137
241	0xbcf1c2d8	-0.029511854
242	0xbc2f2cbd	-0.010691819
243	0xbd26c344	-0.040713564
244	0xbca7719f	-0.020439921
245	0xbd0ec9ab	-0.034860294
246	0xbd8487b0	-0.06471193
247	0xbd8bed46	-0.06832366
248	0x3d27a8c0	0.040932417
249	0x3c0a322b	0.008434813
250	0xbcbbad15	-0.02290968
251	0xbc4ba2cd	-0.012428951
252	0x3cfaaaf6	0.030599099
253	0x3d1c7d9f	0.03820574
254	0xbd2bf2b3	-0.041979503
255	0x3c533e42	0.012893261

bias f4 [10]
0	0x3d261596	0.04054793
1	0x3d1aca63	0.037790667
2	0x3ca1d837	0.01975642
3	0xbb017d36	-0.001975847
4	0xbd13812a	-0.036011852
5	0x3d242456	0.040073715
6	0xbca52ca0	-0.02016288
7	0xbd2a53a0	-0.041583657
8	0xbc62dd6d	-0.013846737
9	0xbd76eb82	-0.06028319

weight f4 [10]
0	0x3f78c286	0.9717182
1	0x3f797782	0.9744798
2	0x3f84e192	1.0381339
3	0x3f82622b	1.0186208
4	0x3f810618	1.0079985
5	0x3f7702a0	0.9648838
6	0x3f764334	0.96196294
7	0x3f7af359	0.9802757
8	0x3f7a5da1	0.97799116
9	0x3f7f3569	0.9969087

bias f4 [10]
0	0x3cc7aba6	0.02437384
1	0x3d655487	0.055988815
2	0x3d1162f6	0.035494767
3	0xbc94d4b3	-0.01816783
4	0xbd314c06	-0.043285392
5	0x3cc63628	0.024195746
6	0xbcd03d6a	-0.02541991
7	0xbd3f2cc7	-0.046673562
8	0xbcd75c94	-0.026289262
9	0xbd12d382	-0.03584624

weight f4 [10]
0	0x3f7676f1	0.9627524
1	0x3f81c2a6	1.0137527
2	0x3f86095a	1.0471604
3	0x3f807a2a	1.0037282
4	0x3f76c229	0.96390015
5	0x3f72a016	0.9477552
6	0x3f73f953	0.95302314
7	0x3f818503	1.0118717
8	0x3f7849a6	0.9698738
9	0x3f880330	1.0625973

bias f4 [10]
0	0x3c6f7011	0.014614121
1	0x3dae01c1	0.08496428
2	0x3d3c8e42	0.046034105
3	0xbca44ddb	-0.020056656
4	0xbd0bb22a	-0.034105457
5	0x3ca09ccc	0.019606017
6	0xbca6a681	-0.020343067
7	0xbd86ab3a	-0.065756276
8	0x3c159061	0.009128661
9	0xbd69f102	-0.05711461

weight f4 [10]
0	0x3f76f6e0	0.9647045
1	0x3f7f83d9	0.9981056
2	0x3f8416cc	1.0319457
3	0x3f7d638c	0.9898002
4	0x3f7a741b	0.9783341
5	0x3f731f6e	0.9496983
6	0x3f6f0c11	0.93377787
7	0x3f7ab5e1	0.97933775
8	0x3f8392db	1.0279192
9	0x3f8119b0	1.0085964

bias f4 [10]
0	0x3ce369f2	0.02776048
1	0x3d7d515b	0.061845165
2	0x3d07baf1	0.033137266
3	0xbb242b9c	-0.0025050407
4	0x3d07e088	0.033173114
5	0x3cac5c40	0.021040082
6	0x3b991328	0.004671473
7	0x3c8c62fa	0.01713704
8	0x3d5fd95e	0.054650657
9	0xbcb9b69b	-0.02267008

in_proj_weight f4 [30, 10]
0	0x3e492e93	0.19646673
1	0x3eb12eb6	0.3460595
2	0x3e698f6f	0.22808622
3	0x3ea630d8	0.3245914
4	0x3e060eeb	0.13091628
5	0xbe3fa545	-0.18715389
6	0x3edb49c0	0.42829704
7	0x3e8a8fb0	0.2706275
8	0xbd1afe7c	-0.03784035
9	0x3f02f385	0.5115283
10	0x3eab75b6	0.33488244
11	0x3e9e927f	0.30971143
12	0x3cb2ed76	0.021841746
13	0xbbcccda1	-0.006250099
14	0xbe66c21b	-0.22534983
15	0xbeb6f5e8	-0.35734487
16	0xbebbfbbc	-0.36715496
17	0xbee52a4c	-0.44758832
18	0x3de1049f	0.109872095
19	0xbe4b070b	-0.19826905
20	0x3eaa1257	0.33217117
21	0x3e5ad0d0	0.21368718
22	0xbce53c8f	-0.027982978
23	0xbe83dadd	-0.25752917
24	0x3e834c30	0.25644064
25	0xbd2ca342	-0.042147882
26	0xbead1edb	-0.33812603
27	0xbeb418bf	-0.3517513
28	0x3de60cd3	0.11232915
29	0xbf10a912	-0.5650798
30	0xbedb96c7	-0.4288847
31	0xbe62a1a9	-0.22131981
32	0x3b23f538	0.0025017988
33	0xbe1d631d	-0.1536984
34	0x3dbdbb33	0.09264221
35	0xbe09e6b6	-0.13466915
36	0xbd22d477	-0.039753404
37	0xbd3dc904	-0.04633428
38	0xbdbb4ef0	-0.091459155
39	0x3e339463	0.17537074
40	0x3d5c32d0	0.053759396
41	0x3dc27f50	0.09496939
42	0x3e55f447	0.20893966
43	0xbe882beb	-0.26596007
44	0x3eaa7fb2	0.3330055
45	0x3e9823e7	0.2971489
46	0x3eb8bc75	0.3608128
47	0x3e478e0e	0.19487783
48	0xbebfa014	-0.37426817
49	0xbe6578e6	-0.224094
50	0xbeb250fa	-0.34827405
51	0xbea94f4e	-0.33068317
52	0x3e22c943	0.15897088
53	0xbeb0d62e	-0.34538406
54	0xbebb5f59	-0.36596182
55	0xbe38c9dd	-0.18045755
56	0x3e5036ef	0.20333456
57	0xbcf6d37d	-0.030130142
58	0xbec4f2da	-0.3846653
59	0x3d100247	0.03515842
60	0x3db0bac3	0.08629372
61	0xbd9d4172	-0.07678498
62	0x3e02a446	0.12757978
63	0x3e8ddf08	0.27709222
64	0xbec364e4	-0.3816291
65	0x3e218f45	0.15777309
66	0x3df3a5f6	0.11896889
67	0xbdccf982	-0.10008527
68	0x3e116997	0.14200436
69	0xbda50eca	-0.080594614
70	0xbd880c86	-0.06643014
71	0xbe081d52	-0.13292435
72	0xbeaf4f27	-0.34240076
73	0x3dc59765	0.09648017
74	0x3da151ba	0.07876916
75	0xbe8d7864	-0.27630913
76	0x3df3fef8	0.11913866
77	0xbe89afd0	-0.26891947
78	0x3e311886	0.17294511
79	0x3e613c9d	0.21995778
80	0xbd31ed07	-0.043438938
81	0x3d964117	0.07336634
82	0xbd0baf4a	-0.034102716
83	0x3ce743c2	0.028230552
84	0x3e221205	0.15827186
85	0xbde07eb9	-0.109616704
86	0xbde7e249	-0.11322457
87	0xbe989525	-0.29801288
88	0xbe9d7246	-0.30751246
89	0x3da723e6	0.08161144
90	0x3e06132b	0.1309325
91	0x3db6ae0e	0.08919917
92	0x3e826518	0.25467753
93	0x3d022763	0.031775843
94	0x3eeff51d	0.46866694
95	0x3e91c6e0	0.28472042
96	0x3ed602d7	0.41799042
97	0xbe69ccc6	-0.22832021
98	0x3e0d6c46	0.13810834
99	0xbe4dff3b	-0.20116894
100	0x3d97d492	0.074135914
101	0xbc196c86	-0.009364253
102	0x3eb973fe	0.36221308
103	0xbdabef16	-0.083952114
104	0x3e800d0e	0.2500996
105	0x3e3d2d86	0.18474397
106	0x3e9bcf40	0.30431557
107	0x3e2bf54f	0.16792797
108	0x3e2c449b	0.16823046
109	0x3e4e944b	0.20173757
110	0xbe4054b0	-0.18782306
111	0x3e52633a	0.20545664
112	0xbeb1a93e	-0.34699434
113	0xbf047b62	-0.5175077
114	0xbefdfc33	-0.49606475
115	0xbd57b663	-0.052664172
116	0xbf04ff4e	-0.51952064
117	0xbe956fb8	-0.29186797
118	0x3d044ff9	0.03230283
119	0xbc750246	-0.014954155
120	0xbe9a867e	-0.30180734
121	0x3cc99bfa	0.024610508
122	0xbe34280e	-0.17593405
123	0x3c291d44	0.010321919
124	0x3cbcf491	0.023065837
125	0xbe97fb5b	-0.29683957
126	0xbd4a34d3	-0.049366783
127	0xbed60d5c	-0.41807067
128	0xbe90f496	-0.28311604
129	0xbd9d805a	-0.07690497
130	0xbee09397	-0.43862602
131	0xbe3af1ba	-0.18256274
132	0xbdfb96e0	-0.122846365
133	0xbe22c991	-0.15897204
134	0x3cfd4795	0.030917922
135	0xbe8070e6	-0.25086135
136	0xbc2aad27	-0.010417259
137	0x3e627ac7	0.22117148
138	0x3eb2ce38	0.34922957
139	0x3ec6597f	0.38740155
140	0x3e58a21b	0.21155588
141	0x3ea7e683	0.32793054
142	0xbdcf8a77	-0.10133832
143	0x3db7886d	0.08961568
144	0x3e2a983a	0.16659632
145	0xbdd5325e	-0.104099974
146	0x3e56d3cf	0.20979236
147	0xbe4ee441	-0.2020426
148	0xbebc81a7	-0.36817667
149	0x3ea2ae9f	0.3177385
150	0xbdd9010c	-0.10595903
151	0xbe7e6b3e	-0.24845597
152	0xbeb81216	-0.35951298
153	0xbe9c34eb	-0.30509123
154	0x3eac884e	0.33697742
155	0x3e2f290c	0.17105502
156	0xbda78daa	-0.08181317
157	0x3e592d39	0.21208657
158	0x3e6ac63a	0.2292718
159	0xbcd6aa07	-0.026204122
160	0x3e1047a1	0.14089824
161	0x3d9a2f70	0.07528579
162	0xbe2fab32	-0.1715515
163	0xbdca44a6	-0.09876375
164	0x3e1ab5ed	0.15108462
165	0x3e6f3e8e	0.23363706
166	0x3e78e284	0.24305159
167	0xbea3882b	-0.31939825
168	0x3e9390b8	0.2882135
169	0xbe9d2907	-0.30695364
170	0xbdbd7cf5	-0.09252349
171	0x3d35231e	0.044222943
172	0xbec96bdd	-0.39340106
173	0x3d465525	0.048421044
174	0x3ddc3bc2	0.107535854
175	0x3db9a01d	0.09063742
176	0xbdf58a66	-0.11989288
177	0xbd02441f	-0.031803247
178	0x3d44f72a	0.048087277
179	0xbd8bd854	-0.06828371
180	0x3d00f5d2	0.031484433
181	0xbec970bc	-0.39343822
182	0x3e500175	0.20313056
183	0xbd21ace9	-0.03947154
184	0xbdd201c9	-0.10254247
185	0x3eb031bf	0.34412953
186	0x3eddd80c	0.43328893
187	0x3ea2046d	0.31644002
188	0x3e139372	0.14411715
189	0x3d2d15d7	0.042257156
190	0x3ee12188	0.43970895
191	0x3dce9583	0.10087111
192	0xbdb435fc	-0.08799359
193	0x3e9196cc	0.2843536
194	0xbea01f57	-0.3127391
195	0x3e156a39	0.14591302
196	0xbe680544	-0.22658259
197	0xbe2f9e4e	-0.17150232
198	0xbdea0cba	-0.11428209
199	0xbebce277	-0.3689153
200	0xbe0051cd	-0.12531205
201	0xbc8a77de	-0.01690286
202	0xbe84c9c6	-0.2593519
203	0x3eccf942	0.4003392
204	0xbc89cdd5	-0.016821781
205	0xbe97b4d8	-0.2963016
206	0xbd467dab	-0.04845969
207	0x3dd9c3e9	0.1063307
208	0xbe2ec9cb	-0.17069165
209	0xbe144c08	-0.14482129
210	0xbe0562cf	-0.13025974
211	0x3e32752b	0.17427509
212	0xbe7125f2	-0.23549631
213	0xbe9de394	-0.3083769
214	0x3ebd97d8	0.3702991
215	0x3eab13b2	0.33413464
216	0xbea0fc66	-0.31442565
217	0x3eb970c1	0.36218837
218	0xbe48f087	-0.19623004
219	0xbda90448	-0.0825277
220	0x3e8fa857	0.2805812
221	0xbd2a1f86	-0.04153397
222	0x3ed13f89	0.40868786
223	0x3e4909c3	0.1963263
224	0xbe6631ef	-0.22479986
225	0x3ddf4c9d	0.10903285
226	0xbe1fcb9f	-0.15605019
227	0x3daebf33	0.08532562
228	0x3d434d5c	0.047681198
229	0x3d911179	0.07083411
230	0x3d416379	0.047214005
231	0xbdbf0be5	-0.093284406
232	0xbe91225b	-0.28346524
233	0xbddc9fc3	-0.1077266
234	0x3dcc8323	0.0998595
235	0xbe96b2fe	-0.29433435
236	0x3dd92e14	0.10604492
237	0x3e8bfea2	0.27342707
238	0xbe6cde25	-0.23131616
239	0xbe1f2c5d	-0.15544267
240	0xbda571b1	-0.080783255
241	0x3c9fb2aa	0.019494373
242	0x3e86420b	0.26222262
243	0xbe60b645	-0.2194453
244	0xbec9fe78	-0.39451957
245	0x3e45d95e	0.193212
246	0x3d9a20dc	0.07525799
247	0xbe11b07a	-0.14227477
248	0xbece4360	-0.40285778
249	0x3e0fd389	0.14045538
250	0x3d211187	0.039323356
251	0x3e1ef78d	0.1552412
252	0xbdd5466e	-0.10413824
253	0xbddbe1b9	-0.107364126
254	0xbc7fd70e	-0.015615238
255	0xbd8c0853	-0.06837525

in_proj_bias f4 [30]
0	0x3d4b3040	0.04960656
1	0xbd664dfe	-0.056226723
2	0xbd69d418	-0.057087034
3	0x3d577b4b	0.052607816
4	0xbd467f46	-0.04846122
5	0x3dc89f49	0.09796006
6	0x3d3cefb3	0.046127032
7	0xbc15fed3	-0.009154993
8	0x3d9817f7	0.07426446
9	0xbdc13a68	-0.09434968
10	0xbc3ed2ac	-0.011646908
11	0xbcaa0480	-0.020754099
12	0xbca5544e	-0.020181801
13	0xbb544dd5	-0.0032395024
14	0xbc804546	-0.015658032
15	0xbd2f21df	-0.04275691
16	0x3b8cad6b	0.004293134
17	0xbc96a0c0	-0.018387198
18	0xbc611720	-0.013738424
19	0x3d00403a	0.03131125
20	0xbd081d2b	-0.03323094
21	0xbd1a5b72	-0.037684865
22	0xbcd99bee	-0.02656361
23	0xbd5b99c5	-0.053613443
24	0x3d587011	0.05284125
25	0xbd2533de	-0.040332668
26	0x3d470a4a	0.048593797
27	0x3d088aa1	0.03333533
28	0xbd292fcc	-0.04130535
29	0xbad03290	-0.001588421

weight f4 [10, 10]
0	0x3efcfe41	0.4941273
1	0x3e4911f7	0.1963576
2	0xbea9baa9	-0.33150223
3	0xbdafa114	-0.08575645
4	0xbeb3c8c0	-0.35114098
5	0xbe2ea0a1	-0.17053463
6	0x3e18d132	0.14923552
7	0x3b03bf87	0.0020103173
8	0xbcf5d4e1	-0.030008735
9	0xbe96e0f6	-0.29468507
10	0x3ea0772e	0.31340927
11	0x3e9b7bd7	0.3036792
12	0x3ce097ec	0.027416192
13	0xbee63b43	-0.44967088
14	0xbc9e9487	-0.019357933
15	0x3ee2f7ec	0.44329774
16	0x3d98e25d	0.0746505
17	0xbe2515de	-0.16121623
18	0x3ec8ab9f	0.39193437
19	0xbe4bbf40	-0.19897175
20	0xbee98c36	-0.45614785
21	0xbeaafced	-0.33396092
22	0xbec52376	-0.38503617
23	0x3df994ee	0.12186609
24	0x3e886138	0.26636672
25	0xbebea48b	-0.3723491
26	0x3e93469c	0.28764808
27	0x3e5d3a6b	0.21604316
28	0xbe0941a7	-0.1340395
29	0x3e7b3a31	0.24533917
30	0xbeca21c4	-0.39478886
31	0x3f0b1cbc	0.5434072
32	0xbe95da3b	-0.2926806
33	0xbee84618	-0.45365977
34	0x3e8bdbd7	0.27316162
35	0x3cca4420	0.024690688
36	0x3ee2f447	0.44326994
37	0x3cc3270c	0.02382233
38	0xbeba0048	-0.3632834
39	0x3dcee42c	0.10102114
40	0xbea0d891	-0.31415227
41	0xbeacab60	-0.337245
42	0xbee55d8d	-0.44797936
43	0xbdca733d	-0.09885261
44	0x3edbaee2	0.42906862
45	0xbe94877e	-0.29009622
46	0xbec4fdcb	-0.3847488
47	0xbe9506c8	-0.29106736
48	0xbe95f5d0	-0.29289103
49	0xbdb4dc9e	-0.08831142
50	0x3eb1b386	0.34707278
51	0x3dd10741	0.10206462
52	0xbdf46706	-0.11933713
53	0x3ccbcbf1	0.02487752
54	0xbbec4556	-0.007210414
55	0x3e90184d	0.2814354
56	0x3e668ce8	0.22514689
57	0xbeca98e8	-0.39569783
58	0xbeaa4b9b	-0.33260807
59	0xbe79275b	-0.24331419
60	0xbad0a8f2	-0.001591949
61	0xbe304341	-0.17213155
62	0xbdfe56c1	-0.12418891
63	0x3e57571a	0.2102932
64	0xbea8e281	-0.3298531
65	0x3da47a5c	0.08031151
66	0xbeee3eae	-0.46532196
67	0xbefaf4f8	-0.4901502
68	0x3cc4075f	0.023929296
69	0xbe0fcc5c	-0.140428
70	0x3deddd1f	0.11614441
71	0xbecf77da	-0.40521127
72	0xbdc99bbd	-0.09844158
73	0xbeb07c7d	-0.34469977
74	0xbe015e20	-0.12633562
75	0x3e1ee2d4	0.15516216
76	0xbec07246	-0.37587184
77	0x3ea9ffdb	0.33203015
78	0xbdf5e568	-0.120066464
79	0x3deb23b0	0.11481416
80	0xbd5ad572	-0.053426214
81	0x3ef9040d	0.48635903
82	0x3eead944	0.45868886
83	0xbedf8895	-0.4365889
84	0x3e01cfc5	0.12676914
85	0x3eb36c3d	0.35043517
86	0xbc6ad077	-0.014331928
87	0x3c753dea	0.014968375
88	0xbf10b7af	-0.5653028
89	0x3edc61f3	0.4304348
90	0x3ed0e0ec	0.40796602
91	0xbeefb129	-0.4681485
92	0xbe6abe40	-0.22924137
93	0x3e891cc5	0.26779762
94	0x3e20d31c	0.15705532
95	0x3e5ad6ed	0.2137105
96	0xbdc106e0	-0.094251394
97	0xbeb25ddc	-0.34837234
98	0x3d81acef	0.063318126
99	0x3e7d323e	0.24726197

bias f4 [10]
0	0x3d1b033f	0.037844893
1	0xbd38ba4b	-0.045099538
2	0xbd11a20c	-0.03555493
3	0x3d3f3c1a	0.046688177
4	0xbb7e017f	-0.0038758216
5	0xbcf45e99	-0.029830264
6	0xbd9ba7b6	-0.07600348
7	0x3d0ad82b	0.03389756
8	0xbd56dd48	-0.052457124
9	0x3d518c54	0.051159218

in_proj_weight f4 [30, 10]
0	0xbe26be4c	-0.1628353
1	0x3e62c9ef	0.22147344
2	0xbeddf6ed	-0.43352452
3	0x3eada608	0.33915734
4	0xbe671ed8	-0.2257036
5	0xbeabe859	-0.33575705
6	0xbe91c586	-0.2847101
7	0x3eaaf667	0.33391115
8	0x3d1000ac	0.03515689
9	0x3d52fc17	0.051509943
10	0x3de65a24	0.11247662
11	0xbe26777e	-0.1625652
12	0xbebbbe78	-0.36668754
13	0x3e1800ff	0.1484413
14	0x3b44788d	0.002997908
15	0xbe96904e	-0.2940697
16	0xbdb8f69f	-0.09031414
17	0x3e811897	0.25214073
18	0xbe032f91	-0.12811114
19	0xbdf6351a	-0.12021847
20	0x3e95ad5e	0.2923383
21	0xbd9f1663	-0.07767942
22	0x3db05c3f	0.086113445
23	0xbe06f35a	-0.13178769
24	0x3e6ee1ee	0.23328373
25	0xbe6ef447	-0.23335372
26	0xbeab499a	-0.3345459
27	0xbdc1fc36	-0.094719335
28	0xbe7581b4	-0.23975259
29	0xbea4d289	-0.32191876
30	0x3e907a25	0.2821819
31	0xbe2aedc4	-0.16692263
32	0xbe92e7d3	-0.28692493
33	0xbe8f0f85	-0.27941528
34	0x3eb950d5	0.36194482
35	0x3de99978	0.11406225
36	0x3e5306c0	0.20608044
37	0x3dfaa6d1	0.12238849
38	0x3db699db	0.08916064
39	0xbe67e5f9	-0.22646321
40	0x3e6cf91a	0.231419
41	0xbedc4bbf	-0.4302654
42	0x3e521efd	0.20519634
43	0x3e66c31c	0.22535366
44	0x3eccf8cf	0.40033576
45	0xbdba547c	-0.09098145
46	0x3d9124e0	0.070871115
47	0xbe86dc4c	-0.26339948
48	0x3d66e811	0.05637366
49	0x3e8474eb	0.2587045
50	0x3eab85c9	0.33500507
51	0xbe076a1c	-0.13224071
52	0xbe115cd0	-0.14195561
53	0xbe93bc25	-0.2885448
54	0x3ca30348	0.019899026
55	0xbea53457	-0.32266495
56	0xbea43c7c	-0.32077396
57	0xbeabf52a	-0.33585483
58	0xbe0046b9	-0.12526979
59	0x3e55b67e	0.20870396
60	0x3e969cf1	0.29416612
61	0x3d858737	0.06519931
62	0xbe5eb8e3	-0.21750216
63	0x3bcbd8fc	0.006220935
64	0x3e8a3504	0.26993573
65	0xbe935331	-0.28774408
66	0x3e46e41e	0.19422957
67	0xbe92d3c1	-0.2867718
68	0x3ed0061a	0.40629655
69	0xbe22a93f	-0.15884875
70	0xbe465644	-0.19368845
71	0x3d9a0950	0.075213075
72	0xbe11482b	-0.14187686
73	0x3e86f366	0.26357573
74	0xbebcce99	-0.36876372
75	0xbe5b17a3	-0.21395735
76	0xbe827c9a	-0.25485688
77	0xbd8171f6	-0.063205644
78	0xbe064ca9	-0.13115181
79	0x3e5b5fb9	0.21423234
80	0xbe4469e3	-0.19181018
81	0xbeca9a14	-0.39570677
82	0xbd813a1d	-0.06309912
83	0xbe8f49c4	-0.27985966
84	0xbe601060	-0.21881247
85	0x3ddbd71b	0.107343875
86	0x3e21cf55	0.15801747
87	0xbe398893	-0.18118505
88	0xbd147da2	-0.036252625
89	0xbebb957c	-0.36637485
90	0xbab036aa	-0.0013444026
91	0xbe4c484b	-0.19949453
92	0xbe4c4e67	-0.19951783
93	0x3e4ff6e4	0.20309025
94	0xbdc5806e	-0.09643637
95	0xbe9f269d	-0.31084147
96	0xbe0845b6	-0.13307843
97	0x3cbffc7f	0.02343583
98	0xbe814805	-0.2525026
99	0x3e43d9c7	0.19126044
100	0x3e6b464a	0.22976032
101	0xbee5326b	-0.44765028
102	0x3e023e20	0.12719011
103	0x3c8c1d68	0.017103866
104	0x3d5725e5	0.052526373
105	0x3eb8addf	0.36070153
106	0x3e5af27a	0.2138156
107	0x3eb146f2	0.3462444
108	0xbda6a4a5	-0.08136872
109	0x3dc42cd6	0.09578864
110	0xbe89c639	-0.26909044
111	0xbd57ab8c	-0.052653834
112	0x3da1d1cb	0.07901343
113	0xbe84e44e	-0.25955433
114	0xbe5849ea	-0.21121946
115	0xbcef2354	-0.02919165
116	0xbde00575	-0.10938541
117	0xbd0e2916	-0.03470715
118	0x3ed2ec3a	0.41195852
119	0x3e42b610	0.19014764
120	0x3d826a21	0.06367899
121	0x3d02b130	0.03190726
122	0x3ae4dd0e	0.0017460899
123	0x3e2a85e5	0.16652639
124	0xbe442032	-0.19152907
125	0x3d0b235f	0.03396928
126	0xbdd0bc7f	-0.10192203
127	0xbea86352	-0.32888275
128	0x3dda4f5f	0.1065967
129	0x3e8526f6	0.26006287
130	0xbe38d89c	-0.1805138
131	0x3e270594	0.16310722
132	0xbe9211e0	-0.28529263
133	0xbe27e7b8	-0.16396987
134	0x3ea28c92	0.31747872
135	0x3e160344	0.14649683
136	0xbe0f9989	-0.14023413
137	0xbdb56b1c	-0.0885832
138	0xbe782f00	-0.24236679
139	0x3e04f107	0.1298257
140	0xbdc5b64f	-0.09653913
141	0xbe6ce829	-0.23135437
142	0xbdc1c046	-0.094605014
143	0xbeb54768	-0.3540604
144	0xbebd2675	-0.36943403
145	0xbe930f1f	-0.28722474
146	0xbd9136de	-0.07090543
147	0x3eb30c26	0.34970206
148	0x3dcbc009	0.09948737
149	0x3d60405a	0.05474887
150	0xbe94314e	-0.28943866
151	0xbced8c04	-0.028997429
152	0x3ec89468	0.39175725
153	0x3e609e4d	0.21935387
154	0xbe13222e	-0.14368507
155	0x3e111972	0.14169863
156	0x3e0eeb39	0.13956918
157	0x3d987284	0.07443717
158	0xbe9954b7	-0.29947445
159	0x3ea35855	0.3190333
160	0x3e9461f8	0.28980994
161	0xbebbdbd7	-0.36691162
162	0xbec45641	-0.38347057
163	0x3eca5769	0.39519814
164	0x3dd44677	0.103650026
165	0xbe6088e4	-0.2192722
166	0xbe0254b8	-0.1272763
167	0xbe863e55	-0.2621943
168	0xbb2e7a55	-0.0026623209
169	0x3eb6d042	0.35705763
170	0xbe822e97	-0.2542617
171	0x3e9aaacd	0.30208436
172	0xbea1b2ac	-0.31581628
173	0xbc2d11e8	-0.010563351
174	0x3cb45c8c	0.022016786
175	0xbe766a69	-0.2406403
176	0x3bff5b54	0.0077928696
177	0xbe988590	-0.297894
178	0xbe4c057a	-0.19923964
179	0xbd8f201f	-0.069885485
180	0xbd4e81a7	-0.050416615
181	0xbd8e5ab9	-0.06950898
182	0x3c3b3878	0.011427037
183	0xbeb4b3ad	-0.35293332
184	0xbe16c9c0	-0.14725399
185	0xbd94f914	-0.072740704
186	0x3e33db7b	0.17564194
187	0xbeca1f7b	-0.39477143
188	0xbcdae7f1	-0.026721926
189	0x3e7abe24	0.24486595
190	0x3e948f77	0.29015705
191	0x3e5d7e5f	0.21630238
192	0x3dedc2fb	0.11609455
193	0xbdf890d1	-0.121369965
194	0x3d9bbade	0.076040015
195	0xbdad9134	-0.08474961
196	0xbdc95068	-0.098297894
197	0xbeae0e8c	-0.33995473
198	0xbda012a0	-0.078160524
199	0x3e129cb5	0.14317591
200	0x3dc236e4	0.09483126
201	0xbc397037	-0.011318258
202	0xbd1d5cd9	-0.038418625
203	0xbdfffe19	-0.12499637
204	0xbde584d6	-0.11206977
205	0x3e195b07	0.1497613
206	0x3e4f7bee	0.20262119
207	0xbda26a79	-0.07930464
208	0x3c94ddb7	0.018172128
209	0x3d88e220	0.06683755
210	0xbe5c7c26	-0.21531734
211	0xbe850f29	-0.2598813
212	0xbea9341c	-0.3304757
213	0xbe8f1965	-0.27949062
214	0xbe97633f	-0.29567906
215	0x3e943664	0.28947747
216	0x3e2b7b41	0.16746236
217	0x3ea7c734	0.32769167
218	0xbec4bd9b	-0.38425907
219	0x3c8d73a5	0.017267058
220	0x3d94a09f	0.072571985
221	0x3e845f1e	0.2585382
222	0x3d9962ac	0.07489523
223	0x3e5f10b5	0.21783717
224	0xbea88553	-0.32914218
225	0x3d4bb358	0.049731582
226	0x3e9300ed	0.28711644
227	0x3e9bd905	0.3043901
228	0x3e9efb96	0.3105132
229	0x3e9904ea	0.29886562
230	0xbba9a1be	-0.005176752
231	0x3ec25b23	0.37960157
232	0xbd18948e	-0.037251048
233	0x3ea6db02	0.32588965
234	0xbd92be76	-0.07165234
235	0xbe64b0a7	-0.22333013
236	0x3dc56696	0.09638707
237	0xbe83ad16	-0.25717992
238	0x3e93d28a	0.28871566
239	0xbe2c96f3	-0.16854458
240	0xbc72ff02	-0.014831306
241	0xbeafe998	-0.34357905
242	0x3d933d3e	0.071894154
243	0xbea5bf96	-0.3237273
244	0xbdb8a8ff	-0.090166084
245	0x3bad5505	0.005289676
246	0x3de1eb64	0.11031225
247	0xbebbfdeb	-0.36717162
248	0xbe796549	-0.24355043
249	0xbe7dec71	-0.24797226
250	0x3e602c8e	0.21891996
251	0x3dc853ae	0.09781586
252	0xbee42de7	-0.4456627
253	0x3e529cf5	0.20567687
254	0xbe189ae1	-0.14902832
255	0xbeb581d1	-0.35450605
