Comparative_Evaluation/Baselines/Transformer/models_m/model5.pt (torch, 552899 bytes, 54 tensors)

in_proj_weight f4 [30, 10]
0	0xbe16efcd	-0.14739914
1	0xbe69f23f	-0.22846316
2	0xbd91352d	-0.070902206
3	0x3e48f41d	0.19624372
4	0x3e9fd689	0.31218365
5	0xbbd66744	-0.006543072
6	0xbd22f33a	-0.03978274
7	0xbec886da	-0.39165384
8	0x3e0193da	0.12654057
9	0x3d059387	0.032611396
10	0x3dad9dba	0.084773496
11	0xbeb1736d	-0.34658375
12	0xbcea755a	-0.02862041
13	0xbe47ca69	-0.19510807
14	0x3dad72b1	0.08469141
15	0x3e8f538c	0.2799343
16	0xbda4e4c5	-0.08051447
17	0x3e81d63b	0.25358757
18	0xbeddfd51	-0.43357328
19	0x3ea572d7	0.32314178
20	0x3e93046b	0.28714308
21	0x3e2a96b3	0.1665905
22	0xbd345cc4	-0.04403378
23	0x3dfbe7b0	0.1230005
24	0x3e018656	0.12648901
25	0xbea3a0a2	-0.3195849
26	0x3e98dfd8	0.2985828
27	0x3eba72de	0.36415762
28	0x3e716a87	0.23575793
29	0xbdb5d6fc	-0.08878896
30	0xbe71cc48	-0.23613083
31	0xbd62652c	-0.055272266
32	0x3e10e865	0.14151151
33	0xbd62a529	-0.05533329
34	0x3ed043a1	0.40676597
35	0x3ed75128	0.42054105
36	0x3db692ee	0.08914743
37	0x3eab8c38	0.33505416
38	0xbe1eac52	-0.15495422
39	0x3daec0b4	0.08532849
40	0x3eb58394	0.3545195
41	0xbe82dc81	-0.25558856
42	0x3d3097b3	0.04311342
43	0xbe986561	-0.29764846
44	0x3cd65cd8	0.026167318
45	0xbe91830b	-0.2842029
46	0xbe26b039	-0.16278161
47	0x3c0b923a	0.00851875
48	0xbd190eff	-0.037367817
49	0x3e8a4981	0.27009204
50	0x3e41240b	0.18861406
51	0x3e849d3b	0.25901207
52	0x3e597a1f	0.21237992
53	0x3e08ccff	0.1335945
54	0x3e9375cd	0.28800812
55	0xbebfa3fd	-0.374298
56	0x3cb255da	0.021769453
57	0xbed4058b	-0.4141048
58	0xbe8bacca	-0.27280265
59	0xbde4b68d	-0.11167631
60	0xbdedb574	-0.11606875
61	0xbe997d97	-0.2997863
62	0x3e96be26	0.29441947
63	0x3e37db3f	0.1795473
64	0xbea80ae5	-0.32820812
65	0xbe1d3fb8	-0.15356338
66	0x3dfe489e	0.124161944
67	0x3e2bd721	0.16781284
68	0xbd8e8dd6	-0.06960647
69	0x3e42333d	0.18964858
70	0xbe8bb52c	-0.2728666
71	0x3e1ab0e5	0.15106542
72	0xbec2a4cd	-0.38016358
73	0xbea4c404	-0.32180798
74	0xbe81f819	-0.25384596
75	0xbeacc819	-0.33746412
76	0xbd853237	-0.06503718
77	0xbea0ed78	-0.31431174
78	0x3e7e1f60	0.24816656
79	0xbeb975e4	-0.36222756
80	0x3e2c8339	0.16846932
81	0xbe8fcc93	-0.28085765
82	0xbd48cd34	-0.049023822
83	0x3bd8d54b	0.0066172234
84	0xbe0736c7	-0.1320449
85	0x3ebe06ae	0.3711447
86	0x3e3db5ba	0.18526354
87	0x3ecc02ad	0.3984579
88	0x3eadbefb	0.3393477
89	0x3eb17f02	0.34667212
90	0xbd9f848a	-0.07788952
91	0xbe32a625	-0.17446192
92	0xbea0b208	-0.31385827
93	0xbe897441	-0.26846507
94	0x3de81daf	0.11333787
95	0xbeb86dd4	-0.36021292
96	0x3c12ec67	0.0089674955
97	0x3e6d5114	0.2317546
98	0xbe24af15	-0.16082413
99	0x3e009e98	0.12560499
100	0xbdd08dde	-0.10183309
101	0xbe14bbfb	-0.14524834
102	0xbcd815a1	-0.026377501
103	0x3e9c226a	0.30495006
104	0x3d267c4f	0.040645894
105	0xbe8b7677	-0.2723882
106	0xbe850092	-0.25976998
107	0x3d719d22	0.058987744
108	0xbe02d954	-0.12778217
109	0xbea41437	-0.32046673
110	0x3e87b45c	0.2650479
111	0xbe99e8e5	-0.30060497
112	0x3c75d5d9	0.015004599
113	0x3e81f238	0.2538011
114	0x3e245168	0.16046679
115	0xbe8f78db	-0.28021893
116	0x3e3ee1c6	0.18640813
117	0xbeac7206	-0.33680743
118	0x3ec05292	0.37562996
119	0xbe0119c9	-0.12607493
120	0x3eb4a5be	0.352827
121	0xbe87ac7b	-0.2649878
122	0xbd582a10	-0.05277449
123	0xbd0cc338	-0.034365863
124	0x3ee2c7ab	0.4429296
125	0xbe0c6dcb	-0.13713758
126	0x3e876563	0.2644454
127	0x3ddc8b60	0.10768771
128	0x3ed85a3b	0.4225634
129	0x3d0b71fe	0.03404426
130	0x3e938cb7	0.28818294
131	0xbe3ff2d1	-0.18744971
132	0x3ed6f986	0.41987246
133	0x3ed0d44f	0.4078698
134	0x3ec52de2	0.38511568
135	0x3e4af534	0.198201
136	0x3ea4f97a	0.32221586
137	0x3ddad5cb	0.10685309
138	0x3e9a049c	0.30081642
139	0xbcaff90c	-0.02148106
140	0x3e140c1a	0.14457741
141	0x3eafd050	0.34338617
142	0x3e16c72f	0.1472442
143	0x3e009374	0.12556249
144	0x3e08dd8f	0.13365768
145	0xbea1a8e4	-0.31574166
146	0xbd947198	-0.07248229
147	0xbe635de0	-0.22203779
148	0xbe1874ac	-0.14888257
149	0x3e816902	0.25275427
150	0xbe0db39e	-0.1383805
151	0x3e82896a	0.25495464
152	0xbe9d0703	-0.30669412
153	0xbebce231	-0.3689132
154	0x3e662af0	0.22477317
155	0xbe449e83	-0.19201092
156	0x3d943b0a	0.07237823
157	0xbe8b801d	-0.2724618
158	0xbed97fa6	-0.424802
159	0xbe86dc99	-0.26340178
160	0xbebe31ae	-0.37147278
161	0x3e582184	0.21106535
162	0xbe352f70	-0.17693877
163	0xbd0d28e5	-0.03446283
164	0xbc0cb4d7	-0.008588037
165	0x3ea96c7e	0.33090585
166	0x3e878088	0.2646525
167	0xbed5b136	-0.41736764
168	0xbe59bda5	-0.2126375
169	0x3e97b9da	0.2963398
170	0xbe7ae7ee	-0.24502537
171	0xbe40aa26	-0.18814906
172	0xbe213b04	-0.15745169
173	0xbe246f9c	-0.160582
174	0x3e5d816b	0.216314
175	0x3c7bd44f	0.0153704425
176	0xbe2af255	-0.16694005
177	0xbdd6a754	-0.10481134
178	0xbe9df470	-0.30850554
179	0xbedce6ef	-0.43144938
180	0x3e9c7e15	0.30564943
181	0xbe864bbf	-0.26229665
182	0xbe6c9e49	-0.23107256
183	0x3ea128cb	0.31476435
184	0x3eb88bbd	0.36044112
185	0x3ec55bed	0.38546696
186	0xbe00fbcf	-0.12596057
187	0x3e8d3d0a	0.27585632
188	0x3d70b774	0.058768705
189	0xbc283307	-0.010266072
190	0x3e14ec2f	0.14543222
191	0x3e854a9a	0.2603348
192	0x3ada27e2	0.0016643966
193	0xbe833697	-0.25627586
194	0xbee0b8e3	-0.43891057
195	0xbe90f220	-0.28309727
196	0xbee0ff9f	-0.43945023
197	0xbec66cf3	-0.38754997
198	0x3e966474	0.29373515
199	0x3c6888cd	0.014192772
200	0xbdf68bce	-0.120383844
201	0x3e537af7	0.20652376
202	0xbda8c29d	-0.082402445
203	0xbdc7e32a	-0.09760125
204	0x3e36a6d0	0.17837071
205	0x3db96ead	0.09054313
206	0xbe8e4484	-0.27786648
207	0xbe808d04	-0.25107586
208	0xbd343f50	-0.044005692
209	0xbe1ed72b	-0.15511768
210	0x3e954bec	0.29159486
211	0x3e8fec58	0.28110003
212	0xbe4aca61	-0.19803764
213	0xbe843910	-0.25824785
214	0x3e896a1f	0.26838776
215	0xbe9b1364	-0.3028823
216	0xbdfc5463	-0.12320783
217	0xbd5bee59	-0.053694103
218	0x3ed48cf7	0.41513798
219	0xbd12b72f	-0.03581923
220	0xbdde7527	-0.10862189
221	0xbd9ef8f9	-0.077623315
222	0xbdb7d690	-0.089764714
223	0x3d005af6	0.031336747
224	0xbe36f804	-0.17868048
225	0x3eca4edf	0.395133
226	0xbdc92633	-0.09821739
227	0x3ebea792	0.3723722
228	0x3da55a22	0.08073832
229	0x3db8f17d	0.09030435
230	0x3e564e0e	0.20928213
231	0x3e537fcd	0.20654221
232	0x3ede0d4c	0.4336952
233	0x3e427daa	0.1899325
234	0xbe8f37d2	-0.27972275
235	0xbe431f5b	-0.1905493
236	0x3e27415a	0.16333523
237	0x3dd3d595	0.10343472
238	0xbe56852c	-0.20949239
239	0xbd900625	-0.07032422
240	0xbcb58f3c	-0.022163026
241	0xbe2fbd51	-0.17162062
242	0xbe26601a	-0.16247597
243	0xbec94bd2	-0.3931566
244	0xbe94b432	-0.29043728
245	0xbd174e16	-0.036939703
246	0xbe74ebbb	-0.23918049
247	0xbecff9f2	-0.4062038
248	0x3d47ce73	0.04878087
249	0xbead10d8	-0.33801913
250	0x3ed11ac0	0.4084072
251	0xbd1ea066	-0.038727187
252	0x3da34273	0.079716586
253	0x3dfe1001	0.12405396
254	0x3ed4f5ba	0.41593724
255	0x3ec82258	0.39088702

in_proj_bias f4 [30]
0	0xbd8052b6	-0.06265776
1	0xbd624153	-0.05523808
2	0x3d816c24	0.06319454
3	0x3d640445	0.055668134
4	0x3d4306c9	0.047613893
5	0xbd56249e	-0.052281015
6	0x3d620703	0.05518247
7	0xbd4b22a6	-0.04959359
8	0x3d612e57	0.054975834
9	0xbd60816d	-0.05481093
10	0xba2243a8	-0.0006189891
11	0xbaf673e3	-0.0018802847
12	0xba9b4877	-0.0011847158
13	0x3a9a8972	0.001179023
14	0xbb3fee0a	-0.002928617
15	0xba7ab961	-0.0009564367
16	0xb9423400	-0.00018520653
17	0xb8d8bd00	-0.000103348866
18	0xbb28737d	-0.0025703602
19	0xba7a12ad	-0.0009539526
20	0x3d5886aa	0.0528628
21	0x3d7453cb	0.059650224
22	0x3d666448	0.05624798
23	0x3d575a89	0.052576575
24	0xbd5bca54	-0.053659752
25	0x3d68ea97	0.056864347
26	0xbd400e59	-0.046888683
27	0x3d536062	0.05160559
28	0xbd7042c6	-0.05865743
29	0x3d5dcc9d	0.054150213

weight f4 [10, 10]
0	0x3ddf38ef	0.10899531
1	0xbef8349d	-0.4847764
2	0xbe3234e9	-0.17402996
3	0xbca635cd	-0.020289326
4	0xbd336817	-0.04380044
5	0x3ed22604	0.4104463
6	0x3e2c7608	0.168419
7	0xbf0623dd	-0.52398473
8	0x3ef107cf	0.4707627
9	0x3a8278cc	0.0009954213
10	0x3ec1c8ef	0.37848613
11	0xbcbe8331	-0.023255916
12	0x3e22c59e	0.15895697
13	0x3e1aeef4	0.15130216
14	0xbf168136	-0.5879091
15	0x3f12ab28	0.57292414
16	0xbd72c43c	-0.059269175
17	0xbd15dbe9	-0.036586676
18	0x3e37c37b	0.17945664
19	0x3e933895	0.28754106
20	0xbec04c14	-0.37558043
21	0x3ef8f810	0.48626757
22	0x3e0ecb3f	0.1394472
23	0xbeed914f	-0.46399924
24	0x3ef4f0e3	0.47840032
25	0xbe9394be	-0.2882442
26	0x3f07a534	0.52986455
27	0x3e5d52d7	0.21613632
28	0x3e8dd195	0.2769896
29	0x3e958977	0.2920644
30	0xbdf821cd	-0.12115822
31	0x3e100874	0.14065725
32	0x3f1e0aaa	0.6173502
33	0x3e0301df	0.12793683
34	0xbede7d75	-0.4345509
35	0x3e923279	0.28554133
36	0x3ec2368d	0.37932244
37	0xbe2a3130	-0.16620326
38	0xbe1068d0	-0.14102483
39	0x3a93df0e	0.0011281685
40	0xbe470f15	-0.19439347
41	0x3e3063d9	0.17225589
42	0x3ef6c854	0.48199713
43	0xbd95a827	-0.07307463
44	0x3edd9df0	0.4328456
45	0xbe0a4202	-0.13501742
46	0xbe9cd45f	-0.30630776
47	0x3e8d3478	0.27579093
48	0xbe586a4a	-0.21134296
49	0x3ed86925	0.4226772
50	0x3e1790f7	0.14801393
51	0x3e7249c5	0.23660953
52	0x3ec69b1d	0.38790217
53	0xbe6fa3f2	-0.23402384
54	0xbe2d07e7	-0.16897546
55	0x3ece48a8	0.40289807
56	0x3e9927ff	0.29913327
57	0xbe32dca9	-0.17466988
58	0xbe3b8c9e	-0.1831536
59	0x3e5d2d1e	0.21599242
60	0x3e2371aa	0.15961328
61	0xbdb69f6b	-0.08917125
62	0xbebf04cc	-0.37308347
63	0xbe6b5e8f	-0.2298529
64	0x3f04a50a	0.5181433
65	0xbe0baa7f	-0.13639258
66	0xbedd2395	-0.4319121
67	0xbec2b815	-0.38031068
68	0x3e532906	0.20621118
69	0x3e5eb4a7	0.21748601
70	0xbe748c61	-0.23881675
71	0xbec0343d	-0.37539855
72	0x3f06f06a	0.5271059
73	0x3e92241b	0.2854317
74	0x3e995455	0.29947153
75	0x3f0073b3	0.50176543
76	0x3e4e02f8	0.2011832
77	0xbcee079f	-0.029056368
78	0xbeed03ba	-0.46291906
79	0x3e2be494	0.16786414
80	0xbeb43570	-0.3519702
81	0x3e95e572	0.29276615
82	0x3cdb398c	0.026760839
83	0xbe0bf701	-0.13668443
84	0x3eb6ee13	0.3572851
85	0x3e9e2938	0.30890822
86	0x3ee7aa3e	0.45247072
87	0x3d9b65c8	0.075877726
88	0xbf057593	-0.5213253
89	0x3df98972	0.12184419
90	0xbe94f385	-0.2909204
91	0xbed19f35	-0.40941778
92	0x3e3c495d	0.18387361
93	0x3eefe90e	0.46857494
94	0xbe6faf10	-0.23406625
95	0x3f051d39	0.51997715
96	0x3e569975	0.20956977
97	0x3f0d1afc	0.551193
98	0xbd6b4b99	-0.057445142
99	0xbe9a63fd	-0.3015441

bias f4 [10]
0	0xbd5945ea	-0.05304519
1	0x3d5a25db	0.053258758
2	0xbd585938	-0.05281946
3	0x3d720118	0.059083074
4	0x3d5585b2	0.052129455
5	0xbd4bc0ed	-0.049744535
6	0xbd64ee3c	-0.05589126
7	0x3d7bbfee	0.061462335
8	0xbd51bb01	-0.05120373
9	0x3d3f49e2	0.04670132

weight f4 [2048, 10]
0	0xbc273b61	-0.010207028
1	0x3db95ea8	0.09051257
2	0xbc8eddce	-0.01743975
3	0x3dbbc0d3	0.09167638
4	0xbc6927ca	-0.014230678
5	0x3da50a63	0.08058622
6	0xbdd4e6fc	-0.10395619
7	0x3dde34e7	0.10849934
8	0xbcf5f7f8	-0.030025467
9	0x3ce33980	0.02773738
10	0x3d10d385	0.03535797
11	0xbdbfc664	-0.09364012
12	0xbd81cd5a	-0.06337996
13	0x3c0c3a19	0.008558773
14	0xbc595806	-0.013265615
15	0x3cfb1519	0.030649709
16	0xbc71eba0	-0.01476565
17	0x3d335dba	0.043790556
18	0x3dd3bf41	0.10339213
19	0x3dd69852	0.104782715
20	0xbd0679e9	-0.032831106
21	0x3d1af76f	0.037833627
22	0x3db55ea0	0.08855939
23	0xbd7026bb	-0.058630686
24	0x3d5d230c	0.0539885
25	0xbb1e4ec8	-0.0024155844
26	0x3d942e99	0.0723545
27	0x3dc546c6	0.096326396
28	0xbd978007	-0.07397466
29	0xbd203212	-0.03911025
30	0xbc09c537	-0.008408836
31	0x3b70fbb2	0.0036771116
32	0xbbf6f4dc	-0.0075365137
33	0xbb2d795d	-0.0026470043
34	0x3c092e4f	0.008372857
35	0xbb00f7bc	-0.0019678911
36	0xba40b078	-0.00073505146
37	0x3c13b4e2	0.009015294
38	0xbc0e102a	-0.008670846
39	0x3ab53831	0.001382595
40	0x3d48d7df	0.049033996
41	0x3dca6a71	0.09883583
42	0xbde10d81	-0.10988904
43	0x3dda8cc2	0.10671379
44	0xbdc449e0	-0.09584403
45	0x3d53c47c	0.051701054
46	0xbd5c2f6a	-0.053756155
47	0x3d4c0e20	0.04981816
48	0x3d39174c	0.045188233
49	0x3d982a3a	0.07429929
50	0x3a114b52	0.00055425346
51	0x3b843702	0.0040348778
52	0xbc123580	-0.008923888
53	0xbb314800	-0.0027050972
54	0xba997bc8	-0.0011709863
55	0x3ad43e9c	0.0016192975
56	0x3ab3fae9	0.0013731393
57	0xbb10ba93	-0.0022083863
58	0x3c0b4843	0.008501115
59	0x3b88f93a	0.0041801007
60	0x3d6dc535	0.0580494
61	0x3d2fd06b	0.042923372
62	0x3ddefc81	0.10888005
63	0x3c1b3cf8	0.009474985
64	0x3da513df	0.08060431
65	0xbd2bc80f	-0.041938838
66	0x3d07d02c	0.033157513
67	0xbd9a2df9	-0.075283
68	0x3c6e666b	0.0145507855
69	0xbdaef4bb	-0.085427724
70	0xba8e021b	-0.0010834368
71	0x3a816bfe	0.0009874103
72	0x3c104560	0.008805603
73	0x3b0f0c13	0.0021827265
74	0x3be2ceaf	0.0069216113
75	0x3bb62792	0.0055589164
76	0x398b3630	0.0002655252
77	0xb9e129ac	-0.00042946392
78	0xb92b0008	-0.00016307842
79	0x3a137060	0.000562435
80	0xbdad8af8	-0.08473772
81	0xbd0c4638	-0.034246653
82	0x3d8753ea	0.06607802
83	0xbd4e0359	-0.05029616
84	0x3dac1c7b	0.0840387
85	0xbdbc2ca3	-0.09188201
86	0x3d682856	0.056679092
87	0xbce0c17e	-0.027436014
88	0xbcb323b4	-0.02186761
89	0xbd379715	-0.044821817
90	0xbcb46db6	-0.02202497
91	0x3d07e3eb	0.033176344
92	0x3d846c79	0.06466002
93	0xbc7e51bd	-0.015522418
94	0xbb80ea90	-0.003934212
95	0x3c6d940d	0.01450063
96	0xbb982519	-0.0046430943
97	0xbc2e7900	-0.010648966
98	0xbba99a33	-0.0051758527
99	0xbde51bdd	-0.11186955
100	0x3d90d057	0.07070988
101	0x3969683e	0.00022259445
102	0xbcc6f600	-0.024287224
103	0x391e8e58	0.00015121081
104	0xbcfe33d6	-0.031030577
105	0x3da1f342	0.07907726
106	0xbc370797	-0.011171243
107	0x3da5db0a	0.08098419
108	0x3d86ccf4	0.065820605
109	0x3d9b27ea	0.075759724
110	0x3d42968a	0.047506846
111	0x3c4785c9	0.012177893
112	0xbd93b2e0	-0.07211852
113	0x3d027d14	0.031857565
114	0xbd5eff9b	-0.054442983
115	0x3cbfbbce	0.023404982
116	0xbd0c3bf1	-0.034236852
117	0xbc74efd1	-0.014949755
118	0x3d673147	0.05644348
119	0x3d040e9a	0.032240488
120	0xbc15fe5f	-0.009154885
121	0xba859138	-0.0010190373
122	0xb8ae940c	-8.3245424e-05
123	0x393bfd90	0.00017928169
124	0x3c1405f4	0.009034622
125	0xbc168651	-0.009187297
126	0xbab36826	-0.0013687655
127	0x3c159d81	0.00913179
128	0x3c0f18f4	0.008733977
129	0xbc09021e	-0.008362321
130	0xbacbf7bc	-0.0015561501
131	0x3b178b48	0.002312379
132	0xbb0f8af2	-0.0021902886
133	0xbbc8d0bf	-0.0061284
134	0x3ba958df	0.005168065
135	0x3c97dbe3	0.018537467
136	0xbb5e3be4	-0.003391021
137	0xbbbcfd39	-0.005767491
138	0xbb75b41a	-0.0037491382
139	0x3ab21a14	0.0013588094
140	0x3d9f8283	0.07788565
141	0x3c901550	0.017588288
142	0x3d90d156	0.07071178
143	0xbd0805ba	-0.033208586
144	0x3db4cbdb	0.08827945
145	0xbd6c5570	-0.057698667
146	0x3dcc688c	0.09980878
147	0xbd7c183e	-0.061546557
148	0x3d80b976	0.06285374
149	0xbdc8685a	-0.097855285
150	0x3dc35261	0.09537197
151	0x3da73753	0.08164849
152	0xbdad2358	-0.08454007
153	0x3dcd79df	0.10033011
154	0xbddb0836	-0.106949255
155	0xbcbd86a8	-0.023135498
156	0xbcd9ee91	-0.026603015
157	0xbce45093	-0.027870452
158	0xbc8871b2	-0.016655777
159	0x3ccc0f09	0.024909513
160	0xbdac2077	-0.0840463
161	0xbd188b34	-0.03724213
162	0x3dccd6e3	0.10001924
163	0xbd567e04	-0.05236627
164	0x3d859de2	0.065242544
165	0xbdb28865	-0.087174214
166	0x3d8478e8	0.064683735
167	0x3d7acfd3	0.061233353
168	0xbd7bc124	-0.06146349
169	0x3a8e876e	0.0010874101
170	0x3d05137c	0.032489285
171	0x3c593ca7	0.01325909
172	0x3db96090	0.09051621
173	0xbce3fe04	-0.027831085
174	0x3cd4e4d0	0.025988013
175	0xbdc519c1	-0.09624053
176	0x3bfa9922	0.0076476494
177	0xbac91d47	-0.0015343808
178	0xbd20728e	-0.039171748
179	0xbd8063ad	-0.06269012
180	0x3d5b9f82	0.053618915
181	0xbcb75b4b	-0.022382399
182	0x3d39eb37	0.045390334
183	0xbd05f5de	-0.03270518
184	0xbcc6c6f0	-0.024264783
185	0x3c1d3735	0.009595682
186	0x3d3fa8bb	0.046791773
187	0xbc980de9	-0.01856132
188	0x3d7169da	0.05893884
189	0xbc4d4dde	-0.012530772
190	0xbce48a73	-0.027898049
191	0xbd878995	-0.066180386
192	0xbdcb5308	-0.09927946
193	0x3ca77958	0.020443603
194	0xbd03982f	-0.032127555
195	0x3cfc7ec2	0.030822162
196	0xbd626583	-0.05527259
197	0x3c537b05	0.012907748
198	0x3984e690	0.00025348784
199	0x3d996456	0.07489841
200	0x3dde6144	0.10858396
201	0x3d8e59cd	0.06950722
202	0xbda790fe	-0.08181952
203	0x3c688b49	0.014193364
204	0xbdb6b5d1	-0.089213975
205	0x3d92032a	0.0712951
206	0xbd6f3697	-0.05840167
207	0xbdc6514c	-0.09683475
208	0x3da7cf8f	0.081938855
209	0x3d72e9bc	0.059304938
210	0x3dafad3c	0.08577964
211	0xbcf72c14	-0.030172385
212	0x3d377dd0	0.04479772
213	0xbcfa488b	-0.03055217
214	0xbce3e6d0	-0.02782002
215	0xbdbe1e39	-0.09283108
216	0x3d357c7f	0.04430818
217	0xbcce6ac6	-0.025197398
218	0xba83e7ba	-0.0010063567
219	0xbd338575	-0.043828446
220	0xbd3b564b	-0.045736592
221	0x3d42d83c	0.0475695
222	0xbd41bf12	-0.04730136
223	0x3d031c0d	0.032009173
224	0x3d338265	0.043825526
225	0xbcf937cb	-0.030422112
226	0xbd611710	-0.054953635
227	0x3ce34caa	0.027746517
228	0xbd1bdbc8	-0.038051397
229	0x3d31460d	0.043279696
230	0xbc9f61bf	-0.019455789
231	0x3d4af059	0.04954562
232	0x3d5d55ea	0.054037012
233	0xbd189266	-0.03724899
234	0x3d6275da	0.055288173
235	0xbdb6a52f	-0.08918225
236	0x3d06d4ce	0.03291779
237	0x3d8f3b83	0.06993773
238	0xbd0d0bf0	-0.034435213
239	0xbdaec159	-0.08532972
240	0x3b51ceed	0.0032014207
241	0xb888ca80	-6.522704e-05
242	0x3b8b7233	0.004255557
243	0x3bcb5255	0.006204883
244	0x3c09e350	0.008416012
245	0x3a8dc430	0.0010815915
246	0xbab26afe	-0.0013612208
247	0x3b7b50f5	0.0038347815
248	0xbc070265	-0.008240317
249	0xbb1563e8	-0.0022795144
250	0x3d30254f	0.04300433
251	0xbd0b8bd5	-0.0340689
252	0x3d76279f	0.06009638
253	0x3d90f7d5	0.0707852
254	0xbbb49c30	-0.005511783
255	0xbd3920fd	-0.045197476

bias f4 [2048]
0	0x3e929fc3	0.28637514
1	0x3e80eb5f	0.25179574
2	0x3df3fc17	0.11913317
3	0xbd9de392	-0.07709421
4	0x3eb7d20f	0.3590245
5	0xbdb1cbf9	-0.08681483
6	0x3e5babed	0.21452303
7	0xbda16588	-0.07880694
8	0x3e73d0f6	0.23810181
9	0xbc33c631	-0.0109725455
10	0x3ea74166	0.32667083
11	0x3e809699	0.25114897
12	0xbde9b5ba	-0.11411615
13	0x3be96501	0.0071226363
14	0x3d870dc0	0.065944195
15	0xbd1aed38	-0.037823886
16	0x3e040760	0.12893438
17	0x3e141492	0.14460972
18	0xbe198e85	-0.14995773
19	0x3e48ac1d	0.19596906
20	0xbd5c5ce0	-0.05379951
21	0xbe26b2c0	-0.16279125
22	0x3d064c38	0.03278753
23	0x3e373831	0.17892529
24	0xbd9a5110	-0.07534993
25	0xbdc6bdec	-0.097041935
26	0x3d5b5406	0.053546928
27	0x3e968062	0.29394823
28	0x3e02ea3f	0.1278467
29	0xbd6791b5	-0.05653544
30	0x3d5b9088	0.053604633
31	0xbd595f81	-0.053069595
32	0x3e880c92	0.2657209
33	0xbd522840	-0.051307917
34	0xbd72c728	-0.05927196
35	0x3ea37f50	0.3193307
36	0xbc4e6494	-0.012597222
37	0x3dc65f5a	0.096861556
38	0x3c997259	0.018731283
39	0xbdcedc90	-0.10100663
40	0xbc3c8634	-0.011506606
41	0xbb408cf4	-0.002938089
42	0x3e1877ae	0.14889404
43	0xbd2c748f	-0.042103346
44	0xbdb7903d	-0.08963058
45	0x3e9a031e	0.30080503
46	0x3e3ac2b3	0.18238334
47	0x3e804799	0.25054625
48	0x3e2eb5cf	0.17061542
49	0xbc1e3534	-0.009656239
50	0x3e89571f	0.2682428
51	0xbda01a7c	-0.078175515
52	0xbd4a2384	-0.049350277
53	0x3e1f3c57	0.15550362
54	0xbd7dd715	-0.061972696
55	0xbdedff95	-0.11621014
56	0x3c5c2b85	0.01343811
57	0xbd8700d6	-0.06591956
58	0x3e6bcdfc	0.23027796
59	0xbdf9cca3	-0.121972345
60	0xbe3a6104	-0.18201071
61	0x3dd27737	0.10276645
62	0x3b3633d4	0.0027801888
63	0x3cab0646	0.020877015
64	0x3e256e21	0.16155292
65	0x3e946f4e	0.2899117
66	0xbcbbebb0	-0.022939533
67	0xbdac97a7	-0.08427363
68	0x3d21c647	0.039495733
69	0x3e870662	0.26372057
70	0xbd8d7b7e	-0.0690832
71	0x3e06f319	0.13178672
72	0xbe5ec8cd	-0.21756287
73	0xbdea5a3e	-0.114429936
74	0xbd302a0c	-0.04300885
75	0x3e097322	0.13422826
76	0x3cd19ea3	0.02558834
77	0xbdaf0baa	-0.085471466
78	0x3e04d60b	0.12972276
79	0x3e5b0a07	0.21390544
80	0x3e0c220a	0.1368486
81	0x3e4b437f	0.19849966
82	0x3d9ebb3a	0.077505544
83	0x3cb1d613	0.021708524
84	0x3ea59500	0.3234024
85	0x3e8c3769	0.27386025
86	0xbd2c00e6	-0.041993044
87	0x3bbdaa90	0.005788155
88	0xbcaf50f1	-0.0214009
89	0x3d9eb8c9	0.07750089
90	0xbd7ee5c1	-0.06223083
91	0x3e112174	0.14172918
92	0xbd0f8945	-0.03504302
93	0x3e3ca236	0.18421254
94	0x3e2a93f3	0.16658
95	0x3e6161df	0.22009991
96	0x3d37fc5f	0.044918414
97	0xbca505d6	-0.020144384
98	0xbbc076f1	-0.005873554
99	0x3d388202	0.04504586
100	0x3d90dab0	0.07072961
101	0xbd830889	-0.06398112
102	0xbe57d7fc	-0.21078485
103	0x3c662a37	0.014048151
104	0x3e847a54	0.2587458
105	0xbb2027cc	-0.0024437783
106	0xbe435fd2	-0.19079521
107	0x3ea8e345	0.32985893
108	0x3e0c57df	0.13705395
109	0x3e534784	0.2063275
110	0x3e564aff	0.20927046
111	0xbc7847e0	-0.015153855
112	0xbdb8d01f	-0.09024071
113	0xbc9f934d	-0.019479418
114	0x3d2c73f9	0.042102788
115	0xbd742f87	-0.059615638
116	0x3d2ac9b8	0.04169628
117	0x3da4c5d2	0.08045544
118	0x3ccdff21	0.025146069
119	0xbddcc7e4	-0.107803136
120	0xbd90b30a	-0.07065399
121	0x3e48a48b	0.19594018
122	0xbe011239	-0.12604608
123	0xbd2f8939	-0.042855475
124	0xbdc7c762	-0.09754826
125	0xbd824ae6	-0.06361942
126	0x3e25901a	0.16168252
127	0x3e28f5be	0.16499993
128	0x3dc53d25	0.09630803
129	0xbc06c6b7	-0.008226088
130	0x3b714f7f	0.0036821065
131	0xbdc1cd8b	-0.09463032
132	0x3ebb8575	0.36625257
133	0xbded6591	-0.11591638
134	0xbcb795b0	-0.022410244
135	0xbd65735b	-0.056018215
136	0x3e30480f	0.17214988
137	0x3e1ecd63	0.15508036
138	0xbdadb14b	-0.084810816
139	0xbdb3f5df	-0.087871306
140	0xbcca7877	-0.024715645
141	0x3e5594b7	0.20857511
142	0x3df2028f	0.11816894
143	0x3eb24ffe	0.34826654
144	0xbcaebbfa	-0.021329869
145	0xbdbbed5f	-0.09176134
146	0xbdfcd4ab	-0.12345251
147	0x3d4f2cf8	0.050579995
148	0xbd907cd6	-0.070550606
149	0xbdf64881	-0.12025548
150	0x3dd290a3	0.102814935
151	0x3e253469	0.16133274
152	0xbc4beafa	-0.0124461595
153	0xbc1c1f03	-0.009528878
154	0xbcedb266	-0.029015731
155	0x3e2fa038	0.17150962
156	0x3cdd0dfb	0.026984205
157	0xbd8a8afd	-0.06764791
158	0xbc453895	-0.012037416
159	0xbc0b71ac	-0.008510988
160	0x3dbbb36c	0.091650814
161	0x3e8ba107	0.27271292
162	0x3da248c9	0.07924039
163	0xbe2399a5	-0.1597658
164	0x3eb235c9	0.3480666
165	0x3dcce890	0.10005295
166	0x3d3eb81d	0.046562303
167	0x3db52dfe	0.08846663
168	0x3d8cc8e5	0.06874255
169	0x3d0fe35d	0.03512894
170	0xbe39bfd8	-0.18139589
171	0x3d9657db	0.07340976
172	0x3e5512cd	0.20807953
173	0x3e4c5e44	0.19957834
174	0xbd467b29	-0.0484573
175	0xbd7147b8	-0.058906287
176	0x3e002565	0.12514265
177	0x3ea38665	0.31938472
178	0xbacea760	-0.0015766434
179	0xbe25daa4	-0.16196686
180	0xbc57fba9	-0.013182559
181	0x3d09726b	0.033556383
182	0x3e8aab61	0.27083877
183	0xbda438b8	-0.08018631
184	0x3e658e6e	0.22417614
185	0x3e763159	0.24042262
186	0xbe4c4d42	-0.19951347
187	0xbdfdc70d	-0.123914815
188	0xbd373154	-0.044724777
189	0xbd8a213e	-0.06744622
190	0x3e379918	0.17929494
191	0xbbb45f9b	-0.005504561
192	0xbc1cf92b	-0.009580891
193	0xbca2d940	-0.019878983
194	0xbda2404e	-0.079224214
195	0x3dabae4b	0.08382853
196	0xbdc0842e	-0.09400211
197	0xbd96dad3	-0.07365956
198	0x3ca6eb46	0.020375859
199	0xbcf40355	-0.029786745
200	0xbdc9eef1	-0.098600276
201	0x3e6d4713	0.23171644
202	0x3e9b15f9	0.302902
203	0x3e3de832	0.18545607
204	0x3d4e44e2	0.05035866
205	0x3e7502b8	0.23926818
206	0xbdc779c6	-0.09740023
207	0x3e75a32e	0.2398803
208	0xbd51e808	-0.051246673
209	0x3d810857	0.06300419
210	0x3ebc38e3	0.3676215
211	0x3e4363cd	0.1908104
212	0x3e0dc1f9	0.13843526
213	0x3ea7f418	0.32803416
214	0xbc2964ae	-0.010338945
215	0x3c5d56b2	0.013509439
216	0x3d0a1251	0.033708874
217	0xbb7afdf2	-0.0038298336
218	0x3eb87740	0.3602848
219	0xbe5147ac	-0.20437497
220	0x3e9c511a	0.30530626
221	0xbdcb6b5d	-0.09932587
222	0x3bc55463	0.0060220226
223	0xbe1fea33	-0.15616684
224	0x3e4d1ef2	0.20031336
225	0xbc10abdf	-0.00883004
226	0x3d55e978	0.052224606
227	0xbd2ae7c4	-0.041724935
228	0x3db7abb7	0.08968299
229	0xbd94d135	-0.072664656
230	0xbd639b0e	-0.055567794
231	0x3ddac0f8	0.10681337
232	0x3e241e72	0.16027239
233	0x3e3ec783	0.18630795
234	0x3eb3741e	0.35049528
235	0x3e10ac78	0.14128292
236	0x3d1e6ab2	0.03867597
237	0x3e138777	0.14407144
238	0x3e8f7c3a	0.28024465
239	0xbdaba552	-0.08381142
240	0x3ea73ff7	0.3266599
241	0x3deb69c1	0.1149478
242	0xbd0588bd	-0.032601107
243	0xbd95d40e	-0.07315837
244	0xbca0f685	-0.0196488
245	0x3e3f095b	0.18655913
246	0x3c8bc4b0	0.017061561
247	0x3e0efc93	0.13963537
248	0xbce414a0	-0.027841866
249	0x3d7070fe	0.058701508
250	0xbcbdd6a8	-0.023173645
251	0xbd79c358	-0.06097731
252	0x3d81e438	0.063423574
253	0x3e7797ed	0.24179049
254	0x3db09f8f	0.086241834
255	0x3e80ee40	0.2518177

weight f4 [10, 2048]
0	0xbc9b5f92	-0.01896647
1	0xbda321c8	-0.07965428
2	0xbc502aa5	-0.01270548
3	0x3c0ccb5b	0.008593406
4	0xbdc19b91	-0.094535
5	0x3af9a8f2	0.0019047542
6	0xbd19be49	-0.037534986
7	0x3ae873a1	0.0017734655
8	0xbd2624f9	-0.040562604
9	0x3c42ed2f	0.011897369
10	0xbd631c30	-0.055446804
11	0xbd8e17de	-0.06938146
12	0xbabc5a04	-0.0014370088
13	0xbb94689a	-0.004529071
14	0xbc3d595c	-0.0115569495
15	0xbcae509b	-0.02127867
16	0xbca5dfce	-0.02024832
17	0xbccc6b3b	-0.024953475
18	0xbd9baa18	-0.07600802
19	0xbcebbb00	-0.028775692
20	0xbd050d8f	-0.032483634
21	0xbd6a856d	-0.05725615
22	0xbd3fc337	-0.04681703
23	0xbdc0398a	-0.09385975
24	0xba8620f6	-0.0010233212
25	0xbce92536	-0.028460126
26	0xbd9088eb	-0.07057365
27	0xbda9ddd7	-0.08294266
28	0xbd9c04f6	-0.07618134
29	0xbc13dc35	-0.009024669
30	0x3a9ce645	0.0011970481
31	0xbb16cbe8	-0.0023009721
32	0xbdb2633b	-0.08710333
33	0x3bbc5cfa	0.0057483884
34	0xbbda4b63	-0.006661819
35	0xbd159a28	-0.036523968
36	0xbd270a39	-0.040781233
37	0xbd8846b4	-0.066541106
38	0xbd32303c	-0.04350303
39	0xbd1e442b	-0.03863923
40	0x3acc3018	0.0015578298
41	0xbb1cb7c4	-0.0023913244
42	0xbd2e70a8	-0.042587906
43	0xbcb221fe	-0.021744724
44	0x3a8733ba	0.0010315098
45	0xbca5a1a6	-0.020218682
46	0xbdafcd94	-0.08584133
47	0xbd4e1b0c	-0.050318763
48	0xbdc4d43a	-0.096107915
49	0x3c168f88	0.009189494
50	0xbd9c9939	-0.076464124
51	0xbb8e7cd6	-0.0043483777
52	0x3d392e8c	0.045210406
53	0xbd829bb1	-0.06377352
54	0xbdab865e	-0.08375238
55	0xbb144f82	-0.0022630398
56	0xbd64e730	-0.05588454
57	0xbc1af0c4	-0.009456817
58	0xbd1e3b84	-0.038630977
59	0xba096b4e	-0.0005242125
60	0xbcc3026e	-0.02380487
61	0xbd8732e0	-0.066015005
62	0x3be373b7	0.0069412845
63	0xbd8a6598	-0.06757659
64	0xbdb4aa86	-0.08821587
65	0xbd8e424d	-0.069462396
66	0xbd7c770c	-0.06163697
67	0x3d16710a	0.036728896
68	0xbc1cc725	-0.009568964
69	0xbc0799b4	-0.008276392
70	0xbd0af82b	-0.033928078
71	0xbde9b99a	-0.11412354
72	0x3cedca9d	0.029027278
73	0x3c0f029e	0.008728651
74	0xbbac283c	-0.0052538197
75	0xbd590906	-0.05298712
76	0xbab44ff4	-0.0013756738
77	0xbc9696f6	-0.01838253
78	0xbd864bf4	-0.06557456
79	0xbd6f47a9	-0.05841795
80	0xbda3c638	-0.079967916
81	0xbd44a3c4	-0.04800774
82	0xbda9af18	-0.082853496
83	0xbd852c9f	-0.065026514
84	0xbd772efa	-0.060347535
85	0xbccf898d	-0.025334144
86	0x3c0d7d11	0.008635775
87	0x3bd4014e	0.006469882
88	0xbca521d9	-0.020157741
89	0xbd5f7271	-0.0545525
90	0xbc3b4897	-0.011430881
91	0xbd8766ef	-0.0661143
92	0xbcb10c2b	-0.021612247
93	0xbbfb680f	-0.007672317
94	0xbd0cc446	-0.03436687
95	0xbd76abf1	-0.06022257
96	0xbd2d1e23	-0.04226507
97	0x39fb9634	0.0004798636
98	0xbd3de670	-0.04636234
99	0xbd33267b	-0.04373787
100	0xbd6a787a	-0.0572438
101	0x3d151989	0.036401305
102	0xbd442093	-0.047882628
103	0x3caf88b0	0.021427482
104	0xbd1d4f20	-0.038405538
105	0xbc89c78d	-0.016818786
106	0xbdd5ff80	-0.104491234
107	0xbdc17627	-0.09446364
108	0xbdb01307	-0.08597379
109	0xbb75fd9d	-0.0037535198
110	0xbdb4b8bd	-0.088242985
111	0xbc9ee870	-0.019397944
112	0x3b1b4f2a	0.0023698309
113	0x3c2bfbbc	0.01049703
114	0xbd5987ff	-0.05310821
115	0x3d32f81a	0.04369364
116	0xbd55efb8	-0.052230567
117	0x3dd48ebc	0.10378787
118	0xbd93a6a9	-0.07209522
119	0xbc0fe3f9	-0.00878238
120	0x3d6cd20b	0.0578175
121	0xbdb1dcd5	-0.086846985
122	0x3c15d0c9	0.009144017
123	0x3aeef5c6	0.0018231205
124	0xbc028b46	-0.007967776
125	0xbb8b3ccf	-0.0042491923
126	0xbd429b7b	-0.04751156
127	0xbd98920e	-0.07449733
128	0xbbc0f2f1	-0.005888336
129	0xbd753087	-0.059860732
130	0xbc6f1ab9	-0.0145937735
131	0x3c854f8f	0.016273288
132	0xbd63350c	-0.05547051
133	0x3c13ddb1	0.009025023
134	0x3ada69d1	0.0016663616
135	0xbd1cefcd	-0.03831463
136	0xbd94a7f9	-0.07258601
137	0xbd58c3c5	-0.052921075
138	0xbd71248d	-0.05887275
139	0x3c165c0e	0.009177221
140	0x3b8c8674	0.004288489
141	0xbcf9b25e	-0.03048056
142	0xbc778111	-0.015106455
143	0xbda2b3e5	-0.079444684
144	0xbd1f7491	-0.038929526
145	0x3b111fdb	0.0022144231
146	0x3c158e5a	0.009128178
147	0xbdacaf18	-0.08431834
148	0x39f3a82a	0.00046473864
149	0xbd2bdfb4	-0.041961387
150	0xbd02d8eb	-0.03194515
151	0xbdc4e802	-0.096145645
152	0xbcc072df	-0.023492275
153	0x3beeff62	0.0072936276
154	0xbd705afb	-0.058680516
155	0xbdb84715	-0.08997933
156	0xbd52774b	-0.051383298
157	0xbc168c1b	-0.009188677
158	0x3bf65531	0.00751748
159	0x3c817608	0.015803352
160	0xbda9c711	-0.08289922
161	0xbd9513b3	-0.07279148
162	0xbcfaef82	-0.030631784
163	0xbd3d880d	-0.046272326
164	0xbdc1e5c8	-0.094676554
165	0xbd9ca2aa	-0.07648213
166	0xbc8e4582	-0.017367128
167	0xbd797ab7	-0.060908046
168	0xbc86984c	-0.016430043
169	0xbdd35f82	-0.10320951
170	0xbd3901dd	-0.045167793
171	0xbc5b744e	-0.013394428
172	0xbd133f48	-0.03594902
173	0xbdaf3514	-0.08555046
174	0x3a8b1547	0.00106112
175	0xbc1320df	-0.008980005
176	0xbdb98219	-0.09058017
177	0xbce72df4	-0.028220154
178	0x3b955f64	0.0045584906
179	0xbde25f83	-0.11053374
180	0x3d1bd25f	0.038042422
181	0xbdc80219	-0.09766025
182	0xbda11dca	-0.0786701
183	0xb9f7b1b8	-0.00047243922
184	0xbdd6d4fc	-0.10489842
185	0xbcb643ee	-0.022249188
186	0xbd031273	-0.032000016
187	0xbdef5a32	-0.11687125
188	0xbcc03112	-0.023460899
189	0x3c163d1e	0.009169845
190	0xbda95a04	-0.08269122
191	0xbc380721	-0.011232168
192	0x3b83171c	0.0040005576
193	0xbd577dfb	-0.05261038
194	0xba975364	-0.0011545238
195	0xbce15123	-0.02750451
196	0xbdd3999f	-0.10332035
197	0x3b46e766	0.0030350327
198	0xbbfa10f9	-0.007631418
199	0xbcb4d994	-0.022076406
200	0x39977aa0	0.00028892327
201	0xbd9be1bd	-0.076114155
202	0xbc81d6fd	-0.015849585
203	0xbdad1f8a	-0.08453281
204	0xbd39c782	-0.04535628
205	0xbd7e6481	-0.062107567
206	0x3a4b7d8e	0.00077625446
207	0xbdd180c5	-0.10229639
208	0x3bda554c	0.006663
209	0xbd49cb88	-0.04926637
210	0xbd051242	-0.032488115
211	0xbd56861a	-0.052373983
212	0xbda68bcc	-0.08132133
213	0xbdbe4e04	-0.09292224
214	0xbc9e8fe4	-0.019355722
215	0x3aec88dd	0.001804616
216	0xbdce8179	-0.10083289
217	0x3a5cc474	0.0008421608
218	0xbc62aa21	-0.013834507
219	0xbd57eecc	-0.05271797
220	0xbda7c4a9	-0.08191807
221	0xbb76e1dd	-0.0037671246
222	0xbcd153f2	-0.025552724
223	0xbd8f2c50	-0.06990874
224	0xbddbd8c7	-0.10734706
225	0xbdb1391a	-0.086534694
226	0xbd6c0b2d	-0.057627846
227	0xba4cfd44	-0.0007819722
228	0xbc9ae7f8	-0.01890944
229	0x3c0c99f9	0.008581632
230	0xbdc92942	-0.098223224
231	0xbd3752f2	-0.044756837
232	0xbc4e26ac	-0.012582462
233	0xbcc8170f	-0.024425058
234	0xbdb9d2b0	-0.090733886
235	0xbd6053be	-0.054767363
236	0xbcd7782f	-0.026302425
237	0xbc092c03	-0.00837231
238	0xbdcaf997	-0.09910887
239	0x3c09ca1a	0.008410001
240	0xbd3a590f	-0.04549509
241	0xbdc2e853	-0.095169686
242	0xbd153f81	-0.036437515
243	0x3a1deb88	0.00060241716
244	0x3a3bf7b0	0.0007170392
245	0xbd94e30b	-0.072698675
246	0xbd25ad43	-0.04044844
247	0xbda9bfeb	-0.082885586
248	0xbcbf7308	-0.02337028
249	0x3d11bf5b	0.03558288
250	0xbdbb3b36	-0.09142153
251	0x3ccb7370	0.024835318
252	0xbd884869	-0.06654436
253	0xbce99d46	-0.028517377
254	0xbdb6ad82	-0.08919813
255	0xbda6100c	-0.081085294

bias f4 [10]
0	0xbd946fa3	-0.072478555
1	0x3d352613	0.044225764
2	0xbd457e79	-0.048216317
3	0x3d96ece5	0.07369403
4	0x3d81241a	0.06305714
5	0xbd3073b1	-0.043079082
6	0xbd91312d	-0.07089458
7	0x3d843a2c	0.06456408
8	0xbd1575d8	-0.036489338
9	0x3c4ce0aa	0.012504736

weight f4 [10]
0	0x3f72be2e	0.9482144
1	0x3f866a0f	1.0501117
2	0x3f85f807	1.0466317
3	0x3f75eab8	0.9606128
4	0x3f71f437	0.9451327
5	0x3f71dd8a	0.94478667
6	0x3f889072	1.0669081
7	0x3f89da64	1.0769773
8	0x3f6fcbda	0.9367043
9	0x3f84ca95	1.0374323

bias f4 [10]
0	0xbd5d5d9b	-0.054044347
1	0x3d59272d	0.053015877
2	0xbd3476d7	-0.044058647
3	0x3d828f5c	0.06375
4	0x3d490074	0.049072698
5	0xbd37416c	-0.044740126
6	0xbd805e86	-0.06268029
7	0x3d95ee06	0.0732079
8	0xbd427c73	-0.047481965
9	0x3d100055	0.035156567

weight f4 [10]
0	0x3f7cc6d9	0.9874092
1	0x3f842718	1.032443
2	0x3f84d341	1.037697
3	0x3f86079e	1.0471075
4	0x3f6f6749	0.93516976
5	0x3f6e62cc	0.931195
6	0x3f891a4a	1.0711148
7	0x3f89e67f	1.0773467
8	0x3f6fed66	0.93721616
9	0x3f7ccf1e	0.98753536

bias f4 [10]
0	0xbd5c79f1	-0.05382723
1	0x3d554f4b	0.052077573
2	0xbcee4b40	-0.029088616
3	0x3db81d77	0.08989995
4	0x3cd18733	0.025577163
5	0xbc8c30ea	-0.017113168
6	0xbd9895b5	-0.07450429
7	0x3da89710	0.08231938
8	0xbd32eebc	-0.043684706
9	0x3a7ef1c4	0.0009725357

weight f4 [10]
0	0x3f77c125	0.9677909
1	0x3f85a5aa	1.0441182
2	0x3f830401	1.0235597
3	0x3f85cd82	1.0453341
4	0x3f705ee9	0.9389482
5	0x3f6e06ae	0.9297894
6	0x3f87f642	1.0622027
7	0x3f881fbd	1.0634686
8	0x3f6cede6	0.92550504
9	0x3f81cc47	1.0140465

bias f4 [10]
0	0xbcea857e	-0.028628107
1	0x3d5c7aa1	0.053827886
2	0xbc2c0949	-0.010500261
3	0x3da85489	0.08219249
4	0x3d0980e9	0.033570204
5	0x3abfc9ce	0.0014632286
6	0xbd90a9b2	-0.07063617
7	0x3d96b99f	0.07359623
8	0xbcd8b362	-0.026452724
9	0x3ca75a80	0.020428896

in_proj_weight f4 [30, 10]
0	0xbd28cecc	-0.041212842
1	0x3dc46292	0.09589113
2	0xbdfa7289	-0.12228877
3	0xbe1a4b43	-0.15067773
4	0xbe8d0ad1	-0.27547315
5	0x3de0b75f	0.10972475
6	0xbe446cae	-0.19182083
7	0xbe5cb784	-0.2155438
8	0x3e05fa74	0.13083822
9	0xbcfa68f3	-0.030567622
10	0xbb161944	-0.0022903243
11	0xbe6fbdf4	-0.23412305
12	0x3eb11ddd	0.34593096
13	0x3e6e1989	0.23251928
14	0x3ea6e7b1	0.32598642
15	0x3eb5d7c6	0.35516185
16	0xbe93b2ea	-0.28847438
17	0xbe019a20	-0.1265645
18	0x3e97d9a0	0.29658222
19	0xbe30e6dd	-0.17275567
20	0xbd9bef0a	-0.076139525
21	0xbeb5d3bf	-0.35513112
22	0xbe071c1d	-0.13194318
23	0x3dbfb516	0.09360711
24	0x3e8d95e5	0.27653423
25	0xbe174d1f	-0.14775513
26	0xbc0cd6b2	-0.008596109
27	0x3e868545	0.26273552
28	0x3e9f8641	0.31157115
29	0xbca5b7b1	-0.020229192
30	0xbe8e8647	-0.2783682
31	0x3e82711b	0.25476918
32	0xbe1f1feb	-0.1553952
33	0x3edee26d	0.43532124
34	0x3e424ef5	0.18975432
35	0xbe80b51b	-0.25138173
36	0x3eb7614b	0.35816416
37	0xbe334582	-0.17506984
38	0x3dbb70e4	0.091523916
39	0xbea23a51	-0.31685117
40	0xbe7b03fd	-0.2451324
41	0x3e841e1e	0.25804228
42	0x3e2e8a56	0.17044958
43	0x3d7e8052	0.062134095
44	0xbe40d58f	-0.18831466
45	0x3e6132c9	0.21992029
46	0xbcf22cf1	-0.029562445
47	0xbe97a7a3	-0.29620084
48	0x3e27e9d0	0.16397786
49	0x3e0f0a97	0.13968883
50	0x3e89e424	0.2693187
51	0x3bc5ee5d	0.006040378
52	0xbc128cdb	-0.008944715
53	0xbebaf4b7	-0.36514828
54	0xbec65cd2	-0.3874269
55	0xbb0a02f3	-0.0021058887
56	0xbed4b25e	-0.41542333
57	0x3e8795e2	0.2648154
58	0x3e9c9020	0.3057871
59	0x3ea52692	0.3225599
60	0xbd9d338a	-0.07675846
61	0x3e4b28e1	0.19839813
62	0xbe5fdb7b	-0.21861069
63	0xbeaef94d	-0.34174576
64	0xbe9e9385	-0.30971923
65	0xbe9ec620	-0.31010532
66	0x3ea250db	0.31702313
67	0x3db14515	0.086557545
68	0xbe51e432	-0.20497206
69	0xbeb090d3	-0.34485492
70	0x3dd320e3	0.10309007
71	0x3ea9ed04	0.3318864
72	0xbe2528d4	-0.16128856
73	0x3e4481ff	0.19190215
74	0x3e1d6be6	0.15373191
75	0xbe239943	-0.15976433
76	0xbe0505a7	-0.12990437
77	0xbe03df3e	-0.12878129
78	0x3dbf4fff	0.0934143
79	0xbe9a0ebb	-0.30089363
80	0xbba61304	-0.005068185
81	0xbe64b139	-0.2233323
82	0xbde790c5	-0.113069095
83	0xbe92684d	-0.285952
84	0xbcdccd68	-0.026953414
85	0x3ed98886	0.42486972
86	0xbe7ce9fb	-0.24698631
87	0x3ed35f87	0.4128382
88	0x3d04b7cb	0.03240184
89	0x3d031ba2	0.032008775
90	0xbe81b1b4	-0.2533089
91	0x3e849794	0.25896895
92	0xbe985a4b	-0.29756388
93	0x3e6d86be	0.23195931
94	0xbe807d0e	-0.2509541
95	0x3e60dcdd	0.21959253
96	0x3df1cd52	0.1180674
97	0xbd17cf34	-0.03706284
98	0x3ecfd3e8	0.4059136
99	0xbd781d85	-0.060575027
100	0x3e687e62	0.22704461
101	0xbe4a384d	-0.1974804
102	0x3eae48bd	0.3403987
103	0x3e9241af	0.28565738
104	0x3e24537c	0.16047472
105	0xbe4708af	-0.19436906
106	0xbe257cae	-0.16160843
107	0x3daeff23	0.08544757
108	0xbe9128d3	-0.2835146
109	0x3d08139d	0.03322183
110	0x3e9569cd	0.29182282
111	0xbdaaf9cc	-0.08348426
112	0x3e0659f2	0.13120249
113	0xbec44423	-0.38333234
114	0x3e81aea5	0.25328556
115	0xbe820d5c	-0.25400817
116	0xbe788fda	-0.24273625
117	0xbed60365	-0.41799465
118	0xbea6e05e	-0.32593054
119	0x3e1614cc	0.14656371
120	0x3d5ed4b3	0.054402065
121	0x3ba9dd25	0.005183833
122	0x3d8cbe96	0.06872289
123	0xbe9c17f8	-0.30487037
124	0x3ea081bc	0.3134898
125	0x3e735238	0.23761833
126	0x3cd95688	0.02653052
127	0x3d3f629a	0.046724893
128	0x3e99607b	0.2995642
129	0x3e3437e9	0.17599453
130	0xbe88dd4f	-0.26731345
131	0x3eacb340	0.33730507
132	0xbe8354c4	-0.2565061
133	0x3ed2f537	0.4120271
134	0xbea097b2	-0.31365734
135	0x3e98886f	0.2979159
136	0xbea5b5da	-0.32365304
137	0x3e70fd0b	0.23534028
138	0xbea685c0	-0.32523918
139	0xbd9aa738	-0.07551426
140	0xbe97d3b2	-0.29653698
141	0xbccbd362	-0.024881069
142	0x3e4b58a5	0.19858034
143	0xbccdbc44	-0.025114186
144	0x3e413b53	0.18870287
145	0x3dfdbed3	0.123899125
146	0xbb2421df	-0.0025044603
147	0xbe05e7ab	-0.13076656
148	0x3dabf7ea	0.08396895
149	0x3e4dad40	0.20085621
150	0x3e5c5c5d	0.21519609
151	0x3e32a779	0.17446698
152	0xbe8e5528	-0.27799344
153	0xbe758c76	-0.23979363
154	0xbea50db0	-0.32237005
155	0x3d0dc3a4	0.034610406
156	0x3dd61120	0.10452485
157	0xbe80fd21	-0.25193122
158	0xbe9dc7a6	-0.30816382
159	0x3db03a4d	0.0860487
160	0xbd8be9a0	-0.0683167
161	0xbec5f064	-0.38659966
162	0xbdfd39d4	-0.123645455
163	0x3d09685e	0.033546798
164	0xbe412960	-0.1886344
165	0xbed9af77	-0.42516682
166	0x3e3e1875	0.18564017
167	0x3e3ffb81	0.18748285
168	0xbebc6334	-0.36794436
169	0xbea78b78	-0.32723594
170	0x3e808c2c	0.25106943
171	0x3ce1fe0f	0.027586965
172	0xbedd4fe9	-0.4322503
173	0x3d8a7439	0.06760449
174	0xbea8cac4	-0.32967198
175	0x3e9f8c95	0.31161943
176	0xbeb91c46	-0.36154383
177	0x3e7d298a	0.24722877
178	0x3e85c516	0.26126927
179	0xbe9685e9	-0.2939904
180	0xbd9d5ab9	-0.076833196
181	0xbc98b44b	-0.018640658
182	0xbcc54cd6	-0.02408449
183	0x3eb31fac	0.349851
184	0x3e566b2e	0.20939323
185	0xbe633ede	-0.2219195
186	0x3ed2f8a5	0.41205326
187	0x3e399fd7	0.1812738
188	0xbe2f13fd	-0.17097469
189	0x3e2ce894	0.16885597
190	0x3d91ca50	0.07118666
191	0x3ed4413e	0.41456026
192	0xbe109297	-0.1411842
193	0x3e0876f4	0.13326627
194	0x3d68b000	0.05680847
195	0xbd7f6336	-0.062350474
196	0xbe0cd618	-0.13753545
197	0x3e93251d	0.28739253
198	0x3d8b4c44	0.06801656
199	0x3eb94f61	0.36193374
200	0xbe742743	-0.23843102
201	0x3ccfbbce	0.025358107
202	0x3e07ab26	0.13248882
203	0xbe98b8f1	-0.298286
204	0x3eb6f761	0.3573561
205	0x3e8f794b	0.28022227
206	0xbe970834	-0.29498446
207	0x3e571e6a	0.21007696
208	0x3e19bd28	0.15013564
209	0xbe5e5d30	-0.21715236
210	0x3cfecc13	0.03110317
211	0xbdf94fa3	-0.121733926
212	0xbd0a3ff0	-0.03375238
213	0xbdde0e0a	-0.108425215
214	0x3d557b69	0.052119646
215	0x3eab126b	0.3341249
216	0xbe162e77	-0.14666162
217	0x3e933cf0	0.2875743
218	0x3e97c121	0.29639533
219	0xbe8dee30	-0.27720785
220	0xbcec3ee1	-0.028838577
221	0xbeb384c8	-0.35062242
222	0x3dca9b3f	0.09892892
223	0xbe28e2fa	-0.16492835
224	0xbeb3dc11	-0.35128835
225	0xbe8617cc	-0.2619003
226	0xbe255fd6	-0.1614984
227	0xbe8d546f	-0.2760348
228	0xbe9117a3	-0.28338346
229	0x3de09ea7	0.109677605
230	0x3d37c8cc	0.04486923
231	0x3e942eaf	0.28941867
232	0x3e21173e	0.15731522
233	0x3d2b2639	0.0417845
234	0xbe182816	-0.14859042
235	0xbe836442	-0.25662428
236	0xbd8b6de7	-0.068080716
237	0xbe989404	-0.29800427
238	0xbd2560ef	-0.040375646
239	0x3e3f7aa2	0.18699124
240	0x3ea8f113	0.32996425
241	0xbe837e7e	-0.25682443
242	0x3e997ebe	0.2997951
243	0xbe6b4bcb	-0.22978131
244	0x3d894afa	0.06703754
245	0xbe50fdee	-0.20409366
246	0x3c1bbd4e	0.009505583
247	0x3eb1df7e	0.34740824
248	0xbe3a31f0	-0.18183112
249	0x3dd2eb18	0.10298747
250	0xbe687f17	-0.22704731
251	0x3eaf6861	0.34259322
252	0xbe54b3ce	-0.20771715
253	0x3ec9edeb	0.3943933
254	0x3e68c0d5	0.2272981
255	0x3dd509cf	0.104022615

in_proj_bias f4 [30]
0	0x3d59a991	0.053140227
1	0x3d582e0e	0.052778296
2	0xbd5888dd	-0.052864898
3	0x3d5956d3	0.053061318
4	0xbd5874ff	-0.05284595
5	0xbd595392	-0.053058214
6	0xbd59c54e	-0.05316668
7	0x3d57b6a9	0.052664433
8	0x3d597d7a	0.05309818
9	0x3d58e5c5	0.0529535
10	0xbb9b5095	-0.0047398307
11	0x3acf70f8	0.0015826514
12	0x3b9bf318	0.0047592036
13	0x3a8c7145	0.0010714909
14	0x3b1fbe4a	0.0024374896
15	0xbb9e4a62	-0.0048306445
16	0xbb972ac6	-0.0046132533
17	0xbb8ed8d1	-0.0043593426
18	0x3b3461ff	0.002752423
19	0x3b0cf25a	0.0021506757
20	0x3d6aa84e	0.057289414
21	0xbd52ffbb	-0.051513415
22	0xbd5ae6b2	-0.053442664
23	0x3d5ed361	0.054400805
24	0x3d55206f	0.052032884
25	0x3d42d4f3	0.047566365
26	0xbd4f6d6a	-0.050641455
27	0x3d5c5b9a	0.053798296
28	0x3d451090	0.0481115
29	0xbd6da250	-0.05801612

weight f4 [10, 10]
0	0x3efa1e96	0.4885146
1	0x3e7b7030	0.24554515
2	0x3de54414	0.111946255
3	0x3e6ed8fc	0.2332496
4	0xbec6651e	-0.3874902
5	0xbf01c2fa	-0.50688136
6	0x3e014596	0.12624201
7	0x3ef52297	0.47877952
8	0xbe9ee948	-0.31037354
9	0xbf19e3ab	-0.6011302
10	0x3e9005da	0.28129464
11	0xbe8198e5	-0.25311962
12	0xbe642253	-0.22278719
13	0xbed9ff29	-0.42577484
14	0x3edc60cf	0.4304261
15	0x3ef8ecc8	0.4861815
16	0xbe99497b	-0.29938874
17	0x3ecc6875	0.39923444
18	0x3e898f48	0.26867127
19	0x3dadce97	0.084866695
20	0xbef246b6	-0.47319573
21	0xbedd3445	-0.4320394
22	0xbb066bea	-0.00205111
23	0xbd3d6b5f	-0.046244975
24	0x3e92d096	0.28674763
25	0x3f051de5	0.5199874
26	0xbdeb9fec	-0.11505112
27	0xbe6a9724	-0.22909218
28	0x3e70e1e2	0.23523667
29	0x3f013a6a	0.5047976
30	0xbc695d9f	-0.014243512
31	0x3e94a643	0.29033098
32	0x3ecd108a	0.4005168
33	0x3d1be675	0.038061578
34	0x3d1a33eb	0.03764717
35	0xbf07d870	-0.5306463
36	0xbe72c4cc	-0.23707885
37	0x3e5605bc	0.20900625
38	0xbf01359c	-0.50472426
39	0xbeb6e056	-0.3571803
40	0xbf0a1402	-0.5393678
41	0x3b0d4952	0.0021558595
42	0xbefa074a	-0.48833686
43	0x3ee508ce	0.4473328
44	0x3d69fbfe	0.057125084
45	0x3dc28184	0.094973594
46	0xbe382e49	-0.17986406
47	0x3f101164	0.56276536
48	0x3e149496	0.14509806
49	0xbe04b6ee	-0.12960407
50	0x3eaaf06c	0.33386552
51	0x3ea72d08	0.32651544
52	0x3ee81c08	0.45333886
53	0xbe07c933	-0.13260345
54	0xbeb8bfa4	-0.3608371
55	0x3f08bd6c	0.53414035
56	0xbeb77d6e	-0.35837883
57	0x3e2b26b0	0.16713977
58	0xbed0d1c0	-0.40785027
59	0xbd764a8f	-0.0601297
60	0x3edf3e66	0.43602294
61	0x3e6de0d6	0.232303
62	0x3eb0d99e	0.3454103
63	0x3eb2cace	0.34920353
64	0x3e808142	0.25098616
65	0xbebe0360	-0.3711195
66	0xbe3eba8d	-0.18625851
67	0x3ecdb07f	0.40173718
68	0xbeb89737	-0.36052868
69	0x3a7a0402	0.00095373404
70	0x3e386d36	0.1801041
71	0xbe0cb477	-0.13740717
72	0x3d48a3d9	0.048984382
73	0x3ea908c5	0.33014503
74	0x3e98a073	0.29809913
75	0xbdbebb05	-0.09313015
76	0x3df4aa48	0.11946541
77	0x3f1a6bba	0.6032063
78	0xbed781ad	-0.42091122
79	0x3e1565b4	0.14589578
80	0x3e689b87	0.22715579
81	0x3e93a622	0.28837687
82	0x3eb85092	0.3599897
83	0x3db67593	0.08909144
84	0xbebebaa7	-0.3725178
85	0x3cb4ca19	0.022069024
86	0xbe2a964b	-0.16658895
87	0xbeeb19ef	-0.45918223
88	0x3c9cfb30	0.019162744
89	0xbde28deb	-0.11062225
90	0xbe836dff	-0.25669858
91	0xbe9f3343	-0.31093797
92	0xbe892d34	-0.267923
93	0xbde89a24	-0.11357525
94	0xbdf32260	-0.11871791
95	0x3e2041fd	0.15650173
96	0x3ed7310e	0.42029613
97	0x3e3b239e	0.18275306
98	0xbe8e3342	-0.27773482
99	0x3e275a62	0.16343072

bias f4 [10]
0	0xbd2d10d8	-0.04225239
1	0x3d577461	0.052601222
2	0x3d28f6d8	0.041251034
3	0xbd8c6036	-0.06854288
4	0x3d586b4c	0.0528367
5	0x3d5b4d76	0.05354067
6	0x3d5835b3	0.052785587
7	0x3d70551f	0.058674928
8	0xbd57a3f6	-0.0526466
9	0xbd55bebb	-0.052183848

in_proj_weight f4 [30, 10]
0	0xbed5441a	-0.4165352
1	0x3c65f387	0.014035112
2	0x3dbeb794	0.093123585
3	0x3e800966	0.2500717
4	0x3dd8d4e1	0.105874784
5	0xbe8f0eb9	-0.2794092
6	0xbea8fbde	-0.3300466
7	0xbed6cdc4	-0.41953862
8	0xbeda8774	-0.42681468
9	0xbea164a2	-0.3152209
10	0x3d60ef60	0.054915786
11	0x3e080e4d	0.13286705
12	0xbe4b5a94	-0.19858772
13	0xbe8ac3d8	-0.27102542
14	0x3e0899b9	0.1333989
15	0xbec36fd1	-0.38171247
16	0xbebace91	-0.36485723
17	0x3e59f0d3	0.21283273
18	0xbe4a7683	-0.19771771
19	0x3d85069c	0.06495401
20	0xbeb6c7f7	-0.35699436
21	0x3ea9b466	0.33145446
22	0xbe5593bf	-0.20857142
23	0x3eb46062	0.35229784
24	0xbe6a762f	-0.22896646
25	0x3e0749bd	0.13211723
26	0x3e1843e9	0.14869656
27	0xbec472cc	-0.38368833
28	0x3dac9ed0	0.084287286
29	0xbe0f8127	-0.14014111
30	0xbe0026e4	-0.12514836
31	0x3e84df64	0.25951684
32	0xbeaa618d	-0.3327755
33	0xbd9fd7e0	-0.07804847
34	0xbe60dbf1	-0.21958901
35	0xbea589d0	-0.32331705
36	0xbd1c9588	-0.03822854
37	0xbe11094f	-0.14163707
38	0x3e196754	0.14980823
39	0xbe79d6ef	-0.24398397
40	0xbc5911b8	-0.013248853
41	0xbed8f192	-0.42371804
42	0x3e668936	0.2251328
43	0xbd76a83f	-0.060219046
44	0x3ebb3a14	0.36567748
45	0x3e33f71c	0.17574733
46	0x3ed219cd	0.4103531
47	0xbe5c377b	-0.21505539
48	0x3e130f6b	0.1436135
49	0xbde351d5	-0.110995926
50	0xbdcda7f1	-0.10041798
51	0xbd81ed8f	-0.06344139
52	0xbdfaba81	-0.12242604
53	0xbe0f5f1c	-0.14001125
54	0x3d432aeb	0.04764835
55	0x3e4c2a7a	0.19938079
56	0xbe9ca218	-0.30592418
57	0xbaf03509	-0.0018326353
58	0xbe462049	-0.19348253
59	0x3a864eb2	0.0010246842
60	0x3e21b6f5	0.15792449
61	0xbdf596ea	-0.11991675
62	0x3e0ef94e	0.1396229
63	0xbeb66379	-0.35622767
64	0xbed687a8	-0.41900373
65	0xbe80b547	-0.25138304
66	0x3e24686f	0.16055463
67	0xbdcc56d2	-0.09977497
68	0xbe72f097	-0.2372459
69	0x3e8f6357	0.28005478
70	0x3ea39547	0.31949827
71	0x3df5f781	0.12010098
72	0xbe1127b7	-0.14175306
73	0xbe852127	-0.26001856
74	0xbd354ea2	-0.044264443
75	0xbe654e4a	-0.22393146
76	0x3d0b2218	0.03396806
77	0x3e9da120	0.3078699
78	0x3e7476a2	0.2387338
79	0x3e0571dd	0.13031717
80	0xbe65ee68	-0.22454226
81	0x3e207479	0.15669431
82	0x3e880811	0.26568654
83	0x3dbae9de	0.09126638
84	0xbec54731	-0.38530877
85	0xbead145f	-0.33804604
86	0x3e82b0de	0.25525564
87	0xbed966f8	-0.4246137
88	0xbe676686	-0.22597703
89	0x3e03dbe7	0.12876855
90	0xbea9bf2e	-0.3315367
91	0xbed526f7	-0.4163129
92	0x3e80015a	0.2500103
93	0x3e822347	0.2541754
94	0xbe8ece84	-0.27891934
95	0xbed04491	-0.40677312
96	0x3e3e7c22	0.1860204
97	0x3e89422f	0.26808307
98	0xbda5152f	-0.08060681
99	0x3dfacb75	0.122458376
100	0xbe1615bc	-0.14656729
101	0xbe88fdce	-0.26756138
102	0xbea7371a	-0.32659227
103	0x3e24834f	0.16065715
104	0x3deb98fd	0.115037896
105	0xbe3d1cbd	-0.18467994
106	0x3dc8831e	0.097906336
107	0x3ea8f37a	0.32998258
108	0x3e418e56	0.18901953
109	0xbda92349	-0.08258683
110	0x3d7ec983	0.062203895
111	0xbd3fffd1	-0.046874825
112	0xbea71f0a	-0.32640868
113	0xbdb8a053	-0.090149544
114	0xbe212522	-0.15736821
115	0xbe10ada1	-0.14128734
116	0x3ea755c8	0.32682633
117	0x3e82e9f5	0.2556912
118	0xbedd1843	-0.43182573
119	0xbe8a7a6f	-0.27046534
120	0xbdf4c726	-0.11952047
121	0xbd43fed5	-0.04785045
122	0x3e8a51b0	0.27015448
123	0xbe1f947e	-0.15583989
124	0xbd8fa0d0	-0.070130944
125	0xbdd5b5fb	-0.10435101
126	0x3ea32c55	0.3186976
127	0xbd0af10f	-0.033921298
128	0x3e934ad8	0.2876804
129	0x3da0d063	0.078522466
130	0xbecd8718	-0.4014213
131	0x3ee032cd	0.43788758
132	0x3e57050f	0.20998023
133	0xbe761b61	-0.24033882
134	0x3e94c7b3	0.29058608
135	0xbd2b268a	-0.0417848
136	0xbeb299ee	-0.34883064
137	0xbde92886	-0.11384682
138	0x3e032d01	0.12810136
139	0xbd22cd2f	-0.03974646
140	0xbe440c6f	-0.19145368
141	0x3e067bed	0.13133211
142	0xbecf72eb	-0.40517363
143	0xbaa594fa	-0.00126329
144	0xbe928d10	-0.28623247
145	0x3eb4ce98	0.3531387
146	0x3e36834b	0.17823522
147	0x3ed5456e	0.41654533
148	0xbe8eb5e0	-0.27873135
149	0xbe623be1	-0.22093154
150	0x3e3d441a	0.1848301
151	0x3eacee08	0.33775353
152	0xbdac21b9	-0.084048696
153	0x3ce2b5d8	0.0276746
154	0xbe2a24db	-0.16615622
155	0xbe306cb4	-0.17228967
156	0xbe40b908	-0.18820584
157	0xbca87166	-0.020561885
158	0xbe0b069f	-0.13576744
159	0xbe98ab71	-0.298183
160	0xbe9cf3d4	-0.30654776
161	0x3d9891cf	0.07449686
162	0x3e5f06f3	0.21779995
163	0xbdead157	-0.1146571
164	0xbede413c	-0.43409145
165	0x3ea9f095	0.33191362
166	0x3d3ec3f8	0.04657361
167	0x3dcf9b17	0.10137003
168	0xbdb0c43d	-0.086311795
169	0xbea81904	-0.32831585
170	0xbe1cadc4	-0.15300661
171	0xbc219a29	-0.009863415
172	0x3c77c26f	0.01512204
173	0xbe718b11	-0.23588206
174	0xbdb7f086	-0.08981423
175	0xbdf26ce1	-0.11837173
176	0x3dc788a4	0.09742859
177	0x3e74b009	0.23895277
178	0xbe61d687	-0.22054492
179	0xbdc39e97	-0.09551733
180	0x3e1822cb	0.14857022
181	0xbec83d5a	-0.39109308
182	0x3d802aa0	0.0625813
183	0x3eb559b0	0.3541999
184	0x3eaa9c8c	0.3332256
185	0x3e70f071	0.23529221
186	0x3c91f5bb	0.017817369
187	0xbeb1fc0a	-0.34762603
188	0x3eb042f0	0.3442607
189	0x3d8e0202	0.06933977
190	0xbda55a9f	-0.08073925
191	0x3cb56603	0.02214337
192	0x3e58650f	0.21132301
193	0x3d99152f	0.074747436
194	0x3ebf6e1c	0.37388694
195	0x3e1661a2	0.14685681
196	0x3ebef5a4	0.37296784
197	0x3e9ff438	0.31241012
198	0xbe2f01f3	-0.17090587
199	0xbdcaa28e	-0.09894286
200	0x3d41f2a6	0.04735055
201	0xbe576ccf	-0.21037601
202	0x3edcb4f4	0.43106806
203	0xbe21258b	-0.15736978
204	0x3ca847a6	0.020541977
205	0xbe16e626	-0.14736232
206	0x3e277f29	0.16357102
207	0x3e51357f	0.20430563
208	0xbea295b4	-0.3175484
209	0x3e7238e3	0.23654513
210	0x3e8090d5	0.25110498
211	0xbddb70aa	-0.10714848
212	0x3e8ef51a	0.27921373
213	0x3d6ff7bc	0.058585867
214	0x3e5b3def	0.21410345
215	0x3ea62590	0.32450533
216	0xbead3e97	-0.33836815
217	0x3e86eb8c	0.26351583
218	0xbd8bc56d	-0.06824765
219	0xbe20d941	-0.15707876
220	0xbcdc9d1e	-0.026930388
221	0xbe7522b5	-0.23939021
222	0x3e452728	0.19253218
223	0xbe3274c9	-0.17427363
224	0xbe218077	-0.15771662
225	0xbaf385e0	-0.0018579327
226	0xbde5f386	-0.11228089
227	0xbec3b681	-0.38225177
228	0x3e0186ce	0.1264908
229	0xbe744e6e	-0.23858044
230	0x3e048022	0.12939504
231	0xbea4ff0c	-0.32225835
232	0xbde1b662	-0.11021115
233	0xbeab2aa4	-0.3343097
234	0x3e810626	0.25200003
235	0xbe562d40	-0.20915699
236	0x3ec72055	0.38891855
237	0x3e8fe77e	0.28106302
238	0xbe84c979	-0.2593496
239	0xbead48f4	-0.3384472
240	0xbdd4c21d	-0.10388587
241	0x3daf729c	0.08566782
242	0x3d8980e9	0.06714041
243	0x3eb8dbaa	0.3610509
244	0x3e9462be	0.28981584
245	0xbe20ddb4	-0.15709573
246	0xbeaf4243	-0.3423024
247	0x3ec596d0	0.38591623
248	0xbbc1e411	-0.00591708
249	0xbcf86d1b	-0.030325463
250	0x3dac6874	0.0841836
251	0xbd5bc18a	-0.05365137
252	0x3ec440e9	0.38330773
253	0x3c0d547d	0.008626101
254	0x3e8ea32a	0.2785886
255	0xbd9b7329	-0.075903244
