Comparative_Evaluation/Baselines/Transformer/models_m/model60.pt (torch, 552899 bytes, 54 tensors)

in_proj_weight f4 [30, 10]
000000 a4 c3 eb 3d fe f1 2a 3e f1 11 47 3c bd 79 8e 3e
       0.11511925 0.16693875 0.012150274 0.27827254
000010 58 85 2c 3e 41 28 98 be de f0 c8 bd 56 82 25 be
       0.16847742 -0.2971821 -0.09811567 -0.16163
000020 7d 79 b4 be f8 91 ae be 9d 10 9a 3e 41 cb 80 be
       -0.35248938 -0.3409574 0.300908 -0.2515507
000030 e5 fb da 3e 16 09 08 be 86 22 26 3e e9 17 9a 3d
       0.42770305 -0.13284716 0.16224107 0.07524092
000040 ab 2d a5 be c6 61 be 3e 3a 63 9a bd d4 df 83 3e
       -0.32261404 0.3718397 -0.07538457 0.25756705
000050 b1 11 0e 3e 15 41 4a 3d 20 c5 88 3d b5 5c 49 3e
       0.13873936 0.049378473 0.066782236 0.19664271
000060 33 5e 5b 3d 5f f1 03 3e b1 9b 9e 3c d8 91 cf be
       0.053556632 0.12885045 0.019361349 -0.40540957
000070 f4 b3 80 3e cc 8b c4 3d ab 83 2a 3e d2 22 11 be
       0.25137293 0.09596977 0.1665179 -0.14173439
000080 48 e5 ab be b6 9a 2c 3e bf 8c 85 3e a3 c5 94 3e
       -0.33573365 0.16855893 0.26083943 0.29057035
000090 72 ed 65 be f1 df 13 3e 80 d3 86 bb b6 5d 0c be
       -0.2245386 0.14440896 -0.0041145682 -0.13707623
0000a0 44 c9 14 3e aa ce a9 be fa 47 69 be 23 60 fd bc
       0.14529902 -0.33165485 -0.22781363 -0.03092963
0000b0 35 dc 5a be 1b 87 ee bd 69 70 c4 be 85 12 74 3e
       -0.21373065 -0.11646863 -0.38367012 0.2383519
0000c0 cb b6 30 be 72 72 63 3e 38 2d ce bb 97 a4 fb bd
       -0.1725723 0.22211626 -0.0062920116 -0.122872524
0000d0 8d c3 8e bd fa be 0a 3e 40 2d ba 3e 5b 66 81 be
       -0.06970892 0.13549414 0.36362648 -0.25273404
0000e0 cc f8 04 3e 7e ed 85 3e 5c 74 8e 3e 53 87 d6 be
       0.12985533 0.26157755 0.2782315 -0.4190012
0000f0 6c b8 88 3e 21 5e 86 3e 9f de 2c be 82 34 c1 bd
       0.26703203 0.2624369 -0.16881798 -0.09433843
000100 6b d7 e1 3d ad 99 e2 bd 05 9e c0 3b b8 3d c2 be
       0.11027416 -0.110644676 0.0058782124 -0.37937713
000110 78 35 97 3e 94 46 93 be f2 af 2c 3e de 4d a8 be
       0.2953298 -0.28764784 0.16863993 -0.32871908
000120 eb 51 01 3e 57 d2 b4 be 6a 8c ef bd f4 bc 27 3e
       0.12628905 -0.35316727 -0.11696704 0.16380674
000130 92 4c 8b 3e b8 cc 96 be 5a 0f 5c 3e 3e ab b0 bd
       0.27206856 -0.29453063 0.21490231 -0.08626412
000140 4a a9 52 bd a2 dc be 3e 59 39 a7 be 42 45 e9 3d
       -0.051430978 0.37277704 -0.3266094 0.11390163
000150 c6 00 aa 3e 12 0d b5 be c6 37 fd 3d b5 69 39 be
       0.33203715 -0.35361534 0.123641536 -0.1810673
000160 10 59 a3 3e 41 e9 3c 3e 41 a5 9b 3e 9a 89 9e 3d
       0.31903887 0.18448354 0.30399516 0.07741089
000170 5d 62 cd 3d 85 ac 1d be 36 1e 80 be d7 75 28 be
       0.10028527 -0.15397842 -0.2502305 -0.16451202
000180 cf 99 bd bd a1 44 0b 3c b2 0f dd 3d 8f 4a b4 3e
       -0.09257852 0.008500249 0.10794009 0.35213134
000190 37 1e 30 3e 6b b9 a7 3e f5 e5 23 3e 23 08 c9 3e
       0.17199026 0.3275865 0.1600569 0.3926402
0001a0 29 f8 6c 3e b1 0e 9b 3d c5 ac 1a bc 34 99 95 be
       0.2314154 0.075711615 -0.0094406055 -0.29218447
0001b0 75 8b a7 bb 10 5f 34 3e de 28 2f 3e 24 ca 33 3c
       -0.00511306 0.17614388 0.17105433 0.010973487
0001c0 60 fc 85 be e7 9c b0 be fd af 1a be 30 85 0b 3d
       -0.2616911 -0.34494707 -0.15106197 0.034062564
0001d0 a3 ff 97 be c1 2d a9 be 9c 64 95 3e fa eb 30 be
       -0.29687223 -0.3304272 0.2917832 -0.17277518
0001e0 6b 58 a3 be 2b c9 39 be cd 08 95 bd cd dd 42 3e
       -0.31903395 -0.18143146 -0.07277069 0.19029923
0001f0 27 3e b7 bd 0c f0 01 be de f1 7e 3d b4 3a 92 be
       -0.089474015 -0.12689227 0.06224238 -0.28560412
000200 e1 81 9a 3e 97 f6 96 bb 6d bb 80 be b3 fc b8 3d
       0.30177215 -0.0046070325 -0.25142995 0.090325736
000210 c2 87 11 3e 33 8d 05 3e 29 57 2c be ba 06 fd 3c
       0.14211944 0.13042144 -0.16830124 0.030886997
000220 34 f3 56 be 1c f7 85 3e 9c 0c 2c be 9a f4 30 be
       -0.20991212 0.26165092 -0.16801685 -0.17280808
000230 03 7e c8 bc 7f b9 fa bd 36 0b 64 be fa 42 6d be
       -0.02447415 -0.12242412 -0.22269902 -0.23170081
000240 ef bc bd bc a7 8a 31 bb f3 80 4d 3d 26 c5 d4 3e
       -0.02316138 -0.00270907 0.050171804 0.41556662
000250 61 db 91 3e ac 93 2c be f3 fd ba bb ac cb 26 3e
       0.28487685 -0.16853207 -0.0057065426 0.16288632
000260 fb 39 d8 be cc bd 88 be a0 e2 8b 3e 93 91 9a 3e
       -0.42231736 -0.26707304 0.2732134 0.3018919
000270 4d 4d 68 bc f8 a3 0b be 07 20 0f be 27 6e be bd
       -0.014178586 -0.13636768 -0.13977061 -0.09298354
000280 03 f4 12 be 5b f0 3e 3e 4c 72 94 be 76 33 65 3e
       -0.14350896 0.18646376 -0.28993452 0.22382912
000290 fe e5 0f 3e ee 6e c8 3d 52 8b 8f be c9 58 39 be
       0.14052579 0.09786783 -0.2803598 -0.18100275
0002a0 59 c0 dd 3d 26 a5 2a bd c0 7f 8f 3e 8d 80 bc 3e
       0.10827703 -0.041661404 0.28027153 0.36816826
0002b0 f8 55 80 3e 72 06 85 3e ff a7 73 be f6 24 27 3e
       0.2506559 0.2598148 -0.23794554 0.16322693
0002c0 c5 d6 60 3e 4b d8 57 3e d7 e5 50 be 4b d5 10 be
       0.21956928 0.21078603 -0.20400177 -0.14143865
0002d0 bc 83 2e bd d8 d8 8e be a2 2f 35 3e d2 78 98 be
       -0.0426061 -0.27899814 0.17693952 -0.2977968
0002e0 88 f7 04 bd 82 b3 9b 3d a8 cb 9d be f4 d7 85 3d
       -0.032462627 0.07602598 -0.3081944 0.065353304
0002f0 f8 93 b3 bd 7f 7a 55 3e e7 70 dd bd 00 32 a1 be
       -0.08768457 0.2084751 -0.1081255 -0.3148346
000300 ff 93 30 bd e4 cb 61 be c3 a0 22 3e 12 68 a8 be
       -0.04310989 -0.22050434 0.15881638 -0.328919
000310 b4 bc 96 bd 77 2c e7 bc c2 54 66 3e 57 bc 18 3d
       -0.07360211 -0.028219445 0.2249327 0.03728899
000320 01 08 e7 3c 48 7e 89 3e 1b 50 9a be 74 88 cc 3d
       0.028202059 0.26854157 -0.3013924 0.09986964
000330 93 b0 4b 3d 75 22 45 3e 66 87 ac 3e 6c 6b a1 bc
       0.04972894 0.19251426 0.3369705 -0.019704543
000340 a0 b8 86 be ce 95 36 be 79 a9 1d 3e 9d 8d 82 be
       -0.26312733 -0.17830583 0.1539668 -0.25498667
000350 50 0b 12 3e f7 2f 60 be c6 25 76 bd 91 35 37 be
       0.14262128 -0.21893297 -0.060094617 -0.17891528
000360 92 29 8b 3d 83 a9 a3 3e e0 a1 75 be e2 85 86 be
       0.06795038 0.31965265 -0.23987532 -0.2627402
000370 9a 73 89 be 4e ab ed ba a3 f5 8d bd f1 ea f5 bd
       -0.2684601 -0.0018132718 -0.06931617 -0.12007702
000380 8d 3b 2f be 06 94 b6 3e bc 01 6f bd 5f ff c7 be
       -0.1711256 0.35659808 -0.058351263 -0.3906202
000390 0c a4 52 3e bb a3 0f 3d 0c 86 2c be 91 00 9a be
       0.20570391 0.035068255 -0.1684801 -0.30078557
0003a0 42 f8 78 3e 0b 7d 93 be 7f 05 2c bd 83 11 a4 3e
       0.24313453 -0.28806338 -0.04199743 0.3204461
0003b0 3d b1 c1 be 83 32 2a 3e 4f 5a a2 bd bd 9c 88 3d
       -0.37830535 0.16620831 -0.07927381 0.066705205
0003c0 53 e7 79 be f1 c1 c6 3e 02 09 8e 3d 26 3b 30 bd
       -0.2440465 0.3881984 0.06935312 -0.04302516
0003d0 f5 3b d0 3e 74 4c 39 3e 67 85 45 be 76 ad b3 3d
       0.40670744 0.18095571 -0.1928917 0.087733194
0003e0 c5 0d 71 be 42 53 47 bd f3 3e b7 3d 62 de 5a be
       -0.23540409 -0.048663385 0.089475535 -0.21373895
0003f0 ed 22 38 be f2 a6 67 3d 36 53 a0 be 2c 25 c6 bd
       -0.17982073 0.056555696 -0.31313485 -0.09675059

in_proj_bias f4 [30]
000000 8d 73 d3 3c 46 02 49 3d b9 28 06 bd 2f 8e f8 3c
       0.025811935 0.049074434 -0.03275368 0.030341236
000010 27 b2 27 bd 7c 7a 6b 3c 6a b0 18 bd ff 44 41 bd
       -0.040941384 0.014372464 -0.037277617 -0.04718494
000020 d9 7f 1b 3d 9b 71 2a 3d 84 ba 37 b9 fa 36 b3 3a
       0.037963722 0.04161225 -0.00017521722 0.0013673
000030 40 23 0e 39 92 c6 80 39 98 9e 73 b9 7c 54 d0 39
       0.00013555307 0.0002456201 -0.00023233367 0.00039735797
000040 28 6e c6 b9 09 5a 95 b9 92 3f 01 3a 4d ca 50 b9
       -0.00037847576 -0.00028486576 0.0004930432 -0.00019911789
000050 80 27 4e bc 43 3e f7 3c 4f f3 ee bc c8 78 9d bc
       -0.01258266 0.030181056 -0.029168753 -0.019222632
000060 e8 bc 7f 3d 59 76 5c ba a4 56 c8 bc c2 20 2a 3c
       0.062436014 -0.0008409969 -0.024455376 0.010383787
000070 7c ef f9 bc 62 87 ee bc
       -0.030509703 -0.02911729

weight f4 [10, 10]
000000 2c cf e7 3d 0b 7f b7 be 1c 9a e4 bc e3 6a fc 3e
       0.11318812 -0.35839114 -0.027905516 0.49300298
000010 d8 f6 e2 3d a0 e2 c0 3e fc ca 0e 3f 94 1a 3b 3e
       0.11082238 0.376729 0.5577848 0.18271858
000020 43 29 c8 3e 11 c0 d6 3e 74 1f 89 3e 8d 88 d4 bd
       0.3909398 0.4194341 0.2678181 -0.103776075
000030 96 36 b5 be a3 36 db 3e d2 92 b1 3e 8a 4b 51 3e
       -0.35393208 0.42815122 0.34682328 0.20438972
000040 38 52 9b 3d 11 fe d4 be 41 ca b1 3d d0 b6 02 be
       0.07584041 -0.41600087 0.08681155 -0.1276505
000050 a2 32 90 3e 8a 4a af 3e c5 4d 74 be f1 10 69 bd
       0.2816363 0.34236556 -0.23857792 -0.056900922
000060 aa 1f 87 3e 3b 1e 00 3f cd d2 81 3e d5 9b 01 3f
       0.26391345 0.5004613 0.2535614 0.50628406
000070 fc f1 ef 3d 8d 70 07 3e be d5 fd 3d 61 1d c6 3e
       0.11716077 0.13226528 0.12394284 0.3869429
000080 21 66 0a be 82 95 11 be d9 f4 6a be 8d 98 18 be
       -0.13515522 -0.14217189 -0.22944964 -0.14901944
000090 7a 2d fd be 9f 35 ce be 31 bd 0b 3f 6b 4b 76 3e
       -0.49448758 -0.40275285 0.5458556 0.24052207
0000a0 b8 ac 27 3e 1c 10 c6 be 77 a3 c8 3e e5 d5 e0 3e
       0.1637448 -0.38684165 0.39187214 0.4391319
0000b0 57 05 9e bd 4b e0 92 3c aa 9b 0c bf 10 50 c6 be
       -0.07715862 0.017929217 -0.54925025 -0.38732958
0000c0 02 33 8f bc 99 fa 1e be 5d 1c 91 3e c9 08 b9 3e
       -0.017480377 -0.15525283 0.28341952 0.36139515
0000d0 d1 4f 8a 3e ff 7c 23 3e 49 92 1f 3e f3 47 e9 3d
       0.2701402 0.15965651 0.15583147 0.11390676
0000e0 b8 72 d6 be 01 38 91 be 3b 7c 6a 3e ba d9 11 be
       -0.41884398 -0.2836304 0.22898953 -0.14243212
0000f0 7d f4 70 be 21 c4 f3 3d 58 6c 17 be 49 ae 3b 3e
       -0.23530765 0.11902643 -0.14787424 0.18328203
000100 45 a2 91 3e 0c 5f 47 3e 06 a8 f8 3e 38 f9 1c 3d
       0.28444114 0.19469851 0.48565692 0.03832361
000110 36 91 e3 3d 31 66 d0 3c 07 83 66 3e bb d4 e2 3e
       0.11111681 0.025439354 0.2251092 0.44302925
000120 9f 9e 57 be 03 01 ba 3e 16 ef cc 3d ca d3 fe 3e
       -0.21056603 0.36328897 0.100065395 0.49770957
000130 74 bb 88 3e 1e 0d a0 be ad 74 be be 3f a8 4a 3e
       0.26705515 -0.31260008 -0.37198392 0.19790743
000140 09 97 66 3d 79 ab a6 bd d1 53 00 bf 71 ff 24 bb
       0.056296382 -0.081381746 -0.50127894 -0.002517667
000150 9a e6 b8 be 83 dc 3c 3e 78 c6 f9 be 09 38 0b 3f
       -0.36113435 0.18443494 -0.48784232 0.5438238
000160 f7 38 3c be 4e 63 93 be c2 de 64 be b0 9c e0 bd
       -0.18381105 -0.287867 -0.223506 -0.10967386
000170 f1 f4 d4 3e 5a 65 3a 3d 59 d8 e8 be e5 a7 53 bd
       0.41593125 0.045506813 -0.4547756 -0.05167379
000180 06 b5 8c bc 84 58 20 3d d1 74 e7 3e 29 28 de 3e
       -0.017176162 0.039146915 0.4520631 0.43390015

bias f4 [10]
000000 9f 34 e6 bc 00 a6 12 3d 20 1d 05 3d aa 63 f7 3c
       -0.028101264 0.03580284 0.03249848 0.03019889
000010 00 bd 1d 3d 5f a7 fa bc c0 b9 30 3d 6e a2 03 bd
       0.038510323 -0.030597387 0.043145895 -0.032137327
000020 23 39 95 3c 14 ad 2f bd
       0.018215721 -0.04288967

weight f4 [2048, 10]
000000 85 8d ba 3d ea 37 2e b9 bb 05 14 bc c7 ac 63 bd
       0.09109024 -0.00016614763 -0.009034569 -0.055584695
000010 24 fd b9 bd 33 9f b3 bd 4d c6 4b 3d f1 f3 48 3d
       -0.09081486 -0.08770599 0.04974966 0.049060766
000020 5d 3f 26 3b f5 38 7b 3c 4d c4 1c 3d 81 b9 1d 3d
       0.0025367357 0.015333404 0.038273145 0.03850699
000030 85 99 86 3d e8 34 31 3a 4a 06 31 bd 20 77 3b bc
       0.0657225 0.0006759898 -0.04321889 -0.011441976
000040 84 04 12 3d 88 de 0c 3c 14 15 21 bd c2 2f 8e bc
       0.035648838 0.008597977 -0.039326742 -0.017356757
000050 d1 4b e7 3c 66 67 85 bc b5 d4 a6 bc d5 9c d7 bc
       0.028234394 -0.016284656 -0.020365098 -0.0263199
000060 e3 d7 c4 bc 85 c3 be bc b6 7f b3 3c 69 93 ff 3c
       -0.024028724 -0.02328659 0.021911483 0.03119822
000070 bb 79 18 bd 63 45 cd 3c 1f 9b c2 3c 47 33 6c bd
       -0.037225466 0.0250575 0.023755608 -0.05766609
000080 42 1b 5d 3c e3 74 33 3c 59 e2 5c bb c5 93 61 bd
       0.013495268 0.010953161 -0.003370425 -0.055072565
000090 5a db 55 3d 39 53 f0 3a 00 ae 1b ba 6a a6 b2 bb
       0.052211143 0.0018335349 -0.0005938709 -0.005451967
0000a0 c2 cb 5f 3d 58 52 9b bd cd ea b5 bd 90 b2 a4 bd
       0.054637678 -0.07584065 -0.08882675 -0.080418706
0000b0 b1 cb 4d bd de f3 1a bd 64 f8 b5 3c 4a 42 9c 3d
       -0.050243083 -0.037830226 0.022213168 0.07629831
0000c0 08 ba 2d bd 13 12 91 3d 5a 04 46 3d c9 c4 22 3d
       -0.04241374 0.070835255 0.048343994 0.03973845
0000d0 6c 33 a5 bc ca e8 8d bd 68 57 81 bd b2 7a 86 bd
       -0.020166121 -0.069291666 -0.063154995 -0.06566371
0000e0 a0 a2 11 3d cf 0a 0a 3c 62 32 20 bd 27 13 ed 3b
       0.035555482 0.0084254285 -0.03911055 0.007234949
0000f0 36 f3 a1 3c cf c4 78 3c 99 95 95 3c 9a 80 99 bc
       0.019769292 0.015183642 0.01825981 -0.01873808
000100 3c 88 3e bc f3 2d 11 bc 73 de 10 3c 8d 82 1a 3c
       -0.0116291605 -0.008861053 0.0088420985 0.00943054
000110 bd 98 18 bd 7f 0c aa 3c ae 44 b0 3c 6e f2 6c 39
       -0.037255038 0.020757912 0.021517124 0.00022597026
000120 76 b1 12 3d ea ca 86 bd 8e 09 52 bd c8 a9 0f bc
       0.03581377 -0.065816715 -0.051278643 -0.008768506
000130 ed 48 65 3b e0 66 26 3d cb ef 37 3c 32 b4 02 3d
       0.0034986094 0.040625453 0.011226605 0.03191013
000140 2d b3 58 3d b2 ee 1d bc ac 36 90 3d 69 2c 31 bd
       0.05290525 -0.009639429 0.07041678 -0.043255243
000150 a7 40 a6 bd 76 77 cd bd 54 44 a3 3c 39 cb 11 bd
       -0.081178 -0.10032551 0.019930042 -0.0355942
000160 7a 77 9a bd 34 bc 1a bd de 29 ec bc 30 12 c2 3c
       -0.075423196 -0.03777714 -0.028828558 0.023690313
000170 97 3d aa bc 2e 41 aa 3c c8 43 6a 3a 2e 7e 52 3c
       -0.020781321 0.020783033 0.0008936492 0.012847466
000180 cf 3c 50 bc 26 f3 0b bc 5c 02 6e 3c c6 e7 b8 bc
       -0.01270981 -0.008541858 0.01452693 -0.022571456
000190 c7 5c 70 3d fc 4e 42 bd f3 76 57 bd 8a 42 4f bd
       0.05868223 -0.047438607 -0.052603673 -0.050600566
0001a0 1e b1 53 bd 1f ad 52 bd 22 06 3c 3d 03 0f 51 3d
       -0.051682584 -0.051434632 0.045904286 0.051039707
0001b0 46 8d 61 bd fb cb 49 3d 5b 3d 56 3d c5 2e 8e 3c
       -0.05506637 0.049266797 0.052304607 0.017356286
0001c0 62 68 a5 bc be ef 8d 3c 19 b4 8a 3d 93 56 86 3d
       -0.020191375 0.017326232 0.06772632 0.065594815
0001d0 48 48 b1 bd fd ee a1 bc 90 17 69 3d 5e a6 01 be
       -0.08656365 -0.019767279 0.056907237 -0.1266112
0001e0 fa 66 1d 3c 11 bc dd bb aa 9f b9 bc 12 41 23 bb
       0.009607071 -0.006766804 -0.022659142 -0.002491061
0001f0 6a 40 13 bb 93 55 7e bb c3 db 90 3b ea cf e5 3b
       -0.0022468814 -0.003880833 0.004420729 0.0070133107
000200 99 f1 81 bb f3 ac b2 3b 9e 5b 23 bc 53 e3 ac 3c
       -0.0039655683 0.005452746 -0.009970574 0.02110449
000210 ce 05 81 bd 52 b7 ae 3c 02 ad 94 3d 40 67 c9 3a
       -0.06299935 0.021327648 0.07259561 0.0015365854
000220 9a 96 5f bd ce 53 ba 3b e3 99 2f bb c6 e4 9d 3d
       -0.054586984 0.00568626 -0.0026794604 0.07709651
000230 55 30 8a 3d ec 5c 93 3d 7a cb 73 3d 57 a5 70 bd
       0.067475 0.07195458 0.059520222 -0.05875143
000240 d9 d6 20 bb 6b 3d cb bc dc 4f 5d bc a9 f8 81 bd
       -0.0024542122 -0.02480956 -0.0135078095 -0.06346256
000250 64 b9 f3 bc bd 88 08 3b 52 91 4b 3d e6 49 86 3d
       -0.029751487 0.0020833455 0.049699135 0.06557064
000260 73 0c fb 3b b0 26 b9 bc 88 89 bd bc cd b9 90 bb
       0.007661396 -0.022601455 -0.02313687 -0.0044166804
000270 3e 31 87 3d 8c 6c 83 3d bc e0 28 bb 14 4f 8b bc
       0.06601189 0.06417188 -0.0025768718 -0.01700548
000280 a7 ba 0b 3d 4a e0 c3 bc 89 ab 85 3c 5a 37 13 bd
       0.034113552 -0.02391066 0.016317146 -0.03594146
000290 b1 48 8b bc 5c 36 f3 bc c7 f6 fc bb ff 46 da 3c
       -0.017002435 -0.029689007 -0.007719848 0.026645182
0002a0 a5 1b 83 3b f8 a8 c3 bb d1 56 8f 3d 8c 9c 8c 3c
       0.004001098 -0.0059710704 0.06998981 0.017164491
0002b0 8e ef 26 bc 85 46 3a bd 43 c0 42 bd f4 c2 83 bc
       -0.01018895 -0.04547741 -0.047546636 -0.016084172
0002c0 dd 6f 84 3d 03 09 bd 3c e1 74 c8 bc b6 fd 9a bd
       0.06466649 0.023075586 -0.024469795 -0.07567923
0002d0 e6 d6 02 3e ca 26 aa bc b8 ca 39 bb 7e c4 4c bd
       0.1277729 -0.02077045 -0.002834959 -0.049992077
0002e0 41 99 86 bd e2 ba 36 bd 38 0d 04 3d 83 b8 0f 3d
       -0.065721996 -0.04461182 0.03223917 0.035088073
0002f0 5a 56 b1 bd de c6 9c 3c 3d aa ab bb fe 1e 8a bc
       -0.086590484 0.019137796 -0.0052388 -0.016860481
000300 37 24 a9 bc 3b 4b 1c 3b 95 94 3a 3d 7c ea 84 3d
       -0.020647151 0.0023848552 0.045551855 0.06490037
000310 d5 d5 d1 39 1b b9 b2 bd ba db e7 bb 84 9a 35 3d
       0.00040022904 -0.08726712 -0.007075754 0.04433681
000320 6d 32 3f 3c 3a 17 a8 b7 dc ec 05 36 b8 4c c2 ba
       0.011669737 -2.0037976e-05 1.9956415e-06 -0.0014823889
000330 f6 f2 97 ba d4 fe 76 b8 b8 74 3f 38 c8 10 3e 3c
       -0.0011592794 -5.8888298e-05 4.564665e-05 0.011600681
000340 99 b7 3c bc a0 6f 4b 38 90 e6 2a 3d 64 5b b4 bc
       -0.0115183825 4.850293e-05 0.041723788 -0.022016235
000350 23 d1 82 bc 00 c3 b9 bc 0b cd d2 bc 2c 11 d5 bc
       -0.015968865 -0.022675991 -0.025732538 -0.026009165
000360 a0 60 8e 3c 74 f0 a1 3c 73 60 a3 bc 9a fa c7 3c
       0.017380059 0.019767977 -0.019943452 0.024411488
000370 09 1c 9b bc 07 5d e7 bc 3a 2f 77 bc a1 72 d1 bc
       -0.018934267 -0.028242601 -0.015086943 -0.025567355
000380 bf c3 3b bd 14 2e 83 ba bc 8b 38 3c 95 32 3e 3d
       -0.045840975 -0.0010008239 0.011263784 0.046434958
000390 59 51 1e bd 83 7c 06 bd 40 a8 84 3c 0c 61 05 bd
       -0.038651798 -0.032833587 0.01619351 -0.032563254
0003a0 d8 17 81 3b 4b a6 ca 3b 1e 0a 0b bd db 48 79 bd
       0.00393961 0.0061843744 -0.033945195 -0.060860496
0003b0 31 49 72 3d ff ae 1d 3d 06 2f b6 bb 76 53 b8 3c
       0.059151832 0.038496967 -0.005559805 0.022500735
0003c0 b0 68 22 3d 31 2b ca 3c f9 70 be 3c a7 0a df bd
       0.03965062 0.024678798 0.023247229 -0.10890704
0003d0 e5 39 c6 bc 31 cf 35 bd 7d 84 a8 3c ef 14 e4 bb
       -0.024197528 -0.044387046 0.020570988 -0.0069605033
0003e0 37 4e 2c bd e1 21 8a 3d 1c 44 9d 3c ae 7f 4f 3a
       -0.04206678 0.06744743 0.019197516 0.0007915449
0003f0 49 49 02 3d 45 7d e0 bc ec 11 bd bc bf 17 b6 bc
       0.03180817 -0.027403483 -0.023079835 -0.02222812

bias f4 [2048]
000000 54 31 94 bd 91 df 1d 3e 29 24 ec bc 0f e7 11 be
       -0.07235971 0.15417315 -0.028825836 -0.14248298
000010 b1 f8 99 bd ba 01 15 bc 52 e1 bc bc 81 ed 66 bd
       -0.07518137 -0.00909465 -0.02305666 -0.056378845
000020 88 ab 12 3e 2e ad d1 bc a5 e9 5c bd 2d 86 9d 3e
       0.14323246 -0.025595274 -0.05393376 0.3076643
000030 a1 c0 c9 bc e3 31 58 3d 86 dd 7f 3e dc 4c 45 bc
       -0.024627985 0.05278195 0.24986848 -0.0120422505
000040 72 b3 0f bd 02 a7 85 3d a4 d3 4f bd df 44 b2 3e
       -0.03508324 0.06525995 -0.050738946 0.3481817
000050 ba b8 80 bb 1d f5 fa bc e1 ef a4 3d 62 ff de 3c
       -0.003928271 -0.030634457 0.08053566 0.027221385
000060 ef 21 13 be 97 12 31 bd 4c 3e 05 bd 3a c2 97 bd
       -0.14368413 -0.04323062 -0.032530114 -0.07410093
000070 ac 1e bc bc 3e 8a 13 bd ee 42 53 bd 9f 56 f6 bd
       -0.022963844 -0.03602051 -0.0515775 -0.120282404
000080 a7 1e 6e bc 7a 41 58 3d 60 40 b1 bc 76 0c 73 3e
       -0.014533675 0.05279682 -0.021637142 0.23735222
000090 bd d1 46 bd d6 84 f2 bb 5c 3c ae 3d 10 8f d2 3d
       -0.048539866 -0.007401089 0.085076064 0.10281193
0000a0 1d f2 0d bd 1e c9 aa bc ee 47 9c bd 81 a1 64 3e
       -0.034654725 -0.020847853 -0.07630907 0.22327234
0000b0 71 31 58 bd f4 8c e3 3d 4d 58 74 3e f5 fa 24 be
       -0.052781526 0.11110869 0.23861809 -0.16111358
0000c0 bc 70 ff bd 1d e8 cf 3d af 53 77 bc ab f1 b4 3e
       -0.12472674 0.10151694 -0.015095635 0.35340628
0000d0 d8 de 4b 3e dd 11 86 3e 80 e2 56 bd 4e 40 e5 3d
       0.19909227 0.26185504 -0.0524621 0.11193906
0000e0 36 d2 00 3e ce 06 a6 3d bd a9 86 3d e6 3b 94 3e
       0.12580189 0.08106767 0.06575344 0.2895195
0000f0 7c 87 2f bd 35 4e 33 3d f3 bc b2 bd 1c f4 84 bd
       -0.042853817 0.043775756 -0.087274455 -0.06491873
000100 9d 5c d2 3d f5 7e 11 3d 8d a5 50 3d a5 da 24 bd
       0.10271571 0.035521466 0.05093913 -0.04024758
000110 d4 b1 55 3e b8 d0 e7 bc 21 be 35 bd b8 2d 0f bd
       0.20868617 -0.028297767 -0.044370774 -0.03495571
000120 e8 95 df 3c 97 60 4d 3e e1 41 93 bc 93 27 a9 3e
       0.02729316 0.20056377 -0.01797575 0.33038005
000130 cf cd 93 3e 2c 78 41 bd 7b 5c 13 be 8f e1 69 bd
       0.28867957 -0.047233745 -0.14390747 -0.057099875
000140 9d 2f 38 bd 1f be 6f 3e eb 43 f9 bd 05 b0 3a 3e
       -0.044967283 0.23412369 -0.121711574 0.18231209
000150 c2 42 6f bd 28 1e f4 bd 44 b6 fd bc b3 e0 f9 3d
       -0.058413275 -0.11919814 -0.0309707 0.12201061
000160 f4 8d 8e 3e fb c4 34 3d 5e 56 51 bd 28 88 8e 3e
       0.27842677 0.044133168 -0.051107757 0.27838254
000170 6f 68 65 bd 33 29 0e 3e a7 b8 10 bd 5d fa 7e 3e
       -0.0560078 0.13882904 -0.03533235 0.24900194
000180 93 bc a5 bd 68 f6 ab 3e ea 4d af 3e d5 9e 08 3d
       -0.08092608 0.3358643 0.3423913 0.0333546
000190 83 99 32 3e 75 d5 0e bd 51 fe 6b 3e b7 83 63 3d
       0.17441373 -0.034871537 0.23046233 0.055545535
0001a0 9b e5 07 bd 82 c7 32 bd 55 0b 55 bd 94 76 79 3e
       -0.033177953 -0.043647297 -0.05201276 0.2436164
0001b0 45 b0 02 bd 09 a8 3c 3e 5f 0a 99 bd e6 be c4 3d
       -0.031906385 0.18423475 -0.07472681 0.096067235
0001c0 90 69 c7 3c 99 f3 3d bd 7e 4e 95 3c ae ec a2 3e
       0.024342328 -0.04637489 0.018225905 0.31821197
0001d0 3a 15 ae bd 20 d1 6a bd 7e da c4 bc b0 c8 45 bd
       -0.085001424 -0.057328343 -0.024029966 -0.048287094
0001e0 64 7b 01 3e b8 51 74 bd 3f 09 a2 bd 86 2b d2 bc
       0.12644726 -0.059648246 -0.0791192 -0.02565552
0001f0 cc 68 79 3e a8 ee ce bc da b3 af 3d 76 62 75 3e
       0.24356383 -0.025260285 0.08579226 0.23963341
000200 77 e5 07 be 7a df 9c bc e2 54 00 bd 79 8d d6 bb
       -0.13271128 -0.01914953 -0.03133095 -0.0065476266
000210 38 86 35 bd 37 c9 87 bd 87 d3 0f 3c 51 fc 66 3e
       -0.044317454 -0.066301756 0.008778459 0.22557189
000220 a8 47 e6 bb 07 5d 1b 3d 85 1d 4c 3e 28 30 d3 3d
       -0.007027585 0.037930515 0.19933136 0.103119195
000230 51 3b 91 bd c1 e7 35 bd ca 87 59 3d e0 f2 9f 3e
       -0.07091392 -0.04441047 0.053108014 0.31239986
000240 1a 94 36 3e 6a 08 b7 3d 7b e6 89 bd f2 b6 92 ba
       0.17829934 0.08937152 -0.06733414 -0.0011193438
000250 69 cc 1b bd 2e b6 5c 3e 0f 01 3a bd 6e 76 3e bd
       -0.038036738 0.21553871 -0.045411166 -0.046499662
000260 02 fb 41 bd e6 3f d7 bc cb 8c ee bc 07 3c d9 bd
       -0.04735852 -0.026275586 -0.02911987 -0.106071524
000270 9e 76 3d bd 14 5f 57 3e fa 43 b4 bd ab 87 89 bc
       -0.0462557 0.21032363 -0.08802028 -0.016788324
000280 32 ea 15 3d d0 3d 1a 3e c7 dd 28 3e cc 4d b7 3d
       0.0366003 0.15062642 0.16490851 0.089503855
000290 3d 69 a4 bd 0e bd 18 3e 92 ef 73 3d c9 1f 28 3e
       -0.08027885 0.14915869 0.059554644 0.16418375
0002a0 3d ec 0b 3e 75 66 ac 3e 14 e0 0f bd c2 65 94 3e
       0.13664337 0.3367192 -0.035125807 0.28983885
0002b0 bb 70 47 bd e9 d6 d1 3d 8a d5 1e bd 2f ae 82 bd
       -0.048691493 0.10246069 -0.038777865 -0.06380879
0002c0 b2 44 62 bd 95 ba a3 3c 29 6c 06 3e 0d 75 f7 bd
       -0.055241294 0.01998643 0.13127197 -0.120828725
0002d0 7a f2 83 3c 12 aa a2 3d 3b b4 df bc 5d e9 87 3e
       0.016106833 0.079425946 -0.02730762 0.2654523
0002e0 89 2e e6 bc e2 ce 69 3e de c8 f6 bd 7c 8b c6 bc
       -0.028098362 0.22832826 -0.12050031 -0.024236433
0002f0 19 12 81 3e f8 e5 ff 3d 02 be 7f 3e 69 35 9e bd
       0.2520912 0.12495035 0.24974826 -0.07725031
000300 e9 41 bc 3c b8 cd bd bc 31 1b a3 3d d8 05 97 3e
       0.022980647 -0.023169383 0.07964171 0.29496646
000310 a9 b6 82 bc 0a 40 11 3c 6d c6 aa 3e 14 a4 0f bd
       -0.01595624 0.008865366 0.33354512 -0.035068586
000320 d2 4f 2b bd 64 42 49 3e c7 1f 1e bd a7 93 37 bd
       -0.04182417 0.19654232 -0.038604524 -0.044818547
000330 6e 6a 0e bd f3 0f da 3d 99 b2 8f bc e2 46 8d 3e
       -0.034769468 0.10647573 -0.017541217 0.27593142
000340 15 b7 d9 3d fb 23 a5 bc ba 0c c3 bc 1f 51 b7 bd
       0.10630623 -0.020158758 -0.02380978 -0.089510195
000350 1a 0f b9 3d 6a bc 01 bd de e6 5a 3e 3c 28 81 bc
       0.090360835 -0.031673826 0.21377131 -0.015766256
000360 74 48 7a 3e 33 81 51 3e a2 2b b6 bd 5e f2 3c 3e
       0.24441701 0.20459442 -0.08895041 0.1845183
000370 d3 45 8e 3e 99 ce 3f bd 38 48 9c 3d 5e cd 03 bd
       0.27787647 -0.046827886 0.07630962 -0.032178275
000380 d0 3c 56 bd 3e 98 18 bd 53 67 f6 bc cb d9 02 3e
       -0.05230409 -0.037254564 -0.030078566 0.12778394
000390 47 4e aa 3e 69 4e 54 bd 7f 51 3e 3e 12 66 3b 3e
       0.33262846 -0.05183259 0.18585776 0.18300655
0003a0 6e 04 d4 3d 72 67 2a 3d c6 7a c6 3c 03 37 3e 3e
       0.103524074 0.04160256 0.024228465 0.18575673
0003b0 78 0c 26 bc 8d b2 20 3e 21 fb a4 bd e6 62 97 bc
       -0.010134809 0.15693112 -0.080557115 -0.018479776
0003c0 27 72 62 3e d0 b6 a2 bc 3c fd a5 3d ec 25 6a bd
       0.22113858 -0.019862562 0.08104941 -0.05716507
0003d0 53 c3 75 3e c4 ca a4 bd f7 b3 55 bd a0 5e 34 bd
       0.24000292 -0.08046487 -0.05217358 -0.044035554
0003e0 1b 82 08 bd 94 73 ba bd c8 f2 0e bd 7a 0d 8f 3d
       -0.033327203 -0.09104076 -0.034899503 0.06984992
0003f0 cf 96 36 bc a2 b7 01 be 0b 90 4d 3e ba 02 94 bd
       -0.011144354 -0.12667707 0.2007448 -0.072270826

weight f4 [10, 2048]
000000 91 4a f5 bc 4c 06 89 bd 6e 36 8d 3c 71 6b 24 bd
       -0.029942783 -0.06690654 0.017237868 -0.040141527
000010 ce b0 a2 bd 88 4d 16 bd 7d 57 59 3c f5 e1 0b 3d
       -0.07943879 -0.036695033 0.013265488 0.034151036
000020 df fd 94 bd 80 31 a7 bc 2a b2 49 3d b9 94 98 bd
       -0.072749846 -0.020409346 0.049242176 -0.074502416
000030 17 6c dc bc 16 47 16 bd 81 5f 10 bd b4 aa ec bc
       -0.02690701 -0.036688887 -0.03524733 -0.028889991
000040 88 1b 84 3b 51 5c ab 3c 8c f3 3a 3d cf 34 81 3c
       0.0040316023 0.020918043 0.04564242 0.015772251
000050 bf c5 ab 3d 36 b1 dd 3c 35 51 b5 bc df 3a f7 3b
       0.083873264 0.02706204 -0.02213345 0.00754486
000060 0d da 69 3d 1c a0 16 3d 12 a3 0d bb e5 6f f0 bb
       0.057092715 0.036773786 -0.002161209 -0.0073375576
000070 fb fb 83 bc 40 7e 1c bc 46 e4 fe 3c 40 a3 04 be
       -0.016111365 -0.009551585 0.031114709 -0.129529
000080 34 3c a9 38 c3 ba 3e 3d c9 b8 9d 37 c7 90 6b bb
       8.069762e-05 0.04656483 1.8801906e-05 -0.0035944448
000090 e7 b2 19 3d 28 a8 2d bd 35 47 9e bd 02 24 68 bd
       0.03752413 -0.042396694 -0.077284254 -0.056674965
0000a0 50 08 9c bd c1 51 aa bc b7 2a 8d 3c ff a6 10 bd
       -0.07618773 -0.020790936 0.017232282 -0.03531551
0000b0 d4 c4 b9 3c 50 43 9a bd ca f2 87 bd 89 d2 b1 bc
       0.022676863 -0.0753237 -0.06638105 -0.021706836
0000c0 e3 77 19 3d 73 68 c8 bd ad d9 d3 2f d5 74 aa bd
       0.03746785 -0.09785547 3.8535344e-10 -0.08323065
0000d0 0f ea 61 bd 6a 7a b9 bc 1f cb c1 bd 02 9d 89 3c
       -0.055154856 -0.02264138 -0.094625704 0.0167985
0000e0 f5 c8 93 bd 2e 9f 4a 38 c7 9a 2f bc a7 de 0d bd
       -0.07216064 4.83088e-05 -0.010718054 -0.034636166
0000f0 fc 67 4d bc c5 db 94 bd 95 be be 3c f4 ec 8b 3c
       -0.012536999 -0.0726848 0.023284236 0.017080761
000100 a7 50 18 bd 64 f1 63 3c 3a c2 02 3c ae 4a 14 bd
       -0.03718629 0.0139125325 0.0079808775 -0.036204033
000110 45 89 89 3c ac c8 45 bd 35 b9 ac 3c 57 04 74 bd
       0.016789088 -0.04828708 0.021084407 -0.05957445
000120 f3 f8 39 bd 7c d2 ab bd 2a 1a 49 3d 58 19 32 bd
       -0.045403432 -0.08389756 0.049097218 -0.0434812
000130 30 31 9c bd c9 f4 1b 3c d3 1e af bc e0 d4 50 bd
       -0.07626569 0.009518811 -0.021377003 -0.050984263
000140 1a 9a 2d bd 9a 75 9a bd 3c f7 3a 3d 4f 63 9e bd
       -0.04238329 -0.07541962 0.045645937 -0.07733785
000150 f4 40 db 3c ff a7 03 3b ab fe c7 bc 32 66 94 3c
       0.02676437 0.0020089147 -0.024413427 0.018115137
000160 2f c7 2d bd ce eb 0c 3c e6 d5 9d bd 11 f3 60 bd
       -0.042426284 0.008601142 -0.077068135 -0.054919306
000170 bd 58 b1 3c 1e c2 bc 3b 28 8d 07 3d 93 93 4f bc
       0.021648759 0.0057604453 0.0330936 -0.012669462
000180 02 56 29 bd a2 5b ef bc 14 be d0 bb e9 39 d3 3c
       -0.04134179 -0.029218499 -0.0063703153 0.02578445
000190 1a e1 0c 3b ac 02 99 bd b2 a0 a9 bd ac b3 bb 3c
       0.0021496476 -0.07471213 -0.08282603 0.022912823
0001a0 f6 e8 37 3d 0c a8 1b 3d 6a df 5d bb 20 41 9d bd
       0.044899903 0.03800206 -0.003385509 -0.07678437
0001b0 c8 70 7a 3d 35 b4 4d 3c 18 80 8a 3d 91 96 6f bd
       0.061142713 0.012555172 0.06762713 -0.0584932
0001c0 a2 f1 06 be 2e 8e b0 bc 7e e8 1b bd 89 63 bf bc
       -0.13178113 -0.021552172 -0.03806352 -0.023362892
0001d0 41 e0 09 bc 84 18 1a bd 36 59 8b 3b 0e 1c 47 bd
       -0.008415283 -0.037621036 0.004252578 -0.04861074
0001e0 d5 56 62 bd 91 45 66 bc c0 47 3e bc 6b 3c 99 bb
       -0.05525859 -0.014054672 -0.011613786 -0.004676392
0001f0 a7 16 ac bd 06 a1 7d bd de 90 a0 bd 75 62 a9 3b
       -0.08402758 -0.061921142 -0.07840131 0.0051692077
000200 57 55 a2 3c c9 23 c4 3b 7a 66 a9 bc bd 08 00 34
       0.019816084 0.0059857112 -0.020678747 1.1924108e-07
000210 97 e0 e5 3c 4f 68 6a bc 1d 87 92 3d fa 6b 73 bd
       0.028061194 -0.014307096 0.07154677 -0.059429146
000220 eb a2 16 b2 b3 80 88 bd 07 2a e3 bb df ec aa bd
       -8.768192e-09 -0.066651724 -0.0069325003 -0.08345961
000230 0f 9f f4 bc 55 f2 3c 3d d0 08 0e bd 42 4e fd bb
       -0.029861001 0.046129543 -0.034676373 -0.0077302763
000240 16 40 94 bb 0b 6d 8b bc 79 9a 7c bd fd aa 74 bd
       -0.004524241 -0.01701977 -0.061670754 -0.05973338
000250 79 d5 f6 bc d6 90 de bc ce 6e 03 be e4 6a c2 3c
       -0.030131089 -0.027168673 -0.12835237 0.02373261
000260 6d 3c e8 3c 67 21 d4 bc 93 2b ac 3c 00 bb 94 bd
       0.028349126 -0.025894834 0.021016872 -0.0726223
000270 ac e8 6e bd 4e 3b 9d bd 56 59 d7 3d f3 96 b7 b3
       -0.058327362 -0.07677327 0.10515086 -8.549059e-08
000280 7e ac dc bc b8 97 7f bd 51 1e c0 bc c4 e9 2b bd
       -0.02693772 -0.06240055 -0.023451956 -0.041970983
000290 1a 74 c6 3c fe b1 6b bd ec ed ef bc 6a 9a 89 bd
       0.024225283 -0.057542793 -0.029288255 -0.06718905
0002a0 1c d8 44 bd 3a 67 03 bd c0 cd ee 3d 13 05 3c bc
       -0.04805766 -0.032080866 0.116603374 -0.011475819
0002b0 33 7a 97 bc 9e 9b e7 bd d9 02 94 3c b5 b0 09 3c
       -0.018490886 -0.113089785 0.018067764 0.008403947
0002c0 45 05 03 bd e4 e0 90 bc 76 84 83 bd cb 28 95 bd
       -0.031987447 -0.017685361 -0.06421749 -0.07283171
0002d0 05 9e ef bc ea 2f e9 3a 28 83 00 bd 23 0e 86 bd
       -0.029250154 0.0017790769 -0.03137508 -0.06545665
0002e0 1e a7 a3 3c 49 45 e6 bc 90 09 2a bd 46 05 17 bd
       0.019977149 -0.02810921 -0.041513026 -0.036870264
0002f0 ad 8b 2e 3c 16 18 2d 3c 28 13 a7 bd 77 b5 55 3b
       0.0106534185 0.010564825 -0.08157951 0.0032609382
000300 c9 c8 b4 3c f7 07 ea 3b b7 87 bd bc f3 ac 9b bd
       0.022068398 0.0071420628 -0.023136003 -0.07601347
000310 c9 c8 78 bc 1a 3d 32 bd 4b d0 83 bd 98 be 60 3d
       -0.01518459 -0.043515302 -0.06436213 0.054869264
000320 82 cc fe 3c fd 0a 75 bd fd 40 8b 3c 5e 0a b7 bd
       0.031103376 -0.059824932 0.016998762 -0.08937524
000330 57 ed f1 3b 73 6a d7 3a 37 3d 33 bc 88 e3 1b bd
       0.0073830294 0.0016434923 -0.010939888 -0.038058788
000340 21 30 66 bd f1 15 bf bc a3 23 2c bc 01 06 36 3c
       -0.056198243 -0.023325892 -0.010506543 0.01110983
000350 0c b2 9d 3d 86 2d 93 bd 44 aa dc bb 76 27 a4 bd
       0.07699975 -0.07186417 -0.0067341644 -0.08015339
000360 7c 01 ef 3b f4 3b f2 bc a0 f2 bf bc 9d 15 8f 3c
       0.007293878 -0.029569604 -0.023431122 0.01746636
000370 a2 08 3f bd f9 11 6e 3d ca 4d ba bd 20 5f 33 3d
       -0.046639092 0.05812261 -0.09096868 0.04379189
000380 b8 c0 e8 3c 8c bb 43 3c ba 3d 9f bc 5e b0 8c 3c
       0.028412208 0.01194657 -0.019438613 0.017173942
000390 fb 28 28 bb b8 c3 54 3d 8d 56 3a 3c 33 61 37 bc
       -0.0025659192 0.051944464 0.011373174 -0.011192608
0003a0 1a 54 7a 3c 96 0f 5e bd 0c 90 16 bd 5a 3b c4 bc
       0.01527884 -0.054214083 -0.036758468 -0.023954082
0003b0 f9 78 ac 3d c7 ab 85 bd 9a 21 c7 3c 4a f8 e5 bb
       0.08421511 -0.065269046 0.024308015 -0.0070181238
0003c0 e0 52 4a bd 61 9a aa 2f 85 c2 a1 bd dc 1f 8e bc
       -0.049395442 3.1032513e-10 -0.0789843 -0.017349176
0003d0 6a ca cc 3c d1 99 f0 bc e4 5e 04 3d dd 98 39 3d
       0.024998862 -0.02937022 0.032317057 0.045311797
0003e0 6c cd 3e 3b 32 8b aa bd fa 6c a0 bc fd ff 20 bd
       0.002911414 -0.08327331 -0.019583214 -0.03930663
0003f0 93 0b 4c 3a 09 c2 f5 3c c0 98 e2 bc 5e 32 85 bc
       0.0007783707 0.02999975 -0.027660728 -0.016259369

bias f4 [10]
000000 b1 c5 25 bd 9e 65 61 3d c2 11 71 3c af 09 60 3c
       -0.040471736 0.05502855 0.014713706 0.013674184
000010 71 34 41 3d 3a 4b 77 bc 5a a9 87 3d a2 de 26 bc
       0.047169153 -0.015093619 0.06624098 -0.010184916
000020 f8 c4 8a 3c 07 0b a3 bd
       0.016939625 -0.07961088

weight f4 [10]
000000 0c 9f 70 3f 03 b9 7d 3f b2 12 76 3f 49 bd 82 3f
       0.93992686 0.9911043 0.96122277 1.0214015
000010 bf ec 83 3f 65 1c 78 3f ed 60 71 3f e9 7d 82 3f
       1.0306624 0.96918327 0.9428852 1.0194675
000020 0e a1 80 3f 3f 1a 7c 3f
       1.004915 0.9847755

bias f4 [10]
000000 b6 c8 f4 bc 65 40 0b 3d 54 58 e2 3c 00 1f d6 3c
       -0.029880863 0.03399696 0.027630009 0.026137829
000010 e4 3c 0d 3d ed 89 01 bd a5 2c 10 3d 3a 63 97 bc
       0.034481898 -0.031625677 0.035198826 -0.018479932
000020 73 d5 85 3c fe ea 20 bd
       0.016337132 -0.039286606

weight f4 [10]
000000 72 42 85 3f 1f 4e 7e 3f e9 02 79 3f d6 73 81 3f
       1.0410903 0.99337953 0.97270066 1.0113475
000010 74 bc 73 3f bc ee 76 3f b9 4c 73 3f 78 a7 77 3f
       0.9520943 0.9645803 0.95038944 0.9673991
000020 01 ed 7a 3f 57 bd 8c 3f
       0.9801789 1.0995282

bias f4 [10]
000000 59 5f 85 bd 8c 51 96 3d e2 4e 86 3d 6c a3 00 3d
       -0.06512327 0.073397726 0.065580145 0.03140585
000010 16 3b 70 3d 7e df 21 bd 9c 12 ae 3d e4 a0 79 bc
       0.0586501 -0.03951978 0.08499643 -0.015236113
000020 b8 77 96 3c fb 7f 19 be
       0.018367633 -0.14990227

weight f4 [10]
000000 08 14 5f 3f 50 ed 56 3f d3 00 4e 3f 5d 0c 6a 3f
       0.8713994 0.8395586 0.8047001 0.91425115
000010 fc 01 64 3f 84 f7 5e 3f 27 ad 44 3f 47 b6 70 3f
       0.8906553 0.8709643 0.7682671 0.94028133
000020 cb 8d 59 3f 8a 5e 3f 3f
       0.84981984 0.7475363

bias f4 [10]
000000 d0 fd 44 3d 27 f7 8d bd 8c f7 83 bd aa 7e b6 bd
       0.048093617 -0.06931906 -0.064437 -0.08910878
000010 61 d8 9f bc 4b 53 f9 3c 24 92 40 bd 98 27 1e 3c
       -0.019512357 0.030435225 -0.04701437 0.009652995
000020 5e 7e a7 bd be 59 08 3e
       -0.081783995 0.13315484

in_proj_weight f4 [30, 10]
000000 83 2b 00 be 60 96 5b 3e 84 bb c2 be 23 72 38 be
       -0.12516598 0.21444082 -0.38033688 -0.1801229
000010 f9 ed 23 3c 7b 76 ed 3d bf f9 1a 3f 3e 10 27 3f
       0.010005468 0.11594864 0.6053733 0.6525916
000020 da d9 5c 3f eb 66 e1 3e 48 af c7 bc fb 88 1e 3e
       0.86269915 0.44023833 -0.024375573 0.15481941
000030 74 6f 1d 3e 32 18 9c be 7b 3c d7 3b 41 b6 5a 3d
       0.15374547 -0.3048721 0.006568489 0.053396467
000040 20 67 c3 3e 12 01 3a 3e f1 b5 10 3f b6 b7 6d 3f
       0.38164616 0.18164471 0.5652762 0.92858446
000050 64 c2 b1 3e 1e da 83 3e cc 8f c2 be b6 45 e0 be
       0.3471862 0.25752348 -0.38000333 -0.43803185
000060 10 14 04 bf fe 08 a9 be cc e4 80 bd ce 08 af be
       -0.5159311 -0.33014673 -0.062936395 -0.34186405
000070 a5 95 2e bf a2 da 48 bf ef 76 a9 bd 98 df 35 be
       -0.6819709 -0.7845861 -0.08274638 -0.17761075
000080 76 7a 7e bd ac 74 31 3e 16 b5 74 be 3e bd 63 3d
       -0.062128507 0.17329663 -0.23897204 0.055600397
000090 d8 9c e2 be 96 39 0d 3d 56 d2 42 bf 84 3d a9 be
       -0.44260287 0.034478746 -0.761022 -0.33054745
0000a0 30 08 88 be 6a 0f 19 bc 5e 52 58 be 53 98 0f bc
       -0.26568747 -0.009342054 -0.2112517 -0.008764344
0000b0 4e a8 42 be 7d ef df bd a4 84 0a bf c9 56 ba be
       -0.19009516 -0.10934351 -0.54108644 -0.36394337
0000c0 06 cc 06 bd a1 44 44 bf e6 ca 8b 3d 33 eb f9 bd
       -0.032909416 -0.7666722 0.06825809 -0.12203064
0000d0 9e ab c0 bc e3 18 46 be d3 f8 db 3c 1e 5d 15 be
       -0.023519333 -0.19345431 0.026852047 -0.14586303
0000e0 2b 66 e0 bd 58 ee 43 3e da b1 db be a2 3c 33 be
       -0.10956987 0.1913389 -0.42909127 -0.17503598
0000f0 73 3f dd 3e b6 2e e6 3e db dc 99 3e 8b aa 0c be
       0.4321247 0.44957513 0.30051312 -0.13736932
000100 78 6b b0 bd 8a 46 5d be 1d 96 f0 be 96 4b c5 be
       -0.08614248 -0.2160894 -0.46989527 -0.3853423
000110 74 3e 02 bf f8 18 32 bf 1b 89 c7 3d f3 2e d6 bd
       -0.50876546 -0.6956935 0.09742948 -0.104581736
000120 f1 16 08 bd b8 df a1 be f8 f0 89 3e 23 fc 8c 3d
       -0.033225004 -0.31615996 0.26941657 0.06884029
000130 ad 59 c9 3e 7e 5a 4d 3e 75 07 ef 3e 80 91 e8 3c
       0.3932623 0.20054051 0.46685377 0.028389692
000140 d2 b8 f4 be 54 4c b2 be cb ba 7a 3e d9 95 bd 3e
       -0.47797257 -0.3482386 0.24485318 0.37028387
000150 11 b6 70 bc 85 0f 22 3d 5f 0f 01 3f 06 41 9c 3e
       -0.0146918455 0.03956558 0.5041408 0.3051836
000160 47 5b 4a 3e 47 96 34 3e db 6a 15 be 76 ba 1e bf
       0.19761382 0.17635451 -0.14591543 -0.62003267
000170 ab 16 72 be e3 0f bc be 0d bc 7c 3e 67 80 e6 3d
       -0.2364146 -0.3673087 0.2468111 0.112549596
000180 b1 d0 47 3e 5b 2c 63 3d da 53 c5 3e 75 e6 23 3f
       0.19513203 0.055462223 0.38540536 0.64023525
000190 06 a1 0c 3f dc d0 ba 3e f7 ff 5a 3e 05 f5 24 bf
       0.549332 0.36487472 0.21386705 -0.6443637
0001a0 cd c1 c0 be 69 96 1a bf 0c 8a 35 be 70 04 34 be
       -0.37647858 -0.6038576 -0.17728442 -0.17579818
0001b0 a6 48 41 bf f2 19 f2 bd 4b a1 83 3e 95 db 79 3e
       -0.7550148 -0.11821355 0.25708994 0.2440017
0001c0 36 0b 98 be ff 1a 4e be 99 49 11 bf 01 cf 90 bd
       -0.29696053 -0.20127486 -0.56752926 -0.07070733
0001d0 08 15 4f 3d 11 93 1a bf a5 dc c1 be 85 9c 19 be
       0.050557166 -0.60380656 -0.3786365 -0.15001114
0001e0 8b fe 06 be 2b ee 09 bf c8 c4 4e 3e 57 e3 5c bd
       -0.13183038 -0.5387904 0.20192254 -0.053927746
0001f0 4c 5f 05 3f 1c 73 c4 bd a0 8f 83 3e d2 33 16 3f
       0.52098536 -0.09592268 0.25695515 0.5867282
000200 4e 3e 00 3f f5 d8 14 3f e8 07 65 3d cb a6 10 3d
       0.5009507 0.5814355 0.055915743 0.035315316
000210 05 76 0a 3e b8 7f 60 be ee dd fa bd 4b fc 34 3e
       0.13521583 -0.21923721 -0.12249361 0.17674367
000220 60 b7 be 3e 8f 41 d9 3e ef bf 92 3e ca d5 a9 3d
       0.3724928 0.4243283 0.2866206 0.0829273
000230 e3 e2 ca be 68 4f 95 3d 36 7f 63 3e 91 c1 47 3e
       -0.39626226 0.07290536 0.22216496 0.19507433
000240 89 66 c4 3e b1 d8 0b 3d 94 f2 4c 3e 6c ad cb 3e
       0.38359478 0.0341422 0.20014411 0.39780748
000250 f0 dd 80 3e c9 66 79 3e 9f 5e c6 3e fd b2 c3 bd
       0.25169325 0.24355616 0.38744065 -0.09555624
000260 92 c4 2b be 27 4c 16 be b4 a8 50 be c6 0c ee bc
       -0.16774204 -0.14677487 -0.20376855 -0.029058825
000270 0b 68 ce be 12 6d 72 bb 3b 09 59 3e e7 03 12 3e
       -0.40313753 -0.003699128 0.21194927 0.14259301
000280 7f 7d 05 3f fc 22 81 be bc 62 93 be 2c 4e 7d bf
       0.52144617 -0.25222003 -0.28786266 -0.98947406
000290 e3 4c 15 bf 00 e0 60 bf 0e d3 e2 be 79 89 3c bf
       -0.58320445 -0.87841797 -0.44301647 -0.73647267
0002a0 33 68 09 bf 5b e7 5c bf 90 10 db bd b4 45 09 bf
       -0.5367462 -0.8629052 -0.106965184 -0.53621984
0002b0 cf e3 dd be 52 52 b6 b9 62 b7 9d 3e 44 9f 7c bd
       -0.43337867 -0.00034775079 0.30803972 -0.061675325
0002c0 6f a7 86 3e 3e b4 b5 3c 1d d5 46 3e 45 03 b8 3e
       0.26299617 0.022180673 0.19417234 0.35939994
0002d0 79 f1 06 be 6c 12 bf bd 63 b8 c7 bd a4 26 27 3e
       -0.13178052 -0.093296856 -0.09751966 0.16323334
0002e0 3c 88 62 3d dc 30 9c 3e 4e eb f9 3e 79 7b 99 3d
       0.055305704 0.30506027 0.48812336 0.07494254
0002f0 3f 22 d4 3e a8 ab af 3e df e8 86 bc 93 b1 84 3e
       0.41432378 0.3431065 -0.016468463 0.25916728
000300 a8 58 c8 3e 00 50 36 3f ae 70 37 3e 08 69 12 3f
       0.3913014 0.7121582 0.17914078 0.57191515
000310 0a c2 38 3e 49 dc aa 3d d0 80 da 3e 38 16 09 bd
       0.1804277 0.08342797 0.426764 -0.033468455
000320 e4 d4 66 3e f2 46 dc 3d e2 2d 25 3e a2 ac 3b 3e
       0.22542149 0.10755719 0.16130784 0.18327573
000330 ee a8 d7 be 1b ec 0a be 50 21 e5 3c b9 66 aa 3e
       -0.4212107 -0.1356663 0.027969986 0.33281496
000340 86 a3 26 be c7 4a 98 be b6 8b 9d bd 0d b4 b1 3e
       -0.16273317 -0.2974455 -0.07692663 0.3470768
000350 52 6d 64 bd ab 94 70 3e 7c 41 47 3e f3 3d 50 be
       -0.05576832 0.23494212 0.19458574 -0.20336132
000360 78 40 3c be 62 1c dd 3d 30 04 a7 be be 96 2b bd
       -0.18383968 0.10796429 -0.32620382 -0.041891806
000370 67 e0 05 3d 09 5c b5 3e 92 c5 b9 be 17 a6 8e bd
       0.03268471 0.3542178 -0.36283547 -0.06965273
000380 32 ac 3a be 01 7e 70 3d 4d ea de 3d ae f0 8b bd
       -0.1822975 0.058713917 0.10884533 -0.068330154
000390 6b 50 a5 3e e5 5f fe bd 8a 5f e3 3d 30 4e 40 3e
       0.32287917 -0.12420634 0.11102207 0.18779826
0003a0 53 fe 2c 3e c7 40 ce bd 84 46 d8 be 4c fa 98 3e
       0.16893892 -0.10070949 -0.422413 0.2987846
0003b0 fd 4d 54 3e 8a 77 e1 be 6c ed e9 bd e6 21 d4 be
       0.20732875 -0.44036514 -0.11422238 -0.41432112
0003c0 2c fe b1 be b6 db d0 3e a1 dd b4 be c4 2a dc 3d
       -0.3476423 0.40792626 -0.3532534 0.107503444
0003d0 20 9b 8d 3e bf 39 32 3e 27 e3 4a be 2c 49 a3 be
       0.27657413 0.17404841 -0.19813214 -0.31891763
0003e0 44 c9 52 bc 24 7e 56 3e 5f e9 49 3e 14 a0 b9 be
       -0.012865368 0.20946556 0.1971793 -0.36254942
0003f0 77 dd a3 3d a7 b4 d8 3d 43 ab 9f 3e 87 2d c3 be
       0.080012254 0.10581332 0.3118535 -0.38120672

in_proj_bias f4 [30]
000000 b0 d2 5c be 29 e2 87 be 21 54 24 3e 99 e9 47 3e
       -0.21564746 -0.26539734 0.16047718 0.19522704
000010 a0 e5 26 3e 79 c1 99 3e 37 dc 43 3e cd 14 c5 bd
       0.16298532 0.3003042 0.19126974 -0.09623108
000020 c1 6e 1c be 6e e9 da be 52 29 d9 39 67 2f 32 bb
       -0.15276624 -0.42756218 0.0004142025 -0.0027188899
000030 35 55 2d 3c 52 44 8a 3b 48 ba e4 3b 4a 8f 87 3b
       0.010579397 0.00421957 0.0069802143 0.0041369544
000040 4a 81 91 bb b5 47 83 bb de e7 56 bb 69 6d 5d 3c
       -0.0044404613 -0.004006351 -0.0032792012 0.013514855
000050 74 26 32 bd e5 d2 01 bc fa be cf bb 3e b0 e7 bd
       -0.043493703 -0.007923816 -0.006339905 -0.113129124
000060 a3 d7 10 3d 10 55 67 bc 85 30 88 3d ec 8c 9e 3d
       0.035361897 -0.014119402 0.06649879 0.077417225
000070 89 18 df bd 0e d4 56 3c
       -0.108933516 0.013112081

weight f4 [10, 10]
000000 7c 93 89 3e f9 5a ff bd 1d 07 9e 3d 52 4d 40 be
       0.26870334 -0.124685235 0.077162005 -0.18779495
000010 79 9b 8d 3d ad e3 b5 3e da e6 a2 be 2c bf 39 3d
       0.0691442 0.35525265 -0.3181675 0.04534833
000020 2c 78 3d be 09 e8 9d bc 69 92 ce be 26 f6 f1 3c
       -0.18502873 -0.019275682 -0.40346077 0.029536318
000030 61 ad d7 3e 00 a9 a8 3d 67 5c 28 be b3 45 cd be
       0.42124465 0.08235359 -0.16441499 -0.4009224
000040 fe db c8 bd 56 d4 87 bd 38 8b 18 bd b9 c9 dc 3e
       -0.09807585 -0.06632297 -0.037242144 0.43122652
000050 52 68 96 3e 2b 73 7a 3e 19 85 e8 3e 83 d7 96 bd
       0.29376465 0.24457996 0.45414045 -0.07365324
000060 04 87 3f 3d 55 c7 c4 3e 25 26 9b 3e 01 c6 0e 3f
       0.04675962 0.38433328 0.3030254 0.5577088
000070 cd 25 45 be 1e 1a fe 3e 52 59 16 3e 0d 3b 98 3e
       -0.19252701 0.496293 0.1468251 0.29732552
000080 22 19 48 3e ff d9 35 3e b0 96 22 3e 23 4f 67 be
       0.19540837 0.1775894 0.15877795 -0.22588782
000090 0c 83 81 be 39 2f 2d 3e 73 84 fc bd ad 86 8c 3e
       -0.25295293 0.16912545 -0.1232995 0.274465
0000a0 d9 66 a7 bd 19 a5 fb be e6 9e c5 be 05 19 e9 be
       -0.081739135 -0.49149397 -0.38597792 -0.455269
0000b0 75 56 44 3e 85 19 f4 be 68 b2 0c 3e 8b 76 05 be
       0.19173606 -0.4767572 0.13739932 -0.13033502
0000c0 8f e0 aa bd 7f 31 f8 3e bf a0 8a be 25 46 88 be
       -0.083436124 0.48475263 -0.27075765 -0.26616016
0000d0 14 aa 61 be b1 65 84 3d e9 94 35 bd 12 a7 c3 3e
       -0.22037536 0.064647086 -0.044331465 0.38213402
0000e0 7d 35 de 3e 16 19 6c be be 70 02 3f 62 66 ad 3e
       0.43400183 -0.23056445 0.5095328 0.33867174
0000f0 9a b7 fd 3e af 24 5f be b0 3d 0f 3f 67 b4 b5 3e
       0.4955414 -0.21791337 0.559535 0.354892
000100 91 aa c0 be 3f 5d f4 3e 96 19 94 be 36 50 4c 3e
       -0.37630132 0.4772739 -0.2892577 0.19952473
000110 ec 00 47 3d 62 95 ac be a8 14 04 3f ed f6 d7 3d
       0.048584864 -0.3370772 0.5159402 0.10545144
000120 98 a3 e2 bd 65 5f d4 bd f5 43 73 3e 6e a1 b0 3e
       -0.11066359 -0.103697576 0.23756392 0.3449816
000130 48 8d ab be 4f 90 9c be 2e d2 dd bd 1d 42 68 3e
       -0.33506227 -0.3057885 -0.10831104 0.2268147
000140 bc f0 93 3d 58 37 e3 bd 68 98 c5 3d b3 9f 61 3c
       0.07223651 -0.1109454 0.0964821 0.013770985
000150 72 2e 87 bd 26 f7 43 3c 51 af 86 be 41 dd 43 be
       -0.066006556 0.01196078 -0.2630563 -0.1912737
000160 c6 60 21 3e c8 6e 59 be 76 6a f9 be 27 d5 dd 3e
       0.15759572 -0.21233666 -0.48714036 0.43326685
000170 5d 5f 01 3c ea 96 cd bc b1 15 08 3c 36 88 c1 3e
       0.0078962715 -0.025096375 0.008305953 0.37799233
000180 c3 15 bf 3d 12 3b 32 3e 7b f0 8b bc 0e c7 cc bc
       0.093303226 0.17405346 -0.017082443 -0.02499726

bias f4 [10]
000000 74 42 f9 bc 21 b9 c0 bc 2d b4 8d 3d ad 6b c7 3c
       -0.030427195 -0.023525776 0.069191314 0.024343336
000010 e6 ee d7 3c 1e 3a 15 bd 02 86 f2 3c bb ef 25 3d
       0.026359033 -0.036432378 0.029604916 0.040511828
000020 70 66 fc 3c 6c 93 0b bd
       0.030810565 -0.03407614
