Comparative_Evaluation/Baselines/Transformer/models_m/model128.pt (torch, 548629 bytes, 48 tensors)

in_proj_weight f4 [30, 10]
-0.23979074 -0.16013698 0.024285605 0.1827936 0.2471744 0.4340485 0.08804044 0.29370594
0.4358948 -0.18492742 0.17919414 -0.14609832 0.40022305 0.39438134 0.363302 0.08457574
0.029603422 -0.20308506 0.3132382 0.26098248 -0.030494511 -0.37877634 -0.38046739 -0.21397738
0.011154523 0.035256714 0.08685341 0.09690844 -0.350083 -0.40380874 -0.022427427 0.24941905
0.25710958 -0.05889972 -0.29955512 0.15286216 -0.17180642 -0.16421242 -0.18163797 -0.024951663
0.45073766 0.03643721 -0.05220967 -0.30111524 0.40704402 0.3630871 -0.14297283 0.41010794
0.3194611 0.28100532 0.10743615 -0.3603386 0.10072589 -0.378943 -0.09957673 0.22853693
-0.20272858 0.120087944 -0.05875983 0.31794333 -0.4045087 -0.36213192 -0.17760366 0.13514334
-0.031862497 0.12922367 -0.38335526 -0.107999794 0.11402913 -0.05636877 0.32446125 0.10140267
0.41549084 0.28234437 -0.07023895 -0.14691584 0.009925544 -0.17843133 -0.26708946 -0.19953766
0.2128466 -0.14417931 0.23549162 0.243225 -0.37388185 0.1862351 0.12204986 0.2531624
-0.23889011 -0.1144994 -0.026257811 -0.30725056 -0.22667706 0.056000587 -0.042992815 -0.2930127
-0.11528992 0.27186787 0.26294157 0.1529265 0.28173622 -0.062339798 -0.013089912 0.2742446
-0.29986975 -0.32563698 -0.1535586 -0.29849416 -0.019102197 -0.08812762 -0.1559928 0.08976298
0.016901644 -0.16717842 -0.38300022 0.16095693 -0.25547847 -0.28305238 0.17787619 -0.4254895
-0.23837492 -0.22328958 -0.30649424 -0.19192955 0.035613943 -0.14553407 -0.0036423374 0.23651716
0.3956793 0.016863152 -0.07347568 -0.2783223 0.1407283 -0.12686948 -0.05664224 -0.31358758
-0.15787502 0.18146294 -0.082911454 -0.14966677 0.3634076 0.43358076 0.28594518 0.035610262
-0.13216731 0.11718705 -0.14691234 0.23964874 0.20191354 -0.39423478 0.17702161 -0.13417089
0.2695167 -0.07410864 0.15917486 0.30888075 -0.2860291 -0.029004788 0.07274123 -0.15989834
0.26755017 -0.4127469 0.38231817 0.4345801 0.072655715 0.44444358 0.16307938 0.41836843
0.28671217 -0.08002196 0.03266741 -0.22584522 0.029168757 0.25891343 0.038370647 -0.2697301
-0.29930606 0.07239218 -0.10736097 -0.25736573 -0.30797103 -0.0793989 0.19440423 0.07623028
0.22443564 -0.19661516 -0.07888758 -0.21823762 -0.24578264 0.0520813 0.07539659 -0.18160917
-0.2308372 0.27892455 -0.05840261 -0.3009347 -0.10148377 0.32410347 -0.035482273 0.216841
0.43257385 0.36263832 -0.1795973 0.35922816 0.3298064 0.12994492 0.22357732 0.17424883
-0.30807537 0.22913039 -0.05592372 -0.0648667 -0.0025652158 -0.24316919 -0.32381687 0.014658818
0.19722715 -0.06874448 0.07223926 0.030753585 -0.13520695 -0.011430441 -0.2810208 0.15001626
-0.40848055 0.09774395 0.11055192 0.15589403 -0.13810709 -0.1175479 -0.048884246 0.20505805
-0.17785001 0.11994241 -0.25998 -0.049666375 -0.041016035 0.042491578 -0.37581563 0.2490337
-0.040799066 -0.19241549 -0.15566064 0.01805608 -0.35037622 0.22090831 0.024901193 0.008056226
-0.41204432 -0.14395665 0.07106707 0.17219427 -0.2555497 -0.06340374 0.22789676 -0.10327125
00000000: b48b 75be f3fa 23be 9bf2 c63c 3f2e 3b3e
00000010: 491b 7d3e 9b3b de3e 8c4e b43d a060 963e
00000020: 9a2d df3e 9d5d 3dbe ab7e 373e cc9a 15be
00000030: 09ea cc3e 5aec c93e b802 ba3e 0c36 ad3d
00000040: e082 f23c 88f5 4fbe c260 a03e 7f9f 853e
00000050: a0cf f9bc f9ee c1be 9fcc c2be e31c 5bbe
00000060: 76c1 363c 5869 103d 33e0 b13d ef77 c63d
00000070: 143e b3be 05c0 cebe b9b9 b7bc b567 7f3e
00000080: dea3 833e d540 71bd 4a5f 99be e687 1c3e
00000090: 06ee 2fbe 4d27 28be 4eff 39be 6e67 ccbc
000000a0: 16c7 e63e 2f3f 153d cfd9 55bd c72b 9abe
000000b0: 1368 d03e 8de6 b93e 7867 12be abf9 d13e
000000c0: 6890 a33e eedf 8f3e 7c07 dc3d 4d7e b8be
000000d0: 6049 ce3d d104 c2be e2ee cbbd 9605 6a3e
000000e0: 1598 4fbe abf0 f53d 26ae 70bd 78c9 a23e
000000f0: c41b cfbe 5b69 b9be bcdd 35be 0463 0a3e
00000100: 4082 02bd 3653 043e 2447 c4be ff2e ddbd
00000110: 1b88 e93d f0e2 66bd c91f a63e 34ac cf3d
00000120: 37bb d43e 718f 903e 70d9 8fbd 1b71 16be
00000130: c09e 223c b4b6 36be f3bf 88be 9a53 4cbe
00000140: 76f4 593e bea3 13be b724 713e f90f 793e
00000150: 716d bfbe 6ab4 3e3e 47f5 f93d 819e 813e
00000160: 9c9f 74be a97e eabd 9f1a d7bc f24f 9dbe
00000170: 081e 68be df60 653d 3c19 30bd c305 96be
00000180: 1f1d ecbd 4432 8b3e 47a0 863e c498 1c3e
00000190: bb3f 903e 0458 7fbd 1277 56bc ca69 8c3e
000001a0: 8788 99be e4b9 a6be 773e 1dbe 3ad4 98be
000001b0: 367c 9cbc 417c b4bd 94bc 1fbe a7d5 b73d
000001c0: 5175 8a3c d230 2bbe 9b18 c4be e5d1 243e
000001d0: 13ce 82be 3eec 90be 2d25 363e c2d9 d9be
000001e0: 8e18 74be 06a6 64be d0ec 9cbe 2e89 44be
000001f0: eddf 113d e206 15be 48b4 6ebb 8e31 723e
00000200: 7a96 ca3e 9824 8a3c 6b7a 96bd 4380 8ebe
00000210: 141b 103e 13ea 01be b201 68bd 8d8e a0be
00000220: fda9 21be 6cd1 393e 7bcd a9bd 3f42 19be
00000230: 9010 ba3e 4cfe dd3e 6867 923e 11dc 113d
00000240: de56 07be c4ff ef3d 3070 16be 7b66 753e
00000250: 6cc2 4e3e 24d9 c9be 2745 353e 1864 09be
00000260: 18fe 893e 45c6 97bd bcfe 223e 9e25 9e3e
00000270: 6872 92be 739b edbc 5bf9 943d 64bc 23be
00000280: 56fc 883e 9053 d3be 35bf c33e 4881 de3e
00000290: 85cc 943d 1c8e e33e 48fe 263e 6334 d63e
000002a0: f0cb 923e 8ee2 a3bd 43ce 053d f843 67be
000002b0: 51f3 ee3c 4d90 843e 8a2a 1d3d 101a 8abe
000002c0: a53e 99be 5a42 943d 11e0 dbbd 71c5 83be
000002d0: 61ae 9dbe e49b a2bd e711 473e 9f1e 9c3d
000002e0: 75d2 653e 7c55 49be d08f a1bd af79 5fbe
000002f0: 72ae 7bbe 3453 553d 8769 9a3d c1f7 39be
00000300: 9660 6cbe 33cf 8e3e 9337 6fbd 1d14 9abe
00000310: b9d6 cfbd e4f0 a53e dc55 11bd 910b 5e3e
00000320: 527a dd3e bbab b93e 5be8 37be c1ec b73e
00000330: 62dc a83e 4810 053e 74f1 643e 496e 323e
00000340: 0ebc 9dbe 28a1 6a3e 4510 65bd d5d8 84bd
00000350: 2e1d 28bb 5801 79be 53cb a5be 8a2b 703c
00000360: eaf5 493e e8c9 8cbd 2df2 933d f1ee fb3c
00000370: b173 0abe bf46 3bbc f5e1 8fbe dd9d 193e
00000380: 5d24 d1be fb2d c83d 0c69 e23d afa2 1f3e
00000390: f26b 0dbe f4bc f0bd d93a 48bd bdfa 513e
000003a0: 501e 36be 5ea4 f53d 191c 85be f86e 4bbd
000003b0: 6e00 28bd a60b 2e3d e86a c0be b102 7f3e
000003c0: ec1c 27bd 9108 45be 8165 1fbe 58ea 933c
000003d0: 8364 b3be ca35 623e 96fd cb3c 43fe 033c
000003e0: 79f7 d2be 5f69 13be 9d8b 913d b253 303e
000003f0: 69d7 82be d2d9 81bd c55d 693e e17f d3bd

in_proj_bias f4 [30]
0.059456244 0.05847632 -0.061069712 0.04552767 0.06861491 -0.054590583 -0.058517933 0.05959265
-0.060964458 0.058188092 -1.4179114e-06 -1.5773735e-06 1.6780954e-06 2.5005562e-08 -1.5877462e-06 1.0275274e-06
1.1282985e-06 -7.3711016e-07 -3.026179e-07 4.029271e-07 0.060665518 0.06267873 -0.060272012 -0.06181176
-0.052696005 0.059566487 0.058435924 -0.068249576 -0.05923366 -0.0639325
00000000: 6488 733d de84 6f3d 3c24 7abd 397b 3a3d
00000010: f985 8c3d 609a 5fbd 80b0 6fbd 6c17 743d
00000020: deb5 79bd a356 6e3d 114f beb5 24b6 d3b5
00000030: eb3a e135 d0cb d632 8b1a d5b5 93e9 8935
00000040: 0b70 9735 d3dd 45b5 7d77 a2b4 e151 d834
00000050: 687c 783d b55d 803d c9df 76bd 542e 7dbd
00000060: c4d7 57bd fdfb 733d 825a 6f3d 6fc6 8bbd
00000070: ff9e 72bd 0bef 82bd

weight f4 [10, 10]
-0.21967381 -0.38520983 0.36612836 -0.17514512 -0.07749339 0.3311701 0.07853138 0.058991414
-0.16242327 0.56494653 0.0962443 0.03329414 -0.5456406 0.37741214 -0.18622781 -0.13200517
-0.293444 -0.31708124 -0.17265078 -0.46272904 0.59305805 -0.39215842 0.4357749 -0.06423294
0.26259592 0.08505204 0.06552187 -0.39954036 0.27725706 -0.26737997 0.22138402 0.34647882
-0.3610014 0.5357035 0.096579954 0.14699207 0.13500668 0.004707541 -0.39460656 -0.34286374
0.4366936 -0.51908076 -0.44152054 -0.48061326 0.072819196 -0.43658757 0.43375304 -0.21558902
0.08750006 -0.09963829 -0.3279148 -0.28497437 0.31424198 0.35268173 -0.13827698 -0.29211858
0.14512509 0.056078106 0.2936584 0.12880075 -0.52172863 -0.3316386 -0.062254712 0.12314908
-0.1553179 -0.00020713278 -0.11720357 0.4308503 0.23774539 0.03690438 0.2904355 0.115859106
-0.5054791 0.57117254 -0.47776315 -0.11037756 0.15745051 0.22458588 -0.29046503 0.21855299
-0.3269536 0.45302925 0.48500246 0.25183758 0.33405095 0.24826081 -0.16846359 -0.3329158
0.33337736 0.1562954 0.3871049 0.43073258 0.21672556 -0.4489747 -0.3616076 0.29729092
-0.42146626 -0.38043287 0.16657276 0.078941815
00000000: 2cf2 60be 393a c5be 2d75 bb3e 3e59 33be
00000010: dbb4 9ebd 218f a93e 0fd5 a03d fba0 713d
00000020: 4952 26be 56a0 103f bb1b c53d 705f 083d
00000030: 1aaf 0bbf 2a3c c13e 81b2 3ebe 5d2c 07be
00000040: 4b3e 96be 7958 a2be 5ecb 30be d2ea ecbe
00000050: a7d2 173f fdc8 c8be e31d df3e 8f8c 83bd
00000060: f972 863e c42f ae3d 5530 863d 8e90 ccbe
00000070: a3f4 8d3e 07e6 88be 7eb2 623e ac65 b13e
00000080: 2dd5 b8be dd23 093f b6cb c53d 1785 163e
00000090: 313f 0a3e b741 9a3b df09 cabe d68b afbe
000000a0: 4e96 df3e 7ae2 04bf fb0e e2be f112 f6be
000000b0: 3b22 953d 6888 dfbe e114 de3e 5ec3 5cbe
000000c0: 3b33 b33d 290f ccbd 73e4 a7be 29e8 91be
000000d0: 53e4 a03e b392 b43e 7b98 0dbe 9190 95be
000000e0: ac9b 143e 28b2 653d 655a 963e 58e4 033e
000000f0: 0290 05bf 89cc a9be ccfe 7ebd 9635 fc3d
00000100: a80b 1fbe c831 59b9 6d08 f0bd 6998 dc3e
00000110: 8773 733e 0c29 173d f6b3 943e 8a47 ed3d
00000120: 1467 01bf 5d38 123f 5f9d f4be a10d e2bd
00000130: b53a 213e d7f9 653e d5b7 94be 5bcc 5f3e
00000140: 7666 a7be 73f3 e73e 3e52 f83e dbf0 803e
00000150: ba08 ab3e 1538 7e3e b881 2cbe f173 aabe
00000160: 70b0 aa3e e70b 203e 9d32 c63e fb88 dc3e
00000170: 4eed 5d3e 03e0 e5be a224 b9be 8436 983e
00000180: 6dca d7be 19c8 c2be 0d92 2a3e 3fac a13d

bias f4 [10]
-0.07546502 0.062258888 0.06024817 0.057086308 0.067806326 -0.061170775 -0.05984038 0.06001954
-0.057184707 0.061986122
00000000: 688d 9abd 2d03 7f3d c9c6 763d 55d3 693d
00000010: 0bde 8a3d 358e 7abd 301b 75bd 0dd7 753d
00000020: 833a 6abd 29e5 7d3d

weight f4 [2048, 10]
0.055013593 -0.05376571 -0.05168164 -0.021137638 -0.059669744 0.042762067 0.055393506 0.0011888724
0.057646148 -0.04609784 -0.025824217 0.03824672 0.03540981 0.028868344 0.023665946 -0.030727657
-0.0290899 -0.043660026 -0.040994566 0.025350932 0.03308918 -0.020504296 -0.10266216 0.087608226
-0.06302139 -0.08266942 0.07058242 0.089745305 -0.0027280254 0.09923147 -0.068415165 -0.011806384
-0.025272159 -0.009144004 -0.03310399 0.031289846 0.092373155 0.013274048 0.038808115 0.11341707
-0.05371443 0.10726368 0.05907441 -0.04883649 0.03881053 0.048046988 -0.11419512 -0.078231156
-0.06940503 -0.023436977 6.7319434e-06 -2.9582493e-06 -3.057717e-06 -2.5438812e-06 -5.4486163e-06 3.7570812e-06
1.6825452e-06 -5.9993283e-07 4.5759903e-06 2.04808e-06 0.016860299 0.095485404 -0.014442509 0.06610821
-0.111692466 -0.030392792 0.068133876 0.011447951 0.050678182 0.081780575 0.013218724 -0.049254443
-0.03805927 0.08561958 -0.09467602 -0.021991396 0.05800285 0.03466699 0.067507185 0.05072259
-0.025321161 0.09530918 0.089772 -0.07290555 0.095478356 0.029840745 -0.022235848 -0.038330782
-0.019971881 -0.01744208 0.06749623 0.060526952 -0.042144828 -0.008916069 0.030048946 0.10161648
0.03410279 -0.05273708 -0.06535833 -0.015950698 -0.042612858 0.065519 0.0561323 -0.008033302
0.018374758 0.08862684 -0.07029317 -0.005417822 -0.020921383 -0.10317101 -0.051385805 0.05691587
0.0073447484 -0.024606442 0.013341072 0.052831866 -0.016883763 -0.067429654 -0.09815466 -0.09712918
-0.08225138 -0.03054156 0.040197574 -0.08800681 0.1175356 0.064872645 -0.078188345 -0.07839042
-0.13214815 -0.11901591 -0.0976406 -0.017880818 0.11479992 -0.09812764 0.1162474 0.045212805
-0.08879724 -0.048552472 -0.12349687 -0.1068773 0.094519824 0.027174095 -0.018130245 0.08244649
-0.041328866 -0.05310716 0.018945139 0.057455625 0.04649912 0.005348721 0.008277647 -0.016579302
-0.0023020194 -0.0031531285 -0.0056754383 0.0040114485 0.006563735 0.0011282555 0.0028989324 -0.0039575156
0.032803603 -0.03651388 0.005727888 -0.110749155 -0.004256516 0.029189127 0.026416654 -0.087419085
-0.0009666198 -0.040074795 0.035116885 -0.045893054 -0.015508719 0.026878567 -0.07519199 -0.042285115
0.07908698 0.0933869 0.056227718 0.061711542 0.008946979 0.0007064583 -0.006064917 -0.00030164982
-0.0052492707 0.003864436 0.017071988 -0.00081118464 0.007556146 -0.015048215 0.08141953 -0.069327615
-0.0749428 -0.056257963 -0.076473124 0.063293636 0.073689304 0.037935007 0.07013994 -0.06784405
0.07909314 -0.063928016 -0.07586023 0.033289973 -0.040856007 -0.09534898 0.015200772 0.097221255
0.09668796 0.029937763 -0.06299502 0.028920049 0.011669458 -0.05595854 0.023912735 0.093952544
-0.037158042 -0.07029274 -0.018571205 -0.046671886 -0.10875343 -0.08151232 0.03908599 -0.045085087
0.031036686 0.015545223 -0.09950692 -0.009828149 -0.10167375 -0.019768225 0.024230454 -0.02426499
-0.034350507 0.0054158065 -0.04393383 0.008180623 0.032193903 0.019165885 0.03914644 -0.0065102894
0.050405882 -0.077188864 -0.06487147 0.06412116 -0.0578009 -0.0007473853 0.102789745 0.04857893
0.090994224 0.02210913 0.050148103 0.081428565 0.0934974 0.0048930193 0.0552635 -0.038562976
00000000: ef55 613d 6f39 5cbd 21b0 53bd d728 adbc
00000010: 4368 74bd 4727 2f3d 4de4 623d f0d3 9b3a
00000020: 5e1e 6c3d 17d1 3cbd 4f8d d3bc 98a8 1c3d
00000030: e009 113d 4e7d ec3c 16df c13c 91b8 fbbc
00000040: f14d eebc dbd4 32bd ebe9 27bd c2ac cf3c
00000050: 8588 073d a0f8 a7bc 8a40 d2bd f16b b33d
00000060: 5c11 81bd 964e a9bd 848d 903d 63cc b73d
00000070: acc8 32bb de39 cb3d 401d 8cbd 906f 41bc
00000080: 8f07 cfbc bcd0 15bc 0d98 07bd c829 003d
00000090: 232e bd3d 657b 593c 42f5 1e3d 3547 e83d
000000a0: aa03 5cbd 0fad db3d 02f8 713d c508 48bd
000000b0: caf7 1e3d ebcc 443d 22df e9bd a837 a0bd
000000c0: 3924 8ebd e7fe bfbc f4e2 e136 5686 46b6
000000d0: 2e33 4db6 8cb7 2ab6 42d3 b6b6 2a22 7c36
000000e0: d0d3 e135 120b 21b5 758b 9936 bf71 0936
000000f0: 9c1e 8a3c da8d c33d 46a0 6cbc be63 873d
00000100: 05bf e4bd 4efa f8bc c689 8b3d 3090 3b3c
00000110: ed93 4f3d 937c a73d 5993 583c 07bf 49bd
00000120: 09e4 1bbd 5159 af3d 80e5 c1bd 4d27 b4bc
00000130: 6594 6d3d f9fe 0d3d 3541 8a3d 7ec2 4f3d
00000140: 536e cfbc 7631 c33d 62da b73d 814f 95bd
00000150: 288a c33d 9474 f43c f427 b6bc bd00 1dbd
00000160: 129c a3bc b1e2 8ebc 773b 8a3d 1ceb 773d
00000170: 0ea0 2cbd b414 12bc 3529 f63c 4d1c d03d
00000180: 5eaf 0b3d d602 58bd 97da 85bd 0aab 82bc
00000190: d28a 2ebd d32e 863d fcea 653d 1c9e 03bc
000001a0: a986 963c fd81 b53d def5 8fbd fc87 b1bb
000001b0: 5263 abbc 534b d3bd ec79 52bd 9e20 693d
000001c0: 37ac f03b 7393 c9bc 8394 5a3c 3a66 583d
000001d0: d14f 8abc 8f18 8abd 4f05 c9bd aaeb c6bd
000001e0: 6973 a8bd 4b32 fabc 36a6 243d ea3c b4bd
000001f0: 81b6 f03d f3db 843d 3621 a0bd 288b a0bd
00000200: d851 07be 9dbe f3bd cbf7 c7bd cb7a 92bc
00000210: 381c eb3d 25f7 c8bd 1e13 ee3d 1031 393d
00000220: 54db b5bd f5de 46bd edeb fcbd 7ce2 dabd
00000230: 9c93 c13d 359c de3c e185 94bc b5d9 a83d
00000240: 7548 29bd e586 59bd d632 9b3c 9756 6b3d
00000250: dc75 3e3d 5344 af3b f89e 073c 51d1 87bc
00000260: 7add 16bb b8a4 4ebb 07f9 b9bb 7872 833b
00000270: 9a14 d73b f9e1 933a 04fc 3d3b 0cae 81bb
00000280: 125d 063d 948f 15bd 02b1 bb3b 74d0 e2bd
00000290: 3f7a 8bbb 091e ef3c bd67 d83c c708 b3bd
000002a0: c264 7dba 7825 24bd b9d6 0f3d 5bfa 3bbd
000002b0: 4818 7ebc 7130 dc3c 42fe 99bd 2833 2dbd
000002c0: 5bf8 a13d a241 bf3d 094f 663d 3ec5 7c3d
000002d0: 5a96 123c 9d31 393a 36bc c6bb c126 9eb9
000002e0: 1302 acbb 7a42 7d3b 8eda 8b3c aea5 54ba
000002f0: 8c99 f73b ca8c 76bc 48bf a63d a3fb 8dbd
00000300: 9c7b 99bd c06e 66bd f19d 9cbd 18a0 813d
00000310: 6bea 963d bd61 1b3d 87a5 8f3d d2f1 8abd
00000320: 96fb a13d b1ec 82bd 9c5c 9bbd 115b 083d
00000330: a158 27bd 5346 c3bd a90c 793c f01b c73d
00000340: 5604 c63d 0a40 f53c 8803 81bd bde9 ec3c
00000350: 4131 3f3c c834 65bd a4e4 c33c 316a c03d
00000360: 0833 18bd a4f5 8fbd a422 98bc 052b 3fbd
00000370: 1eba debd eeef a6bd a218 203d 24ab 38bd
00000380: a640 fe3c 64b1 7e3c 49ca cbbd 3f06 21bc
00000390: 543a d0bd f9f0 a1bc f27e c63c 5fc7 c6bc
000003a0: 1eb3 0cbd 1477 b13b f6f3 33bd 0508 063c
000003b0: c1dd 033d c601 9d3c 0458 203d 4454 d5bb
000003c0: 6676 4e3d 3215 9ebd 55db 84bd f451 833d
000003d0: a3c0 6cbd 2eec 43ba 6e83 d23d b3fa 463d
000003e0: 2e5b ba3d 351e b53c 1968 4d3d 05c4 a63d
000003f0: 917b bf3d 9f55 a03b fb5b 623d 36f4 1dbd

bias f4 [2048]
-0.045013975 0.033450596 0.10022456 -0.19380063 0.15561274 -2.6986577e-06 0.16876653 0.17092976
0.2987724 0.17539714 0.24827409 0.3173759 0.019928498 -0.0837895 0.22595696 -0.0038889295
-0.00028393386 0.16549264 -0.013249283 -0.062608235 0.023477254 0.3344704 0.14970961 -0.042202823
0.04006275 0.19608632 -0.0098605575 -0.050734267 0.059631012 -0.11617337 6.2630136e-07 -0.04047572
0.16544604 -0.051600724 0.027961357 0.28188142 0.05412574 -0.028777372 2.466773e-06 0.23104772
0.15216544 -0.0032851445 0.15248102 0.25030652 0.07080109 0.12806322 0.3542282 0.30318093
-0.016374584 -0.022161169 -0.0059783347 0.031926874 -0.02553583 0.3309519 0.12340097 0.24899627
-0.23048082 -0.019499876 -0.017573344 0.23348868 0.20954582 0.0049725506 -0.119303726 0.19110999
-0.042049363 0.052151814 -0.02921414 -0.08327294 0.24215592 0.1396024 -0.101838574 0.13617185
0.16792561 0.26996538 0.23407303 0.20092817 0.17575288 0.23733091 -0.049321577 -0.0146296825
-0.047055107 -0.1416022 -0.056475412 -0.0017185179 0.21783337 0.10625819 -0.13230367 0.041269336
0.35289082 -0.016449926 0.013975651 -0.06573887 0.14738505 -0.047863256 -0.06517952 -0.0062536323
-0.056334373 0.028886758 0.14596722 -8.59278e-05 -0.05634583 -0.088811785 0.034020066 -0.028669171
-0.00053249457 0.18527845 0.24788769 0.14537257 0.377575 -0.05103885 -0.06613471 0.08731685
-0.013963013 0.23446007 0.39535713 0.27054211 0.22859305 0.05584355 -0.025216384 0.3377116
-0.004941761 -0.032179497 0.18713437 -0.04509116 -0.00028916213 0.1389898 0.11242004 0.11231817
2.1452415e-06 2.3116522e-07 -0.010428489 0.21513583 0.23500891 0.11910903 0.17768998 0.053144734
-0.0023283272 0.23193839 0.30941898 -0.09828901 0.054516092 0.25366643 0.02903392 0.046476915
0.1566476 0.23111983 -0.018101357 -0.23368393 -3.5795122e-07 -0.018010033 -0.01554548 0.37003753
0.034297608 -7.5667176e-06 -0.027056225 -0.06804188 0.09780414 0.33410156 0.06421749 -0.002705357
-0.0385429 0.02233785 0.10876931 0.17381872 -0.018073078 0.076666795 0.18633209 0.24588695
-0.013089843 0.036920607 -0.043362226 0.21167207 -0.1413611 -0.042470094 0.2077955 -0.0076117152
0.20925488 0.31229135 -0.0049543753 -0.03734848 -0.016333584 0.030301258 0.26819015 -0.11776041
-0.024351364 0.18872112 -0.07090669 0.2914211 0.0008771712 0.22664864 -0.11209356 0.17209224
-0.0325014 0.1760657 -0.07640846 0.38436204 -3.602435e-05 0.33604637 0.11840975 0.06533218
-0.011710162 0.24640979 -0.010886146 0.09479779 -0.004663735 -0.110320844 0.06487138 0.12637888
0.010123412 -0.018376768 0.077408604 -0.08526871 -0.057472043 0.023164164 -0.1323652 -0.08563137
0.049705442 -0.00093078485 -0.00641191 -0.018421572 0.08043323 0.07847748 0.16335568 0.020290691
0.11707475 0.33601415 0.017082328 -0.046014253 -0.02737036 0.21089007 -0.03170284 -0.016590083
-0.051896065 -0.10154054 -0.060822494 0.13640048 0.020053932 0.05636411 0.29194248 -0.036127042
-0.05718822 -0.0012695557 -0.007925682 -0.021287449 0.0048232647 0.12150691 -0.0007456839 0.09161852
0.11806887 -0.014000248 0.21524404 -0.049576007 0.105278164 0.32614478 0.13103914 -0.16134758
00000000: 9360 38bd 7e03 093d 8942 cd3d ac73 46be
00000010: f258 1f3e 961a 35b6 22d1 2c3e 3608 2f3e
00000020: b2f8 983e 4f9b 333e 903b 7e3e 187f a23e
00000030: 1741 a33c d499 abbd 4361 673e 69dd 7ebb
00000040: f5dc 94b9 e776 293e 8513 59bc bf38 80bd
00000050: 5f53 c03c b43f ab3e 7a4d 193e dedc 2cbd
00000060: d718 243d daca 483e 2d8e 21bc bcce 4fbd
00000070: a63f 743d 4eec edbd 1a1f 2835 dec9 25bd
00000080: b06a 293e 485b 53bd 370f e53c c352 903e
00000090: f4b2 5d3d 86be ebbc d68a 2536 c697 6c3e
000000a0: 42d1 1b3e 944b 57bb fc23 1c3e 2d28 803e
000000b0: 2900 913d 0123 033e 665d b53e 883a 9b3e
000000c0: fe23 86bc 578b b5bc e8e5 c3bb c1c5 023d
000000d0: 8430 d1bc 8772 a93e a6b9 fc3d e1f8 7e3e
000000e0: 2a03 6cbe 34be 9fbc f9f5 8fbc a817 6f3e
000000f0: 2e93 563e c7f0 a23b 8355 f4bd 56b2 433e
00000100: f43b 2cbd 249d 553d 7e52 efbc 018b aabd
00000110: b9f7 773e eef3 0e3e be90 d0bd a270 0b3e
00000120: b1f4 2b3e e738 8a3e d7b0 6f3e 1dc0 4d3e
00000130: 90f8 333e e006 733e 6c05 4abd 56b1 6fbc
00000140: dbbc 40bd 2b00 11be c352 67bd e43f e1ba
00000150: b60f 5f3e e59d d93d 9d7a 07be 090a 293d
00000160: 1bae b43e ffc1 86bc 21fa 643c 1aa2 86bd
00000170: 1bec 163e 430c 44bd d77c 85bd 45eb ccbb
00000180: dfbe 66bd eca3 ec3c 6e78 153e 2334 b4b8
00000190: e3ca 66bd f4e2 b5bd a058 0b3d 9cdb eabc
000001a0: 1b97 0bba a2b9 3d3e 45d6 7d3e 8cdc 143e
000001b0: 8351 c13e 1d0e 51bd a371 87bd 2dd3 b23d
000001c0: 1fc5 64bc 4d16 703e 406c ca3e 7f84 8a3e
000001d0: 4c14 6a3e 35bc 643d 9792 cebc 89e8 ac3e
000001e0: 7fee a1bb a6ce 03bd 27a0 3f3e 82b1 38bd
000001f0: af9a 97b9 5853 0e3e 7a3c e63d 1207 e63d
00000200: f8f6 0f36 3636 7834 41dc 2abc 914c 5c3e
00000210: 2da6 703e 6fef f33d 5df4 353e 4bae 593d
00000220: d996 18bb 4281 6d3e 2a6c 9e3e c04b c9bd
00000230: 444c 5f3d 91e0 813e 8bd8 ed3c 945e 3e3d
00000240: 3a68 203e adaa 6c3e 4c49 94bc d74a 6fbe
00000250: 712c c0b4 c789 93bc 78b2 7ebc 8f75 bd3e
00000260: a67b 0c3d 9ce5 fdb6 04a5 ddbc 8b59 8bbd
00000270: 894d c83d 5c0f ab3e 7684 833d 5c4c 31bb
00000280: 29df 1dbd defd b63c 72c2 de3d 89fd 313e
00000290: fe0d 94bc 7b03 9d3d d7cd 3e3e cac9 7b3e
000002a0: c876 56bc 103a 173d 979c 31bd 90c0 583e
000002b0: f7c0 10be 1ff5 2dbd 58c8 543e b26b f9bb
000002c0: e946 563e a7e4 9f3e 5058 a2bb b8fa 18bd
000002d0: 02ce 85bc 583a f83c 3850 893e 5f2c f1bd
000002e0: 837c c7bc 1c40 413e 8737 91bd 2535 953e
000002f0: f6f1 653a 9516 683e 4f91 e5bd f338 303e
00000300: 3020 05bd 914a 343e 0a7c 9cbd 1acb c43e
00000310: da18 17b8 450e ac3e d080 f23d e1cc 853d
00000320: fbdb 3fbc d952 7c3e ce5b 32bc 5825 c23d
00000330: 3fd2 98bb e5ef e1bd 49db 843d 7769 013e
00000340: abdc 253c e08a 96bc 6788 9e3d 5da1 aebd
00000350: ce67 6bbd c6c2 bd3c be8a 07be 805f afbd
00000360: ef97 4b3d eaff 73ba 001b d2bb d6e8 96bc
00000370: 2dba a43d cdb8 a03d b646 273e aa38 a63c
00000380: e3c4 ef3d 0c0a ac3e 3df0 8b3c 7179 3cbd
00000390: ce37 e0bc 91f3 573e d6da 01bd ede7 87bc
000003a0: f890 54bd 7df4 cfbd 0221 79bd 91ac 0b3e
000003b0: 2548 a43c 0ede 663d 7c79 953e f3f9 13bd
000003c0: 323e 6abd 3867 a6ba b8da 01bc 0463 aebc
000003d0: 7a0c 9e3b 9dd8 f83d 007a 43ba 7ea2 bb3d
000003e0: 17ce f13d 4c61 65bc ef68 5c3e 3610 4bbd
000003f0: 149c d73d 73fc a63e 202f 063e 4d38 25be

weight f4 [10, 2048]
0.019290471 -0.023672957 0.014640161 -0.038386256 -0.04067005 3.8728865e-07 -0.070313916 -0.023719247
-0.07769238 -0.09433745 -0.06498465 -0.07884444 -0.12130438 -0.059008904 -0.09020137 0.0011923774
-0.16263047 -0.12129324 -0.05743505 0.059927613 -0.099140026 -0.049937785 -0.13074301 -6.211392e-08
-0.04772321 -0.114578806 0.024120098 -0.086206384 -0.13514033 -0.044345293 -0.0064009777 -0.12723064
-0.05396121 -0.005251552 -0.1713496 -0.14562082 -0.040407035 -0.0802403 -1.7154774e-07 -0.040612534
-0.10858069 -0.00014282079 -0.043347906 -0.07753041 -0.127582 -0.055061597 -0.12406258 -0.12719621
-0.022707883 -0.1772828 0.0011950413 -0.045927566 -0.027870642 -0.09659256 -0.10490673 -0.11310931
0.019692421 -0.00056707277 -0.15308928 -0.039717443 -0.093359336 -0.120598696 -0.042846322 -0.13769221
-0.021222966 -0.08733419 -0.16709071 -0.05884588 0.008473348 -0.1522723 -0.10045511 -0.08535402
-0.11657707 -0.15085782 -0.03321542 -0.109447986 -0.096402265 -0.08172654 -0.13845445 1.5225969e-06
-0.006117035 0.053313937 -0.045433242 -0.00064770743 -0.11760338 -0.2469934 -0.087600216 -0.05910921
-0.14387642 -0.029374018 -0.0349001 0.057116784 -0.07740765 -0.08039702 -0.020852989 0.009294676
-0.05813513 -0.047235772 -0.13724804 -5.444701e-06 -0.012804867 -0.11644349 -0.051239118 -0.09198639
1.4935054e-08 -0.047393147 -0.034171745 -0.11034017 -0.12827426 -1.9776626e-06 -0.04196975 -0.09361386
-0.02300851 -0.12382281 -0.0788264 -0.09000203 -0.10254277 -0.09812382 -0.14443968 -0.1205581
-0.116826504 -0.00651143 -0.084420346 -0.0011510213 -5.0540126e-05 -0.11080346 -0.108204395 -0.0048623146
0.002098969 -0.0006281704 0.0023600403 -0.105772965 -0.12977815 -0.051519014 -0.096946284 -0.06747812
-0.11148627 -0.071235016 -0.08949584 0.015191612 -0.10102898 -0.07289142 -0.06013046 -0.09686036
-0.017567215 -0.019824676 4.9560978e-08 -0.05790735 -1.7800468e-07 0.020387063 -0.19116157 -0.08999722
-0.050165668 8.676063e-06 0.028611207 -0.039366964 0.07876632 -0.13892564 -0.104257874 0.004197949
-0.012753722 -0.2159005 -0.015174539 -0.08447953 -0.06767128 -0.21764107 -0.12617734 -0.057068173
0.01996359 0.010593795 -0.008501644 0.0106606325 0.08946117 -0.076064125 -0.13776954 -0.002424936
-0.067275755 -0.10514938 -0.02325615 0.010953161 -0.09334598 -0.19822288 -0.06695495 0.050309673
-0.018968502 -0.088514805 -0.0037644159 -0.06988266 -0.0017042076 -0.05271294 -0.064219736 -0.043983024
-0.034241304 -0.14971663 0.03376074 -0.10862074 -1.5641945e-06 -0.13629067 -0.05276168 -0.060970396
-0.097671054 -0.12170777 0.0035660416 -0.22257236 1.8567164e-08 -0.09565171 -0.022019928 -0.11615428
0.017168935 -1.3838854e-07 -0.097540446 -0.025697354 -0.030403385 0.016058406 -0.037221204 0.012688569
0.06530617 9.263894e-08 -0.034998726 9.672217e-09 -0.05393272 -0.025558269 -0.09455947 -0.17929518
-0.07553265 -0.09279527 -0.08797208 -0.042364314 -0.016809996 -0.0338336 -0.09401018 -0.010694871
-0.022869192 -0.04961545 -0.07855991 -0.10859204 -0.07290841 -0.07469484 -0.11230849 0.047085334
-0.055725563 -0.00020494637 -0.15843481 -0.027807912 -0.11423486 -0.115624756 -0.0057767523 -0.1447341
-0.055814244 -0.15284249 -0.11234696 -0.057284165 -0.07987546 -0.030588532 -0.06289179 0.021971382
00000000: 0d07 9e3c caed c1bc 49dd 6f3c e83a 1dbd
00000010: a395 26bd 8cec cf34 be00 90bd de4e c2bc
00000020: 2f1d 9fbd fe33 c1bd ac16 85bd 3279 a1bd
00000030: 6e6e f8bd 52b3 71bd 7fbb b8bd 8c49 9c3a
00000040: 9a88 26be 9768 f8bd 0441 6bbd a876 753d
00000050: ed09 cbbd 908b 4cbd 7fe1 05be 7d63 85b3
00000060: 6a79 43bd 4ba8 eabd 8397 c53c f98c b0bd
00000070: 3a62 0abe 69a3 35bd 4bbf d1bb c048 02be
00000080: 6e06 5dbd 3615 acbb 4576 2fbe a01d 15be
00000090: d981 25bd 0755 a4bd af32 38b4 5459 26bd
000000a0: 8e5f debd 2ac2 15b9 938d 31bd 43c8 9ebd
000000b0: dba4 02be 4588 61bd 8614 febd b93f 02be
000000c0: e205 babc 9f89 35be efa2 9c3a 8b1e 3cbd
000000d0: f950 e4bc 52d2 c5bd 57d9 d6bd dba5 e7bd
000000e0: 0052 a13c 9ca7 14ba 70c3 1cbe c2ae 22bd
000000f0: 2e33 bfbd 73fc f6bd a07f 2fbd 30ff 0cbe
00000100: c9db adbc 45dc b2bd d419 2bbe 6108 71bd
00000110: ccd3 0a3c 45ed 1bbe 69bb cdbd 17ce aebd
00000120: f5bf eebd 797a 1abe e40c 08bd 4426 e0bd
00000130: 8d6e c5bd 3f60 a7bd 01c7 0dbe 085c cc35
00000140: 6971 c8bb b75f 5a3d 3518 3abd e9ca 29ba
00000150: 0ada f0bd d6eb 7cbe be67 b3bd 801c 72bd
00000160: 5754 13be c8a1 f0bc 68f3 0ebd 4af3 693d
00000170: e787 9ebd 31a7 a4bd e3d3 aabc b248 183c
00000180: 1a1f 6ebd 4c7a 41bd c08a 0cbe a0b1 b6b6
00000190: 81cb 51bc ed79 eebd 1ce0 51bd 5c63 bcbd
000001a0: 884a 8032 511f 42bd acf7 0bbd 07fa e1bd
000001b0: 545a 03be fcb7 04b6 79e8 2bbd a0b8 bfbd
000001c0: 587c bcbc d096 fdbd bc6f a1bd fc52 b8bd
000001d0: f201 d2bd 24f5 c8bd ffe7 13be 2ae7 f6bd
000001e0: bc42 efbd d55d d5bb 93e4 acbd dedd 96ba
000001f0: 0cfb 53b8 edec e2bd 449a ddbd 0d54 9fbb
00000200: db8e 093b cdab 24ba e8aa 1a3b 7f9f d8bd
00000210: 90e4 04be 9a05 53bd c68b c6bd f831 8abd
00000220: ea52 e4bd aae3 91bd 9849 b7bd 3de6 783c
00000230: 48e8 cebd 1948 95bd 5b4b 76bd b95e c6bd
00000240: 1fe9 8fbc 5c67 a2bc dfdc 5433 4230 6dbd
00000250: 8e21 3fb4 c502 a73c dcbf 43be 7650 b8bd
00000260: 847a 4dbd 688f 1137 0d62 ea3c 413f 21bd
00000270: 3d50 a13d 8642 0ebe 2785 d5bd f38e 893b
00000280: fdf4 50bc 0515 5dbe a19e 78bc 9b03 adbd
00000290: 3d97 8abd 4ddd 5ebe a234 01be 51c0 69bd
000002a0: af8a a33c 9991 2d3c 7b4a 0bbc efa9 2e3c
000002b0: 6b37 b73d 82c7 9bbd 7513 0dbe adeb 1ebb
000002c0: dfc7 89bd 8f58 d7bd ae83 bebc e374 333c
000002d0: 2d2c bfbd f0fa 4abe ad1f 89bd 8411 4e3d
000002e0: d563 9bbc 4047 b5bd 6bb4 76bb a41e 8fbd
000002f0: b85f dfba 86e9 57bd a385 83bd 8b27 34bd
00000300: 9c40 0cbd 514f 19be b448 0a3d 8d74 debd
00000310: 50f1 d1b5 c88f 0bbe a21c 58bd 18bc 79bd
00000320: c307 c8bd ec41 f9bd 40b4 693b 02ea 63be
00000330: a07d 9f32 0be5 c3bd 2363 b4bc 4ce2 edbd
00000340: dea5 8c3c f497 14b4 49c3 c7bd 4283 d2bc
00000350: 8510 f9bc eb8c 833c 4375 18bd b7e3 4f3c
00000360: 3ebf 853d ccf0 c633 d35a 0fbd dc2a 2632
00000370: 8ee8 5cbd 935f d1bc 65a8 c1bd 2899 37be
00000380: ddb0 9abd 720b bebd b52a b4bd 3486 2dbd
00000390: 1eb5 89bc 1a95 0abd 6988 c0bd 8a39 2fbc
000003a0: 2c58 bbbc 9239 4bbd 05e4 a0bd 8165 debd
000003b0: 0151 95bd 9cf9 98bd fe01 e6bd 8ddc 403d
000003c0: 7d40 64bd dfe6 56b9 bc3c 22be 6bcd e3bc
000003d0: f7f3 e9bd accc ecbd e94a bdbb 2d35 14be
000003e0: 7a9d 64bd be82 1cbe 2a16 e6bd cda2 6abd
000003f0: bf95 a3bd cd94 fabc 69cd 80bd 54fd b33c

bias f4 [10]
-0.09717799 0.078928426 0.06184926 0.0456957 0.06663959 -0.050599247 -0.04977602 0.043901253
-0.06705796 0.07121483
00000000: 4105 c7bd 3aa5 a13d a655 7d3d 6a2b 3b3d
00000010: 567a 883d 2841 4fbd f1e1 4bbd cdd1 333d
00000020: af55 89bd 15d9 913d

weight f4 [10]
1.0629214 1.0613351 1.058516 0.9381271 1.0643138 0.9379752 1.0587486 0.9395358
1.0538473 0.93546677
00000000: cf0d 883f d4d9 873f 747d 873f 1929 703f
00000010: 6f3b 883f 251f 703f 1385 873f 6b85 703f
00000020: 78e4 863f c07a 6f3f

bias f4 [10]
-0.07877416 0.06050344 0.058712915 0.056945685 0.064527914 -0.06094343 -0.059306804 0.060739752
-0.057258148 0.06046116
00000000: 5954 a1bd 75d2 773d f47c 703d e13f 693d
00000010: 3627 843d d19f 79bd b1eb 72bd 3fca 783d
00000020: 8587 6abd 1fa6 773d

weight f4 [10]
1.1532427 0.9330178 1.0538161 0.92939425 1.0688162 0.95732534 1.0545325 0.9427365
1.0194747 0.937302
00000000: 759d 933f 41da 6e3f 72e3 863f c8ec 6d3f
00000010: f8ce 883f 4613 753f ecfa 863f 2e57 713f
00000020: 267e 823f 06f3 6f3f

bias f4 [10]
-0.06592183 0.061492365 0.055545542 0.04956614 0.07664054 -0.06406829 -0.06331461 0.06509323
-0.04442804 0.065850124
00000000: 0602 87bd 6bdf 7b3d b983 633d dd05 4b3d
00000010: b7f5 9c3d 3c36 83bd 17ab 81bd 994f 853d
00000020: 2dfa 35bd 6edc 863d

in_proj_weight f4 [30, 10]
0.27780125 -0.27085924 -0.21926618 -0.37591067 0.33296564 0.06889317 -0.052553013 0.03678665
0.1922744 0.21401854 0.204925 -0.30622956 -0.22564358 -0.047043916 0.02394019 -0.07632946
-0.37750697 -0.14687212 0.06783914 -0.3392132 0.30605093 0.18869808 0.4451237 -0.07989307
0.3951921 -0.062014475 -0.05117072 -0.055339415 -0.3020663 0.19374122 -0.1689458 -0.3278657
-0.100458734 -0.20133933 0.0061454396 -0.16626123 0.2209556 -0.29967955 -0.1168194 -0.20758207
0.01147449 0.20575865 -0.26810634 -0.22380093 0.22157171 0.4167623 -0.034295596 -0.3542642
0.21684398 0.08738984 0.116878666 -0.11494851 0.24496551 -0.30344135 0.20919275 0.2230932
0.18447478 0.29249728 0.43229747 0.026398424 -0.027073137 -0.038812067 0.15748394 -0.19760591
0.029922958 -0.12416065 -0.2429706 -0.19572939 -0.35930634 0.23952033 0.1914064 0.06898777
-0.39541724 0.3574965 0.16830908 0.18445419 0.15759791 0.2946124 -0.3056834 -0.101473816
-0.4740712 0.3938161 0.4393048 -0.1805397 0.10973522 -0.3070127 -0.1066096 -0.073552184
-0.061288044 -0.10802932 0.2817167 0.19037713 0.19034837 -0.38934195 -0.090719536 0.092110254
-0.032467093 0.27672973 -0.0477236 0.18410096 0.16450062 -0.2591214 0.06552176 -0.0062582516
-0.25093475 0.04730115 -0.18158093 -0.4585224 0.20329274 -0.25894478 -0.23555864 -0.19541715
-0.31720912 0.42414784 0.29894727 -0.39636987 0.37795416 0.047795568 -0.13814233 0.4085699
-0.36407644 -0.34823307 -0.10160058 0.42682478 -0.078646205 -0.4327592 0.17196141 0.016051145
-0.15204303 0.2941744 0.048317198 0.23512171 -0.16355763 0.032446392 0.20263378 -0.19046564
0.035401806 -0.07344623 -0.2787259 0.37450132 -0.41378498 -0.10270598 0.38935477 0.41188514
0.19240409 -0.16201943 0.38637063 -0.0031081077 -0.19855024 -0.0029140732 -0.35685575 0.15492746
-0.24867648 0.21051414 -0.31523 0.061182443 0.11275892 -0.299165 0.249373 0.22953415
0.19528827 -0.09293994 0.24964483 0.3826018 -0.18768969 -0.10536461 -0.18983942 -0.15808125
0.26705825 0.308559 -0.22529961 -0.04949993 -0.4299973 -0.36414245 -0.16442905 0.29360372
-0.07521907 -0.08353326 -0.29617473 0.049147196 -0.19704098 0.04057858 0.13493307 0.008567382
0.0742469 -0.14249359 -0.21953368 0.14835767 -0.16700105 -0.21718287 -0.13641067 0.120256335
0.19361272 0.16713472 0.037253067 0.05522438 0.053300954 0.071218796 -0.14013354 0.034974188
-0.055025287 -0.10366494 0.1433644 -0.22952466 -0.019345852 -0.082173005 -0.043751385 -0.065834075
-0.29447684 -0.28724462 0.025932107 -0.00481857 0.31216323 0.16396904 0.20322569 0.34486055
0.32562676 0.19545993 -0.43423766 -0.063327536 0.10056842 0.048103895 -0.17820443 0.28618622
-0.3470879 0.27617645 -0.13036701 -0.19233207 -0.16694662 -0.2949839 0.24577738 -0.30975965
0.33149818 0.07814647 -0.22028589 -0.022196818 0.1862836 -0.2715024 -0.09818332 -0.15097041
-0.21791753 0.04829248 0.3524307 0.12191838 0.08681428 0.18003194 0.36530665 0.25300446
-0.27810207 -0.30856168 -0.17575102 -0.06790995 -0.38421664 0.25825182 -0.029540993 0.15765828
00000000: f73b 8e3e 10ae 8abe 5087 60be 5d77 c0be
00000010: 797a aa3e dd17 8d3d d441 57bd 99ad 163d
00000020: 95e3 443e ad27 5b3e dcd7 513e 1fca 9cbe
00000030: 1c0f 67be 1fb1 40bd 381e c43c 9f52 9cbd
00000040: 9848 c1be a565 16be 3fef 8a3d 5aad adbe
00000050: b5b2 9c3e 123a 413e 41e7 e33e fa9e a3bd
00000060: 9e56 ca3e e402 7ebd 6498 51bd 95ab 62bd
00000070: 6fa8 9abe 1964 463e 2100 2dbe 03de a7be
00000080: 4fbd cdbd e62b 4ebe af5f c93b 6240 2abe
00000090: 2f42 623e 996f 99be 023f efbd 6590 54be
000000a0: 80ff 3b3c 65b2 523e 3c45 89be 122c 65be
000000b0: b2e3 623e de61 d53e 8a79 0cbd 1e62 b5be
000000c0: 590c 5e3e 72f9 b23d 155e ef3d 206a ebbd
000000d0: 3dd8 7a3e aa5c 9bbe a036 563e 8b72 643e
000000e0: f5e6 3c3e 34c2 953e 1856 dd3e 8241 d83c
000000f0: 7cc8 ddbc 67f9 1ebd 7843 213e 3459 4abe
00000100: fe20 f53c f047 febd 49cd 78be 496d 48be
00000110: 00f7 b7be d144 753e 0a00 443e 7649 8d3d
00000120: 2174 cabe c809 b73e 3759 2c3e 8fe1 3c3e
00000130: 5961 213e 70d7 963e 8982 9cbe 81d1 cfbd
00000140: 76b9 f2be 44a2 c93e 8fec e03e 66df 38be
00000150: dcbc e03d c530 9dbe 2256 dabd 87a2 96bd
00000160: 2c09 7bbd 7a3e ddbd 2c3d 903e 39f2 423e
00000170: afea 423e d457 c7be 2acb b9bd 4da4 bc3d
00000180: 37fc 04bd 85af 8d3e d279 43bd f684 3c3e
00000190: da72 283e 8fab 84be 4630 863d 0512 cdbb
000001a0: 857a 80be dabe 413d 5af0 39be 73c3 eabe
000001b0: f92b 503e 6994 84be 4936 71be 6f1b 48be
000001c0: 3c69 a2be e829 d93e 9e0f 993e fef0 cabe
000001d0: 3583 c13e 49c5 433d 2f75 0dbe 1330 d13e
000001e0: 3a68 babe 9b4b b2be f713 d0bd c788 da3e
000001f0: 4311 a1bd 9d92 ddbe a716 303e b17d 833c
00000200: 2bb1 1bbe 079e 963e 41e8 453d bfc3 703e
00000210: a77b 27be 82e6 043d 3b7f 4f3e 6d09 43be
00000220: 7c01 113d fa6a 96bd 29b5 8ebe a3be bf3e
00000230: a0db d3be 8357 d2bd 8259 c73e 9ce2 d23e
00000240: 9405 453e 6ce8 25be 5fd2 c53e 65b1 4bbb
00000250: c150 4bbe 09fa 3ebb ccb5 b6be 4ea5 1e3e
00000260: 0ca5 7ebe 0591 573e d465 a1be 719a 7a3d
00000270: 26ee e63d 282c 99be a35b 7f3e 000b 6b3e
00000280: a6f9 473e 4c57 bebd e5a2 7f3e 62e4 c33e
00000290: ba31 40be 67c9 d7bd 4465 42be 0de0 21be
000002a0: dcbb 883e 72fb 9d3e f1b4 66be 70c0 4abd
000002b0: 9b28 dcbe e170 babe 1760 28be 3a53 963e
000002c0: 750c 9abd 7c13 abbd 37a4 97be 924e 493d
000002d0: 1cc5 49be ba35 263d e52b 0a3e 345e 0c3c
000002e0: c20e 983d d7e9 11be 70cd 60be 13eb 173e
000002f0: 5302 2bbe 3065 5ebe 3daf 0bbe f448 f63d
00000300: 6a42 463e 5d25 2b3e ac96 183d f632 623d
00000310: 1a52 5a3d 29db 913d 2b7f 0fbe 1841 0f3d
00000320: 3262 61bd 494e d4bd 1ece 123e 8308 6bbe
00000330: 317b 9ebc 524a a8bd a734 33bd 04d4 86bd
00000340: abc5 96be ba11 93be 926f d43c 18e5 9dbb
00000350: dcd3 9f3e 80e7 273e 651a 503e 9091 b03e
00000360: 8db8 a63e a626 483e 6654 debe deb1 81bd
00000370: d1f6 cd3d 9708 453d 397b 36be 0087 923e
00000380: 81b5 b1be 0067 8d3e ee7e 05be b3f2 44be
00000390: 0ef4 2abe 2108 97be 11ad 7b3e d198 9ebe
000003a0: 21ba a93e 420b a03d a092 61be 1ad6 b5bc
000003b0: 21c1 3e3e 5d02 8bbe 5614 c9bd fd97 1abe
000003c0: c625 5fbe 56ce 453d cc71 b43e 58b0 f93d
000003d0: afcb b13d 4b5a 383e 7909 bb3e cd89 813e
000003e0: 6563 8ebe ccfb 9dbe 13f8 33be 5f14 8bbd
000003f0: 0bb8 c4be 9539 843e f4ff f1bc 2c71 213e

in_proj_bias f4 [30]
0.05092873 -0.046933282 0.057413336 -0.060582973 0.058939487 -0.06814996 0.038182303 -0.05755669
0.09160245 0.059210874 1.5614794e-05 -1.8753699e-05 -1.768727e-05 0.00013163354 9.8777185e-05 -9.213797e-05
-2.944682e-06 -2.6395606e-05 -0.0003922261 -6.6459197e-06 -0.078560464 0.055039395 -0.080420494 0.0478571
0.056630395 -0.03866555 0.049940538 -0.03668344 -0.08900637 0.11319204
00000000: a59a 503d 1d3d 40bd 3f2a 6b3d da25 78bd
00000010: 886a 713d 3592 8bbd 0c65 1c3d 90c0 6bbd
00000020: 119a bb3d 1a87 723d 84fc 8237 4351 9db7
00000030: 205f 94b7 1c07 0a39 9926 cf38 323a c1b8
00000040: 409d 45b6 226c ddb7 b2a3 cdb9 0400 dfb6
00000050: 4fe4 a0bd fd70 613d 80b3 a4bd ce05 443d
00000060: 46f5 673d c55f 1ebd 738e 4c3d 6041 16bd
00000070: f948 b6bd 3ad1 e73d

weight f4 [10, 10]
0.30526176 -0.16112539 0.46726292 0.7167782 -0.33091542 -0.4157014 -0.0067748055 -0.07158191
0.48087472 -0.6029262 -0.333168 0.110096194 -0.10561561 0.30700552 -0.13386217 0.20799397
-0.44285262 0.34689096 0.24288125 -0.5104011 0.25706935 -0.20863336 0.033817124 -0.4410442
0.046716936 -0.12518342 -0.2609109 0.13830014 -0.04304678 0.16334713 -0.3254668 -0.083154276
0.5763911 0.42957124 0.41255254 -0.24870448 -0.11685952 0.26056844 -0.27220663 0.262156
-0.32236487 0.008571639 0.5037065 0.15393472 0.07715723 0.2717417 0.19980045 0.15691368
-0.055801317 -0.3875584 -0.18327793 -0.1971882 0.08926111 0.028395182 -0.09462962 0.4024238
-0.29869023 -0.19718455 0.13460183 0.14748295 0.13753389 -0.49254492 -0.14613464 -0.36324644
-0.33581394 0.38052535 -0.06983828 0.19057441 -0.008388251 0.19345263 0.005263776 0.04514113
-0.31839147 0.53590983 -0.18913966 0.43635395 0.008196404 -0.39558542 -0.09654533 0.37153283
-0.56349635 -0.32206926 -0.02383566 -0.15201245 -0.29489386 0.3718723 0.07388487 -0.42087242
0.4125264 -0.20869327 0.16848215 -0.12309677 -0.2854351 0.2677917 -0.1724264 -0.0969481
-0.36613208 -0.3043224 0.023075772 -0.2590718
00000000: 454b 9c3e 0efe 24be 163d ef3e c77e 373f
00000010: bf6d a9be d0d6 d4be 30ff ddbb 8999 92bd
00000020: 3635 f63e 5f59 1abf ff94 aabe 1d7a e13d
00000030: ff4c d8bd d42f 9d3e 2a13 09be 5ffc 543e
00000040: 94bd e2be b19b b13e ddb5 783e a6a9 02bf
00000050: 989e 833e fca3 55be d383 0a3d 8cd0 e1be
00000060: 425a 3f3d 1530 00be 1d96 85be 8d9e 0d3e
00000070: d251 30bd 7844 273e 96a3 a6be ca4c aabd
00000080: 5e8e 133f c3f0 db3e 163a d33e 63ac 7ebe
00000090: 0b54 efbd 3a69 853e ab5e 8bbe 5039 863e
000000a0: 020d a5be 0f70 0c3c e9f2 003f 10a1 1d3e
000000b0: 9c04 9e3d ba21 8b3e 7d98 4c3e fbad 203e
000000c0: ec8f 64bd 0e6e c6be 36ad 3bbe b4eb 49be
000000d0: 87ce b63d 039d e83c 2dcd c1bd 7e0a ce3e
000000e0: eded 98be bfea 49be 10d5 093e c505 173e
000000f0: afd5 0c3e d92e fcbe 52a4 15be 70fb b9be
00000100: ceef abbe 38d4 c23e 5f07 8fbd f025 433e
00000110: e06e 09bc 7218 463e c17b ac3b e8e5 383d
00000120: 3504 a3be 6331 093f d4ad 41be c969 df3e
00000130: 364a 063c 2c8a cabe 8fb9 c5bd 8d39 be3e
00000140: 4c41 10bf 43e6 a4be 0143 c3bc 27a9 1bbe
00000150: 54fc 96be 0c66 be3e f350 973d 977c d7be
00000160: a936 d33e b0b3 55be 9686 2c3e 291a fcbd
00000170: 8d24 92be fe1b 893e 8c90 30be ba8c c6bd
00000180: aa75 bbbe 25d0 9bbe 6709 bd3c 0fa5 84be

bias f4 [10]
-0.08952593 0.06236409 0.0831298 0.05367973 0.06538652 -0.065118946 -0.055838604 0.06066814
-0.053470235 0.06959234
00000000: 5f59 b7bd 7d71 7f3d f53f aa3d 47df 5b3d
00000010: 5ee9 853d 155d 85bd 05b7 64bd 287f 783d
00000020: 9b03 5bbd 6e86 8e3d

weight f4 [2048, 10]
0.008668804 5.8223627e-06 -1.5269714e-05 3.5707366e-08 -1.8100603e-07 1.8039061e-06 -6.592648e-08 -8.209542e-07
-3.5627028e-07 7.525115e-07 0.06176326 0.1072304 -0.05042787 -0.039283574 0.03888702 0.023900993
-0.20871645 -0.057737187 0.07242028 -0.018335897 0.12377652 0.013865701 0.045225084 -0.097868934
0.085291855 0.08997434 0.12578708 -0.044333864 -0.033752248 -0.051151544 0.0022242086 4.3549488e-07
-0.0006194498 -9.359187e-05 3.375419e-08 6.0216735e-07 3.3778954e-07 -0.0021893464 0.00041282803 4.04046e-08
0.042658016 -0.034849647 -0.10716392 -0.022126092 -0.062120065 0.048230663 -0.04416807 0.0065417727
0.10705889 -0.033130247 0.012388678 -0.096562445 -0.027766371 -0.006538024 -0.01206865 0.027098686
0.031177348 0.00038425255 0.020901376 -0.00864378 -0.11780702 0.067709535 -0.11350869 0.044646095
-0.08629623 -0.0051018074 0.06396242 0.07028606 0.058961675 0.014914351 -0.10881235 0.053542435
-0.08172233 0.010464368 -0.033941615 -0.023309339 0.042770803 0.016265854 0.02126954 0.095301956
0.050080203 -0.027717112 0.056635715 -0.04134856 0.026749387 0.11398416 0.08940572 -0.07974288
-0.070168875 -0.013241955 -0.15759195 -0.011006962 0.056231756 -0.065531254 0.08951376 0.033984873
0.08176459 -0.07027493 -0.07170228 0.012566697 0.095008016 0.03089487 -0.10881584 0.059498724
-0.019502241 -0.02970396 0.04087643 0.00885834 0.045878224 0.027792674 -0.10239232 0.07112527
-0.11321678 0.079055764 -0.056528527 -0.104441695 -0.049931362 0.024791578 0.055544723 0.04869797
0.047693953 -0.010874126 0.09784831 -0.11090685 0.05031786 0.097832985 0.049811188 -0.072367385
-0.019724388 -0.080665566 0.05134221 -0.044538688 -0.044316117 -0.050054584 -0.049161516 0.0496206
0.052654997 -0.052899126 0.04833613 -0.048179783 -0.13443694 0.11138244 -0.090133466 0.053107064
-0.007150185 -0.027977807 0.014108297 0.076460555 -0.008003857 0.109479964 0.034923565 -7.293507e-08
-0.031179372 -0.02615034 -0.011668734 0.02914191 0.015235791 -0.040413637 0.026276955 -0.017552014
-0.08115729 0.018408526 0.089531206 0.14498566 -0.010213812 -0.06772045 -0.09301573 0.11201496
-0.1008107 0.074957766 -0.07645098 0.1186163 -0.042673774 0.02752564 -0.102049194 0.03338948
0.10079177 0.096237905 0.049789477 0.021172758 0.02292619 -0.007325946 -0.0123068355 -0.0029172576
-9.050327e-07 0.005603623 0.0014305556 -0.0057572955 0.0148338135 -0.0066279015 -0.14396171 -0.09325199
0.0993808 -0.0754115 0.02269505 0.059438843 0.011280101 -0.09489009 -0.11227116 -0.011978661
-0.02913772 0.019355075 -0.0293913 0.10215045 -0.10919137 -0.060263194 -0.051657744 0.111341015
0.0147025455 0.022759002 -0.030847935 0.035543405 -0.03597997 0.04057306 -0.09204065 -0.06348753
-0.0075092358 0.08278478 0.09377835 0.0682355 0.083577864 0.014180073 0.059061352 -0.14643662
0.010039852 0.14085454 0.06163533 -0.051419288 -0.022851767 -0.12298072 0.08883973 -0.026700374
0.11114507 -0.10404694 0.09742898 0.09325762 0.10734162 -0.04453654 -0.05175387 -0.039628476
-0.1236623 0.014958048 -0.078797564 0.09193108 -0.06314685 -0.054872017 -0.09592587 0.09224046
0.0037367186 0.04873537 0.08186545 -0.08990278 0.120257445 -0.010351389 0.053788085 0.02312055
00000000: 9907 0e3c b75d c336 7617 80b7 aa5c 1933
00000010: 8f5a 42b4 be1d f235 7793 8db3 8b5f 5cb5
00000020: 6a45 bfb4 3200 4a35 79fb 7c3d 9d9b db3d
00000030: 748d 4ebd d0e7 20bd ff47 1f3d 04cc c33c
00000040: c4b9 55be d47d 6cbd 1551 943d 2a35 96bc
00000050: 8b7e fd3d f72c 633c f03d 393d 826f c8bd
00000060: 7fad ae3d 7744 b83d 54ce 003e 6d97 35bd
00000070: cc3f 0abd 4884 51bd 07c4 113b f6cd e934
00000080: 9362 22ba c146 c4b8 20f9 1033 a0a4 2135
00000090: 7159 b534 237b 0fbb d770 d839 5489 2d33
000000a0: 2cba 2e3d 81be 0ebd c278 dbbd c741 b5bc
000000b0: 9c71 7ebd 848d 453d 94e9 34bd 5e5c d63b
000000c0: b141 db3d 95b3 07bd e2f9 4a3c 88c2 c5bd
000000d0: 4d76 e3bc ec3c d6bb 96bb 45bc 10fe dd3c
000000e0: a367 ff3c 8175 c939 5d39 ab3c a49e 0dbc
000000f0: cf44 f1bd 4cab 8a3d 3e77 e8bd d3de 363d
00000100: 14bc b0bd 102d a7bb bbfe 823d 23f2 8f3d
00000110: cc81 713d 525b 743c 02d9 debd 504f 5b3d
00000120: 095e a7bd be72 2b3c 5d06 0bbd 3af3 bebc
00000130: 7030 2f3d f83f 853c 753d ae3c ac2d c33d
00000140: e620 4d3d ff0e e3bc dafa 673d 1c5d 29bd
00000150: 8821 db3c 8770 e93d 591a b73d 3c50 a3bd
00000160: b3b4 8fbd c9f4 58bc c95f 21be 8b56 34bc
00000170: 4553 663d 4035 86bd fd52 b73d b933 0b3d
00000180: 3274 a73d 4dec 8fbd a5d8 92bd 8ce4 4d3c
00000190: 9093 c23d 3d17 fd3c d7da debd efb4 733d
000001a0: 2ac3 9fbc b855 f3bc 0b6e 273d 9222 113c
000001b0: ceea 3b3d 76ad e33c 11b3 d1bd 20aa 913d
000001c0: 33de e7bd fde7 a13d 758a 67bd 87e5 d5bd
000001d0: d484 4cbd b517 cb3c dd82 633d 8677 473d
000001e0: bc5a 433d 6429 32bc b264 c83d 2123 e3bd
000001f0: 1a1a 4e3d a95c c83d d106 4c3d 5a35 94bd
00000200: 0a95 a1bc fd33 a5bd 364c 523d 336e 36bd
00000210: d184 35bd 0906 4dbd 965d 49bd f83e 4b3d
00000220: c4ac 573d c1ac 58bd 1bfc 453d 2a58 45bd
00000230: d6a9 09be 7a1c e43d e597 b8bd cb86 593d
00000240: 194c eabb b731 e5bc 7d26 673c 5a97 9c3d
00000250: 9c22 03bc 0837 e03d 030c 0f3d 7ba0 9cb3
00000260: e26b ffbc 3d39 d6bc 382e 3fbc 04bb ee3c
00000270: 8a9f 793c c588 25bd c542 d73c 3ec9 8fbc
00000280: cb35 a6bd 7acd 963c 235c b73d 1f77 143e
00000290: d557 27bc 05b1 8abd 087f bebd 1968 e53d
000002a0: d775 cebd 7583 993d 5592 9cbd 1aed f23d
000002b0: b2ca 2ebd 737d e13c 2bff d0bd 68c3 083d
000002c0: ea6b ce3d 6118 c53d 0df0 4b3d 7e72 ad3c
000002d0: b5cf bb3c 7d0e f0bb 9ca2 49bc 762f 3fbb
000002e0: 60f1 72b5 999e b73b 7b81 bb3a b2a7 bcbb
000002f0: 8609 733c de2e d9bb b36a 13be e6fa bebd
00000300: 2988 cb3d 5871 9abd f8ea b93c 2576 733d
00000310: 2cd0 383c bc55 c2bd 6cee e5bd 2542 44bc
00000320: 3ab2 eebc 898e 9e3c 06c6 f0bc 4134 d13d
00000330: ba9f dfbd 8ad6 76bd 1297 53bd c206 e43d
00000340: f2e2 703c 1671 ba3c cfb4 fcbc f695 113d
00000350: bc5f 13bd f02f 263d cf7f bcbd c005 82bd
00000360: 0910 f6bb 118b a93d dd0e c03d 0ebf 8b3d
00000370: df2a ab3d 8953 683c 51ea 713d 7bf3 15be
00000380: 317e 243c 2c3c 103e 5475 7c3d 089d 52bd
00000390: a133 bbbc 51dd fbbd 9bf1 b53d beba dabc
000003a0: 07a0 e33d 9016 d5bd d888 c73d dafd be3d
000003b0: ecd5 db3d f26b 36bd defb 53bd 7851 22bd
000003c0: a942 fdbd 9a12 753c 9e60 a1bd 5d46 bc3d
000003d0: 2353 81bd 7bc1 60bd c874 c4bd 91e8 bc3d
000003e0: bce3 743b bd9e 473d 13a9 a73d f31e b8bd
000003f0: 8949 f63d df98 29bc e550 5c3d 4f67 bd3c
