Comparative_Evaluation/Baselines/Transformer/models_m/model8.pt (torch, 369273 bytes, 36 tensors)

in_proj_weight f4 [30, 10]
000000 13 17 90 3e 1f ed 84 be ed 39 3d 3c 8e 5b 57 be
       0.28142604 -0.2596216 0.011549455 -0.21031019
000010 5c b9 5b be a5 47 49 be c3 6b c1 3d 07 48 24 be
       -0.21457428 -0.19656236 0.09444382 -0.16043101
000020 5e 5e 8c 3e 10 3e 94 bd ae 3d 9c 3d 3a c3 bc 3e
       0.27415746 -0.072384 0.07628952 0.36867696
000030 f4 42 9a 3e 45 29 0f be 09 71 ed 3c 95 f7 f6 3d
       0.30129206 -0.13980587 0.028984563 0.12058941
000040 d3 f6 30 be b8 9f 7d 3d 64 68 c2 3d f1 1b 1f be
       -0.17281656 0.061919898 0.09492567 -0.15538003
000050 fc f1 68 3d 83 dd d4 3c d1 2f df 3e 66 fe e9 bd
       0.0568714 0.025984531 0.4359117 -0.11425476
000060 1e 18 6b 3d 0a 31 c5 3d 8b 83 d1 bd 0e 9b 34 3e
       0.057396047 0.09628494 -0.10230168 0.17637274
000070 dd af 90 be 83 13 48 bd a2 8e 96 be 1c c3 47 39
       -0.28259173 -0.048846733 -0.29405695 0.00019050803
000080 ba 56 b8 3c 95 f8 c3 be d6 fe 91 3e b0 4f 87 3e
       0.022502292 -0.3827559 0.28514737 0.26427984
000090 75 1d 2e 3c 7a 70 dd be 95 ae 42 3e 57 4a 59 3e
       0.01062714 -0.43249875 0.1901191 0.21219765
0000a0 fa f0 18 bd e7 b6 fc 3d 7c 7a 57 3e c3 38 63 3d
       -0.03733919 0.12339573 0.21042818 0.055474054
0000b0 b3 7a 97 3e 51 79 45 bd a3 b4 3e bd a4 91 08 be
       0.295858 -0.0482114 -0.046558987 -0.13336807
0000c0 a9 59 64 3e 8f 2c 7d be 82 51 4d bd 75 ed c4 be
       0.22299828 -0.24724029 -0.05012656 -0.38462415
0000d0 ca 8b 79 be 1e 3b 2d 3e da 93 bf be 2a 24 eb bc
       -0.24369732 0.16917083 -0.3741749 -0.028703768
0000e0 e3 a2 ae bd 28 5c a5 be 0a a5 01 be 42 9d 26 3e
       -0.08527162 -0.32296872 -0.12660614 0.16270927
0000f0 f7 bb 05 3d 11 7d c9 be 77 ff a8 3e f1 4e 36 be
       0.03264996 -0.3935323 0.33007404 -0.17803551
000100 fd 91 97 be d8 9d be 3e 86 9c 15 be d8 e4 a2 3e
       -0.29603568 0.372298 -0.1461049 0.3181522
000110 a9 f9 07 3e d0 f2 c7 3e 03 d0 a7 3e 56 c1 5b be
       0.13278832 0.3905244 0.32775888 -0.2146047
000120 b5 ff 0d bd 13 b6 88 be 45 61 93 3c 5b 64 69 3e
       -0.03466769 -0.26701412 0.017990718 0.22792189
000130 c9 9a 85 3e 1c 7a 7f be 2f 0a 61 be d3 f3 9c 3e
       0.26094654 -0.24948925 -0.21976541 0.30654773
000140 3a bb 49 be bc dc d8 be 9b e0 04 be 23 a9 90 be
       -0.19700328 -0.42355907 -0.12976305 -0.2825404
000150 fe 91 f2 bd da f7 ca be 37 04 5b 3e a6 35 e8 bd
       -0.11844252 -0.3964222 0.21388327 -0.113383576
000160 ba c1 87 3e fc 14 94 be 5d c7 99 bd d5 f7 af 3c
       0.2651499 -0.2892226 -0.07508729 0.02148048
000170 63 8e d4 be fe e3 90 bd 42 ea 79 3d 5a 59 85 be
       -0.41514882 -0.07074736 0.06101442 -0.26044732
000180 34 5e 7c be 73 ee cf bd c3 91 9c bc 7c b1 d3 3c
       -0.2464531 -0.101529025 -0.019112473 0.025841467
000190 a6 81 d7 be 6e 38 38 be 64 4c a5 be 12 23 18 3e
       -0.420911 -0.17990276 -0.32284844 0.14857128
0001a0 63 6c 15 3e df 76 9b 3d b2 f9 3d be 20 b1 eb 3d
       0.14592128 0.07591032 -0.18552282 0.11508393
0001b0 f3 23 5b 3e ef ef 17 be 8a bb cd bc 0e 47 2a bd
       0.21400432 -0.14837621 -0.02511384 -0.04157167
0001c0 d1 f7 c9 bd b9 65 99 3e 99 61 4d 3d 37 e0 c1 be
       -0.0986172 0.2996042 0.050141905 -0.37866375
0001d0 51 5f cf 3d aa 0e 42 bd 86 5e 4b be 65 48 c8 be
       0.10125602 -0.047377266 -0.19860277 -0.39117733
0001e0 10 3e 8c 3e ae 50 99 be 91 6a 44 be a4 62 0f be
       0.273911 -0.29944366 -0.19181277 -0.14002472
0001f0 f8 2b bb 3e c2 ea d3 bc e2 be 2c be 6a 1b 5f 3c
       0.36556983 -0.025868777 -0.16869691 0.013617376
000200 c2 3d 84 3e b9 73 99 be ab 3e 8f 3e b5 d1 ab bc
       0.25828367 -0.29971102 0.279775 -0.02097402
000210 73 09 39 3e d3 21 a6 be c7 2a d7 be 98 87 b0 3b
       0.18070011 -0.3244768 -0.42024824 0.005387258
000220 79 90 0b 3e 38 89 27 3e df 9d a2 3e f5 ea 87 3d
       0.1362933 0.16360939 0.3176107 0.06636611
000230 29 b9 61 3e c5 a6 a1 be b1 68 25 be 32 57 8a bd
       0.22043289 -0.31572548 -0.16153218 -0.067549124
000240 ce 43 e0 be db aa a5 3e f5 b5 a2 bd 51 d0 68 3e
       -0.4380173 0.32356915 -0.07944862 0.22735716
000250 3b b0 b6 3d 6d 88 0b be 9c 9f 09 3e 6a 8e e0 bd
       0.08920332 -0.13626261 0.13439792 -0.10964663
000260 a4 1f b5 be d7 71 5a 3e 42 6a 91 3d b0 09 cf 3d
       -0.35375702 0.21332489 0.07100345 0.101092696
000270 f8 ec d1 3e a6 cf 6b be 82 d0 a3 3e c3 81 6e bc
       0.41001105 -0.2302843 0.31995016 -0.014557305
000280 2a 68 98 3e 73 ef f3 3d 5c 81 d4 3e 51 17 67 3e
       0.2976697 0.11910906 0.41504943 0.22567488
000290 10 ac 9b 3e 57 7f ae be 6b 25 b9 be 78 88 57 3c
       0.3040471 -0.34081528 -0.3616136 0.013155095
0002a0 a7 86 90 be 08 6b 8e 3e 6b 4d 9c 3b 2a c9 1a 3e
       -0.28227732 0.27816033 0.004769971 0.151158
0002b0 d2 cf 2e 3e 09 73 0f 3e 73 86 08 3e 8c f8 69 bd
       0.17071465 0.14008726 0.13332538 -0.0571218
0002c0 24 28 62 be 70 40 d6 bd 47 12 d8 3d 68 05 da bd
       -0.22085625 -0.10461509 0.10550361 -0.106455624
0002d0 0f 8e 21 3e 9d 85 4b bd 1c 77 db 3d c2 4d f0 bd
       0.15776847 -0.04968797 0.10716078 -0.11733581
0002e0 5f 17 86 3e 94 5d d6 3e d7 fa e0 3e 05 db c1 bd
       0.26189706 0.4186827 0.43941376 -0.09465603
0002f0 f5 81 ab 3c 70 00 89 3b 19 79 e9 3d ab 09 19 bd
       0.020935992 0.0041809604 0.11400051 -0.037362736
000300 a4 24 b8 be 4e 78 ad 3d fd a8 a7 3e 7b 22 8a 3e
       -0.35965455 0.08470212 0.32746115 0.26979432
000310 53 eb e7 bc 0a ce b9 3e 59 e5 b4 3e 2e 77 c8 3e
       -0.028310454 0.36290008 0.35331228 0.39153427
000320 37 f9 43 bd 5f 45 39 be 7c db 73 3e 46 7a 8d be
       -0.04784509 -0.18092869 0.23814195 -0.2763235
000330 18 04 97 3d b2 a5 ed 3d cc 32 22 bd 9f 5f a9 3e
       0.07373828 0.116038695 -0.039599225 0.33080766
000340 6f 9a 47 3e 2c 34 dc be c8 fa 00 be 01 b1 4d be
       0.19492505 -0.43008554 -0.12595665 -0.20087053
000350 b4 a6 b5 be f1 4e 62 3e ce 86 7b be 69 5d 97 be
       -0.35478747 0.22100426 -0.24563143 -0.29563454
000360 a0 37 91 be 99 61 71 3d 76 a0 82 3c 7e 7b a5 be
       -0.2836275 0.058930967 0.015945654 -0.3232078
000370 29 f1 d5 3e f1 c7 64 3e 86 1d 80 be 56 9c 3f 3d
       0.41785553 0.22341897 -0.25022525 0.046779953
000380 04 2b 10 be 2b ce c9 3c 15 ae c4 3d a1 d2 d2 bd
       -0.14078909 0.024634441 0.09603516 -0.102940805
000390 3e 82 78 bb a7 96 3c 3e 9d ad 0f 3d 1d 10 c9 3e
       -0.0037919427 0.18416844 0.03507768 0.39270106
0003a0 29 57 a6 3e 68 bf 71 3e ca e0 92 3c 07 d3 3e be
       0.32488373 0.23608172 0.017929453 -0.18635188
0003b0 6c c2 77 3e 39 64 8b 3e b9 99 8a be 32 b1 97 bc
       0.2419526 0.272249 -0.27070406 -0.01851711
0003c0 81 68 fc bd 5d 0d 14 3e 06 0c 49 3c f0 35 7d 3d
       -0.1232462 0.14458223 0.012270933 0.061819017
0003d0 59 88 c1 3e 0c 5b bb 3e ab 20 4d 3e 2f b9 ef bd
       0.37799338 0.365929 0.20031993 -0.11705243
0003e0 f9 1a 39 3e 7a 1d 53 3c ad 82 2d bc a9 14 dc 3e
       0.18076696 0.012885446 -0.010590238 0.42984512
0003f0 0d 0a 6f 3e b7 a0 73 be 12 c5 48 be de bc de bd
       0.23343678 -0.23791777 -0.19606426 -0.10875867

in_proj_bias f4 [30]
000000 34 e5 4a bd de 33 5b 3d 31 5e 66 3d a5 71 7b bd
       -0.04953499 0.05351626 0.05624217 -0.061387677
000010 37 0b 6c bd 02 fb 85 bd 88 2f 98 bb 4b ed 8b 3d
       -0.057627883 -0.065420166 -0.004644338 0.068323694
000020 1b ef 45 bd fb c1 9b bd 0e 9c 85 b9 75 7a 8d 39
       -0.048323732 -0.07605358 -0.00025484007 0.00026984853
000030 32 a6 6c 38 d8 64 dc b8 43 d3 a9 b7 6c 14 da 38
       5.6421566e-05 -0.00010509201 -2.0244746e-05 0.00010398854
000040 38 03 f4 b7 88 6c d6 b7 b2 f5 08 3a 80 55 53 37
       -2.9088565e-05 -2.5561327e-05 0.00052246 1.2596487e-05
000050 f4 aa 71 bd 9f 9a 69 bd e6 54 38 3d 37 12 85 3d
       -0.059000924 -0.057032224 0.04500284 0.06497615
000060 50 a6 ac 3d 54 4b 82 3d a0 c9 48 bd dd f2 59 3d
       0.08430159 0.06362024 -0.04902041 0.053210128
000070 13 c4 ed 3d 8b 55 6f bd
       0.11609664 -0.05843119

weight f4 [10, 10]
000000 3f ce 84 3e cc c5 55 3d 8a d7 30 3e 6c 62 35 3e
       0.25938603 0.052190587 0.17269722 0.17713326
000010 dc 78 03 3f 43 9f c2 3e c1 6a 65 3e 5b 56 29 3f
       0.5135629 0.38012132 0.22404005 0.66147393
000020 3d 5a 0f 3e ca 94 3d 3d dc 34 bb be 3b 2e 6c 3e
       0.13999267 0.046284474 -0.36563766 0.2306451
000030 94 56 7f 3e 94 f9 b6 be 64 26 90 3c e6 7c 9c be
       0.2493537 -0.35737288 0.017596431 -0.3056404
000040 82 b1 05 3f fd 5a d3 bc 70 3c 48 be 4c 02 9e 3e
       0.5222398 -0.025800223 -0.19554305 0.30861127
000050 f2 a9 c0 be 0a 37 92 be 70 5b 93 3b 3c 1a 07 3f
       -0.37629658 -0.28557616 0.004496984 0.52774405
000060 a6 83 fd 3e 79 d0 8f bd c1 ad 5c bd 7e bf eb bd
       0.49514502 -0.07022185 -0.053876642 -0.115111336
000070 54 e1 21 3e 8a bb c7 be 58 7e 22 bd 69 fe 6d be
       0.15808612 -0.39010268 -0.039671272 -0.23241581
000080 b1 e5 e5 3e 4d 12 85 3e 6f ba 75 be 8b f4 80 3e
       0.44901803 0.25990525 -0.239969 0.2518657
000090 ca c5 a1 3c 78 79 91 3e bf 2e cd be b6 b4 e6 be
       0.019747633 0.28412986 -0.40074727 -0.45059747
0000a0 07 06 8f 3e 25 ed 3b be 4d 6e e2 be 83 ae 2f 3e
       0.27934286 -0.18352182 -0.44224778 0.17156415
0000b0 4b c1 59 bc 57 01 90 3d e9 bc 42 be bc 17 c0 be
       -0.013290714 0.070315056 -0.19017376 -0.37518108
0000c0 38 02 ab be 1a 2b 7c 3e 48 43 70 be 51 ea 42 3e
       -0.3340013 0.24625817 -0.23463166 0.19034697
0000d0 db df 42 bd 98 b1 f0 3d 03 37 0a 3f 5b 4a 0f be
       -0.047576766 0.11752623 0.5399019 -0.13993208
0000e0 f9 b5 85 3e 3e 50 c4 3b 7c d0 59 be 84 c5 86 3d
       0.26115397 0.005991011 -0.21270937 0.06580642
0000f0 27 72 ff 3e fb c6 d3 3e c8 b0 89 3d 64 dd 7b be
       0.4989178 0.41362748 0.067231715 -0.24596173
000100 59 5e 0c 3f 6e bc 10 3e de 6e 00 bf dc da da 3c
       0.54831463 0.1413438 -0.5016917 0.026715688
000110 26 65 ad be 15 fa 86 be 97 b9 de 3e 60 a1 a5 3e
       -0.33866233 -0.26362672 0.4350097 0.32349682
000120 3d 91 50 be fc cc 93 3e 65 5e fc be fb b3 da bd
       -0.20367904 0.28867328 -0.49290767 -0.1067886
000130 c0 f8 a5 be 27 ab 8d 3d e6 70 e3 be 87 a3 9e be
       -0.32416344 0.0691741 -0.44422072 -0.30984136
000140 40 b7 00 3f 70 15 f3 3e ac 4b dc 3e 73 f7 cc be
       0.5027962 0.47477293 0.43026483 -0.4003254
000150 72 8a 8d be b8 1f 86 bd 80 67 0d 3f f6 35 e9 3e
       -0.27644688 -0.065490186 0.55236053 0.4554898
000160 f8 c4 07 bf 8f 36 21 be 88 0e b9 be 85 cc 80 be
       -0.53034925 -0.15743469 -0.361439 -0.25156036
000170 6c 61 6b be 30 5c e1 3e 0a a2 4f 3e 16 46 9d be
       -0.22986382 0.44015646 0.20276657 -0.30717534
000180 73 15 0a be 53 74 9b bd ae 06 00 3e 73 ba 64 3e
       -0.13484745 -0.075905465 0.12502548 0.2233675

bias f4 [10]
000000 ec e3 02 3e 15 11 73 bd 92 bc 97 3d e0 90 58 3d
       0.12782258 -0.059342463 0.07409014 0.05287254
000010 4a b2 5e bd 67 40 36 3d 55 fb 29 3d ef 1e 49 bd
       -0.05436925 0.044495013 0.041499455 -0.049101766
000020 3c d3 3f bd c7 da 9e bd
       -0.04683231 -0.07756572

weight f4 [2048, 10]
000000 7a 00 9c bd c2 1b ba bb 81 0f 3c bd 2d e8 17 bd
       -0.076172784 -0.0056795785 -0.045913223 -0.037086654
000010 0f 47 3d b9 3e b1 bd 3c 79 74 70 3c 82 13 73 3d
       -0.00018050916 0.023155805 0.014676207 0.059344776
000020 7a 8c 2b 3c ee ec 80 bb 5b 66 21 3e a5 16 90 bd
       0.010470504 -0.003934494 0.15761702 -0.07035569
000030 46 1e 13 3e 50 31 03 3c 10 80 9f 3d 2b 8c 86 bd
       0.14367017 0.0080073625 0.07788098 -0.06569704
000040 f9 39 75 bc ec fe 69 be dc b1 03 be af 05 ec 3d
       -0.014967435 -0.22851151 -0.12860817 0.115245216
000050 b5 d2 0d be a6 9b 8b bd 8f 57 dc 3d a7 c1 6f bd
       -0.1384991 -0.06816797 0.10758888 -0.05853429
000060 b9 37 b7 3d 29 9d 7a 3a b6 4d f3 bb 5a 9f 7e 3d
       0.08946175 0.0009560162 -0.0074250354 0.06216369
000070 40 3b bd bd 63 38 b6 3d 41 27 db bc d8 de bc bd
       -0.09239817 0.08897474 -0.026752116 -0.092221916
000080 ab a8 a4 3d 96 0f 09 bd 3d 8a 06 3d f3 01 e1 3d
       0.08039983 -0.03346213 0.032846678 0.109867
000090 09 0a 9e bd 6f 9e ea 3d 1e ac 54 bd 41 65 d6 3d
       -0.07716758 0.11456 -0.051921956 0.104685314
0000a0 04 ef 16 3e e4 cc b7 3b cd f5 59 bd 21 ef 22 3e
       0.14739615 0.0056091417 -0.05321293 0.15911533
0000b0 c8 bc 0f bd 94 9d 16 3e 2c 0d 2b 3d e6 24 9c bc
       -0.035092145 0.14708549 0.04176061 -0.019060563
0000c0 c1 69 62 3c 10 5f 86 bd de 7b e7 bd b8 cc 00 3d
       0.013819159 -0.065611005 -0.11302923 0.031445235
0000d0 13 ac 0c bd b7 a1 75 bd 01 fb 05 3e 8b 84 2c bd
       -0.03434379 -0.059968676 0.13084032 -0.04211859
0000e0 8a 69 61 bd 3c e4 1a 3d 12 8c 6a 3d 5a a2 12 bd
       -0.05503229 0.037815318 0.057262488 -0.03579936
0000f0 19 6c 87 3c 30 3f 43 3d 51 53 61 bd 42 69 49 bb
       0.016531037 0.047667682 -0.055011097 -0.0030732905
000100 60 79 61 bc e7 b6 61 bb cc f0 92 3d c5 39 3b bd
       -0.013761848 -0.0034441294 0.071748346 -0.04570939
000110 6a 90 a6 3d da c4 ab bd 69 e9 5c bd b1 29 7a 3d
       0.081330135 -0.08387156 -0.053933535 0.061074916
000120 b8 e1 7f bd 13 0e 16 bd d3 0f 99 3c 8e 4a 22 bd
       -0.06247112 -0.036634516 0.018684303 -0.039621882
000130 76 bd 2c bd 6f bb 10 3d 6a ab 84 3d 47 c7 2a bd
       -0.04217287 0.035335 0.06478007 -0.041693952
000140 02 0b ca bd 26 a0 01 3d 21 a3 87 bd b4 84 13 bd
       -0.09865381 0.03164687 -0.06622911 -0.036015227
000150 4c e4 99 3c e7 95 ef ba d7 ba 24 bd c4 96 a2 3d
       0.018785618 -0.0018278927 -0.040217247 0.079389125
000160 ef 1a 54 3d 33 49 0f bd b3 87 4a bd f6 34 1d 3d
       0.0517835 -0.034981918 -0.04944582 0.038380586
000170 10 aa 3d bd 41 dd 6d bd 69 78 fc bc e5 ad 1c b8
       -0.046304762 -0.058072332 -0.030819135 -3.735525e-05
000180 67 6c 2e bd 73 f1 2d 3d c1 80 48 3d 24 0a 35 bd
       -0.04258385 0.042466592 0.048950914 -0.044199124
000190 7b a8 4d bd 13 27 56 3d 86 c7 6d bd 45 ae 4d bd
       -0.050209504 0.052283358 -0.05805161 -0.050215025
0001a0 2d 83 0f 3d cb c8 4d bd 80 f6 27 bd 70 ac 50 3d
       0.03503721 -0.05024032 -0.041006565 0.0509457
0001b0 20 a2 6e 3d d5 8e 30 bd 48 e1 88 bd 9d 9d 55 3d
       0.058260083 -0.043104965 -0.06683594 0.052152265
0001c0 bc eb 48 bd 12 89 86 bd ea 94 6d 3d f9 21 06 bd
       -0.04905294 -0.06569113 0.058003344 -0.032747243
0001d0 23 9a 6c bd ab b4 92 3d 8e 19 3b 3d 52 77 d8 bc
       -0.057764184 0.07163366 0.045678668 -0.026424084
0001e0 d6 4a be 3c 49 bb 8b bd 4f 9b c7 3d e8 e4 1a be
       0.023229044 -0.06822831 0.0974642 -0.15126383
0001f0 2b 79 a8 3d 7f 25 2e be 78 82 c8 bc 9a f2 8c bd
       0.08226236 -0.17006491 -0.024476275 -0.0688221
000200 0e 5f 0c bd 6d dd 16 3d 2c 05 3f bd 6b 3a fd 3c
       -0.03427034 0.03683226 -0.04663579 0.030911645
000210 5c b0 2e bd b6 6c 7e bd 05 d8 83 3d 07 62 45 bd
       -0.04264866 -0.062115394 0.06437687 -0.04818919
000220 3b 71 3b bd e9 f5 32 3d e2 ea 0c 3d 33 0f 58 bc
       -0.045762282 0.04369155 0.03440369 -0.0131872175
000230 2a 1d 8e bd 27 4b fa 3c 7f eb be bd 00 ad 97 3d
       -0.06939156 0.030553414 -0.09322261 0.07406044
000240 9f e4 2a bd ae a5 98 3c b5 b2 43 3d e7 73 99 3d
       -0.041721936 0.01863369 0.04777785 0.0749281
000250 6f 98 9b 3c 10 43 c1 bd 25 5a b7 bc 90 3b ed 3d
       0.018993584 -0.09436619 -0.022381851 0.11583626
000260 3a 48 41 bd b7 02 34 bd c8 25 06 bd 40 8d 84 bc
       -0.04718802 -0.0439479 -0.032750875 -0.016180634
000270 a8 4c 3c bd f4 e9 3b 3c 9e 9c 1e 3d c4 49 25 bd
       -0.045971543 0.011469353 0.03872358 -0.04035355
000280 2a 9f 20 3d bb 52 cd bd e1 d6 a4 3d ff 62 19 bd
       0.03921429 -0.10025545 0.080487974 -0.037447926
000290 7e dd ae 3d 50 a3 80 bd 2c 43 9e bd 0d 25 9b bd
       0.0853834 -0.062811494 -0.07727656 -0.07575426
0002a0 91 32 67 bc 68 1f a4 3d 81 ed 45 bd a4 07 96 3d
       -0.014111177 0.08013803 -0.048322205 0.07325676
0002b0 b4 59 32 bd 5d bd 9f bd e5 8b 31 bc 90 91 6f bd
       -0.04354258 -0.0779979 -0.010836576 -0.05848843
0002c0 f7 82 87 bd 80 62 f9 3b dd 37 1e 3d 0b e8 96 bc
       -0.066167764 0.007610619 0.038627494 -0.018421194
0002d0 cf f3 68 3e f5 e1 83 3d 5d ff 9e 3d d5 b1 b6 3d
       0.22749256 0.06439582 0.077635504 0.089206375
0002e0 9f a6 86 bb 81 17 aa bc 3f ad 3f bd e0 c7 f8 bd
       -0.0041092183 -0.02076316 -0.04679608 -0.12147498
0002f0 a4 28 2a bd 31 3a 64 bc f1 fd 01 3e 09 8d 92 bd
       -0.041542664 -0.01392989 0.12694527 -0.071558066
000300 3c 64 b9 3d 17 47 e9 3a 27 a4 1d 3d 34 4d 3a bd
       0.09052321 0.0017797676 0.038486626 -0.045483783
000310 2f 70 87 bb a3 76 f3 bd be 4c ef bd bd 6c fd 3c
       -0.0041332464 -0.118878625 -0.11684559 0.03093564
000320 d5 72 e2 3d 02 ab 7c bc ee df c9 3d cc 9c c6 3b
       0.11057059 -0.015421631 0.09857164 0.006061172
000330 6d f0 5f 3d 6a c4 22 bb ef a4 a2 bd f3 cf e5 bd
       0.054672647 -0.002483631 -0.07941615 -0.11221304
000340 87 27 b8 bd db 91 4d 3d da fc de bd 3d ca 99 bc
       -0.08991914 0.050187927 -0.10888071 -0.018773193
000350 0f 6b e2 3c ba 08 d8 bd 0d 8d 8e 3d aa bf 88 3c
       0.02763894 -0.105485395 0.06960497 0.016692955
000360 dc bf 05 be a7 bf 24 3e a8 90 bd bd a7 79 49 3d
       -0.1306147 0.16088735 -0.092561066 0.049188282
000370 7f d8 f8 bb dd b0 05 3d c3 11 d0 bc 3b ff 89 bc
       -0.0075941677 0.032639373 -0.025399094 -0.016845336
000380 28 2d c0 3c 4b 26 83 bd 2c 87 0b bd e5 8e 9f 3a
       0.023459032 -0.06403788 -0.034064457 0.0012173323
000390 41 7e b9 3c 95 9e 7a bc a1 71 fa bd ab ac 10 bd
       0.02264321 -0.015296598 -0.12228704 -0.03532092
0003a0 10 06 b2 3c ef ce 91 bd 79 7b 6e 3d b2 3f f8 3d
       0.021731406 -0.071195476 0.05822322 0.12121524
0003b0 f3 c6 6e 3d b3 7c d2 3d be ad 7a bc 43 84 f8 3c
       0.0582952 0.10277691 -0.015300212 0.030336505
0003c0 d0 61 b8 3d f5 f6 e0 bd 58 25 cd 3d 42 e4 c9 3d
       0.09003031 -0.10984603 0.100168884 0.0985799
0003d0 4e f4 94 3d 88 c9 ad 3b b2 a5 ca 3d 2b 9d 84 bd
       0.0727316 0.0053035654 0.09894885 -0.0647529
0003e0 8b cb e2 bd e4 7c e0 3d 5f 61 39 bd b7 a9 04 3d
       -0.11073979 0.10961321 -0.045258876 0.032388415
0003f0 a8 af 1f bd 86 c7 20 bd 99 ba b4 3d 4b 12 73 bd
       -0.03898588 -0.03925278 0.08824653 -0.059343617

bias f4 [2048]
000000 9e 36 72 bd 95 39 ac 3e 74 2e 02 3e 24 c3 ba 3d
       -0.05913412 0.33637682 0.12713033 0.09119251
000010 6a 5c 9d 3d 59 72 e1 bd bd fa c1 3c 3a d5 4d bd
       0.07683642 -0.11008138 0.023679132 -0.050252177
000020 0b 42 98 bd f2 fb 5a bd f2 4e 6b bd 64 5d 10 be
       -0.07434472 -0.05346293 -0.057448335 -0.14098126
000030 9b 82 8c 3d f7 ae ed bc 86 c4 3a 3d 12 95 41 bd
       0.068608485 -0.029014094 0.045597576 -0.047261305
000040 ca 98 73 3e bd 1b 6c bd 7d 19 3d 3e c2 f1 36 3d
       0.23788753 -0.05764364 0.18466754 0.044664152
000050 df 39 9c 3e 38 76 89 3e c3 59 8b bc 6f d1 7e 3d
       0.30512902 0.26848006 -0.017010575 0.06221145
000060 b0 90 7c 3d 0b 95 cc bd be 7f e0 bd ab 5c 04 3c
       0.061661422 -0.09989365 -0.10961865 0.008078734
000070 3f cd 73 bd fc b5 84 3e 44 df b5 3e ab 38 e8 3d
       -0.05952191 0.25920093 0.355219 0.113389336
000080 c4 3b 41 bd 03 ce eb 3d 4d 06 a8 bd 74 42 9c 3e
       -0.047176138 0.11513903 -0.08204327 0.3051945
000090 e3 43 3e 3c d6 8c 87 bd 4c 99 be bd 00 6d c3 bc
       0.011612865 -0.06618659 -0.09306583 -0.023855686
0000a0 86 2a ca bd 86 fa 69 bd c2 d4 67 bd 70 f3 fd bc
       -0.09871392 -0.057123683 -0.056599386 -0.03099987
0000b0 e2 58 67 3d 10 5e 7b 3e d8 52 68 bd 79 c0 06 3e
       0.05648125 0.24547601 -0.05671963 0.1315936
0000c0 02 65 4b bd 16 b9 a2 bd b0 15 1f 3d 59 d1 88 bd
       -0.049656875 -0.079454586 0.038839042 -0.06680555
0000d0 e7 cf 3f bd ef 94 fe 3c 8c 68 5d bd 62 79 24 3e
       -0.04682913 0.031076876 -0.05405478 0.16061929
0000e0 66 b5 30 bd d5 40 76 3e 3e aa 8b bd 10 1c 67 3e
       -0.043141745 0.24048169 -0.068195805 0.22569299
0000f0 e5 21 c5 bd bb 67 a6 3d 50 67 aa bd c2 10 e2 3d
       -0.096256055 0.08125254 -0.083204865 0.110383525
000100 bb 80 6f 3e 66 90 35 3e 76 c5 2b 3d fc 18 58 bd
       0.2338895 0.17730865 0.04193636 -0.052758202
000110 5d 30 81 3d 73 91 4e bd 48 22 37 bd fb 5a a5 bc
       0.06308053 -0.05043168 -0.044710428 -0.020184984
000120 42 69 e7 3d 33 92 49 3e 24 4a ad 3d d1 6f ba 3c
       0.11299373 0.19684677 0.08461407 0.022758396
000130 d2 e5 0b 3e 58 c6 6b 3e 81 8d a3 3e 8a f9 61 bd
       0.13661888 0.23024881 0.31943896 -0.05516962
000140 3a ac a3 3e f6 42 78 bd 31 03 4c 3e 9e 58 8c bd
       0.31967336 -0.060610734 0.19923092 -0.0685284
000150 3d 09 10 3e 66 b8 3b bd d7 c9 83 3d b6 3d 8a 3d
       0.14066024 -0.045830153 0.06434982 0.06750052
000160 b4 b8 6c 3e 01 7c 9f 3e 46 c2 9b 3c 48 a4 9c 3d
       0.23117334 0.31149295 0.019013535 0.07648522
000170 11 2e b7 3b 95 d8 c0 bd 01 f2 f0 bc 64 8f 03 3e
       0.0055902083 -0.0941631 -0.029412271 0.12847668
000180 b5 72 6a bd 4b a1 6a 3d a8 14 45 3e ae b4 2f bd
       -0.0572383 0.057282727 0.19246161 -0.04289692
000190 a0 51 99 bd ef 0d b5 bc 28 b1 ab bd ac dd 94 bc
       -0.07486272 -0.02210137 -0.08383399 -0.018172108
0001a0 07 2a 7c 3e ab 68 f2 bb 96 17 53 bd b8 3a 3d 3e
       0.24625407 -0.0073977313 -0.051536165 0.1847943
0001b0 0f ce ac 3d ce a3 1b bd fd 1a 31 bd e2 31 76 3d
       0.0843774 -0.037998013 -0.04323863 0.060106166
0001c0 3b 5b 4c bd f0 cf 80 3e 82 ca 52 3e 94 c2 be bd
       -0.04989169 0.25158644 0.20585063 -0.093144566
0001d0 58 a8 65 3d fd 6e 6c 3e 3f fa 22 3e 98 ba d1 ba
       0.05606875 0.23089214 0.15915774 -0.0016001044
0001e0 ef 5f b8 bd 1f be c0 bd a3 71 89 bd 42 d5 d7 bd
       -0.09002673 -0.09411263 -0.067111276 -0.105387226
0001f0 cb c7 a2 bd 01 e0 4d bd c1 8d 7c bd 30 af 27 3e
       -0.07948264 -0.050262455 -0.061658625 0.16375422
000200 5c 76 04 bd ce 16 9f 3e 4a a9 3d bd 8d c2 95 3d
       -0.03233944 0.31072086 -0.046304025 0.07312498
000210 75 b0 52 bc 87 fd 3c 3e 40 0b 76 bd 46 23 1f bd
       -0.012859453 0.18456088 -0.060069323 -0.038852
000220 7b 8a d8 bc dd 3f 03 3e 91 9f 93 bd 65 db 96 3d
       -0.02643322 0.1281733 -0.07208169 0.07366065
000230 eb 3c 97 bc b8 83 8a bd 1d a8 0f bd 26 55 f5 3d
       -0.018461665 -0.067634046 -0.035072435 0.119791314
000240 2b 07 6b bd 82 22 8a bc 65 63 59 bd 09 7f 5e bd
       -0.057379883 -0.016862158 -0.053073306 -0.05432037
000250 1f b7 37 bd 30 ce ff bc 86 25 80 3e 6c c8 a7 3e
       -0.044852372 -0.031226248 0.25028628 0.32770097
000260 b0 39 3d 3e b6 4d 4f bd ba 3b a9 bc b2 da 27 3d
       0.18479037 -0.05061122 -0.020658363 0.04098005
000270 58 00 82 bd ed 4b b7 3e 72 48 39 bd 96 c7 1d bb
       -0.06347722 0.35800114 -0.045235105 -0.0024075261
000280 46 46 86 bb fb d1 ab 3e 65 e4 b0 3e 47 9b 49 bd
       -0.0040977327 0.3355864 0.3454925 -0.04922035
000290 f8 03 ce bd d2 2c e1 3d 8a 14 86 3e a3 d1 57 bd
       -0.10059351 0.10994877 0.26187545 -0.05269016
0002a0 7c 05 61 3d 1f 4f c1 bd 44 30 fd bc 86 6e 0c bb
       0.05493687 -0.09438919 -0.030906804 -0.0021428182
0002b0 12 92 a9 3e bb 76 21 bd 20 1a 46 bd af a3 c5 bd
       0.33119255 -0.03941987 -0.04836476 -0.09650361
0002c0 e3 d8 2b bd 92 3c fa 3b 22 5b d5 bc 4d 15 6e bd
       -0.041954886 0.007636615 -0.026044432 -0.058125783
0002d0 f8 59 9e 3c 6b 6e 87 bd 07 5a a7 3e bd 8b 79 bd
       0.01933001 -0.066128574 0.32685873 -0.06092428
0002e0 b4 2f df 3c 84 6d 80 3d 2c 59 c3 3e 9f ab ad bd
       0.027244426 0.062708884 0.3815397 -0.0848
0002f0 e1 65 32 3e b2 bb 8f 3e d6 51 a5 3e a2 5b 29 be
       0.17421676 0.28072888 0.32288998 -0.16538861
000300 00 4d 57 3d 7d f0 f7 bd 60 e3 a3 3d 6b 75 85 bd
       0.052563667 -0.121064164 0.08002353 -0.06516536
000310 16 f4 da bd 2f 78 47 3e 6f f0 45 be 51 31 13 bd
       -0.10691087 0.1947944 -0.1933 -0.035935704
000320 74 d0 0b 3e 04 f1 e5 bd fa d9 75 3e b6 84 52 bd
       0.13653737 -0.11227611 0.24008933 -0.051396094
000330 e2 76 19 bd 9c 1e d7 bd f4 64 1c 3e bc c3 66 bd
       -0.03746689 -0.10503885 0.15272886 -0.05633901
000340 be 87 49 bd 9b 5c 59 bd 43 e1 9c 3e 42 78 2f be
       -0.04920172 -0.05306683 0.3064061 -0.17135718
000350 38 96 41 3e c3 9e 6e bd e4 8e d3 bd 28 14 23 3e
       0.1890496 -0.058256876 -0.103299886 0.15925658
000360 7b 53 96 bd 90 f0 df bd b9 73 48 3e 2c 40 d4 3d
       -0.073401414 -0.109345555 0.19575395 0.10363802
000370 5b 13 f7 3d 3a e6 c8 3d 79 39 ca 3c a1 af 88 bd
       0.12064239 0.09809537 0.024685608 -0.066741236
000380 ff 85 a4 3e d4 8e 7f 3e 6d 5f 7e bc 3f 3c 0f 3e
       0.3213348 0.24956828 -0.015525681 0.13987826
000390 88 4e d6 3d 5e c1 85 bc c8 69 95 bd 89 7a 11 3d
       0.104641974 -0.016327556 -0.07295567 0.03551725
0003a0 13 1c 04 bd e2 51 80 bd 31 e3 80 3d 03 65 5a bd
       -0.032253336 -0.06265618 0.06293333 -0.05331899
0003b0 9c fd 7b 3e c9 5c 13 be 45 f4 59 bd 35 38 41 bc
       0.24608463 -0.14390863 -0.05321147 -0.011793186
0003c0 4d 0d 90 bd 9f 20 a4 bd a1 02 58 3e 09 e2 14 bd
       -0.07033787 -0.080140345 0.21094753 -0.036348376
0003d0 d6 7c 81 3e 46 56 36 bc ab 3d 9b 3e 6a c8 e5 3d
       0.25290555 -0.011128968 0.30320486 0.112198666
0003e0 e4 0e 91 bd e9 0f c1 3e 7a ab 24 bd 68 52 65 3d
       -0.07082918 0.3770745 -0.040202595 0.05598679
0003f0 2e ba a7 bd 4f b1 c1 bd fd 2d 13 bd 5f 26 c5 bd
       -0.08189808 -0.09457647 -0.03593253 -0.09626459

weight f4 [10, 2048]
000000 b2 32 4b bc c2 33 51 3e 14 c8 bb 3d 6d 0c b1 3d
       -0.012402223 0.204299 0.09169021 0.08644948
000010 d7 8f f7 3d ae ad a0 3d 39 1c 7e bd 34 b4 80 3d
       0.12087982 0.07845627 -0.062038634 0.06284371
000020 d4 4c a4 3d c8 24 47 3d 11 d5 45 bd 0e 4c 53 bc
       0.08022466 0.04861906 -0.0482989 -0.012896551
000030 22 18 42 3e 5d fa 8e 3d 59 37 80 3c 3c 8c ff 3c
       0.18954518 0.06981347 0.015651392 0.031194799
000040 6a 36 47 3e cd 06 42 bd 53 d1 dc 3d a5 d4 33 3e
       0.19454351 -0.047369767 0.10782113 0.17561586
000050 4a a3 21 3e d8 e8 e4 3d 4a 88 38 3b 1d 29 1d 3d
       0.15784946 0.11177224 0.0028157406 0.038369287
000060 a8 7c 35 3e ef c6 4a 3d e2 e8 82 3d 4e 54 40 3e
       0.17723334 0.049506124 0.06392075 0.1878216
000070 58 2a 40 39 bc 84 6d 3d 3b af 1f 3e 19 99 f3 3d
       0.00018326321 0.057987913 0.15594189 0.118944354
000080 63 57 da bc e4 74 03 3d c8 37 25 3c ed 8c 46 3d
       -0.026652997 0.032093897 0.0100841 0.04847424
000090 6f 85 fc 3a 31 88 85 3a 04 6b 49 3d 60 71 db bc
       0.001926584 0.0010187683 0.049174324 -0.02678746
0000a0 32 1c b3 3d 0a bd 2a bd a3 2c 2a 3c 26 9b eb 36
       0.08745612 -0.041684188 0.010386619 7.0216074e-06
0000b0 cd 45 f0 3d 14 14 d7 3d 3a ba 01 bd f6 55 be 3d
       0.117320634 0.105018765 -0.03167174 0.092937395
0000c0 49 5d 22 3d 66 00 8d bd 47 47 a0 3d 87 43 c1 38
       0.039639745 -0.068848416 0.07826095 9.215535e-05
0000d0 3f 38 7b b7 56 4d e5 3d a7 86 f2 3c 10 49 c5 3d
       -1.4973862e-05 0.11196391 0.029605223 0.09633076
0000e0 43 43 81 bd 08 4d c0 3d 96 5b e1 3a 47 6b fd 3d
       -0.06311657 0.093896925 0.0017193432 0.12373977
0000f0 74 60 37 3c a1 e8 a4 3c ef 53 36 39 74 74 ec 3d
       0.01119243 0.020130457 0.0001738814 0.11545649
000100 c5 bc b9 3d d9 ee 11 3e 55 73 cd 3d 64 46 6c ba
       0.09069208 0.1425127 0.100317635 -0.00090131746
000110 3d 17 db 3d 5a 95 c4 b9 74 e6 06 ba 3c d6 9d 3d
       0.10697792 -0.0003749531 -0.00051460345 0.077068776
000120 8c 99 bd 3d 03 c2 87 3d c7 a7 d2 3d 7c 6b f8 3d
       0.09257802 0.06628802 0.10285907 0.12129876
000130 c7 2e eb 3d 1a e0 8d 3d 12 55 f7 3d 8f e6 47 3d
       0.114835314 0.069275096 0.12076773 0.048803862
000140 43 fb 09 3e fd fd 05 3e c8 47 f5 3d 15 52 7b 3c
       0.13474755 0.1308517 0.11976582 0.015339394
000150 aa 0b 09 3e bf 84 58 bd 45 6b 02 3e bd 2c 9d bd
       0.13383356 -0.05286097 0.12736233 -0.07674549
000160 90 a3 f0 3d a3 07 12 3e 5c 42 79 3d e7 fa 12 3e
       0.11749947 0.14260726 0.0608543 0.14353524
000170 28 17 f4 3d a7 52 7c 3b 5c df 0b 3d e4 76 15 3d
       0.11918479 0.0038501413 0.03414856 0.036490336
000180 6d d2 b4 3c 99 2c 13 3d d9 8b 9b 3d e8 9f 81 3c
       0.022072995 0.035931204 0.07595033 0.01582332
000190 1f 1c 21 3d b9 da ae 3d 0e 02 7b 3d 25 92 d1 bd
       0.03933346 0.08537812 0.061281256 -0.10232953
0001a0 d3 a9 26 3d c5 c6 74 bd 34 2d 2b 3d 95 c3 c1 3d
       0.0406893 -0.059759874 0.041791156 0.094611324
0001b0 33 18 1e 3e 70 b7 24 bd d1 12 99 3d 53 18 9b 3c
       0.15438919 -0.040214002 0.07474292 0.018932497
0001c0 17 4b 76 3d 1b fb 28 3e 39 1f b8 3c d2 41 93 3d
       0.060130205 0.16502039 0.022475826 0.071902886
0001d0 30 9d 2f 3e 68 8d b6 3d e6 eb 29 3e 8a 7b fd bb
       0.17149806 0.0891369 0.16593894 -0.0077356743
0001e0 3a 8c 3f 3d 8d 0c 13 bd 9b a3 1f 3d ca cd 22 bd
       0.04676459 -0.03590064 0.038974386 -0.039747037
0001f0 97 06 89 3d af e3 1e 3b 15 ff 75 3d 6c ad 28 3e
       0.0669071 0.0024244597 0.06005772 0.16472405
000200 fb a6 af 3d fd ff 0c 3e 53 a3 c9 bc ce c0 27 3e
       0.08576771 0.13769527 -0.024614012 0.16382143
000210 25 0b c5 3d a5 6c 42 3e f2 2a 4b bd a2 95 93 3d
       0.09621266 0.18986757 -0.049601503 0.072062746
000220 84 f6 93 b8 75 06 01 3e 30 f6 92 3d 6c a2 14 3e
       -7.055423e-05 0.1260012 0.07175863 0.14515084
000230 b1 cf d2 bd f8 5d b8 3c 01 3a 95 bc 29 59 15 3e
       -0.1029352 0.022505745 -0.018216135 0.14584793
000240 35 dc 95 3d 17 7b 01 bd e3 75 d2 3c 9a 9e 4d 3d
       0.07317392 -0.03161153 0.025690978 0.050200082
000250 77 e3 95 bd e1 3b 83 3c dd ea be 3d 3a e2 6f 3d
       -0.07318776 0.016019763 0.0932214 0.058565356
000260 5c 13 be 3d 50 ac ba 39 dc 45 cb 3d e7 8a 0b 3e
       0.09281036 0.00035605067 0.09925434 0.13627206
000270 ed c5 5e 3d b0 52 23 3e 30 2e 03 3d b5 d9 14 3e
       0.054387975 0.15949512 0.03202647 0.14536174
000280 3a a8 53 b8 e5 5d 28 3e 34 24 21 3e c8 f7 f8 bc
       -5.0462993e-05 0.16442068 0.15736467 -0.030391589
000290 f3 e3 23 bd 20 a2 2b 3e 25 94 0c 3e 6b 93 a6 bc
       -0.04001231 0.16761065 0.13728388 -0.020333966
0002a0 b1 c7 59 3e a8 d1 a7 39 31 0e ee 3d 0a c0 44 3d
       0.21267582 0.00032008928 0.116238005 0.048034705
0002b0 a6 5e 05 3e 59 bb be 35 0d 9b 87 3c 5f 57 b0 3c
       0.13024387 1.4210628e-06 0.016553426 0.021526037
0002c0 b6 f4 55 3d fc e5 d3 3d cc 96 78 ba d4 e2 fc bc
       0.052235328 0.103466004 -0.00094829197 -0.030869879
0002d0 54 52 98 3d d0 90 04 bb ac 1e 23 3e c5 b7 8b 3d
       0.07437578 -0.0020227917 0.15929669 0.06822161
0002e0 1a 2f 37 3e f6 67 8a 3d 29 69 19 3e 11 75 ac b8
       0.17889062 0.0675811 0.14981522 -8.2234044e-05
0002f0 bd 3d 3e 3e 3e 90 0a 3e 3a 90 b8 3d 8a 12 c4 3d
       0.18578239 0.13531587 0.09011884 0.095738485
000300 87 b9 1f 3e bf 74 28 3d 64 bc e3 3d d6 27 0d ba
       0.15598117 0.041126963 0.11119917 -0.0005384659
000310 4f 0c 32 3d fa 6a a0 3c 7d c6 fd bd b7 a0 b8 3d
       0.04346877 0.01958226 -0.12391374 0.09015029
000320 d9 5c c5 3d 02 08 e3 3d 41 e3 a7 3d 76 40 63 3c
       0.0963685 0.11085512 0.08197642 0.013870349
000330 b3 83 95 3d ba d8 b6 3c 77 7b 58 3d e0 20 a8 3d
       0.0730051 0.02232014 0.05285212 0.082093954
000340 03 10 03 bd 79 72 59 3d 8a 52 27 3e 67 bc e8 3d
       -0.03199769 0.053087685 0.1634008 0.1136406
000350 4a 79 de 3d 49 ba f2 3c 6a 76 76 3d 26 58 0a 3e
       0.10862978 0.029629843 0.060171522 0.13510188
000360 21 cf de bc eb b0 84 3d 9a 95 d9 3c 74 5e 9a 3d
       -0.027198376 0.06479057 0.026560593 0.07537547
000370 5c 93 a8 3d 32 1f 64 bd 97 79 d8 3d aa 51 15 bd
       0.082312316 -0.055693813 0.105700664 -0.036454834
000380 33 a9 58 3e 80 90 a3 3d 50 14 2b 3e e6 18 b7 3d
       0.21158294 0.079865456 0.16706967 0.08940296
000390 f5 05 27 bd a7 92 9c 3d 5c 09 54 bd 2c 46 79 3e
       -0.040777165 0.07645159 -0.05176674 0.24343175
0003a0 82 e0 21 b7 f1 7f 3c 3c 7b 7a ef 3c 1b fa 03 3d
       -9.64862e-06 0.011505113 0.029233208 0.03222094
0003b0 7c 68 dc 3d 13 6a b7 bd 19 52 bc bc 90 7b 25 3c
       0.10762116 -0.08955779 -0.022988366 0.01010026
0003c0 b7 b4 18 3d 98 e4 97 3c ed 8b aa 3d 6c 3d 25 b8
       0.037281718 0.01854162 0.0832747 -3.939627e-05
0003d0 b3 df 12 3d 92 21 1f b9 e5 48 d6 3d 0e b9 a4 3d
       0.035857867 -0.00015175928 0.10463122 0.08043109
0003e0 cc 65 4c bd c0 84 13 3e fd 35 2b bd c8 df 73 3d
       -0.04990177 0.14406109 -0.041799534 0.059539586
0003f0 ae 25 9a 37 67 d8 99 3d 7f f3 1b 3d 5f 27 f2 3b
       1.8375777e-05 0.075119786 0.038074013 0.0073899473

bias f4 [10]
000000 52 55 9b 3d 62 81 4a bd 85 31 83 3d 8b fe 82 3d
       0.07584633 -0.049439795 0.064059295 0.063962065
000010 fa fc 6f bd 7f 52 4e 3d 76 3c 3d 3d f0 11 fc bc
       -0.058590867 0.050371643 0.04620024 -0.030770272
000020 a1 1f 0b bd cc 69 cd bd
       -0.03396571 -0.10029945

weight f4 [10]
000000 7f 20 88 3f 8d be 87 3f 3f ef 88 3f f0 53 70 3f
       1.0634917 1.0605026 1.0698012 0.9387808
000010 d1 29 71 3f 02 08 82 3f 25 b7 51 3f a6 20 84 3f
       0.9420443 1.0158694 0.8192008 1.0322464
000020 a4 b1 84 3f c1 60 73 3f
       1.0366712 0.9506951

bias f4 [10]
000000 1e 4c b6 3d e8 16 6e bd 78 94 a0 3d 37 55 54 3d
       0.08901237 -0.058127314 0.07840818 0.05183908
000010 8b 6c 4e bd 8b 2d 50 3d 76 a9 cc 3c 9b 81 4b bd
       -0.050396483 0.050824683 0.024983149 -0.04968415
000020 e0 a5 2d bc 55 52 57 bd
       -0.01059863 -0.052568752

weight f4 [10]
000000 12 5c 96 3f b2 20 89 3f a9 93 95 3f 94 04 68 3f
       1.1746848 1.0713103 1.1685687 0.90631986
000010 e4 17 70 3f 7d e0 75 3f 09 80 5e 3f 5b f2 86 3f
       0.93786454 0.96045667 0.86914116 1.0542711
000020 52 9b 6e 3f c5 cc 67 3f
       0.9320575 0.9054683

bias f4 [10]
000000 a8 b9 53 3e a5 30 88 bd 6a 4e 2b 3e 30 8e 84 3d
       0.20676291 -0.06649903 0.16729131 0.064724326
000010 80 e7 64 bd d6 c6 fa 3c 48 3c 27 3c fd 26 0d be
       -0.055884838 0.03061239 0.010207243 -0.13784404
000020 81 31 fa bb 02 1d c1 bd
       -0.007635296 -0.09429361

weight f4 [10]
000000 f9 49 50 3f 90 f5 73 3f e1 aa 47 3f c6 87 59 3f
       0.81362873 0.95296574 0.77995116 0.849728
000010 d3 7a 64 3f 13 97 55 3f 99 eb 5f 3f 26 9c 4a 3f
       0.89249915 0.83433646 0.8746887 0.79144514
000020 53 86 60 3f a0 ca 5b 3f
       0.8770496 0.85856056

bias f4 [10]
000000 cb 0d 26 be 43 14 08 3b 76 03 23 be fa 53 03 3d
       -0.16216199 0.002076403 -0.15919289 0.03206251
000010 43 e2 20 bc 37 e6 1c bd 31 74 9b bd 2f 2f f1 3b
       -0.00981957 -0.038305487 -0.07590521 0.007360361
000020 30 45 fa 3d f7 7a cd bb
       0.12220228 -0.006270762

in_proj_weight f4 [30, 10]
000000 c4 76 15 bf d4 1f df 3d ca 28 44 3e 61 bb 84 be
       -0.58384347 0.108947426 0.19156185 -0.2592421
000010 d3 1e 4e 3d 31 aa 26 3e 71 e6 e7 bd 5e 64 21 3f
       0.050322365 0.1627586 -0.1132325 0.63043773
000020 4f d4 e9 3d 15 6b 8e 3e 2a 07 7d 3e fc b2 a8 be
       0.11417448 0.27816072 0.24709764 -0.32949054
000030 37 b4 5c be 61 13 6f be 1b 7b ad bd e3 d7 b7 3e
       -0.21553122 -0.23347236 -0.08470746 0.35906896
000040 a7 ad 57 bd ae 36 b1 3e b1 b2 8c bd 94 18 7b 3e
       -0.052655842 0.3461203 -0.0687002 0.24521095
000050 1b 96 a0 bd c7 1b 36 3e 75 bf 3b be d9 a2 4b 3d
       -0.0784113 0.17784034 -0.18334754 0.04971585
000060 79 07 05 bd dc fb db 3e 6e a3 b1 3e db 30 72 3e
       -0.03247783 0.4296559 0.34695 0.2365145
000070 bb b8 bc 3e 4b 03 33 3e 9d ad 03 bf ce cd 5f be
       0.36859688 0.17481725 -0.5143679 -0.21855852
000080 85 fd 48 3e e2 d2 01 3e d1 53 92 be 73 d7 66 3e
       0.1962796 0.12678102 -0.28579572 0.22543125
000090 7a 3e 8b be d0 64 95 3d 6b 1c cb 3e 48 75 2e 3f
       -0.27196103 0.07294619 0.3967012 0.68147707
0000a0 7b 50 98 3e 47 b9 da 3e d9 c4 75 be 68 4a 1f be
       0.29748902 0.4271948 -0.24000873 -0.15555727
0000b0 58 e0 bb 3d 96 11 84 be 2b d9 95 bd 18 93 95 be
       0.091736495 -0.25794667 -0.07316812 -0.29213786
0000c0 e3 6e b2 be f2 6d 4c be 9f bb 13 3e a5 44 83 be
       -0.34850225 -0.19963816 0.1442704 -0.2563831
0000d0 0e 80 89 be 92 c2 3b 3e fd d2 e1 be af 59 b9 3d
       -0.2685551 0.18335941 -0.44106284 0.09050309
0000e0 81 dd 06 bf 45 fe 1d bf 2c 27 32 be 21 f2 2f bf
       -0.5268174 -0.6171611 -0.17397755 -0.68728834
0000f0 98 95 2e 3e 2c c1 44 3c 5b b8 30 3e 62 be 7a bb
       0.17049253 0.012008946 0.17257826 -0.003826045
000100 3d a9 c6 3e 4d cc 07 3f 88 35 a5 bd e7 0a a3 3e
       0.38800994 0.53046113 -0.08066851 0.31844255
000110 bf 5c e8 bc 1d cf 70 3e c9 3e 9c 3e a0 24 54 be
       -0.028364537 0.23516507 0.3051665 -0.20717096
000120 98 ed 3d 3e 6d 3c dc be 46 48 1b 3d 6c 3b d9 3a
       0.18547666 -0.4301485 0.037910722 0.0016573495
000130 ec fa ab be 27 10 23 bf e3 6b 29 bf b6 e0 43 bf
       -0.33589876 -0.6369652 -0.6618025 -0.76514757
000140 ce 7f 83 3e f2 d0 98 be c0 b4 df be 6c 9a a6 be
       0.25683445 -0.29846913 -0.4369259 -0.3253969
000150 02 27 07 3e 98 28 74 be b7 fe f5 be d5 53 15 bf
       0.13198474 -0.2384361 -0.48045895 -0.5833104
000160 73 34 d4 be db f7 41 bf bc 37 c9 bd 06 b1 46 be
       -0.41446266 -0.7576882 -0.098250836 -0.19403467
000170 8a a9 20 be 3f 9c 2c bd bc 87 2a 3e 26 5b 14 bf
       -0.15689674 -0.042141195 0.16653341 -0.5795158
000180 26 dd 93 be d7 ba 35 bf 2f 2d fb be ff 14 07 bf
       -0.2887966 -0.7098822 -0.4905791 -0.5276641
000190 88 9a d7 3d c5 05 9b 3e 56 cf 8b be 6e 5c e0 3e
       0.10527521 0.3027784 -0.27306622 0.43820518
0001a0 a4 c9 e5 3d 9a ea 56 bd 78 d3 a9 3e 50 21 fe 3e
       0.112201005 -0.052469827 0.3316915 0.4963479
0001b0 c8 e8 09 bd 9f b4 03 3f 90 1b c8 be 7a ff e6 bc
       -0.033669263 0.5144748 -0.3908353 -0.028197993
0001c0 91 9d 4a 3e c8 35 c2 3e 0f 3f 3a bd 56 7b 13 be
       0.1978667 0.37931657 -0.045470294 -0.14402518
0001d0 88 59 e5 3d f8 56 f2 bc 55 22 92 3d a2 08 0b 3e
       0.11198717 -0.029582486 0.071354546 0.13577512
0001e0 e2 6a b2 be bb 5b 9b 3d 6f ca a1 3e 26 97 ad 3e
       -0.3484717 0.075858556 0.31599757 0.3390438
0001f0 83 7f 8f 3e 5d 97 46 3e 25 5a 9c bd b5 f1 9f 3e
       0.2802697 0.19393678 -0.07634381 0.31239095
000200 6e 81 25 3e 09 cf a3 3d 50 cd ca 3c a2 f8 b2 3e
       0.16162655 0.07998473 0.024756104 0.34955317
000210 ef 83 e5 3d a9 0d 58 3e 0f de bb 3e e2 7c 89 3e
       0.11206805 0.21098961 0.36692855 0.2685309
000220 b7 b0 a6 3e af 39 e3 3e 56 81 00 3e db 9d 01 3e
       0.32556698 0.44379947 0.12549338 0.12657873
000230 e0 11 88 3e ee 2c 84 be 5e e1 ee be 80 d6 dd be
       0.26576138 -0.2581553 -0.46656317 -0.43327713
000240 08 1a 3a bf 43 e6 29 bf 57 f6 17 bf d7 ee 80 be
       -0.7269597 -0.66366976 -0.5936026 -0.2518222
000250 3f 00 25 be dd 18 b8 be 95 f0 d0 3d 44 a1 0d bf
       -0.16113375 -0.3595647 0.102021374 -0.55324197
000260 1f a8 81 be 3c 66 ae 3e 44 77 83 bb 15 af ad 3e
       -0.2532358 0.34062374 -0.0040120203 0.3392264
000270 21 34 1f 3f 5e c4 3b 3e 7c a8 35 3e 99 73 08 3c
       0.6218892 0.18336627 0.17740053 0.008328342
000280 16 bf 08 3e b5 37 74 be 87 00 49 bd b0 c1 7f bc
       0.13354144 -0.23849376 -0.04907277 -0.015610144
000290 23 5a 81 be 4c af c2 3d 7a 8e c5 be a6 6e 94 3e
       -0.2526408 0.095060915 -0.38585263 0.28990668
0002a0 a7 f9 c4 be 21 9c a1 be aa 16 6b be 1d c5 d2 bd
       -0.3847172 -0.3156443 -0.22957864 -0.102915026
0002b0 d7 e3 8d bb 53 e0 6c 3e 06 1f e1 3e 25 35 1d 3e
       -0.004330139 0.23132448 0.43968982 0.15352304
0002c0 d9 e1 26 3f 67 ec 44 3f 61 15 3f 3f 17 af a6 3e
       0.65188366 0.7692322 0.74641997 0.32555458
0002d0 91 27 8d be ba e5 01 bf cd af d5 3d 95 0d bd bd
       -0.2756925 -0.5074116 0.10433922 -0.09231106
0002e0 01 30 e5 bd c0 26 be 3e d9 d4 b4 3d c8 1b 9e bc
       -0.11190797 0.3713894 0.0882966 -0.019300357
0002f0 62 ea 78 3e 2b 4d 21 3f de 1a 29 be 80 6f 2f bd
       0.2430816 0.63008374 -0.16514155 -0.042830944
000300 51 06 de bd 16 82 c3 3e c7 d8 16 3f 99 23 9d 3e
       -0.108410485 0.38185185 0.58924526 0.3069122
000310 f6 65 2f 3f 14 b9 d6 3e 4e 05 d6 3d 9d 0c 98 3e
       0.68514955 0.41938078 0.104502305 0.29697123
000320 91 ef 52 be 60 01 a1 be 5c 45 80 be d0 4d 03 3e
       -0.205992 -0.31446362 -0.25052917 0.12822652
000330 69 60 a2 bd 3f 07 71 3d 8e 8b 97 be 6e 2d b7 3e
       -0.07928545 0.0588448 -0.2959866 0.35776848
000340 3b 2e 32 3e 98 84 7c be 45 6e fc 3d c1 b2 5a bd
       0.17400448 -0.24659956 0.1232572 -0.05339313
000350 c8 91 04 3d 6c 76 33 be 5c 3a 97 3d aa d0 07 be
       0.03236559 -0.17525643 0.07384178 -0.13263193
000360 15 93 c2 3d f6 fd 06 3e 99 4b 63 be d9 a7 3e be
       0.0950071 0.13182816 -0.22196807 -0.18618716
000370 fc 62 a5 bc de e0 a5 3c 67 72 ee bd 3f b4 d5 bd
       -0.020188801 0.020248827 -0.11642914 -0.1043477
000380 84 25 53 bd df 5f f8 bd e8 68 e6 3c e5 14 03 be
       -0.05154945 -0.12127661 0.028126195 -0.1280094
000390 28 82 a8 bc 7f db 3f 3e ce 46 71 be a7 ac b0 be
       -0.020569876 0.18736075 -0.23562166 -0.34506723
0003a0 8d 0c 96 3e be 82 5c 3e 10 21 89 be 4d 71 75 3e
       0.2930645 0.21534249 -0.26783037 0.23969002
0003b0 08 11 4d 3e cf 81 7c be 67 0b b8 bb 75 fa 93 3e
       0.20026028 -0.24658893 -0.0056165936 0.2890202
0003c0 c0 08 09 3e fa 36 52 3d 5d d8 22 be 05 82 69 bd
       0.13382244 0.05132196 -0.15902849 -0.057008762
0003d0 51 20 40 be d2 04 9f 3c 7f 31 8b be aa 47 76 be
       -0.18762328 0.019411478 -0.271862 -0.24050775
0003e0 81 74 9a bd 83 67 8c 3e 08 30 b1 3d 88 26 1b 3e
       -0.075417526 0.27422723 0.08651739 0.15151417
0003f0 7c 7a 8c be d5 f5 7f be 75 ad a4 3d 40 48 44 be
       -0.27437198 -0.24996121 0.08040897 -0.19168186

in_proj_bias f4 [30]
000000 94 25 9f be 43 f9 ae bd e2 8a 52 be b1 e0 91 be
       -0.31083357 -0.08543637 -0.20560792 -0.28491738
000010 d3 71 81 3e 8d a3 dd bd 9e fd 51 3d a0 f8 5a 3d
       0.25282153 -0.108222105 0.05126726 0.053459764
000020 1a 82 71 3b df 9d ed bd 5b 0c a0 3c ac 87 61 3b
       0.0036851228 -0.11602377 0.019537142 0.0034413142
000030 4a b6 f8 ba 7d 6c 91 3c 22 07 e9 bc 5b 6b 77 bc
       -0.0018975225 0.017751927 -0.028445784 -0.015101279
000040 47 53 b2 3b 92 87 af bc 42 1c a1 bc 5a b2 2b bc
       0.0054420563 -0.02142695 -0.019666795 -0.010479534
000050 1c ea 89 3d 56 75 39 3c a8 0d f5 bb c2 7e a0 bc
       0.06734106 0.011319479 -0.0074784346 -0.019591693
000060 2d 4e ac 3d f4 82 37 3d 17 ca 85 3c 5c b1 3f bd
       0.08413348 0.04480262 0.016331716 -0.046800002
000070 48 c1 25 3d af 65 ce bc
       0.04046753 -0.02519497

weight f4 [10, 10]
000000 a9 e4 cb 3e 75 12 d6 bd 19 0f 9e be c1 fe d2 bd
       0.3982289 -0.10452739 -0.30870894 -0.10302497
000010 d6 ba dc 3e 40 9c e3 be 00 d0 98 3e d8 99 ce 3e
       0.43111295 -0.44455147 0.2984619 0.40351748
000020 71 6f de be 1c b2 a4 bb 5a 8c 08 be a8 f5 3d 3e
       -0.43444398 -0.005026115 -0.1333479 0.18550742
000030 f4 e6 fb 3e 5e 9b 45 3d 86 9b cb 3e 21 54 ef 3e
       0.4919964 0.048243873 0.39767092 0.46743873
000040 06 06 b0 3e 88 e1 aa 3d 57 b8 99 be f0 5e 92 3e
       0.34379596 0.08343798 -0.30023453 0.28588057
000050 ce f3 20 be 16 89 68 3e a0 d5 02 be a1 65 c0 be
       -0.15718004 0.22708544 -0.12776804 -0.37577537
000060 ca 7f f4 3e 82 1c bc be d5 2c 43 be 8f 22 c6 3d
       0.47753745 -0.367405 -0.19060071 0.0967456
000070 ef 86 04 be 86 5f 81 be 56 58 98 3e 40 41 55 3e
       -0.12942098 -0.2526819 0.29754895 0.20825672
000080 cb 78 bb be a7 c2 68 3e 57 de ab 3e a2 0e 06 be
       -0.36615595 0.22730504 0.3356807 -0.1309152
000090 3b 1d 0b bf 88 ad 89 3e bc 87 52 be e2 e6 c7 be
       -0.5434148 0.26890206 -0.20559591 -0.39043337
0000a0 f4 98 dd 3e 0d a4 ed be bd c4 bc be a1 61 24 3e
       0.43280756 -0.46414223 -0.3686885 0.16052867
0000b0 8f cd b0 3e 37 3f 28 3d 7a d3 e7 3e 44 16 ec 3c
       0.3453183 0.04107591 0.4527853 0.02881921
0000c0 97 3d a2 3e b8 ba ff bd 2e 70 25 3e 07 8e 88 3e
       0.31687614 -0.12486786 0.16156074 0.26670858
0000d0 6c 22 20 3e f2 e5 71 3e 5e 02 03 bf a6 bd 28 be
       0.15638131 0.23622873 -0.5117549 -0.16478595
0000e0 61 1a 81 3e 50 7b ea be b4 47 6f bd 03 b9 98 3d
       0.25215438 -0.45797205 -0.05841799 0.07457163
0000f0 c1 fc d7 be 4c 8f 00 bf 28 9a 24 be 0e 6d 42 3e
       -0.42185023 -0.50218654 -0.16074431 0.18986914
000100 91 2f 87 3d 30 62 b2 be 2c f1 b0 3e 16 09 25 be
       0.066008694 -0.34840536 0.34559 -0.16116747
000110 bd ce 9f be e0 11 03 be 5b 8b 07 3f 60 d2 00 3f
       -0.31212416 -0.12799788 0.52947015 0.50321007
000120 f2 8f f4 be f1 22 8e 3d b6 30 86 be a1 d2 b7 3d
       -0.47766072 0.06940258 -0.26209038 0.08975721
000130 f2 ee c3 3e aa f0 67 3e fb 47 47 3e 0e dc c1 be
       0.38268238 0.226504 0.19461052 -0.378632
000140 a2 4f 8b bd 7c f9 7e be bb e3 40 be 7f f2 6f be
       -0.06802298 -0.24899858 -0.18836872 -0.23432349
000150 51 a5 35 bd 5f f6 c5 be fb d4 c8 bc 6f e6 9d 3e
       -0.04434711 -0.3866453 -0.02451562 0.3083987
000160 63 c9 c6 be 67 2f 33 3e 49 2e cd be 9e 99 e7 3d
       -0.3882552 0.17498551 -0.40074375 0.11308597
000170 2b 19 a5 3e 43 c5 32 be b9 19 0b 3f 80 63 b1 be
       0.32245764 -0.17458062 0.54336125 -0.34646225
000180 bc 40 ba be a2 c1 ab 3e 97 60 d9 be ee 05 bf be
       -0.36377513 0.33546168 -0.42456505 -0.37309211

bias f4 [10]
000000 1d e3 f6 bb 54 29 08 bd 9a 69 07 bc 58 ef bc 3d
       -0.007534398 -0.03324254 -0.0082649235 0.09225339
000010 b5 1a 58 3d 3f 4f 3c 3c 4e 90 35 3d aa 20 8e 3a
       0.052759845 0.011493503 0.044327073 0.0010843475
000020 14 aa 74 3d bb 2a 48 bd
       0.05973251 -0.048868876
