Comparative_Evaluation/Baselines/Transformer/models_m/model110.pt (torch, 548629 bytes, 48 tensors)

in_proj_weight f4 [30, 10]
0.05698247 0.27096105 -0.050325647 -0.11065807 0.28782642 0.040744152 0.42988923 -0.0761508
-0.024422603 -0.16622895 0.068006195 -0.42410937 0.23779209 -0.37131643 0.088080294 -0.24704264
-0.36280105 -0.40372375 -0.29276082 -0.36892262 -0.00082989945 0.21457303 0.34017757 0.43798637
0.17298234 -0.147451 -0.1411224 -0.086706124 -0.2752238 -0.10668111 -0.048899624 -0.28740004
-0.39855355 0.28898606 -0.38117582 0.2012627 -0.19651248 0.13640882 -0.059322294 0.04451178
0.25846437 -0.090382814 -0.2907817 0.033543337 0.16924207 -0.14927402 -0.25409254 0.11322371
-0.2727145 0.41920006 0.078412764 0.23676014 -0.019373309 -0.17475505 0.29631785 0.3750203
0.28898728 -0.3187121 0.10096324 -0.24932995 0.32333496 -0.19474237 -0.10298786 0.3826143
0.13170473 0.2796234 0.075793535 0.053673808 0.2706499 0.42955095 -0.0007486641 -0.103668764
-0.0028483623 -0.05847128 0.33838907 0.23396419 -0.023175318 -0.103977524 0.16440874 -0.24405743
-0.06694144 0.16342583 -0.028368795 0.12750955 0.04293431 -0.2905309 -0.24735045 -0.2521893
0.14600381 0.37167674 0.2104281 0.13840038 0.19928347 -0.02519715 0.021718761 -0.12478505
-0.18542725 0.1166387 0.4227393 0.12936302 -0.33871105 -0.28865233 -0.034674197 0.17670436
-0.39849496 0.09194184 0.004566719 -0.37772456 -0.30305573 -0.38660946 -0.070830055 0.0752643
0.3656172 0.371097 0.06535257 0.03272164 0.4077206 -0.14454529 0.16146465 0.18799229
-0.07203961 -0.049654964 0.0071763317 -0.29196578 0.33889773 -0.022153053 -0.12190752 0.08378228
0.1666159 -0.19249325 0.01703992 -0.3562235 -0.37066206 0.062722325 0.31190732 0.1897412
-0.010556669 0.054753494 0.025956323 0.35757813 0.20541893 -0.2392483 -0.009011001 0.0058373385
0.33953503 -0.011444958 0.20300579 -0.093307376 -0.2663133 0.11687076 -0.20092767 0.41020674
0.37580568 -0.06441419 -0.12707888 -0.19366497 -0.0840593 0.36450776 0.18530262 0.4141849
-0.15361713 -0.012488723 0.29344 0.20860498 -0.2565277 0.21954061 0.3871354 0.04551625
0.4434795 0.10440186 -0.04124134 -0.16522716 0.00064033637 0.32352832 0.06240175 -0.38214248
-0.13180155 0.17331205 0.27388763 -0.4409686 0.24238035 -0.2163185 0.28997588 0.10319195
-0.15329282 0.065984026 0.1807055 0.2999893 0.23815328 0.2790466 0.26691213 0.20372353
-0.20468849 0.21529108 0.3167567 0.20607789 -0.18152912 0.20169586 0.23711272 0.32647252
-0.27905157 0.18923993 0.20593488 -0.108854935 0.40196416 0.093169786 -0.07881464 -0.23812188
-0.1048036 -0.2055335 -0.39834902 0.26673856 0.07182032 -0.18735732 0.15336259 0.2146955
-0.40160584 -0.09289207 -0.18894082 0.2628501 0.261115 -0.16260904 -0.054660954 0.29698846
-0.37450597 0.12790482 -0.33931455 -0.2003184 0.10221812 -0.11920754 -0.36430293 -0.108853176
-0.08916917 -0.28870112 -0.22319078 -0.31535396 -0.14512302 -0.06409021 0.10391694 -0.36116323
0.40767998 -0.29624695 0.25337955 0.0013154618 0.050868776 -0.11137161 0.4040764 0.084350586
0.28535375 -0.22347572 -0.12355739 -0.33798793 -0.03647236 -0.24790835 -0.36418438 0.24956052
00000000: 7366 693d 68bb 8a3e 4422 4ebd b3a0 e2bd
00000010: fc5d 933e 57e3 263d 711a dc3e f3f4 9bbd
00000020: e911 c8bc ec37 2abe d546 8b3d dd24 d9be
00000030: c57f 733e 301d bebe 7163 b43d bff8 7cbe
00000040: 0fc1 b9be e1b4 cebe bfe4 95be 6de3 bcbe
00000050: 9c8d 59ba 08b9 5b3e c12b ae3e c03f e03e
00000060: 4822 313e 65fd 16be 6482 10be fb92 b1bd
00000070: 22ea 8cbe a07b dabd f94a 48bd 1926 93be
00000080: 360f ccbe fbf5 933e 7a29 c3be cf17 4e3e
00000090: 913a 49be c1ae 0b3e effb 72bd fc51 363d
000000a0: 7155 843e a01a b9bd 57e1 94be bd64 093d
000000b0: cb4d 2d3e 4adb 18be 6b18 82be d5e1 e73d
000000c0: 3ca1 8bbe 64a1 d63e df96 a03d 4071 723e
000000d0: c6b4 9ebc fdf2 32be f9b6 973e a902 c03e
000000e0: 24f6 933e 3b2e a3be d1c5 ce3d 5a50 7fbe
000000f0: 298c a53e 8b6a 47be 4deb d2bd 06e6 c33e
00000100: 9bdd 063e cc2a 8f3e a439 9b3d 11d9 5b3d
00000110: a092 8a3e 1aee db3e ff41 44ba 4a50 d4bd
00000120: 97ab 3abb 957f 6fbd 5541 ad3e 4f94 6f3e
00000130: 2ada bdbc 2bf2 d4bd c45a 283e 31ea 79be
00000140: 9818 89bd 1a59 273e ad65 e8bc dd91 023e
00000150: e3db 2f3d 77c0 94be 7049 7dbe f51e 81be
00000160: 0682 153e 6a4c be3e 777a 573e d4b8 0d3e
00000170: f710 4c3e 416a cebc 8beb b13c 4e8f ffbd
00000180: a4e0 3dbe 45e0 ee3d 4971 d83e bd77 043e
00000190: 896b adbe 3dca 93be 8806 0ebd fdf1 343e
000001a0: 8807 ccbe 014c bc3d 6aa4 953b 1d65 c1be
000001b0: 1f2a 9bbe adf1 c5be 590f 91bd 2b24 9a3d
000001c0: 2d32 bb3e 6d00 be3e 91d7 853d 2007 063d
000001d0: c1c0 d03e ae03 14be fd56 253e 0d81 403e
000001e0: 8189 93bd 0163 4bbd 6f27 eb3b 8a7c 95be
000001f0: 0184 ad3e 527a b5bc a6aa f9bd 0b96 ab3d
00000200: 5c9d 2a3e f31c 45be 4d97 8b3c ed62 b6be
00000210: 6bc7 bdbe 9074 803d 51b2 9f3e 844b 423e
00000220: e1f5 2cbc 3345 603d 5ba2 d43c 7b14 b73e
00000230: 5759 523e 82fd 74be e1a2 13bc 2547 bf3b
00000240: 89d7 ad3e a283 3bbc c0e0 4f3e f017 bfbd
00000250: 385a 88be f059 ef3d fcbf 4dbe 9e06 d23e
00000260: 9a69 c03e 96eb 83bd f720 02be 1c50 46be
00000270: 4827 acbd c3a0 ba3e f8bf 3d3e 0b10 d43e
00000280: cf4d 1dbe 809d 4cbc c53d 963e 8b9c 553e
00000290: 9957 83be 41cf 603e 9c36 c63e 3f6f 3a3d
000002a0: bf0f e33e a4d0 d53d aeec 28bd 4f31 29be
000002b0: 3fdc 273a 81a5 a53e fa98 7f3d 2ea8 c3be
000002c0: fcf6 06be b778 313e 003b 8c3e a3c6 e1be
000002d0: 8e32 783e 9982 5dbe b877 943e 4d56 d33d
000002e0: cbf8 1cbe a222 873d dd0a 393e 3398 993e
000002f0: 74de 733e 32df 8e3e b5a8 883e e79c 503e
00000300: dc99 51be 4475 5c3e ef2d a23e 1506 533e
00000310: c5e2 39be 5c89 4e3e adcd 723e 6827 a73e
00000320: d9df 8ebe 1dc8 413e 98e0 523e 56ef debd
00000330: 3fce cd3e cdcf be3d 9269 a1bd 39d6 73be
00000340: 45a3 d6bd 6077 52be 67f4 cbbe f591 883e
00000350: 8816 933d 99da 3fbe 150b 1d3e 23d9 5b3e
00000360: 489f cdbe 333e bebd b479 41be 4a94 863e
00000370: deb0 853e fc82 26be 2ae4 5fbd df0e 983e
00000380: 3fbf bfbe 7bf9 023e a3ba adbe 4420 4dbe
00000390: bc57 d13d 1523 f4bd ea85 babe 6aee debd
000003a0: 539e b6bd a2d0 93be 208c 64be 1376 a1be
000003b0: 219b 14be ba41 83bd 68d2 d43d 63ea b8be
000003c0: 6ebb d03e aead 97be f7ba 813e 936b ac3a
000003d0: c75b 503d cc16 e4bd 1ae3 ce3e 00c0 ac3d
000003e0: e319 923e d2d6 64be a80b fdbd c10c adbe
000003f0: 0b64 15bd b0db 7dbe 6076 babe cb8c 7f3e

in_proj_bias f4 [30]
-0.06416061 0.06587409 -0.057195578 0.074513406 -0.06705266 -0.06259194 -0.063040644 -0.06670806
-0.062977076 -0.060182426 2.3909088e-06 1.6906892e-05 1.6565182e-06 -8.5425654e-08 1.4759235e-06 7.1303357e-06
1.1622203e-05 2.6722462e-06 -5.426735e-07 3.6215176e-06 -0.062096626 0.061375238 0.059955083 0.059715264
-0.06804811 0.059435897 -0.0558556 0.05528404 0.06254888 0.06007256
00000000: a366 83bd ffe8 863d e945 6abd 7c9a 983d
00000010: e852 89bd 3430 80bd 741b 81bd 3c9e 88bd
00000020: 20fa 80bd d981 76bd 8073 2036 46d3 8d37
00000030: 8855 de35 4073 b7b3 5818 c635 1e41 ef36
00000040: fbfc 4237 d754 3336 3dac 11b5 3309 7336
00000050: 0859 7ebd 9a64 7b3d 7693 753d fe97 743d
00000060: cf5c 8bbd 0e73 733d d7c8 64bd 8471 623d
00000070: a119 803d a50e 763d

weight f4 [10, 10]
0.4032321 0.39376926 -0.4371381 -0.1476667 -0.29906064 -0.40622425 -0.03992272 -0.084694296
0.070858344 0.22180972 0.011094317 -0.43399638 0.37149012 0.35685912 0.088140965 0.29303336
-0.047793288 0.45056304 -0.33894604 0.1329441 0.2751583 -0.011757034 -0.010632323 -0.17476654
-0.33321208 -0.119087785 0.54235744 0.038468674 -0.106911056 -0.4797412 -0.4518145 -0.06759444
-0.45481625 0.026965301 -0.35028416 0.43560907 0.28022847 0.0042326413 -0.48621565 0.38502544
0.41104475 0.14138842 0.13595724 0.115491614 -0.23947081 0.038027126 0.4510566 -0.3385589
0.55368596 -0.4830982 0.26753908 -0.43185967 0.12079978 -0.08191788 0.5043959 -0.2458968
-0.31511897 -0.46427074 -0.38246736 0.44614413 -0.35767257 0.26587895 0.34316242 0.4146817
-0.16023688 0.20066741 -0.12728833 -0.4057559 -0.16140416 0.057062276 -0.38925666 -0.025748625
-0.063899 0.078795776 -0.05380379 -0.04576374 0.21184641 -0.31153607 -0.24246782 0.00891153
0.40491554 0.109992705 -0.08323194 0.4068458 -0.2898526 0.21609238 -0.5391356 0.04370421
-0.17082968 0.2181333 -0.2960527 0.4107077 0.10768894 -0.09714413 -0.49292257 0.029436462
0.29364032 -0.5358245 0.33983263 -0.14183111
00000000: 7074 ce3e 209c c93e 91d0 dfbe f035 17be
00000010: 7a1e 99be a0fc cfbe 0286 23bd 3474 adbd
00000020: 2e1e 913d 1622 633e f0c4 353c c634 debe
00000030: f433 be3e 3db6 b63e 4083 b43d 7808 963e
00000040: e5c2 43bd 33b0 e63e 568a adbe 8022 083e
00000050: 8ce1 8c3e 93a0 40bc 3233 2ebc 00f6 32be
00000060: c69a aabe 4ce4 f3bd f0d7 0a3f 5491 1d3d
00000070: 2ff4 dabd a3a0 f5be 3b54 e7be f46e 8abd
00000080: addd e8be 56e6 dc3c 7258 b3be 2708 df3e
00000090: 1b7a 8f3e f8b1 8a3b 42f1 f8be 0e22 c53e
000000a0: 7574 d23e 20c8 103e 6038 0b3e de86 ec3d
000000b0: d637 75be 55c2 1b3d e4f0 e63e 9857 adbe
000000c0: 5dbe 0d3f a658 f7be e2fa 883e b61c ddbe
000000d0: e065 f73d 90c4 a7bd 1720 013f 5fcc 7bbe
000000e0: 4657 a1be e5b4 edbe c3d2 c3be 016d e43e
000000f0: dc20 b7be 4921 883e fcb2 af3e 2951 d43e
00000100: 2315 24be c27b 4d3e df57 02be 3dbf cfbe
00000110: 2247 25be 22ba 693d a64c c7be c8ee d2bc
00000120: 7bdd 82bd ae5f a13d 5d61 5cbd c272 3bbd
00000130: 44ee 583e a881 9fbe 7c49 78be aa01 123c
00000140: 1751 cf3e db43 e13d 8275 aabd 184e d03e
00000150: 8f67 94be 5247 5d3e ca04 0abf 3003 333d
00000160: faed 2ebe 565e 5f3e 3894 97be 4848 d23e
00000170: 058c dc3d 80f3 c6bd 5960 fcbe bc24 f13c
00000180: 0658 963e cb2b 09bf 8bfe ad3e 2d3c 11be

bias f4 [10]
0.061021574 0.058004435 -0.061207645 -0.05732545 0.066279456 -0.060265694 0.061826333 -0.06002044
0.024231791 0.060357314
00000000: c2f1 793d 0f96 6d3d deb4 7abd 17ce 6abd
00000010: 86bd 873d 29d9 76bd 9c3d 7d3d fed7 75bd
00000020: c081 c63c 3b39 773d

weight f4 [2048, 10]
0.065231495 -0.10633937 0.06628218 -0.07396184 0.07377957 0.050763175 -0.027246673 0.09857669
-0.060654476 0.0064853784 0.0034934399 0.018791912 -0.007317689 -0.0042127706 -0.053084604 -0.015126651
0.001995944 0.0014293174 0.0271759 0.014996737 0.06303763 -0.10400218 0.0531623 0.052122775
-0.056782957 0.085013084 -0.07876052 0.074466944 -0.03463472 -0.041198257 0.023484489 -0.02713913
0.03864369 0.01594918 -0.0021481737 0.03123133 -0.043179605 0.03680073 -0.027322873 -0.024736494
0.07687078 0.036083624 0.0853875 -0.015375173 0.04320682 0.035177592 -0.011437612 -0.03687596
-0.04672558 -0.031200228 0.03880803 -0.034063864 0.050169364 0.0224992 -0.005273684 0.061549794
-0.04888592 0.028572869 -0.04862555 -0.039203927 0.068416744 0.108762786 0.022251189 -0.09271789
0.11090975 0.11381178 -0.016344389 -0.040949747 -0.03541153 0.09087473 0.032355417 -0.026165185
0.017368834 -0.0077931527 -0.017574912 0.026933243 0.010795971 -0.012005438 -0.015023353 -0.026943667
0.103037894 -0.050510045 0.04190891 -0.107118115 0.10693311 0.06887392 -0.038142823 -0.09239789
-0.027008636 0.03534188 0.006553171 -0.0204055 0.03253 0.00012108896 -5.212114e-06 0.037594028
-0.029783761 0.008973904 -0.034319006 -0.0074645444 -0.017601795 0.06157863 -0.050437268 0.08261062
-0.10189321 -0.05511743 0.01606812 0.07365506 0.025420992 -0.016358806 -0.034556955 -0.12367196
-0.05798673 -0.0485251 0.018686647 -0.13599387 0.100835465 0.03562908 0.03753264 0.1284132
0.038265653 -0.040562928 0.0755446 -0.106054604 0.05033599 0.05912679 -0.06321801 -0.10604114
-0.059564877 0.038634438 0.0027735096 -0.0056481147 0.025284363 -6.7630117e-07 5.269356e-05 0.024434816
-0.021715822 0.0034707298 -0.027605006 -0.0206798 0.04614361 -0.04661336 0.060386285 0.030008543
-0.014831949 0.060563777 -0.055880003 0.04131794 -0.05767559 -0.051903494 0.08427883 -0.041969787
0.026575236 -0.09079027 0.038704295 0.03284309 0.03661369 0.034506597 -0.023665104 0.07161262
0.040139277 -0.12967485 0.120090075 0.10448502 -0.04162454 0.10555384 -0.10006814 0.12137257
-0.112530544 -0.06453575 -0.009422106 0.10368095 -0.039890993 0.10401946 -0.040227376 -0.017213618
-0.08327006 -0.06391002 0.035006955 -0.03560086 0.07700827 -0.04379459 0.10967696 -0.110741705
0.100325786 0.10312337 -0.09988742 -0.03274561 -0.046325706 0.014727316 -0.0010001597 -0.12386998
-0.05071954 0.101673104 -0.048443094 -0.05534256 0.006978487 0.085747726 0.06860295 0.01212231
0.059736043 0.061152183 0.016932577 -0.026226949 0.10008143 0.028848318 -0.10414878 -0.043733846
-0.03448552 -0.037594378 -0.042809688 -0.051602464 -0.06490815 -0.06593805 0.07223148 0.041654386
0.0941824 0.052059464 0.054742277 0.015535797 -0.089396015 0.093339615 -0.066169865 0.045412
0.04293097 -0.07178216 -0.06699402 -0.013610355 0.07574027 -0.11013347 -0.07923605 0.10574539
-0.040968742 0.07075873 0.020036763 -0.05137835 0.04340568 0.07576772 -0.0048662312 -0.051655997
1.0994845e-05 -0.00013429674 0.00021680973 -1.6917725e-06 -8.606713e-06 0.0017542815 5.4281958e-05 -2.8286242e-05
-3.2735836e-05 7.9381525e-06 -0.012953495 -0.019905778 0.05361635 4.5741657e-05 -0.000817485 0.06369475
00000000: 1798 853d 75c8 d9bd f4be 873d 4e79 97bd
00000010: be19 973d 0ced 4f3d 6a34 dfbc 93e2 c93d
00000020: d470 78bd 4c83 d43b 32f2 643b 7ff1 993c
00000030: 39c9 efbb 480b 8abb 3e6f 59bd c6d5 77bc
00000040: 62ce 023b ef57 bb3a fe9f de3c e0b4 753c
00000050: df19 813d 18ff d4bd b6c0 593d b17e 553d
00000060: 3f95 68bd 571b ae3d 324d a1bd 2082 983d
00000070: 23dd 0dbd 81bf 28bd 8b62 c03c e152 debc
00000080: d948 1e3d dba7 823c 60c8 0cbb d9d8 ff3c
00000090: 19dd 30bd 5dbc 163d 38d4 dfbc 30a4 cabc
000000a0: 6d6e 9d3d 6ccc 133d a4df ae3d 26e8 7bbc
000000b0: a2f9 303d 6116 103d d264 3bbc 3f0b 17bd
000000c0: 5263 3fbd 9f97 ffbc 2bf5 1e3d 8d86 0bbd
000000d0: 647e 4d3d 3e50 b83c dece acbb a31b 7c3d
000000e0: 9a3c 48bd a611 ea3c 962b 47bd 4c94 20bd
000000f0: 141e 8c3d 06bf de3d 2048 b63c e1e2 bdbd
00000100: a724 e33d 2716 e93d abe4 85bc ecba 27bd
00000110: ae0b 11bd 881c ba3d 1d87 043d 5f58 d6bc
00000120: 1649 8e3c b45d ffbb 43f9 8fbc 1ba3 dc3c
00000130: 96e1 303c 75b2 44bc 8224 76bc f7b8 dcbc
00000140: 8805 d33d 9fe3 4ebd ada8 2b3d be60 dbbd
00000150: bfff da3d c50d 8d3d a63b 1cbd 1b3b bdbd
00000160: 3741 ddbc a6c2 103d fcbb d63b 6f29 a7bc
00000170: 2d3e 053d 24f1 fd38 b8e3 aeb6 32fc 193d
00000180: 13fd f3bc 4807 133c 1692 0cbd 2399 f4bb
00000190: a431 90bc e039 7c3d 4f97 4ebd c22f a93d
000001a0: 63ad d0bd d0c2 61bd 4aa1 833c 77d8 963d
000001b0: af3f d03c e702 86bc 988b 0dbd b947 fdbd
000001c0: 7e83 6dbd 41c2 46bd bd14 993c fa41 0bbe
000001d0: d382 ce3d ccef 113d d3bb 193d c07e 033e
000001e0: 72bc 1c3d 5025 26bd 21b7 9a3d 2833 d9bd
000001f0: 1c2d 4e3d ef2e 723d 7278 81bd 192c d9bd
00000200: 4dfa 73bd 253f 1e3d c5c3 353b d213 b9bb
00000210: 2721 cf3c 108b 35b5 4703 5d38 862b c83c
00000220: 61e5 b1bc 2f75 633b e523 e2bc af68 a9bc
00000230: 1501 3d3d a7ed 3ebd 9c57 773d 7ad4 f53c
00000240: b401 73bc b911 783d 6ee2 64bd 003d 293d
00000250: 3d3d 6cbd c298 54bd 619a ac3d 83e8 2bbd
00000260: 4fb4 d93c 40f0 b9bd 6588 1e3d 7a86 063d
00000270: 3df8 153d ca56 0d3d 52dd c1bc a3a9 923d
00000280: 1569 243d 7cc9 04be c9f1 f53d 3efc d53d
00000290: 7e7e 2abd 9d2c d83d 86f0 ccbd 2f92 f83d
000002a0: 6a76 e6bd 522b 84bd 2d5f 1abc ae56 d43d
000002b0: bd64 23bd 2808 d53d 76c5 24bd 9303 8dbc
000002c0: 7e89 aabd 42e3 82bd 7463 0f3d 35d2 11bd
000002d0: 83b6 9d3d f561 33bd 509e e03d 8ccc e2bd
000002e0: 9b77 cd3d 5832 d33d c791 ccbd 4320 06bd
000002f0: 06c0 3dbd d74a 713c ca17 83ba 8baf fdbd
00000300: 4bbf 4fbd fd39 d03d 446c 46bd e1ae 62bd
00000310: cbab e43b 819c af3d b47f 8c3d a79c 463c
00000320: c8ad 743d b67a 7a3d 30b6 8a3c e6d9 d6bc
00000330: 7ef7 cc3d 4f53 ec3c f54b d5bd 4322 33bd
00000340: b040 0dbd 90fc 19bd 3659 2fbd 1b5d 53bd
00000350: 90ee 84bd 870a 87bd 19ee 933d ca9d 2a3d
00000360: b4e2 c03d 4e3c 553d 7039 603d db89 7e3c
00000370: 4215 b7bd d728 bf3d 1184 87bd ef01 3a3d
00000380: 63d8 2f3d 8602 93bd 2934 89bd f7fd 5ebc
00000390: b71d 9b3d a88d e1bd 8346 a2bd 0a91 d83d
000003a0: d7ce 27bd f4e9 903d 2324 a43c 1b72 52bd
000003b0: 28ca 313d 1b2c 9b3d e874 9fbb 3d95 53bd
000003c0: 8076 3837 02d2 0cb9 6b57 6339 dc10 e3b5
000003d0: 8d65 10b7 ebef e53a cfac 6338 3e48 edb7
000003e0: d64d 09b8 1b2e 0537 e53a 54bc 7111 a3bc
000003f0: d19c 5b3d bbda 3f38 7d4c 56ba 6572 823d

bias f4 [2048]
0.17113486 0.020970428 -0.057980966 -0.032029547 -0.10806157 -0.038094137 -0.02654473 0.010138238
0.062099665 -0.026252586 0.3115471 0.27119246 -0.010156109 -0.02372522 -0.048561282 0.01863721
-0.1064811 0.26974192 0.05124185 0.10124901 -0.1314717 -0.14248723 0.29592228 0.10359711
6.10083e-05 -0.03817983 -0.03813792 0.34656686 -0.074004315 -0.11326417 0.11712844 -0.016979875
-0.023251528 0.17569964 0.27124518 -0.042048384 0.04736075 -0.035268314 -0.0025981136 -0.029118223
-0.028900938 -0.014987302 -0.041199997 -0.11517746 -0.05034343 0.024864111 -0.111672886 0.008659336
-0.0764606 -0.05001165 0.24005169 -0.03706678 0.032461505 -0.06585811 -0.0143724885 -0.008373825
0.16869071 -0.0022343833 -0.049030073 0.059710715 0.15738854 0.3658916 0.051844247 0.23416659
-0.06210802 -0.031040963 -0.011561383 0.25464305 -0.18171936 0.12839432 -0.0013886582 -0.05608233
-0.019569818 -0.03776219 0.1439945 -0.0008447637 0.18903767 0.29098964 0.25180277 0.35333297
0.27544606 -0.07937956 -0.0036784513 0.2837928 -0.15766813 -0.06420145 -0.020615075 -0.062183384
-0.09590582 -0.11826586 0.026214832 0.36510736 0.14443943 0.19003119 -0.065397345 0.06402454
-0.023799544 -0.08222231 -0.060530253 -0.041688804 -0.120221294 0.32080576 -0.055936303 0.01185779
0.18477845 -0.046789367 0.13920188 -0.06376986 0.0436908 -0.062286653 0.11199388 0.23558739
0.1082586 -0.0053365766 -0.02136509 -0.03884038 -0.065111786 0.19744703 -0.00017998856 0.21069849
-0.007142591 -0.23243983 0.0837764 -0.09595255 0.14458048 0.16332921 0.086344115 0.29996753
-0.11276692 -0.13647887 -0.03487943 0.20619403 -0.051848143 -0.18835163 0.32177308 -9.2226276e-07
0.23104578 -0.08160652 0.12602311 0.20163575 -0.10638171 0.2749465 -0.067861006 0.35517448
-0.07277243 0.005305762 0.2219886 0.16947097 -0.12762794 0.2456481 0.100826085 0.19089408
0.28697833 -0.012465315 0.24025196 0.08457777 -0.20759186 0.18124463 -0.02258032 -0.011653485
0.19761336 -0.118962 -0.0062800203 0.21145633 0.03230833 0.2210745 -0.07404114 0.13046677
-0.029412983 0.053875644 -0.01067439 -0.18397322 0.32100943 0.2199156 0.1353722 0.21972612
-0.11888862 4.917e-05 0.22304969 -0.049649205 0.06464601 0.28531578 -0.068589926 -0.048570592
-0.00011611494 0.02148627 -0.011912129 6.817964e-05 0.29118213 0.17820075 -0.060733162 -0.028634252
-0.07782155 0.07730672 0.28682372 -0.11392468 0.18712385 0.078398265 0.33114964 0.11638844
-0.009743293 0.16529502 -0.050904084 0.037644442 0.35653627 0.31572226 0.1628933 0.3414016
-0.061476804 -0.07358312 -0.05201639 -0.066846885 -0.03035378 0.014816007 -0.04570147 0.0021945634
0.283403 0.27660817 -1.1118091e-06 0.07696125 -0.05712499 0.10153816 -0.13387981 0.1572767
-0.0753952 -0.016703948 0.07158187 -0.15583226 -0.060335815 0.2722023 -0.14090061 0.028487386
-0.00077535823 0.08479532 0.24389564 -0.096039936 0.21548837 0.24917461 0.0425537 -0.056305513
-0.05520066 0.23154023 -0.06508664 -0.024923204 0.24334887 0.039474875 0.019227484 0.008746545
-0.07035131 0.1886087 0.19445693 0.15316021 0.13345905 0.3076438 0.19956535 -0.054981634
00000000: fa3d 2f3e 2dca ab3c 737d 6dbd 6a31 03bd
00000010: 624f ddbd 9908 1cbd 5574 d9bc da1a 263c
00000020: 385c 7e3d aa0f d7bc 1a83 9f3e bdd9 8a3e
00000030: cf65 26bc 645b c2bc 32e8 46bd 10ad 983c
00000040: c312 dabd 9d1b 8a3e f9e2 513d a45b cf3d
00000050: 84a0 06be 2ce8 11be 2083 973e b92a d43d
00000060: 2ae3 7f38 7462 1cbd 8236 1cbd 3671 b13e
00000070: 938f 97bd 0cf7 e7bd 09e1 ef3d 6119 8bbc
00000080: fd79 bebc 9bea 333e a6e0 8a3e ed3a 2cbd
00000090: 59fd 413d 8275 10bd 1d45 2abb 5789 eebc
000000a0: a9c1 ecbc 4d8d 75bc 54c1 28bd 29e2 ebbd
000000b0: ea34 4ebd d2af cb3c c1b4 e4bd e3df 0d3c
000000c0: 6097 9cbd 04d9 4cbd 1cd0 753e 56d3 17bd
000000d0: 5bf6 043d 9ee0 86bd 967a 6bbc 5e32 09bc
000000e0: 42bd 2c3e bb6e 12bb c2d3 48bd 3993 743d
000000f0: 762a 213e 2556 bb3e a25a 543d 5ec9 6f3e
00000100: fb64 7ebd 9e49 febc f46b 3dbc 9360 823e
00000110: a414 3abe cd79 033e a303 b6ba 96b6 65bd
00000120: e250 a0bc 87ac 1abd 4b73 133e 2273 5dba
00000130: 1793 413e 98fc 943e 4bec 803e 0fe8 b43e
00000140: 4407 8d3e c091 a2bd 2c12 71bb 4a4d 913e
00000150: c173 21be 0d7c 83bd f2e0 a8bc 01b4 7ebd
00000160: 456a c4bd 5f35 f2bd 7dc0 d63c 5aef ba3e
00000170: eee7 133e 8997 423e 0bef 85bd 4c1f 833d
00000180: 43f7 c2bc 2c64 a8bd 92ee 77bd e1c1 2abd
00000190: 9536 f6bd a740 a43e 771d 65bd 2d47 423c
000001a0: 9036 3d3e 35a6 3fbd f08a 0e3e c699 82bd
000001b0: 20f5 323d 4a20 7fbd 0c5d e53d d23d 713e
000001c0: afb6 dd3d 73de aebb d705 afbc 1717 1fbd
000001d0: 5459 85bd 8e2f 4a3e 50bb 3cb9 58c1 573e
000001e0: 650c eabb b504 6ebe f692 ab3d c582 c4bd
000001f0: e80c 143e c63f 273e 2fd5 b03d 5895 993e
00000200: 58f2 e6bd 1ec1 0bbe bcdd 0ebd 8724 533e
00000210: b85e 54bd 40df 40be 71bf a43e 6a91 77b5
00000220: 4497 6c3e 5221 a7bd 340c 013e 9a79 4e3e
00000230: a7de d9bd cac5 8c3e b6fa 8abd 6ed9 b53e
00000240: b609 95bd f5db ad3b fb50 633e cc89 2d3e
00000250: e6b0 02be 2d8b 7b3e e87d ce3d bd79 433e
00000260: d3ee 923e 523b 4cbc 9c04 763e 1c37 ad3d
00000270: f692 54be 3198 393e 5dfa b8bc 42ee 3ebc
00000280: 285b 4a3e 59a2 f3bd a1c8 cdbb 0288 583e
00000290: bd55 043d 5b61 623e e2a2 97bd 1599 053e
000002a0: 7ff3 f0bc b5ac 5c3d a3e3 2ebc 7a63 3cbe
000002b0: 595b a43e 8e31 613e 039f 0a3e e2ff 603e
000002c0: e07b f3bd e33b 4e38 2367 643e f75c 4bbd
000002d0: 2165 843d e914 923e e078 8cbd f5f1 46bd
000002e0: bc82 f3b8 f903 b03c 172b 43bc aafb 8e38
000002f0: d315 953e 427a 363e 56c3 78bd 6192 eabc
00000300: e860 9fbd fc52 9e3d 8fda 923e 5851 e9bd
00000310: 659d 3f3e 458f a03d 728c a93e 105d ee3d
00000320: 55a2 1fbc 1943 293e cd80 50bd 0f31 1a3d
00000330: ec8b b63e 59a6 a13e 80cd 263e 31cc ae3e
00000340: 1acf 7bbd bfb2 96bd 230f 55bd 05e7 88bd
00000350: 7ea8 f8bc d6be 723c 7731 3bbd aad2 0f3b
00000360: 331a 913e 969f 8d3e 7839 95b5 dc9d 9d3d
00000370: e5fb 69bd 3df3 cf3d ca17 09be 250d 213e
00000380: cc68 9abd b8d6 88bc 8499 923d 7e92 1fbe
00000390: b022 77bd 1a5e 8b3e 4048 10be 615e e93c
000003a0: 6941 4bba 2ba9 ad3d c7bf 793e 96b0 c4bd
000003b0: fca8 5c3e a127 7f3e ca4c 2e3d 9ca0 66bd
000003c0: 161a 62bd e218 6d3e 254c 85bd bf2b ccbc
000003d0: 7230 793e 68b0 213d f582 9d3c ab4d 0f3c
000003e0: 5914 90bd a422 413e b81f 473e 08d6 1c3e
000003f0: 7da9 083e 7d83 9d3e dc5a 4c3e 6c34 61bd

weight f4 [10, 2048]
0.10105311 0.056365073 0.032343533 -0.028936464 0.088532254 0.0323857 0.050508503 0.02947626
0.020401638 -0.003931417 0.074322596 0.10844528 0.096063465 -0.016514976 0.06631144 0.019322835
0.034470573 0.062846296 0.113259494 0.034424353 0.07224522 0.037571 0.114838645 0.022075495
7.769506e-08 6.1459064e-06 -0.07515831 0.052569922 -0.0036319108 0.0062539335 0.06498265 -0.060480677
0.02182684 0.02046267 0.0965127 0.076013006 0.05397777 -0.021856828 0.018738402 0.07802326
-0.00036992604 1.1890181e-05 -0.05874023 0.111177616 0.087130815 0.08776612 0.04167379 0.060406603
0.03327436 0.018621216 0.10392555 -0.029763676 0.078132965 -0.06806864 -0.025432836 0.07208425
0.07413952 7.564054e-05 -0.07392283 0.086898364 0.07664278 0.10085132 0.05068428 0.08441669
-0.06942477 -0.042525694 -0.018147498 0.08251875 0.073120214 0.105057076 8.7826396e-07 0.06990919
-0.00015257492 -0.023986 0.09128393 0.0037247164 0.08629 0.0139662465 0.036564946 0.10891294
0.056465995 -0.06346631 1.1064833e-05 0.018846126 0.04342552 -0.072464295 0.014631281 -0.0028708987
-0.005943195 0.059221726 0.007720935 0.0899971 0.05206564 0.05937413 0.10866725 -0.06743318
0.008151561 0.030971957 0.027917914 0.009485501 0.04327691 0.01141499 -0.051591706 -0.03922139
0.048789825 0.028650759 0.08628711 0.04430437 -0.06977871 -0.0664848 0.06419107 0.10357304
0.066531695 -0.012354633 0.087158225 0.12726076 -0.0002864756 0.07714032 1.9153854e-06 0.029565977
0.01970189 -0.0677017 0.08867962 0.077605896 0.038535573 0.094494514 0.013077438 0.011584567
0.023580339 0.043478377 -0.030096227 0.055937435 -0.07214054 -0.03179766 0.042884223 2.8481415e-06
0.04805725 0.014281426 0.05931656 -0.031109309 0.054219972 0.10964129 -0.07133609 0.09888073
-0.026757857 0.07495361 0.032238714 0.0914031 0.06616152 0.10312084 0.103114374 0.01462788
0.0575358 0.00024878516 0.029849498 0.031724896 0.033136524 0.037454505 -0.00019684 -0.008089954
0.022134637 -0.0052245003 -6.033427e-05 0.053632222 0.107400835 0.08512857 -0.0067440905 0.06953181
-0.00998948 0.041940685 -3.6569793e-07 0.038688254 0.08705296 0.0081693735 0.033345327 0.08485294
-0.09271833 -5.2359906e-06 0.07040538 -0.044432923 0.051592514 0.10237225 -0.01712232 0.010224768
-0.0004371586 0.12988769 -0.013913588 -2.1708865e-07 0.104465485 0.011161122 0.0767075 0.009378976
0.087381355 0.08091864 0.009753245 0.054479368 0.055432227 0.0706369 0.10939612 0.105513625
1.8540688e-06 0.08693599 4.1620942e-06 0.06534478 0.037527587 0.060988918 0.026594995 0.07058333
-0.050806735 0.07773857 -0.020390544 0.08886582 0.016490972 0.085184745 0.0047263443 0.06677506
0.044013306 0.07733949 6.122237e-06 0.013085423 0.031351116 0.07593504 0.096966445 0.089087926
-0.07676849 0.11337957 0.11216271 -0.084575094 0.054701634 0.058188792 -0.02455426 0.0066619096
-1.8607618e-06 -0.013011019 0.03311431 -0.020071806 0.050455537 0.04740889 0.0324151 0.05592949
-0.08002975 0.08265405 -8.485463e-05 0.016279176 0.068284206 0.03045732 0.08806023 0.017101966
0.02558483 0.1046088 0.08600676 0.08515211 0.049231052 0.046458956 0.060469966 0.04543445
00000000: eff4 ce3d 10df 663d a77a 043d 2a0c edbc
00000010: 6650 b53d dea6 043d 01e2 4e3d 3378 f13c
00000020: 5621 a73c 1ed3 80bb 7236 983d 8f18 de3d
00000030: ecbc c43d 6a4a 87bc 4bce 873d ec4a 9e3c
00000040: 0431 0d3d 8fb5 803d 98f4 e73d 8d00 0d3d
00000050: 4df5 933d 0de4 193d 8630 eb3d abd7 b43c
00000060: 50d9 a633 ef38 ce36 9aec 99bd 8f53 573d
00000070: 5a05 6ebb cced cc3b a015 853d 96ba 77bd
00000080: 33ce b23c 54a1 a73c 73a8 c53d b5ac 9b3d
00000090: cb17 5d3d 170d b3bc 4781 993c a9ca 9f3d
000000a0: a2f2 c1b9 f07b 4737 9899 70bd 17b1 e33d
000000b0: a471 b23d b9be b33d 23b2 2a3d ea6c 773d
000000c0: b24a 083d 858b 983c ebd6 d43d f4d2 f3bc
000000d0: 2d04 a03d 9267 8bbd 8658 d0bc e8a0 933d
000000e0: 76d6 973d 35a1 9e38 da64 97bd c5f7 b13d
000000f0: e4f6 9c3d 238b ce3d 529a 4f3d a8e2 ac3d
00000100: 932e 8ebd 6c2f 2ebd 10aa 94bc 97ff a83d
00000110: 0dc0 953d 2a28 d73d d7c1 6b35 8d2c 8f3d
00000120: 85fc 1fb9 4a7e c4bc 12f3 ba3d 5f1a 743b
00000130: d0b8 b03d afd2 643c 20c5 153d bf0d df3d
00000140: e348 673d a0fa 81bd 19a3 3937 3163 9a3c
00000150: f5de 313d 2968 94bd 0ab8 6f3c b025 3cbb
00000160: 22bf c2bb 7b92 723d e6ff fc3b 6650 b83d
00000170: c842 553d 4a32 733d ef8c de3d 681a 8abd
00000180: 208e 053c e7b8 fd3c 1cb4 e43c 1369 1b3c
00000190: 2143 313d f005 3b3c d351 53bd 9ca6 20bd
000001a0: d7d7 473d ffb4 ea3c 4cb7 b03d 8078 353d
000001b0: 24e8 8ebd 2f29 88bd 9c76 833d 1a1e d43d
000001c0: c541 883d 166b 4abc 0380 b23d a550 023e
000001d0: 1b32 96b9 befb 9d3d 128a 0036 5934 f23c
000001e0: dc65 a13c 30a7 8abd a99d b53d d7ef 9e3d
000001f0: 7ad7 1d3d 5786 c13d c042 563c 32cd 3d3c
00000200: 8e2b c13c 6216 323d 5d8c f6bc a71e 653d
00000210: 6bbe 93bd 433e 02bd 5ea7 2f3d b322 3f36
00000220: aed7 443d a4fc 693c ecf5 723d f3d8 febc
00000230: c315 5e3d 9d8b e03d a818 92bd fb81 ca3d
00000240: 4b33 dbbc 4781 993d be0c 043d 8c31 bb3d
00000250: b17f 873d 0531 d33d a12d d33d c7a9 6f3c
00000260: a9aa 6b3d 616f 8239 ef86 f43c f7f1 013d
00000270: 2aba 073d e569 193d d666 4eb9 ba8b 04bc
00000280: b353 b53c 4932 abbb 6e0f 7db8 76ad 5b3d
00000290: f8f4 db3d e357 ae3d 88fd dcbb b266 8e3d
000002a0: eaaa 23bc ffc9 2b3d 2455 c4b4 9377 1e3d
000002b0: d348 b23d d6d8 053c 1c95 083d 61c7 ad3d
000002c0: 1ce3 bdbd d1b0 afb6 b230 903d 4cff 35bd
000002d0: ac52 533d 8ba8 d13d 1c44 8cbc c985 273c
000002e0: 6f32 e5b9 4701 053e d1f5 63bc e018 69b4
000002f0: 00f2 d53d 23dd 363c d218 9d3d 47aa 193c
00000300: fff4 b23d acb8 a53d 13cc 1f3c c225 5f3d
00000310: e70c 633d 14aa 903d 130b e03d 8717 d83d
00000320: 52d9 f835 7f0b b23d 1ea8 8b36 7cd3 853d
00000330: 87b6 193d 84cf 793d bfdd d93c fe8d 903d
00000340: b91a 50bd 6635 9f3d 120a a7bc 48ff b53d
00000350: 1318 873c 5775 ae3d 73df 9a3b 5dc1 883d
00000360: 4c47 343d 2b64 9e3d 9e6d cd36 3e64 563c
00000370: 076a 003d d583 9b3d 5896 c63d bb73 b63d
00000380: cc38 9dbd 8c33 e83d 90b5 e53d b535 adbd
00000390: d20e 603d 5f57 6e3d 0426 c9bc 264c da3b
000003a0: 4abf f9b5 2b2c 55bc dfa2 073d a16d a4bc
000003b0: 77aa 4e3d d32f 423d b2c5 043d 5216 653d
000003c0: a3e6 a3bd 8746 a93d fcf3 b1b8 e85b 853c
000003d0: 97d8 8b3d a181 f93c ec58 b43d 6c19 8c3c
000003e0: 4797 d13c 233d d63d 5024 b03d 3b64 ae3d
000003f0: 80a6 493d bf4b 3e3d 5baf 773d 7919 3a3d

bias f4 [10]
0.06515718 0.046392757 -0.07560569 -0.05228771 0.076621585 -0.04478542 0.06178756 -0.05012887
0.0107090715 0.055747643
00000000: 2171 853d 5506 3e3d 28d7 9abd a32b 56bd
00000010: c7eb 9c3d eb70 37bd f414 7d3d ee53 4dbd
00000020: 1a75 2f3c a457 643d

weight f4 [10]
0.9391098 1.0562199 1.0613778 0.9347565 0.93803173 1.056838 1.0690205 0.9395264
0.9777522 0.939251
00000000: 8069 703f 3732 873f 3adb 873f 344c 6f3f
00000010: d922 703f 7846 873f aad5 883f cd84 703f
00000020: f84d 7a3f c172 703f

bias f4 [10]
0.062806174 0.057247773 -0.061014805 -0.05424766 0.065875486 -0.059253056 0.062234104 -0.059834942
-0.07977896 0.0604518
00000000: 86a0 803d a47c 6a3d a9ea 79bd cb32 5ebd
00000010: bae9 863d 55b3 72bd 30e9 7e3d 7c15 75bd
00000020: 2763 a3bd 4e9c 773d

weight f4 [10]
0.9431735 1.0389466 1.0665927 0.990545 0.9484204 1.0062869 1.1063756 0.9459012
1.0281862 0.9456645
00000000: d273 713f 34fc 843f 1c86 883f 5b94 7d3f
00000010: aecb 723f 02ce 803f b79d 8d3f 9526 723f
00000020: 9b9b 833f 1217 723f

bias f4 [10]
0.07028521 0.05458849 -0.06288208 -0.05300324 0.06383918 -0.056137413 0.071636856 -0.060310498
0.042191625 0.063602634
00000000: b1f1 8f3d 2e98 5f3d 52c8 80bd ed19 59bd
00000010: 1ebe 823d 58f0 65bd 58b6 923d 2408 77bd
00000020: 20d1 2c3d 1942 823d

in_proj_weight f4 [30, 10]
0.19511625 -0.22279999 0.25282165 -0.4351877 0.02761795 -0.44289204 -0.12102675 -0.14013697
0.17046121 0.15410772 -0.11168081 -0.25355595 0.40397066 -0.28157327 0.24565734 -0.28165552
-0.2281496 -0.08121636 -0.029944578 -0.02974226 0.41234472 -0.15655847 -0.039523188 0.24690127
0.33960888 0.026682317 -0.18430088 0.43142548 -0.012484567 -0.09727845 -0.2879282 -0.030658225
0.07906476 0.27376753 0.109520786 -0.280071 0.26342958 -0.26495796 0.27707732 -0.05578587
-0.19120477 -0.4203782 -0.27445796 0.21417484 0.25712273 -0.011085173 0.12609349 0.035855554
0.26534295 -0.14385197 0.2813139 0.07306039 0.22171122 0.2860269 -0.14388564 0.40323585
0.48660317 0.34354597 0.10662395 0.23721914 0.15471242 0.021282041 0.27084556 0.30766544
0.013404568 0.28698072 -0.21189485 -0.15647468 0.24208568 -0.19859324 0.15481123 0.19032755
-0.3660675 0.35829133 -0.31380227 0.09245009 0.38724282 0.2715087 0.040369995 -0.1695749
-0.32979167 0.053647418 0.16492474 -0.3873123 -0.13358802 -0.014451824 -0.2812141 -0.26997307
0.2756756 -0.26892856 0.1000681 0.3054533 -0.050783243 0.36524135 0.09248538 -0.23803036
0.103783324 0.022195213 0.40614462 -0.12478281 -0.053731646 0.03808292 0.1901253 -0.37879097
0.11577491 -0.20665057 0.37496436 0.04693817 0.1705983 0.0686342 -0.25774467 0.2987876
-0.058094624 0.37121102 -0.2093399 -0.17990713 -0.11985805 0.063259274 0.35433474 0.111185834
0.047876406 -0.097997054 -0.20822799 0.11426597 -0.15814929 0.01401055 0.1375175 -0.003943313
0.16505076 0.3707252 -0.0987233 0.3451238 -0.2217652 -0.11531128 -0.29491842 -0.09697411
-0.16610976 -0.05993505 0.054115318 -0.18082662 -0.082678095 0.28700376 -0.113332294 0.008617231
-0.013568178 0.23959728 0.1066414 0.09264065 0.30225062 0.30761704 -0.11942508 -0.36593875
-0.021888575 -0.027906258 0.03942325 -0.07414021 0.23128676 -0.19833128 0.14629258 0.005315274
0.34458143 0.14533827 -0.2073313 -0.015891375 0.014114036 0.56848633 0.04199391 0.2164708
-0.5623059 -0.017841982 -0.0037429954 -0.08297124 0.3193102 -0.280303 0.07920404 -0.010537535
-0.15293157 0.2351852 -0.19317178 -0.09649273 0.06606795 -0.17742908 -0.34971648 -0.13320403
0.21571815 -0.25741562 -0.033284947 -0.014252601 -0.42789978 -0.1562876 0.32083124 -0.3157628
-0.054586273 0.084937714 -0.07972372 -0.22506985 0.22086242 0.14918 -0.27989444 -0.29803413
0.38788795 -0.36346912 -0.110383734 -0.22826345 0.25098723 -0.15364997 -0.05323365 0.05689483
-0.16105726 0.35348588 0.06462896 -0.12168327 0.42770284 -0.042683005 -0.09296749 0.29814154
-0.2817734 -0.046092063 -0.24273445 -0.15771203 0.32280335 0.31879285 0.1384218 -0.25963563
-0.093732074 -0.24775319 -0.16298884 -0.19238177 0.22867963 0.16014868 0.2884882 0.039366577
0.2781681 -0.3641237 0.4054642 0.29766625 0.38179356 -0.32389262 -0.3336267 -0.03347711
0.054084767 -0.12649274 -0.18966787 -0.009725494 -0.2343031 -0.14307429 -0.47317758 -0.23892279
-0.32308438 0.20398398 -0.0728413 0.330017 0.39912805 -0.39091393 -0.15491454 -0.30178228
00000000: 8ecc 473e ae25 64be d771 813e ecd0 debe
00000010: 0a3f e23c bfc2 e2be dfdc f7bd 1180 0fbe
00000020: 628d 2e3e 6ace 1d3e e9b8 e4bd 16d2 81be
00000030: 3ed5 ce3e 5f2a 90be 998d 7b3e 2735 90be
00000040: 0ca0 69be c354 a6bd 554e f5bc 0aa6 f3bc
00000050: d91e d33e dd50 20be 11e3 21bd b0d3 7c3e
00000060: 37e1 ad3e e094 da3c 5fb9 3cbe cde3 dc3e
00000070: 128c 4cbc ed39 c7bd 536b 93be f526 fbbc
00000080: b4ec a13d 422b 8c3e 6f4c e03d 7765 8fbe
00000090: 3ee0 863e 92a8 87be 14dd 8d3e b97f 64bd
000000a0: 2fcb 43be d03b d7be c185 8cbe a650 5b3e
000000b0: 97a5 833e 969e 35bc a71e 013e 46dd 123d
000000c0: 08db 873e ee4d 13be 6008 903e b0a0 953d
000000d0: 4408 633e 1e72 923e c256 13be ee74 ce3e
000000e0: 0d24 f93e 42e5 af3e a85d da3d 93e9 723e
000000f0: ef6c 1e3e ad57 ae3c 45ac 8a3e 5386 9d3e
00000100: d59e 5b3c 23ef 923e f7fa 58be e63a 20be
00000110: 4fe5 773e 075c 4bbe d686 1e3e 3ae5 423e
00000120: 336d bbbe f671 b73e b1aa a0be 7956 bd3d
00000130: b144 c63e 3003 8b3e 025b 253d 0ba5 2dbe
00000140: 74da a8be 65bd 5b3d 08e2 283e cc4d c6be
00000150: 4ccb 08be 58c7 6cbc 4bfb 8fbe e939 8abe
00000160: 5a25 8d3e 01b1 89be 81f0 cc3d 6064 9c3e
00000170: 1702 50bd ea00 bb3e fa68 bd3d 3bbe 73be
00000180: 5a8c d43d bcd2 b53c 30f2 cf3e 218e ffbd
00000190: b715 5cbd d6fc 1b3d 35b0 423e e4f0 c1be
000001a0: 651b ed3d 359c 53be 54fb bf3e 3d42 403d
000001b0: 52b1 2e3e 1690 8c3d 1cf7 83be b0fa 983e
000001c0: a1f4 6dbd 5f0f be3e 335d 56be 9339 38be
000001d0: 2378 f5bd 148e 813d 5d6b b53e 66b5 e33d
000001e0: 0d1a 443d aeb2 c8bd b839 55be 4704 ea3d
000001f0: e3f1 21be 828c 653c 63d1 0c3e e836 81bb
00000200: 1103 293e b2cf bd3e 712f cabd 11b4 b03e
00000210: 6b16 63be 5228 ecbd 8cff 96be 5d9a c6bd
00000220: ad18 2abe 747e 75bd 06a8 5d3d 9d2a 39be
00000230: 2253 a9bd 28f2 923e c31a e8bd 492f 0d3c
00000240: 104d 5ebc fd58 753e ce66 da3d 62ba bd3d
00000250: 98c0 9a3e fb7f 9d3e 2395 f4bd 535c bbbe
00000260: ab4f b3bc aa9b e4bc 467a 213d d3d6 97bd
00000270: 70d6 6c3e 5b17 4bbe b9cd 153e c02b ae3b
00000280: fa6c b03e 8ed3 143e a84e 54be a12e 82bc
00000290: 8f3e 673c 5288 113f ce01 2c3d 85aa 5d3e
000002a0: 48f3 0fbf 5929 92bc 0b4d 75bb d3ec a9bd
000002b0: a07c a33e e083 8fbe ba35 a23d a0a5 2cbc
000002c0: 189a 1cbe 64d4 703e d3ce 45be fb9d c5bd
000002d0: a24e 873d f8af 35be 0a0e b3be a366 08be
000002e0: 38e5 5c3e fbcb 83be cc55 08bd be83 69bc
000002f0: ae15 dbbe db09 20be fe43 a43e a9ab a1be
00000300: db95 5fbd d3f3 ad3d 3146 a3bd b678 66be
00000310: c229 623e a4c2 183e 534e 8fbe ee97 98be
00000320: 4099 c63e a018 babe de10 e2bd e5bd 69be
00000330: 6681 803e 6b56 1dbe 870b 5abd 8e0a 693d
00000340: 32ec 24be 1afc b43e 305c 843d 1435 f9bd
00000350: defb da3e 60d4 2ebd bd65 bebd 02a6 983e
00000360: 9a44 90be 08cb 3cbd 618f 78be 437f 21be
00000370: 7b46 a53e d138 a33e 72be 0d3e f6ee 84be
00000380: 9af6 bfbd 03b3 7dbe 8ce6 26be baff 44be
00000390: fe2a 6a3e 04fe 233e bab4 933e d93e 213d
000003a0: 0d6c 8e3e 6c6e babe 0199 cf3e b667 983e
000003b0: 727a c33e 41d5 a5be 1ed1 aabe 4b1f 09bd
000003c0: fd87 5d3d 5087 01be 4b38 42be ae57 1fbc
000003d0: 27ed 6fbe 1182 12be 5544 f2be 2da8 74be
000003e0: 516b a5be 2de1 503e d22d 95bd fdf7 a83e
000003f0: 835a cc3e df25 c8be eba1 1ebe 3583 9abe

in_proj_bias f4 [30]
0.09534844 -0.060966592 -0.06022079 0.06318928 -0.058558393 -0.053252265 0.05266433 0.01368653
0.06362838 0.06312288 0.00017170687 5.5911878e-05 -0.00016024969 0.0001239071 2.2511142e-05 1.2545956e-05
0.00016418786 6.875297e-05 3.2532105e-05 -3.008723e-05 -0.053985424 -0.06430536 0.05717372 -0.028735353
-0.0742295 -0.05500458 0.060267303 -0.06374312 0.038941972 0.06355318
00000000: 0b46 c33d 1bb8 79bd 13aa 76bd 6269 813d
00000010: edda 6fbd 0c1f 5abd 8db6 573d 783d 603c
00000020: 994f 823d 9246 813d 360c 3439 ec82 6a38
00000030: b308 28b9 0fed 0139 4fd6 bc37 797c 5237
00000040: d829 2c39 782f 9038 1573 0838 d663 fcb7
00000050: d21f 5dbd 87b2 83bd fe2e 6a3d 6766 ebbc
00000060: a305 98bd 7c4c 61bd d9da 763d c18b 82bd
00000070: 9e81 1f3d 2b28 823d

weight f4 [10, 10]
-0.33224735 0.45201278 0.31135172 -0.07045314 0.16144083 0.41444042 -0.40461576 -0.20666662
-0.43957576 0.04173979 -0.49842155 0.3810291 0.22551613 0.07476282 0.0263151 -0.48860464
0.11135942 0.2052542 0.3039954 -0.47152057 -0.03413455 0.46496063 0.03547542 -0.18270747
0.3709033 0.040905014 0.2698903 0.052928865 0.30170396 0.101502694 -0.268855 -0.31196663
0.013584836 0.51144224 -0.12887411 0.119552515 -0.3069752 0.08075843 0.07763512 0.21529765
0.3346084 0.5744754 -0.017975977 0.44026014 0.21237077 -0.53959763 -0.42673662 -0.08284989
0.15813142 0.30613366 0.38650778 -0.10429296 -0.10553998 0.041317582 -0.2094345 0.47777423
0.04102845 -0.62941694 -0.37032494 -0.18228768 -0.12744486 -0.5075798 -0.025557201 0.06565686
-0.55479974 0.44343165 0.25701755 -0.52302295 -0.030061731 0.4292593 0.59400994 0.5421037
-0.35115093 0.50353354 -0.036384907 0.36955202 -0.246591 -0.3160388 -0.27646428 -0.485483
0.35669935 -0.29642725 0.47015664 -0.06383456 -0.3270794 -0.48151392 -0.4532188 0.11311615
-0.4457258 -0.21258092 0.065058306 -0.17505093 0.35730547 0.28724483 -0.25697938 -0.15920274
0.2130587 -0.523375 -0.54718477 -0.21119562
00000000: 531c aabe 386e e73e 7e69 9f3e bc49 90bd
00000010: bf50 253e 8931 d43e cc29 cfbe 6aa0 53be
00000020: 1310 e1be 58f7 2a3d 1c31 ffbe 3f16 c33e
00000030: b3ed 663e 401d 993d c492 d73c 632a fabe
00000040: 6810 e43d 282e 523e 49a5 9b3e 256b f1be
00000050: abd0 0bbd 520f ee3e ad4e 113d ab17 3bbe
00000060: 0ae7 bd3e 048c 273d 102f 8a3e f0cb 583d
00000070: f178 9a3e a5e0 cf3d 5da7 89be 17ba 9fbe
00000080: ef92 5e3c e1ed 023f 93f7 03be f3d7 f43d
00000090: da2b 9dbe ad64 a53d 29ff 9e3d fd76 5c3e
000000a0: cb51 ab3e d210 133f 5b42 93bc c769 e13e
000000b0: b977 593e 1223 0abf 397d dabe 34ad a9bd
000000c0: 34ed 213e 8dbd 9c3e 59e4 c53e 8c97 d5bd
000000d0: 5825 d8bd a03c 293d ff75 56be d39e f43e
000000e0: 730d 283d 7821 21bf 3b9b bdbe 9fa9 3abe
000000f0: e880 02be c0f0 01bf 565d d1bc 1b77 863d
00000100: 5b07 0ebf 7909 e33e ce97 833e d5e4 05bf
00000110: 0544 f6bc e0c7 db3e 0911 183f 4fc7 0a3f
00000120: 0eca b3be 93e7 003f 5708 15bd ec35 bd3e
00000130: 5a82 7cbe d6cf a1be ba8c 8dbe 3a91 f8be
00000140: 4ca1 b63e 50c5 97be 5fb8 f03e b2bb 82bd
00000150: f376 a7be fe88 f6be 4b0c e8be 71a9 e73d
00000160: 2c36 e4be d0ae 59be 4a3d 853d 8d40 33be
00000170: bef0 b63e c111 933e cd92 83be 0b06 23be
00000180: 0f2c 5a3e e7fb 05bf 4d14 0cbf aa43 58be

bias f4 [10]
-0.057678837 0.05373524 -0.08719727 -0.062349666 -0.04835913 0.1110785 0.066062376 -0.05790868
0.01042087 0.06657645
00000000: a540 6cbd 7c19 5c3d 7b94 b2bd 5d62 7fbd
00000010: 3914 46bd 207d e33d b64b 873d a731 6dbd
00000020: 4cbc 2a3c 3c59 883d

weight f4 [2048, 10]
0.07039715 0.07601229 0.0030672017 -0.11336198 0.07484725 -0.06911232 -0.037331417 -0.043778192
-0.005793662 0.04198315 0.06132266 0.02805546 0.04823337 0.037341945 -0.069382295 -0.10913212
-0.018220074 0.017609317 0.038482573 -0.04098236 0.024488088 0.03751302 0.05582982 0.059818156
-0.05296863 0.00022708577 -0.064751185 0.053681076 0.030658584 -0.04748976 0.056906227 0.04314574
0.05468761 0.049353957 -0.05728864 -0.014420024 -0.04907022 0.047446582 0.033242114 -0.05602864
-0.12347808 -0.04526001 -0.09099679 0.0016870033 -0.11074624 0.07278823 0.09855794 -0.010025218
0.07485515 0.13368121 0.042397536 -0.0258445 0.06505663 0.058368906 -0.05515587 0.0010325604
-0.060652465 0.058528677 0.047328617 -0.059340987 0.06975756 0.046531245 0.06852577 -0.15088308
0.10215144 -0.011635418 0.02643909 -0.08836013 -0.0053215204 0.25692967 -0.115618065 0.15270345
-0.055778906 0.048658423 -0.15568346 0.101036 0.014530968 -0.06988994 0.113951355 -0.01200921
-0.038890462 0.054817144 0.01286158 -0.13046567 0.07228818 -0.110653475 -0.06260117 -0.047748275
-0.015743334 0.07563726 0.03139879 0.03089797 0.030588986 0.029484937 0.0020995284 -0.032236777
-0.02964783 0.024966797 -0.06013654 -0.03270651 0.04165378 0.07586464 0.049313255 0.07850296
0.010474005 -0.03085778 -0.09194189 0.030153085 -0.057121202 -0.093852244 -0.038059484 -0.10651416
-0.04132039 0.03415435 -0.036679562 -0.001233736 0.05255753 0.013790097 0.09166095 -0.009443482
-0.093436725 -0.11589977 -0.09791665 0.05659018 -0.091744915 0.05653061 0.021992113 0.03932471
0.090799846 0.07014149 0.06409633 0.0976242 0.059131652 0.060151126 -0.048548207 -0.052387763
-0.06183221 0.056411017 -0.023161208 -0.06095028 0.00030340662 0.071902946 0.04483658 0.046491586
-0.049147997 -0.03562065 -0.053606395 0.0429528 0.032024637 -0.04423953 -0.04258383 -0.015369161
-0.049067594 0.021290118 -0.065717615 0.048660386 0.037997637 0.03276101 0.08710942 -0.03519367
-0.10670353 0.013152635 -0.12249914 -0.07602641 -0.050694928 0.059493657 0.10005137 -0.09631271
0.0129221 0.103256635 -0.110125095 -0.09872587 -0.13282727 -0.088169195 -0.05158893 0.056597464
0.17422423 -0.0072829104 0.073590316 0.15613805 -0.09204805 -0.03905637 0.092319556 0.045324333
0.09938666 0.07947167 -0.078328244 0.07826711 -0.054279987 0.021100331 0.010325982 0.080997124
0.06417515 -0.05632338 0.08637621 -0.1041223 -0.052507576 -0.047836203 -0.043460663 0.053360034
-0.06437967 -0.017862953 0.14901908 0.0072772657 -0.10720025 -0.016612059 0.05171421 0.028333498
0.051285386 0.030040037 0.07592349 -0.056682073 0.05381522 0.027439116 0.022626681 0.020003263
-0.0724239 0.029900394 0.030290913 -0.0519061 -0.026109997 -0.11150663 -0.10093376 0.008224496
-0.103415236 0.06976772 0.09057625 0.07747229 0.07004432 -0.065449074 0.0682289 0.08314215
0.007848624 -0.055472553 0.077264905 -0.042406395 -0.010406238 -0.08433494 -0.055062234 0.060145
-1.3581936e-05 -2.295633e-05 0.052499957 0.0051612793 0.0037460271 -0.0037327125 -0.05161467 0.04209407
-0.00023224259 -0.038535982 0.003977504 1.575809e-05 0.047053374 0.035839323 -0.02355651 -0.008348597
00000000: 622c 903d 55ac 9b3d 1b03 493b 532a e8bd
00000010: 8449 993d c38a 8dbd d4e8 18bd c350 33bd
00000020: c2d8 bdbb 86f6 2b3d 782d 7b3d 90d4 e53c
00000030: 5b90 453d def3 183d 4e18 8ebd a980 dfbd
00000040: 4442 95bc 6a41 903c e79f 1d3d 1edd 27bd
00000050: 3e9b c83c 41a7 193d cfad 643d e203 753d
00000060: a2f5 58bd df1d 6e39 459c 84bd b0e0 5b3d
00000070: b627 fb3c 9f84 42bd 8116 693d 96b9 303d
00000080: 1e00 603d 6027 4a3d 7ea7 6abd f741 6cbc
00000090: dbfd 48bd 5957 423d e228 083d 4a7e 65bd
000000a0: 13e2 fcbd 8f62 39bd 865c babd 701e dd3a
000000b0: edce e2bd ff11 953d bfd8 c93d d040 24bc
000000c0: a84d 993d bae3 083e 0aa9 2d3d d8b7 d3bc
000000d0: 693c 853d 3c14 6f3d 1feb 61bd fa56 873a
000000e0: b86e 78bd c4bb 6f3d a7db 413d 890f 73bd
000000f0: 0ddd 8e3d 8c97 3e3d 3d57 8c3d 1881 1abe
00000100: c634 d13d 7ba2 3ebc ca96 d83c 28f6 b4bd
00000110: 2660 aebb 498c 833e 2ac9 ecbd 4b5e 1c3e
00000120: 6c78 64bd 0e4e 473d 7c6b 1fbe f6eb ce3d
00000130: 4c13 6e3c 7522 8fbd 545f e93d 47c2 44bc
00000140: 9b4b 1fbd f187 603d 60b9 523c cb98 05be
00000150: d30b 943d 4a9e e2bd 0b35 80bd b293 43bd
00000160: 2af8 80bc b5e7 9a3d 059c 003d bd1d fd3c
00000170: c195 fa3c 658a f13c 3e98 093b b60a 04bd
00000180: 02e0 f2bc 2b87 cc3c bc51 76bd 43f7 05bd
00000190: 279d 2a3d ec5e 9b3d b2fc 493d 29c6 a03d
000001a0: 299b 2b3c 74c9 fcbc 084c bcbd 9a03 f73c
000001b0: ecf7 69bd 9b35 c0bd 43e4 1bbd 1924 dabd
000001c0: 923f 29bd 6fe5 0b3d 4f3d 16bd 50b5 a1ba
000001d0: 9146 573d dcef 613c bcb8 bb3d d6b8 1abc
000001e0: c15b bfbd dc5c edbd 8688 c8bd 1bcb 673d
000001f0: c2e4 bbbd a48c 673d ce28 b43c f212 213d
00000200: 45f5 b93d 57a6 8f3d f044 833d 32ef c73d
00000210: 0834 723d 0761 763d 7cda 46bd 8d94 56bd
00000220: c543 7dbd 3d0f 673d 93bc bdbc 00a7 79bd
00000230: 8c12 9f39 da41 933d 90a6 373d f66d 3e3d
00000240: 694f 49bd f5e6 11bd 6192 5bbd 46ef 2f3d
00000250: 442c 033d 8234 35bd 626c 2ebd efce 7bbc
00000260: 1afb 48bd 9d68 ae3c f596 86bd 1d50 473d
00000270: 69a3 1b3d 6930 063d 6c66 b23d 3d27 10bd
00000280: 6187 dabd 267e 573c d4e0 fabd bcb3 9bbd
00000290: 7ca5 4fbd 9faf 733d bce7 cc3d 993f c5bd
000002a0: 37b7 533c 3778 d33d 4489 e1bd ca30 cabd
000002b0: df03 08be 0d92 b4bd ea4e 53bd bed2 673d
000002c0: d667 323e 7ba5 eebb 85b6 963d a7e2 1f3e
000002d0: b083 bcbd 92f9 1fbd 0912 bd3d 02a6 393d
000002e0: 3c8b cb3d 0bc2 a23d 8f6a a0bd 824a a03d
000002f0: b154 5ebd 9ada ac3c 4f2e 293c d2e1 a53d
00000300: 436e 833d 58b3 66bd 03e6 b03d 133e d5bd
00000310: 2f12 57bd e5ef 43bd cf03 32bd 0d90 5a3d
00000320: 7dd9 83bd 5455 92bc 7598 183e 2176 ee3b
00000330: ce8b dbbd 0316 88bc 48d2 533d a71b e83c
00000340: a010 523d 8616 f63c c67d 9b3d 762b 68bd
00000350: 596d 5c3d ffc7 e03c 975b b93c e2dd a33c
00000360: fb52 94bd acf1 f43c a624 f83c 7e9b 54bd
00000370: a2e4 d5bc 975d e4bd 5cb6 cebd 09c0 063c
00000380: 5ecb d3bd 61e2 8e3d 0a80 b93d cba9 9e3d
00000390: 6573 8f3d 2a0a 86bd 98bb 8b3d 6e46 aa3d
000003a0: 8497 003c 3037 63bd 103d 9e3d 54b2 2dbd
000003b0: ed7e 2abc ccb7 acbd f088 61bd 9b5a 763d
000003c0: f9dd 63b7 5892 c0b7 320a 573d f31f a93b
000003d0: e87f 753b 86a0 74bb e769 53bd d56a 2c3d
000003e0: 2586 73b9 e8d7 1dbd b955 823b 3e30 8437
000003f0: 0abb 403d 41cc 123d 95f9 c0bc 8ec8 08bc
