Comparative_Evaluation/Baselines/Transformer/models_m/model102.pt (torch, 369273 bytes, 36 tensors)

in_proj_weight f4 [30, 10]
00000000: e3a9 d13d 94c5 8cbe 765c afbb 2130 b53e
00000010: 7186 013e 8e35 3a3e 38cb 433d ae03 00be
00000020: 94a7 5c3e ea87 6bbe e47f be3e f39e 5fbc
00000030: a0bf d93d 3125 fbbd 844d e83c e186 ecbd
00000040: 0dc7 fe3d dce5 9abc 2823 efbd 765a d4bd
00000050: e1a6 d43e 3959 773d 77cd 95be 04ad 2f3e
00000060: 5d98 1cbe 9c02 a03e 29a4 01be 2d81 5b3e
00000070: ad5a c53e 6c63 893c 0cb7 10be d20c 91bd
00000080: 105c 693e 470a 063e 008b 573e fe2f f23d
00000090: 94d3 083e 976b 70be 4cbd 543d d92d 853e
000000a0: cfa0 bcbc ef15 a33e ef30 d1bd 29f1 c43e
000000b0: 7b23 353e d28d f8bb 076d 9dbe dd14 9e3e
000000c0: 600a f73d 653c 883e aa6f 633e 5110 b03d
000000d0: 5533 5b3d 9a27 dd3d 0904 063e 7b47 943d
000000e0: 99f8 17be 88c5 c03d 5da4 8d3e f0ee 56be
000000f0: a7ab 453e 7082 973d 6315 8ebe 4086 15bd
00000100: 778b dbbd 3b88 82be e73b b53e 27b1 95bd
00000110: 63dc a2be bd87 6bbe f054 a33e f461 b73e
00000120: af34 cf3e ab88 353d 2839 a3be e6b5 233e
00000130: bce5 9ebe 42b0 a8be e84b 21bd 1826 1cbd
00000140: fca4 e33d 018d 8b3e 760c aebe dfae a23e
00000150: 1a77 273e 50ea 8dbe 5aba f7bd e12a 92bc
00000160: 8495 3fbe 3230 babe 5eb1 02bd 20cd 133e
00000170: b99c 8cbe 463a ce3e 8d9c bb3e de8d 1b3d
00000180: c116 5abe 696b 85be 96b4 cc3e 3c44 bc3e
00000190: f645 d1bd 19c8 1abe a256 ccbd 42da ce3d
000001a0: 1eea 0d3d b297 e33d 48ea 173e 1a7f aabe
000001b0: 2e4e 8fbe 4dc5 acbe 642b 9f3e 42a2 01be
000001c0: e5ac 043d a37d 19be f0dc c5be 582a d0bd
000001d0: d9df 9ebc f6d3 18be 8d75 003f 1702 d2bd
000001e0: 65a6 833e 5fde b23e 34cd f13c 6efa 883e
000001f0: 4dda 813e 50b5 07be 1eff 153e e9db 7b3e
00000200: 0a2a 74be 3121 d73d f484 91be 4ee2 12be
00000210: 27bc 68be a1ac 5c3d fbf6 913e ca4d 263d
00000220: 6a0d 7e3e f9c0 b8be 2352 b6be 5121 57be
00000230: 94a1 043e 1fb1 c23e 5b31 2bbe fb59 afbd
00000240: ffb9 793e 9025 9abd 5e6e dd3c 1de3 fdbd
00000250: 8703 b4be a9bf 00be 659b c83e e45f 80bd
00000260: 6a6d 133e 9ea3 1d3e 51a4 7d3e 2c8e 66be
00000270: e8f1 3cbe 5746 ff3d 4743 033e 5f43 083e
00000280: 5a75 b0be b8c4 253e a3d9 c5bd 5a66 6ebe
00000290: 942c 963e 04e6 94bd 0ebf c9bd 7020 20be
000002a0: def8 743e 2178 80be bd7d dabe 4a46 cabc
000002b0: 6d64 3bbe 718c 61be 6a32 d53e 92ce 03bd
000002c0: 1acd a2be ff45 503e 8c3a 6b3e 6782 013d
000002d0: 85c2 89be e594 473e 00b6 e2bc 7b29 923e
000002e0: 89c0 6e3e caf0 cc3e 78d7 5a3e b2e9 b03e
000002f0: 80b3 843e 29b6 bd3d eb27 7c3e fbc1 e03e
00000300: 0a9e 993e 539e 813d 1c0f e6bc 43b8 593e
00000310: c539 abbe 5cb0 063b b416 51bd aeab 623e
00000320: 5df9 bcbe b7c7 e5be b8e9 23be e03d 76be
00000330: a42f 993e 2398 35be dbe9 acbe 8b71 4fbd
00000340: e3d1 6c3d ad46 29be 5cd6 043e bacf ea3e
00000350: dcfa 09be 554f a5bd a6cf 98be 5677 0d3e
00000360: 70d6 7d3e 5d97 d63e 7853 83be 92b6 d6bb
00000370: 43bd a9be f726 243e 0acc 85be af6b aabe
00000380: d3f8 873d db5f d6bd bd84 283e a100 86bd
00000390: b40c b4bd f7b4 e23d 5b32 9bbd b668 95bd
000003a0: 03ee 1b3d 4dae 663e 2966 98be 865d b23e
000003b0: 28e5 7e3e c864 fcbd 7bc8 d73e 62bb 85be
000003c0: 8059 6f3d 14fd 9b3d d0ee ccbe c0bf 003c
000003d0: 8802 a1be 6f4e a93d a05b 51be 1894 d5be
000003e0: 9ef3 94be 7dcb 07be b9d8 973e 23b7 38be
000003f0: f85c 28bd 4020 8fbe c2f4 8e3e 4807 8cbe
0.102374814 -0.2749449 -0.0053515984 0.35388282 0.12648942 0.18184492 0.047801226 -0.12501404
0.21548301 -0.23001066 0.37206948 -0.013648736 0.10632253 -0.12262953 0.028357275 -0.115491636
0.1244031 -0.018908434 -0.116766274 -0.103688166 0.41533569 0.060387824 -0.2925832 0.17155844
-0.15292497 0.3125199 -0.12660278 0.21435995 0.38545743 0.01677104 -0.14132327 -0.070825234
0.22789025 0.13089858 0.21049118 0.1182556 0.1336196 -0.23478542 0.05193834 0.2601154
-0.023025898 0.31852672 -0.102144115 0.3846524 0.17689316 -0.0075852657 -0.30747244 0.30875292
0.12062526 0.26608577 0.22210565 0.08596862 0.05351575 0.10798569 0.13087477 0.07240196
-0.14840926 0.09412676 0.27664462 -0.20989585 0.19303761 0.07397926 -0.27750692 -0.036504984
-0.1071996 -0.2549456 0.35397264 -0.0730918 -0.31808767 -0.23000999 0.3190074 0.3581692
0.40469882 0.04431979 -0.31879544 0.15987357 -0.31034648 -0.32946974 -0.03937903 -0.038122267
0.11115453 0.27256015 -0.33993882 0.3177404 0.16354027 -0.2771783 -0.120960906 -0.017842712
-0.1870938 -0.36364895 -0.03190743 0.14433718 -0.2746332 0.40278834 0.36642876 0.037977092
-0.21297742 -0.2605851 0.39981526 0.3677081 -0.10218422 -0.15115394 -0.099774614 0.10100223
0.0346471 0.11112918 0.14835465 -0.33300096 -0.27989334 -0.3374428 0.31087792 -0.12659553
0.032391448 -0.14989333 -0.38645124 -0.101643264 -0.019393848 -0.14924607 0.5017937 -0.10254305
0.25712886 0.3493528 0.029516794 0.26753563 0.25361863 -0.13252759 0.146481 0.24595608
-0.23844162 0.10504378 -0.28421748 -0.14344141 -0.22728024 0.05387557 0.28508744 0.04060153
0.24809805 -0.36084726 -0.3560954 -0.21008803 0.12952262 0.38025758 -0.16718046 -0.08562084
0.24387358 -0.07526696 0.027030166 -0.12396834 -0.3515894 -0.12573113 0.39181057 -0.0626829
0.14397207 0.15394446 0.24769713 -0.22515172 -0.18451655 0.12464588 0.12818633 0.1330695
-0.34464532 0.16188323 -0.096606515 -0.23281232 0.29330885 -0.072704345 -0.09850894 -0.15637374
0.2392306 -0.2509165 -0.42674056 -0.02469172 -0.18300028 -0.2202623 0.41640025 -0.032179423
-0.31797105 0.20339201 0.22971553 0.031618502 -0.2690622 0.19490393 -0.027674675 0.28547272
0.23315634 0.40027457 0.21371257 0.34553295 0.25918198 0.0926326 0.24624602 0.43897995
0.30003387 0.06329026 -0.028083377 0.21261697 -0.33442512 0.0020551896 -0.051047042 0.22135803
-0.36909 -0.44878933 -0.16007125 -0.24047041 0.2991916 -0.17733817 -0.33772168 -0.050645392
0.05781735 -0.16530867 0.12972397 0.45861608 -0.13474602 -0.08071772 -0.29845923 0.13815054
0.24788833 0.41912356 -0.2564962 -0.006552526 -0.33152208 0.16030489 -0.26132232 -0.3328528
0.06639256 -0.10467502 0.16456886 -0.06543089 -0.087914854 0.110696726 -0.07577964 -0.07295363
0.038068783 0.22527428 -0.29765442 0.34836978 0.24892104 -0.1232391 0.42145142 -0.26119524
0.058434963 0.0761663 -0.4002595 0.007858217 -0.31447244 0.08266913 -0.20445108 -0.4171455
-0.29092115 -0.13261218 0.29657534 -0.18038611 -0.041104287 -0.27954292 0.2792111 -0.27349305

in_proj_bias f4 [30]
00000000: 66ed 7e3d ecd8 40bd f251 893d 3b2c 90bd
00000010: bdf7 943c 1663 a8bd 616c 933d 27c0 883d
00000020: 01c1 93bd 9163 39bc c0dd 56b5 2287 97b8
00000030: 46b8 12b8 0655 f1b7 d015 50b6 f08a 9736
00000040: d9c3 23b7 367c 8b36 4103 7eb7 2ebc 03b7
00000050: 7e75 9abd 8664 983d 25fe 67bd c09d 043d
00000060: 9b8d 7cbd 60b0 503d 4201 19bd 2098 463d
00000070: 7b67 963d 32cf b43d
0.06223812 -0.047081873 0.06705083 -0.07039686 0.018184537 -0.08222024 0.07198406 0.06677275
-0.07214547 -0.011315242 -8.00439e-07 -7.2254115e-05 -3.498073e-05 -2.876903e-05 -3.1007112e-06 4.516325e-06
-9.761156e-06 4.156983e-06 -1.5140337e-05 -7.8520225e-06 -0.07541941 0.07441048 -0.056638855 0.032377005
-0.061658483 0.050949454 -0.037354715 0.04848492 0.07343956 0.08828582

weight f4 [10, 10]
00000000: aae7 fc3e cff2 a7be 3055 4a3e a010 a4be
00000010: 7d01 973e 4d98 f23e 8fa9 b13e fe49 c13e
00000020: 5304 92bd 42e6 fdbe 266b bebe 55bf b1be
00000030: e407 c7be f79e b13d a95e f33d 58ba 8c3e
00000040: 0c19 e8bd 9c10 8a3e 93cf a83e 6dc1 89be
00000050: ccb6 97bd 92c3 55be 7f2c 36be 2706 b13d
00000060: bc1e a03d 8071 f9be 5ca3 ec3b 74e0 a0be
00000070: 136f a1be 3739 983e 81c1 983e d760 bdbe
00000080: abd6 033e 973e cd3e 5162 043e 0dae b9bd
00000090: a6bd 8cbd 1ba2 a63e e578 1abf 8ed6 48be
000000a0: fe08 33bd ba0d fd3e 0587 e0be f6c7 febe
000000b0: eaa9 963e e0fe 4ebe 18aa 77be 944f ac3e
000000c0: 5abd c73d b723 fb3e 3249 6cbe f610 d5bd
000000d0: 343d f53d bbc0 f4bd af76 eebe b7c5 dbbe
000000e0: a2a9 8a3b 50c5 e33e 227e 94bd 0154 0d3e
000000f0: 15b5 e6be 4156 df3e 6069 e83e af70 3ebe
00000100: 5b3e d0be e952 883e 8310 3d3d 19dd a6be
00000110: 40cc 09be 6050 c53e 5eb0 ef3e 3990 1dbe
00000120: f61e d73e f50c 88be f83d d2be 13b3 45be
00000130: a905 fa3c ef0b 92bd c8ae 91be 3c05 19bb
00000140: d559 303e 5124 ec3d bcf3 f2bd 1fee f13e
00000150: 2662 0f3f cf7f 8a3e eeaf 18bf 8ef3 013e
00000160: 124e 353d 3e62 c7be 2315 00bf 72fa ca3d
00000170: 4089 693d 5e85 0f3f aeda cfbe 2d18 853e
00000180: 8e1d 41be 0bba d13e ab40 db3d c6bc 813c
0.49395496 -0.32802436 0.19759059 -0.32043934 0.29493323 0.4738182 0.34699675 0.37751764
-0.07129731 -0.49589735 -0.37191123 -0.34716287 -0.38873208 0.08672898 0.11883289 0.2748592
-0.11332902 0.26965797 0.32970867 -0.26905385 -0.074079126 -0.20875385 -0.17790411 0.086437516
0.07818362 -0.48719406 0.0072216224 -0.31421244 -0.31530055 0.2973115 0.29835132 -0.36987945
0.12874858 0.40086815 0.1292813 -0.09066401 -0.0687211 0.32545552 -0.6034072 -0.19613096
-0.043709747 0.49424535 -0.43853012 -0.49761933 0.2942651 -0.20214415 -0.2418598 0.33654463
0.09752913 0.49050686 -0.23074797 -0.10403626 0.11974564 -0.11950823 -0.46574923 -0.42924282
0.0042316476 0.44486475 -0.072506204 0.13801576 -0.4506003 0.43620494 0.45392895 -0.18597673
-0.40672573 0.26625755 0.046158325 -0.3259056 -0.13456821 0.38537884 0.46814245 -0.15387048
0.4201581 -0.26572385 -0.41062903 -0.19306593 0.030520277 -0.071311824 -0.2845366 -0.0023349067
0.17221768 0.11530364 -0.11862895 0.47251984 0.5600914 0.27050635 -0.5964345 0.12690565
0.044263907 -0.3894214 -0.5003225 0.0991105 0.057015657 0.5606288 -0.40596527 0.25995007
-0.1885893 0.40962252 0.10705694 0.015837085

bias f4 [10]
00000000: 6a86 c3bd fa08 8c3d e84b 38bd 8343 563d
00000010: cc0e 25bd 989b 8f3d 34a3 423d 7aa1 87bd
00000020: d7dd 70bd 009d 3d3d
-0.09547122 0.0683765 -0.044994265 0.052310478 -0.040297315 0.07012099 0.047518924 -0.06622596
-0.058805313 0.046292305

weight f4 [2048, 10]
00000000: e2c6 303d 4546 8d3d 2d0c 983d 81cd 043c
00000010: b70e fc3d 2da2 c1bc a2a3 f0bc ffb8 d2bc
00000020: 8699 6cbd c78a aebd 2e0c da3b 02bc fdbc
00000030: 1e7c 383c aa7f 463d bf0a f8bc 5ba0 0fbc
00000040: 4ec5 61bd be02 903b 75f3 223c 412d 423c
00000050: 6d52 fc3c 1210 aa3c 3a3a a13c 2e5c a1bc
00000060: 70fb cbbd f017 d6bc 653e fe3c eee7 d03d
00000070: a6fd a3bc 338c 12be a89a 903d ae43 d33d
00000080: afb2 8cba 1693 a93d ddd6 413d 7a71 d1bc
00000090: 952b d6bd 4238 a4bd d26d efbd 8dfd e5bd
000000a0: e433 93bd 35bf 323d 0ef3 ae3d 3971 053e
000000b0: cd1d 7cbd 1c39 9c3d 01ef 603d 0cc0 e53d
000000c0: ee94 6abd 4b82 afbd 8674 c6bd 6097 c5bd
000000d0: 5e2f 713d 1b9a 75bd 201a 30bd 9274 563d
000000e0: 142f a43d 63a9 493d bc9a 3a3d 8341 8d3c
000000f0: afcf 6e3d 5571 043c 7d78 a03c 21e6 ee3c
00000100: 43c6 d93c b06d a5bc c6e9 3cbd 1d45 34bd
00000110: 2c21 113d c90d bebb 5e01 993c 66ed cab7
00000120: d483 0dba a7f3 7fb9 22c8 94b7 5e49 11bb
00000130: d517 b5ba f187 69b9 da23 9c39 7cc4 96bc
00000140: 4218 563d a00d 273d 5acc ad3c fb97 2c3d
00000150: cc3d ab3d 0a2c 68bd 28fb 04bd 917f 0bbd
00000160: 5637 e9bd aaba e4bc 7353 2f3d 8226 b8bc
00000170: d879 f5b8 ca32 f33c 3fcd abb8 51fd 2fbd
00000180: 5e25 2bbd 1d67 153d a80a 2b3d 6c00 48bd
00000190: d5e8 c8bd d57d dfbd 3dab 15bc ce4c c6bc
000001a0: a9cb d9bc 9d84 443d e08d b73d f4c8 9b3d
000001b0: 6f85 6aba e38c 113d 707b e3bd 3881 8cbc
000001c0: 874f 143d 3b78 98bd 3761 c2bd dcbc ae3d
000001d0: 551f ef3c b227 fe3c 7395 443c fbbc b43c
000001e0: 072a 57bd cb1b 813c 3be1 bb3b 6db3 06be
000001f0: 2cee f0bd fcd6 903c 110e 38bd 3034 963c
00000200: 941d cdbd 32a1 023e db65 943d 9715 e1bc
00000210: 5754 963c aae9 013d 0467 89ba d7ba 3fbd
00000220: 09b6 6dbd 7c52 be3c 40ee 0e3d 8f5e 81bd
00000230: 0ac2 073d 4120 933d 1e1f babd 12da 883d
00000240: 53aa c23d 2624 21bd f595 3abd 1555 5abd
00000250: 35c3 763d 3a4a d9bc 3bc8 c3bc a240 8dbd
00000260: 0a58 8fbd cf8d 93bd c083 acbc 4645 da3d
00000270: 81bc b43d 6bec ae3c 0d4e 8b3d 3814 ad3d
00000280: b977 10be 6858 123d 31f6 fbbd 666d 06be
00000290: aa64 d0bc 30bf 303e e384 f83d 24e7 08be
000002a0: 8330 33be e5c0 183e 645f d83d b816 e5bc
000002b0: ffcb 28bd b531 b4bd 4fc3 ba3c e14f 9dbd
000002c0: ab7d 373d 2e31 43bd c177 ca3b 8a63 453d
000002d0: af2e a9bc 8e65 9cbd 8947 d5bd ccc7 9bbd
000002e0: 0ebe e2bd d0c5 15bd a8b8 3c3d 9dab 833d
000002f0: bf15 bb3d 98d2 ba3d a09f 87bc 76e3 10bc
00000300: 2298 21ba c3cb 043c 4f86 94bc 0f75 113d
00000310: 6164 fe3d 77da 023d 2cd3 d03d 0c25 cd3d
00000320: 5071 c53d 7dd9 f63c 9e7b e93c eeea b43d
00000330: c266 3c3c b930 0dbd e579 13bd 5afa dcbd
00000340: 0817 56bd f893 bebc 7057 fe3a de65 27b9
00000350: 38b2 06b9 5274 7b39 d2c5 2838 4db0 a039
00000360: 3850 70b9 31c6 6f39 b3bb 83b9 5859 9dbb
00000370: c393 27be cbe2 1cbd 7ef6 a93d 0a9c cabc
00000380: d1fc f8bd 6c33 103e b9a0 cc3d c5ee d63d
00000390: 509a dcbc 5547 b63d d157 933d caa8 80bc
000003a0: a662 963c 3af0 ab3c a96f 1d3a 1a7b 00bd
000003b0: 9a9f cabc d0ee bb3b 6f19 ee3b 6631 31bd
000003c0: 9b89 acbd 5fc5 cebb 29f8 af3d 8227 0c3d
000003d0: 8b23 ebbd a43d 603d bd8d da3d aab4 003e
000003e0: b2fa b8bd 1b73 4e3d cd4b b33d 2978 03be
000003f0: 147e 0ebd c9a3 c8bc 50a3 28bd d079 39bd
0.04315842 0.068981685 0.07424197 0.008105637 0.12307494 -0.023636902 -0.029374901 -0.025722979
-0.0577636 -0.085225634 0.006654284 -0.030973438 0.011260061 0.048461594 -0.030278562 -0.008766259
-0.055119805 0.004394858 0.00994574 0.01185161 0.030801022 0.020759616 0.019681085 -0.019697275
-0.09960067 -0.026134461 0.031035611 0.10200487 -0.02001841 -0.14311294 0.07060748 0.10315643
-0.0010734404 0.082800075 0.04732405 -0.025566805 -0.10457531 -0.08018543 -0.116908684 -0.112300016
-0.07187632 0.04363938 0.08542453 0.13031472 -0.061551858 0.0762808 0.054915432 0.11218271
-0.057270937 -0.08569773 -0.09690194 -0.09648013 0.058883063 -0.05996142 -0.042993665 0.052357264
0.08016792 0.049233805 0.045557722 0.017243152 0.05830353 0.008083661 0.019588703 0.029162468
0.026583796 -0.020193905 -0.04612138 -0.044011224 0.035432026 -0.005799983 0.01867741 -2.4190824e-05
-0.0005398367 -0.00024409463 -1.7736169e-05 -0.0022168974 -0.0013816307 -0.00022271254 0.0002978135 -0.018404238
0.052269228 0.04078448 0.021215606 0.042137127 0.08361396 -0.056682624 -0.032466084 -0.034057204
-0.113875076 -0.02792104 0.042804193 -0.0224793 -0.000117052055 0.029687304 -8.1921455e-05 -0.04296619
-0.041783683 0.03647529 0.04175821 -0.048828527 -0.09810034 -0.109126724 -0.009135065 -0.024206545
-0.02658637 0.047978032 0.089626074 0.07606688 -0.0008946275 0.03553475 -0.11107528 -0.01715146
0.036208656 -0.07444807 -0.094911985 0.08532116 0.029189745 0.031024788 0.011998522 0.02206277
-0.052530315 0.015760323 0.0057336367 -0.13154383 -0.11764178 0.017680638 -0.04493529 0.018335432
-0.10015407 0.12756804 0.0724599 -0.027476115 0.018350763 0.03171698 -0.0010482972 -0.046809044
-0.05803493 0.023232691 0.03489518 -0.06316864 0.033144034 0.07183886 -0.090879664 0.066822186
0.09505143 -0.039341114 -0.045553166 -0.053303797 0.060244758 -0.026524652 -0.023899188 -0.06897093
-0.06999214 -0.07204782 -0.021058917 0.10657744 0.08825017 0.021352967 0.068019964 0.08451122
-0.1410817 0.035728842 -0.12302817 -0.1312767 -0.025438625 0.17260432 0.12134721 -0.13369423
-0.17498975 0.14917333 0.10565069 -0.027964935 -0.04121017 -0.08798543 0.022798209 -0.07681251
0.04479758 -0.047654323 0.0061788266 0.04819063 -0.020652143 -0.076365575 -0.10414035 -0.076064676
-0.11071406 -0.0365656 0.04607454 0.06429217 0.09135007 0.09122199 -0.016555607 -0.008843293
-0.0006164332 0.008105221 -0.01813045 0.035512026 0.124214895 0.031946626 0.10196528 0.10016832
0.09640753 0.030133003 0.028501328 0.08833872 0.011499109 -0.034470294 -0.03600492 -0.10789938
-0.052268058 -0.023263916 0.001940472 -0.0001596431 -0.00012845627 0.00023980558 4.0238556e-05 0.00030648932
-0.00022918067 0.00022866648 -0.00025126114 -0.0048019104 -0.1636496 -0.038302224 0.08298968 -0.024732608
-0.12157596 0.14082116 0.09991593 0.104947604 -0.02692905 0.08900324 0.07194484 -0.015705485
0.018357586 0.020988572 0.00060057134 -0.0313674 -0.024734307 0.005735256 0.0072662155 -0.04326
-0.08424684 -0.0063101496 0.08592255 0.034217365 -0.11481389 0.054746285 0.10671566 0.12568918
-0.09032191 0.050402742 0.08754692 -0.12838806 -0.034788206 -0.024492161 -0.041171372 -0.045282185

bias f4 [2048]
00000000: fb9b c5bd 9774 ccbc 5d68 973e fc98 4a3e
00000010: 9b5a 2f3d 7238 b73d c644 ccbc 4f87 83bb
00000020: 5869 21bd a2e9 4ebd ccfd 513e 4a42 a13e
00000030: dbf4 893e ddc3 52bd 1191 b0bd c0b2 5a3e
00000040: 6480 173e 4590 20be 6693 7f3d ef94 bd3e
00000050: f8c7 dfbb ac08 ef39 7912 133e c62c 3cbd
00000060: 0609 ea3d 707a 153e 4e5a 963d d6e3 333e
00000070: 9e71 92bd 6089 a33e 4a00 7ebd 965a b4bd
00000080: 02fc 39bd b756 6e3e 5280 053e b80f 5abd
00000090: 5c24 f0bc c2ac 8d3c 754a 41bd 2cbb 17bd
000000a0: c75d 773e 9748 1d3d 4a15 f5ba 7171 6e3e
000000b0: 03eb 393d bae7 6fbb 776c b63d 1b82 893d
000000c0: 68ad c7bd 9872 813e b92b 86bd 0df8 733e
000000d0: 09b5 7fbb ad04 03bd 9776 113e ab72 88bd
000000e0: 8355 7a3d a47a 133e a12c 19bd eacc 1fbd
000000f0: 5cc7 cd3b 5bfe b6bb 812f ce3e e492 8aba
00000100: d4fc e2bc 2096 e6bc ad3b 623e d6b2 293e
00000110: 141b fabd f6ca 9e3e 394e 453e 1e90 053e
00000120: 93f1 a8ba f4e6 9ebd fda8 8a3e 788c 9e3d
00000130: 245c 813e 50bd f03d 9a91 18be 4153 f4bc
00000140: b725 b3bd cf9e 923d 6a03 93bd c8bd 533e
00000150: 4bfe 383d 6a15 04be 8e50 633e 5005 0bb6
00000160: 3596 0abc 7115 043d 3963 b4bb c1fa 953b
00000170: 8034 2a3e bd73 0ebd 3ba5 923e b42d 00bc
00000180: 836b 15bd db88 533e 256b 4b3e a702 823e
00000190: 55e3 8a3d 1a29 133e d053 73bd fba9 2abd
000001a0: 313b e3bd 9d89 c0bc 0efa 503d 99ab 393d
000001b0: 7ce4 613e 4188 423c f767 be3e 58ba 83bd
000001c0: 01cc 1cbc cbb2 9a3c 55fe 9e3e 7023 cd3c
000001d0: 0c48 9ebd 0fe0 1c3e a8c4 2dbb 0c19 a93e
000001e0: dd2e 733e 3cca 8bbd 7368 313e 8cf6 ddb9
000001f0: feae 473d e274 74bc ceda 8d3e 2750 43bd
00000200: e083 6b3c 1530 76bc be9d 523e 7a3a 4e3d
00000210: 6e82 3f3a dc21 4dbd 90bc 0f3d 6776 443d
00000220: 2a8b 5fbe 488c 2d3e c2f0 2c3e b5b6 72bc
00000230: 7d9d de3c 3465 6dbd c6ad bc3d 7004 843e
00000240: 8033 c63d c3a1 4bbd 3dcd fbbc 7977 d83d
00000250: d4b8 ba3b 2b12 b23d 6b9a 3d3e 5b6f b43e
00000260: 921d 943e 6ace 333e 0dfb 2c3d 04c4 a33e
00000270: bf0d 08be b1df 71bd 9264 2abd d9cc c43c
00000280: 4b40 7c3d b2fa 883e fec0 0f3e 74ba 5f3e
00000290: 0540 5b3c 3128 b63e b8cf c53e 9cca ec37
000002a0: 9706 473e b834 963d 3c6a 933e d3e3 b73d
000002b0: 7449 513e 3428 afbd 16c5 d1bd 52e9 c83e
000002c0: d7dc 00bd eb98 1bbd b5ed c7bb ccb8 35bd
000002d0: 06b7 513a 7ea8 6a3e 99c3 6d3d 4565 3abd
000002e0: e989 533e 5c57 f4bd 6b89 1f3e 6f74 3ebd
000002f0: 0375 b4bc 091d 273e 79f7 973d 17a8 c13d
00000300: 95ca 08be 5779 2d3a 962c 593e 971a 4fbd
00000310: b0ba b53c d725 583d d82d 40bc 1b7e 0fbd
00000320: ffb8 d73d d823 63bb 5cb8 333e a4a4 99bd
00000330: 4624 403d 33b3 693e a4c1 2b3e ff1b 143e
00000340: a97c 66be 5d67 66bd cb4c 303d 3a7b 1bbd
00000350: 2c81 a53e e8c0 f8bd 78d6 9ebd bd3d 693d
00000360: 5c29 7c3e e611 4a3e 2c12 69bd df82 df39
00000370: c88e 0bbc a95d 10bd 5936 503e 5768 033e
00000380: 12ba a43d ffb9 db3b 61d3 58bd a8e2 77bd
00000390: 828d f63d 3284 98bc ab85 4dbd 04aa 1abd
000003a0: f19e aa3d 255d f33b 6c26 c83d 86e3 fa3c
000003b0: 5c1a 4a3c 375d 483e 2ac1 093c d4c8 7ebd
000003c0: a0dd a33e a408 4e3e 06d2 683e b2bd d23d
000003d0: 57ff 48bd 0ad4 4ebc d24b 1cbd a1f3 d53d
000003e0: b837 043e b03d 87bc 8675 213e eb63 39bd
000003f0: fc0e 523e 537a ba3e 9fb8 603e 38c5 48ba
-0.096488915 -0.024957938 0.2957181 0.19784921 0.042811017 0.08946313 -0.024935137 -0.004013933
-0.039407104 -0.05051578 0.20506972 0.31495887 0.26944622 -0.05145632 -0.08621419 0.2135725
0.14795071 -0.15680034 0.06239643 0.3702769 -0.006829258 0.00045592093 0.14362516 -0.045941137
0.11427502 0.14597487 0.07341443 0.17567381 -0.07150577 0.31940746 -0.062011994 -0.088063404
-0.04540635 0.23275267 0.13037232 -0.053237647 -0.029314213 0.017294291 -0.04719015 -0.037043735
0.24156867 0.038399305 -0.0018698361 0.23285462 0.04539014 -0.0036606626 0.08907407 0.06714269
-0.097498715 0.2528274 -0.06551308 0.23825093 -0.0039017817 -0.03198688 0.14205395 -0.06662496
0.061116707 0.14402252 -0.037396077 -0.03901378 0.006279869 -0.0055845208 0.40270618 -0.0010572341
-0.027708448 -0.028147757 0.22093077 0.16572127 -0.12212196 0.31014222 0.19268121 0.13043258
-0.0012889378 -0.077588946 0.27082053 0.07741636 0.2526561 0.117548585 -0.14899293 -0.029824855
-0.08747428 0.071591966 -0.071783856 0.20677865 0.045164388 -0.12898794 0.22198698 -2.0715706e-06
-0.008458664 0.03224701 -0.0055049923 0.0045770113 0.1662159 -0.034778345 0.28641686 -0.0078233965
-0.036479484 0.20657675 0.19865091 0.2539265 0.067816414 0.14371148 -0.0594061 -0.041666012
-0.11095274 -0.02350312 0.05101972 0.045329664 0.22059816 0.011873306 0.37188694 -0.064320266
-0.009570123 0.018884083 0.31053415 0.025041312 -0.077285856 0.15319847 -0.0026514921 0.33026922
0.23748346 -0.068256825 0.17325 -0.00042336097 0.04875087 -0.014920445 0.27705997 -0.04768386
0.014374703 -0.015026112 0.20567986 0.050348736 0.00073055073 -0.05008112 0.035091937 0.04796448
-0.2183043 0.16948044 0.16888717 -0.014814069 0.027174706 -0.057957843 0.09212832 0.25784636
0.096777916 -0.049714815 -0.030737514 0.105696626 0.0056983028 0.086948715 0.18515937 0.35241207
0.2892881 0.1755921 0.04223161 0.31985486 -0.13286494 -0.05905122 -0.041599818 0.02402346
0.061584752 0.26753765 0.14038464 0.2184847 0.013381963 0.3557754 0.3863504 2.822774e-05
0.19436108 0.07334274 0.28791988 0.08979001 0.20438176 -0.0855259 -0.10242669 0.3924051
-0.03146061 -0.03798763 -0.006101335 -0.04436569 0.000799999 0.22915837 0.058047865 -0.045506734
0.20658077 -0.11930725 0.15579765 -0.04649776 -0.022028452 0.1631967 0.074202485 0.09455889
-0.13358529 0.00066175073 0.21208414 -0.050562467 0.022183746 0.052770462 -0.01172968 -0.035032373
0.10533332 -0.0034658816 0.17550796 -0.07502106 0.046909593 0.22822265 0.16773087 0.14463805
-0.22508492 -0.05625092 0.043041985 -0.037959315 0.32325113 -0.12146169 -0.077557504 0.056943644
0.24625152 0.1973339 -0.056902096 0.0004263138 -0.008517928 -0.03524557 0.20333232 0.12832771
0.080433026 0.006705522 -0.05293596 -0.06051889 0.12038709 -0.018617723 -0.050176304 -0.037759796
0.08331097 0.007426875 0.097729534 0.03062607 0.012335386 0.19566809 0.00840787 -0.062203243
0.32005024 0.20120484 0.22736368 0.10290088 -0.049071636 -0.012623796 -0.038158245 0.10446859
0.1291188 -0.016508907 0.15767488 -0.045261305 0.20513529 0.3642145 0.21945427 -0.00076587824

weight f4 [10, 2048]
00000000: f305 84bd ade4 a53c 7070 86bd be66 e5bc
00000010: e866 1f3c e031 73bd b332 d3bc 9f1e a738
00000020: 2b34 f6bd f030 4eb9 daf6 50bd 110f 75bd
00000030: 6fec b1bd e760 25bd 381e 42bd 6530 fbbd
00000040: 9ab0 de3d fe76 a6bc 7ed6 02bd 5b3c f8bd
00000050: f502 bcbd f233 1bb7 a6f6 8dbd 193e 72b9
00000060: a4cc 60bd c93b 043c 9d8b 1a3d 3350 8cbd
00000070: edcf bbbd d7a7 bdbd 582f 823d 4fae 95bd
00000080: d23e 27bd e740 b4bd 5dde c8bd be75 ee3c
00000090: c6a1 b93c 9139 f3bd c6a0 50b8 7429 3c3d
000000a0: f6fc 7dbd be83 96bd fe7c ba38 d96f 81bd
000000b0: 998d 85bb 32a5 aa3c 4261 20bd 2190 47bd
000000c0: 5d74 02bd b5f2 84bd 6f1c 7d3d 8739 4bbd
000000d0: 3880 dab8 695f a4bd 24d6 85bc a566 f93b
000000e0: 5871 113c 7e19 f8bd 542c 393d fd98 36bd
000000f0: 74c3 72bc b26a 8cbd bfe0 fdbd be74 bbbd
00000100: 38ea 303b aad9 b53c 053f 95bd 2829 f7bd
00000110: 192a 6dbd 339a 1fbd 99ca 99bd 3fca 88bd
00000120: 6eed c639 29ec d7bb 4c19 94bd 5fb7 593c
00000130: a479 f2bd fbaa a2bd 7016 f6bd c2ff 2cbd
00000140: 50f5 ddbc 5584 43bd dcee 71bd acbe 10bd
00000150: 8f8c 393c 0c23 e3bd ee27 60bd 8bf9 b63b
00000160: e560 27bd b95f 27bd f03a 5bbd 2e17 4fbd
00000170: 0d24 c2bd f814 0fbd ac57 e2bd 05e6 29bd
00000180: ad69 e9bc 3afe 62bc bd4f 10bd ebbc 75bd
00000190: 75dd 2dbd 9177 94bd c6b0 1ebd 2b29 b5bc
000001a0: 6147 113d f4cd b83c b922 93bd ac41 cf3c
000001b0: b391 6fbd b12d 583c 2f1a 1abd 6962 73bd
000001c0: 369b dcbd 56d9 c7bc 8d32 b9bd 705c 3cbd
000001d0: 8991 1a3d 0cd4 b5bd 3b7a bb3c db22 60bd
000001e0: 361f 93bd 14c2 4b3d 3d88 02be 7872 83b7
000001f0: 3c42 50bd 8254 07bd a2ef e5bc d52e 91bc
00000200: ab4f c6bd 1226 473a d502 65bd 5911 9cbd
00000210: ae08 eebd d08d 67bd 6457 093d 9f1d 18bc
00000220: fd76 dcbc 48e0 fabd d492 cebb dfbb cabc
00000230: 15ab adbc 02d9 09bd 4076 92bd 112d c8bd
00000240: 2546 aa3d 48a5 55bd 7ca5 3cbd e67e b2bd
00000250: 7ceb ecbd 7676 06bd 8bed 8dbd 28e2 5ebd
00000260: a5c0 6cbd 09d2 f9bd 526d 803c ac6d 80bd
00000270: 1356 81bc 78ae 07bd 73e9 98bd f652 2fbd
00000280: 1503 5cbd 7674 02be df58 cbbd d012 1abe
00000290: a2d2 49bd 5534 8ebd 1bc7 f5bd b858 ed3c
000002a0: 84f3 ebbc 02e3 0ebe e134 3cbd 320a 44bd
000002b0: 9e55 ffbd d6d4 7abc 1882 003b e5fc bcbd
000002c0: 50da ee3b 0d34 ee3c 91ec 14ba 061e bdbc
000002d0: 4d59 cfb9 bbd5 f2bd af1c afbd fa35 dbbc
000002e0: 3d65 b9bd aa9a 9c3b 4d48 9dbd b1d5 5d3d
000002f0: 115e 41bd 44d1 b4bd c68d 8bbd b7d3 0c3d
00000300: 969f b5bd 9773 873a 4639 04be d08f 70b7
00000310: 0027 dcbb e18a f2bc f043 41bc ed95 6cbd
00000320: bfe4 a63d b1c8 92b9 56dd ecbd e5b6 59bd
00000330: b6e7 bbbd 5ef0 05be d513 c0bd ce7f dbbd
00000340: 0b38 58bd fe4c 3cbd 6d31 2fbd d75b 05bd
00000350: 11e5 21bd c19c 98bc d347 ae3b 3df2 f23c
00000360: 8c4b 81bd 22dd 7cbd 59b0 76bd 0ee4 22b9
00000370: 12ab edbd 6cc2 e0bd 74ed 45bd e5fd d6bd
00000380: 7324 623c 6786 c1bd 4008 fbbd cab0 2d3b
00000390: a6a6 913d 42a5 c5b7 c8a4 5ebd 648f 06b9
000003a0: 31fe d2bd 8d41 b4bd 8939 0bbd f3d1 4ebd
000003b0: 8430 8abd e264 c9bd 05f8 e6bd 550b e0bc
000003c0: 96ae b3bd 2a63 a1bd a442 a1bd 49af 1d3d
000003d0: 5e6f 96b7 3535 6e39 4a71 3e3c 2d79 a5bd
000003e0: 3e30 1dbd 9ef0 21b8 e8cd 93bd 62f6 54bd
000003f0: c63b 0bbd 25d7 3fbd 6a47 1ebd d7c2 093c
-0.06446447 0.020250643 -0.065644145 -0.028003093 0.009729125 -0.059373736 -0.025781011 7.968884e-05
-0.12021669 -0.00019663922 -0.051016666 -0.05982882 -0.08687674 -0.040375616 -0.0473921 -0.1226509
0.10873528 -0.020320412 -0.031942837 -0.12120887 -0.091802515 -9.250814e-06 -0.0693181 -0.00023102052
-0.05488266 0.0080708945 0.0377308 -0.06851234 -0.09170518 -0.092605285 0.06356686 -0.07308637
-0.040831394 -0.08801442 -0.098080374 0.029108878 0.022660147 -0.11876214 -4.9740796e-05 0.04593797
-0.06200882 -0.073493466 8.892453e-05 -0.06320161 -0.0040757176 0.020830724 -0.039155252 -0.048721436
-0.031849254 -0.06491605 0.061794695 -0.04961541 -0.00010418933 -0.080260105 -0.016337462 0.007611113
0.008877121 -0.12114237 0.04520829 -0.044579495 -0.0148171075 -0.06856288 -0.123963825 -0.09153126
0.0026995074 0.022198517 -0.07287411 -0.12068397 -0.057901476 -0.038965415 -0.075093456 -0.066792004
0.00037942402 -0.006589432 -0.072313875 0.013288348 -0.11839607 -0.07942768 -0.12015998 -0.042236097
-0.027094513 -0.047733624 -0.059065685 -0.03533809 0.011325016 -0.11090669 -0.05472558 0.005583947
-0.04086389 -0.040862773 -0.053523004 -0.050559215 -0.094795324 -0.034932107 -0.11051878 -0.04147913
-0.028492773 -0.013854558 -0.035232294 -0.05999462 -0.042447526 -0.07249368 -0.038742803 -0.022114357
0.035468463 0.022559144 -0.07184357 0.02529987 -0.05848856 0.013194487 -0.037622627 -0.059420023
-0.10771792 -0.024395626 -0.09042845 -0.045986593 0.03773645 -0.08878335 0.022885432 -0.05472074
-0.071836874 0.049745634 -0.12747283 -1.566972e-05 -0.050844416 -0.033039577 -0.028068367 -0.017722527
-0.09683164 0.00075969205 -0.055910904 -0.07620496 -0.11622749 -0.056531727 0.033530608 -0.009284406
-0.026912207 -0.122498095 -0.0063041244 -0.024747787 -0.021199742 -0.03365422 -0.07151461 -0.09774221
0.0831416 -0.052159578 -0.046056256 -0.0871561 -0.115683526 -0.032827817 -0.06930073 -0.0544149
-0.057800908 -0.12198264 0.015677128 -0.06270918 -0.015788114 -0.03312537 -0.07466402 -0.042803727
-0.053713877 -0.12739739 -0.0992906 -0.15046239 -0.04927314 -0.06943575 -0.12000867 0.028972968
-0.02880264 -0.13953784 -0.045948867 -0.047861286 -0.12467502 -0.015309533 0.0019608792 -0.09227923
0.0072892085 0.029077554 -0.0005681003 -0.023085605 -0.0003954865 -0.11857172 -0.08550393 -0.026759136
-0.09052513 0.0047791796 -0.07679806 0.05415887 -0.04720885 -0.08828977 -0.068141505 0.034381595
-0.08868329 0.0010334131 -0.12912473 -1.4338599e-05 -0.0067185163 -0.029607238 -0.011795983 -0.057760168
0.081490986 -0.00027996817 -0.11565654 -0.053152937 -0.09175055 -0.13079974 -0.09378783 -0.10717736
-0.05278782 -0.045971863 -0.042771745 -0.03255829 -0.039525095 -0.018629434 0.0053186207 0.029656524
-0.063132375 -0.061734326 -0.060226772 -0.00015534481 -0.11604895 -0.10974583 -0.048322156 -0.10497645
0.0138026355 -0.09449463 -0.12257433 0.002650308 0.07111864 -2.3561184e-05 -0.054356366 -0.00012832653
-0.103023894 -0.08801565 -0.033990417 -0.050493192 -0.06747535 -0.09833695 -0.11277775 -0.027349154
-0.08773534 -0.07880242 -0.07874039 0.038497243 -1.7933253e-05 0.0002271727 0.01162369 -0.08079753
-0.038376085 -3.8609483e-05 -0.07217008 -0.05199278 -0.03399255 -0.046836037 -0.038642325 0.00840827

bias f4 [10]
00000000: d721 d6bd 6d59 063e cf24 9ebd b74d 813d
00000010: c289 a33c a95b 773d 7492 a63c 16d0 82bd
00000020: 1b99 75bd b0b1 7b3d
-0.10455673 0.1312005 -0.077218644 0.06313651 0.019963149 0.06039015 0.020333506 -0.063873455
-0.059960466 0.061448753

weight f4 [10]
00000000: 2b35 883f eaf8 5e3f 0169 6d3f 7780 673f
00000010: e1ce 853f eb86 8a3f b470 7b3f 6712 703f
00000020: fe77 753f 3c50 863f
1.0641226 0.8709856 0.9273835 0.90430397 1.045376 1.0822424 0.98218846 0.9377808
0.9588622 1.0493236

bias f4 [10]
00000000: f80b 8abd 72d1 133d 5b40 47bd daab 6e3d
00000010: 1110 56bd f043 893d 45a0 cf3c f4d7 77bd
00000020: 3351 6ebd 08d5 453d
-0.06740564 0.036088414 -0.04864536 0.05826936 -0.052261416 0.06702411 0.025344977 -0.060508683
-0.058182906 0.048298866

weight f4 [10]
00000000: 911a 7b3f aab7 8b3f f953 773f 061b 763f
00000010: 97a4 683f 3c77 883f 8b5c 4f3f f1d3 7f3f
00000020: c4e0 863f 9898 7f3f
0.9808741 1.0915425 0.9661251 0.96134984 0.90876144 1.0661387 0.81000584 0.9993277
1.0537343 0.99842215

bias f4 [10]
00000000: c650 b2bd d2a2 4c3e 1350 aebc aadc 0c3d
00000010: 1076 293d bc9c dd3d c5f2 943c 6500 04be
00000020: 2a24 cebd b9b3 233c
-0.087068126 0.19983986 -0.021278417 0.03439013 0.04137236 0.1082091 0.018182168 -0.12890776
-0.100654915 0.00999158

weight f4 [10]
00000000: 4236 5b3f 983f 7b3f 47e7 5e3f 6de7 5b3f
00000010: 0b00 763f 3cfe 743f b992 483f 5452 623f
00000020: 8045 483f b2ae 7d3f
0.85629666 0.9814391 0.8707165 0.859 0.96093816 0.9570043 0.7834888 0.8840687
0.7823105 0.9909469

bias f4 [10]
00000000: 004c 633d 75ff 8bbd 9c4f ea3c b3da d9bc
00000010: 2625 1ebd bcb1 1b3d 73c7 0b3d d840 d1bb
00000020: 36af 15bb 8728 903b
0.0554924 -0.06835834 0.028602414 -0.026593542 -0.038609646 0.038011298 0.034125756 -0.006385904
-0.002284003 0.0043993625

in_proj_weight f4 [30, 10]
00000000: 060f 20bf 519c ccbe 6283 1ebf 02cb 0cbf
00000010: 66cd 9cbe bc16 4ebe a11e f4be 084e 9dbe
00000020: a924 12bf f1cc 0fbf b911 15bf 8772 15bf
00000030: e49e 8bbd e42d 9bbd c7d1 2bbf d6d8 a2be
00000040: d9b0 3cbf 2a78 25be 0864 e6be d302 d9be
00000050: bfb8 edbe bae0 d6bd 25b6 04bf 1e64 46be
00000060: 36af 0bbf 9faf c3be e9df 283e 0f07 eebd
00000070: e704 b43d 2689 a5bd 93c9 fc3e f9bc 2d3e
00000080: 6460 373f e5ed 3b3f 2206 053f b042 913e
00000090: db64 473f e41f c43e 8442 b13d 5b36 6e3e
000000a0: a447 ce3e 7a10 ef3e c213 86bd 9948 b73e
000000b0: 65a1 5a3e b008 4a3e c827 0a3f 1490 573e
000000c0: a470 f93e c7eb bf3e 0581 3bbe 4100 103e
000000d0: 68be d53c 3769 37be e2a5 4d3d a2b6 923d
000000e0: f507 97be 0e19 50bd 4dfc 42be 754f 9ebe
000000f0: 16ec 053e f922 0ebe 1382 f3bd d64c ce3e
00000100: 9099 43bc 4749 4cbe 3585 b8bd b749 693e
00000110: 82b4 ddbd 551f 073d e956 6cbe e35b 13bf
00000120: ea1b 38bd 1775 e7be efb7 bfbd dd58 77bd
00000130: f253 5bbe 8347 cfbe faec 593e 7710 bfbc
00000140: 9cf0 8b3e ebf5 34be 31e9 84be 7053 9fbd
00000150: 98ee 1a3c fbfb c13d 7e00 80be 4086 953b
00000160: cc85 533e 2466 3f3d d930 67be e8ef da3d
00000170: ccf6 8f3e 5e5d 0bbe ff82 a3be 9367 503e
00000180: 4ef0 52be 198c 7dbe 47d5 a7be c0e2 4f3e
00000190: 96c3 68bc 70c9 243c d400 f43c b488 babd
000001a0: 2622 a33d 4cad 273f 75f8 8d3e b2cd 053f
000001b0: ecdb fb3e 4332 493f b37f c8be 6f0b 253e
000001c0: 1de5 f0bc 219c 81be b0ab bb3e 59ea 253f
000001d0: 5c11 593f b2fc 333e 4910 233f f9c0 4e3f
000001e0: 7998 aebe d29b a33e 3260 903e d711 80bd
000001f0: fff6 aebe 7a6b b2be 2b23 34be c1aa 303e
00000200: 340d a93e 85a1 013f 4b0c f43e d1c9 de3d
00000210: 4c4b 533e 38c7 f13d 9ab0 8d3e f36c c9be
00000220: faa5 eabe 066a 06bf a5b5 0bbf 1e84 bcbe
00000230: 0dc5 8cbe 0ad3 12be 0586 d53d 479c c53e
00000240: f45e b2be a028 99bd 0027 febe ef9b c2bd
00000250: 26c6 47bf e2a8 aebe 24a0 833e 978a 90bd
00000260: 5c10 a5be 40d3 abbe 84c3 89be 924e 063e
00000270: 74b5 b4bd c2e2 d6bc b2da a03e 3704 8ebc
00000280: d15c 903d 0636 393e 0aca 3bbe 005d 903e
00000290: 39fb c4ba 903c 48be 3ddf d43c 2ccd 0b3e
000002a0: d97d 9c3c 4597 b0bd 780b cb3d 1181 debe
000002b0: 988d b53c 95fa abbe ce5e 20bf 8dda 94be
000002c0: bc92 6dbb aa14 05bf f9ee ec3d 5c8b 83be
000002d0: f7f0 be3d b83b f5bd 76b2 983e 4273 793e
000002e0: b7ab 4a3e 7d0c cc3d 2844 d9bd e3e9 58be
000002f0: 86d2 b4be 9aac ffbd ab47 cabd 817a 0dbe
00000300: 72b9 cc3e 9073 7fbe 8bc7 68be 847e a5be
00000310: 09d5 253e 25be 96be dea7 16be 395c 1d3e
00000320: 01d9 90bc b3eb 6cbe 3a21 413e 5538 703e
00000330: 8625 083e c8eb d8bc 7630 1dbe 992d c4be
00000340: 1b4b 6cbe 5c27 60be f77c 56be fff3 efbd
00000350: f6be 4abe 63d4 8a3e bc8b 293e b630 103d
00000360: 6c9f 5bbe 8e8d 43be 0b73 a3bd ab34 903e
00000370: 6db5 d2be 7f7d 433d 6e47 183e 56c1 2ebd
00000380: 534f d3be 2340 aa3d 6639 8a3b f0b3 133d
00000390: c1db 353e 75aa 0ebd 8d44 e2bd 3920 5a3d
000003a0: ff68 8fbe f4a2 81be baa0 873e 06e7 87bd
000003b0: 3b97 b43e 5698 373d c140 00be 5098 07bd
000003c0: b0ec cabe 2c35 913e 53f3 03bd 1203 b13e
000003d0: 1976 50bc e10a 463e 816d efbd be86 7ebe
000003e0: f13b b83e 0aec 9ebd 4ce3 053e e31c 31be
000003f0: f401 26be 75e8 a63e 6c47 a03e 7367 debd
-0.62522924 -0.3996301 -0.61919224 -0.54997265 -0.30625457 -0.2012586 -0.47679618 -0.30723596
-0.5708719 -0.5617209 -0.5823017 -0.5837788 -0.06817415 -0.07577112 -0.6711697 -0.31806058
-0.7370735 -0.1615912 -0.44998193 -0.42384967 -0.46430013 -0.10492082 -0.5184043 -0.19374129
-0.54564226 -0.38219926 0.16491665 -0.1162244 0.087899975 -0.080827996 0.4937254 0.16966619
0.71631455 0.73409873 0.5196248 0.2837119 0.7788827 0.3830558 0.08655265 0.23262922
0.40289032 0.46692258 -0.06546737 0.35797575 0.2135063 0.19729877 0.5396695 0.21051055
0.4871875 0.3748457 -0.18310936 0.14062597 0.02609177 -0.1791123 0.050207026 0.07163741
-0.29498258 -0.050805144 -0.19041558 -0.30919996 0.13078341 -0.13880529 -0.11890044 0.40292996
-0.011938468 -0.19949828 -0.09009782 0.22782026 -0.10825445 0.032988865 -0.23080029 -0.57562083
-0.044948496 -0.4520652 -0.093612544 -0.06038748 -0.21418741 -0.40484247 0.21281806 -0.02332328
0.27332008 -0.17671935 -0.2595916 -0.07779586 0.009456299 0.094718896 -0.25000376 0.004563123
0.20656508 0.04672827 -0.22577228 0.1069029 0.2811798 -0.13609836 -0.3193588 0.2035201
-0.20599481 -0.24760474 -0.32779905 0.20301342 -0.014206788 0.010057792 0.029785551 -0.09108105
0.07965498 0.65498805 0.2772862 0.5226699 0.49191225 0.7859232 -0.39159927 0.16117643
-0.029406125 -0.2531443 0.36654425 0.6481071 0.84792113 0.17576864 0.63696724 0.807632
-0.34100702 0.3195482 0.2819839 -0.06253403 -0.34172818 -0.34847623 -0.1759154 0.17252637
0.33017886 0.50637084 0.4766563 0.10878337 0.20634192 0.11805576 0.276738 -0.39340934
-0.45829755 -0.5250553 -0.5457404 -0.36819547 -0.27494088 -0.14338318 0.10425953 0.38595793
-0.34838068 -0.07478452 -0.4963913 -0.09502398 -0.78036726 -0.34113222 0.25708115 -0.07057684
-0.32239044 -0.33559608 -0.2690698 0.1311591 -0.08823672 -0.026231173 0.3141685 -0.017335994
0.07048953 0.18087015 -0.1833879 0.28195953 -0.0015028483 -0.19554353 0.025985355 0.13652486
0.019102978 -0.086226024 0.09914297 -0.43457845 0.022162244 -0.33589616 -0.6264466 -0.2907299
-0.003625079 -0.51984656 0.11569018 -0.2569226 0.09323304 -0.11974281 0.29823655 0.24360374
0.19792067 0.099633195 -0.10608703 -0.2118297 -0.35316867 -0.12484093 -0.09876951 -0.13816263
0.39985234 -0.24946427 -0.2273237 -0.32323086 0.16194548 -0.29441944 -0.14712474 0.15367211
-0.0176816 -0.23136787 0.18860331 0.23458989 0.13295564 -0.026479617 -0.15350518 -0.38316038
-0.23075525 -0.21890014 -0.20946108 -0.117164604 -0.19799408 0.27115163 0.1655721 0.035202704
-0.21447533 -0.19096968 -0.07980927 0.28165182 -0.41154042 0.047727104 0.14870998 -0.04266485
-0.41271457 0.08313014 0.004218268 0.036060274 0.1775961 -0.03483053 -0.11048231 0.053253386
-0.28009793 -0.25319636 0.26489812 -0.06635861 0.3527163 0.044823013 -0.12524702 -0.03310424
-0.39633703 0.2836088 -0.032214474 0.34572655 -0.012723469 0.19340087 -0.11690808 -0.24856088
0.35983232 -0.07759865 0.13074988 -0.17296176 -0.16211683 0.32599226 0.3130449 -0.10859575

in_proj_bias f4 [30]
00000000: 56c3 b4bd 5e7c ddbd cea9 613e 185a 57bc
00000010: 78fd afbd 6b5a d83d 8c87 b0bd 7f4b 943e
00000020: afe0 97bd e1b9 053e 282f 18bd 45bb 13bd
00000030: 6b31 d6bc 3409 253d 22aa ef3c b017 58b9
00000040: f6e1 76ba 6fb2 373b d03a 993a 4c56 f439
00000050: b739 913d 1b8c 2dbd 52cd 6cbc d227 71bd
00000060: bcf0 073d 0b9d 053c f78e 75bc ed2a 66bd
00000070: bc47 e93c 3a62 a13b
-0.0882632 -0.10814737 0.22037432 -0.013144039 -0.08593267 0.10564121 -0.086196035 0.2896385
-0.07415902 0.13059188 -0.037154347 -0.036067266 -0.026146611 0.04029198 0.02925593 -0.0002060819
-0.0009417826 0.0028029939 0.0011690501 0.00046603603 0.07091086 -0.042369943 -0.014453249 -0.058875866
0.033188567 0.008155118 -0.014987699 -0.05619328 0.028476588 0.0049250396

weight f4 [10, 10]
00000000: c007 a3be 416c 51be 207a 27bd 4a9d 6c3c
00000010: b340 afbd 74cd b9be 8f9a 7f3e 917f 6b3d
00000020: 9ec7 f9bc 60d9 01b9 a15f 94bc 8adc f8bd
00000030: 6bab 3e3e da14 59be 0e13 d23e bbe2 2d3e
00000040: eb33 85be 53dd c0be 55aa 4f3d 1865 eabe
00000050: 1164 c13e 837b b63c 55c6 c93e 6064 5cbe
00000060: 3409 783e 9e8d 733e f1c2 42be 17b6 6cbe
00000070: ee8e f6be 93bc b4be 2af7 f63e 57d2 ae3d
00000080: f82d 883d c2d2 95bd 8741 633e 7733 ae3c
00000090: 315b 5e3d 5eaa 573e 1731 87be 1507 a63d
000000a0: 8269 5dbd c8ca 333e e4da 3f3e 4273 91be
000000b0: 6fff 043f bba5 dbbe 124c c03e 1714 a4be
000000c0: d4d9 cfbe 16c6 f5bd 5f1c bdbe 9971 2ebe
000000d0: 79e6 d63e b123 393e de2b eabe f832 07ba
000000e0: df51 d23e 9788 c5be 3227 ee3b a4b0 f4be
000000f0: f8f3 823d 6b27 d9bc 2487 52be 6228 e6be
00000100: a6ea 683d b9f5 e13d 8b5c 163e 82bf 60be
00000110: 91c7 c13e 5f79 adbe eb88 2bbe a8fd 37bd
00000120: e1db 95be 4819 98be 37b1 eebd b691 673e
00000130: 672b a7be a137 013e ce67 bd3e 86e4 ed3c
00000140: 1658 f33e 9abb 243e 3b34 dc3e 8df4 263d
00000150: bc8c cd3e 98ce 543b 6a29 843e 2745 7c3e
00000160: ed6f dbbe 8991 9e3e 1ee7 d6be f34d 573e
00000170: f67f de3e 8cbc c3bd 0216 df3d daf7 94bc
00000180: 82c8 d93e 4871 13be e541 363e a049 0cbf
-0.3184185 -0.20451452 -0.04088795 0.0144417975 -0.08557262 -0.3628956 0.24961303 0.057494704
-0.030490693 -0.00012383377 -0.018112006 -0.121514395 0.18620078 -0.2119936 0.41030163 0.16981022
-0.26016173 -0.37668857 0.05069955 -0.45780253 0.37771657 0.022275692 0.39409128 -0.21522665
0.2422226 0.23784491 -0.19019677 -0.23116337 -0.48155922 -0.3530012 0.48235446 0.08536213
0.06649393 -0.073155895 0.22192965 0.021264775 0.054286186 0.21061084 -0.2640464 0.081068195
-0.0540557 0.17557824 0.18735844 -0.28408247 0.5195226 -0.4289988 0.37558037 -0.32046577
-0.40595877 -0.120006725 -0.36935708 -0.17035522 0.41972712 0.18080021 -0.45736593 -0.0005157436
0.41078088 -0.38580772 0.007267856 -0.47791016 0.063941896 -0.026508054 -0.20559365 -0.44952685
0.056864403 0.11033196 0.1468374 -0.21948054 0.3784757 -0.3388166 -0.16751449 -0.04491964
-0.29269317 -0.29706788 -0.11654895 0.22614178 -0.326503 0.12618877 0.3699326 0.029039633
0.47528142 0.1608719 0.430086 0.040760566 0.40146434 0.0032471772 0.25812846 0.24635755
-0.4285883 0.3097041 -0.41973203 0.21025829 0.43457 -0.09557447 0.108928695 -0.018184591
0.42535788 -0.14398682 0.17798574 -0.5479984

bias f4 [10]
00000000: 51cb 593d 6c25 403d 1714 433d b05e c3bc
00000010: b6a9 ea3c fff7 35bd 6e05 b6bc 8a70 3bbd
00000020: 47b9 f3bc 5f41 60bd
0.053172413 0.04691069 0.04762658 -0.023848861 0.028645378 -0.04442596 -0.022219386 -0.045761622
-0.029751433 -0.054749843

in_proj_weight f4 [30, 10]
00000000: 41a1 7f3d a683 e53e c4a1 17bd ac7f 223e
00000010: 8325 aabe 6bae 913d 46ee a03e 0b62 f2be
00000020: 2724 fa3d efba 653e 787e 48be 710f cdbd
00000030: 0d01 6bbe 40b2 3abc d911 6abe d40c 303d
00000040: 787c 37be 550c bebe 750d 9c3e 6fa8 ae3e
00000050: a9a2 c03e 9d70 093e 7dce 05be b121 7fbe
00000060: eb1a 94be 38f5 053e 7fb5 083e 11e1 98be
00000070: a3e0 193d a542 72bd ac48 b9bd bbe7 59be
00000080: 3712 f13e 5ad2 b2be 496d 5a3d b08c 6ebe
00000090: c23f d83d eca4 2abe 7110 d33d 1754 2dbe
000000a0: f4ac 79bd 80fc c4be 01c3 88be 2ac9 b53e
000000b0: 136e 603d f7bb b63e 43d0 1cbd c583 173e
000000c0: 769c 8bbe 6807 5c3e f874 943e f05d dc3e
000000d0: 48f1 70bd 4f5c 94be 99e8 f9be 475f 01bf
000000e0: ea07 aa3d 409e 9b3e 3cc4 32be 4947 993e
000000f0: d40a 3c3e debc 61bd a358 803e abde 853d
00000100: 66db 943d d636 abbd 59da 353e 6a82 9e3d
00000110: 2d74 813e b11e ad3d b322 1e3f 6f88 cd3e
00000120: 6765 5d3e 12f3 bebe 9a65 debd b112 45bd
00000130: 4e52 94be 98d9 813d 6a0e f1bd 9c94 1bbe
00000140: 33c8 8d3e c570 543c cd9d 89bd 523e b93e
00000150: 8eb1 55be e5ee 323e 1e7a bfbe dd62 953e
00000160: 1d25 b5bc 98b4 9dbe 7c0d 913e 9957 4f3d
00000170: 77b5 723d 1916 d43e e663 a3be 6373 14be
00000180: 1221 c0be 39cd dd3d 1690 37bd 4b07 a3be
00000190: ae56 36be b382 6bbe 45f1 cdbe 832d e33e
000001a0: 6810 1d3e f2d1 cd3c d2f2 4f3e 2042 b53e
000001b0: 3f8b 81be 978a 883e b461 cb3e 0b44 1abe
000001c0: c43d c93d 08c0 003c e797 943d 0047 ee3c
000001d0: 33f7 fbbd f501 d53e b3a2 9f3e dbc0 df3e
000001e0: 12fb 88be 24dc 5ebc bf6a 073e da0d 2fbe
000001f0: 1d07 bf3e 233f b23e d17c 113e db73 443e
00000200: 1344 dfbc 62b4 373e 4c8f 64bd f566 2d3e
00000210: 9d00 bb3d 930d 353e 5468 1dbe a6c7 883e
00000220: dad5 dd3d 4923 2fbe 3500 86be e35d 61bd
00000230: eae0 05be 9aa6 61bd 3316 a3bd 49d1 34be
00000240: 5127 04be d0a0 78be 6730 83be 4ce5 b7be
00000250: a43e afbc 841b 8c3c 2882 ef3d b7b0 b03e
00000260: 695b 013e 2c64 d8be 6f62 f23d ae03 c5be
00000270: 62d1 1abe 3e77 e13e 3ec6 9f3b db3e 883e
00000280: cc4e 233e e54b 19be 7bd1 c9be fa9b 6e3e
00000290: 0b21 863e 8c09 8abe 4eff d0be 55f4 d6bd
000002a0: 7f0f 393e ee14 613d 8d8b 453d 2dc3 df3e
000002b0: cfbf f63e 1c90 01bf b5c4 d0be 13d1 39bc
000002c0: a2d5 6b3e 3ff7 823e 067d 6d3e 2997 7a3e
000002d0: b593 653e fa5e 8f3e 2cfe 373d 28ae 4fbd
000002e0: 4f52 c1bd 018e 453e a3e7 a4be 8f16 5dbe
000002f0: 744e 55be 931a a53d e122 18bd 54c2 fd3e
00000300: c940 fc3e 5919 e8be 3a22 2ebb 0505 853e
00000310: ef5f e0bd 7614 08be b831 923d 1ee6 2a3c
00000320: 4d14 63be 280e efbd 4664 97be 5d56 623e
00000330: 7138 b03d dbc6 1abe 0fe1 52be 96d7 893d
00000340: b40c 08be 0fa6 833e 924d 9e3d bdf2 8cbe
00000350: d88a de3e efa3 3cbd 45d9 c73e d906 7a3e
00000360: c012 873d 093b 3e3e 5feb 20be 3269 d8bd
00000370: f15a 573d ca2e 29bc a9df a73e c712 643e
00000380: c85b 053e ac26 7c3d a56a 1abe 03fc 743e
00000390: 5d3a 12be c147 02be 9745 683e 732a 0fbe
000003a0: f0a6 2abe a917 b6bb 8c32 36be c21c 623e
000003b0: e3b2 493e 99f2 05be 9759 f43d 7063 d03e
000003c0: c525 293d 9973 92be 6542 8fbd b3fa 6abd
000003d0: 8ca4 ab3e 2fc3 61bc d8a8 7cbe a048 c3be
000003e0: 6e4a 9cbd 259c e6bd 015a ec3d c825 993e
000003f0: 402c fabd 49e9 53be 0719 52bd 0e29 2cbe
0.062409643 0.44827002 -0.037019506 0.15869015 -0.33231744 0.07113346 0.31431788 -0.47340426
0.12213927 0.22434591 -0.19579494 -0.10012711 -0.2294962 -0.011395037 -0.22858371 0.042980984
-0.17918575 -0.37118784 0.30479017 0.3411288 0.376241 0.13421865 -0.1306705 -0.24915196
-0.28926787 0.13081825 0.13350485 -0.29859212 0.037567746 -0.05914559 -0.09047064 -0.21279804
0.4708421 -0.3492611 0.05332688 -0.23295856 0.10559036 -0.16664475 0.1030587 -0.16926609
-0.060955957 -0.38473892 -0.26711276 0.35505038 0.054792475 0.3569028 -0.03828455 0.1479636
-0.27267808 0.214872 0.2899549 0.4304042 -0.058823854 -0.28976676 -0.4881027 -0.50536007
0.08302291 0.30394173 -0.1745767 0.299372 0.18363506 -0.05511176 0.25067624 0.06536611
0.072684094 -0.083600685 0.17759074 0.07739718 0.25283948 0.084531195 0.61771697 0.40143153
0.21620713 -0.37294823 -0.10859223 -0.04811353 -0.28969043 0.06340331 -0.117703274 -0.15193409
0.27691802 0.0129663395 -0.06719551 0.3618036 -0.20868513 0.17473944 -0.37397856 0.2917699
-0.022112424 -0.30801845 0.283306 0.05062065 0.05925509 0.4142311 -0.31912154 -0.14497142
-0.3752523 0.10830159 -0.044815145 -0.31841502 -0.17806503 -0.22999077 -0.40223137 0.4437066
0.1533829 0.025124524 0.20307472 0.35402012 -0.2530155 0.26668236 0.3972298 -0.15065019
0.09826234 0.007858284 0.072555356 0.02908659 -0.12303009 0.41603056 0.31178817 0.43701825
-0.2675405 -0.01360229 0.13224314 -0.17095128 0.37310115 0.34813794 0.1420777 0.1918482
-0.02725414 0.17939904 -0.05580072 0.16933806 0.09130976 0.1768096 -0.1537183 0.2671482
0.108318046 -0.17103304 -0.26172033 -0.055021178 -0.13074079 -0.055090524 -0.079632185 -0.17657961
-0.12905623 -0.24280095 -0.25622866 -0.35917127 -0.021392174 0.017102964 0.11694747 0.34509823
0.12632526 -0.42263925 0.11835181 -0.3847937 -0.15118936 0.44036287 0.004875927 0.26610455
0.15948027 -0.14970358 -0.39417633 0.23301688 0.26197085 -0.2696041 -0.40819782 -0.104958214
0.18072318 0.0549516 0.04822879 0.43703595 0.48193213 -0.5061052 -0.40775076 -0.011341351
0.23030713 0.2557926 0.23192224 0.24471726 0.22419627 0.2800215 0.04492013 -0.050703198
-0.09439527 0.19292451 -0.32207975 -0.21590637 -0.20830709 0.08061709 -0.037142638 0.49562323
0.49268177 -0.4533184 -0.0026570694 0.25980392 -0.10955798 -0.13289055 0.07138389 0.010430841
-0.22175713 -0.11672622 -0.2956869 0.22103257 0.08604515 -0.1511492 -0.20593666 0.06730573
-0.13286096 0.2571263 0.07729639 -0.27528945 0.43465304 -0.046054777 0.3903295 0.24416675
0.06595373 0.18577208 -0.15714787 -0.105669394 0.052576963 -0.010326097 0.32787827 0.22272788
0.13023293 0.061560318 -0.15079744 0.2392426 -0.14280076 -0.12722684 0.22682796 -0.13981037
-0.16665244 -0.0055570197 -0.1779272 0.22081283 0.19697146 -0.13080825 0.119311504 0.40700865
0.041295785 -0.2860382 -0.069950856 -0.05736799 0.33523977 -0.013779446 -0.24673784 -0.38141346
-0.07631384 -0.11260251 0.115406044 0.29911637 -0.12215471 -0.2069446 -0.0512934 -0.16812536

in_proj_bias f4 [30]
00000000: 76ee 83bd 621a 4a3d b0cf b3bc 9e9b 0cbd
00000010: f5eb 3c3d 9f60 8cba 924b d8bb d442 40bc
00000020: 0eb2 823d 96ce fe3d 1587 1cba dc56 ad3a
00000030: e8af 503a 16d5 f238 b4e0 003a b48d 6eb9
00000040: 515a f039 9cbe 01b9 ffe1 fbba 10d3 12b8
00000050: 20c0 0d3c 413d 34bd f61a ccbc bc50 263d
00000060: d4e9 6ebd 8793 25bd 50cc bcbd d453 a23c
00000070: 27c7 6f3d 632a 61bd
-0.06441967 0.049341567 -0.021949619 -0.034328096 0.046123464 -0.0010709948 -0.0066008056 -0.011734683
0.063816175 0.12441747 -0.00059710565 0.0013224739 0.00079607824 0.000115791496 0.0004916296 -0.00022750237
0.00045843658 -0.00012373406 -0.0019217132 -3.500568e-05 0.008651763 -0.04400373 -0.0249152 0.040604338
-0.058328465 -0.040423896 -0.09218657 0.019815363 0.058539536 -0.054972064

weight f4 [10, 10]
00000000: 4818 d93e 760e 2b3e fdbf 99be 4a76 8e3d
00000010: 6ca8 f93d c96a f23d 2422 dabe 2c36 1c3d
00000020: 64c3 4b3e d154 c1bc 7349 18be 11aa 23bd
00000030: fd9f 033f 2727 98be a38b b23d 158d 0b3e
00000040: 4df1 a33e 5f79 6dbe b158 1d3d ac64 a33e
00000050: 0666 20be 4507 0ebf 4573 6e3d 84ba b03e
00000060: e282 903e eee9 2b3e b6c2 9e3e ffc5 5dbe
00000070: 06ce 883e ce8f bbbe c1b3 183e e480 2e3e
00000080: 1003 78bc ffed a5be c074 f53e 764c f73e
00000090: dc15 7abd 4800 e3be 168d 3c3e f2d3 cd3d
000000a0: 6a1c c23e b5b1 4c3d b829 9e3e 2ab7 4a3e
000000b0: 865d 7a3e 3d4e 0fbe 05f8 a3be 465a 663e
000000c0: 49d1 94be 0e8f 04bf 9afe 7c3e 2265 aebe
000000d0: 45a4 4b3e 427f 0b3e 19f9 d4bc 0881 6cbe
000000e0: f843 f33b 3b14 c93e ba63 233e 74a3 be3e
000000f0: c36e 52bd 6952 2abd 2303 953d c485 d5be
00000100: 174d ae3e 064e 2e3e b4a4 02be e3da 21be
00000110: 26db df3e 131a 0c3f c298 283e 3919 8abe
00000120: eda3 163e 7f7f 973e edf6 12bb 90cc b5be
00000130: db4a 7bbe 05c5 313d 8a70 173f 5aeb 8339
00000140: e50b 80be 4a0d 26be 5d56 aebe a7a2 a0be
00000150: 76d7 1ebd c6ea debc 870a f2be 4c86 ce3e
00000160: 372f cfbe 20c5 c73e b2e6 a83c 0917 cb3e
00000170: 20eb 9c3e a88a 54be 5f8f 8ebc d34f b6bd
00000180: 4d47 4e3e 818f 7abe 1bb2 c2bd 1759 a13d
0.42401338 0.16704735 -0.30029288 0.069561556 0.12190327 0.11836774 -0.42604172 0.0381376
0.19898754 -0.023600014 -0.14871769 -0.03995711 0.51416 -0.2971737 0.0871804 0.13628037
0.32020035 -0.2319083 0.03841466 0.31912744 -0.15663919 -0.5547984 0.0582154 0.345173
0.28224856 0.16788456 0.31007928 -0.21657561 0.26719683 -0.36633152 0.1491232 0.17041355
-0.015137449 -0.3240814 0.47940636 0.48300523 -0.061056003 -0.44336152 0.18413195 0.10050191
0.37912303 0.049974162 0.30891204 0.19796434 0.24449739 -0.1399469 -0.3202516 0.22495374
-0.29065922 -0.51780784 0.24706498 -0.34061533 0.19886883 0.13622764 -0.025997685 -0.23096097
0.007423874 0.39273247 0.15956011 0.3723408 -0.05137516 -0.0415825 0.07275989 -0.41703618
0.3404319 0.17021951 -0.12758142 -0.15806155 0.43721884 0.54727286 0.16464522 -0.26972368
0.1471097 0.2958946 -0.0022425011 -0.3550763 -0.24540274 0.043400783 0.59156096 0.00025161618
-0.25009075 -0.16216007 -0.34050265 -0.31374094 -0.0387797 -0.027211558 -0.47273657 0.40336835
-0.4046571 0.39017582 0.020617817 0.39666012 0.30648136 -0.20756018 -0.017402349 -0.08901944
0.20144387 -0.24468805 -0.09506627 0.07878321

bias f4 [10]
00000000: ac6b 693d b500 d13c 80cd 533c 7ccf 3ebd
00000010: 5e1e 003d a90b 34bc e95a 88bd 44e7 723d
00000020: 35a9 6fbc 5607 353c
0.05698745 0.025513032 0.012927413 -0.04658459 0.03127896 -0.010989108 -0.06657965 0.059302583
-0.014627744 0.011049112
