Comparative_Evaluation/Baselines/Transformer/models_u/model84.pt (torch, 548629 bytes, 48 tensors)

in_proj_weight f4 [30, 10]
0	0x3c8c5c1f	0.01713377
1	0xbe4dd95b	-0.20102446
2	0xbe24e9bc	-0.16104788
3	0xbe2a2116	-0.16614184
4	0xbd8841cd	-0.066531755
5	0x3e68f342	0.22749045
6	0xbbce5212	-0.0062964046
7	0x3d151119	0.03639326
8	0x3d5a22ce	0.05325585
9	0x3a783ae6	0.0009469226
10	0xbbdcd5ea	-0.0067393677
11	0xbc455562	-0.012044283
12	0x3b2498d7	0.0025115514
13	0x3a4264f0	0.00074155536
14	0x3cdcc0da	0.026947428
15	0x3d1ab613	0.037771296
16	0x3e55791a	0.20846978
17	0xbcbd16fa	-0.023082245
18	0x3dd5e308	0.104436934
19	0xbe46e2c5	-0.19422443
20	0xbe380473	-0.17970447
21	0xbe33b691	-0.17550112
22	0xbe579c04	-0.21055609
23	0xbd4e882d	-0.050422836
24	0x3e5d576d	0.21615382
25	0xbd8e9f00	-0.069639206
26	0x3cce15b0	0.025156826
27	0xbd135aef	-0.035975393
28	0xbc80db8d	-0.01572969
29	0xbe449ecc	-0.19201201
30	0xbe3b1679	-0.18270291
31	0xbc0489a4	-0.008089457
32	0x3dcc75b2	0.09983386
33	0xbc91dcf0	-0.017805547
34	0xbca6bf52	-0.0203549
35	0xbc8940d6	-0.016754549
36	0xbbd99dce	-0.0066411262
37	0xbde0c270	-0.10974586
38	0x3e53f064	0.2069717
39	0x3e365fb8	0.17809951
40	0x3d054bab	0.032542866
41	0xbb1a39e0	-0.0023533031
42	0x3c92edf0	0.017935723
43	0x3e327dad	0.17430754
44	0xbe01b3fc	-0.12666315
45	0xbe128ba1	-0.14311077
46	0x3cac3079	0.021019207
47	0xbcb4dfdd	-0.022079403
48	0xbe116010	-0.14196801
49	0x3e650cb1	0.22368123
50	0x3c62eb22	0.013850005
51	0xbcccfda6	-0.025023293
52	0x3d9b3ad2	0.075795785
53	0xbe401a0a	-0.18759933
54	0xbb54d3d0	-0.0032474883
55	0x3e69af9d	0.22820897
56	0xbe494634	-0.19655687
57	0xbb1b887e	-0.0023732479
58	0x3cce44a6	0.025179219
59	0xbe0498b2	-0.12948874
60	0xbcbbef88	-0.022941366
61	0x3a01e794	0.00049554673
62	0xbc8b1679	-0.01697849
63	0x3d3f37da	0.046684124
64	0xbccf4e05	-0.025305757
65	0xbcbd6172	-0.023117755
66	0x3db4bec0	0.08825445
67	0xbe42d48b	-0.19026391
68	0x3e2783bc	0.16358846
69	0x3be8dff7	0.007106777
70	0xbe1bff6c	-0.15234154
71	0x3c01a48d	0.007912767
72	0x3d92647e	0.071480736
73	0x3ce25254	0.027627148
74	0xbbcbb85e	-0.0062170466
75	0x3a82f380	0.0009990782
76	0x3d9e9f29	0.07745201
77	0xbc4c4e22	-0.0124698
78	0x3e29a139	0.16565408
79	0xbb2552a7	-0.0025226267
80	0xbc8977ac	-0.016780697
81	0xbd954f36	-0.07290499
82	0xbc4bf018	-0.0124473795
83	0xbd24f31e	-0.040270917
84	0x3d1f311b	0.03886519
85	0x3ca08432	0.019594286
86	0x3c1a59ec	0.009420853
87	0x3e16a464	0.14711148
88	0x3d0a9b23	0.033839356
89	0x3c005de4	0.007834885
90	0xbe6857ae	-0.22689697
91	0xbe0566ec	-0.13027543
92	0x3dab16ce	0.08353959
93	0xbe5c0803	-0.21487431
94	0xbe539cdc	-0.20665306
95	0x3e4388e4	0.19095188
96	0xbd588a74	-0.052866414
97	0xbdad400d	-0.08459482
98	0xbbe5b28d	-0.0070098103
99	0xbc03bc51	-0.008040504
100	0xbdfb3f70	-0.12267959
101	0xbc040a32	-0.008059071
102	0xbd4fafae	-0.05070465
103	0x3e0067e9	0.12539639
104	0xbe2698c4	-0.16269213
105	0xbb116a06	-0.002218844
106	0x3d672f15	0.056441385
107	0x3d855e68	0.06512147
108	0x3d539891	0.05165917
109	0x3e106b02	0.1410332
110	0x3e0cf2e2	0.13764527
111	0x3b263e68	0.0025366787
112	0x3cbcdee1	0.023055496
113	0x3c975f0e	0.018477943
114	0xbd502149	-0.050812993
115	0xbe180b9b	-0.14848177
116	0x3b31fb96	0.0027158014
117	0xbcbebb1a	-0.023282576
118	0x3e513faa	0.20434442
119	0xbc0dd4da	-0.008656705
120	0x3c31963a	0.010839039
121	0x3e4e667b	0.2015628
122	0x3bfcdb98	0.0077166073
123	0x3bb7737d	0.005598484
124	0xbd265e17	-0.040617075
125	0xbccf3342	-0.025292996
126	0xbe44c72a	-0.192166
127	0xbd6dfb84	-0.058101192
128	0x3dcd859c	0.100352496
129	0x3dd773b4	0.105201155
130	0x3e22aa46	0.15885267
131	0x3c847e17	0.016173406
132	0xbdd3a9aa	-0.10335095
133	0xbb805a46	-0.0039170114
134	0x3cbf500d	0.0233536
135	0xbbb1f9c4	-0.0054313857
136	0xbe22854b	-0.1587116
137	0x3c4143fa	0.011795992
138	0x3d6e2846	0.058143876
139	0xbb0a8d4e	-0.0021141353
140	0xbb41cfd0	-0.0029573329
141	0x3df4230c	0.11920747
142	0xbc71bc08	-0.014754303
143	0x3c713daa	0.0147241745
144	0x3d5c08c2	0.05371929
145	0x3b4d63a6	0.0031339913
146	0xbe6a84f2	-0.22902277
147	0xbadf45e8	-0.0017034383
148	0xbb7879b3	-0.0037914335
149	0xbae972a4	-0.0017810655
150	0x3e191f4c	0.14953345
151	0xbe30ae61	-0.1725402
152	0xbe29070d	-0.16506596
153	0xbe3214f4	-0.17390805
154	0x3e27769f	0.16353844
155	0x3c27de89	0.010245928
156	0x3e2caa2b	0.16861789
157	0xbc4b6e3c	-0.012416419
158	0x3e3e7038	0.18597496
159	0x3c046e26	0.008082902
160	0x3b7034e8	0.0036652628
161	0xbcc36cb4	-0.023855545
162	0x3e0c85a5	0.13722856
163	0xbe5a85bb	-0.21340077
164	0x3be578ce	0.0070029264
165	0xbe6205ac	-0.22072476
166	0x3d53fa99	0.05175266
167	0xbcc98c2e	-0.024602976
168	0xbe10b356	-0.14130911
169	0xbe17ae0e	-0.1481249
170	0x3e5a79a6	0.21335468
171	0xbe00d316	-0.12580523
172	0xbc10066e	-0.008790595
173	0x3e6534f3	0.2238348
174	0xbce2150f	-0.027597932
175	0xbbe6299c	-0.007024003
176	0x3e3cbfa1	0.18432476
177	0x3d26443a	0.04059241
178	0xbd1d416e	-0.038392477
179	0xbdad5ab9	-0.084645696
180	0xbcb972d2	-0.022637758
181	0xbe239c3a	-0.15977564
182	0xbcdedc74	-0.02720473
183	0xbcc69585	-0.024241218
184	0xbbaf3656	-0.0053470535
185	0x3b3d8067	0.0028915645
186	0xbe2be4db	-0.1678652
187	0x3e2b7921	0.16745426
188	0x3d7f1b6e	0.06228202
189	0x3c870844	0.016483434
190	0xbe32960a	-0.17440048
191	0x3d30e156	0.043183647
192	0xbd5e5d50	-0.05428821
193	0xbd93ad0b	-0.0721074
194	0xbe1bf30c	-0.15229434
195	0xbdee84c7	-0.11646419
196	0xbd8280fd	-0.06372259
197	0xbc4a1a2b	-0.0123353405
198	0x3ccaebf6	0.024770718
199	0x3ccaad41	0.024740817
200	0xbed4f45a	-0.41592675
201	0x3e5f837b	0.218275
202	0xbe6f3daf	-0.23363374
203	0xbe2f24f8	-0.17103946
204	0xbeb93fb9	-0.3618143
205	0xbde95ec5	-0.11395029
206	0x3df6a3e7	0.12042981
207	0xbe38da1c	-0.18051952
208	0xbe5653d7	-0.2093042
209	0x3e54384f	0.20724605
210	0xbed0bb2a	-0.40767795
211	0xb9c740d4	-0.00038004539
212	0x3e9ea250	0.3098321
213	0xbe8c4bff	-0.2740173
214	0xbdce595c	-0.10075638
215	0x3e7b740a	0.24555984
216	0x3d324597	0.043523397
217	0xbde331e4	-0.110935
218	0x3e725d60	0.23668432
219	0xbccf449c	-0.02530127
220	0xbe121002	-0.14263919
221	0x3ed52078	0.41626334
222	0x3e81f0bf	0.25378987
223	0xbe525046	-0.20538434
224	0xbe5f140d	-0.21784993
225	0x3e51cf2f	0.2048919
226	0xbea5ab09	-0.32357052
227	0x3e376c0f	0.17912315
228	0x3ed4f6ea	0.4159463
229	0x3d3106c2	0.043219335
230	0xbc793267	-0.015209771
231	0x3d8b3ce0	0.0679872
232	0xbdb52cfd	-0.088464715
233	0x3e8641c8	0.26222062
234	0x3e243389	0.16035284
235	0xbea1f388	-0.31631112
236	0xbe270ea5	-0.1631418
237	0xbe087e1f	-0.13329361
238	0xbe3522c7	-0.17689048
239	0xbdaf6339	-0.08563847
240	0xbd81cc92	-0.06337847
241	0xbe9c5031	-0.3052993
242	0x3e2fcd89	0.17168249
243	0x3e8630f0	0.2620921
244	0xbe842fc0	-0.2581768
245	0xbdddd524	-0.10831669
246	0xbe38ada1	-0.18034984
247	0xbe98c111	-0.29834798
248	0x3d0cc957	0.0343717
249	0x3df866e4	0.12129
250	0xbd82892d	-0.063738205
251	0xbde8b344	-0.11362317
252	0x3cd8e3bc	0.02647578
253	0x3e44540a	0.19172683
254	0x3edb9616	0.42887944
255	0x3cb3ff91	0.02197245

in_proj_bias f4 [30]
0	0x00000000	0.0
1	0x00000000	0.0
2	0x00000000	0.0
3	0x00000000	0.0
4	0x00000000	0.0
5	0x00000000	0.0
6	0x00000000	0.0
7	0x00000000	0.0
8	0x00000000	0.0
9	0x00000000	0.0
10	0x00000000	0.0
11	0x00000000	0.0
12	0x00000000	0.0
13	0x00000000	0.0
14	0x00000000	0.0
15	0x00000000	0.0
16	0x00000000	0.0
17	0x00000000	0.0
18	0x00000000	0.0
19	0x00000000	0.0
20	0xbd4c53d6	-0.04988464
21	0xbd4ae1a6	-0.0495316
22	0x3d4d3887	0.050102737
23	0xbd4e099f	-0.050302144
24	0x3d48685a	0.048927642
25	0x3d465041	0.04841638
26	0xbd4d6d86	-0.050153278
27	0x3d4ae9ce	0.04953938
28	0x3d57f473	0.05272336
29	0xbd55d24b	-0.052202504

weight f4 [10, 10]
0	0x3eda51d0	0.42640543
1	0xbea0c7d9	-0.31402472
2	0x3e4de75e	0.20107791
3	0xbec55266	-0.38539428
4	0x3e079df3	0.13243847
5	0xbe1aa20b	-0.15100877
6	0x3ecd4aff	0.4009628
7	0x3eb0f6c4	0.34563267
8	0xbdf8b41d	-0.12143729
9	0xbeb614b0	-0.35562658
10	0xbebad85b	-0.3649319
11	0xbed19459	-0.40933493
12	0x3e9ce80a	0.30645782
13	0x3eedeb5f	0.46468636
14	0x3e817bd4	0.25289786
15	0x3cf366e0	0.02971214
16	0x3e50a3e1	0.20375015
17	0x3f0afc03	0.5429079
18	0xbeb5a330	-0.35476065
19	0x3dd9356a	0.10605891
20	0xbde8206b	-0.11334308
21	0xbed33469	-0.41250923
22	0xbe5cc61b	-0.21559946
23	0x3ef5c88c	0.48004568
24	0x3e991462	0.29898363
25	0x3e8d3973	0.27582893
26	0x3e520c7f	0.2051258
27	0x3e929b5f	0.28634164
28	0xbec4ee8f	-0.38463256
29	0x3ef004fe	0.4687881
30	0x3eaa57e2	0.33270174
31	0xbec78f9b	-0.3897675
32	0xbee652d8	-0.4498508
33	0x3e2aa141	0.16663076
34	0x3dcf3b3f	0.10118722
35	0x3e9b89c7	0.30378553
36	0x3ea40ad1	0.32039502
37	0x3e9475e5	0.28996196
38	0xbeaa921d	-0.333146
39	0x3e33b16a	0.17548147
40	0xbedb0d39	-0.42783526
41	0x3def2ab7	0.11678069
42	0x3e4baf7f	0.19891165
43	0xbd3fe8a4	-0.046852723
44	0x3e107953	0.14108782
45	0xbe4c26c2	-0.1993666
46	0xbd8ac67d	-0.0677614
47	0x3eae4bab	0.34042105
48	0x3eea2b43	0.4573613
49	0x3ea5cd32	0.32383114
50	0x3f03a5fb	0.5142514
51	0x3e2fd45a	0.1717085
52	0x3c7682e3	0.015045854
53	0x3c5cec53	0.013484078
54	0x3eb6703a	0.35632497
55	0xbef90ccf	-0.48642585
56	0x3dd248cc	0.10267791
57	0xbf0b2e6c	-0.5436771
58	0x3e702668	0.23452151
59	0xbe83bf92	-0.25732094
60	0xbc088a33	-0.0083337305
61	0x3e1b2a58	0.15152872
62	0xbecb074b	-0.39654002
63	0xbe70e428	-0.23524535
64	0x3db0b4c4	0.08628228
65	0xbe135f01	-0.1439171
66	0xbe7daedc	-0.24773735
67	0x3c889a67	0.016675187
68	0x3edfc5dc	0.43705642
69	0xbd660d75	-0.056165177
70	0xbef2d618	-0.47428966
71	0xbeb584da	-0.3545292
72	0x3e625257	0.22101723
73	0x3e871cb7	0.26389095
74	0xbf043eba	-0.51658213
75	0x3e9e9479	0.3097265
76	0xbea143b9	-0.3149698
77	0x3dd6a332	0.10480346
78	0xbe5a39a1	-0.21311046
79	0xbee714de	-0.45133108
80	0x3e5792d3	0.21052103
81	0xbdc14d1a	-0.09438534
82	0x3e192db1	0.14958836
83	0xbe63e052	-0.2225354
84	0x3ee9ee58	0.45689654
85	0x3ed325b8	0.41239715
86	0xbef9e5b0	-0.4880805
87	0x3f105978	0.5638652
88	0x3dd126e5	0.10212497
89	0x3ce12bbd	0.027486676
90	0xbe4017c9	-0.18759073
91	0xbeaadb59	-0.33370474
92	0x3ec201df	0.37892053
93	0x3f072059	0.52783734
94	0xbef7b7ad	-0.4838232
95	0x3ecbd707	0.3981249
96	0xbeef06b1	-0.46684793
97	0x3e068738	0.1313752
98	0xba772cf6	-0.0009429002
99	0x3df967b4	0.12177983

bias f4 [10]
0	0xbd391a47	-0.045191076
1	0x3d41467f	0.04718637
2	0xbd4cbcc1	-0.049984697
3	0x3d2a7bde	0.041622035
4	0x3d4c91f6	0.049943887
5	0xbd4abdc3	-0.049497377
6	0xbd4cf985	-0.050042648
7	0x3d55802b	0.052124184
8	0x3d49dca8	0.0492827
9	0xbd4cf096	-0.050034128

weight f4 [2048, 10]
0	0xbbdd2d9e	-0.0067498228
1	0x3aa4d44f	0.001257548
2	0xb8ad1a00	-8.254126e-05
3	0x3c1e7527	0.009671486
4	0xbae37806	-0.0017354495
5	0xbb27f508	-0.0025628228
6	0x3bc81766	0.006106305
7	0xbbea7fa3	-0.0071563288
8	0xbbb0b002	-0.0053920755
9	0xbb9a5fe9	-0.0047111404
10	0xbcf08c41	-0.029363753
11	0xbda0f063	-0.0785835
12	0x3d591a07	0.053003337
13	0xbd6efa7c	-0.05834435
14	0x3dbdb617	0.092632465
15	0xbb21d1e8	-0.0024691764
16	0xbd23bfe0	-0.039977908
17	0x3c4a9cfb	0.012366529
18	0xbcc492b4	-0.023995735
19	0x3da5aae6	0.08089237
20	0xbdbb8f9a	-0.09158249
21	0xbda76706	-0.08173947
22	0x3dcec94f	0.1009699
23	0xbbcb3254	-0.006201068
24	0x3c0cabfe	0.008585928
25	0xba57ac10	-0.00082272384
26	0x3d698f97	0.057021704
27	0x3c87188a	0.016491193
28	0x3db4a54f	0.088205926
29	0x3caaf1e7	0.020867301
30	0xbbf2c21d	-0.007408394
31	0x3ac99278	0.0015378734
32	0xbc37b6c6	-0.01121301
33	0xbbd3ca12	-0.0064632976
34	0xbb2a55aa	-0.0025991001
35	0xbb6b5c57	-0.0035913193
36	0x3b1ca4c8	0.0023901928
37	0x3b4a2f9b	0.003085113
38	0xbc2648f9	-0.010149234
39	0x3b3d4c03	0.0028884418
40	0x3aa38a88	0.0012477199
41	0xbb01a0dd	-0.001977972
42	0xbbdc6d31	-0.006726884
43	0x3c0397c3	0.008031788
44	0xbb10bf57	-0.0022086704
45	0x37a65680	1.9829022e-05
46	0xbbb32aa0	-0.005467728
47	0x3befd5c8	0.007319186
48	0xb94e10b0	-0.00019651907
49	0xbb81a616	-0.0039565666
50	0xbb8f9f39	-0.0043829945
51	0xbdb638fa	-0.08897586
52	0x3d5ce31b	0.053927522
53	0xbcf1c5c6	-0.029513251
54	0x3cd22069	0.02565022
55	0xbd322f91	-0.043502394
56	0x3da15605	0.07877735
57	0xbd2c4927	-0.04206195
58	0x3dc1be60	0.09460139
59	0x3d86fe24	0.06591442
60	0x3dacea82	0.08443166
61	0xbb0555fc	-0.002034544
62	0xbc9002f2	-0.01757953
63	0x3da27ba2	0.07933737
64	0xbd0e2e0a	-0.034711875
65	0x3d1c0aa0	0.03809607
66	0xbd2b2cd0	-0.041790783
67	0xbda35d61	-0.07976795
68	0xbdc4812c	-0.0959495
69	0xbae292ed	-0.0017286219
70	0xbd2c6fd1	-0.042098824
71	0xbce8889f	-0.028385459
72	0x3d33c31f	0.043887254
73	0xbd646090	-0.05575615
74	0x3db17f5f	0.08666872
75	0xbd9dc924	-0.0770438
76	0x3dd9495f	0.106096976
77	0x3ce4e4b0	0.027941078
78	0x3dc9f7bf	0.09861707
79	0x3c8fcb12	0.017552886
80	0x3ac215be	0.0014807505
81	0x3b3f522a	0.002919326
82	0x3aae327a	0.001329019
83	0x38e0ad88	0.00010713475
84	0x3bf97573	0.007612878
85	0xbc037028	-0.008022346
86	0x3a1b8ffe	0.0005934237
87	0xbaf7577a	-0.0018870675
88	0x3ba3c860	0.004998252
89	0xbbff3fe1	-0.0077895974
90	0xbc4e86f4	-0.0126054175
91	0x3a9e7f4c	0.0012092381
92	0x3b02317a	0.0019865916
93	0xba45535a	-0.0007527374
94	0x3b6f6a31	0.00365318
95	0xba2ef788	-0.0006674458
96	0x3aba9a26	0.0014236614
97	0x3b248051	0.0025100897
98	0xbbba80e7	-0.005691636
99	0xba60ef40	-0.0008580573
100	0x3d9fd03d	0.0780339
101	0x3d463709	0.04839233
102	0xbdc8c176	-0.09802525
103	0x3c49c7ba	0.012315685
104	0xbd0a501e	-0.033767812
105	0x3c33cf77	0.010974756
106	0xbaa0cf47	-0.0012268805
107	0x3dc870c8	0.09787136
108	0xbda0a40b	-0.07843789
109	0xbdb7fe46	-0.08984046
110	0xbd8955b0	-0.06705797
111	0xbcadcf8c	-0.02121713
112	0x3da35e76	0.07977001
113	0xbcd7a978	-0.026325926
114	0x3b8fccea	0.0043884413
115	0xbd56e573	-0.052464914
116	0x3d9dbede	0.07702421
117	0xbc8e9bf8	-0.017408356
118	0xbc5d4f46	-0.01350767
119	0x3d855e13	0.06512084
120	0xbdb1af4e	-0.08676015
121	0xbdaa675a	-0.08320494
122	0x3dadd6eb	0.08488258
123	0xbd4015b4	-0.046895698
124	0x3da5d481	0.080971725
125	0x3be8701a	0.0070934417
126	0x3d82f9cb	0.063953005
127	0x3dc3f5c9	0.09568364
128	0x3dceda48	0.101002276
129	0xbdcb7fb4	-0.09936467
130	0xbc0a44d8	-0.008439265
131	0x3b2e6a12	0.0026613516
132	0xbcee59b2	-0.029095504
133	0xbb8db483	-0.004324497
134	0x3c931449	0.017954009
135	0xbb8602f7	-0.004089709
136	0xbc40d924	-0.01177052
137	0x3c0409e0	0.008058995
138	0x3c11b587	0.008893377
139	0x3c197b69	0.009367802
140	0x3d47c39d	0.048770536
141	0x3d0a8713	0.033820223
142	0xba29d5d0	-0.0006478699
143	0x3dad3ef4	0.08459273
144	0xbc42ce30	-0.011889979
145	0x3da7f8bb	0.082017384
146	0xbd3dc6be	-0.046332113
147	0xbdd2abb7	-0.10286658
148	0xbd350e6a	-0.0442032
149	0xbdb3b117	-0.087740116
150	0x3c9552c3	0.01822794
151	0xbc833bfe	-0.016019817
152	0x3c88cf89	0.016700523
153	0x3c6523cd	0.013985586
154	0x3b3fd7ca	0.0029272907
155	0x3cc26e75	0.02373431
156	0x3c7084dc	0.014680114
157	0xbb7ab73d	-0.0038256191
158	0xbbd08e3c	-0.006364612
159	0xbc6a41f5	-0.014297952
160	0xbbcdb3b4	-0.006277526
161	0xbbafb978	-0.005362686
162	0xbb63cbec	-0.0034758998
163	0xba43e860	-0.0007473286
164	0xbbc211f0	-0.0059225485
165	0x3bcd9dfe	0.0062749377
166	0x3bd733cd	0.0065674544
167	0x3bfd7c72	0.0077357823
168	0xbac38b5e	-0.0014918854
169	0x3ab8c71e	0.0014097427
170	0xbd29d7e4	-0.041465655
171	0xbd63f3fc	-0.055652604
172	0x3da15dbf	0.07879209
173	0xbcfafc14	-0.030637778
174	0x3da6ec18	0.081505
175	0xbdad7a28	-0.08470565
176	0x3da0aa2c	0.07844958
177	0xbd7cf3c0	-0.061755896
178	0x3d827165	0.063692845
179	0x3d140b6a	0.036143698
180	0xbde1bfcc	-0.110229105
181	0xbda570a0	-0.08078122
182	0xbd89b12e	-0.067232475
183	0xbdd32a4f	-0.10310804
184	0xbdb24438	-0.08704418
185	0xbdab2749	-0.083571024
186	0xbdc83feb	-0.097778164
187	0x3d63a14c	0.055573747
188	0x3dba0ecf	0.09084856
189	0x3dd22b38	0.102621496
190	0xbd24dfc8	-0.040252477
191	0xbd3003af	-0.042972263
192	0x3dc325f3	0.095287226
193	0x39501c38	0.00019846938
194	0x3db18161	0.08667255
195	0xbcac1729	-0.021007137
196	0x3d3801a3	0.044923436
197	0x3b504215	0.003177767
198	0x3be5a19a	0.00700779
199	0x3d8ae0b2	0.067811385
200	0x3c8a558e	0.016886499
201	0xbd830ce9	-0.06398947
202	0x3cb390ae	0.021919575
203	0x3cc318a8	0.023815468
204	0xbcad73b3	-0.021173334
205	0xbbd12ac5	-0.0063832724
206	0x3d6f99e5	0.058496375
207	0x3a420e90	0.00074026827
208	0x3b4b718e	0.0031043026
209	0xbb441c4a	-0.0029924088
210	0xbc85d6fd	-0.016337866
211	0xbd37cd55	-0.044873554
212	0xbc902530	-0.017595857
213	0xbc0c6012	-0.008567827
214	0x3cda9fa5	0.026687453
215	0xbc795527	-0.015218056
216	0xbbc73927	-0.006079811
217	0x3caa2ea6	0.020774197
218	0x3c84a221	0.01619059
219	0x3c551440	0.013005316
220	0x3dbcfd7d	0.092280366
221	0x3d96c543	0.073618434
222	0xbd3dc576	-0.04633089
223	0x3d1845c0	0.037175894
224	0xbd3fd792	-0.046836443
225	0x3dc38cfd	0.09548376
226	0xbdaf097d	-0.085467316
227	0x3dac0589	0.08399493
228	0x3d11523e	0.035478823
229	0xbcf14e4a	-0.029456276
230	0x3d654a60	0.055979133
231	0x3cd5ae9e	0.02608424
232	0xbcb3468e	-0.021884229
233	0xbb3a19e6	-0.0028396784
234	0xbb3cf2d2	-0.0028831256
235	0x3db9df81	0.09075833
236	0xbbc20bf5	-0.0059218355
237	0xba8007ad	-0.0009767913
238	0xbd8fd6ea	-0.070234135
239	0xbbf2f9b4	-0.007415021
240	0xbba57a8e	-0.00505001
241	0xbb1d3aed	-0.0023991421
242	0xb8a35500	-7.788278e-05
243	0x3bc667f8	0.0060548745
244	0x3b586062	0.0033016433
245	0x3c10fd28	0.00884942
246	0xbc04932c	-0.008091729
247	0xbb4c58e6	-0.0031180917
248	0xbbaddc09	-0.0053057713
249	0xbb9fb4e4	-0.0048738588
250	0xbce71e43	-0.028212672
251	0xbc26f663	-0.010190579
252	0x3db0f260	0.08639979
253	0xbbcca820	-0.006245628
254	0x3d7e5e35	0.06210156
255	0xbd584d3e	-0.05280804

bias f4 [2048]
0	0xbb1ca946	-0.0023904606
1	0x3e26721d	0.16254468
2	0x3e3bb022	0.18328908
3	0xbe0c51ea	-0.13703123
4	0xbc68aa71	-0.014200793
5	0x3cf9d905	0.03049899
6	0xbd933ad1	-0.07188953
7	0x3e19dc70	0.15025496
8	0xbd4919a6	-0.049096726
9	0xbe0fa107	-0.14026271
10	0x3e101939	0.14072122
11	0x3e29a2a0	0.16565943
12	0x3de2c308	0.110723555
13	0x3c40f4f9	0.011777156
14	0x3cb0d67b	0.021586647
15	0x3be2d8b3	0.006922805
16	0x382ac700	4.071649e-05
17	0x3ea57b30	0.32320547
18	0xbe2fd26a	-0.1717011
19	0x3e53c746	0.20681486
20	0xbc8fa1fd	-0.017533297
21	0xbc0f30ee	-0.008739693
22	0x3c957c84	0.01824785
23	0x3db50edd	0.088407256
24	0xbd51a91d	-0.05118667
25	0x3e6ea75b	0.23306029
26	0x3dbe61ad	0.09295974
27	0x3e0d5644	0.13802439
28	0x3d80ca33	0.062885664
29	0x3e493011	0.19647242
30	0x3ea4a3d0	0.3215623
31	0xba82a692	-0.0009967855
32	0x3d040f98	0.032241434
33	0x3c90945c	0.017648868
34	0x3e4d982a	0.20077577
35	0xbd479c92	-0.0487333
36	0x3dcaa4fe	0.09894751
37	0x3dc8b760	0.09800601
38	0xbd01b427	-0.031665947
39	0xbe17a9a6	-0.1481081
40	0x3d5adc88	0.05343297
41	0xbe08ccbc	-0.1335935
42	0xbd8a1a99	-0.06743354
43	0x3c833c67	0.016020013
44	0x3d20b29d	0.03923284
45	0xbe422f23	-0.18963294
46	0x3d81088a	0.06300457
47	0xbd08f9f0	-0.033441484
48	0x3e826820	0.25470066
49	0xbda807f8	-0.08204645
50	0x3e2128d9	0.15738238
51	0x3eb471d2	0.35243088
52	0xbce0baab	-0.02743276
53	0xb8267de0	-3.9694714e-05
54	0xbd421b8b	-0.04738955
55	0x3dfbe50f	0.12299549
56	0xbd37cfe4	-0.044875994
57	0x3e6b5f7c	0.22985643
58	0x3eb678b2	0.35638958
59	0x3ea53bcf	0.32272193
60	0xbd3d7332	-0.046252437
61	0x3df324fc	0.118722886
62	0x3c2be426	0.010491407
63	0xbd61351c	-0.05498229
64	0x3df70a8a	0.12062557
65	0x3d651b9f	0.055934545
66	0x3e21401f	0.15747117
67	0xbd7d7b1c	-0.061884984
68	0x3cb21c15	0.021741906
69	0xbcbdd0a4	-0.023170777
70	0xbe3fe0a5	-0.18738039
71	0x3ea93320	0.33046818
72	0xbd1b5987	-0.037927177
73	0x3db37f0a	0.08764465
74	0xbd93d927	-0.07219153
75	0xbcc38054	-0.023864903
76	0x3e8d7949	0.27631596
77	0xbd224dc4	-0.039624944
78	0x3d20cc18	0.03925714
79	0xbdd34d16	-0.10317437
80	0x3e392aae	0.18082687
81	0xbcb3d6a8	-0.021952942
82	0x3e7df043	0.24798684
83	0xbd7eae78	-0.062178105
84	0x3d0b7a1d	0.034052003
85	0xbd4e7710	-0.050406516
86	0xbe1c28e1	-0.15249969
87	0x3ea49df3	0.32151756
88	0xbd53ae16	-0.051679693
89	0x3d5f4868	0.05451241
90	0x3e54f2e8	0.20795786
91	0xbd90b5d6	-0.070659325
92	0x3cdef1d5	0.027214924
93	0x3e9ff43f	0.31241032
94	0x3eabf65d	0.33586398
95	0xbe11d61f	-0.14241837
96	0x3e45af0c	0.19305056
97	0x3d9d8efe	0.07693289
98	0xbd8a11ba	-0.06741662
99	0xbd6a1f9f	-0.057159062
100	0xbddd5974	-0.108080775
101	0xbe71488d	-0.23562832
102	0x3e7c665c	0.24648422
103	0xbd83a5df	-0.06428122
104	0xbdeb7aeb	-0.11498054
105	0x3e0c0e6b	0.13677375
106	0x3e12d874	0.14340383
107	0x3e0eac34	0.13932878
108	0x3e26e296	0.16297373
109	0x3e6be4a4	0.23036438
110	0x3e806559	0.25077322
111	0xbdca4856	-0.09877078
112	0x3df993a0	0.1218636
113	0x3df9e362	0.12201573
114	0xbdd7cbfd	-0.105369546
115	0xbd8958c8	-0.06706387
116	0xbcc7e8dd	-0.02440303
117	0xbc3679b6	-0.011137417
118	0xbcb888b5	-0.022526124
119	0x3e0d6812	0.13809231
120	0xbd798bd9	-0.060924385
121	0x3e56be1e	0.20970961
122	0xbe115480	-0.1419239
123	0x3de46413	0.111519
124	0x3e6f8596	0.23390803
125	0x3d0b795b	0.03405128
126	0xbdbd954e	-0.09256993
127	0x3e4cb9aa	0.199927
128	0x3ea093da	0.31362802
129	0x3d82c234	0.063846976
130	0xbdadc7fe	-0.08485411
131	0x3dc03519	0.093851276
132	0x3da120f1	0.07867611
133	0xbd3d2873	-0.046181154
134	0xbd454384	-0.04816009
135	0x3e551a4e	0.20810816
136	0xbe8d00e6	-0.27539748
137	0xbd7ae95d	-0.06125771
138	0xbd861d66	-0.06548576
139	0xbd4fd8ee	-0.05074399
140	0xbdb4b453	-0.088234566
141	0xbcd87add	-0.026425773
142	0xbcc449ae	-0.023960914
143	0xbd04cc13	-0.032421183
144	0xbd401023	-0.04689039
145	0x3df1c47c	0.118050545
146	0x3d60aa73	0.054850053
147	0x3e01e8de	0.12686488
148	0xbd2a118f	-0.04152065
149	0x3d647f4a	0.055785455
150	0xbc98175a	-0.018565822
151	0xbd38bfa3	-0.045104634
152	0xbd38f280	-0.04515314
153	0xbe17a39a	-0.14808503
154	0x3dc356f6	0.09538071
155	0x3e654230	0.2238853
156	0x3de58239	0.112064786
157	0x3e8af13d	0.27137175
158	0x3e3e3acf	0.18577121
159	0x3e3c7f86	0.18408021
160	0x3c55bb63	0.013045165
161	0xbdf2e58b	-0.11860188
162	0x3e882d4f	0.26597068
163	0x3eba1db6	0.36350793
164	0x3dfbda96	0.12297551
165	0xbdd72e01	-0.105068214
166	0x3e51c013	0.20483427
167	0x3e6b0645	0.2295161
168	0xbd380f9d	-0.044936765
169	0x3ce4d570	0.027933806
170	0x3d1f62ab	0.038912456
171	0x3e4e672e	0.20156547
172	0xbd5ff273	-0.054674577
173	0x3d77ec37	0.060528006
174	0xbd5d6c03	-0.054058086
175	0x3d8dfee1	0.0693338
176	0xbe45392b	-0.19260089
177	0x3e39bb70	0.18137908
178	0xbc9f7a26	-0.019467425
179	0xbe1c9c55	-0.15294011
180	0xbde793aa	-0.113074616
181	0x3e6a4c3c	0.22880644
182	0x3d0a0b81	0.033702377
183	0x3cc4b720	0.024013102
184	0x3e85e81b	0.26153645
185	0xbde2c3aa	-0.11072476
186	0x3dc19ac3	0.094533466
187	0x3b99c9ca	0.0046932446
188	0x3e08b5fd	0.13350673
189	0xbd0d51f9	-0.034502003
190	0x3e832509	0.25614193
191	0x3e56cbec	0.20976228
192	0xbe0e3f10	-0.13891244
193	0xbb3c6578	-0.0028747004
194	0xbe116d7e	-0.14201924
195	0xbd2be125	-0.04196276
196	0x3d0f0b97	0.034923162
197	0x3e91c396	0.28469533
198	0x3e042ffa	0.12908927
199	0x3e878a94	0.26472914
200	0xbd0c8cf5	-0.034314115
201	0xbe00a3cd	-0.12562485
202	0x3e83b7da	0.25726205
203	0x3e5b50cf	0.21417545
204	0xbe04d109	-0.12970366
205	0xbda5c420	-0.080940485
206	0x3e67a7e2	0.22622636
207	0x3ea80cf0	0.3282237
208	0x3e796662	0.24355462
209	0xbd6d7244	-0.0579703
210	0xbe12e371	-0.14344575
211	0xbdd714a3	-0.10501983
212	0x3d8ef80c	0.06980905
213	0xbced9758	-0.02900283
214	0xbd15286e	-0.03641551
215	0xbd28ce9b	-0.04121266
216	0x3d1558c2	0.0364616
217	0x3e812974	0.2522694
218	0xbd26057f	-0.040532585
219	0xbd1fec04	-0.03904344
220	0xbe2c634e	-0.16834757
221	0xbd08384a	-0.033256806
222	0x3e88d43d	0.26724425
223	0x3dc519b7	0.09624045
224	0xbde47c91	-0.11156572
225	0xbce788eb	-0.02826353
226	0xbca30405	-0.019899378
227	0x3ea55e03	0.32298288
228	0x3e8bcae2	0.27303225
229	0x3e30caf6	0.17264923
230	0x3c1115ff	0.008855342
231	0x3d86cb13	0.06581702
232	0xbdbe5abb	-0.09294649
233	0xbcb274be	-0.021784183
234	0x3e86ddd5	0.2634112
235	0xbb92c513	-0.0044790595
236	0xbdb02b8f	-0.08602058
237	0xbdbb2297	-0.09137457
238	0x3e47b30b	0.19501893
239	0x3bdd3532	0.006750726
240	0x3e247d65	0.16063459
241	0xbc2f58de	-0.01070234
242	0x3c14f4fa	0.00909161
243	0xbd9b72c5	-0.0759025
244	0x3d7e5f6a	0.062102713
245	0x3e274e5e	0.16338488
246	0x3e7042ab	0.23462932
247	0x3c771fa9	0.015083232
248	0xbd856c96	-0.06514852
249	0x3de488e0	0.11158919
250	0xbe19ffe2	-0.15039018
251	0xbc1fb6ca	-0.00974817
252	0x3e277d84	0.16356474
253	0x3dfbc055	0.12292544
254	0xbdfbd706	-0.12296872
255	0x3ca285fb	0.019839277

weight f4 [10, 2048]
0	0x3c04780d	0.008085263
1	0xbd668ad7	-0.05628475
2	0x3a32f3ca	0.00068264885
3	0xbbd43339	-0.006475833
4	0xbb046188	-0.0020199735
5	0xbd07bcfc	-0.033139214
6	0x3b0bff55	0.0021361907
7	0xbaf3b26c	-0.0018592603
8	0xbbf6ce33	-0.007531905
9	0x3c03dcac	0.008048218
10	0xbc1681ff	-0.009186267
11	0xbd37fcf5	-0.044918973
12	0x3b1499b7	0.002267463
13	0xbc911f54	-0.017715134
14	0xbdb829f5	-0.08992378
15	0x3b5c2d74	0.0033596428
16	0xbb4090f6	-0.0029383278
17	0xbcaa7a69	-0.020810323
18	0x3c4be7dc	0.012445416
19	0xbdbc0a6e	-0.09181677
20	0xbc41b76a	-0.0118235145
21	0xbccbe4cc	-0.024889372
22	0x3d3b2700	0.04569149
23	0xbd80aa82	-0.06282522
24	0x3ab4b240	0.0013786033
25	0xbd718da0	-0.058972955
26	0x3dd90e79	0.105984636
27	0xbd8ca1c9	-0.068667956
28	0xbdd045e6	-0.10169582
29	0xbc8de735	-0.017322162
30	0xbda404e4	-0.08008745
31	0xbd8fdf87	-0.07025056
32	0x3ccb9a8f	0.024853973
33	0xbd1c6e03	-0.038190853
34	0x3d32abd6	0.043620907
35	0xbaafb06e	-0.001340402
36	0xbbe8e000	-0.007106781
37	0x3abb8903	0.00143078
38	0xbc190c80	-0.009341359
39	0x3ba6cff2	0.005090707
40	0xbdd1a46b	-0.10236438
41	0x3c2de0a3	0.01061264
42	0x3d7c46d9	0.061591003
43	0x3c101525	0.008794104
44	0x3b79ecf6	0.0038135624
45	0x3b95144c	0.0045495387
46	0xbd328a2d	-0.043588806
47	0x3bf6980a	0.0075254487
48	0x3d28f4fa	0.041249253
49	0x394f5df0	0.00019776053
50	0xbd0fe145	-0.035126943
51	0xbd184665	-0.03717651
52	0xbbfe9854	-0.007769624
53	0xbdc6388a	-0.09678753
54	0xbd1b66b2	-0.037939735
55	0xbd1cb389	-0.038257156
56	0xbd0619c5	-0.03273942
57	0xbbfbb76f	-0.007681779
58	0xbd9bee62	-0.07613827
59	0xbdb4dd33	-0.08831253
60	0x3ac0202e	0.0014658028
61	0xbd973e41	-0.07384921
62	0x3c51ed83	0.012812975
63	0xba86666e	-0.0010253915
64	0xbd2692ef	-0.04066747
65	0xbd1078b6	-0.03527137
66	0xbd6bb1fb	-0.057542782
67	0xbd861df7	-0.06548684
68	0xbd275615	-0.04085358
69	0x3d29fd45	0.041501302
70	0xbd702513	-0.058629107
71	0xbc4af5ca	-0.012387702
72	0xbcda169e	-0.026622113
73	0xbd9f33ed	-0.07773576
74	0xba696e90	-0.000890472
75	0xba167250	-0.000573908
76	0xbd441694	-0.047873095
77	0xbc2d59d3	-0.010580498
78	0x3d346bd8	0.04404816
79	0x3beb2b6b	0.0071768067
80	0xbdba0505	-0.09082989
81	0xbdc896c7	-0.097943835
82	0xbd188339	-0.03723452
83	0xbd588cf0	-0.052868783
84	0xbcc5c406	-0.024141323
85	0xb8811fa0	-6.15709e-05
86	0x3bbda84c	0.005787885
87	0xbdc5edcb	-0.09664496
88	0xbc4b70a6	-0.012416994
89	0xbc9671bb	-0.018364778
90	0xbc8065f5	-0.015673617
91	0x3b6d8ad1	0.003624607
92	0xbcf6224f	-0.030045656
93	0xbb55f340	-0.003264621
94	0x3be710f0	0.0070515797
95	0xbc4924ec	-0.012276869
96	0xbd0d2793	-0.03446157
97	0xbd171cec	-0.036892816
98	0xbcaafb92	-0.020871911
99	0x3b6e8cb8	0.0036399793
100	0x3b02d798	0.001996493
101	0xbd818d69	-0.063258
102	0x3b96b58a	0.004599278
103	0xbd45251d	-0.048131097
104	0x3bfcd0da	0.0077153267
105	0xbda151e3	-0.07876947
106	0xbd23929a	-0.039934732
107	0xbdc479eb	-0.095935665
108	0xbccf2668	-0.025286868
109	0xbd64e05e	-0.055878036
110	0xbd5866d9	-0.05283246
111	0x3d111469	0.035419855
112	0xbd80927f	-0.06277942
113	0x3b2a61a6	0.0025998144
114	0x3c058bcc	0.008151006
115	0x3c864311	0.016389402
116	0xbc6627b1	-0.014047549
117	0xbb7bdfc6	-0.003843294
118	0xbdac54f1	-0.08414639
119	0xbc7971a6	-0.01522485
120	0x3ba5b78a	0.00505728
121	0xbdae9c63	-0.08525922
122	0xbb700da3	-0.0036629222
123	0xbdcd70e0	-0.10031295
124	0xbdc48596	-0.09595792
125	0xbd96e737	-0.073683195
126	0x3b08eef4	0.002089438
127	0xbdb96656	-0.09052722
128	0x3b8f223c	0.0043680947
129	0xbd9e7aea	-0.07738288
130	0xbc99c3e2	-0.018770162
131	0xbd883cd8	-0.0665223
132	0x3d856733	0.06513824
133	0xbaaa0009	-0.0012969981
134	0x3c2f1ceb	0.010688047
135	0xbd3905b2	-0.045171447
136	0xbdaa2e83	-0.08309653
137	0x3d1ef939	0.038811896
138	0xbbe87ba8	-0.007094819
139	0x3d1a452b	0.03766362
140	0xbc426985	-0.011865978
141	0xbc1cefc5	-0.00957865
142	0x3c216e04	0.00985289
143	0xbcdc1221	-0.026864113
144	0x3bf5aee3	0.0074976548
145	0xbcc1262e	-0.023577776
146	0xbc0f4d58	-0.0087464675
147	0xbc9fc6d9	-0.019503998
148	0x3afad95f	0.0019138268
149	0x3af69cb8	0.0018815016
150	0xbb49f1ba	-0.0030814246
151	0xbb0506a7	-0.0020298155
152	0xb93c0d7c	-0.000179341
153	0x3c007304	0.007839922
154	0xbd437f2a	-0.047728695
155	0xbd3c0401	-0.045902256
156	0xbdcbe97c	-0.09956643
157	0xbd9a69d1	-0.07539714
158	0xbd8b3f4b	-0.067991816
159	0xbdc0c704	-0.09412959
160	0xbcebedc0	-0.028799891
161	0x3dae8569	0.0852154
162	0xbd850700	-0.06495476
163	0xbd1e6ee9	-0.03867999
164	0x3d2fade4	0.042890444
165	0xbb8c93cf	-0.004290081
166	0xbceaef82	-0.02867866
167	0xbda260b9	-0.07928605
168	0x3cadc774	0.02121327
169	0x3b1c1829	0.0023818112
170	0xbd01d39c	-0.031695947
171	0xbd67c5d2	-0.05658514
172	0x3c36e7ba	0.011163646
173	0xbda54b6e	-0.08071028
174	0xbdb578db	-0.08860942
175	0xbd84bda4	-0.064814836
176	0xbd69205f	-0.056915637
177	0xbd07aac2	-0.03312183
178	0xbd5bc00b	-0.053649943
179	0xbbb58a56	-0.0055401726
180	0x3d6f5253	0.05842812
181	0x3b821539	0.003969815
182	0xbdc4c308	-0.09607512
183	0xbc5a2bd9	-0.013316118
184	0xbda7369e	-0.08164714
185	0x3b00e672	0.0019668606
186	0x3ae36e46	0.001735159
187	0xbda87556	-0.08225505
188	0xbdaae9bb	-0.08345362
189	0x3c7a1b34	0.015265275
190	0xbd9f5c0b	-0.07781228
191	0xbd358c63	-0.044323336
192	0xbbe59eba	-0.007007447
193	0x3cf94cc6	0.030432116
194	0x3b03f3aa	0.0020134249
195	0x3bf0e1cc	0.007351136
196	0x3dc4e7f8	0.09614557
197	0xbc64d359	-0.013966405
198	0xbdca0b46	-0.098654315
199	0xbda23ba8	-0.07921535
200	0x3bfea122	0.0077706734
201	0x3aae1651	0.0013281797
202	0xbd74aa1c	-0.05973254
203	0xbd97df38	-0.074156225
204	0x3bb43fa6	0.0055007515
205	0xbd8a6323	-0.0675719
206	0xbd92ae93	-0.07162204
207	0xbc158455	-0.009125789
208	0xbd29ec1b	-0.041484933
209	0xbd4db396	-0.050220095
210	0x3c1677b2	0.009183811
211	0x3a633c38	0.0008668336
212	0xbcc617c5	-0.024181256
213	0xbbf495ac	-0.0074641313
214	0xbb96e5e6	-0.0046050427
215	0xbcfbf65a	-0.030757118
216	0xbdb86d7f	-0.0900526
217	0xbd88a9a7	-0.066729836
218	0xbb9c1e66	-0.004764366
219	0xbba5c82c	-0.0050592627
220	0xbcbfaf5e	-0.023399051
221	0xbca8c8c5	-0.020603547
222	0xbd65be0b	-0.056089442
223	0xbc12f119	-0.008968615
224	0xbb00f262	-0.0019675721
225	0x3d2d8103	0.042359363
226	0x3a6e37e0	0.00090873055
227	0xbdc701df	-0.09717154
228	0xbd55b91b	-0.052178483
229	0xbd67f856	-0.056633316
230	0xb9492400	-0.00019182265
231	0x3da3c50d	0.07996569
232	0xbd88cb85	-0.06679443
233	0xbb8f3b67	-0.004371095
234	0xbc9db4fa	-0.019251335
235	0xbd9e2b27	-0.077230744
236	0xbb18e03d	-0.0023327016
237	0xbc08d051	-0.008350448
238	0xbccf60e4	-0.025314756
239	0xbd1bbd07	-0.038022067
240	0xbd592d1d	-0.05302154
241	0xbbf65e9b	-0.007518602
242	0xbdb46366	-0.08808021
243	0x3d0eb60b	0.03484158
244	0xbd2fd903	-0.042931568
245	0xbd2965fd	-0.04135703
246	0xbdb316be	-0.08744572
247	0xbd47577c	-0.048667416
248	0xbc0294f8	-0.007970087
249	0x3d7a9c30	0.06118411
250	0x3bd1ed16	0.0064064367
251	0xbd21c5e4	-0.039495364
252	0xbcd0a906	-0.025471222
253	0xbd8d4309	-0.068975516
254	0x3ab3a852	0.001370678
255	0x3c3d432d	0.0115516605

bias f4 [10]
0	0xbd511897	-0.05104884
1	0x3d74fa47	0.059808996
2	0xbd43cfbd	-0.047805537
3	0xbd984327	-0.07434683
4	0x3d0c745a	0.03429065
5	0xbd76a730	-0.060218036
6	0xbd93b3b7	-0.07212012
7	0x3d120d9d	0.035657514
8	0x3d7be4a8	0.06149736
9	0xbd4d8710	-0.050177634

weight f4 [10]
0	0x3f85d88c	1.045671
1	0x3f741459	0.9534355
2	0x3f739ed2	0.95164216
3	0x3f87a264	1.0596433
4	0x3f866619	1.0499908
5	0x3f865ba8	1.0496721
6	0x3f732333	0.94975585
7	0x3f88b008	1.067872
8	0x3f85824f	1.0430392
9	0x3f733537	0.95003074

bias f4 [10]
0	0xbd2f6ec4	-0.042830244
1	0x3d40e872	0.047096677
2	0xbd4d8514	-0.05017574
3	0xbd5f6890	-0.054543078
4	0x3d4cb4d9	0.049977157
5	0xbd4ab842	-0.04949213
6	0xbd4eadf6	-0.05045887
7	0x3d57eeef	0.0527181
8	0x3d480f85	0.048842926
9	0xbd4ceadf	-0.050028678

weight f4 [10]
0	0x3f85daa5	1.045735
1	0x3f747663	0.95493144
2	0x3f739c57	0.9516043
3	0x3f8892b6	1.0669773
4	0x3f86af4a	1.0522244
5	0x3f8656aa	1.0495198
6	0x3f73657b	0.9507672
7	0x3f884c6a	1.064832
8	0x3f6d568d	0.9271019
9	0x3f732b6f	0.9498815

bias f4 [10]
0	0xbd1d919d	-0.038468946
1	0x3d278133	0.0408947
2	0xbd4bef6b	-0.049788874
3	0xbd76c469	-0.060245905
4	0x3d504344	0.0508454
5	0xbd4bb50b	-0.049733203
6	0xbd4c3d3c	-0.049863085
7	0x3d5b9f79	0.05361888
8	0x3d3d1f67	0.046172526
9	0xbd4a05b2	-0.049321838

in_proj_weight f4 [30, 10]
0	0x3e0a546a	0.13508764
1	0x3e1d10fc	0.1533851
2	0x3af2fcaf	0.001853844
3	0x3c838e48	0.016059056
4	0x3d5fe577	0.054662194
5	0x3db895c3	0.0901294
6	0x3e44f220	0.19232988
7	0x3e443a9c	0.19162983
8	0xbdaf5aa7	-0.085622124
9	0x3e0eda0b	0.13950364
10	0x3be8f65b	0.007109446
11	0x3e6778b7	0.22604643
12	0xbdbec7f9	-0.093154855
13	0xbdd344d4	-0.10315862
14	0xbdfe7a52	-0.124256745
15	0xbca40e32	-0.0200263
16	0x3d8ecaa5	0.06972245
17	0xbc85d0e6	-0.016334962
18	0xbe49e80a	-0.19717422
19	0x3e067db1	0.13133885
20	0x3d3c9c0a	0.046047248
21	0xbbafcf9a	-0.005365324
22	0x3abdabc2	0.0014470743
23	0xba1b5f98	-0.00059270253
24	0x3c9d8198	0.019226834
25	0xbbecb37e	-0.0072235456
26	0xbcb2e06f	-0.021835534
27	0xbb4917de	-0.0030684392
28	0x3cb4f27e	0.022088286
29	0x3cce3f30	0.025176615
30	0xbe3a8d07	-0.1821786
31	0x3e43bfa3	0.19116072
32	0x3ca6bfe6	0.020355176
33	0x3c039159	0.008030259
34	0x3a881276	0.0010381478
35	0xbe3dcd7f	-0.18535422
36	0xbd085ad4	-0.033289745
37	0xbcb7bc5e	-0.022428688
38	0x3a4f084c	0.00078976597
39	0x3e5063cc	0.2035057
40	0x3ccf04d9	0.025270866
41	0x3cc1b96f	0.023647992
42	0x3e295bee	0.16538975
43	0xbe411bf3	-0.18858318
44	0x3d48bac7	0.04900625
45	0x3cfafd38	0.030638322
46	0xbccf3bda	-0.025297094
47	0x3e2c7d83	0.16844754
48	0x3e23995b	0.15976469
49	0xbe0506c9	-0.1299087
50	0x3e11bca8	0.14232123
51	0xbe329b4e	-0.17442057
52	0xbdae2fe9	-0.08505232
53	0x3e5550d7	0.20831619
54	0xbdd9dec1	-0.1063819
55	0xbe3ab093	-0.1823142
56	0x3b105638	0.0022024047
57	0xbe10ab44	-0.14127833
58	0x3e12fe1c	0.14354748
59	0x3e48bacc	0.19602507
60	0x3e431a78	0.19053066
61	0x3c79b30b	0.015240441
62	0xbe6972c7	-0.2279769
63	0x3e39e0be	0.18152139
64	0x3c3e8189	0.011627563
65	0xbcad09a5	-0.021122763
66	0x3c2c6b46	0.010523623
67	0xbc6c0b94	-0.014407057
68	0x3ba40f45	0.005006703
69	0xbe537aa8	-0.20652258
70	0xbe06a2c9	-0.13148035
71	0x3e4a8b89	0.19779791
72	0xba75a604	-0.00093707466
73	0x3bb8559a	0.005625439
74	0xbdd82fee	-0.10556017
75	0xbe2cdd6d	-0.16881342
76	0xbe199f6a	-0.15002218
77	0xbe47d87a	-0.19516173
78	0xbe2d6056	-0.1693128
79	0xbc0680e9	-0.0082094455
80	0xbe25058c	-0.16115397
81	0x3b6bda73	0.003598836
82	0x3cced600	0.025248528
83	0xbaf24514	-0.0018483722
84	0x3c819706	0.015819084
85	0x3a5a3b54	0.00083248806
86	0xbe61f958	-0.22067773
87	0x3dcd806d	0.10034261
88	0x3e6b3ef4	0.22973233
89	0x3e59690a	0.21231475
90	0xbe565f57	-0.20934807
91	0x3e1b597a	0.15170851
92	0x3cb2092a	0.021732885
93	0x3db40a53	0.08791032
94	0x3d9edf16	0.07757394
95	0x3e3ea7d5	0.1861871
96	0xba4fccd0	-0.0007926943
97	0xbe341361	-0.17585517
98	0xbe62b7be	-0.22140405
99	0x3b831e81	0.004001439
100	0xbe45bf77	-0.1931132
101	0x3cbfc8f8	0.023411259
102	0x3dd3870f	0.10328495
103	0xbc2635f5	-0.0101447
104	0xbcaf093a	-0.021366704
105	0xbc9a0669	-0.018801885
106	0x3e1cee32	0.1532524
107	0x3e46e1f9	0.19422139
108	0x3d784ce0	0.06062019
109	0xbdf1a916	-0.11799829
110	0x3d6ae899	0.05735073
111	0xbe6241a8	-0.22095358
112	0x3e37373c	0.17892164
113	0x3c23200e	0.009956373
114	0x3e06a3b5	0.13148387
115	0xb8486080	-4.777359e-05
116	0x3ba6dda0	0.0050923377
117	0x3c048cd2	0.008090215
118	0xbd4e4e9d	-0.05036794
119	0xbd0d53ae	-0.03450363
120	0xbe1edb2b	-0.15513293
121	0xbe6745d3	-0.2258523
122	0xba3c8758	-0.00071917986
123	0x3d42d533	0.047566604
124	0x3e27134f	0.1631596
125	0x3e659618	0.22420537
126	0xbd7696de	-0.060202472
127	0x3e0738ea	0.13205305
128	0x3df68063	0.120362066
129	0xbe0b2648	-0.13588822
130	0x3d8ef603	0.06980517
131	0x3e19357f	0.14961813
132	0x3dd1772a	0.10227807
133	0x3c396aa0	0.011316925
134	0xbb19fbbc	-0.0023495993
135	0x3cb13827	0.02163322
136	0x3bce9469	0.006304313
137	0x3e4b1982	0.19833949
138	0x3e129ffc	0.14318842
139	0xbe46db31	-0.19419552
140	0xbe147ead	-0.14501448
141	0xbd90514f	-0.070467584
142	0xbdf16b03	-0.11787989
143	0x3e503848	0.2033397
144	0xbe0299ae	-0.12753937
145	0xbe459b75	-0.19297583
146	0x3e5475f0	0.20748115
147	0x3dc1b69e	0.094586596
148	0xbbe85b60	-0.007090971
149	0x3e63d003	0.22247319
150	0x3d066b34	0.03281708
151	0xbb0ec06e	-0.0021782178
152	0x3e642cae	0.22282669
153	0x385b1220	5.223055e-05
154	0x3e50ef99	0.20403899
155	0x3db2fae6	0.08739261
156	0x3b517471	0.0031960274
157	0xbdaa107b	-0.08303925
158	0xbd94151a	-0.07230587
159	0x3ccd4561	0.025057497
160	0x3cabe804	0.020984657
161	0xbdd5dec6	-0.10442881
162	0x3d8e1f95	0.069396175
163	0x3c03eb0b	0.008051644
164	0xbda1ded8	-0.07903832
165	0xba6607d0	-0.0008774968
166	0xbe6a6b0a	-0.22892395
167	0xbd806bc8	-0.06270558
168	0xbd278ab4	-0.040903762
169	0xbccecc5c	-0.02524393
170	0x3e5267b2	0.20547369
171	0x3e1186fc	0.14211649
172	0xbe43eddb	-0.19133703
173	0x3abe698c	0.0014527305
174	0x3a1a4981	0.0005885587
175	0x3b520689	0.0032047352
176	0x3c18fcf9	0.009337657
177	0xbe486d32	-0.19572905
178	0x3dbade34	0.09124413
179	0x3d38e609	0.045141254
180	0x3e4eecff	0.20207594
181	0xba9a073e	-0.0011751426
182	0xbcc30aa0	-0.023808777
183	0xbdb721d3	-0.08941998
184	0x3e651805	0.22372444
185	0xbd5db5be	-0.0541284
186	0x3a67bf8a	0.0008840492
187	0x3d818cab	0.063256584
188	0x3aeb6c2e	0.0017961317
189	0x3da1800d	0.07885752
190	0x3b63197f	0.0034652648
191	0x3ccc585e	0.02494448
192	0x3e510bf3	0.20414715
193	0x3cc947b9	0.024570333
194	0xbe1080c1	-0.14111616
195	0x3daf6efd	0.08566091
196	0xbd368828	-0.044563442
197	0xbe5868c0	-0.21133709
198	0xbe464858	-0.19363534
199	0x3e6775f3	0.22603588
200	0x3e1df228	0.15424407
201	0xbec4c0cf	-0.3842835
202	0xbe8dfd2b	-0.27732214
203	0x3c57ca23	0.013170752
204	0x3e88c9ba	0.26716405
205	0xbe375524	-0.17903572
206	0xbe69e0b9	-0.22839631
207	0xbeafea2a	-0.3435834
208	0x3e80c836	0.2515275
209	0xbdb57bd5	-0.0886151
210	0xbdbb3eb0	-0.09142816
211	0x3e3e268a	0.18569389
212	0xbd16f512	-0.03685481
213	0x3ea1ef79	0.31628016
214	0x3e931372	0.28725773
215	0x3ec38668	0.3818848
216	0xbaff1a71	-0.0019462836
217	0xbdd73689	-0.10508449
218	0x3e2f4144	0.1711474
219	0xbe0bdc35	-0.13658221
220	0xbe9a8c19	-0.3018501
221	0xbdb9daf6	-0.090749666
222	0x3dd8a8a7	0.10579043
223	0xbe848914	-0.25885832
224	0x3e65200a	0.22375503
225	0xbbce5b2e	-0.0062974906
226	0x3e653162	0.2238212
227	0x3ec0403d	0.3754901
228	0xbec22044	-0.37915242
229	0xbe8368c6	-0.25665873
230	0xbc924fa8	-0.017860249
231	0xbe89f832	-0.2694717
232	0x3dd89f00	0.10577202
233	0xbea26bd6	-0.31722897
234	0x3e9bf44e	0.30459827
235	0xbec0df91	-0.37670568
236	0x3e69fa24	0.22849327
237	0xbe5d47f6	-0.21609482
238	0x3ea73811	0.32659963
239	0xbe27c12b	-0.16382281
240	0x3dbc64aa	0.09198888
241	0x3e3b0895	0.18264993
242	0x3d86e8ce	0.06587373
243	0x3e5cb279	0.21552457
244	0x3e01d197	0.12677608
245	0x3ddad59c	0.10685274
246	0x3ebd7cd0	0.37009287
247	0xbeb47af0	-0.35250044
248	0x3e9c4a4b	0.3052543
249	0x3ed15ea5	0.4089252
250	0x3e7fee41	0.2499323
251	0xbe375720	-0.1790433
252	0x3ed50a06	0.4160921
253	0x3e5b6d82	0.21428493
254	0x3e275d41	0.16344167
255	0xbd7fbd46	-0.062436365

in_proj_bias f4 [30]
0	0x00000000	0.0
1	0x00000000	0.0
2	0x00000000	0.0
3	0x00000000	0.0
4	0x00000000	0.0
5	0x00000000	0.0
6	0x00000000	0.0
7	0x00000000	0.0
8	0x00000000	0.0
9	0x00000000	0.0
10	0x00000000	0.0
11	0x00000000	0.0
12	0x00000000	0.0
13	0x00000000	0.0
14	0x00000000	0.0
15	0x00000000	0.0
16	0x00000000	0.0
17	0x00000000	0.0
18	0x00000000	0.0
19	0x00000000	0.0
20	0x3d49af38	0.049239367
21	0xbd6302e4	-0.05542268
22	0x3d572cf2	0.052533098
23	0x3d4a424e	0.04937964
24	0x3d2411b6	0.040055953
25	0x3d22a2be	0.039705984
26	0x3d3b5bdc	0.0457419
27	0xbd459eb0	-0.04824704
28	0x3d4fa9bc	0.05069898
29	0xbd6ac3e6	-0.05731573

weight f4 [10, 10]
0	0xbee52109	-0.44751766
1	0x3d695a37	0.0569708
2	0xbe93f68f	-0.28899047
3	0x3daa484c	0.08314571
4	0xbe98029f	-0.296895
5	0xbe3a47a8	-0.18191397
6	0xbee89665	-0.45427242
7	0x3f1604a6	0.5860084
8	0xbe60ac0c	-0.2194063
9	0xbed7759a	-0.4208191
10	0xbeeb08c7	-0.45905134
11	0x3ea5dfa5	0.3239719
12	0xbeb656cb	-0.35613093
13	0x3e3e8b13	0.1860774
14	0xbb18511a	-0.00232417
15	0x3dd36161	0.10321308
16	0x3e33b8e0	0.17550993
17	0xbe980c75	-0.29697004
18	0xbe150eb7	-0.14556395
19	0xbddd0dbb	-0.107936345
20	0xbe438cbb	-0.19096653
21	0xbcdfe420	-0.027330458
22	0x3e852ce2	0.26010805
23	0xbc59dfd6	-0.013297996
24	0xbeb691a2	-0.35657984
25	0x3e987aeb	0.2978128
26	0xbebec85a	-0.3726223
27	0xbe3099b7	-0.17246138
28	0xbe7cf7cc	-0.24703902
29	0x3ead426a	0.33839732
30	0x3d39d85e	0.04537236
31	0xbf0673ee	-0.52520645
32	0x3f0fb6ba	0.56138194
33	0xbe21fd6a	-0.15819326
34	0xbe351459	-0.17683543
35	0x3e9eeeb4	0.3104149
36	0x3e19bfc1	0.15014555
37	0x3df1c513	0.11805167
38	0x3e108e51	0.1411679
39	0x3e82d9c6	0.25556773
40	0xbe51f6b0	-0.2050426
41	0xbec04185	-0.37549987
42	0x3d2f991b	0.042870622
43	0x3ef95c63	0.48703298
44	0x3e9b6e90	0.3035779
45	0xbf0440f8	-0.51661634
46	0xbf0db30e	-0.5535134
47	0xbe3f7777	-0.18697916
48	0x3f0baf85	0.54564697
49	0xbef61321	-0.4806147
50	0xbefbb5c7	-0.49162123
51	0x3d207956	0.039178215
52	0xbe77e237	-0.24207388
53	0x3ed1baa4	0.40962708
54	0xbe883577	-0.2660329
55	0x3ed54a99	0.41658476
56	0x3e66210d	0.22473545
57	0x3ec31f7f	0.38109967
58	0xbedd4258	-0.4321468
59	0xbe58e238	-0.21180046
60	0x3e81c861	0.2534819
61	0x3e08d28f	0.13361572
62	0xbd8e6991	-0.06953729
63	0xbf07b6f9	-0.5301357
64	0xbd535bd7	-0.051601257
65	0x3f04c434	0.5186188
66	0x3eb75927	0.35810205
67	0xbe2d7888	-0.1694051
68	0xbed7bbf7	-0.42135593
69	0xbe0e8de7	-0.13921319
70	0x3e33eef8	0.17571628
71	0x3ddc513a	0.1075768
72	0x3eeb7063	0.45984182
73	0x3bf1c2e3	0.0073779686
74	0xbe2e3db0	-0.1701572
75	0x3ee93800	0.45550537
76	0x3ee59afe	0.44844812
77	0xbb981304	-0.0046409387
78	0x3ea03e95	0.31297746
79	0x3e2cc0bc	0.16870397
80	0xbdf7d92d	-0.1210197
81	0xbde2df47	-0.11077743
82	0xbeb9ff9c	-0.36327827
83	0x3f149716	0.5804304
84	0x3eb55b96	0.35421437
85	0xbd5234a9	-0.051319752
86	0x3e1742df	0.14771603
87	0x3e87be22	0.26512247
88	0xbddfa062	-0.109192625
89	0xbe993d49	-0.2992957
90	0xbe88c421	-0.26712134
91	0xbde9fa9f	-0.11424755
92	0xbe0b427b	-0.13599579
93	0xbf0a1dbb	-0.53951615
94	0x3edcadf5	0.4310147
95	0xbe703d4e	-0.23460886
96	0xbdeffa8b	-0.11717709
97	0x3f185a96	0.59513223
98	0xbe9307da	-0.28716928
99	0xbea50b9e	-0.32235426

bias f4 [10]
0	0xbd3d85e0	-0.04627025
1	0x3ccbb9b6	0.024868827
2	0xbd4e4a05	-0.05036356
3	0x3d4a76ea	0.04942981
4	0x3d536465	0.051609416
5	0xbd49e540	-0.049290895
6	0xbd51b801	-0.05120087
7	0x3d51f236	0.05125638
8	0x3d3d0950	0.04615146
9	0xbd4a8de1	-0.049451713

weight f4 [2048, 10]
0	0x3b8e64ab	0.0043454967
1	0xbd4708c3	-0.04859234
2	0xbc3ae1b8	-0.011406355
3	0xbd7d330b	-0.061816256
4	0x3c7e6cd8	0.01552888
5	0x3c44b3d0	0.012005761
6	0xbc8eb516	-0.017420333
7	0xb9deca80	-0.00042494014
8	0x3c6d6eeb	0.014491777
9	0xbc2e3d96	-0.0106348
10	0xbd00b0a7	-0.03141847
11	0xbd93db06	-0.0721951
12	0x3dc8413a	0.09778066
13	0x3c53a7ec	0.012918454
14	0x3da9daa3	0.08293655
15	0x3b6dd2f1	0.003628906
16	0x3c8c70e3	0.017143672
17	0xbd308627	-0.043096688
18	0xbdc0cd00	-0.09414101
19	0x3db5d39a	0.088782504
20	0x3bdbf8bd	0.0067130015
21	0x3d037b51	0.032100026
22	0xbd04e5f5	-0.032445867
23	0xbdc8d84e	-0.09806882
24	0xbbfe5138	-0.007761147
25	0x3d236e34	0.03990002
26	0x3c606aae	0.013697309
27	0x3cfe1ddc	0.031020097
28	0x3da36918	0.079790294
29	0xbd95b63f	-0.07310151
30	0xbbff4bf5	-0.007791037
31	0xba8cb2ec	-0.0010734475
32	0xbaf89dfe	-0.0018967984
33	0x3b27c4a5	0.0025599387
34	0xbc42c9a6	-0.011888897
35	0x3996ae98	0.00028740312
36	0xbb3b822b	-0.0028611522
37	0xba6bd8e4	-0.0008996858
38	0xbbc05edc	-0.005870683
39	0xbabd0941	-0.0014422314
40	0x3c13446c	0.008988481
41	0xbd0d300d	-0.034469653
42	0x3ce1e090	0.0275729
43	0xbcd9d905	-0.02659274
44	0xbc8fea4a	-0.017567772
45	0x3ca6ba62	0.020352546
46	0xbb3f1df8	-0.002916215
47	0x3c16baa8	0.009199776
48	0xbcbbb62c	-0.022914015
49	0x3c8829e8	0.016621545
50	0xbbd7c045	-0.0065841996
51	0x3caa0eea	0.020759065
52	0x3c65fb6c	0.014036994
53	0xbd4e3e6f	-0.05035251
54	0x3d869e2e	0.06573139
55	0xbd8f45ad	-0.069957115
56	0x3b7af92a	0.0038295486
57	0xbdc05ff0	-0.093932986
58	0xbdbcbe88	-0.092160285
59	0x3d31cfdc	0.04341112
60	0xbd7e0edb	-0.062025886
61	0x3de77f85	0.11303619
62	0xba96ae90	-0.0011496115
63	0xbcabd57d	-0.020975823
64	0x3cdafe28	0.02673252
65	0xbd7bf616	-0.061513983
66	0xbd6bb5d1	-0.05754644
67	0xbd368895	-0.04456385
68	0xbd8af82b	-0.067856155
69	0x3d8ac6ae	0.067761764
70	0xbcad7784	-0.021175154
71	0xbc0372a2	-0.008022936
72	0x3dc4c72c	0.096083015
73	0xbd46be9c	-0.048521623
74	0x3c135518	0.008992456
75	0xbd8a0a4d	-0.06740246
76	0xbbf82031	-0.007572197
77	0xbcc42814	-0.023944892
78	0xbdb9a46b	-0.09064563
79	0x3d996e91	0.07491792
80	0xbab99d68	-0.0014161291
81	0x3a3dbe66	0.00072381494
82	0xba48ea3f	-0.00076643
83	0x3b63e430	0.0034773462
84	0x3af5ebd8	0.0018762304
85	0xba1c9f7c	-0.0005974693
86	0xb969e6bb	-0.00022306565
87	0xbb82b938	-0.003989365
88	0xbc120ff0	-0.008914933
89	0xb9266500	-0.00015868619
90	0xbb65af11	-0.0035046975
91	0x3a48a4d8	0.0007653958
92	0xbaba9e6e	-0.001423789
93	0xbba3ed1d	-0.0050026313
94	0x3a8c93d0	0.0010725204
95	0xbbf0e2ca	-0.007351254
96	0x3b360090	0.0027771331
97	0x3ba5f036	0.0050640358
98	0xbad2aecb	-0.0016073821
99	0xbb0b260d	-0.0021232397
100	0xbccfa7c4	-0.025348552
101	0xbca62ee8	-0.020286039
102	0x3c404fbf	0.011737763
103	0xbd6397d0	-0.0555647
104	0x3dcb909b	0.09939691
105	0xbad16412	-0.0015975258
106	0xbd4870d7	-0.048935737
107	0xbc983e77	-0.018584473
108	0xbdd1c41a	-0.102424815
109	0x3da65faa	0.08123715
110	0xbcb306cf	-0.021853833
111	0xbd679043	-0.056534063
112	0x3d1a2340	0.037631273
113	0xbdb861f6	-0.090030596
114	0x3d7171d6	0.058946453
115	0xbd83c5a1	-0.06434179
116	0xbd40b3b7	-0.04704639
117	0xbdc1a2a6	-0.09454851
118	0xbdcb8a6a	-0.0993851
119	0x3c7467d2	0.014917331
120	0x3ca4f6ed	0.020137275
121	0x3b333004	0.0027341852
122	0xbd80c1fb	-0.06286999
123	0x3da14224	0.078739434
124	0xbb84e029	-0.0040550423
125	0x3d98ab46	0.07454543
126	0x3da904f6	0.08252899
127	0x3cac5563	0.02103681
128	0x3cf0f6a8	0.02941449
129	0xbdb2febe	-0.087399945
130	0xbcdedf34	-0.02720604
131	0x3ca5ea57	0.020253344
132	0xbcb372df	-0.02190536
133	0xbcee7521	-0.029108586
134	0x3d0310f4	0.03199859
135	0xbc8c8e24	-0.017157622
136	0xbc8ff588	-0.017573133
137	0x3ce30d60	0.027716339
138	0x3ce9dd24	0.02854783
139	0x3b2cad00	0.0026348233
140	0xbc7e9c4a	-0.015540192
141	0xbd827e82	-0.06371786
142	0x3c0ca13e	0.008583365
143	0xbd4751db	-0.048662048
144	0x3d9f039a	0.07764359
145	0xbd556acc	-0.052103803
146	0x3d1997b4	0.03749819
147	0x3c24ed0a	0.01006628
148	0x3d5b6ed9	0.05357251
149	0xbcc56c3e	-0.024099465
150	0x3cb68b0e	0.022283103
151	0x3ce78c02	0.028265003
152	0x3d2b409c	0.041809663
153	0x3d1108dc	0.03540884
154	0xbba336d4	-0.0049809013
155	0xbc2e3c24	-0.010634456
156	0x3ca7abfb	0.020467749
157	0xbcc8fc0b	-0.024534246
158	0xbcb61b78	-0.022229895
159	0x3c91fc86	0.017820608
160	0x3d1ae1e4	0.037813082
161	0x3c81c7ba	0.015842307
162	0xbd003e90	-0.031309664
163	0x3d17970c	0.037009284
164	0xbbacd4fa	-0.005274412
165	0x3d436f99	0.04771385
166	0x3d91d67c	0.07120988
167	0x3d0e4fed	0.034744192
168	0x3c4ef777	0.012632242
169	0xbd15088d	-0.036385108
170	0xbd35f7fd	-0.044425953
171	0xbd15f547	-0.036610868
172	0x3d28b4e4	0.041188136
173	0x3b304d8e	0.0026901695
174	0x3dd73491	0.10508073
175	0xbd194174	-0.037415937
176	0xbda2e5d0	-0.079539895
177	0xbd5cddb5	-0.053922374
178	0xb9676428	-0.00022067188
179	0x3d6df36f	0.058093484
180	0xbbf80256	-0.007568638
181	0x398aa7b2	0.00026446354
182	0xbbcb0ac0	-0.00619635
183	0x3b6e50af	0.003636401
184	0xbc04114e	-0.008060766
185	0x3949ffc0	0.00019264128
186	0xbc02ae20	-0.007976085
187	0xbb5c56ff	-0.003362119
188	0x3b6eded2	0.003644873
189	0x3c113944	0.008863751
190	0x3d3f0080	0.046631336
191	0xbdb9b62d	-0.090679504
192	0xbd3173f8	-0.043323487
193	0x3d93349e	0.0718777
194	0xbd784652	-0.060613938
195	0x3b80a63f	0.003926068
196	0x3b817ca8	0.0039516278
197	0x3db6cdbf	0.08925962
198	0x3cee61a0	0.029099286
199	0xbd567b7b	-0.052363854
200	0x3d04fdcc	0.032468602
201	0x3cac1798	0.021007344
202	0xbd697772	-0.056998678
203	0x3b10a605	0.0022071612
204	0xbd26fc07	-0.040767696
205	0x3ccc094a	0.024906773
206	0xbc9309be	-0.017948981
207	0x3d1a33ad	0.037646938
208	0x3c5a9ed2	0.01334353
209	0xbdc1bca2	-0.09459807
210	0x3d75a535	0.059972007
211	0xbd29f01e	-0.04148876
212	0xbb8facaa	-0.004384597
213	0x3cb41557	0.021982832
214	0xbcb51bb5	-0.022107938
215	0x3cc67e15	0.024230042
216	0x3d9525bc	0.07282588
217	0x3d840ad1	0.064473756
218	0xbc63f5ce	-0.013913585
219	0xbdb5463a	-0.08851285
220	0x3cd3b11c	0.025841288
221	0x3d9b677d	0.07588098
222	0xbde5a86b	-0.11213764
223	0x3d6e23e7	0.058139708
224	0x3c6a9717	0.014318249
225	0x3da1ebed	0.079063274
226	0x3d12b443	0.035816442
227	0x3dcad1f7	0.09903329
228	0x3d802383	0.06256773
229	0xbd16ab64	-0.036784545
230	0xbd6a7a28	-0.057245404
231	0xbd2c6a1c	-0.04209338
232	0x3cfbbd53	0.030729925
233	0xbd083446	-0.033252977
234	0x3daa5aeb	0.083181225
235	0xbd212e77	-0.039350953
236	0xbd82b880	-0.06382847
237	0xbdaf9247	-0.08572822
238	0xbd7e23d6	-0.062045895
239	0x3c6cb6c3	0.014447871
240	0xbc4354ba	-0.011922056
241	0xbb1ef35c	-0.002425394
242	0xbba47c0a	-0.0050196694
243	0x3b4f1bdc	0.00316023
244	0xbbcc9af8	-0.0062440597
245	0xbc00b749	-0.007856199
246	0x3c348e50	0.011020258
247	0x3c057f28	0.008147992
248	0x3be1b5b0	0.006888114
249	0xbaf92c44	-0.0019010385
250	0xbd929288	-0.07156855
251	0xbd008e73	-0.03138585
252	0x3daee42d	0.08539615
253	0xbd9a6f37	-0.07540744
254	0x3d4a94ac	0.04945819
255	0xbc55df37	-0.013053707
