Comparative_Evaluation/Baselines/Transformer/models_u/model61.pt (torch, 732255 bytes, 66 tensors)

in_proj_weight f4 [30, 10]
0	0x3de95838	0.113937795
1	0x3c1baced	0.009501678
2	0x3b0ed433	0.002179396
3	0x3e795312	0.24348095
4	0x3a39414e	0.0007066921
5	0x3dbf0370	0.093268275
6	0xb5018007	-4.824255e-07
7	0x3ac67a1d	0.0015142594
8	0x3d58ed49	0.052960668
9	0x3d75f862	0.06005133
10	0x3e65ea49	0.22452654
11	0x3b39508d	0.0028276772
12	0xbd25dffb	-0.040496808
13	0xbdfd1437	-0.12357371
14	0x33da80b5	1.0174828e-07
15	0x3d1326d7	0.035925712
16	0xb3276822	-3.8977426e-08
17	0x3dac6cac	0.08419165
18	0xbdbae6e2	-0.09126069
19	0x35a8b794	1.2570404e-06
20	0x3d484108	0.048890144
21	0x3e85280e	0.26007122
22	0x3e67299b	0.22574465
23	0xbe026aa1	-0.12735988
24	0x3e4dc55a	0.20094815
25	0xb5003782	-4.776449e-07
26	0xbe4de5e0	-0.20107222
27	0xbe2a1648	-0.16610062
28	0xbe8b7ecf	-0.27245185
29	0xb5453278	-7.346166e-07
30	0xbe154e28	-0.14580595
31	0x3dd1d269	0.10245211
32	0xbd575f67	-0.052581217
33	0xbe37c208	-0.17945111
34	0x3c4dec23	0.012568506
35	0xbd47581e	-0.04866802
36	0x36977bd5	4.5145666e-06
37	0x3dc4599c	0.09587404
38	0x3e5c5442	0.21516517
39	0xbc3ad1d6	-0.011402568
40	0xbe17ee64	-0.14837033
41	0xbe1d53d4	-0.15364009
42	0xbdf1db2e	-0.11809383
43	0xbc182af6	-0.009287586
44	0xbc4f2512	-0.012643116
45	0x3d4c1dab	0.04983298
46	0x3e8305c2	0.2559033
47	0xb39a4c2d	-7.18504e-08
48	0x3dc8802c	0.09790072
49	0xbc0ae249	-0.008476802
50	0x3e836b6a	0.25667888
51	0x3a41ccb5	0.00073928694
52	0xbe2f6494	-0.17128211
53	0xbddd01fa	-0.107913926
54	0xbc363feb	-0.011123638
55	0x3e04037b	0.12891953
56	0xbe000a1b	-0.12503855
57	0x348d9257	2.6369773e-07
58	0xbe5f6286	-0.21814927
59	0xbe06593d	-0.13119979
60	0x3e0cbd0f	0.13743995
61	0x3e89927d	0.26869574
62	0x387b1ddc	5.9870872e-05
63	0x3df6690e	0.12031756
64	0x3e7e7576	0.24849495
65	0xbe2e59d6	-0.17026457
66	0xbe201383	-0.15632443
67	0xbc4a6f79	-0.012355679
68	0xbc16f203	-0.0092129735
69	0x3ce8c6e9	0.02841516
70	0xbd92dddf	-0.07171225
71	0xbe74ec33	-0.23918228
72	0xbc0d32e3	-0.008618089
73	0x3e82158d	0.25407067
74	0x3e07d69b	0.13265459
75	0x36a22fd4	4.833544e-06
76	0xb30c4502	-3.2659052e-08
77	0x37958bb8	1.7827246e-05
78	0xbd9cb6f7	-0.07652085
79	0xbe872651	-0.2639642
80	0xb89ebf6e	-7.569684e-05
81	0xbd8fa399	-0.07013626
82	0xbd980b2f	-0.07424008
83	0x3e914ec4	0.28380406
84	0xbe374bed	-0.17900057
85	0x36bb285f	5.577734e-06
86	0x3e907ef8	0.2822187
87	0xbe86bb23	-0.2631465
88	0xbe4f05fa	-0.20217124
89	0x3c556b3f	0.013026058
90	0x3ba2a301	0.0049632792
91	0x3cdb8de5	0.026801059
92	0x3d0a6672	0.033789106
93	0x3e0dd66b	0.13851325
94	0xbda480dd	-0.08032391
95	0x3e3cb9e1	0.18430282
96	0x3e724415	0.23658784
97	0x3d811019	0.063018985
98	0xbc6210a6	-0.013797915
99	0x3e1a3566	0.15059432
100	0xbe16fefa	-0.14745703
101	0x33e29cd0	1.0552469e-07
102	0x3e0a14ea	0.1348454
103	0xb68c504d	-4.1816734e-06
104	0x3df10138	0.117678106
105	0xbe8d118b	-0.27552447
106	0xb6979143	-4.5170614e-06
107	0xb911df61	-0.00013911493
108	0x3d381ddc	0.04495035
109	0x3e9126a1	0.28349784
110	0xbc8e51a2	-0.01737291
111	0xbe175c2a	-0.14781252
112	0xbe545429	-0.2073523
113	0xbcb5df8e	-0.022201326
114	0xbe019437	-0.12654196
115	0xbdaf64ff	-0.08564185
116	0x3e7fd4d8	0.24983537
117	0xbe74d0ff	-0.2390785
118	0x3dd42481	0.10358525
119	0x3e04a69f	0.12954186
120	0x3da08606	0.07838063
121	0xbd81be56	-0.06335132
122	0xbe3eb272	-0.18622759
123	0xbd87e404	-0.066352874
124	0xbdda0c0a	-0.106468275
125	0xbe7c1983	-0.24619107
126	0x3b0a2f34	0.0021085264
127	0xbd49c3dd	-0.049259055
128	0x3dcde84b	0.10054072
129	0x3d804c25	0.062645234
130	0x3e015ac0	0.12632275
131	0xbd0411b9	-0.032243464
132	0xbe68a552	-0.22719315
133	0xbd4253e4	-0.047443286
134	0xbd8ece49	-0.069729395
135	0xb6a56c54	-4.9299942e-06
136	0x3e8ecd94	0.2789122
137	0x3e123f26	0.14281902
138	0xbab3c493	-0.00137152
139	0x3df7995b	0.12089797
140	0x3e1a780a	0.15084854
141	0xbb8fb79e	-0.0043859025
142	0x3e528a72	0.20560625
143	0xb406d88d	-1.2558503e-07
144	0xbdac29a7	-0.08406382
145	0x3c184169	0.009292939
146	0xbe54764f	-0.20748256
147	0x3e0d4e84	0.13799483
148	0x3e32cf66	0.17461929
149	0xb3a00c2d	-7.4527954e-08
150	0x3aa961f4	0.0012922869
151	0x3dbd53af	0.09244477
152	0x3d18ae37	0.03727552
153	0x3e82e249	0.25563267
154	0x3e3264ea	0.17421308
155	0xbe0faf8c	-0.1403181
156	0x3e05e008	0.13073742
157	0xbd7f191c	-0.062279806
158	0x3e2eeb10	0.17081857
159	0xb59f8472	-1.188497e-06
160	0x3d97ef93	0.07418742
161	0xbd8fc7ef	-0.07020556
162	0xbe777b18	-0.2416805
163	0x3e745b6b	0.23862998
164	0xbe2d31d1	-0.16913535
165	0x35cdd913	1.5336867e-06
166	0xb88dc455	-6.7599736e-05
167	0xbb9e44e6	-0.0048299907
168	0x3e18628c	0.14881343
169	0x3de5c8f0	0.112199664
170	0xbd06e638	-0.032934397
171	0x3e5b3056	0.21405157
172	0xbe3e4356	-0.18580374
173	0xbdec7405	-0.115455665
174	0x3e1fe240	0.15613651
175	0x3bb42554	0.005497614
176	0x3bbba3fb	0.005726335
177	0x351d2557	5.8541394e-07
178	0xb688c196	-4.075652e-06
179	0x3e8c150e	0.27359813
180	0x3e896ad6	0.26839322
181	0xbe8ef253	-0.27919254
182	0xbe21c189	-0.15796484
183	0xbda9b9f1	-0.08287419
184	0x3e22fbde	0.15916392
185	0x3a65ea0f	0.0008770534
186	0xbe691303	-0.22761159
187	0x3c13f710	0.009031072
188	0x3c5649ee	0.01307915
189	0xbe09acf4	-0.13444883
190	0xb481ac9b	-2.415371e-07
191	0xbdfb718d	-0.122775175
192	0xbe4a49ff	-0.1975479
193	0xbbb8f950	-0.0056449547
194	0x3d401282	0.04689265
195	0x3ca179ac	0.019711338
196	0xbe907641	-0.2821522
197	0x3d04b0eb	0.032395285
198	0xbc147814	-0.009061832
199	0xbe7d1ebe	-0.24718758
200	0xbe1b0a51	-0.15140654
201	0xbbd7b10e	-0.006582386
202	0x3e39ef79	0.18157758
203	0x3eb59c08	0.35470605
204	0xbe8a3bc0	-0.2699871
205	0xbec18540	-0.37796974
206	0xbe39f992	-0.1816161
207	0x3e294fe7	0.16534387
208	0x3eb5de9c	0.355214
209	0xbc12b95a	-0.008955324
210	0x3db1d10f	0.08682453
211	0x3e181c87	0.14854632
212	0xbe4cd058	-0.20001352
213	0xbe9c6344	-0.30544484
214	0x3c33daed	0.010977489
215	0x3e23d6f1	0.15999962
216	0xbe1178e5	-0.14206274
217	0xbe974ad8	-0.2954929
218	0x3d3c2af2	0.045939393
219	0x3e3d7592	0.18501881
220	0x3e411aeb	0.18857925
221	0x3df814d1	0.121133454
222	0xbe315b6b	-0.1732003
223	0xbebccee8	-0.36876607
224	0x3dbc22f0	0.09186351
225	0xbec339fd	-0.3813018
226	0x3df9b49f	0.12192654
227	0x3eb7df46	0.35912532
228	0x3eb39f4c	0.3508247
229	0xbe8dbd9e	-0.2768373
230	0xbdad91f5	-0.08475105
231	0xbea203f7	-0.3164365
232	0x3e3c0426	0.18360958
233	0x3d61d6d7	0.055136528
234	0xbc0d0042	-0.0086060185
235	0x3e817def	0.25291392
236	0x3e53ecdb	0.20695822
237	0x3df2c549	0.118540354
238	0x3e01ba82	0.12668803
239	0x3e9df9cc	0.30854642
240	0xbe46e5c5	-0.19423588
241	0x3e2db046	0.16961774
242	0xbe8cdbfd	-0.27511588
243	0xbe0e9e40	-0.13927555
244	0x3e665f3c	0.22497267
245	0x3e9f1e71	0.31077912
246	0xbe77e088	-0.24206746
247	0x3ea848b3	0.32867965
248	0x3ca00ebd	0.019538278
249	0xbdd7d630	-0.105389
250	0xbe1bb79c	-0.1520676
251	0xbec59891	-0.3859296
252	0x3e39ede9	0.18157162
253	0x3e9ae0ec	0.30249727
254	0xbd12bf25	-0.03582682
255	0x3e6c3481	0.23066904

in_proj_bias f4 [30]
0	0x00000000	0.0
1	0x00000000	0.0
2	0x00000000	0.0
3	0x00000000	0.0
4	0x00000000	0.0
5	0x00000000	0.0
6	0x00000000	0.0
7	0x00000000	0.0
8	0x00000000	0.0
9	0x00000000	0.0
10	0x00000000	0.0
11	0x00000000	0.0
12	0x00000000	0.0
13	0x00000000	0.0
14	0x00000000	0.0
15	0x00000000	0.0
16	0x00000000	0.0
17	0x00000000	0.0
18	0x00000000	0.0
19	0x00000000	0.0
20	0x3b8f427f	0.0043719406
21	0x3bbe84b5	0.0058141598
22	0xbb955d57	-0.004558246
23	0x3ba586d4	0.005051473
24	0x3b578d3b	0.0032890576
25	0x3b2e1fe4	0.0026569301
26	0x38c529b0	9.401457e-05
27	0x39308ff4	0.00016838295
28	0xbbcb57c4	-0.006205531
29	0xbab0a848	-0.0013477886

weight f4 [10, 10]
0	0x3ee6c72a	0.45073825
1	0xbe6596a2	-0.22420743
2	0x3da9366f	0.082623355
3	0x3dd46215	0.1037027
4	0xbeed5df6	-0.4636075
5	0x3e9d6a57	0.30745193
6	0x3d88909d	0.06668208
7	0x3e841ab1	0.25801614
8	0xbe5534ca	-0.20820919
9	0xbd9a1706	-0.075239226
10	0xbd807ba2	-0.06273581
11	0xbbbdfe26	-0.005798119
12	0xbe802a00	-0.25032043
13	0x3ec876e1	0.39153197
14	0x3e99e3e6	0.30056685
15	0xbe03fabe	-0.1288862
16	0xbeb688d1	-0.35651258
17	0x3d74c93d	0.05976223
18	0x3d593061	0.053024653
19	0x3e8b0613	0.27153072
20	0xbed01121	-0.40638068
21	0xbe879d9d	-0.26487437
22	0x3e04d149	0.12970461
23	0xbda33719	-0.079694934
24	0x3e05f3cf	0.13081287
25	0xbe98ccd5	-0.29843774
26	0x3e8dcad8	0.2769382
27	0x3eba2ded	0.36363164
28	0x3df23382	0.118262306
29	0x3ea12c7b	0.31479248
30	0xbe93c726	-0.28862876
31	0xbe4c6005	-0.19958504
32	0xbe765139	-0.24054421
33	0xbc8cd5d2	-0.017191801
34	0xbedd0cee	-0.43173927
35	0xbe9fe0b8	-0.31226134
36	0xbee956fe	-0.45574182
37	0xbe368a1a	-0.17826119
38	0x3ea78038	0.3271501
39	0x3e30e0d5	0.17273267
40	0x3da8ad61	0.082361944
41	0x3d0020af	0.03128117
42	0x3e78cd51	0.24297072
43	0xbe03a3ce	-0.12855455
44	0x3e519459	0.20466746
45	0xbe3d9555	-0.18513997
46	0x3edde825	0.43341175
47	0x3e6cdd8e	0.23131391
48	0x3f08aad0	0.5338564
49	0xbecd98ab	-0.4015554
50	0x3d797de6	0.06091108
51	0xbdc9bd5b	-0.0985057
52	0xbe834ca2	-0.25644404
53	0x3ea7a5a6	0.32743567
54	0x3e99af43	0.30016527
55	0xbeb4f7d3	-0.35345325
56	0xbe82cf2e	-0.2554869
57	0xbd79704c	-0.06089811
58	0xbd98022b	-0.074222885
59	0xbf005e7b	-0.50144166
60	0xbe8a260d	-0.26982155
61	0x3e9ab24f	0.30214164
62	0xbebe0c5c	-0.37118804
63	0xbecad166	-0.39612883
64	0x3ea9beb1	0.33153298
65	0x3d4632f4	0.048388436
66	0xbecb4f65	-0.3970901
67	0x3e21c2f2	0.15797022
68	0x3e871485	0.26382843
69	0xbe4d8bd8	-0.20072877
70	0x3e0da49c	0.13832325
71	0x3ec61f3d	0.38695708
72	0xbe88ac39	-0.26693895
73	0xbdb84aef	-0.089986674
74	0xbe0f1456	-0.13972601
75	0x3ecd0648	0.40043855
76	0x3e9dc76d	0.30816212
77	0x3eb5e764	0.355281
78	0xbe9e34d4	-0.3089968
79	0xbeb0f860	-0.34564495
80	0xbcc570e7	-0.024101688
81	0xbddd0686	-0.1079226
82	0xbd1311e2	-0.035905726
83	0x3e3788af	0.17923234
84	0x3ed68619	0.41899183
85	0xbd8a7f47	-0.067625575
86	0xbe39a132	-0.18127897
87	0xbee85014	-0.45373595
88	0x3ee65c36	0.44992226
89	0x3e0d1c75	0.13780387
90	0xbea62b70	-0.32455015
91	0xbeed0b7b	-0.4629782
92	0x3dea302f	0.114349715
93	0xbecfa438	-0.40554976
94	0xbe1a13ab	-0.15046565
95	0x3e11de7b	0.14245026
96	0xbd20c288	-0.03924802
97	0x3e69e693	0.22841863
98	0x3e08ee88	0.13372242
99	0xbda4b6c2	-0.08042671

bias f4 [10]
0	0xbb62f12e	-0.0034628618
1	0x3c20fa2d	0.009825272
2	0xbc09ed41	-0.008418382
3	0xb97b8079	-0.00023985085
4	0x3b31d61f	0.0027135683
5	0x3b0e2fcc	0.002169597
6	0xbbdc57d2	-0.006724336
7	0x3bee2fe9	0.007268895
8	0x3b8af933	0.0042411326
9	0xbbd4de5b	-0.0064962334

weight f4 [2048, 10]
0	0x3a84da1a	0.00101358
1	0xb499c641	-2.864272e-07
2	0xb2732d11	-1.41547085e-08
3	0x3903c8dd	0.00012567961
4	0x34657e7d	2.1373303e-07
5	0x32b655d5	2.122662e-08
6	0xb3e39c81	-1.0598979e-07
7	0x39b825c0	0.0003512334
8	0xb6bd13d9	-5.6349495e-06
9	0xb5037ff6	-4.898751e-07
10	0xb8dc3ee0	-0.00010502129
11	0x33c05279	8.9556984e-08
12	0xb6463c5a	-2.9539428e-06
13	0xb6afd920	-5.240683e-06
14	0xb36ef1ad	-5.5633496e-08
15	0x33e1f7de	1.0522466e-07
16	0x343e4586	1.7720421e-07
17	0x3386c295	6.2752555e-08
18	0xb4713cdf	-2.2467019e-07
19	0xb4134f12	-1.3719207e-07
20	0xbd26f3d8	-0.04075989
21	0x3cb2c1f9	0.021821009
22	0xbd1363d3	-0.03598387
23	0xbc7e561a	-0.015523458
24	0xbd21566b	-0.039389055
25	0x3c1758cf	0.009237482
26	0xbd3277d2	-0.0435713
27	0x3d1fb34f	0.03898936
28	0xbc4c7779	-0.012479656
29	0xbd10af23	-0.035323273
30	0xbcf80d89	-0.030279892
31	0x3cb27706	0.02178527
32	0xbc9158e6	-0.017742585
33	0x3d274543	0.040837537
34	0x3ca901a6	0.020630669
35	0xbc1dd452	-0.009633141
36	0xbd3fc816	-0.046821676
37	0x3ccbed22	0.024893347
38	0x3bffa0b0	0.007801138
39	0x3b6dbfbe	0.0036277617
40	0xbcebee92	-0.028800283
41	0x3c87a221	0.016556801
42	0x3cffcb9a	0.031225014
43	0xbd27247d	-0.040806282
44	0x3d0c0591	0.034184996
45	0x3cb6e476	0.022325736
46	0xbbc0a737	-0.0058793086
47	0xbd16ff10	-0.03686434
48	0x3c12e98d	0.008966816
49	0x3cc2a306	0.023759376
50	0xbd00202f	-0.031280693
51	0xba2dd5a2	-0.000663126
52	0x3c9e86ca	0.019351382
53	0xbd65eb06	-0.05613234
54	0x3cc1de1c	0.02366548
55	0x3d2cc9ed	0.04218476
56	0x3d3adf84	0.045623317
57	0xbd3294dd	-0.043599
58	0x3d3289b4	0.043588355
59	0x3c7cf898	0.015440129
60	0xbbf6f6cd	-0.007536745
61	0xbcb2c317	-0.021821542
62	0xbbbe3af2	-0.0058053667
63	0x3c5bcc46	0.013415402
64	0x3d2813b3	0.04103441
65	0xbd442f53	-0.047896694
66	0x3c9bd648	0.019023076
67	0x3c1faba3	0.009745511
68	0xbd497b5e	-0.049189918
69	0xbccc6016	-0.024948161
70	0xbbb535cc	-0.0055300947
71	0x3d18d435	0.03731175
72	0x3d1e4101	0.03863621
73	0xbd28f1a6	-0.04124608
74	0xbd466751	-0.048438374
75	0xbcbba769	-0.022906976
76	0x3d4e1df0	0.05032152
77	0xbcf25cd3	-0.029585278
78	0xbcae9046	-0.02130903
79	0x3d35bb7d	0.044368256
80	0x3c8d1c47	0.017225398
81	0x3c2320ff	0.009956597
82	0xbd2c43f7	-0.042057004
83	0x3d56dfeb	0.05245964
84	0xbc07ed57	-0.008296332
85	0x3cba635c	0.022752456
86	0x3d42addd	0.04752909
87	0xbd496ff0	-0.049179018
88	0x3b198a51	0.002342839
89	0x3d318b49	0.043345723
90	0x3ce1a16a	0.027542789
91	0x3a61200e	0.00085878454
92	0x3cf0174c	0.029307984
93	0x3d6236ce	0.055228047
94	0xbd3aa205	-0.04556467
95	0xbbcfcb28	-0.006341357
96	0xbd155b2a	-0.036463894
97	0x3b15a0cd	0.002283144
98	0x3d09c6b4	0.033636764
99	0x3d3d7e09	0.046262775
100	0x3c15fe66	0.009154892
101	0xbd41e4fa	-0.04733751
102	0x3c0189b8	0.00790637
103	0x3d3c08a2	0.04590667
104	0xbd322255	-0.043489773
105	0xbd477f74	-0.048705533
106	0xba8f6daa	-0.0010942717
107	0x3d0f8bd1	0.03504545
108	0xbc8a6504	-0.016893871
109	0xbc93baa7	-0.018033339
110	0xbcd11a5f	-0.02552527
111	0xbc281538	-0.010258965
112	0x3d528b4c	0.051402375
113	0x3cc291e3	0.023751205
114	0xbbfd67c7	-0.0077333185
115	0x3d115143	0.035477888
116	0x3d029cf9	0.031887982
117	0xbd3b991d	-0.045800317
118	0xbd005f87	-0.031341102
119	0x3d1bcd56	0.03803762
120	0xb283f99b	-1.5363915e-08
121	0xb633051c	-2.6676053e-06
122	0x3411ee4e	1.3590872e-07
123	0x35474e1e	7.424695e-07
124	0xb689d114	-4.107258e-06
125	0x34799972	2.3245755e-07
126	0x342fb538	1.6364072e-07
127	0xb3d2ed4a	-9.82205e-08
128	0xb7cd014c	-2.4438508e-05
129	0x38d45a25	0.000101257385
130	0xbc8c1998	-0.017102048
131	0xbd56deb3	-0.052458476
132	0xbd14afe4	-0.036300555
133	0xbc1569bb	-0.009119446
134	0xbce36efb	-0.02776288
135	0xbcc6016a	-0.024170596
136	0x3c98a8c6	0.018635165
137	0x3c599ce9	0.013282039
138	0x3c847c02	0.016172413
139	0x3b39fbf4	0.0028378936
140	0x3c394ab5	0.011309315
141	0xbd0305b0	-0.031987846
142	0xbcbf4fa4	-0.023353405
143	0x3c60a5e5	0.013711427
144	0x3cb14ea1	0.021643938
145	0xbba025da	-0.0048873248
146	0xbcc99c82	-0.024610762
147	0xbc85802b	-0.016296467
148	0xbcac1fa3	-0.02101118
149	0x3c8f6216	0.017502826
150	0xbd697a6a	-0.05700151
151	0x3d206541	0.039159063
152	0xbcbf2633	-0.023333644
153	0xbc2ff237	-0.010738901
154	0xbc7f8f58	-0.015598141
155	0x3d4720de	0.04861533
156	0xbd431780	-0.047629833
157	0xbd664bea	-0.05622474
158	0x3ccdd560	0.02512616
159	0xbb5d1be1	-0.003373854
160	0x3d5453b0	0.051837623
161	0x3d13f4a4	0.03612198
162	0x3c86e9d4	0.01646892
163	0xbc165bc0	-0.009177148
164	0x3d3da0e0	0.046296
165	0xbd1bbf9d	-0.038024534
166	0xbd18dbbd	-0.037318934
167	0xbc26b58f	-0.010175123
168	0xbd6ad961	-0.057336215
169	0xbcae9e17	-0.021315617
170	0x36910491	4.3218683e-06
171	0xb36a6582	-5.457469e-08
172	0x388d8a1d	6.7491295e-05
173	0xb388f90e	-6.378296e-08
174	0x394602d0	0.00018883799
175	0xba12687a	-0.0005585026
176	0x380795bb	3.2325956e-05
177	0x35e4b901	1.7041167e-06
178	0xb421fa03	-1.5085247e-07
179	0x35990777	1.1401561e-06
180	0xbc0c2248	-0.008553095
181	0x3bfbc4a3	0.007683353
182	0xbc4eedfc	-0.012629982
183	0xbd011426	-0.031513356
184	0x3baa90be	0.005205243
185	0x3d4e7bbf	0.050410982
186	0xbba558a3	-0.0050459667
187	0xbd465365	-0.048419375
188	0x3badb42a	0.0053010182
189	0x3d31ed9e	0.0434395
190	0xbc5f09fe	-0.013613222
191	0xbc116e1f	-0.008876353
192	0x3cf017b1	0.029308172
193	0xbcd168ba	-0.025562633
194	0x3d427aeb	0.047480505
195	0xbcfb401a	-0.030670214
196	0x3d53912d	0.051652122
197	0xbcbcbea5	-0.023040125
198	0x3d5d4d12	0.054028578
199	0x3d3059fc	0.043054566
200	0xbc33b45f	-0.010968297
201	0x3d720f91	0.059096877
202	0x3cc98640	0.024600148
203	0x3d1d4a8b	0.038401168
204	0x3d1ee3aa	0.038791336
205	0x3cbd3990	0.023098737
206	0x3ce9d88d	0.028545642
207	0xbc69babe	-0.014265714
208	0x3d03966b	0.03212587
209	0xbd30f8aa	-0.043205895
210	0xb4283b1b	-1.5667722e-07
211	0x32a62018	1.9339538e-08
212	0xb5a7a234	-1.2489677e-06
213	0xb3fbd52c	-1.1726874e-07
214	0x368c8213	4.1874678e-06
215	0x368185d0	3.8600774e-06
216	0xb0a66e5e	-1.2109458e-09
217	0xb81c8c1e	-3.7323793e-05
218	0xb3aca685	-8.039664e-08
219	0xb889222d	-6.539035e-05
220	0x3d23052a	0.039799847
221	0x3ced6232	0.028977487
222	0x3c630830	0.0138569325
223	0xbcb1d6e4	-0.021708913
224	0x3bead233	0.007166171
225	0xbd1953e1	-0.03743351
226	0x3cd91d78	0.02650331
227	0xbd43c8bf	-0.04779887
228	0xbcdb253e	-0.026751157
229	0xbd27b885	-0.040947456
230	0xbd273ca9	-0.040829334
231	0xbcf985c6	-0.030459296
232	0xbc2cc1ae	-0.010544224
233	0xbd2ec881	-0.042671684
234	0x3c9a5a6e	0.018841948
235	0x3bb36b3f	0.005475431
236	0xbd41c1bf	-0.04730391
237	0x3c7e5d7c	0.015525218
238	0x3cb68c79	0.02228378
239	0x3d4c24a5	0.049839634
240	0x3acd70a6	0.0015673831
241	0xbce4b52a	-0.027918417
242	0xbcd0333a	-0.025415052
243	0x3d3d875d	0.04627167
244	0xbcc3d313	-0.023904359
245	0xbd7efe95	-0.062254507
246	0xbd480a07	-0.048837688
247	0x3ca8d2e7	0.020608379
248	0xbbe98ecc	-0.0071276184
249	0xbc9b78fd	-0.01897859
250	0xbccc4b6e	-0.024938311
251	0xbc987f8d	-0.018615508
252	0xbd2e2507	-0.04251578
253	0xbcc0dfc9	-0.02354421
254	0xbd13f6bf	-0.036123987
255	0xbca10100	-0.019653797

bias f4 [2048]
0	0xbe3eb80c	-0.18624896
1	0xbdb632f6	-0.08896439
2	0x3dcad38d	0.09903631
3	0x3d9dc21e	0.077030405
4	0x3da30351	0.07959617
5	0xbd6d1f26	-0.057891034
6	0x3e484f33	0.19561462
7	0x3e959697	0.29216453
8	0x3e952313	0.29128322
9	0x3c658395	0.014008422
10	0xbd50fc95	-0.05102213
11	0x3e9063ed	0.28201237
12	0xbe451b6a	-0.19248739
13	0xbe200da5	-0.15630205
14	0x3e6f012f	0.23340295
15	0xbde15893	-0.11003222
16	0xbdf32a71	-0.118733294
17	0xbdcbb61c	-0.09946844
18	0xbcecc08d	-0.02890041
19	0xbc0c1547	-0.008549995
20	0x3d7aff86	0.061278842
21	0xbd314fbb	-0.043288928
22	0xbdf3251d	-0.11872313
23	0x3e55cf05	0.20879753
24	0x3c6eb73f	0.014570056
25	0x3e841cd2	0.25803238
26	0x3e94b04a	0.29040748
27	0xbcadcf57	-0.021217031
28	0x3e35434e	0.17701456
29	0x3e7bb463	0.24580531
30	0xbe1c5280	-0.15265846
31	0x3e78d350	0.2429936
32	0x3e258d0d	0.16167088
33	0xbbdf5948	-0.006816063
34	0xbe5462f7	-0.20740877
35	0xbd8b0d63	-0.06789663
36	0x3d368ebb	0.044569712
37	0x3e902e90	0.28160524
38	0xbd7724a2	-0.06033767
39	0x3e2cfe5b	0.16893904
40	0xbcf420c4	-0.02980078
41	0x3d9d9daa	0.07696088
42	0x3e49b9ea	0.19699827
43	0xbde14dfd	-0.11001203
44	0x3e1c67c1	0.15273954
45	0x3d5aed53	0.053448986
46	0xbd91330d	-0.07089815
47	0xbb565ab4	-0.0032707872
48	0xbd5584cd	-0.0521286
49	0xbcadd296	-0.02121858
50	0x3e36a0dc	0.178348
51	0x3dc9a9ae	0.09846817
52	0xbcec87a6	-0.028873276
53	0x3e9d5432	0.30728298
54	0x3e97d2fe	0.29653162
55	0x3d8c03de	0.06836675
56	0xbda1e960	-0.07905841
57	0x3dc82785	0.09773163
58	0x3e7379fb	0.23777
59	0x3e9148fc	0.28375995
60	0xbe25d5d8	-0.16194856
61	0x3e8b7e9f	0.27245042
62	0x3de80a74	0.11330119
63	0x3e50417b	0.20337479
64	0xbdf9652f	-0.12177502
65	0xbdb6a40f	-0.089180104
66	0xbe22f481	-0.15913583
67	0x3d01ce08	0.031690627
68	0x3d205dae	0.03915184
69	0x3e9c012e	0.3046965
70	0xbde196e6	-0.1101511
71	0xbe245891	-0.1604941
72	0xbca8b787	-0.020595325
73	0xbd6277ca	-0.05529002
74	0x3d26bbac	0.04070632
75	0xbdd1220e	-0.102115735
76	0xbd238aa7	-0.03992715
77	0x3d9d9c8b	0.07695874
78	0xbe108493	-0.14113073
79	0x3ea383ad	0.31936398
80	0x3e2d1364	0.16901928
81	0x3e7d1cb4	0.2471798
82	0xbe069b98	-0.13145292
83	0x3d9fe1d9	0.07806749
84	0x3e6374f1	0.22212578
85	0x3dafb7b9	0.08579964
86	0x3e8c0b1a	0.2735222
87	0x3ddbbcda	0.1072938
88	0x3e09be4e	0.13451502
89	0xbdad54c5	-0.08463434
90	0xbdad732b	-0.08469232
91	0xbe57d7fe	-0.21078488
92	0xbd085534	-0.03328438
93	0x3e44ade6	0.19206962
94	0xbd83a71b	-0.06428357
95	0x3e80661e	0.2507791
96	0x3e945862	0.2897368
97	0xbd3ef6e0	-0.046622157
98	0xbe15d488	-0.14631855
99	0xbde05ccd	-0.109552
100	0xbe401ddb	-0.18761389
101	0xbdfadd29	-0.12249214
102	0x3cfcaee3	0.030845111
103	0x3dc40f2d	0.09573207
104	0x3e5753f5	0.21028121
105	0xbde73978	-0.11290258
106	0x3e9fdf1c	0.31224906
107	0xbd6ce407	-0.05783465
108	0xbe35f413	-0.17768888
109	0x3c8c0d0c	0.017096065
110	0xbe2b7736	-0.16744694
111	0x3e869119	0.26282576
112	0xbb185904	-0.0023246417
113	0xbe1b248a	-0.15150657
114	0x3e5bb3ab	0.21455257
115	0x3e3af2ca	0.18256679
116	0x3e1443d6	0.14479002
117	0xbe046d4b	-0.12932317
118	0x3dae734f	0.08518087
119	0x3d76d4ec	0.060261652
120	0x3e9a2e1b	0.301133
121	0x3c8b62d3	0.017014896
122	0xbd83406b	-0.06408771
123	0x3e99a8d0	0.30011606
124	0xbe4f406d	-0.2023942
125	0xbdc45131	-0.095857985
126	0xbe4a4425	-0.19752558
127	0xbe095c44	-0.13414103
128	0xbe1fbb49	-0.15598787
129	0x3e5fb4b3	0.21846275
130	0x3e1cfb26	0.1533018
131	0x3e86295e	0.26203436
132	0x3e280d57	0.16411339
133	0xbda4c546	-0.080454394
134	0x3c513204	0.012768272
135	0x3d83df89	0.0643912
136	0x3e97c757	0.29644272
137	0x3dd63916	0.10460107
138	0xbcc8b48d	-0.024500156
139	0xbd8628ff	-0.06550788
140	0xbc16aca9	-0.009196439
141	0x3e20475c	0.15652221
142	0xbde84d71	-0.11342896
143	0xbcae4a61	-0.021275701
144	0xbe122711	-0.14272715
145	0x3e0fb02c	0.14032048
146	0xbe54810e	-0.20752355
147	0xbe067a7b	-0.1313266
148	0x3e46593e	0.1936998
149	0x3d2ffc5f	0.04296529
150	0xbe0c54ef	-0.13704275
151	0x3ea192d3	0.3155733
152	0xbd85762c	-0.0651668
153	0xbda4776c	-0.080305904
154	0x3ea22ffa	0.31677228
155	0x3d99a4be	0.07502125
156	0xbc1ed17d	-0.009693501
157	0x3cf93ca8	0.030424431
158	0x3e0c7b04	0.13718802
159	0x3e36c4d9	0.17848529
160	0x3dd1a7f2	0.10237111
161	0x3e03d814	0.12875396
162	0xbe179395	-0.14802392
163	0x3dd42a05	0.10359577
164	0xbd749ced	-0.05971997
165	0x3db33879	0.08751006
166	0xbe29be4b	-0.16576497
167	0xbe310011	-0.17285182
168	0x3e4f251c	0.20229
169	0xbd4671bc	-0.04844831
170	0x3e0cc375	0.13746436
171	0x3cf5b817	0.029995007
172	0x3e4c5e59	0.19957866
173	0x3e45e3f2	0.19325235
174	0x3e798bd9	0.24369754
175	0x3df49943	0.11943295
176	0xbca0842b	-0.019594273
177	0xbc366527	-0.011132515
178	0xbe078fd8	-0.13238466
179	0x3e8722d8	0.2639377
180	0xbc02a1e6	-0.00797317
181	0x3e1b04db	0.15138571
182	0x3daeb67c	0.085309
183	0xbe012065	-0.12610014
184	0xbe4f845d	-0.20265336
185	0x3d357aad	0.044306446
186	0xbc86aa1e	-0.01643854
187	0xbda40551	-0.080088265
188	0xbcef2fa9	-0.02919753
189	0xbb9d4cce	-0.0048004156
190	0xbd80ada0	-0.06283116
191	0x3e07bca2	0.13255551
192	0x3db57e47	0.08861976
193	0x3e3ad3ee	0.18244907
194	0xbdabf8f7	-0.08397096
195	0xbccc0be7	-0.02490802
196	0xbb1781d1	-0.0023118148
197	0x3e3a7f9d	0.18212743
198	0xbe479838	-0.1949166
199	0xbe0d6a6b	-0.13810126
200	0x3e3c71a7	0.1840273
201	0xbda41e38	-0.08013576
202	0xbc461038	-0.012088828
203	0xbe51c7a7	-0.20486318
204	0x3d758479	0.05994079
205	0x3e39038c	0.1806776
206	0xbe3ac730	-0.18240047
207	0x3dcf7a56	0.101307556
208	0x3e45048e	0.19240019
209	0x3e23f8bd	0.16012855
210	0x3ddd7f75	0.10815326
211	0xbe4bfaff	-0.19919966
212	0x3e8a620e	0.27027935
213	0x3d9136d0	0.07090533
214	0x3d859e6e	0.06524359
215	0xbe40e0e3	-0.18835787
216	0x3dd98ab5	0.106221594
217	0x3e3954e5	0.18098791
218	0x3e4a456c	0.19753045
219	0x3dc06ff0	0.093963504
220	0xbd091276	-0.03346487
221	0x3a91e889	0.0011131923
222	0xbe00427f	-0.12525366
223	0xbe16f8e3	-0.1474338
224	0xbdd20186	-0.10254197
225	0x3d823b18	0.063589275
226	0x3d14fee3	0.03637589
227	0x3d4d7676	0.0501618
228	0xbd281dee	-0.04104417
229	0x3e391dfd	0.18077846
230	0x3e090ed3	0.13384561
231	0xbd269a23	-0.04067434
232	0xbe3461ad	-0.17615385
233	0x3e5d8046	0.21630964
234	0x3e897402	0.2684632
235	0xbd420a06	-0.04737284
236	0x3e88774b	0.26653513
237	0xbdb373b9	-0.08762307
238	0xbe2976c5	-0.16549213
239	0x3e731457	0.23738228
240	0xbdf4086f	-0.11915671
241	0xbdde1083	-0.10842993
242	0x3e3c6d18	0.18400991
243	0x3cef0d6e	0.029181208
244	0x3d4e5535	0.05037423
245	0x3deb91be	0.115024075
246	0x3e47a86b	0.1949784
247	0x3e953d59	0.29148367
248	0xbe25cc74	-0.16191274
249	0x3e35613b	0.17712872
250	0x3e3185c1	0.1733618
251	0xbd651b81	-0.055934433
252	0xbe52c559	-0.20583095
253	0xbe4af492	-0.19819859
254	0xbe36f47e	-0.17866704
255	0x3e9dc357	0.30813095

weight f4 [10, 2048]
0	0x33e45a81	1.063354e-07
1	0xb2d84988	-2.5179148e-08
2	0x3bbf7752	0.0058430815
3	0x3c4253f9	0.011860841
4	0x3c97fe87	0.018553985
5	0x3ccbc5cd	0.024874592
6	0x3c960ce7	0.0183167
7	0x3ce32a83	0.027730232
8	0x3b84d787	0.004054013
9	0xbafe95e1	-0.001942333
10	0xbcde5796	-0.027141374
11	0xbd47a05a	-0.048736908
12	0xb5a8a633	-1.2565346e-06
13	0xbd2dbcb8	-0.042416304
14	0x3d55f9f4	0.052240327
15	0x3d584912	0.05280406
16	0xbd633ebf	-0.05547976
17	0x359e0cb9	1.177562e-06
18	0xbccdb1a2	-0.025109116
19	0x3863490e	5.4189055e-05
20	0xbd3ed238	-0.0465872
21	0xb51500b0	-5.5507826e-07
22	0xbc3d6fa3	-0.011562261
23	0x3cd56915	0.026051084
24	0xbc063354	-0.0081909485
25	0xbc04e5f3	-0.008111465
26	0xbbb0d394	-0.005396316
27	0xb7c4a3f4	-2.3441367e-05
28	0x3b2eafde	0.0026655118
29	0x3c8846c3	0.016635304
30	0xb3f4c612	-1.1398164e-07
31	0xbd02b6f9	-0.031912778
32	0xbd51d74c	-0.051230714
33	0xbd02a48c	-0.031895205
34	0xb4411815	-1.7983287e-07
35	0x3d2e6ae8	0.042582422
36	0xbd242be2	-0.040080912
37	0x3ceef291	0.029168399
38	0x367e6a82	3.7910945e-06
39	0xbd2d97e6	-0.04238119
40	0x3cbba126	0.02290399
41	0xbca648b5	-0.020298341
42	0xbcb9608a	-0.022629041
43	0x3d17e309	0.037081752
44	0x3cd4295d	0.02589863
45	0xbceda8db	-0.02901118
46	0x3a080f41	0.0005190261
47	0x3cad0e6c	0.021125041
48	0x3a60a679	0.0008569728
49	0x3ca2d714	0.019877948
50	0x3cdad0cd	0.026710892
51	0xbb7d8567	-0.003868425
52	0x3d13198b	0.03591303
53	0x3c78fa14	0.015196342
54	0xbcbaaf17	-0.022788567
55	0xbd40df38	-0.047087878
56	0xba613dcf	-0.0008592279
57	0x3d26b269	0.04069749
58	0x3c209bbf	0.009802758
59	0x3c1aa8e7	0.0094396835
60	0x34a2f8ab	3.035578e-07
61	0xbd322e68	-0.043501288
62	0xbc66a2dc	-0.014076915
63	0xbd34c4bf	-0.044132944
64	0x338b8659	6.4971296e-08
65	0xbd0d4951	-0.034493748
66	0x395ab4d7	0.00020857468
67	0xbd15dc37	-0.036586966
68	0x3c79fe93	0.015258449
69	0x3cc73852	0.024318848
70	0xbd4c0449	-0.049808774
71	0xb5a3f66c	-1.2216165e-06
72	0xbcda6858	-0.026661083
73	0x3c743fc2	0.014907779
74	0xbc2b62da	-0.01046058
75	0xbc565d04	-0.0130837
76	0x340be331	1.3028036e-07
77	0x3d32011a	0.04345808
78	0x350e0773	5.290996e-07
79	0xbceefd94	-0.02917365
80	0xbd032ab6	-0.032023154
81	0xbd5186ad	-0.051153827
82	0x39957f0d	0.00028514155
83	0x3c4dec3b	0.012568529
84	0x3d3ff72f	0.046866592
85	0xbd266e5a	-0.040632583
86	0x3d382c3b	0.044964056
87	0x3d5f455e	0.054509513
88	0x3d6ca769	0.057776842
89	0xb42dedd2	-1.6198399e-07
90	0xb6ae6983	-5.1978873e-06
91	0xb351804a	-4.8778283e-08
92	0x39ed5eb6	0.00045274728
93	0x3c5621a6	0.013069546
94	0xbcfd3128	-0.030907229
95	0x3b92e2bd	0.0044825957
96	0xbcb7a83c	-0.022419088
97	0xbcca4b3e	-0.024694081
98	0x36f93ea5	7.428071e-06
99	0xb690f24d	-4.319742e-06
100	0x3913294c	0.00014034397
101	0x3ca22150	0.019791275
102	0xbcaed8eb	-0.021343669
103	0x3d580240	0.05273652
104	0x3d2ec5be	0.04266905
105	0xb41064e2	-1.3447746e-07
106	0xbba05133	-0.004892492
107	0xb6c04106	-5.7296156e-06
108	0x3a4f38a2	0.0007904862
109	0xbc0e0680	-0.008668542
110	0x34344b81	1.6791275e-07
111	0x3d139347	0.036029126
112	0x3d2ed2d5	0.042681534
113	0x3404a69a	1.2354067e-07
114	0x3d0fa3cf	0.03506833
115	0xbce9778d	-0.028499389
116	0xbd0b7da7	-0.03405538
117	0xb489fae4	-2.5700785e-07
118	0xbcd7330a	-0.026269455
119	0xbc88548e	-0.016641881
120	0xbd170063	-0.036865603
121	0x3d4a9ca0	0.049465775
122	0xbc2669b4	-0.0101570375
123	0x3d2443b0	0.040103614
124	0x357e8c06	9.4826135e-07
125	0xb421d6d6	-1.507245e-07
126	0x35494e35	7.499214e-07
127	0x37685158	1.3847217e-05
128	0xb6a29090	-4.8448055e-06
129	0xbd1350c9	-0.035965715
130	0xbc538e1a	-0.012912298
131	0x3d0afd13	0.033932757
132	0xb9292260	-0.00016129902
133	0x3425eb8a	1.5452511e-07
134	0x3d3adcaa	0.045620598
135	0x3d4d9870	0.050194204
136	0xbd2a1a1d	-0.04152881
137	0xbc558ee2	-0.013034554
138	0x346e6c37	2.2204846e-07
139	0xb4b98a07	-3.4559363e-07
140	0xbc5e1821	-0.0135555575
141	0x3d10857e	0.035283558
142	0x352d8c6e	6.4651874e-07
143	0x3d21a20c	0.03946118
144	0xb9013041	-0.00012320375
145	0xbd2109c3	-0.03931595
146	0xb454c63c	-1.9816156e-07
147	0xb48d1c74	-2.6284e-07
148	0x3cd8cb6d	0.026464188
149	0xbb3ba6ab	-0.0028633277
150	0xbc91d154	-0.01780001
151	0xbd055b9a	-0.03255806
152	0xbbede108	-0.007259492
153	0xb8a03af7	-7.6403776e-05
154	0x3c85a1f5	0.016312579
155	0x3c1f1488	0.009709485
156	0x350674cb	5.0088846e-07
157	0xbca4b42f	-0.02010545
158	0x3d15505a	0.036453582
159	0x3c90ba6c	0.017667018
160	0x3cbcc7a6	0.023044419
161	0xbc9a6be0	-0.018850267
162	0x34f82f31	4.6227936e-07
163	0x3c8e77b8	0.01739107
164	0x3b338322	0.0027391394
165	0x3d1bf70e	0.038077407
166	0xb94bdff8	-0.00019443023
167	0xb6bd82d5	-5.64787e-06
168	0xbcb80f57	-0.022468252
169	0xbd33557f	-0.043782707
170	0xbd061a2e	-0.03273981
171	0x3c28b2fe	0.010296581
172	0x3d17e827	0.037086632
173	0xbb4aabdc	-0.003092519
174	0x3d3c70ca	0.046006
175	0xbc113dfc	-0.008864876
176	0xbd55d437	-0.052204337
177	0xbcfe0cd3	-0.031011974
178	0xbd29c050	-0.04144317
179	0x3c893900	0.016750813
180	0x345ffb56	2.0859929e-07
181	0xbd42aad4	-0.047526196
182	0x3cee9795	0.029125014
183	0x3d22d707	0.039755847
184	0xb4ffa55f	-4.7617775e-07
185	0xbc59bd6c	-0.013289791
186	0xbbd01ef1	-0.0063513448
187	0x3d47596c	0.048669264
188	0x33292ffa	3.9392013e-08
189	0xbd3f28cf	-0.046669777
190	0xbd50a169	-0.050935183
191	0x3b1626b8	0.0022911262
192	0x3c7c6dc4	0.01540703
193	0x3d17e6ff	0.03708553
194	0xbc5afeb1	-0.013366387
195	0x35a4d989	1.2282263e-06
196	0xbd338733	-0.043830108
197	0x3d1395f6	0.036031686
198	0xb3e55224	-1.0678585e-07
199	0x3bd92343	0.006626518
200	0x3b4b576b	0.0031027447
201	0x3479d4d2	2.3267356e-07
202	0xbc4d1bca	-0.012518832
203	0xb59f6ff8	-1.187901e-06
204	0xbcad6ae3	-0.021169132
205	0xbc9461c6	-0.018113028
206	0xb9b04137	-0.00033617925
207	0x3d01dd8b	0.03170542
208	0xbd5963c9	-0.05307368
209	0x3d126eed	0.03575032
210	0x3d1974b4	0.037464812
211	0xb664140a	-3.3986312e-06
212	0xbd145e6c	-0.03622286
213	0x3cd8e062	0.026474182
214	0xbc6f39ca	-0.01460118
215	0x3491862f	2.7105986e-07
216	0xbc0481de	-0.008087603
217	0xbb464fa6	-0.0030259877
218	0x3b9b0cdc	0.0047317576
219	0x3cff60b4	0.031174041
220	0xb6baf66f	-5.5719206e-06
221	0x3c52fcd7	0.0128776645
222	0xb567ef1f	-8.6402173e-07
223	0xb47bdbda	-2.3456178e-07
224	0x3c930d70	0.017950743
225	0x3d388540	0.045048952
226	0xbb97307d	-0.0046139346
227	0x3d452456	0.048130356
228	0x3b537d8d	0.003227088
229	0xbd43d38f	-0.04780918
230	0xbcbf6c45	-0.023367057
231	0x3cf4a374	0.029863097
232	0x3d16c8ef	0.03681272
233	0x3d117949	0.035516057
234	0x3cd05a39	0.025433647
235	0x3be806a6	0.0070808707
236	0xbc7dfdeb	-0.015502433
237	0xb46ffa42	-2.2349653e-07
238	0x3ca21c09	0.019788759
239	0x3bf8d1f3	0.0075933873
240	0xbd0e55a0	-0.034749627
241	0x3697e2b1	4.526541e-06
242	0x3c9fafe5	0.019493053
243	0x3c47a9a1	0.012186439
244	0x3d334f02	0.04377652
245	0xbd4eaba0	-0.050456643
246	0xbcf16ade	-0.029469904
247	0x3cd3cfd9	0.025855945
248	0x3657520f	3.208526e-06
249	0x3d4c2deb	0.04984848
250	0x3ca2216b	0.019791326
251	0x3d4ef579	0.05052707
252	0xb0fb34d4	-1.8277668e-09
253	0x33ec4205	1.1001615e-07
254	0xb4415144	-1.800409e-07
255	0xbc193e46	-0.009353226

bias f4 [10]
0	0xba9721ef	-0.0011530499
1	0x396d264b	0.00022616347
2	0xbc8f18d7	-0.0174679
3	0xbb6910ef	-0.0035563072
4	0x3ac17d03	0.0014761988
5	0x3c62d65c	0.013845053
6	0x3c8480f4	0.01617477
7	0xbc648a32	-0.013948964
8	0xbc49acdf	-0.012309282
9	0xbce6f65c	-0.028193645

weight f4 [10]
0	0x3f7fb8b0	0.99891186
1	0x3f7da7fe	0.9908446
2	0x3f810507	1.0079659
3	0x3f80a82b	1.0051321
4	0x3f8000bd	1.0000225
5	0x3f7ec89b	0.9952485
6	0x3f809ca9	1.0047809
7	0x3f7dfd1a	0.9921433
8	0x3f7fdb73	0.9994423
9	0x3f8157e7	1.0104951

bias f4 [10]
0	0xbb63f07b	-0.0034780789
1	0x3c0c467c	0.008561727
2	0xbbec5cce	-0.0072132116
3	0xbaa6ff23	-0.0012740832
4	0x3a574f26	0.0008213393
5	0x3ad29ba9	0.0016068119
6	0xbc19fb01	-0.009398223
7	0x3ba81b7f	0.005130231
8	0x3ba06462	0.004894779
9	0xbbb466d6	-0.005505423

weight f4 [10]
0	0x3f7fef84	0.99974847
1	0x3f7e8cbf	0.9943351
2	0x3f813880	1.0095367
3	0x3f7f6903	0.9976961
4	0x3f7f44d6	0.9971441
5	0x3f7d0062	0.9882871
6	0x3f813a7d	1.0095974
7	0x3f7de0c3	0.99171084
8	0x3f7f8db2	0.99825585
9	0x3f81b54b	1.0133451

bias f4 [10]
0	0xbb3df579	-0.0028985424
1	0x3bf8903b	0.007585553
2	0xbc192cb4	-0.009349037
3	0xbb148e92	-0.0022667986
4	0xb9ebe0ba	-0.00044990127
5	0xbae9a31e	-0.0017825102
6	0xbc35fd04	-0.011107687
7	0x3ba9aa1f	0.0051777507
8	0x3b7892c4	0.0037929276
9	0xbc0066a8	-0.007836975

in_proj_weight f4 [30, 10]
0	0xbe8a35b1	-0.26994088
1	0xbdcb0179	-0.0991239
2	0xbe3c8131	-0.18408658
3	0x3c7693b1	0.015049861
4	0xbdec50f6	-0.115388796
5	0xbca05cea	-0.019575555
6	0xbc651653	-0.013982373
7	0x3e53ca20	0.20682573
8	0xbe1f790f	-0.15573524
9	0xbd971489	-0.07376964
10	0xbcf9b0f4	-0.030479886
11	0xbc70284c	-0.014658045
12	0x3e29c91b	0.16580622
13	0x3e8726c6	0.2639677
14	0xbd8132c8	-0.06308514
15	0x3de488d9	0.11158914
16	0x3d082267	0.033235934
17	0x3c9a2b23	0.018819397
18	0xb426104a	-1.546588e-07
19	0xbdd573c2	-0.1042247
20	0x3c99ce01	0.018774988
21	0x3e3294e6	0.17439613
22	0xb4cd79ea	-3.827293e-07
23	0xbce2f07b	-0.02770256
24	0x3e2f4d90	0.17119431
25	0x3c9066ca	0.017627139
26	0x3e6c58f8	0.23080814
27	0x3e05c43e	0.13063142
28	0x3e85e4b3	0.26151046
29	0xbdb8541a	-0.09000416
30	0xbe303e42	-0.1721125
31	0x3e8fbf5c	0.28075683
32	0xbe51a63a	-0.20473567
33	0xb4a52c2e	-3.076579e-07
34	0x350bf6c8	5.214065e-07
35	0xbbb7bc4f	-0.005607165
36	0xbe7ecf36	-0.24883732
37	0x3cb3f337	0.02196656
38	0x39f0a62a	0.0004590017
39	0x3e1478eb	0.14499252
40	0xbd6e7898	-0.058220476
41	0xbe03d1c1	-0.12872984
42	0x3a565460	0.0008176025
43	0xba3033c2	-0.00067215797
44	0x3e47b685	0.1950322
45	0xbdccbb23	-0.09996631
46	0xbd59b253	-0.05314858
47	0x3e1e16a7	0.15438329
48	0xbdb74124	-0.089479715
49	0x3ae121c4	0.0017176201
50	0x3e29cbe2	0.16581681
51	0x3df8889b	0.121354304
52	0xbcd81b85	-0.02638031
53	0x3e7e9b61	0.2486396
54	0x3e485481	0.19563486
55	0xb6380195	-2.7419057e-06
56	0x3e6de140	0.23230457
57	0xbe5df085	-0.21673782
58	0x3e2d232c	0.16907948
59	0xbe8673a9	-0.26260117
60	0xba1ec676	-0.00060567947
61	0x3e69f4ca	0.22847286
62	0xbc9e755b	-0.019343069
63	0x3e8d8cf8	0.27646613
64	0xbe7d36e3	-0.24727969
65	0x3b6a5cf5	0.0035760973
66	0xbd2bdcf5	-0.041958768
67	0x32f3e6d4	2.8393892e-08
68	0xb983613e	-0.00025058718
69	0xbca1ba76	-0.019742232
70	0x3d5d45a3	0.05402149
71	0x3d8e6c7a	0.06954284
72	0x3e19806a	0.14990392
73	0x3e4ea399	0.20179595
74	0x3e01ba97	0.12668835
75	0x36bfdf8a	5.718267e-06
76	0x3c9cc771	0.01913807
77	0x3b85d26c	0.004083922
78	0xbe3f0bcb	-0.18656842
79	0x3d104c9a	0.035229303
80	0x3e868cd1	0.2627931
81	0x3e3e6cfb	0.1859626
82	0x3e005cb4	0.12535363
83	0xbd5deeef	-0.054182943
84	0x3e00543c	0.12532133
85	0xbd05870d	-0.032599498
86	0xbe3ee506	-0.18642053
87	0x3e1b28ba	0.15152255
88	0x3e5b6139	0.21423806
89	0xbe352345	-0.17689236
90	0x3cce72fe	0.025201317
91	0xbe23537d	-0.15949817
92	0x3c5cd625	0.01347879
93	0x3d27927d	0.040911186
94	0x3e4ec385	0.20191772
95	0xbdcd97bb	-0.10038706
96	0xbe83d0c8	-0.25745225
97	0x3e84693b	0.25861534
98	0x33811853	6.011455e-08
99	0xbe6e0ca6	-0.23247012
100	0x3e7f1388	0.24909794
101	0xb3a61415	-7.73363e-08
102	0xbe5ba9da	-0.21451512
103	0xb6964824	-4.4787466e-06
104	0x3e06a30f	0.1314814
105	0x3d90708f	0.07052719
106	0xb8e778cf	-0.00011037441
107	0x390401e2	0.00012589202
108	0xbe827c09	-0.25485256
109	0xbe6409ef	-0.22269414
110	0xbe2fec36	-0.17179951
111	0xbd951666	-0.07279663
112	0x3d088eb3	0.033339214
113	0x3e879d04	0.2648698
114	0x3e251f2c	0.16125172
115	0x3bc5216e	0.006015948
116	0x3e146fbd	0.1449575
117	0xbc56da30	-0.013113543
118	0x3df3180d	0.11869822
119	0xbccce190	-0.0250099
120	0xbe358626	-0.17726955
121	0xbcf93239	-0.030419456
122	0xbd4bc54d	-0.049748708
123	0xbe1bdfd3	-0.15222101
124	0xbe415ccf	-0.1888306
125	0x3e14a21a	0.14514962
126	0x3e28ad26	0.16472301
127	0xbd91ed09	-0.07125289
128	0xbbdcf61d	-0.006743206
129	0xbce6e100	-0.02818346
130	0x3e6bcf07	0.23028193
131	0x3e48e6aa	0.19619241
132	0x3c944d8f	0.01810339
133	0xbe2264da	-0.15858784
134	0x3e8c74ad	0.27432767
135	0xbdda8e72	-0.106717005
136	0x3be43081	0.00696379
137	0xbade53bb	-0.001696221
138	0x3b67db66	0.0035378574
139	0xb6725219	-3.6108597e-06
140	0xba9e39c7	-0.0012071662
141	0xbdabe8c0	-0.08394003
142	0xbdbc246a	-0.09186633
143	0xbc8f8fb6	-0.017524581
144	0xbe54b990	-0.20773911
145	0xbdb6943e	-0.08914994
146	0xbdd159d4	-0.102222115
147	0x3e50bbcd	0.2038414
148	0xbe73b3b7	-0.23799025
149	0xbe8be645	-0.2732412
150	0xbe7e8a7c	-0.24857515
151	0xbd2e41ea	-0.04254333
152	0xbc157936	-0.009123137
153	0x3d223dd2	0.039609738
154	0xbd939bc2	-0.07207443
155	0xbdd5707a	-0.10421844
156	0x381cccee	3.7384154e-05
157	0xbc2bbb6a	-0.010481695
158	0xbbb09270	-0.0053885505
159	0x3c777f91	0.015106098
160	0xbe2f425a	-0.17115155
161	0xbe2b29b8	-0.16715133
162	0x3d8fb825	0.07017545
163	0x3e060521	0.13087894
164	0x3ca7bd5a	0.020476032
165	0x3e8687d3	0.262755
166	0xbbc08a6b	-0.0058758757
167	0x3d097568	0.033559233
168	0x3e25b66d	0.16182871
169	0x3e22a2c0	0.15882397
170	0x3d7636e6	0.06011095
171	0xbe2e87b4	-0.17043954
172	0x3e582d77	0.21111093
173	0x3be379f9	0.0069420305
174	0x3d68ed51	0.056866948
175	0xbe557644	-0.20845896
176	0x3e37931d	0.17927213
177	0x3decaf6b	0.11556896
178	0x3e4bf43a	0.19917384
179	0xbe055d68	-0.13023913
180	0xbdbb9fdc	-0.0916135
181	0xbdd73390	-0.10507882
182	0xb7a79824	-1.9978797e-05
183	0x3e0efa73	0.13962726
184	0xbcecf9f5	-0.028927783
185	0x3e48a8c4	0.19595629
186	0x3be6c6bb	0.0070427335
187	0x3ddf70c8	0.10910183
188	0x3e851483	0.25992212
189	0xbd815c5e	-0.06316446
190	0xba393333	-0.0007064819
191	0x3daddc50	0.08489287
192	0x3e5e3f3e	0.21703812
193	0xbe4f82c5	-0.20264728
194	0x3deb2fe5	0.114837445
195	0x3e4204c7	0.18947135
196	0x3e34eb9b	0.17668001
197	0xb734f16b	-1.0785046e-05
198	0x3df87ddc	0.12133381
199	0x33a684c8	7.75413e-08
200	0x3eb8dbe6	0.3610527
201	0x3e42729f	0.18989037
202	0xbe88d58c	-0.26725423
203	0xbec8e28e	-0.39235348
204	0x3d494e6c	0.049147055
205	0xbdfe7fcf	-0.12426721
206	0x3d28b197	0.041184988
207	0xbd54370d	-0.051810313
208	0x3d5e60ab	0.05429141
209	0xba22a1d8	-0.0006203926
210	0xbe49b799	-0.19698943
211	0x3e70aaf2	0.2350271
212	0x3df940d8	0.12170571
213	0x3e2f2efb	0.17107765
214	0x3e414033	0.18872146
215	0x3e9a9470	0.30191374
216	0xbe7104af	-0.23536943
217	0xbec5e5c5	-0.38651863
218	0x3bf5fce0	0.0075069517
219	0xbe2ad452	-0.16682556
220	0xbcdb1e72	-0.026747916
221	0x3dffee55	0.1249663
222	0x3e8fc067	0.2807648
223	0xbdffef6f	-0.1249684
224	0x3daeb7e7	0.0853117
225	0xbe073edf	-0.13207577
226	0x3ec382cd	0.3818573
227	0x3ebe6603	0.37187204
228	0xbe85a236	-0.2610032
229	0x3ea3479f	0.3189058
230	0x3d9ee212	0.07757963
231	0xbe7f761c	-0.24947399
232	0xbe4e936d	-0.20173426
233	0xbd5c8485	-0.053837318
234	0xbe3ae4e7	-0.18251382
235	0xbe123302	-0.1427727
236	0x3cf297bf	0.029613374
237	0x3ca25b20	0.019818842
238	0xbe8838d5	-0.2660586
239	0xbe88f039	-0.26745775
240	0x3cb11d05	0.021620283
241	0xbeb39373	-0.35073432
242	0x3e8f4254	0.27980292
243	0xbebcbce7	-0.3686287
244	0xbe221353	-0.15827684
245	0xbddf7b7f	-0.10912227
246	0x3ea7af79	0.32751063
247	0x3e74dd4d	0.23912545
248	0xbe3a56c5	-0.18197162
249	0x3ca4f8d5	0.020138184
250	0x3e979ec9	0.2961333
251	0xbe900e69	-0.28135994
252	0x3b855cc8	0.0040698983
253	0x3e294d8a	0.16533485
254	0x3ebf7c7c	0.37399662
255	0xbea58d49	-0.32334355

in_proj_bias f4 [30]
0	0x00000000	0.0
1	0x00000000	0.0
2	0x00000000	0.0
3	0x00000000	0.0
4	0x00000000	0.0
5	0x00000000	0.0
6	0x00000000	0.0
7	0x00000000	0.0
8	0x00000000	0.0
9	0x00000000	0.0
10	0x00000000	0.0
11	0x00000000	0.0
12	0x00000000	0.0
13	0x00000000	0.0
14	0x00000000	0.0
15	0x00000000	0.0
16	0x00000000	0.0
17	0x00000000	0.0
18	0x00000000	0.0
19	0x00000000	0.0
20	0x3c64ad44	0.013957325
21	0x3bba45ba	0.0056845816
22	0xbb2eb988	-0.0026660878
23	0x3c1be1a7	0.009514249
24	0xbb22dba5	-0.0024850157
25	0xbbb2506f	-0.0054417173
26	0x3b5fe692	0.003416453
27	0xbba048f8	-0.004891511
28	0x3c9257b2	0.017864082
29	0xbadc4181	-0.001680419

weight f4 [10, 10]
0	0xbf03e59e	-0.51522243
1	0xbe2e44ad	-0.17018385
2	0xbc8493a0	-0.016183674
3	0xbefd1844	-0.49432576
4	0xb9d2ea1f	-0.00040228755
5	0x3e831f06	0.25609607
6	0x3ea27d26	0.31736106
7	0x3ebddce6	0.37082595
8	0xbdf8541f	-0.1212542
9	0x3cd06c0a	0.025442142
10	0x3ee56fb7	0.44811794
11	0xbe2bbe4c	-0.16771811
12	0xbec07c32	-0.37594754
13	0xbcb63181	-0.022240402
14	0x3b93d93a	0.0045119794
15	0x3ea3abf4	0.31967127
16	0x39c2ec06	0.00037178415
17	0xbd8e9f8c	-0.06964025
18	0x3ef56359	0.4792736
19	0xbe29a004	-0.16564947
20	0xbf0aa00f	-0.5415048
21	0x3e071ab9	0.13193788
22	0x3e592157	0.21204124
23	0xbe0e1c27	-0.13877927
24	0x3ec35749	0.3815253
25	0x3ecfaaee	0.40560097
26	0xbe386876	-0.18008599
27	0x3ef6a363	0.4817153
28	0xbdaa2014	-0.083069
29	0x3e301087	0.17193805
30	0x3d984833	0.07435646
31	0x3e9cbd8c	0.30613363
32	0xbe954caf	-0.29160067
33	0x3e9f0365	0.31057277
34	0x3ca2f5db	0.019892624
35	0x3d462c02	0.048381813
36	0xbe7d40a8	-0.24731696
37	0x3eba95ae	0.36442322
38	0x3e048309	0.12940611
39	0x3ed470ab	0.4149221
40	0x3ea2c01b	0.3178719
41	0xbe8921f6	-0.26783723
42	0xbe0ebdb3	-0.13939552
43	0x3ef71dfd	0.48265067
44	0x3ec0da11	0.3766637
45	0x3f0ad5f6	0.5423273
46	0x3cb23410	0.021753341
47	0xbed2ac3e	-0.41147035
48	0x3e8a2e67	0.26988527
49	0x3e3c6e21	0.18401386
50	0xbecc57c9	-0.39910725
51	0xbe565f31	-0.2093475
52	0x3da087b5	0.07838384
53	0x3ede69fa	0.4344023
54	0xbecde9a5	-0.4021732
55	0xbef4c428	-0.47805905
56	0x3dd8024c	0.10547313
57	0xbecab2fd	-0.39589682
58	0x3e9c7dcb	0.30564722
59	0x3e9f464f	0.3110833
60	0x3e1755a9	0.1477877
61	0xbea4ea35	-0.32209936
62	0xbe904dc4	-0.2818433
63	0xbf04583b	-0.5169713
64	0x3ee5e9d1	0.4490495
65	0x3e32aba6	0.17448291
66	0xbec6a833	-0.388002
67	0xbd4119ab	-0.04714362
68	0xbdb1751a	-0.086649135
69	0xbe6b2a72	-0.2296541
70	0xbef0fcb8	-0.4706781
71	0xbeea845c	-0.45804107
72	0xbe285d3d	-0.16441818
73	0x3ed97007	0.42468283
74	0x3e80a6a5	0.2512714
75	0xbe9d57da	-0.30731088
76	0xbe09b0df	-0.13446377
77	0x3e83aa7d	0.2571601
78	0x3d9110d0	0.07083285
79	0xbe58fee7	-0.21190988
80	0x3dcc5c98	0.09978598
81	0x3d84f34a	0.06491716
82	0x3ebe2135	0.3713471
83	0xbef35037	-0.47522137
84	0xbe8c1bf6	-0.27365083
85	0xbe8d5549	-0.2760413
86	0x3e4ecfce	0.20196459
87	0xbbfe7899	-0.007765841
88	0xbd96fa90	-0.0737201
89	0xbe7de0e0	-0.24792814
90	0xbe133edf	-0.14379452
91	0xbefbd6ee	-0.49187416
92	0x3f014295	0.5049222
93	0x3ee4004b	0.44531474
94	0xbe63ba5d	-0.2223906
95	0x3e9e529b	0.30922398
96	0xbebb4d16	-0.3658225
97	0xbf0028fb	-0.5006253
98	0xbdeb7754	-0.114973694
99	0x3f00a80c	0.5025642

bias f4 [10]
0	0xbc20409c	-0.009781029
1	0x3c38c20f	0.011276736
2	0xbbc21b7b	-0.005923686
3	0x3c27414d	0.01020844
4	0x3bdb310c	0.0066891965
5	0x3ab66c64	0.0013917801
6	0xbc16a0da	-0.009193623
7	0x3b8147d7	0.0039453316
8	0x3c2b4f27	0.010455883
9	0xbbce8717	-0.006302725

weight f4 [2048, 10]
0	0x3a14ddc2	0.00056787964
1	0x3229c6bb	9.882281e-09
2	0xb9a8229b	-0.0003206924
3	0xb30954d9	-3.1974967e-08
4	0x329dfde8	1.8392669e-08
5	0xb2f8d4a5	-2.89677e-08
6	0x350ab569	5.167299e-07
7	0x34a37edf	3.0453427e-07
8	0xba165c9b	-0.0005735845
9	0xb2024c5f	-7.584361e-09
10	0x31b59e50	5.2857914e-09
11	0x34a095cf	2.9911322e-07
12	0xb6e11b4e	-6.708701e-06
13	0x3a3fdb15	0.00073187175
14	0xb39b8cca	-7.243359e-08
15	0xb56532f6	-8.5383306e-07
16	0xb6bdb369	-5.653525e-06
17	0xb2bf5613	-2.2274468e-08
18	0xb3538780	-4.9250502e-08
19	0x388e3cd1	6.7824156e-05
20	0xbcdcad50	-0.02693811
21	0xbbb36373	-0.0054745018
22	0xbd6ea026	-0.0582582
23	0xbd7435a7	-0.05962148
24	0xbc4aa189	-0.012367615
25	0x3ca06e7d	0.019583935
26	0x3cb9903f	0.02265179
27	0xbb17e18a	-0.0023175203
28	0xbc0a41cc	-0.008438539
29	0x3d02d9b5	0.031945903
30	0xbd507d54	-0.050900772
31	0x3cba6fcb	0.022758385
32	0xbd041ff0	-0.03225702
33	0xbcddbf62	-0.027068797
34	0xbd3b96d9	-0.045798156
35	0xbd2ea3fc	-0.042636856
36	0xbbd973e3	-0.006636129
37	0x3d0e6753	0.034766506
38	0x3bf8a05d	0.007587476
39	0x3c37e392	0.011223691
40	0xbd6395fa	-0.05556295
41	0xbd2a52bd	-0.04158281
42	0xbd396248	-0.045259744
43	0xbd2c5c47	-0.04208019
44	0x3c8850e9	0.016640143
45	0x3c50f2c4	0.012753192
46	0xbd52c7d6	-0.05146011
47	0x3c9b3608	0.018946663
48	0x3ce572c6	0.02800883
49	0x3b22ea23	0.0024858795
50	0xbcdd4efa	-0.027015198
51	0x3d59b997	0.053155508
52	0x3b2abdd5	0.002605309
53	0x3d03d1d9	0.03218255
54	0x3cc1c48f	0.023653297
55	0x3cbf7870	0.023372859
56	0xbbbb5cc6	-0.0057178466
57	0x3cae4ec4	0.021277793
58	0x3d47dd47	0.04879501
59	0xbce8a5df	-0.028399406
60	0x3d6df595	0.058095533
61	0x3bcb82c0	0.006210655
62	0x3c8ff8cd	0.017574692
63	0x3b5a09c2	0.0033269976
64	0x3cc856eb	0.024455508
65	0xbc53d6a0	-0.012929589
66	0x3b38ab34	0.0028178217
67	0xbbd20bc1	-0.0064100926
68	0xbd3fa753	-0.046790432
69	0xbd092b47	-0.033488538
70	0xbd011f3f	-0.03152394
71	0xbccde877	-0.025135262
72	0x3c5a25b1	0.01331465
73	0x3caf8ae7	0.021428538
74	0x3cc79c06	0.02436639
75	0xbd46606d	-0.048431803
76	0x3d374cce	0.04475098
77	0x3bc353dd	0.005960925
78	0x3c9a2a94	0.018819131
79	0xbd50ed05	-0.05100729
80	0x3a01f282	0.0004957096
81	0xbcdfcf11	-0.027320417
82	0xbb0e2409	-0.002168896
83	0x3d541517	0.051777925
84	0xbd3d7a19	-0.04625902
85	0xbb732daa	-0.0037106075
86	0x3ca715d4	0.02039615
87	0x3d1700ae	0.036865883
88	0x3c06324b	0.008190702
89	0xbaa5b955	-0.0012643734
90	0xbd1683d7	-0.036746826
91	0xbab98252	-0.0014153218
92	0x3d04da28	0.032434613
93	0x3d38ae44	0.045088068
94	0x3cdcc522	0.026949469
95	0x3ceb99e9	0.028759914
96	0x3d6cc8f3	0.057808828
97	0xbd3292ba	-0.04359696
98	0x3b1b0a49	0.0023657253
99	0x3b447611	0.00299776
100	0x3d2c803b	0.042114478
101	0xbc12c180	-0.008957267
102	0x3aa5076f	0.0012590716
103	0x3d0cea2c	0.03440301
104	0x3d25b58b	0.040456336
105	0x3d274343	0.04083563
106	0xbd55d702	-0.052207
107	0xbcb93e5a	-0.02261274
108	0x3d518d97	0.05116042
109	0xbd55b654	-0.052175835
110	0x3bed55a2	0.0072428742
111	0x3d0ff15a	0.03514228
112	0xbcb59c26	-0.022169184
113	0x3c5d349e	0.013501314
114	0xbc082407	-0.008309371
115	0xbd33c961	-0.04389322
116	0xbd0cb436	-0.03435155
117	0x3c7bb275	0.015362372
118	0xbcd316cd	-0.025767708
119	0xbce97e9f	-0.02850276
120	0xb3f757f7	-1.15178345e-07
121	0x32978227	1.76379e-08
122	0x36025574	1.942125e-06
123	0x36b93133	5.519157e-06
124	0x36a11a56	4.80124e-06
125	0x2fa25520	2.9528113e-10
126	0x3867eab9	5.5293294e-05
127	0xb54cdab0	-7.6314154e-07
128	0x35931c97	1.0960674e-06
129	0x3683eed7	3.931909e-06
130	0xba852814	-0.0010159039
131	0xbd2f3f8a	-0.042785205
132	0xbd3f1ec0	-0.046660185
133	0x3cad904b	0.021186968
134	0xbbf379bd	-0.007430284
135	0x3bf09ec5	0.0073431456
136	0x3b1c386f	0.0023837348
137	0xba7ae437	-0.000957075
138	0x3cf5a63a	0.02998649
139	0xbcd2aeb1	-0.025718065
140	0x3cdb13cb	0.026742836
141	0x3d3a5512	0.045491286
142	0xbc0fb258	-0.008770548
143	0xbb5da6a4	-0.003382125
144	0xbd81ae82	-0.06332113
145	0x3d1a7bc9	0.037715707
146	0xbd0de6ab	-0.03464381
147	0x3cbb5e85	0.022872219
148	0x3b86266c	0.0040939357
149	0xbc9f78fa	-0.019466866
150	0x3a4b2046	0.00077486446
151	0x359df737	1.176936e-06
152	0xb7767dc9	-1.4692029e-05
153	0x340512ff	1.2393501e-07
154	0xb4d67087	-3.994248e-07
155	0x36b21ba7	5.3080325e-06
156	0x35ad200b	1.289883e-06
157	0xba74d489	-0.00093395315
158	0x350b9ada	5.2006874e-07
159	0xb4bcde77	-3.5179593e-07
160	0x3d6a5177	0.057206597
161	0xbbfd1bcd	-0.0077242614
162	0xbc9f0c87	-0.019415153
163	0xbd09aa1d	-0.0336095
164	0x3c8e037d	0.017335648
165	0xbbbc006f	-0.0057373564
166	0x3cd33fc8	0.02578725
167	0x3d26a18f	0.040681418
168	0x3d0d7a0d	0.034540225
169	0x3d1dcdf0	0.038526475
170	0xb3ac65fd	-8.027926e-08
171	0xb9cc1b5c	-0.00038930296
172	0x3495b022	2.7881566e-07
173	0x35726fc9	9.0314694e-07
174	0x36ae2ba8	5.1906864e-06
175	0x320d1022	8.210948e-09
176	0x33e03dca	1.0442052e-07
177	0x350e54f8	5.302277e-07
178	0xb9315540	-0.00016911794
179	0xb44ccae7	-1.9072796e-07
180	0x3d31d1c6	0.043412946
181	0xbc344bd0	-0.011004403
182	0xbcaed855	-0.02134339
183	0xbd257876	-0.040398084
184	0x3c016f2f	0.007900043
185	0xbd251d0d	-0.040310908
186	0x3b318fdf	0.002709381
187	0xbbdf4501	-0.006813646
188	0x3c3ca300	0.011513472
189	0x3b8b9a37	0.004260327
190	0xbcac5947	-0.021038665
191	0xbcfd1bb6	-0.030897003
192	0x3c6c3790	0.014417544
193	0xbd116ecf	-0.035506066
194	0xbd4d6218	-0.050142378
195	0x3c45d750	0.01207526
196	0x3bfafc25	0.0076594525
197	0xbc7a8e01	-0.015292645
198	0x3c9cebe4	0.01915545
199	0xbc8574ea	-0.0162911
200	0xbcff2024	-0.031143256
201	0xbd33c8dd	-0.04389273
202	0x3d5ed410	0.054401457
203	0xbc66a0be	-0.01407641
204	0x3ccb897d	0.024845833
205	0x3cb4b223	0.022057598
206	0xbd61de92	-0.0551439
207	0x3cdf418e	0.027252939
208	0xbd3a7a08	-0.045526534
209	0xbd558835	-0.05213185
210	0x3c8aecce	0.01695862
211	0xbd23d7a7	-0.040000584
212	0x3d6670a6	0.056259774
213	0xbb76158e	-0.0037549469
214	0xbc9b5684	-0.018962152
215	0xbcd79c2f	-0.026319591
216	0xbd6314b5	-0.05543967
217	0xbd1a6d31	-0.03770179
218	0xbcb54573	-0.022127843
219	0xbd60c332	-0.054873653
220	0xbcb23528	-0.021753863
221	0x3bf3a81c	0.0074358117
222	0xbcc087df	-0.023502288
223	0x3d02b62b	0.03191201
224	0xbc4a1f6f	-0.012336596
225	0x3ccc3850	0.024929196
226	0x3d365ae7	0.044520285
227	0x3d336594	0.043798044
228	0x3c828c93	0.015936172
229	0x3d2ddc34	0.04244633
230	0x3cc32317	0.023820443
231	0xbd807b36	-0.062735006
232	0xbce90267	-0.028443528
233	0xbd14ccaf	-0.036328014
234	0x3b53d064	0.0032320255
235	0x3cbba8f7	0.022907717
236	0xbbc061b5	-0.0058710226
237	0x3d570bc7	0.052501466
238	0x3d0f3b40	0.034968615
239	0x3c6efdb8	0.014586858
240	0xbbefb984	-0.0073158164
241	0xbd53e2a8	-0.051729828
242	0xbd3eddfd	-0.046598423
243	0xbc68ab14	-0.014200944
244	0x3b592f27	0.0033139677
245	0xbcc541d4	-0.02407924
246	0xbd1282ad	-0.035769153
247	0xbcc164e9	-0.023607688
248	0x3ceebd05	0.029142866
249	0xbd2f925e	-0.042864196
250	0xbcb2c334	-0.021821596
251	0x3d567690	0.052359164
252	0xbc769648	-0.015050478
253	0xbd382b9a	-0.044963457
254	0xbd7277a6	-0.059196137
255	0xbd04d094	-0.032425478
