Comparative_Evaluation/Baselines/Transformer/models_u/model37.pt (torch, 732255 bytes, 66 tensors)

in_proj_weight f4 [30, 10]
00000000: cd33 983d a676 8f3d 1d1a 48b6 4133 f1bd
00000010: 91ac 3d3e 0514 033d cc7d bd3c 31e4 2c3a
00000020: c913 4f3e c7bf 263e c087 62b2 dd9f 3b3d
00000030: e032 e632 6d52 01be a51a d5b4 8db1 59be
00000040: d047 54b2 021f 183d f620 39be 9e58 4239
00000050: c2d0 15be 49df f83d 859f 52be 972f ea3c
00000060: 69fa b7bc 9836 32bb 1f7e 7ebd b664 323a
00000070: ceb4 7ebc c161 9dba 42f1 82bd e0c2 52be
00000080: 565e adbd b1ed 52be 12af 92bd 3cfd 3bbd
00000090: db3d c83d d493 13be 8f84 103e 3ed0 e83d
000000a0: 088a 603d a77f 07b7 8118 8d3d dcbd a63d
000000b0: b76c 5ebd d71d 393d dcc9 42be aa01 9dbd
000000c0: cb8c 813b b16c c03d ee01 4c3e d296 0b3d
000000d0: 3037 1c3e 88af b4bc bac5 783d 4553 16bd
000000e0: 1189 07bd 3cb6 43bd 9516 b836 b784 eeb4
000000f0: 60e5 25b6 3774 1f3b 85c3 6ebd df14 3a38
00000100: 92e2 e235 bb5a 12bd d83c e338 0f24 263d
00000110: 060c 1835 b987 16be 5838 5b3e cd4e 453e
00000120: 978b 183c 39e6 ad3c 50fe 23b6 1f20 cdbd
00000130: e3e0 0eb6 e866 493c d2d9 5cbe 1a1b 6a3d
00000140: 82bc df3c 9131 af3c e99d febd 4935 3cbe
00000150: be49 d33d 0207 d93c bc04 cb3d 171a 4c35
00000160: 43f0 16be 8cb4 3535 c378 9e3b c69a 583e
00000170: 9d40 8b3d d5ee 40bc 1c78 25be 932e 48bd
00000180: 642b a43d c95d 043d 9488 c33d 8ff1 583d
00000190: 838f 61bd 69a2 9c3d 58ce e23d 79d7 b2bd
000001a0: 055e 453e d1ce f5bd b75d 76b5 70ed f8b4
000001b0: e958 19bd 5878 ffbd 7eb6 cbb6 d7fb 09be
000001c0: 7edf 343e 0039 ae3d bcd0 223e 4614 a336
000001d0: 3f32 b435 6748 32bb caa6 c6b4 8952 c63b
000001e0: cd3d e2bd 2458 ed3d a19a 543d 4e43 58be
000001f0: 4524 0fbb 75fe 82bd 8af1 5dbe d474 8fbd
00000200: 37e7 853d 7450 7d3b 769f adbc 38f3 e93b
00000210: a1d8 d4bb 088d a8b4 b078 fab4 6999 ebbb
00000220: 6013 363e ac53 9a36 6a90 3f3d 3c3c 943d
00000230: cdc3 0b3b 3c76 27be 2cd7 473e 708d b03d
00000240: d789 d8b7 a4f4 e5bd b80f d9b9 86c7 273d
00000250: cb32 c4bd 3ea0 4dbd 2c17 12bc 73a6 5bbd
00000260: aca5 d9bb 0c20 02be 2431 55be 50f6 a3bc
00000270: b825 09bb fb4d 1bbd ac41 51be f8ce 533e
00000280: 1324 d6bd c5cb 1cb6 7880 183e 094f 0bb7
00000290: 0a87 ba3b 7d77 9abd 9f90 933d f886 ffbd
000002a0: a285 17be e31e 1c3e 65a3 d33c 52f9 3b3d
000002b0: a0b6 46bd a296 743d 3da2 0dbc b56e 3b3e
000002c0: 57b7 4ab5 5add 58be 824d a4bd 4a9e 223e
000002d0: d61e 1cbe e105 ccb6 707f 2236 2d33 82ba
000002e0: 70c1 533c 9ab8 e7b5 e927 9939 8614 58be
000002f0: 6603 97b5 9278 79bd 5d17 083e 511e 16be
00000300: 26c8 523e d53e 48be bf55 f237 caf9 a3bc
00000310: bb88 c1bd 78b1 49bd 7cc5 fb36 3ec9 f73d
00000320: c04d 0936 5513 dfbc 45aa c9bd 833c 01be
00000330: bc7c 5934 bb8d 563e 0a54 c935 acb7 103d
00000340: cdac 60bb 927c 5bb5 2805 85bd da90 2fbe
00000350: 124d ca3d c78f 203e cf50 5f3d 6517 e3bd
00000360: 93c7 ec3c aefe 1a3e 95b5 45be c7bd 0dbe
00000370: e863 fdbc 05d6 763c c534 103e b644 3d3d
00000380: d633 eeb4 89e5 c037 4dca 4a35 dd4d 413e
00000390: 7e5b 93b5 03a9 82bc c3ff 05bd 566d c3b3
000003a0: 1c18 2c3e 772c 80b6 43f6 f6bd 7e36 7337
000003b0: 710e a23d c860 e3bd 0c6b a03d 3d5d f537
000003c0: eaef 35be 6ab3 a3bb 9646 5bbe ac68 f33d
000003d0: 9104 47be d43f 5d3e ff7d 2ebe f8dc 643d
000003e0: dfe7 2a3e 0e3f 2bb7 cd8c 45be e6a8 12bb
000003f0: 0e3d b43d 6add 303e 5f9c bd3d 248b 053c
0.07431755 0.07005052 -2.9817522e-06 -0.11777354 0.1852286 0.032001514 0.023131274 0.00065952825
0.20222391 0.16284095 -1.3185797e-08 0.045806754 2.679866e-08 -0.12629099 -3.9693728e-07 -0.21259136
-1.2356352e-08 0.037138946 -0.1807898 0.00018534294 -0.14630416 0.12151963 -0.20568664 0.028587146
-0.022458272 -0.0027193185 -0.062131997 0.0006805168 -0.015546037 -0.0012007282 -0.063936725 -0.20582151
-0.08465259 -0.20598485 -0.07162298 -0.0458958 0.09777423 -0.1441186 0.14113067 0.11367844
0.054819137 -8.076348e-06 0.068894394 0.081416816 -0.054302897 0.045194473 -0.19022316 -0.07666333
0.0039535514 0.09395731 0.19922611 0.03407938 0.15255427 -0.022056356 0.06073544 -0.036700506
-0.0330897 -0.047781214 5.486256e-06 -4.4427517e-07 -2.472043e-06 0.0024330744 -0.05829193 4.4365293e-05
1.6904253e-06 -0.03573106 0.000108355365 0.040561732 5.664191e-07 -0.14700212 0.21408212 0.19268341
0.009310625 0.021227943 -2.4436922e-06 -0.10015892 -2.129055e-06 0.012292601 -0.21567467 0.057154752
0.027311567 0.02138594 -0.12432463 -0.18379702 0.103167996 0.0264926 0.099130124 7.603389e-07
-0.1474009 6.7690485e-07 0.0048361733 0.21152791 0.067994334 -0.011775692 -0.161591 -0.04887254
0.080160886 0.032316003 0.095475346 0.052964743 -0.055068504 0.07648165 0.11074513 -0.087325044
0.19274147 -0.12002338 -9.1778514e-07 -4.6366358e-07 -0.037438307 -0.124741256 -6.0711163e-06 -0.13474976
0.1766338 0.08506966 0.15899938 4.8601387e-06 1.3425669e-06 -0.00272038 -3.700173e-07 0.0060523194
-0.11046944 0.11589077 0.051905278 -0.21119425 -0.0021841687 -0.0639619 -0.21674171 -0.07004705
0.06538241 0.003865269 -0.021194201 0.0071395896 -0.0064955507 -3.1395052e-07 -4.665394e-07 -0.007189919
0.17780828 4.5992983e-06 0.046768583 0.07238051 0.0021326423 -0.16353697 0.19515675 0.08620727
-2.5813393e-05 -0.11228302 -0.00041401177 0.040961765 -0.095800005 -0.050201647 -0.008916657 -0.053625535
-0.006642064 -0.12707537 -0.20819527 -0.020014912 -0.0020927023 -0.037916165 -0.20435208 0.20684421
-0.10456099 -2.336442e-06 0.14892757 -8.303447e-06 0.0056923674 -0.07542322 0.07205319 -0.12476915
-0.1479707 0.15246157 0.025834749 0.045892067 -0.04851401 0.059713967 -0.008644638 0.1830395
-7.551766e-07 -0.21178189 -0.08022596 0.15880695 -0.15246138 -6.080358e-06 2.421406e-06 -0.0009933464
0.012924537 -1.7264567e-06 0.0002921217 -0.21101579 -1.1251366e-06 -0.060906 0.13290162 -0.14660002
0.20584163 -0.19555219 2.8888577e-05 -0.02001657 -0.094499074 -0.049241513 7.503373e-06 0.12098931
2.0459847e-06 -0.027230898 -0.098469295 -0.1262074 2.0255078e-07 0.20952503 1.5000126e-06 0.035331413
-0.0034282685 -8.176513e-07 -0.06495124 -0.171451 0.09877981 0.15679847 0.054520424 -0.110884465
0.028903758 0.15136215 -0.1930755 -0.13841926 -0.030931428 0.015065675 0.1408263 0.046208106
-4.436867e-07 2.299507e-05 7.554525e-07 0.18877359 -1.0978981e-06 -0.015949732 -0.032714617 -9.100283e-08
0.16806072 -3.8198737e-06 -0.120586894 1.4496616e-05 0.07912911 -0.11102444 0.078329176 2.9249693e-05
-0.17767301 -0.004995753 -0.21413645 0.11885199 -0.19435336 0.2160638 -0.17040251 0.055874795
0.16690014 -1.0207075e-05 -0.19291992 -0.0022378503 0.08800708 0.17271963 0.09258341 0.0081508495

in_proj_bias f4 [30]
00000000: 0000 0000 0000 0000 0000 0000 0000 0000
00000010: 0000 0000 0000 0000 0000 0000 0000 0000
00000020: 0000 0000 0000 0000 0000 0000 0000 0000
00000030: 0000 0000 0000 0000 0000 0000 0000 0000
00000040: 0000 0000 0000 0000 0000 0000 0000 0000
00000050: 74f6 b23b fc15 643b 2c6f 12bc 1460 aa3b
00000060: 85f1 70bb a240 bc3b ede5 c5bb 4b30 763b
00000070: 2df7 9fbb a34f ad3b
0.0 0.0 0.0 0.0 0.0 0.0 0.0 0.0
0.0 0.0 0.0 0.0 0.0 0.0 0.0 0.0
0.0 0.0 0.0 0.0 0.0054615084 0.0034803143 -0.008937638 0.0051994417
-0.003676505 0.0057450095 -0.006039372 0.0037565406 -0.0048817606 0.0052890345

weight f4 [10, 10]
00000000: 3a3d c2be 1e58 db3e 0e63 a2be e6c0 c1be
00000010: 2f08 aabd e6ca 8bbe 2d8b 5a3e c21d 203e
00000020: c546 f93e 67cf 86be ab26 d23e 0463 e53e
00000030: 7bb1 ffbe 1202 c23e 9e15 df3d 1d9f 7dbe
00000040: 3ed2 55be 6038 e4be 1cf2 9dbe a76c e3be
00000050: d073 86bd 403b e33e 3271 0cbd 814c 06bf
00000060: 46dd ad3e abc9 edbc 4694 edbd ab7b d53d
00000070: 727f 003f 3f22 03be f2ee efbe cbc7 473e
00000080: d65a a9bd 78a0 0c3e 9525 903e 4ed2 c03e
00000090: d665 18be 6c82 9bbd 1113 83bd eb90 5ebe
000000a0: f03b 92be 32eb d4bb 5b27 59be 33ff 9f3e
000000b0: 80aa c3be 4d90 cc3b 3ec6 cb3e 30f6 ff3d
000000c0: b583 74be 8043 083f 5910 003f f685 cd3e
000000d0: 215a 593e c0bf d73e d05a c1bc 167f f53e
000000e0: cb5b bebe ea68 1e3e 5824 27be fc1d 3ebe
000000f0: 9e37 393e 3948 b3bc dd3b b9be 17f9 9a3e
00000100: e279 d7bd a229 0dbe db65 5a3e 8e26 88bd
00000110: 0e5a c23d 573f 9e3e 7d7a 7bbd f289 073c
00000120: 6a54 b2be 6c06 06bf 32ee b33d 2fa7 823e
00000130: fc9e a13c aa6a 21be 6c14 f3be ddfb 073f
00000140: 2c09 863e d4f8 04be c968 87be 1c83 8a3c
00000150: e4a8 9e3e 1f86 6dbe 8fbb cb3e c232 9b3e
00000160: d407 b13d 03e9 e53b f726 e43e 334e 033e
00000170: b85b 10bf c65c 30bd 1679 833b 2058 e93e
00000180: 655b 56bc 4a53 c13e 9fa7 073e f93e cb3e
-0.37937337 0.42840666 -0.31716198 -0.37842482 -0.08302342 -0.27303237 0.21342154 0.15636352
0.48686805 -0.2633011 0.41045126 0.44802105 -0.49940094 0.37892205 0.10892795 -0.24767728
-0.20880982 -0.4457426 -0.30848777 -0.44418833 -0.06565058 0.44381142 -0.03428764 -0.52460486
0.3395788 -0.029026827 -0.116005465 0.104239784 0.50194466 -0.12806033 -0.46861988 0.19509809
-0.08269279 0.13733089 0.28153673 0.3766045 -0.14882597 -0.075932354 -0.06400121 -0.2173497
-0.28561354 -0.006497764 -0.21206419 0.3124939 -0.3821602 0.006242788 0.39799684 0.124981284
-0.23878367 0.53227997 0.50024945 0.40141267 0.21225788 0.4213848 -0.023602873 0.4794852
-0.37179407 0.15469709 -0.16322458 -0.18566126 0.18087623 -0.021885024 -0.36178485 0.30268165
-0.10521294 -0.13785413 0.21327917 -0.06647979 0.09489833 0.309077 -0.06139611 0.008272635
-0.34830028 -0.5235355 0.087856665 0.25518176 0.01972913 -0.15763345 -0.47476518 0.5311869
0.26178873 -0.12985545 -0.26447132 0.016908221 0.30988228 -0.23195694 0.39791533 0.30312163
0.08644071 0.0070163026 0.44560978 0.128228 -0.5638995 -0.043057226 0.0040122373 0.45575047
-0.013083314 0.37758857 0.13247536 0.39696482

bias f4 [10]
00000000: 6b2e b6bb d8c8 1c3c 8320 9dbb 409c f33b
00000010: 6dcf d9bb 5dfc 873b 504a d6bb 78fd ebbb
00000020: cfbc d8bb 48e6 d23b
-0.0055597327 0.009569369 -0.0047951355 0.007434398 -0.0066470415 0.004149957 -0.0065396205 -0.0072018467
-0.0066143046 0.006436143

weight f4 [2048, 10]
00000000: 6c36 f73c ea11 6e3d f33c c2bc 5f42 29bc
00000010: fa05 d03c 6dc5 313d b494 bbbc 3e57 0dbd
00000020: a539 d5ba a653 adbb ad11 8ebd b490 033d
00000030: c3aa 533c c000 34bc 3ba1 5b3c 65ac 39bc
00000040: 594b 033c e6cb 22bd abb6 40bd 9a99 bd3c
00000050: 5ab1 e7b5 796d cc35 af84 6d35 d888 0737
00000060: 8f2a e134 cc93 8536 e697 0933 83b9 82b5
00000070: 97cd 32b6 4faa c3b3 4777 063d befc 5c3a
00000080: 52a2 73bc 1ff1 15bc b2f0 43bc 34c8 91bc
00000090: 8617 2abb 1a26 0f3d f36e 1d3d 9176 27bb
000000a0: 9b6e 003d da12 313c 8637 72bd 16e7 d53c
000000b0: 23ed d73c 9a9b 3a3d 3c67 f7bc 3c00 123c
000000c0: efd1 e13c 0890 043d dfa1 b534 df54 0236
000000d0: 00a1 7832 6c7c 0837 9df0 c7b6 2df7 24b6
000000e0: 3ca9 e4b3 9509 e7b5 e28f 1636 8401 6731
000000f0: 43d8 413d 586f 50bc 3a2f 083d 3420 223c
00000100: c664 c5bc 0b60 043c 999e 273d c532 20bc
00000110: 720c 04bd 37b1 883c 51dc 093c 3d2f 713d
00000120: 2e93 453c 8520 453d 4c6a c5bc e96f 07bd
00000130: 30e4 25bd 24be 9fbd cb95 c1bc a4eb 8d3d
00000140: 495f 57bc cb88 e03c 67c2 d83a 2d03 803d
00000150: 2d3d 7dbd 464a 873c bcf7 13bd 8dc8 a3bd
00000160: 8352 2abb 6c17 7b3d 1561 2c3d 4e51 843d
00000170: 6853 3fbd e744 2c3c f80d 88bd b83a 8f3c
00000180: d37d 48bc b8dd 15bc 8b3d 5f3c 1d27 863c
00000190: 09b2 4e3c 6a6e 8abd 3baf 3e3d 6099 903c
000001a0: f477 1ebc e9ab 01bd 2515 60bc 77f2 86bc
000001b0: 178b dabc 6b59 76bd aed3 423d 85b7 08bd
000001c0: 333c 573d 19b9 dbbc 5a90 a5bc 944c f53c
000001d0: 9ef6 e13b 85c3 3f3c d0ea babc 8632 bdbc
000001e0: 2fca 1cbd 058e 563d 2e41 57bc 5eba 143a
000001f0: 6c42 3c3a 2655 0e3d 7588 863c d1ab fb3b
00000200: dbcf 82bc 3f03 4b3d 95f9 ba35 aa56 1f35
00000210: 9979 0a35 ce0d de35 30a1 27b5 bc27 a932
00000220: a068 b135 4a9c d436 c792 6eb6 0d7c 22b6
00000230: b1ea 26bd 86ed 3ebd 35aa 213c 087d 12bd
00000240: aacb 25bd ceab 5cbd b9a0 17bd 2cd7 493d
00000250: 7c1c b2bc 9daf 803c b994 eb3b 56d5 083d
00000260: 5b2e 3a3d aa8b b8bc f551 b0bc d23f 18bc
00000270: 6ce5 0e3c 35cd 143d 3494 0fbd 1eab 42bc
00000280: cffd b13b a207 1fbd b12f 24bd b86b 203d
00000290: ba7b 2d3d 1a12 72bd 3c88 073d 7f37 acbc
000002a0: aca2 603b 98b3 81bc c3df 0a37 e848 1eb5
000002b0: 52f8 3b36 cdf2 3db4 0b5c 8035 e4e1 1cb5
000002c0: 8251 6a35 b84e 24b6 d11a 2636 203e d735
000002d0: d75b 8fbc a68e ee3c 575c 7e3d eea2 2cbd
000002e0: 6697 f1bb ec04 933c 1452 8a3c f57f 113d
000002f0: 1f0d 013d 208d 123d bfa2 3f3d ac18 b339
00000300: a440 c7bc 4569 8ebc e23b f53c c884 883c
00000310: 5ac4 bf3c c22b 0cbd fa7c 8fbc 93e2 a1bc
00000320: a39e 72bd 6f16 903d 6883 66bd 0378 5d3d
00000330: a8b2 83bb 12c9 4a3d a6bf 39bc fa1f 0e3b
00000340: bbac 97bc 4deb b2bc b7e9 0f36 658b 20b6
00000350: b502 e335 6d19 3d35 f16c 24b6 b056 02b6
00000360: 000a deb3 b016 7b32 431b 8635 f008 bbb4
00000370: 15ce 85b6 f210 06b6 64d5 3a34 55b3 9bb5
00000380: 8e30 4c35 dc38 d3b3 cf05 6bb6 2b2b bfb6
00000390: a644 2e34 740d 03b5 bb00 8db6 4afc 82b5
000003a0: c343 e5b5 6bbd 15b5 8ce1 7135 0eaa 46b5
000003b0: 360e 8035 12c3 2036 f29c f335 86d2 2a34
000003c0: 74a9 64bc 6b37 983c 3d5d 533b 0c72 143d
000003d0: fb80 9abc f792 85bc 54ba 953c 49e3 d23a
000003e0: 9303 d93b db4c 883c 38ec 7d34 7f2c 3234
000003f0: a817 7e35 74f3 7db5 5e0e 32b4 0fff 49b5
0.030177318 0.058122553 -0.023710703 -0.0103307655 0.025393475 0.04340117 -0.022898056 -0.03450703
-0.001626779 -0.0052895127 -0.06936965 0.03212042 0.012919131 -0.010986507 0.01340514 -0.011332606
0.00801357 -0.039745234 -0.047049206 0.023144532 -1.7262457e-06 1.5231045e-06 8.848246e-07 8.0784885e-06
4.194048e-07 3.9809147e-06 3.203595e-08 -9.739746e-07 -2.6643736e-06 -9.111374e-08 0.032828595 0.00084299955
-0.014870243 -0.009151726 -0.011959242 -0.01779566 -0.0025953962 0.034948446 0.038435888 -0.0025552849
0.03135548 0.010807717 -0.059134983 0.026111167 0.026358193 0.04555855 -0.030200593 0.008911189
0.027565924 0.03236392 3.3831654e-07 1.942091e-06 1.4472107e-08 8.135201e-06 -5.9586732e-06 -2.458178e-06
-1.0647861e-07 -1.721363e-06 2.2435493e-06 3.3615786e-09 0.047325384 -0.012721859 0.033248164 0.009895373
-0.024095904 0.008079539 0.040922735 -0.009777729 -0.03223843 0.016686065 0.008414344 0.05888294
0.012059016 0.048126716 -0.024098538 -0.03306571 -0.04050082 -0.07799938 -0.023630997 0.069297105
-0.013145276 0.027408978 0.0016537429 0.06250606 -0.06182592 0.016514909 -0.03612493 -0.079972364
-0.0025989122 0.061301634 0.042084772 0.0646082 -0.0467104 0.0105144745 -0.06643289 0.017484054
-0.01223703 -0.0091471 0.013625513 0.016376073 0.012615689 -0.06759341 0.04655383 0.01765126
-0.009672154 -0.031658087 -0.013676916 -0.016473038 -0.026677651 -0.06014387 0.047565155 -0.033378143
0.052547645 -0.02682166 -0.020210434 0.029943742 0.006895854 0.01170433 -0.022817045 -0.02309538
-0.038278755 0.052381534 -0.013138099 0.0005673523 0.00071815285 0.034749173 0.01642249 0.007680394
-0.015968254 0.049563643 1.3930718e-06 5.935823e-07 5.1585954e-07 1.6544307e-06 -6.2446907e-07 1.9692258e-08
1.3217978e-06 6.336287e-06 -3.55502e-06 -2.4212088e-06 -0.040751163 -0.04661324 0.009867241 -0.03576377
-0.040477432 -0.053874783 -0.03701851 0.04927747 -0.021742098 0.015708739 0.00718936 0.033406578
0.045454364 -0.022527535 -0.021523455 -0.00929256 0.008721691 0.036328513 -0.035053447 -0.011881618
0.0054318677 -0.03882564 -0.040084545 0.03916523 0.042354323 -0.059099294 0.033088908 -0.021022556
0.0034276647 -0.015832707 8.27754e-06 -5.896568e-07 2.8009713e-06 -1.7690327e-07 9.563531e-07 -5.844324e-07
8.72904e-07 -2.4483725e-06 2.4751537e-06 1.6036829e-06 -0.017499847 0.029120754 0.06209978 -0.04214757
-0.0073727844 0.017946683 0.016884841 0.03552242 0.031506654 0.03577912 0.046786066 0.00034159923
-0.024322815 -0.01738418 0.02993578 0.016664878 0.023409057 -0.03422142 -0.017515648 -0.01976136
-0.05923332 0.07035529 -0.056277663 0.05406953 -0.0040191 0.04950816 -0.011337196 0.002168654
-0.018514981 -0.021840716 2.14447e-06 -2.3922996e-06 1.6913606e-06 7.0444986e-07 -2.4501317e-06 -1.9421968e-06
-1.03394996e-07 1.4615281e-08 9.991712e-07 -3.4837967e-07 -3.9877e-06 -1.997742e-06 1.7400231e-07 -1.1600592e-06
7.606658e-07 -9.835796e-08 -3.502111e-06 -5.697269e-06 1.6229987e-07 -4.882088e-07 -4.2022125e-06 -9.75918e-07
-1.7081551e-06 -5.5782465e-07 9.010771e-07 -7.400821e-07 9.540879e-07 2.3955404e-06 1.8150588e-06 1.5909072e-07
-0.013956416 0.018581113 0.003225162 0.036241576 -0.01886033 -0.01630543 0.018277325 0.0016089465
0.0066227405 0.01663821 2.3648397e-07 1.659373e-07 9.46568e-07 -9.4604115e-07 -1.6582769e-07 -7.5249494e-07

bias f4 [2048]
00000000: 4714 c03d 0901 4f3a f536 08bd c105 a43d
00000010: 1b2b e4bc fa74 39bd ae29 c03d 035c 9e3e
00000020: 2060 6c3c 0e05 7e3e ab38 703e d251 d13d
00000030: 36a1 de3d 0fdf 61bd 4d63 7e3e 4b75 793e
00000040: 4a1f 003d adeb e3bd 5542 783e f191 6d3c
00000050: 33a3 123d bddc 07bd 16b9 8ab8 fba5 6fbd
00000060: 245b e9bd 24e6 6ebc 37f9 8bbd 1c3b 13bb
00000070: 0fe1 40bd e5d9 883e 562d 2cbd eaaf 473e
00000080: 2836 cf3d 6589 9e3c 9885 693e 64e7 533e
00000090: 80c3 39bb 9a7a 71bd 70b3 f2bd b7a9 a33c
000000a0: d378 00be eda0 8f3c 0f43 763d 87a3 4f3e
000000b0: d969 373e 1eca 50bd 7749 ef3d 9183 1abd
000000c0: 53ed 4dbd 5e5b 11bd 1c8f 553c b4ad acbc
000000d0: f2fa 28bc cb5d c3bb df2e c03d 8393 d53c
000000e0: 19f8 853d 51f4 a4bd f39e dcbc 4ab0 493e
000000f0: f334 0abd bb9f c73d 2d41 5c3e 0c24 7c3c
00000100: 4a42 d1bd 7b5a 94bd 7228 9fbd ae40 023e
00000110: 0cd9 9b3e 6285 53bb 1c2f f1bc 66ac 9b3e
00000120: d5c0 b6bd 4bc9 653d 1cbf 6c3e d421 91bd
00000130: ffe1 08bd 0419 09bc 94ab 993e 7256 333e
00000140: db16 fbbd 3e56 5d3e c216 d7bd 7986 4b3e
00000150: e077 5bbd 37f0 493e 7080 6d3e 2072 fbbd
00000160: 0a8b 7c3e 65ce c63c ed1e 11bc 31f5 843e
00000170: 1ba7 103c 9b4f dbbc ac38 28bd 3a19 ebbd
00000180: 572d adbd 138f 0fbd a41d f23d bfbf 673e
00000190: b562 9e3e 5d9a cbbc 7c9b ba3d 9741 0a3e
000001a0: 6201 ffbd 74db a5bd c1c2 08bc 238b d2bc
000001b0: b324 a4bd ddb3 d6bc ab48 893e 5188 a0bd
000001c0: aa86 3abc ab17 d5bd 6fbc a5bd 5096 893e
000001d0: c9ea 7d3d 372a 73bd f826 54bd 57ad 2d3e
000001e0: 88f4 e63d 6d50 823d 3dbb 8e3e 2930 3d3e
000001f0: a441 083e 6bcf ae3d a049 72bd b63a 55bd
00000200: 89d7 6e3d 83af 523e a54d 09bd c0f4 4c3d
00000210: d600 a03d c93d febd 45be 533e 6783 173e
00000220: b591 babd ede7 afbc aa5f b8bd d4a6 d1bd
00000230: 845d 01be 8547 343e 3888 46bd 8c40 253e
00000240: 5d1d 403e 42bb b53d 621e 99bd a54c e6bd
00000250: 137d 3abc 1199 04ba 4866 093e 07f9 983e
00000260: 24aa 80bc 64ec 0abe 8a39 503e bfff 32bd
00000270: 4a41 23bd 19aa 8a3e 717d 50bd 6048 0fbe
00000280: db12 083c 489c 973c ab0d 753d 6e86 34bd
00000290: 6fc4 633e f302 18bb 4a00 883d c44e 91bd
000002a0: 5450 d3bd a8df 773e 7e75 863e 1028 9b3e
000002b0: 64e3 643e b41f 4c3e d7c0 633d 42f7 d53d
000002c0: 424b 993e 8dba c63d 1522 c6bd 3c0f 8ebd
000002d0: f2f7 203e 22c8 3fbd efad 923e 4241 10ba
000002e0: 234f c13d eefb a9bd 60d7 e13d 6562 a23e
000002f0: 3b65 c8bd 5410 883d 1629 70bd 1253 b9bc
00000300: bb9f 80bc babf 12bd cbc6 813c 1482 25bd
00000310: b66c 8d3d 1277 17bd c61e 1bbe 36e4 cd3d
00000320: b3da be3d 67c4 b8bd 4992 e73d 6ab2 413e
00000330: 7ba3 ee3b 61ca 1f3e a13a a63d 377b 5bbc
00000340: 8cad 2d3e 1118 3abd d7ee 0cbd 105a 02be
00000350: affc 74bd 1ae7 7f3e a48f 133d 1bfe 24ba
00000360: 705b 10bc 342f 28bc 02e4 5a3e cdb9 6dbd
00000370: 89c1 3f3e f641 85bd f5c8 943e fdf5 613d
00000380: 08fb 64bd ab7e 9f3d 5184 adbb e5f4 a4bc
00000390: dddf 2b3c 21d7 febd dafb 7c3e 0cf2 36bc
000003a0: aa43 c5bc 62e8 7f3e dd25 fd3d 7e45 c7b7
000003b0: 0026 04be 15a5 8c3e a487 8cbd b50d e3bc
000003c0: 2a9e 813e a606 b53c a2c3 2a3e 6b51 883e
000003d0: f49b 913e 8ac9 1d3e c17d 973e c518 813e
000003e0: 256a 80bd 5127 a43e bbe7 b2bb 4cfd 673e
000003f0: 21ca 60bd 80aa 773e 2fd2 2c3c 7f93 c8bd
0.093788676 0.00078965776 -0.033255536 0.0800891 -0.027852586 -0.045277573 0.0938295 0.30929574
0.014427215 0.24806616 0.23459117 0.10220684 0.10870592 -0.055144366 0.24842568 0.2436115
0.03127984 -0.11128936 0.24244054 0.014500127 0.03580017 -0.033169497 -6.614828e-05 -0.0585079
-0.11394337 -0.014581237 -0.06834643 -0.0022465652 -0.047089633 0.2672874 -0.042035423 0.195007
0.10117751 0.019352624 0.22804868 0.20693737 -0.0028345287 -0.058954813 -0.11850631 0.019978387
-0.12546091 0.01753279 0.060122546 0.20277224 0.17911471 -0.050974004 0.11683934 -0.037723128
-0.050275158 -0.035487525 0.013034608 -0.021078922 -0.010313736 -0.0059621087 0.0938394 0.026071316
0.065414615 -0.08054412 -0.026931262 0.19696155 -0.033741903 0.09747263 0.21509238 0.015389454
-0.10217722 -0.0724382 -0.07771386 0.12719986 0.3043903 -0.0032275547 -0.029441409 0.30404967
-0.089234985 0.05610017 0.23119777 -0.0708653 -0.03341865 -0.008367781 0.30013716 0.17513445
-0.12260219 0.2161493 -0.105023876 0.19875516 -0.05358112 0.19720541 0.23193526 -0.12277627
0.24662414 0.024268338 -0.008857471 0.25968316 0.008828904 -0.026771357 -0.04106967 -0.11479421
-0.084559135 -0.035048556 0.1182206 0.22631739 0.30934682 -0.02485388 0.091116875 0.13501583
-0.124514356 -0.08098498 -0.008347214 -0.025701111 -0.08014812 -0.026208812 0.26813254 -0.078385
-0.0113846455 -0.10404905 -0.080925815 0.26872492 0.061991487 -0.05936643 -0.051794976 0.16960655
0.112771094 0.06362996 0.27877226 0.18475403 0.1330629 0.085356556 -0.059152246 -0.052057944
0.05831102 0.20574765 -0.033521313 0.0500381 0.078126594 -0.12414128 0.20678051 0.1479622
-0.09109823 -0.021472896 -0.090026215 -0.10236898 -0.1263333 0.17605408 -0.048469752 0.16137904
0.18761201 0.08873607 -0.07476498 -0.112450875 -0.011382359 -0.0005058209 0.13417923 0.29877493
-0.01570613 -0.13566738 0.2033445 -0.04370093 -0.039857186 0.270829 -0.05090088 -0.13992453
0.008305277 0.018507138 0.059827488 -0.044073515 0.22242902 -0.0023195117 0.0664068 -0.070951015
-0.10318056 0.24206412 0.26261514 0.30304003 0.22352368 0.19933969 0.05560383 0.10447551
0.2994023 0.097035505 -0.096744694 -0.069364995 0.15719584 -0.04682172 0.28648326 -0.0005502888
0.09438922 -0.08300005 0.11027408 0.31715694 -0.09784933 0.06643739 -0.058632933 -0.022622619
-0.015701165 -0.035827376 0.015841862 -0.040407255 0.069055006 -0.03697879 -0.15148458 0.100532934
0.09319057 -0.09021836 0.113071986 0.18915716 0.007282672 0.15604545 0.08116651 -0.013396076
0.16960734 -0.045433108 -0.034407463 -0.12729669 -0.05981129 0.24990502 0.03602566 -0.0006293968
-0.008810863 -0.01026516 0.2137604 -0.05803852 0.18726172 -0.06506722 0.29059568 0.055166233
-0.055903465 0.07787832 -0.0052953144 -0.020136306 0.010490385 -0.12443376 0.24705449 -0.011166107
-0.024080116 0.24990991 0.123607375 -2.3755008e-05 -0.12905121 0.27469698 -0.06861809 -0.027716497
0.25315982 0.022097897 0.1667619 0.26624617 0.28439295 0.15408912 0.2958813 0.2521421
-0.062702455 0.32061246 -0.0054597533 0.22655219 -0.054880265 0.24186134 0.010548159 -0.09793758

weight f4 [10, 2048]
00000000: 746d 26bb 967a 1c3d 83b9 c036 cf96 70bd
00000010: 9eb1 dabc a0ff 08b3 67f6 debc 8098 193d
00000020: 88fd 653d 0599 e03c 6e92 41bd 8c52 18bd
00000030: 62dd bbbc 239a 9cb4 8d40 4f3b e2b1 31bc
00000040: 87ba f03c 405e 7a34 9ab5 aebc 587c d7bc
00000050: 0d62 da3c 0327 5cb6 7474 bfb4 2a9a 79b3
00000060: 5e6d 883b f7df 0134 c8fc fbb2 2b29 81b6
00000070: ba42 ab35 f927 87bc fe29 3334 8637 9e3b
00000080: 3c14 d4bc d6d8 2dbc 7fac 903c 1b79 183d
00000090: e016 ff33 b77f 12b5 543f 9336 87fe f43a
000000a0: 4a29 6db6 47c2 733c a888 c03c 9eba e73b
000000b0: 8b70 08bd 9efd f934 6e99 5dbd f6d5 13b5
000000c0: 289f 44b5 9461 0bbc 7f2d c33c 54d9 0933
000000d0: 19ce 8eb5 a49a 39bb 6fbe 14bd 5aec 7cbc
000000e0: b8d8 dbbc 60b6 fcb1 424d fe3c c72c 2f3d
000000f0: a6e4 2c3d 21fc dbba 77a2 51bd 4636 ad3c
00000100: f57a 2136 fa3b a9b3 1d18 7c35 cd03 0abc
00000110: 1284 1abd 3673 0e3c ff96 b3b5 04af 233c
00000120: e2ff b2b5 afb3 44bc a26a b3bb 57ff 373d
00000130: 55bd 2236 fe7f d5b5 719e 883c 6f09 dcbc
00000140: 4b5f 50b6 0c5c e3bc 88b5 f8b6 6d6d 2b3c
00000150: 0651 8136 51a2 113b a6d8 fd3c 8c7b 89b5
00000160: a6b6 06bd 4377 1dbd cf22 ca3b 6204 043d
00000170: d3ab f23c 1c74 1f3d 269a 9bb2 a573 0a37
00000180: 1f6e e23c fcb8 9c36 0029 4ebc 8c2f 4fbd
00000190: 3138 02bd a8d2 7034 7e03 62bd 31fa d8bc
000001a0: 40de cf32 9387 333c 34b9 95b5 0ce2 bb35
000001b0: 7206 9435 7d9d 6cb6 6a95 ba3b f2a3 7f36
000001c0: 9a2b 9236 3ed6 ef32 16a8 a9bc e2f1 903c
000001d0: 4a9e 1a3d e94a 49bc dee4 dcb3 4ff3 2a3d
000001e0: 9764 80bc be2f 09bd 8548 b3bb 571a 54bd
000001f0: 3238 4f3d 418d d93c cc00 93b5 0b9e e1bb
00000200: e15c 37bd f1c4 0f3d eeb8 09b3 8319 053c
00000210: f300 403c fcc0 2c35 8e35 fabc 5c63 12bd
00000220: 144d 11b6 aa24 a93c 6ef2 0ab4 c6e4 eeb3
00000230: af84 b9b6 6c9a a5bc d007 b736 7304 ebbb
00000240: 5873 e93b 788f fdbb b422 6833 0cc5 20b5
00000250: e71d 6b3d b849 4835 8208 3cbd 7177 88bc
00000260: f939 70ba 12ed 1fb5 b157 0e3d b94b 18bd
00000270: 7ce7 053b 2669 08bb ee34 ab35 6093 8b32
00000280: becd 253d 4304 1ebd 7716 ea3b 4e27 9a32
00000290: d540 033d 291c deb5 bf11 44bd c136 88bb
000002a0: faed 87b6 9e1b 253d 547c b0bc 853e 9e3c
000002b0: 16aa f0bc dbde aabc f2ba 503c 227e 67bd
000002c0: 6afc b2bc b9c0 2c3b 12a9 b834 b878 b634
000002d0: 3af3 073d b85e dc35 194b 54bd 910d c5b5
000002e0: bf2d ea3c 9bfe bbb3 f559 37bb 86eb 0dbd
000002f0: f2bf 80b5 c460 a83c ae96 c435 247e 41bd
00000300: b88a 0837 ff39 2f3c 169c 943b 84dc 9032
00000310: 9360 0ebd b001 c235 d41f ebb4 a15e 4dbd
00000320: f3c1 923c a9e7 813a dc10 333b 8c4d 34b9
00000330: cb74 293d 92a3 4ebd aef9 213a 3202 2fbd
00000340: 4c3b f9bc 0794 24b6 8515 80b6 40e3 713d
00000350: e3ff c33c dd50 e9bc 4b8a c93b 566f 87bc
00000360: 2f7b 7335 f142 e737 49f4 4e3c 797f 9735
00000370: f6f5 53bc 0db8 75b5 45f3 39bd d53c b3bb
00000380: 1662 9bbc e5cd f1bc 0ccf 4634 464a 8236
00000390: f7a7 53bd 40ff 8236 24a3 28bc af3f afbc
000003a0: 2566 dd35 b484 c0bc 4031 21bb e54a 8134
000003b0: 2d46 cfb5 03c0 bebc 305d 53b4 d35e 7736
000003c0: c800 28bd 250c ea3c 1132 0dbd c3f3 b4bc
000003d0: b3f1 143c 8d96 75bb 3686 323d 5345 333a
000003e0: 326d fe3b 123a c7bc a8d2 80bb 22d6 a23c
000003f0: 5bb5 253d 427e 2dbd a314 40bd 73c1 1434
-0.002539483 0.038202845 5.7436423e-06 -0.058737572 -0.026696023 -3.1897457e-08 -0.027217103 0.03749895
0.05614999 0.027416715 -0.047258787 -0.037188098 -0.022932712 -2.9169414e-07 0.0031624169 -0.010845633
0.029385818 2.3317352e-07 -0.021326829 -0.026304409 0.026658082 -3.2805262e-06 -3.5661253e-07 -5.811504e-08
0.004163428 1.2095539e-07 -2.9335197e-08 -3.849292e-06 1.2759913e-06 -0.016498553 1.6685951e-07 0.0048283963
-0.025888555 -0.01061078 0.017660378 0.03722487 1.1878524e-07 -5.457509e-07 4.3883138e-06 0.0018691578
-3.5339785e-06 0.014877862 0.023502663 0.007071807 -0.033310454 4.6564395e-07 -0.0541014 -5.507312e-07
-7.324729e-07 -0.008507151 0.023825405 3.2095457e-08 -1.0639807e-06 -0.0028320933 -0.036314424 -0.01543721
-0.026836738 -7.354899e-09 0.031042699 0.042767312 0.042210244 -0.0016783514 -0.05118033 0.021144044
2.406244e-06 -7.8805854e-08 9.3912405e-07 -0.008423758 -0.03772361 0.008694461 -1.3380485e-06 0.009990457
-1.3336505e-06 -0.0120057305 -0.005475358 0.044921245 2.4250087e-06 -1.5906987e-06 0.016677113 -0.026859967
-3.1049883e-06 -0.027753852 -7.412109e-06 0.010463101 3.853932e-06 0.0022221992 0.030987095 -1.0243252e-06
-0.03288903 -0.038443815 0.0061687003 0.032230742 0.029622948 0.03892909 -1.8114473e-08 8.252367e-06
0.0276404 4.6706973e-06 -0.012583017 -0.050582454 -0.03179187 2.2428378e-07 -0.05517911 -0.026486488
2.419904e-08 0.010957616 -1.1155266e-06 1.3998374e-06 1.1028735e-06 -3.525841e-06 0.005694081 3.809339e-06
4.356215e-06 2.7920688e-08 -0.020710032 0.017693464 0.037748612 -0.012285926 -1.0286179e-07 0.041735943
-0.015672965 -0.033492796 -0.0054712915 -0.051782932 0.0505907 0.026556613 -1.0952585e-06 -0.0068852953
-0.04476631 0.035099927 -3.206599e-08 0.008123758 0.011718976 6.435582e-07 -0.030543115 -0.035739288
-2.165155e-06 0.020647366 -1.2940447e-07 -1.1124352e-07 -5.528876e-06 -0.020215236 5.4547345e-06 -0.0071721612
0.0071243457 -0.00773805 5.404827e-08 -5.9891386e-07 0.057401564 7.461308e-07 -0.04590655 -0.016658517
-0.0009163912 -5.95771e-07 0.034751598 -0.03718159 0.0020432165 -0.0020814626 1.2755897e-06 1.6248748e-08
0.040479414 -0.038578283 0.0071437913 1.7945833e-08 0.03204425 -1.6548485e-06 -0.047868486 -0.004156918
-4.0510176e-06 0.04030954 -0.02154366 0.019316921 -0.029377978 -0.020858219 0.012739884 -0.056516774
-0.021848876 0.002635999 3.4395686e-07 3.3987976e-07 0.033190943 1.6418844e-06 -0.05182943 -1.4681592e-06
0.028586267 -8.7541785e-08 -0.0027977203 -0.03464844 -9.592607e-07 0.020553954 1.4646992e-06 -0.047239438
8.13853e-06 0.01069498 0.0045352085 1.6864085e-08 -0.03476007 1.4454617e-06 -4.379532e-07 -0.050139073
0.017914748 0.0009910959 0.0027323281 -0.00017195026 0.041371148 -0.05044896 0.0006178868 -0.042726703
-0.030423783 -2.4524068e-06 -3.8172025e-06 0.059054613 0.023925727 -0.028480941 0.006150519 -0.016532581
9.070381e-07 2.7568518e-05 0.012631484 1.1287476e-06 -0.01293706 -9.153744e-07 -0.045398016 -0.005469898
-0.01896767 -0.029517123 1.851551e-07 3.8829485e-06 -0.051673856 3.904017e-06 -0.010292802 -0.021392671
1.6495511e-06 -0.023500778 -0.0024596006 2.4082615e-07 -1.5443126e-06 -0.023284918 -1.9684808e-07 3.6861063e-06
-0.04101637 0.028570244 -0.034471575 -0.02208889 0.009090829 -0.0037473768 0.043585025 0.0006838638
0.007764482 -0.024319682 -0.003931362 0.019877497 0.040456157 -0.042356737 -0.04689468 1.385395e-07

bias f4 [10]
00000000: 6322 9d3b 8464 ae3c 874c 833c edf9 923a
00000010: b818 65bc 84e0 91bc 3285 4b3c c516 85bb
00000020: d48d 35bc 393b 37bc
0.004795359 0.021288164 0.016027702 0.00112134 -0.013982944 -0.017807253 0.012421893 -0.004061552
-0.011081178 -0.011183553

weight f4 [10]
00000000: 7c11 7c3f f96e 803f d1a9 7d3f b66a 803f
00000010: 27d9 803f 5783 7c3f 62c8 803f aa20 7e3f
00000020: 73ae 813f fe5a 823f
0.9846418 1.0033866 0.99087244 1.0032566 1.006627 0.9863791 1.0061152 0.9926859
1.0131363 1.0184019

bias f4 [10]
00000000: 994f a3bb b6ed 203c 7978 70bb bcbd e83b
00000010: 36c6 e0bb bdaa 303b e095 2cbc fc45 d9bb
00000020: 21b6 e8bb 1bdd e53b
-0.004983854 0.0098223 -0.00366929 0.007102696 -0.006859566 0.0026957237 -0.01053378 -0.0066306572
-0.0071017896 0.007014883

weight f4 [10]
00000000: 33f3 7e3f d263 803f 46fb 7c3f 7c57 803f
00000010: 8d47 7e3f fb70 7d3f 0bed 813f 7229 7d3f
00000020: 763d 813f d5ac 813f
0.9958984 1.0030463 0.9882091 1.0026698 0.9932793 0.9900052 1.0150465 0.98891366
1.0096881 1.0130869

bias f4 [10]
00000000: 9bd2 c83a 53a2 6c3b 4d7d c63b b099 953b
00000010: 5856 f7ba cd4e 9bbb a930 a5bc a763 2a3b
00000020: 356d 26bc 0846 263c
0.0015321554 0.0036107495 0.0060574175 0.00456544 -0.0018870337 -0.0047396184 -0.020164805 0.0025999339
-0.010157873 0.010148533

in_proj_weight f4 [30, 10]
00000000: 5820 2636 e5af 0cba 85ae d93d 165d 21be
00000010: f52c 4f35 e694 1e3e db6e d13d 7e62 4ebe
00000020: 0424 2b3d b5a9 a0bd b912 ab3c 44aa acbb
00000030: 7200 3dbe 2c41 68bd b7b6 5bbe 9e24 d736
00000040: 2f64 503e 744a c9bc 17d6 3c3c a46a c437
00000050: c12c 8b3d 0dcc 8439 7f80 60be 21ef cf3d
00000060: 9c95 d4bd 8569 25be ee2c 9fbd 313d 88bc
00000070: 72ef 11be 165c 00bb bcfa a83d e8f5 f1b6
00000080: 8c94 19bd eabf 3cbe 2607 8bb5 d7d0 03be
00000090: 4c98 013e 5f96 123b b2cd 41be 25b3 f3b7
000000a0: 33a8 d937 6194 3fbd 9e26 283a 2e28 883d
000000b0: 0e5a 22b9 4fae fc3b 6432 31be 6068 fdba
000000c0: 2a85 933c 96db 37be 4246 203d e496 d23b
000000d0: 7e6e 53be 10d7 5abe 94be 5a3d 0b43 51bd
000000e0: 5768 49bc efc9 e3bd ae0c 613e 7374 b03d
000000f0: 6c5e d4bd 1953 0f3a b73e fd3d fe2e 63ba
00000100: 9976 173e dce3 5d3d c691 6e3d 2b4f ecbd
00000110: a931 21be 51f6 393e 4405 9fbc a809 a434
00000120: 2054 423e 9ea8 25b4 c0f0 d734 829a 7e34
00000130: edb7 0035 c704 013d 6642 f7bc 64ca 99bd
00000140: dfb7 0336 712f 043b 0f5b 6b35 fb11 3abe
00000150: 58e3 e73d dea3 f43c 0f81 123e 6f77 7ebd
00000160: 748a bd3d 74d1 a2bd 13a6 203e c75f adbd
00000170: a1f1 28be cd0a eb3d dc1c 95b6 be8a cebc
00000180: 3bdc f93d a5f4 5dbe 56a3 5abc 4fe7 d6bd
00000190: 212a 34bd 416c 0937 2602 293e 8ddb 8bba
000001a0: 3114 9e35 8653 1135 3cc4 8fbc 991c 7f3d
000001b0: 704e 833d 6620 1633 5f97 1936 9250 203d
000001c0: 1692 243e 64c9 c63b 2d56 aabb 3829 743d
000001d0: 1dc4 8136 0be2 1fbe 652d 2536 96fc 8c39
000001e0: 03e7 3f3e dae3 313e 83f4 d434 c0c1 753d
000001f0: 2ce8 f0bb 8940 43b9 8194 bebd 2b61 2f3e
00000200: 2d65 bab5 db76 7e3d e651 3fbe a871 a3b1
00000210: 4a5b 00b6 38ea 2cbe d979 7639 4866 92bd
00000220: 7860 033d c3eb 76bc 845d 923d 84a2 b1b5
00000230: a9e8 fdbc f825 24b6 8cc9 c93d 71c1 5c3c
00000240: 75d8 34b5 face 3639 9d84 5b3d 73e6 32bd
00000250: 02f9 2236 4078 853c fd6f d9bd d9c5 1935
00000260: 9207 53be 4d67 7c3d 4005 5ebe c4de 043e
00000270: 14b7 f33d f307 253e 5dca 923d cf16 5fbe
00000280: 3c4d b93d 668f 0ebe 086b 523e 7622 4735
00000290: b098 b43b a142 81b6 3a06 0c3e 23c8 42be
000002a0: e317 e536 be67 00bb d171 593e c0cd 27be
000002b0: 7dea 543e 256b 033e afca d0b3 e286 5bbe
000002c0: b810 b03d 6baf bf3c b988 02be 93c4 113e
000002d0: 32ff 303b f470 01be 49bc b63d b83c 83b5
000002e0: 9fc0 22be 3d01 6c39 f029 d9b6 0140 573e
000002f0: 19aa 623d 4d24 2ebd 3187 3fbe 6106 45be
00000300: 929c 1a3e 98a0 23bb 9ca0 53be 0e04 f6b8
00000310: 5f58 2cb5 34ea 0238 15ee 8236 22c5 70b3
00000320: 24b9 9c3c 6dca 87be d152 b63e 84c8 98be
00000330: 9357 b53d b2ff b23d a940 683c 81f9 be3e
00000340: 3262 783e 1362 98be 7bf0 a9be 7f67 153d
00000350: 21f4 62be 6de3 163b 2532 b43e f605 d33d
00000360: e89a c53d f5ab b13e 8d4b 3c3e 40b1 543e
00000370: 63e4 64be 9ded cdbd bfd5 5cbd d767 b2be
00000380: 7806 78be 5f20 c9bb e401 d53d 7367 72be
00000390: 9126 96be f534 13be 0682 67be fd8e 9a3e
000003a0: 0e71 71be edd4 833e 0848 2b3c 49ef 0d3d
000003b0: 388e 92be bc55 c13e 939a d03d c2cc 88be
000003c0: e5f7 113e 556b 193e 9adf 083e 2a3c a1be
000003d0: f63f c4be ac01 a9be e7ed 44be c882 483e
000003e0: ca64 b83d 1c11 95be 6749 c23e 8c05 98bd
000003f0: 6cba bb3e 2aa0 a73e df5f edbc ee9c 963e
2.4754754e-06 -0.00053667865 0.1062899 -0.15758166 7.717893e-07 0.15486488 0.10226222 -0.2015476
0.041782394 -0.07844869 0.020882951 -0.0052693207 -0.18457201 -0.056702778 -0.21456419 6.411762e-06
0.20350717 -0.024571635 0.011525652 2.341468e-05 0.067956455 0.00025329032 -0.21924017 0.10153032
-0.10380098 -0.16153534 -0.077722415 -0.01663074 -0.14251497 -0.0019586137 0.08250949 -7.210987e-06
-0.03749518 -0.18432584 -1.0358387e-06 -0.12872635 0.12655753 0.002236746 -0.18926123 -2.9051278e-05
2.594674e-05 -0.046772365 0.0006414446 0.06648289 -0.00015483072 0.007711209 -0.17304379 -0.0019333474
0.018007834 -0.17954859 0.039129503 0.006426679 -0.20647618 -0.21371102 0.053404406 -0.051089328
-0.012292943 -0.111225 0.21977493 0.08615961 -0.10369572 0.00054673996 0.123654775 -0.0008666365
0.14791335 0.05417238 0.05824449 -0.115385376 -0.157416 0.18160369 -0.01941169 3.0554406e-07
0.18977404 -1.5428165e-07 4.022204e-07 2.3711803e-07 4.7951363e-07 0.031498697 -0.030183028 -0.07509306
1.9627548e-06 0.002016988 8.767683e-07 -0.18170922 0.11322659 0.029863294 0.14307044 -0.06212562
0.092549235 -0.07950106 0.15688352 -0.08465534 -0.16498424 0.114766695 -4.4439057e-06 -0.025212642
0.12200209 -0.21675356 -0.013344606 -0.10493337 -0.04398549 8.191041e-06 0.16504726 -0.001067029
1.1777794e-06 5.413825e-07 -0.017549627 0.062283132 0.06411445 3.4954063e-08 2.2886886e-06 0.039139338
0.16071352 0.006066488 -0.0051982612 0.05960962 3.86733e-06 -0.15613572 2.461334e-06 0.00026891072
0.18740468 0.17372075 3.9665983e-07 0.059999228 -0.007351896 -0.0001862069 -0.093056686 0.1712691
-1.3887526e-06 0.06212507 -0.18683586 -4.7568456e-09 -1.9126624e-06 -0.16886222 0.0002350578 -0.07148415
0.03207442 -0.015070858 0.07146743 -1.3234826e-06 -0.03099473 -2.4460005e-06 0.09852895 0.013473854
-6.737021e-07 0.00017433977 0.053593267 -0.043676805 2.4284823e-06 0.016292691 -0.10617063 5.728485e-07
-0.20608357 0.061621953 -0.2168169 0.12975603 0.11900154 0.16116314 0.07167504 -0.21786045
0.090479344 -0.1392189 0.20548642 7.4183424e-07 0.005511366 -3.852256e-06 0.1367425 -0.19021659
6.8275126e-06 -0.0019593085 0.21234824 -0.16387081 0.20792575 0.12833841 -9.722623e-08 -0.21438172
0.08596939 0.023399075 -0.12747468 0.14235143 0.0027007577 -0.12640744 0.08922631 -9.777932e-07
-0.15893792 0.00022507175 -6.471986e-06 0.2102051 0.055338 -0.042515088 -0.18703915 -0.19240715
0.1509879 -0.0024967548 -0.20666736 -0.00011730949 -6.420359e-07 3.1212534e-05 3.9020183e-06 -5.6058646e-08
0.01913125 -0.26521626 0.3561006 -0.2984048 0.08854594 0.08740176 0.014175572 0.3729973
0.24256209 -0.29762325 -0.33191285 0.036475655 -0.2216344 0.002302374 0.35194507 0.10303871
0.09648687 0.34701505 0.18388195 0.2077074 -0.22352748 -0.10055087 -0.05391478 -0.3484485
-0.24221218 -0.006137892 0.10400751 -0.23672275 -0.293263 -0.1437567 -0.22608194 0.30187216
-0.23578283 0.25748387 0.010454185 0.03465203 -0.2862413 0.37760723 0.10185733 -0.26718718
0.1425472 0.1498235 0.13366547 -0.31491214 -0.38330048 -0.33009088 -0.19231378 0.19581139
0.09003599 -0.29114616 0.37946627 -0.07422933 0.36665666 0.32739383 -0.028976379 0.29416603

in_proj_bias f4 [30]
00000000: 0000 0000 0000 0000 0000 0000 0000 0000
00000010: 0000 0000 0000 0000 0000 0000 0000 0000
00000020: 0000 0000 0000 0000 0000 0000 0000 0000
00000030: 0000 0000 0000 0000 0000 0000 0000 0000
00000040: 0000 0000 0000 0000 0000 0000 0000 0000
00000050: 7d11 d03b 3a7c 8dbb 5789 8fbb d401 20bb
00000060: e5f9 b23b 10ba a33b 794a 0dbc 9872 e1bb
00000070: 63d4 7bbc b02c cdba
0.0 0.0 0.0 0.0 0.0 0.0 0.0 0.0
0.0 0.0 0.0 0.0 0.0 0.0 0.0 0.0
0.0 0.0 0.0 0.0 0.006349741 -0.0043177875 -0.004380386 -0.0024415152
0.0054619187 0.0049965456 -0.008623713 -0.0068801157 -0.015370461 -0.0015653577

weight f4 [10, 10]
00000000: df5e 9abe 947c 32bd 08f0 0f3e 1a36 dbbe
00000010: 273f cfbd 42ab af3e e93f c93e 8a15 553e
00000020: ef0a 44bd 930f 1c3d 31ea 87be 5044 e9bd
00000030: 4c99 3a3e 87a6 a9bd 960b 673e 87d2 19be
00000040: 478d f8be 3113 41be 4b80 d53e ef3d 11be
00000050: 4779 943e 5d0d 863e 73f8 ca3d 089f c3bd
00000060: f993 32be 5de2 963e 9c4c 563e b26f f43e
00000070: e065 223e 8c13 003f d513 e4be c70b 853e
00000080: c615 173e 03d2 d5bc 643c c53e 8c83 ef3e
00000090: c646 04bf 1056 593e 4233 cc3e 59b0 ca3e
000000a0: d614 4dbc f24f fd3d 56d4 11bd 3a81 063e
000000b0: c3b8 693e f2d5 0dbe c118 953e cea0 073d
000000c0: 19f3 c93e aacb b3be e76c 5b3e 72ab e43e
000000d0: b337 b8be 4973 f8be 2bdf e4be 52c1 0d3f
000000e0: 291e 923e 4423 aebb aed0 fc3e 27fb 133e
000000f0: 464e 023d 7bc2 723e c4cb 213e ae4e a03e
00000100: e2f8 debe 77f2 d3be 8d14 873e bec5 05bf
00000110: 1065 003e bc31 f8be e740 90be 2980 723e
00000120: bcf3 7c3e eb86 ae3d 598c af3e 99cc c63e
00000130: 93bc a8be 09be 68be a264 52be 91df bebe
00000140: 1060 063f fdee 623e 9848 66be e324 4fbe
00000150: 552c 203e 1ccc ab3e 6380 743d 7d94 ee3e
00000160: 3002 f63e 808c 013f 8f43 023f facb 4d3e
00000170: 4e8e adbe 810d f2bd 0f19 10be ca0f 9d3e
00000180: b8d7 35be d83e ffbe a77b 72be 860e b03e
-0.30150506 -0.04357584 0.14056408 -0.42814714 -0.10119467 0.34310347 0.39306572 0.20808998
-0.04786199 0.03810079 -0.2654586 -0.11389983 0.1822254 -0.08283716 0.22563013 -0.15021716
-0.48545286 -0.18854977 0.41699442 -0.14183782 0.28998777 0.2618207 0.09910669 -0.09551817
-0.1743926 0.29469576 0.20927662 0.47741467 0.15859175 0.50029826 -0.4454638 0.25985548
0.147544 -0.026101118 0.38522637 0.4678005 -0.5167049 0.21224236 0.39882857 0.39587668
-0.012517175 0.12368764 -0.03560289 0.13135234 0.22824387 -0.13851145 0.29120448 0.03311234
0.3944328 -0.3511632 0.21428262 0.44662052 -0.35979995 -0.48525456 -0.44701514 0.5537311
0.28538635 -0.0053142626 0.4937796 0.14451276 0.03181293 0.23707001 0.15800387 0.31310028
-0.43549258 -0.41395923 0.26382867 -0.52254856 0.12538552 -0.48475444 -0.28174517 0.23681702
0.24702352 0.08521827 0.34286764 0.3882797 -0.3295637 -0.22728743 -0.20546201 -0.37279943
0.5249033 0.2216148 -0.2248863 -0.20228915 0.15641911 0.3355416 0.05969275 0.46597663
0.48048544 0.5060501 0.50884336 0.20097342 -0.33897632 -0.11818982 -0.14072059 0.3067611
-0.17758071 -0.49852633 -0.23679982 0.3438608

bias f4 [10]
00000000: 325c fa3b 64fa 923b ae1a 11bb 204b dc3a
00000010: 2b44 863b 67fb 04bc 7fae 8ebc 60ca 453c
00000020: 764e 04bc 5788 5d3c
0.007640385 0.0044854153 -0.0022141146 0.0016807057 0.0040974817 -0.00811658 -0.01741719 0.012072176
-0.008075347 0.0135212755

weight f4 [2048, 10]
00000000: 5b67 f03b 014a 013d 9cb0 bd3c ad14 823d
00000010: f302 d7bc cc54 4abd 62d6 50bc 96d4 163c
00000020: 756a 5abd 2798 bd3c bcb3 b2bc 17e4 00bd
00000030: 03cd 6abc e0cc 52bd f70b cfbb 1048 82bb
00000040: 38c4 093d aef4 01bd bd4a c6bc b74d 23bd
00000050: 5de8 82b5 1b0f 8536 2461 9a35 c677 01b5
00000060: aebd 57b6 010b 9432 96c7 c8b5 277c 3db5
00000070: 1911 74b6 4c6a 5fb5 409e 8fbd e5d1 d8bc
00000080: cf82 3dbd 9269 3d3c 027f 9b3b e40a 26bc
00000090: 5ce9 cb3c 02da f53b f203 44bc 77cc bd3b
000000a0: a79e c33c 12e5 60bd 1034 733c 8ae9 823c
000000b0: 2e22 17bc e351 223d c7a5 353c 3333 1d3d
000000c0: 6777 72bc c4d2 163d b249 2036 0b4a 84b5
000000d0: 7a19 82b4 7188 6533 cc70 9b35 6576 f936
000000e0: eef7 e736 8c7e 7836 43bf 8934 f161 45b6
000000f0: a5a0 073d 2858 02bd 656d 4a3d 2191 2a3c
00000100: ec5a cd3c c440 27bd f41a 003d 8bce 27bd
00000110: 9bec 283d 5c06 67bc d23a 87bc 3c09 713d
00000120: 8b4f cbbc a39b 203d 0123 ea3a 6079 c53c
00000130: fd1d f8bb 2a33 313d 0522 5abd f6ca e3bb
00000140: 12c1 01bc 1704 25bc 5968 133c 36e1 18bc
00000150: 5ef3 133c 4b76 133c 0e9e 1bbc a8ef 0fbc
00000160: 6151 113c 1b3f 0abc 3c92 ddbc 1159 61bd
00000170: 94e7 173d 81b0 d0bc 4d40 75bb fdf8 37bd
00000180: 4de4 7b3d cc75 973c 538c c3bc 233b 1fbc
00000190: d958 103d 7814 253d df57 54bd da51 8ebb
000001a0: d092 b0bc 11fb 813b d815 843c efab 2a3d
000001b0: 785c 233d da33 24bd 7c6d 5ebb 3ddd 08bd
000001c0: 387e aa3c 99f1 12bd a379 7c3c ef38 093d
000001d0: 89c4 d2bb 8d3f 51bd 5c14 a43c dab2 f539
000001e0: 2cf6 c63c b36c ffbc 1b9e 293d eb19 d13b
000001f0: 893f 70bd eb71 123d 1a5e 733d 0deb 99bc
00000200: 60f9 073b 1e19 b33c 91e2 793b 249b 1ebc
00000210: 2592 41bd 02c1 403d e131 9abc c7d4 743d
00000220: 4dab d13c ee5c 803c 434f 83bc 5261 ff3c
00000230: f67c 483d e67a 08bd 527e e73c 48c3 343c
00000240: a35d 94bc c66c 353d 4d97 55bc 4e4c dd3c
00000250: 7ad0 27bd a6cb fabc 2fb9 dc3c 5fbf f53c
00000260: 3e8c 0d3c 0316 edbc ef5f 073d 0612 453b
00000270: fb96 293d 82c3 c0bc ac46 953c 1ccd 9bbc
00000280: c558 713c 0191 16bc aec7 16bd fa17 cebc
00000290: b3ad 973a 1b94 08bd 3b6f 05bd e628 9c3c
000002a0: c3fd 58bd 0836 a4bc 8c61 7ab4 2644 8236
000002b0: b9f3 a3b5 30d2 24b6 7e02 0b36 338d 94b5
000002c0: 86ce 0a37 0f9d 79b6 7c15 1e36 a292 85b6
000002d0: af3c 95bb a7b1 2e3d 9027 2c3d b07d 0ebd
000002e0: fca7 2dbd 9851 293d 2e5b 833d 4de7 8d3b
000002f0: 184f 0bbc 0163 803c aced b53c a64f f9bb
00000300: dde3 2db9 ee59 87bb 75af 2d3c 5459 013d
00000310: 95f3 9abc 6fcf a9bc 0438 043c d0d2 8fbb
00000320: 8134 e2bc c3bf 10bd bce1 01bd f201 a4bc
00000330: 9a4b fd3c 5f43 acbc cd13 e73c 4083 1c3d
00000340: 4f26 20bd b02a 66bb 2d71 aa35 eebd 9e35
00000350: 672d 85b6 3e80 ff34 97f6 8f35 088c 74b6
00000360: 6dd0 1a35 f83b 1c33 4786 75b6 6fd4 9d35
00000370: 2dc6 a13c 0967 64bc a7b8 c7bc b98f 4bbc
00000380: bee2 2e3d c0d1 31bd 3fa4 f13c fdcd e0bc
00000390: 784e 103d fda2 dcbc 2b60 9735 fa41 a135
000003a0: 5fa4 3cb5 b335 0db3 5830 18b6 980f 9db5
000003b0: 23dc 9836 3c8b 1933 4e1d a935 024b afb6
000003c0: 29a6 e735 fb88 0ab7 66cf a6b5 93f8 cdb6
000003d0: 5ae2 1e35 36a4 67b4 b4ec 0eb5 56c0 1f35
000003e0: 908a a635 c0d6 12b5 9a02 f136 d023 2934
000003f0: 5692 a8b4 8d05 1933 2550 1736 bf87 4bb5
0.0073365397 0.031564716 0.023155503 0.063516 -0.026246523 -0.049397275 -0.012746425 0.009205958
-0.05332418 0.023143841 -0.02181422 -0.031467523 -0.014331105 -0.051464915 -0.006318565 -0.0039758757
0.033634394 -0.031727485 -0.02420556 -0.039869037 -9.753381e-07 3.9654674e-06 1.1502166e-06 -4.823054e-07
-3.2147905e-06 1.7234472e-08 -1.4959248e-06 -7.058865e-07 -3.6368785e-06 -8.3228656e-07 -0.07012606 -0.026467273
-0.046267327 0.011560814 0.004745365 -0.010134432 0.024891548 0.007502795 -0.011963831 0.0057921964
0.023879362 -0.05490596 0.014843956 0.0159805 -0.009224458 0.039628875 0.011086888 0.038378906
-0.014798976 0.036822096 2.3884754e-06 -9.856316e-07 -2.4232924e-07 5.344231e-08 1.1581228e-06 7.434561e-06
6.9131993e-06 3.702854e-06 2.56574e-07 -2.9412297e-06 0.033112187 -0.031822354 0.049420733 0.010410578
0.025067769 -0.04083325 0.031275705 -0.04096846 0.04124127 -0.014100637 -0.01650754 0.058846697
-0.024818202 0.039210927 0.0017863215 0.024105728 -0.0075719343 0.043261684 -0.0532551 -0.006951685
-0.007919567 -0.010071776 0.008997046 -0.009331038 0.009030191 0.009000371 -0.009498132 -0.008785166
0.0088695 -0.008437897 -0.027047269 -0.05501658 0.037086084 -0.025474789 -0.003742236 -0.044915188
0.06149702 0.018488787 -0.023870623 -0.009718689 0.03524098 0.040302724 -0.051841613 -0.0043432536
-0.02155438 0.003966697 0.016123697 0.041667875 0.039883107 -0.040088512 -0.003393977 -0.033414114
0.020812139 -0.035874937 0.01540986 0.03350156 -0.00643212 -0.051085997 0.02002924 0.00046863296
0.024287306 -0.031179762 0.041410547 0.0063812635 -0.05865434 0.035753172 0.059415914 -0.018788839
0.0020748004 0.021862563 0.003812943 -0.009680543 -0.047258515 0.047059067 -0.018822612 0.059773233
0.025594378 0.015669312 -0.016029006 0.031174336 0.048947297 -0.03332033 0.028258476 0.011032887
-0.018111056 0.044293188 -0.013036561 0.027013924 -0.040970303 -0.030614685 0.026943771 0.02999848
0.008639393 -0.02894116 0.033050474 0.0030070557 0.04140375 -0.023530725 0.018222176 -0.019018702
0.014730637 -0.009189845 -0.036811523 -0.025157917 0.0011572152 -0.03334437 -0.03257678 0.01906247
-0.05297638 -0.020045295 -2.3318552e-07 3.8822354e-06 -1.2215379e-06 -2.456025e-06 2.0714065e-06 -1.1067954e-06
8.273526e-06 -3.7195312e-06 2.355634e-06 -3.980779e-06 -0.004554353 0.04264989 0.042029917 -0.034787834
-0.04239653 0.04133758 0.064138755 0.0043305517 -0.008502744 0.015672209 0.022208057 -0.007608372
-0.00016583451 -0.0041305935 0.010600914 0.03157933 -0.018914977 -0.020728795 0.008069996 -0.0043891445
-0.027612926 -0.03533913 -0.031709418 -0.020020459 0.030919839 -0.021028219 0.028207684 0.038211107
-0.039099034 -0.0035120659 1.2698926e-06 1.1827194e-06 -3.9689944e-06 4.759076e-07 1.0726097e-06 -3.6440342e-06
5.767277e-07 3.637612e-08 -3.6586005e-06 1.1759238e-06 0.019747818 -0.013940581 -0.024380041 -0.012424403
0.042696707 -0.043412924 0.029497264 -0.027441973 0.035231084 -0.026933188 1.1278365e-06 1.2014636e-06
-7.027465e-07 -3.287796e-08 -2.2677905e-06 -1.170195e-06 4.5555803e-06 3.574972e-08 1.260001e-06 -5.2241385e-06
1.72592e-06 -8.257334e-06 -1.2428325e-06 -6.138414e-06 5.918897e-07 -2.1573291e-07 -5.324357e-07 5.9512e-07
1.2408291e-06 -5.470174e-07 7.1826626e-06 1.575238e-07 -3.1398912e-07 3.5628137e-08 2.2547404e-06 -7.582093e-07
