Comparative_Evaluation/Baselines/Transformer/models_u/model139.pt (torch, 369273 bytes, 36 tensors)

in_proj_weight f4 [30, 10]
000000 15 3e b5 ba d4 2b c5 b9 ae 08 d6 b8 6f 7d 7a b9
       -0.0013827706 -0.00037607423 -0.00010205932 -0.00023888586
000010 ac 6e 76 b5 8b 9d a5 36 70 76 34 37 fc 6f 29 3a
       -9.180319e-07 4.9357236e-06 1.0756412e-05 0.00064635254
000020 e6 45 dd 39 31 a7 14 38 10 a6 8a b7 6e 58 5d 3b
       0.00042204483 3.544166e-05 -1.652821e-05 0.0033774632
000030 74 37 2d b6 fa 46 db b9 ba e6 e8 38 c8 47 7b 37
       -2.5811287e-06 -0.00041823817 0.00011105598 1.4977479e-05
000040 48 32 d1 39 83 2e 5e 39 f6 ed 18 38 39 6c 8b 36
       0.0003990105 0.00021188897 3.6461242e-05 4.1551216e-06
000050 4c cd 00 3b c6 b8 c0 b7 50 97 8b 34 8d 3c 21 3b
       0.0019653616 -2.2974225e-05 2.6000862e-07 0.0024602741
000060 93 33 bd 36 7e 6d f9 38 12 e1 23 b7 38 53 b5 37
       5.638643e-06 0.0001189364 -9.76796e-06 2.1615633e-05
000070 60 cd 3d b9 a9 99 bb b6 aa b3 62 b7 08 ef 94 38
       -0.00018100953 -5.5909227e-06 -1.3512481e-05 7.101713e-05
000080 18 2d a9 b6 0a 97 8e 36 c5 92 bb b9 d6 24 dd b8
       -5.041842e-06 4.249513e-06 -0.0003577677 -0.000105449624
000090 ce 15 31 ba ec 0e 20 b6 5e d7 0b b9 bc d1 80 39
       -0.00067552633 -2.3850544e-06 -0.00013336304 0.00024570327
0000a0 13 78 4d 38 3e c7 e6 37 d4 aa 33 b8 7f 24 c2 39
       4.8987637e-05 2.7510916e-05 -4.283602e-05 0.00037029755
0000b0 d6 04 0b 36 16 74 12 b6 76 71 60 b8 c0 e2 3d b8
       2.071543e-06 -2.1823266e-06 -5.351143e-05 -4.527229e-05
0000c0 66 f8 de 39 1e d8 f8 36 82 06 b6 39 4c 14 e9 b6
       0.0004252821 7.4161353e-06 0.00034718594 -6.946304e-06
0000d0 f6 f3 78 b7 75 84 9d 39 d9 cb af b6 59 a7 d3 b4
       -1.48387535e-05 0.00030044062 -5.2391374e-06 -3.9423574e-07
0000e0 ec 5b 86 38 5b 10 03 39 c5 42 53 b6 2a 74 c1 36
       6.40674e-05 0.00012499226 -3.1480315e-06 5.7653715e-06
0000f0 f2 71 49 b6 37 34 16 38 bc c2 69 b7 d2 f8 f3 38
       -3.001766e-06 3.5811416e-05 -1.3933222e-05 0.00011633489
000100 a0 dd f8 37 8f 3b e0 b7 00 ed 84 b8 b3 54 cc b8
       2.9667106e-05 -2.6730615e-05 -6.338395e-05 -9.7432545e-05
000110 71 6c c6 39 ca df 7b 38 e8 dc e4 35 9b 26 f1 b6
       0.00037846298 6.0051483e-05 1.7051616e-06 -7.186854e-06
000120 67 fa 26 37 bc b4 95 b6 be 15 dc 37 78 5b 77 36
       9.952672e-06 -4.4615863e-06 2.6236168e-05 3.685911e-06
000130 67 c6 f0 38 ba f1 32 b6 62 05 4a b6 7b 6a 01 bb
       0.00011481047 -2.666477e-06 -3.0103479e-06 -0.0019747305
000140 2e e1 90 ba fc bc 8c b9 4c 2e b2 b7 63 9c 67 37
       -0.0011053437 -0.00026843685 -2.1240812e-05 1.3805085e-05
000150 6a b6 7a ba 0a af 35 39 07 cb 06 37 70 bc c0 b4
       -0.0009563925 0.00017326712 8.034293e-06 -3.5899893e-07
000160 59 1a 8c 38 20 a7 a6 b3 1e 88 8c b9 8c a1 0f 38
       6.680628e-05 -7.760377e-08 -0.00026804296 3.424431e-05
000170 76 60 14 38 88 d9 99 b8 d8 3d 32 3b 8b 53 98 b9
       3.5375786e-05 -7.336127e-05 0.0027197506 -0.00029053944
000180 55 9e 84 ba d0 9e 63 b5 20 07 df b9 14 d8 15 b8
       -0.0010117987 -8.479519e-07 -0.00042539183 -3.5725607e-05
000190 29 c5 3a bb 61 1a 3f b8 e4 02 03 b7 44 79 0f 39
       -0.0028498864 -4.5562516e-05 -7.8088815e-06 0.00013682718
0001a0 13 93 91 b8 cc 17 86 38 5d 4f 9b 38 78 fe 30 bb
       -6.9415335e-05 6.3940504e-05 7.4057585e-05 -0.0027007144
0001b0 31 fc d4 39 fe 73 c0 b7 be 40 96 b6 c2 8a 37 36
       0.00040623688 -2.2942197e-05 -4.4778853e-06 2.7349893e-06
0001c0 56 00 00 37 d5 f2 0e b5 f8 e7 a7 b9 20 d5 2a ba
       7.629473e-06 -5.325249e-07 -0.00032025552 -0.00065167435
0001d0 4d 48 29 b8 e3 38 89 38 56 fd c9 b9 33 81 b5 37
       -4.0360075e-05 6.543265e-05 -0.00038526458 2.1637044e-05
0001e0 ee c3 0e 37 f7 49 9b 3a 9b 51 b2 39 60 36 d1 39
       8.509478e-06 0.0011847605 0.00034011606 0.000399041
0001f0 f0 20 19 38 b8 98 85 39 87 11 0e 36 70 df 26 b6
       3.6508718e-05 0.0002548152 2.1169851e-06 -2.4865985e-06
000200 ed 81 20 b9 e0 a2 38 38 73 19 27 38 c2 01 1a b6
       -0.0001530719 4.4020708e-05 3.9839604e-05 -2.2948811e-06
000210 73 1f a7 36 69 ce 3e 37 2c 30 5c b8 d3 a4 ca b7
       4.980649e-06 1.1372941e-05 -5.249695e-05 -2.4157029e-05
000220 1a e6 60 38 81 51 8e 39 13 d5 0b b9 c7 c2 99 b8
       5.362006e-05 0.00027145076 -0.0001333545 -7.3318886e-05
000230 15 4a 33 b8 10 54 d2 36 1f b0 c4 37 4c 99 c8 b9
       -4.274592e-05 6.268274e-06 2.3447034e-05 -0.00038261188
000240 76 5b 36 38 06 a9 90 37 59 c3 4c 38 30 13 0a b5
       4.347736e-05 1.7244845e-05 4.881932e-05 -5.143693e-07
000250 1c 68 c9 b7 20 b1 09 b7 da 07 77 b7 44 34 91 b8
       -2.4009547e-05 -8.2070765e-06 -1.4724175e-05 -6.923874e-05
000260 0c 79 9f 36 45 c7 3e b7 0f 46 60 b7 31 ed a4 37
       4.752661e-06 -1.1371279e-05 -1.3367752e-05 1.9660774e-05
000270 f0 36 8d 37 fd ac 3c 3a 9d b6 da 39 f5 2d 19 b8
       1.6834092e-05 0.0007197408 0.00041716258 -3.6520843e-05
000280 ec 2b c9 b7 fa de de b6 5c 62 08 39 8d 73 40 b8
       -2.398152e-05 -6.6420735e-06 0.00013006612 -4.5883982e-05
000290 d4 78 8e 3a b7 ef d8 37 e3 f9 de b9 fe 7a c8 38
       0.001086975 2.5860832e-05 -0.0004252932 9.559652e-05
0002a0 8e f6 0c 39 22 15 b1 34 09 0f 38 b7 04 f0 c3 37
       0.00013443289 3.2984195e-07 -1.0970755e-05 2.3357577e-05
0002b0 bf aa d7 b5 6d 28 30 ba cb 2a 54 b6 38 6b 96 38
       -1.6068442e-06 -0.0006719891 -3.161537e-06 7.1725284e-05
0002c0 b3 6d dc b9 8b c2 ed 38 c1 98 92 b8 d3 8d e9 38
       -0.00042043402 0.00011337277 -6.990275e-05 0.000111367226
0002d0 a8 8f c7 b9 f6 84 6a b7 df 23 12 38 b3 74 c2 b7
       -0.0003806327 -1.3978444e-05 3.484252e-05 -2.3180944e-05
0002e0 ea 14 f1 37 46 d0 0b b5 73 ca f4 37 87 68 dd b9
       2.8739178e-05 -5.2084613e-07 2.918134e-05 -0.00042230284
0002f0 8b 5c af b8 c0 1c 99 38 88 66 0c 39 3c b7 6a b7
       -8.361888e-05 7.3009636e-05 0.00013389636 -1.39901495e-05
000300 50 7c da 3a d7 01 9f 35 fa 0f ff 38 b4 34 57 b6
       0.0016669128 1.1846959e-06 0.000121623234 -3.2068174e-06
000310 46 51 5a b7 89 f3 88 39 25 db 87 b6 c1 26 42 3b
       -1.30127355e-05 0.0002612139 -4.0488253e-06 0.002962515
000320 d4 b4 da bc a9 19 4a 3e 71 f9 7f be 75 e2 cf 3d
       -0.026697554 0.19736351 -0.24997498 0.10150615
000330 9c 95 cd 3e 41 bb 89 be 69 5f 2e 3d 69 d7 32 3e
       0.40153205 -0.26900676 0.04257146 0.17464985
000340 ad d0 3e bd 4f 47 86 3e e6 da ca 3e b7 dd a1 be
       -0.046585727 0.2622628 0.3962013 -0.31614468
000350 ad f6 42 3e 6e a9 3e 3d 4f fc 1b 3e 8b ac 61 bc
       0.19039412 0.0465483 0.15232967 -0.013774048
000360 f9 6e df bd c8 49 dc 3e e1 f6 c6 3d 0b 34 26 3d
       -0.10909838 0.4302504 0.09715057 0.040576976
000370 63 aa 91 be 14 fd c5 bd 4f 10 2f 3d ab 73 cb 3e
       -0.28450307 -0.096674114 0.042740162 0.39736685
000380 3c 3b b0 bb 2f 55 7e be 62 7d a8 be 0b 01 33 be
       -0.005378155 -0.24837182 -0.3290816 -0.17480867
000390 ba 77 59 3e 74 20 52 3e b0 bd 7e be 06 e4 42 3e
       0.21237078 0.20520192 -0.24877048 0.19032297
0003a0 f6 4f 4a be 44 3e c6 3e ea 46 a9 be b7 e2 5c 3e
       -0.19757065 0.3871938 -0.33061916 0.2157086
0003b0 29 b1 4a bd 82 31 90 bd ae 3d 4c 3e b7 10 82 be
       -0.04948536 -0.07040693 0.19945404 -0.25403377
0003c0 e3 1c 36 bd bf db 80 be c9 0b 11 be 90 b8 a0 3e
       -0.044461142 -0.25167653 -0.14164652 0.3139081
0003d0 8b 69 65 3e 2d 0e 52 3d e6 1b 62 be ec 31 41 be
       0.22403543 0.05128305 -0.22080955 -0.188667
0003e0 aa 70 bd be d3 98 d2 3c 45 5a 71 bd 62 f1 9e be
       -0.37000018 0.025707638 -0.05892398 -0.31043535
0003f0 dc 7c 91 be 37 e7 88 3b 24 22 9d 3d fb dd 41 3e
       -0.28415573 0.0041779536 0.076725274 0.18932335

in_proj_bias f4 [30]
000000 00 00 00 00 00 00 00 00 00 00 00 00 00 00 00 00
       0.0 0.0 0.0 0.0
000010 00 00 00 00 00 00 00 00 00 00 00 00 00 00 00 00
       0.0 0.0 0.0 0.0
000020 00 00 00 00 00 00 00 00 00 00 00 00 00 00 00 00
       0.0 0.0 0.0 0.0
000030 00 00 00 00 00 00 00 00 00 00 00 00 00 00 00 00
       0.0 0.0 0.0 0.0
000040 00 00 00 00 00 00 00 00 00 00 00 00 00 00 00 00
       0.0 0.0 0.0 0.0
000050 94 24 a5 bc 24 14 2a bd 43 11 f7 bc 57 a9 ae bc
       -0.020159043 -0.041523114 -0.030159598 -0.021320982
000060 08 98 96 bc 07 1f 17 3d ff c7 b2 3c 1e ab 3b bd
       -0.018383041 0.036894824 0.021823881 -0.045817487
000070 be 14 01 3d 7a b9 c6 3c
       0.031513922 0.024258364

weight f4 [10, 10]
000000 75 a6 c7 3e 65 d4 03 3f 92 ba 12 3e 63 c9 87 3e
       0.38994184 0.51495963 0.14328983 0.26520833
000010 88 e0 d5 be 71 cd 09 bf b4 eb a0 be bb 7e 0b 3f
       -0.41772866 -0.53829104 -0.31429827 0.5449025
000020 54 31 b9 3e 69 7e cc bd be 74 dc 3e d4 ca 44 3d
       0.36170447 -0.09985048 0.43057817 0.048044994
000030 6e 36 a2 3e c0 c3 af 3d 99 24 8d 3e 1c 2b ca be
       0.31682152 0.08582258 0.27566984 -0.39486015
000040 02 8c 77 be 50 2d 75 be cc 5f 0e be 49 2c 9f 3e
       -0.24174502 -0.23943067 -0.13903731 0.31088474
000050 52 aa b4 3e 2a c6 f4 3e ef 27 62 3e 44 ba 09 be
       0.35286194 0.47807437 0.22085546 -0.13449961
000060 c4 0b a7 be e4 21 12 be 65 ab 54 be 50 12 cb 3e
       -0.32626164 -0.14270741 -0.20768507 0.3966241
000070 46 13 af 3e 9e 2f 06 3f e5 b4 bf bd f0 89 93 3e
       0.34194392 0.5241641 -0.09360675 0.28816175
000080 c6 5f 02 3f 71 b3 ee be 2b 22 dc 3d 7c d7 f2 3d
       0.5092739 -0.46621278 0.107487045 0.11857507
000090 4a c2 de be 60 42 d6 3e 40 8f 6e 3e 97 77 aa 3e
       -0.43507606 0.41847515 0.23296833 0.33294365
0000a0 61 d7 87 3e e8 5c d0 be 3f 8d ad 3d 50 3b 55 bd
       0.2653151 -0.40695882 0.08474206 -0.052058518
0000b0 f1 9b 50 3e aa 1d 0d 3f b2 e1 f1 3e 17 d9 12 bf
       0.20371987 0.5512339 0.47242504 -0.573625
0000c0 63 93 e2 3e 01 28 6c bd 4d 9e 0a 3f b9 64 00 3e
       0.44253072 -0.05765534 0.541478 0.12538423
0000d0 ca 64 08 3e 5c f7 a8 3e 0c 2a 06 3f 03 cc 32 3e
       0.13319698 0.3300122 0.5240791 0.17460637
0000e0 57 ef 63 3e d0 e5 e8 3d 4e 53 fc 3e 2b 89 b3 be
       0.2225927 0.11371958 0.49282306 -0.35065588
0000f0 ca 08 de 3e 7b 41 da 3e b4 05 e8 3e f7 ca 05 be
       0.4336608 0.42628083 0.4531685 -0.13065706
000100 d9 8c 01 3f 26 75 27 3d 55 ae 7c 3d 73 cf 0c bd
       0.5060554 0.040883206 0.061689693 -0.034377526
000110 cc ec a5 3e 34 da a7 be b0 b5 b9 be 36 c7 fd 3e
       0.32407224 -0.32783663 -0.3627143 0.49566048
000120 6f 71 8b 3e 84 58 95 be 90 1f 70 be 3e 0d cd 3e
       0.2723498 -0.29169095 -0.2344954 0.40049165
000130 07 01 97 be 3c a8 07 be 8e 1d e5 3e eb 99 0b bd
       -0.2949297 -0.1324777 0.4474911 -0.034082334
000140 c7 b7 2f be cc 80 8d be 11 a3 88 be 08 f7 5a 3e
       -0.17159949 -0.27637327 -0.2668691 0.21383297
000150 bd 1d 1d 3e b7 b7 0a 3f 42 e3 02 be c5 5c d5 be
       0.15343376 0.54186577 -0.12782004 -0.4167234
000160 00 16 f1 3e 17 d0 a3 bd a4 6f 03 3e 62 41 bd 3e
       0.47087097 -0.07998674 0.12835556 0.36963946
000170 af 53 c2 be 54 5f 3e 3e 01 d8 43 3e b0 21 37 3b
       -0.3795447 0.18591052 0.19125368 0.0027943663
000180 76 20 a3 be 1c 2a 8e be 90 87 ce 3e b0 8f 2c bd
       -0.31860703 -0.27766502 0.403378 -0.04212922

bias f4 [10]
000000 7e 34 1e bd 02 c0 03 bd 80 30 d8 3c 1d 00 80 bb
       -0.03862428 -0.032165535 0.026390314 -0.0039062635
000010 1d 5d 6d 3d ee 08 53 bc 59 fe de bc 33 f7 c5 ba
       0.057950128 -0.012880547 -0.027220892 -0.0015103578
000020 3a 7c dc 3c 16 20 1a bd
       0.026914705 -0.037628256

weight f4 [2048, 10]
000000 5b 74 42 3d c6 45 4e 3d e6 d4 81 3d 5a 53 65 bb
       0.047474246 0.05035951 0.06339435 -0.0034992308
000010 94 39 33 bd 70 c5 04 bd 20 60 0d 3c b2 a3 ed bb
       -0.043756083 -0.032414854 0.008628875 -0.00725218
000020 45 fd f7 bc b7 b4 53 bd ed f3 c0 bc e0 f7 00 bc
       -0.030272136 -0.051686015 -0.023553813 -0.007871598
000030 58 46 1c bc f6 f3 f5 bb 23 70 d3 3d b3 98 af bd
       -0.009538256 -0.007505889 0.10324123 -0.08574047
000040 6c 5c 95 bd e5 30 5d 3d 84 62 8c bd 61 a1 e5 bb
       -0.07293019 0.054001708 -0.06854728 -0.0070077633
000050 e2 0f 5e 3d 82 ff 30 3d 93 c7 24 3d 3b 2e 20 3d
       0.054214366 0.04321242 0.04022939 0.03910659
000060 dd 03 25 bd df a1 66 bd 8f 54 10 3d 23 88 33 bd
       -0.040286887 -0.056306716 0.03523689 -0.043831002
000070 3a c0 2f bd 37 19 60 bd 4a bc 90 3d bd 11 ec bc
       -0.04290793 -0.054711547 0.07067163 -0.028817052
000080 6d 67 e9 bb ba 18 8b 3a 6a a7 ee bd 0f 69 74 bc
       -0.007122925 0.0010612227 -0.116530254 -0.014917626
000090 2e 58 18 3c f9 a5 3a 3d 65 61 a9 3c 08 7c 8f bc
       0.009298367 0.04556844 0.020676324 -0.017515197
0000a0 b3 80 e5 bb e4 be b1 3c 3f 1e 8b 3d 7d 58 b5 3d
       -0.0070038675 0.021697469 0.06792878 0.088547684
0000b0 48 81 ed ba 55 44 8d bd c3 36 7c bd 1b 0b 78 bd
       -0.0018120194 -0.06897799 -0.061575662 -0.060557466
0000c0 39 e8 0b bd 5f 43 a0 bc e5 c4 49 3d e0 1c 0d 3d
       -0.03415701 -0.019563375 0.04926004 0.034451365
0000d0 c7 41 43 3d 42 78 03 3d dd 66 4d bd 85 5b 2a 3d
       0.047670152 0.03209711 -0.050146926 0.041591186
0000e0 e2 61 3e 3d dc 1b 21 bd 7a 8c 3e bd a4 84 25 3d
       0.046480067 -0.03933321 -0.046520688 0.0404097
0000f0 cf 69 66 bd ec f6 a0 bd 04 f8 e8 bc ea f0 91 bd
       -0.05625325 -0.078595966 -0.028438576 -0.07126029
000100 2c 42 75 3c 8d 0f 0b bc 21 b9 b5 3c fb d6 0b 3d
       0.01496939 -0.008487594 0.022183003 0.03414057
000110 e5 e0 94 b9 f8 ca 85 3d c7 da 9f 3d 41 3b b8 3c
       -0.0002839632 0.06532854 0.078054 0.022489192
000120 6a d6 20 3c 20 9a 91 3d 69 58 cf bc f7 26 71 bd
       0.009816745 0.07109475 -0.025310712 -0.05887505
000130 55 8f 2c bd 8b e4 60 bd 4d 16 16 bb 13 ba 4f bd
       -0.04212888 -0.054905456 -0.0022901476 -0.050714564
000140 73 93 5b 3d c5 90 80 3d ed bf 2d bc 22 d2 10 3d
       0.053607415 0.062776126 -0.010604841 0.03535665
000150 e9 06 12 bd 7e d6 31 3c 4b 9a dc 3c c2 ea bb 3c
       -0.03565112 0.010854362 0.026929041 0.02293909
000160 23 bf 99 bd bc 5e fc 3c 40 44 37 bd b8 dc 0b bd
       -0.075071596 0.030806892 -0.044742823 -0.03414604
000170 1c ae a7 3d 06 9d 46 3c 37 72 0b bd f9 3e 72 3d
       0.081875056 0.012122398 -0.03404447 0.059142087
000180 59 e0 a6 3d b2 3c bb 3d 4c 2a 11 bd d9 8e 85 3e
       0.0814826 0.09142436 -0.035440728 0.26085547
000190 a3 f5 55 bd 41 27 89 bd a8 83 a3 bc 72 bb 31 bd
       -0.05223621 -0.0669694 -0.01996024 -0.043391652
0001a0 a4 87 d0 bc f3 76 9a bc af d2 a2 3c ab 69 74 3d
       -0.025455303 -0.018855548 0.019875852 0.059671085
0001b0 23 2c 10 3d 38 b7 30 3d fa a9 f7 3c 1d a2 e7 3c
       0.035198342 0.04314348 0.030232418 0.028275544
0001c0 68 8d d4 3c 9c ea 3b 3a c6 49 95 bc f7 96 4b bc
       0.025946334 0.00071684434 -0.018223654 -0.01242613
0001d0 27 6f 70 3c 1e 66 bd bc 38 7c d4 bc e9 4a 80 bc
       0.014674938 -0.023119982 -0.025938138 -0.01566072
0001e0 b7 ae 80 3d 2c e6 9e 3d f4 4a 36 3d fc a6 6c bc
       0.06283324 0.077587456 0.044505075 -0.014444109
0001f0 c8 50 91 3c 98 45 00 bd 4e 33 97 bd 06 bf f3 bc
       0.017738715 -0.03131637 -0.073828325 -0.029754173
000200 6e 71 6f bb 7a b9 ca 3c 11 dc 94 3d 92 3c 3c 3b
       -0.0036536115 0.024746645 0.07268537 0.0028722626
000210 69 88 95 bd 7e 7b 01 3d d3 dd 82 3d 76 ff cb bd
       -0.07301409 0.031611912 0.06389966 -0.09960835
000220 58 5f 0c be 80 a8 68 bd 66 fb f6 3b d4 49 d2 bd
       -0.13708246 -0.05680132 0.0075372932 -0.10267988
000230 e7 cd 11 bc e3 1b 0a bb 45 5f a1 bc 27 9a 58 bd
       -0.008899189 -0.002107375 -0.019698748 -0.052881386
000240 dc 3f 52 3c 20 03 f7 3c ae 35 49 bc 9a d6 26 3c
       0.012832608 0.030152857 -0.012280865 0.010183001
000250 67 9f 57 3a 8b 08 37 3b 15 73 8f bc eb 06 09 3d
       0.0008225352 0.0027928676 -0.01751093 0.033453863
000260 b9 1a a2 bc 97 33 73 3d 38 fc c2 bc b7 40 9f 3c
       -0.019788133 0.05937537 -0.023801908 0.019440038
000270 49 56 c1 bc 8d 26 8e bd 32 5e 80 bd ca 4d 49 bd
       -0.023600714 -0.06940947 -0.06267966 -0.04914645
000280 dd ee b4 3c 1f 4c eb 3c 70 ee 4f bb 7e 22 f8 3c
       0.022086555 0.02872282 -0.0031727813 0.030289885
000290 3a f5 86 3d d8 27 c8 bc 9d 03 ea bc 64 cc a4 bd
       0.06589742 -0.024433061 -0.028566176 -0.08046797
0002a0 35 ff 15 bd cf 2b b2 bc 13 06 57 3d 4d e1 b5 3c
       -0.036620338 -0.021749405 0.052496027 0.022202158
0002b0 1f ef 9e bc 29 38 21 bc 18 2e 4d bd 62 ba a9 3c
       -0.019401131 -0.00984005 -0.050092787 0.020718757
0002c0 ba c8 86 bd 61 9f 4a 3c 32 27 97 bc 0a d5 5e 3c
       -0.06581254 0.0123671 -0.018451307 0.013600597
0002d0 9c e9 bb bb 03 a9 3f bd f3 53 ac bc 1c ac f1 bc
       -0.0057346355 -0.04679204 -0.021036124 -0.029501013
0002e0 8c 67 5b bb f0 4b 0c 3d 5e 15 31 3d 53 58 9c 3c
       -0.0033478467 0.034252107 0.043233268 0.019085085
0002f0 72 0d 3a 3d 38 34 92 3d 28 6c 3e bd 19 9e 11 bd
       0.04542298 0.07138866 -0.046489865 -0.035551164
000300 6a 30 89 bd d4 25 0f 3c b7 c8 8a 3c 05 25 82 3d
       -0.066986874 0.008737046 0.016941411 0.06354717
000310 da 95 7c 3d c8 99 d9 3c bb 2b aa 3d 24 7c ae 3c
       0.061666347 0.026562586 0.08309122 0.02129943
000320 a1 b6 b7 3d 23 2c 96 3c c1 ce e8 3c cd 00 f3 3c
       0.089703806 0.018331593 0.0284189 0.029663468
000330 78 ef 93 3c d1 07 12 bc a6 58 20 bd 73 1c c8 bd
       0.018058524 -0.008912996 -0.03914704 -0.09771051
000340 cf e9 b3 3c 0c 52 04 be 23 d9 b7 bd e3 5d 86 bd
       0.021962075 -0.12921923 -0.089769624 -0.06560876
000350 c9 92 5e bd 11 46 87 bd 96 03 64 3d 10 a4 85 3d
       -0.054339204 -0.06605161 0.055667482 0.06525433
000360 4f 2f c8 3c f8 fc 65 3c 61 9d c1 bb 30 2b c6 ba
       0.024436621 0.014037363 -0.0059086536 -0.0015119072
000370 4f e3 64 bd bd 5c fe bc d5 24 dc 3c e0 e2 fe bc
       -0.05588084 -0.03105008 0.026873032 -0.031114042
000380 f3 6a 93 3d d0 1e 17 3c ef 35 48 3d 05 da 39 3d
       0.07198133 0.009223655 0.04887956 0.045373935
000390 50 8d 7e 3d 8b 18 b7 bc 6e 02 75 3c eb 91 a3 bc
       0.062146485 -0.02235057 0.014954193 -0.01996704
0003a0 df f9 1c 3b 90 b9 c0 3c c1 e3 fc bc ba 17 84 bb
       0.0023952646 0.023525983 -0.03087032 -0.0040311487
0003b0 d6 9d ca 3c 3f 64 cb 3b 15 cd b7 3c 7a b1 90 ba
       0.024733465 0.0062070186 0.022436658 -0.001103922
0003c0 57 ec b1 bc 1b 78 63 3c 7a a1 6e bd 15 2b a9 3d
       -0.021719141 0.013883616 -0.058259465 0.0826017
0003d0 76 91 85 bd 3a 43 c1 3c 44 b1 94 3d fe de b0 3c
       -0.06521885 0.023591626 0.07260373 0.021590706
0003e0 d8 02 a5 bd a5 1f 9a 3c 3c 49 b5 bc d0 b7 c6 3c
       -0.08057183 0.018813917 -0.022129647 0.02425757
0003f0 13 0d ef 3c 50 03 11 3c 93 38 8a ba 3a 23 2a 39
       0.029181039 0.008850887 -0.0010545425 0.00016225586

bias f4 [2048]
000000 6b 87 4d 3d 6e e5 28 3e e1 45 32 bd a2 81 37 3c
       0.050177973 0.1649377 -0.043523673 0.01120034
000010 45 73 e9 3d 65 f9 79 bd 2d 5a 65 3e 01 42 52 3e
       0.11398939 -0.061028857 0.2239768 0.20532991
000020 90 a3 9a bd 54 60 40 bb 99 9a d5 3d 08 14 16 bd
       -0.07550728 -0.002935429 0.10429878 -0.036640197
000030 c9 38 43 3d 88 95 09 3d 5a 37 07 be a7 83 81 3d
       0.047661576 0.03358987 -0.13204709 0.06323939
000040 91 74 83 3e b8 41 61 3e fc 6c 53 3e da 54 52 3d
       0.2567487 0.21997726 0.20647043 0.051350452
000050 9c 7f 5c 3c 5f 97 a7 bc e6 c1 f2 3c 30 b7 71 bd
       0.013458159 -0.020457922 0.029633474 -0.05901259
000060 e0 3a e3 bd 9e 4f 02 bd 75 f1 7d 3d f0 b7 27 bc
       -0.11095214 -0.03181421 0.06199785 -0.010236725
000070 b5 ff 54 bc dc af 92 3e be a0 5a 3e ee e2 61 3d
       -0.013000418 0.28649795 0.21350381 0.055148058
000080 a6 37 87 3e fd af 34 bd 31 36 65 3e 25 53 fb bc
       0.26409644 -0.044113148 0.22383954 -0.030679295
000090 dc 14 ea bc 99 82 c9 3d 29 95 9b 3e 99 2f 7b bc
       -0.0285744 0.09839363 0.30387238 -0.015331172
0000a0 f4 82 91 bd c1 6a dd bc 6e 54 38 3e a2 86 5b bd
       -0.071050555 -0.027028443 0.18000957 -0.053595193
0000b0 b3 16 87 3e 70 d2 52 3e f2 d7 3b 3e 1f 15 2f bc
       0.26384506 0.20588088 0.18344095 -0.010686188
0000c0 5d f9 18 bc 73 04 80 3e b6 5c 65 3e d9 2b d4 3d
       -0.009336797 0.25003394 0.22398648 0.10359926
0000d0 18 ba 91 3e 60 54 2d bd 01 c7 e3 bc b7 a7 9c bd
       0.2846229 -0.042316794 -0.027804853 -0.076491766
0000e0 a9 63 59 3e 5a fa 38 bd f9 e2 0c bd 23 99 b5 3d
       0.21229424 -0.04516063 -0.034396145 0.08867099
0000f0 6b f9 47 3e 5a 83 ca 3d d5 2a 1f bd 24 f8 f4 3b
       0.19528739 0.098883346 -0.038859207 0.0074758697
000100 4a a3 42 bd 87 fa 1d bd c9 c6 9d bc 8b 81 80 3e
       -0.047519006 -0.038569 -0.019259827 0.25098833
000110 70 f7 97 3d 33 21 c3 3d de 12 3d bd 01 5c 16 bd
       0.07420242 0.095278166 -0.04616057 -0.036708836
000120 1f 62 4b bd d7 51 af 3d 1b f5 de 3d 81 f6 99 3e
       -0.049654122 0.085605316 0.10886594 0.3007088
000130 57 a2 f1 3c c6 e8 90 3c 96 69 79 3e 9f 2f a8 3d
       0.029496355 0.01768912 0.24356684 0.08212208
000140 56 32 a5 3e 39 e1 9f 3e ee 2b 4c 3e 9e ec 6d 3e
       0.32264966 0.3122652 0.19938633 0.23234794
000150 f7 a2 46 3e 18 89 53 bc 99 ae e8 3c df 20 a2 bc
       0.19398104 -0.012911104 0.028403567 -0.019791065
000160 a5 6f 7f bd 24 bf f1 3b 5c a0 e6 3c cb 74 56 bd
       -0.062362332 0.007377522 0.028152637 -0.052357476
000170 db 02 97 bc 9a 9b f5 bc 1b 76 6f 3e 49 a2 17 3e
       -0.018433979 -0.029981423 0.23384897 0.14808
000180 bf 3f a9 3b 0a 57 17 bd 37 ba 3f 3d c1 11 10 3d
       0.00516507 -0.03694824 0.046808448 0.03517318
000190 8d 06 49 3e 29 82 06 3d 76 93 24 bd 22 60 79 bd
       0.19631405 0.032838974 -0.040179692 -0.060882695
0001a0 5b 89 1e be de 17 21 bd 8b 48 2d 3e 28 15 59 bd
       -0.15482084 -0.039329402 0.16922204 -0.05299869
0001b0 ff 98 23 3e 89 e0 f6 bc 91 84 83 3e 47 10 a2 3e
       0.15976332 -0.030136364 0.25687078 0.31653044
0001c0 88 0a 7c 3d 18 41 63 3d bc 0d 8a 3e 53 64 5b 3e
       0.06153348 0.055482 0.26963603 0.2142499
0001d0 31 fb 6b 3e c4 42 8c bd c3 af 5b 3e 26 21 4f bd
       0.2304504 -0.06848672 0.21453767 -0.050568722
0001e0 09 0e 75 3e 99 49 11 3d 9d 66 6e 3e d1 05 9d 3d
       0.23931135 0.03547058 0.23281331 0.07667125
0001f0 58 9d ab bc 5c fd 2f bd aa 05 96 3c 7c fb b0 3d
       -0.02094905 -0.04296623 0.018313248 0.08641717
000200 1b c8 83 3e 66 37 59 3e c7 e8 9d bb 15 91 47 3e
       0.25738606 0.21212539 -0.004819009 0.19488938
000210 91 90 68 3e bb c5 73 3d 16 83 2e bd be 10 8c 3e
       0.22711398 0.059514742 -0.042605482 0.27356523
000220 23 89 4b 3e 9d db 60 3e 07 6b 9c 3e 46 1e 82 3e
       0.19876532 0.21958776 0.30550405 0.25413722
000230 46 70 4a be eb 79 17 bd 4d 80 14 bd fd 86 06 bc
       -0.19769391 -0.036981504 -0.03625517 -0.008210895
000240 f0 4d 3a 3e 8a 0a 71 3e ea f6 b3 3d 19 f7 9a 3d
       0.18193793 0.23539177 0.087873295 0.075666614
000250 6e 58 8b 3e 48 13 a5 3b da ab c2 bd 65 d5 37 bd
       0.27215904 0.005037699 -0.09505434 -0.044881243
000260 7e 83 5b 3d b6 ef 9b 3c ec e5 9a 3e 96 8d 11 bd
       0.053592198 0.019035202 0.3025354 -0.035535417
000270 c5 21 41 3c 5f da 4e 3d 9d ee 1c be e9 43 15 bd
       0.011787836 0.050501224 -0.15325399 -0.036441717
000280 b6 46 74 3e 14 d5 82 3d cc fa 23 3d d5 ba 98 3e
       0.23855099 0.06388298 0.0400341 0.29830042
000290 e3 58 8f 3e 86 c9 f0 bc d3 ec 16 be ba 22 db 3c
       0.27997503 -0.029392969 -0.14738779 0.026749957
0002a0 96 44 47 bd 37 52 44 3e fe fe 08 3d e6 f8 3a bd
       -0.048649393 0.19171987 0.033446305 -0.045647524
0002b0 78 2e 0a be cb 23 b5 bd e2 e9 98 bd 04 db 35 3e
       -0.13494289 -0.088447176 -0.074664846 0.17759329
0002c0 27 79 32 3c 18 40 99 3e 4c 2e 4e 3e 97 be 26 3e
       0.010893143 0.29931712 0.20134848 0.16283642
0002d0 3a 78 95 3e 8b 8b 30 3e cf fd 80 bd 9c 0b c1 bc
       0.29193288 0.17240731 -0.0629841 -0.023565106
0002e0 55 8a a2 bc 59 bd 82 bd bc 99 a6 bd 16 5a 1d 3e
       -0.019841352 -0.063837714 -0.08134791 0.15366396
0002f0 a0 8b 0d bd 29 f3 92 3e 57 ac b3 bc 96 ec 4d 3e
       -0.034556985 0.2870114 -0.021932764 0.20109782
000300 55 7a b5 3d f7 fd a5 3e 2c d1 88 3e ff ae 10 be
       0.088612236 0.32420322 0.26722085 -0.14129256
000310 72 f2 04 3d 8b f7 83 bd bd e3 cc bc 29 bc d5 3d
       0.032457776 -0.064436994 -0.025010938 0.10436279
000320 e0 0b e6 bd 11 ab 05 bc 39 0a 92 3d cf e6 2a 3e
       -0.11232734 -0.008158461 0.07130856 0.16689609
000330 b7 ee 85 3d b3 96 07 3d c7 4d 02 3d 3f 74 9c 3d
       0.06539672 0.033102702 0.031812456 0.0763936
000340 67 1f 91 bd 32 6b 15 3d e4 8a f6 3c d6 7c 13 bd
       -0.07086068 0.036479183 0.030095525 -0.036007725
000350 91 dc 86 3d fc 16 42 bd b1 36 71 3e f3 71 5d bd
       0.065850385 -0.0473852 0.2355602 -0.05406375
000360 24 a3 71 3e c6 40 b8 bc ce dd 79 3b 79 d9 21 be
       0.2359739 -0.022491824 0.003812659 -0.15805615
000370 0c e9 8d bd d9 69 2f 3e 50 ea 30 3e d3 44 8b 3e
       -0.06929216 0.17130221 0.17276883 0.27200946
000380 be 3d f6 3c 7d 24 2c 3e dd aa 3d 3e c4 e2 87 3d
       0.030058738 0.16810794 0.1852221 0.06635049
000390 03 45 52 bd ab cf d3 bd c9 6a 00 3e 42 3e cd bc
       -0.051335346 -0.10342344 0.12540735 -0.0250541
0003a0 8d 36 e4 bd 20 e6 dd 3a 73 08 47 bc 94 67 71 bd
       -0.11143217 0.0016929545 -0.012148011 -0.05893667
0003b0 59 ab a6 3d c3 83 bb 3d ef bc a0 3c 60 05 9b bd
       0.08138151 0.09155991 0.01962134 -0.075693846
0003c0 eb 40 b2 3d 06 c1 fe bc 1c 0f 9e 3e 0b cc 17 3e
       0.08703788 -0.0310979 0.30870903 0.1482393
0003d0 53 29 89 3e ea 8d b2 3d af a3 31 bd f7 a5 4f bc
       0.2678934 0.08718474 -0.04336899 -0.012673846
0003e0 a8 2b 8d bd 93 0a 39 be a0 f2 56 3d 62 8c 07 3e
       -0.068930924 -0.1807044 0.05247748 0.13237146
0003f0 de 2b 51 bd e1 7a fa 3d 6f 17 03 be 86 15 30 bd
       -0.051067226 0.122304685 -0.12801908 -0.042989276

weight f4 [10, 2048]
000000 63 9f 54 3c 5f 37 59 bb e5 8a 29 3d 35 b8 59 bc
       0.012977454 -0.0033144576 0.041392226 -0.013288547
000010 5d 16 9c bd 4f 51 0a 3d fe 9a 94 bd bc f4 37 bd
       -0.07621453 0.03376895 -0.07256125 -0.04491113
000020 55 44 0f 3d 28 99 72 bd 50 78 9c bd c5 0a 86 3c
       0.034977276 -0.059228092 -0.07640135 0.016362557
000030 04 47 ae bd 4a 90 11 3e f6 d9 43 3c 65 d0 59 bd
       -0.08509639 0.14215198 0.011953821 -0.053177256
000040 69 e4 6f 3c 8b cc f7 bc a4 b4 96 bd ac e8 09 bd
       0.01464186 -0.0302489 -0.07358673 -0.03366916
000050 b5 6c ef 3d d2 03 3f 3b 56 f9 26 bc e5 16 53 3c
       0.11690656 0.0029146564 -0.010191282 0.012883876
000060 57 94 98 bd 99 78 ca 3c 75 2e e5 bc b8 ca 63 bd
       -0.074501686 0.024715709 -0.027976254 -0.05561325
000070 c6 f9 22 3d 67 7f 9e bc 21 48 41 bd 27 ac 6b 3d
       0.039788984 -0.01934786 -0.047187928 0.057537224
000080 a4 d7 02 bd 70 cc a8 bb fd 13 64 bd 8f 72 0f bd
       -0.031943932 -0.005151324 -0.055683125 -0.03502136
000090 8a 04 34 ba 6e 90 1f bd 5a b7 0e bd 59 cf 9e 3b
       -0.00068671315 -0.0389561 -0.034842826 0.004846495
0000a0 c5 a5 8d bd 75 4a 17 bd 92 88 5f bd 3a b1 fa b9
       -0.06916384 -0.036936242 -0.054573603 -0.0004781576
0000b0 2d a5 61 bd cb 42 88 39 e3 95 bd 3b 82 1e 28 b7
       -0.055089165 0.00025989706 0.00578569 -1.00206835e-05
0000c0 b1 17 7e bc 45 e7 6f bc e9 46 76 bd f7 84 93 bc
       -0.015508578 -0.014642541 -0.06012622 -0.018007739
0000d0 c5 c5 d1 bc 74 70 2b 39 0d 09 0f 3c 29 3d 42 bd
       -0.025607 0.00016349723 0.008730185 -0.047421608
0000e0 66 79 6b bd f1 9e 12 bd ef 86 3d bc 34 7b 80 bd
       -0.05748882 -0.03579611 -0.011567815 -0.06273499
0000f0 54 fd a4 bd 60 f6 83 3c 9e 33 97 3d 6e fb be bd
       -0.08056131 0.016108692 0.07382892 -0.093253
000100 43 86 37 bd f3 8c 0d bd da 01 b4 3b 09 d7 3f bc
       -0.044805776 -0.034558248 0.005493385 -0.011708983
000110 41 11 26 bc d1 98 e5 ba c8 f0 0f 3d 49 cd de bb
       -0.01013595 -0.0017516856 0.035141736 -0.0067993742
000120 ee 45 47 bd d5 77 fd 3d 6e c2 d0 bc 75 c4 7d bd
       -0.048650675 0.12376372 -0.025483336 -0.061954934
000130 c1 19 2d 3d c9 2c 95 bd 3a 18 45 bd a5 b3 41 bc
       0.04226089 -0.07283933 -0.048118807 -0.011822616
000140 20 e1 89 bd 4b ff 0a bd 99 4a 08 bd 06 a7 17 bd
       -0.06732392 -0.033934873 -0.033274267 -0.03702452
000150 46 ca b4 bd d7 4b cc 3c 27 b2 13 bd bd 19 3b 3d
       -0.08827643 0.024938507 -0.03605857 0.045678843
000160 6a 2d 9e bd 98 90 ab bc 49 59 21 bd e5 85 46 bd
       -0.07723506 -0.020942971 -0.03939179 -0.048467536
000170 d1 54 1b 3d 0d 12 41 35 d3 32 52 bd 3f 8b e6 bc
       0.037922684 7.192437e-07 -0.051318 -0.02814257
000180 aa 71 0f bd 9e 9b 3f 39 20 5c 35 bd 5b 25 f3 bc
       -0.035020508 0.00018273151 -0.04427731 -0.029680898
000190 92 d8 af bd a6 16 dd bc 6e bb 91 37 99 4a 05 3d
       -0.085862294 -0.026988339 1.7372626e-05 0.032541845
0001a0 23 a1 ae 3c 34 f9 e4 bb b9 8e bb bc 37 23 f9 3c
       0.02131707 -0.006987715 -0.022895204 0.0304123
0001b0 13 b2 41 bd c1 fa 19 3c 78 00 44 3c 9d a7 aa bd
       -0.047288965 0.009398163 0.011963002 -0.08332751
0001c0 15 f4 a8 bd 09 05 49 bc f8 74 58 bc 2b e1 57 bd
       -0.0824968 -0.012269267 -0.013211481 -0.05270497
0001d0 75 27 8b bd 7e 54 00 b7 1d 07 32 bd 9d f0 e5 3c
       -0.06794635 -7.649067e-06 -0.043463815 0.028068835
0001e0 b4 97 59 bc da 2d f6 bc 29 b6 df bc 2e 8c d3 3b
       -0.013280798 -0.03005116 -0.02730854 0.0064559197
0001f0 9a 37 68 bd 99 82 2b 3d 76 b3 36 bd 50 7d 96 bd
       -0.05669365 0.041872595 -0.04460474 -0.0734812
000200 5d 21 7a bc 4f 93 54 3c e0 d3 29 3d 80 5f 68 3c
       -0.0152667435 0.012974574 0.041461825 0.014182925
000210 8e 8d 23 bd 4c bb 05 3d ec 52 02 bd 3c 72 77 bd
       -0.03992992 0.032649323 -0.03181736 -0.060411677
000220 64 1e 64 bd dc da 1f bd 7e e4 65 bd 09 2b b2 bd
       -0.055693045 -0.03902708 -0.05612611 -0.086996146
000230 db c5 9a bc 5e f3 e2 bc 90 ae 7e 3c 70 82 25 bd
       -0.018893173 -0.027703937 0.015544549 -0.040407598
000240 12 05 b5 bc 18 7c bc bd 99 b3 a7 bd af af f5 3b
       -0.022097144 -0.092033565 -0.081885524 0.0074977498
000250 f3 53 09 bd d7 71 86 bd fc c1 10 bd 4b 5a 59 bd
       -0.033527326 -0.06564682 -0.035341248 -0.053064626
000260 bc f5 05 bd e9 1c 02 3c d2 a9 7b bd b1 10 9b bc
       -0.032705054 0.007941463 -0.06144125 -0.018928858
000270 20 66 50 bd 9e 34 5f bb e3 77 0c bd 10 e3 ad bc
       -0.050878644 -0.0034058462 -0.03429402 -0.021226436
000280 1d 85 a2 bd fe f0 78 3c e1 83 90 bc 42 50 7e ba
       -0.079355456 0.015194176 -0.01764101 -0.00097012904
000290 11 f2 e9 3a 09 f0 c2 3c 06 bc 18 bc 6f 09 f7 bc
       0.0017848631 0.023796098 -0.009322172 -0.030155865
0002a0 08 ad 3e bd b3 79 e3 bc 4b 87 ba bc bc 76 e6 3c
       -0.046551734 -0.027767992 -0.02276959 0.028132789
0002b0 ef 42 37 3b af 72 55 bc 8b a4 07 bd c1 ab 42 bd
       0.002796348 -0.013027831 -0.033115905 -0.04752708
0002c0 0f d8 d0 bc 4d 9f 9d bd 75 8f 79 3c 2a 43 83 bd
       -0.02549365 -0.076964 0.015231957 -0.06409295
0002d0 5a 56 1d bd 9c da 43 bd 18 54 e0 3c 65 76 62 bd
       -0.03841243 -0.047815904 0.027383849 -0.05528869
0002e0 12 03 cb 3b a2 0d 71 bc 55 dd 79 bb 31 27 71 bd
       0.0061954344 -0.014712723 -0.003812631 -0.058875266
0002f0 78 d2 86 3b 2f f9 8b 3c 58 0c 27 bc c0 c3 cf bc
       0.0041144453 0.017086593 -0.010195814 -0.025361896
000300 9f 2d a2 bd 56 45 7e bd 74 9f 9a bc 9e 37 34 bc
       -0.07918858 -0.062077843 -0.018874861 -0.010999588
000310 fc a2 f0 3c 4a 54 96 bc 65 80 88 3c ef 23 ba bb
       0.029374592 -0.018350739 0.016662786 -0.005680553
000320 5e 32 3c 3a 1f 68 d7 bc 13 2b 8a bd b0 e0 87 bc
       0.0007179136 -0.026294766 -0.06746497 -0.016586632
000330 24 d5 2e bd 47 93 71 bc 59 f9 4d bd 4b bf 98 bd
       -0.042683735 -0.014744586 -0.050286625 -0.07458361
000340 e4 59 da bc 67 93 08 bc 40 24 ad bd 2b 1a 80 3c
       -0.026654191 -0.008335925 -0.0845418 0.015637478
000350 b6 8c 60 bd 31 3c 5c 3d 36 27 2e bd 48 8d 45 3d
       -0.054821692 0.05376834 -0.042517863 0.04823044
000360 46 ee 9b bd 48 55 60 b8 2b f1 a6 bc 55 85 c2 36
       -0.076138064 -5.3485186e-05 -0.02037867 5.7971724e-06
000370 49 1b 88 bc 04 b5 80 bd 3b 6a 68 bd 34 2f 19 bb
       -0.016614573 -0.06284526 -0.056741934 -0.0023374083
000380 9c e7 b9 bd a6 3b 03 bd 2f b3 4b bd 33 e5 51 3c
       -0.09077379 -0.032039307 -0.04973143 0.012810993
000390 1c 4a 29 bd ed 9d 7f bc 86 b9 45 bd fb 5d 1b bd
       -0.04133044 -0.015601617 -0.048272632 -0.037931424
0003a0 d0 92 43 3c c6 25 49 3d 5a 2c 9f bc 92 51 55 bd
       0.011936858 0.04910829 -0.019430328 -0.052079745
0003b0 86 c2 b5 bd ac 94 78 bc 26 a4 bc bd 83 cb 84 3c
       -0.08874993 -0.015172165 -0.09210996 0.016210323
0003c0 a9 a7 57 3c 5c dd fc 3a 0d 0f 75 bc 1f b2 38 bd
       0.013162532 0.0019292044 -0.014957202 -0.045091745
0003d0 56 ff a2 3b a5 c5 ac bc 4f f5 31 bd a8 67 21 bb
       0.004974286 -0.021090338 -0.043446835 -0.0024628434
0003e0 c7 3b 9b 3d 7d ad 2b 3b 21 80 b9 bc df d7 e9 3b
       0.07579761 0.0026195936 -0.022644104 0.0071363295
0003f0 dd 00 0e bc 19 cb 2c bd 98 1b d5 bc 19 80 05 3d
       -0.008667198 -0.042185877 -0.026014134 0.032592867

bias f4 [10]
000000 6d a2 04 bd 28 35 ff bc d3 77 b0 3c 76 e7 40 bd
       -0.032381464 -0.031153277 0.021541512 -0.04709574
000010 11 36 07 3d 1a ab 11 bd af bd 9f bc 56 ee 99 39
       0.033010546 -0.035563566 -0.019499628 0.00029360008
000020 b9 d9 3e 3d 27 2b 8b bc
       0.046594355 -0.01698835

weight f4 [10]
000000 f3 4b 83 3f c8 a1 83 3f 16 13 78 3f bb 25 79 3f
       1.0257553 1.0283747 0.9690412 0.973232
000010 95 59 86 3f ee 48 78 3f f1 fc 77 3f d7 f0 80 3f
       1.0496088 0.9698628 0.9687033 1.0073498
000020 01 29 83 3f 1a 44 78 3f
       1.0246888 0.96978915

bias f4 [10]
000000 0a 3d 10 bd c1 93 0c bd 66 61 fe 3c 35 af af bc
       -0.03521446 -0.034320597 0.031052303 -0.02144585
000010 44 c4 5f 3d d9 57 49 bc 89 73 d9 bc 87 3e 5b 3c
       0.054630533 -0.012289011 -0.02654435 0.013381607
000020 30 a2 d5 3c 82 34 1c bd
       0.026078314 -0.038136013

weight f4 [10]
000000 ec 63 82 3f 8a 4e 7f 3f 0a 43 79 3f d6 0d 87 3f
       1.0186744 0.99729216 0.9736792 1.0551097
000010 06 05 8e 3f 9b df 71 3f e4 78 73 3f 6d 8a 75 3f
       1.1095283 0.9448182 0.9510634 0.95914346
000020 5e d9 81 3f cb 9b 7e 3f
       1.014446 0.9945647

bias f4 [10]
000000 44 d5 1d bd 47 ed 51 bd 43 0c 33 3d 1c 43 d5 bd
       -0.038533464 -0.051251676 0.043712866 -0.10413191
000010 3d a4 c6 3d b9 61 26 3d 39 46 0e bc 6c 64 71 bd
       0.09699295 0.04062054 -0.008683735 -0.05893366
000020 35 23 07 3c 9e a7 67 bd
       0.00824814 -0.056556337

weight f4 [10]
000000 87 13 7a 3f c8 fe 73 3f f7 80 74 3f fd 5f 6a 3f
       0.97686046 0.9531064 0.95509285 0.91552716
000010 67 51 7d 3f db 2b 6e 3f 44 36 71 3f 09 b7 74 3f
       0.98952335 0.9303567 0.9422343 0.9559179
000020 4e dd 80 3f 46 30 69 3f
       1.0067537 0.91089284

bias f4 [10]
000000 4b 6d ee 3a 3c ab c1 b9 e2 2f aa 3c 64 b8 02 bc
       0.0018190531 -0.00036939408 0.020774785 -0.007978532
000010 85 50 1e 3d 6b d1 0c 3d b4 92 5e 3b d4 b1 30 bd
       0.03865101 0.034379404 0.0033961954 -0.04313834
000020 c6 ea a8 ba 21 70 89 bc
       -0.0012887351 -0.0167771

in_proj_weight f4 [30, 10]
000000 68 1c 2b 33 ed 7e cb 3a 9b d2 92 b8 5e 03 4b b8
       3.9839875e-08 0.0015525498 -7.001051e-05 -4.8402107e-05
000010 b4 f0 21 b6 20 41 1b 38 81 95 ac 36 07 af 8e b7
       -2.4130977e-06 3.7015532e-05 5.143404e-06 -1.7009223e-05
000020 31 fa c7 3a 60 e2 63 38 fb 30 49 b7 80 5e d5 35
       0.0015257058 5.4331846e-05 -1.1991938e-05 1.589724e-06
000030 8c 81 99 38 02 9a 06 39 bf 0e 02 37 b4 37 d7 39
       7.3197385e-05 0.00012836608 7.752037e-06 0.00041049498
000040 6a 60 87 b6 9d e8 a9 38 7d 36 e4 b8 e5 8d aa 39
       -4.0345376e-06 8.1018756e-05 -0.000108820364 0.00032530646
000050 b5 bd 7d b8 83 73 08 b9 68 c1 9e b5 0c 16 fc ba
       -6.049658e-05 -0.00013013002 -1.1828206e-06 -0.0019232645
000060 3c 26 5f 38 fb 15 76 b6 0c 78 b1 b9 60 68 84 b8
       5.320295e-05 -3.666965e-06 -0.00033849513 -6.313692e-05
000070 c0 1b e9 b8 70 45 db b8 fd 8d 14 38 2b 3f 2f b6
       -0.000111154746 -0.000104556675 3.5418187e-05 -2.61138e-06
000080 03 63 96 38 39 3b 09 b9 ed 72 9f 38 f2 6c 6b b8
       7.171e-05 -0.000130874 7.6031174e-05 -5.612983e-05
000090 da fb bc b6 75 18 9d 38 dc f4 de 39 5f b5 43 b7
       -5.632156e-06 7.490899e-05 0.00042525574 -1.16651345e-05
0000a0 cb 54 24 36 f3 e1 05 38 ee 37 8a 38 e6 55 5d b8
       2.448726e-06 3.1920103e-05 6.5907705e-05 -5.2770505e-05
0000b0 ee 42 f6 b8 d6 09 db 36 48 5f b0 b7 52 63 4a 38
       -0.00011742661 6.5278537e-06 -2.1025204e-05 4.8253052e-05
0000c0 ae c9 6b 37 8a 37 2e 3a b5 b6 9f 38 63 74 17 38
       1.4054049e-05 0.0006645849 7.615743e-05 3.61096e-05
0000d0 e4 22 05 b7 62 86 a1 b8 c9 4d 58 ba f8 5d 5c b6
       -7.935541e-06 -7.702109e-05 -0.0008251337 -3.2837252e-06
0000e0 08 08 57 38 fd 6e d6 39 c8 6d e1 b8 e1 37 d2 36
       5.1267474e-05 0.00040899953 -0.000107492844 6.264993e-06
0000f0 22 4d 04 3a 7f 89 36 b9 b1 11 8b 37 f8 ca 08 37
       0.0005046894 -0.00017408094 1.657833e-05 8.153489e-06
000100 97 64 04 b8 eb 61 c0 b9 41 6a cf 39 54 2e 08 b9
       -3.1564934e-05 -0.00036694048 0.00039561282 -0.0001298723
000110 df 10 8e 39 7f 00 03 b8 38 03 9d 36 d1 de 1b 3b
       0.0002709692 -3.1233296e-05 4.6793393e-06 0.0023783932
000120 70 bc d6 37 ee 45 83 b5 67 30 d2 39 71 b0 8d b9
       2.5598536e-05 -9.780613e-07 0.00040090384 -0.00027025075
000130 18 6a 50 38 7e d4 95 b9 76 fb 97 37 bd 17 d1 b9
       4.9689872e-05 -0.00028577814 1.8117698e-05 -0.00039881273
000140 3c 2f 8f 38 38 39 f5 ba 0b e8 5b 38 e6 7f 2a b9
       6.8275695e-05 -0.0018709069 5.2429776e-05 -0.00016260109
000150 26 27 98 38 c4 b9 96 b6 60 2c cd b7 91 f3 34 39
       7.255217e-05 -4.4919743e-06 -2.4458568e-05 0.00017256873
000160 18 98 8c 38 8d a1 88 b8 65 87 32 b6 bf e5 71 39
       6.70405e-05 -6.5150765e-05 -2.6602877e-06 0.00023069138
000170 be 51 02 39 cc 0f 72 b8 63 74 dc 37 ff dc 61 b9
       0.00012428217 -5.7712008e-05 2.628024e-05 -0.0002154
000180 9c 3c 73 33 78 0f 64 b9 ed 7c a7 b7 24 63 d9 39
       5.663297e-08 -0.00021749537 -1.9966124e-05 0.0004146333
000190 9c 2e 62 37 fe 85 14 37 20 88 89 b3 60 33 59 37
       1.3481502e-05 8.852685e-06 -6.4043206e-08 1.294617e-05
0001a0 45 ff aa b8 8d 12 aa 39 14 65 7e b5 49 8c a1 35
       -8.153779e-05 0.00032438748 -9.476946e-07 1.2036263e-06
0001b0 ce 7e 64 36 57 54 03 b9 2d 9e 9a b8 e9 e4 c5 b8
       3.4048458e-06 -0.00012524553 -7.372755e-05 -9.43633e-05
0001c0 49 09 ec 38 ab e8 e4 b8 d1 7a c5 b4 2e 6a 42 b7
       0.000112550864 -0.00010915225 -3.678347e-07 -1.1588023e-05
0001d0 70 36 67 35 32 38 40 bb 9a 46 6b b7 42 14 4b b8
       8.6133423e-07 -0.002933037 -1.402353e-05 -4.8417838e-05
0001e0 b3 cf 8c 39 43 16 6a ba cc a6 05 b8 f6 b5 a5 ba
       0.0002685763 -0.0008929709 -3.1865013e-05 -0.001264273
0001f0 1f b2 48 37 81 35 9b 37 7a db 88 3a b5 cf e2 37
       1.1962401e-05 1.8502355e-05 0.0010441386 2.703802e-05
000200 f8 f1 e7 b8 70 49 11 38 c8 4e 8c 39 03 74 19 b7
       -0.000110600085 3.4639088e-05 0.00026761577 -9.146522e-06
000210 e7 3d 2d b8 be a3 3a b8 26 e0 b9 35 96 a8 32 36
       -4.1304065e-05 -4.4498353e-05 1.384881e-06 2.6622197e-06
000220 6f e1 a1 b5 c5 b8 4b bb 50 6a b3 39 81 53 fa b6
       -1.2061045e-06 -0.0031085473 0.0003422075 -7.4603017e-06
000230 60 77 46 38 6d e6 03 39 8c 78 bb 39 21 94 9d 38
       4.7318055e-05 0.00012578974 0.00035757234 7.5139345e-05
000240 90 88 1a b6 27 57 de b7 23 ef 13 38 ef e3 f2 b8
       -2.3027278e-06 -2.6505046e-05 3.5270245e-05 -0.00011581915
000250 69 c8 1f 38 77 2c 3f 39 f7 43 0a b8 16 74 06 b9
       3.80952e-05 0.00018231744 -3.296506e-05 -0.00012822481
000260 f2 f2 03 37 a1 09 25 bb 45 24 80 39 ca 66 d2 39
       7.864774e-06 -0.0025182741 0.00024441085 0.00040130905
000270 87 79 8e b8 80 8f 9d 37 93 62 df 37 68 e4 06 b6
       -6.793724e-05 1.878268e-05 2.6629574e-05 -2.0100506e-06
000280 09 f4 ae 38 5d 74 e6 b7 15 87 aa b7 5c 8f 5e b5
       8.342422e-05 -2.7472322e-05 -2.0328482e-05 -8.291006e-07
000290 d5 aa 74 b7 ef 4f f3 38 a2 47 67 39 d4 a9 0a b8
       -1.4583308e-05 0.00011602032 0.00022056562 -3.305993e-05
0002a0 a4 ad 95 b8 83 ae 2b 39 ef c8 0c 38 ba ef 0f b9
       -7.137217e-05 0.00016372841 3.3565735e-05 -0.00013726848
0002b0 95 54 7a b8 90 d9 c1 b7 2f 4d ec 38 00 10 ae 30
       -5.9683418e-05 -2.3108703e-05 0.000112677335 1.2664714e-09
0002c0 7d c2 10 38 d6 47 af b8 6c ca f0 3a 71 0d 77 b8
       3.4513407e-05 -8.358031e-05 0.0018370873 -5.8901907e-05
0002d0 85 94 90 38 c2 e4 52 39 5c ee d6 b7 c6 a5 de 39
       6.894119e-05 0.0002011238 -2.5621783e-05 0.0004246665
0002e0 eb fd de 39 65 80 bd b9 4a 6a 90 b9 30 c6 84 b6
       0.00042532323 -0.0003614455 -0.00027545012 -3.9569786e-06
0002f0 86 df b6 37 b8 50 22 37 7c e3 e1 b8 21 c6 42 b8
       2.1800177e-05 9.674746e-06 -0.00010771208 -4.6437726e-05
000300 b9 8c c5 b6 9d d8 e9 b8 60 61 13 3b 5e 20 d9 b9
       -5.88744e-06 -0.00011150653 0.002248846 -0.0004141358
000310 2d 8f 08 39 5e ab c9 36 84 6c 1d b7 1d 0c 2f b5
       0.00013023308 6.0102166e-06 -9.383195e-06 -6.521021e-07
000320 02 29 4c 3e 5e 40 85 be d3 af 2a be 70 14 ae bb
       0.19937518 -0.2602567 -0.16668634 -0.005312495
000330 26 1f a4 be 92 d9 75 ba a9 8c cc 3e 1f 38 14 3e
       -0.32055014 -0.0009378429 0.39951065 0.14474533
000340 6c fd 7e be 64 1a 92 3e c1 4e 38 3e 4b 06 4d be
       -0.2490136 0.2853576 0.17998792 -0.20021932
000350 cd 63 1c 3e a6 c2 22 be 10 de 62 3d f0 ca 03 be
       0.15272446 -0.15894565 0.055387557 -0.12870383
000360 70 8f 5f 3e 9e d9 69 3d 1a 69 7f be f5 b0 72 3e
       0.21832061 0.0570923 -0.24942437 0.23700316
000370 2e 3b 6f bd 72 81 c4 bd e2 61 13 bd d0 a7 37 be
       -0.058406048 -0.09595002 -0.03598202 -0.17935109
000380 83 08 bc 3d 25 b8 b5 3e b6 c9 f7 3e a2 59 a9 bc
       0.09181311 0.35492054 0.4839608 -0.020672623
000390 2c 77 92 3e b6 ce 25 be c4 32 c7 3e 7a 6f 21 be
       0.28606546 -0.16192135 0.3890592 -0.15765181
0003a0 1b ec 25 be f4 75 a0 be 3b 69 b9 3c 04 a7 30 be
       -0.16203348 -0.3133999 0.022633186 -0.17251211
0003b0 81 a9 06 be e2 d1 da 3c f2 b7 ca 3e be b0 75 3e
       -0.13150598 0.026711408 0.39593464 0.23993203
0003c0 e1 ff 2d bd f4 1e 15 3d 3b f8 95 3d e2 f9 e8 bc
       -0.042480353 0.036406472 0.07322737 -0.028439466
0003d0 3d a8 aa be a7 7b f6 3b a9 14 fc bd 26 0f b5 be
       -0.3333148 0.0075220647 -0.12308628 -0.3536312
0003e0 0e 9a 5e bd 4d 3f 73 3e b3 7a 98 be 9d da 5c 3d
       -0.054346137 0.23754616 -0.29781112 0.053919423
0003f0 1d 9f 8b 3e 09 db 41 3e 41 88 c0 3e 25 95 bd 3e
       0.2726983 0.18931212 0.37603953 0.3702785

in_proj_bias f4 [30]
000000 00 00 00 00 00 00 00 00 00 00 00 00 00 00 00 00
       0.0 0.0 0.0 0.0
000010 00 00 00 00 00 00 00 00 00 00 00 00 00 00 00 00
       0.0 0.0 0.0 0.0
000020 00 00 00 00 00 00 00 00 00 00 00 00 00 00 00 00
       0.0 0.0 0.0 0.0
000030 00 00 00 00 00 00 00 00 00 00 00 00 00 00 00 00
       0.0 0.0 0.0 0.0
000040 00 00 00 00 00 00 00 00 00 00 00 00 00 00 00 00
       0.0 0.0 0.0 0.0
000050 f8 10 a4 3c cf ed 52 bd 17 48 45 3c c3 d1 04 bd
       0.020027623 -0.051496323 0.012041113 -0.032426607
000060 6e 53 19 ba a9 08 29 bd 71 d7 04 bc f2 83 3d bd
       -0.0005848919 -0.041268025 -0.008108006 -0.04626841
000070 c5 00 2d bd 09 25 60 3b
       -0.042237062 0.0034201762

weight f4 [10, 10]
000000 8e 8a c2 3e 22 31 84 be 49 69 b0 be 03 fe 92 3e
       0.37996334 -0.25818735 -0.34455326 0.2870942
000010 84 d6 f2 be 50 84 97 3e f9 e3 d5 3e fe c0 cb 3e
       -0.47429287 0.29593134 0.41775492 0.3979568
000020 3f be b5 3c 2b 23 2d 3e 32 00 02 bf 91 c9 04 3e
       0.022185443 0.16907947 -0.5078155 0.12967516
000030 be b5 d0 3d cf 79 15 bf 12 db 1b bf 36 a5 27 3f
       0.101909146 -0.5838899 -0.6088115 0.65486467
000040 12 90 4d 3d 7c c5 66 be d5 77 a1 3d 33 3e e8 3e
       0.050186224 -0.22536272 0.07884184 0.45359954
000050 20 30 78 3e db 21 07 3e a4 26 6f be 75 f3 68 3e
       0.24237108 0.13196509 -0.23354584 0.22749121
000060 f3 39 e6 bc 3c 6e d2 3e b3 d1 de 3e 2a 07 a3 be
       -0.028103804 0.41099727 0.43519363 -0.31841403
000070 07 64 2e be eb 23 a3 be 21 92 b3 3e 47 ee 03 3e
       -0.17030345 -0.3186334 0.35072425 0.12883864
000080 c6 75 65 3e 59 41 ab be 4e aa 02 bc 7c c0 a5 3e
       0.22408208 -0.33448294 -0.007975174 0.32373416
000090 ba 1c f6 3e 2f cc 31 3c f9 d5 c1 be e5 12 e7 3e
       0.48068792 0.010851904 -0.3785856 0.45131603
0000a0 03 d8 20 bf f2 6e ce 3d 1b bc 08 bf a3 b6 d1 3e
       -0.6282961 0.10079755 -0.53412026 0.40959653
0000b0 38 e2 dc 3e 68 3c 71 be 0b c0 f3 3d 35 ad f2 be
       0.4314134 -0.235582 0.11901864 -0.4739777
0000c0 30 d1 c2 3e 5c 13 c9 be 54 42 51 3e 03 7b 13 3d
       0.38050222 -0.39272583 0.20435458 0.036005985
0000d0 52 75 47 bf 44 a0 9b 3d e5 a8 c4 be 96 d8 15 be
       -0.7791339 0.075989276 -0.38410106 -0.14633402
0000e0 9c 62 92 3c f9 d1 bf be 6d 06 f1 3e 6d 0d a2 3e
       0.017869286 -0.37464884 0.47075215 0.31650868
0000f0 9f e0 de 3e 80 61 9a 3e 3f 32 35 3d f9 15 c2 be
       0.43530747 0.30152512 0.04423737 -0.3790739
000100 c0 ea 88 be 79 7f c7 3e 75 d1 5f be 8f 1e ec 3d
       -0.267416 0.3896444 -0.21857245 0.11529266
000110 10 62 af be a1 e1 dd 3e 59 c6 37 3e 43 4b b0 3e
       -0.34254503 0.43336204 0.17946757 0.3443242
000120 45 36 34 3f 0b 17 00 3f 17 34 bf 3e a7 90 6c be
       0.7039531 0.5003516 0.3734443 -0.23102055
000130 f8 f9 8e be fc dd f7 be c5 f3 21 bf 5f 28 b2 be
       -0.27925086 -0.48411548 -0.6326259 -0.34796426
000140 e1 7d 0d be 89 1a a7 3e 13 03 28 bc 68 ec 73 3e
       -0.1381755 0.32637432 -0.010254639 0.2382065
000150 70 04 eb 3e 3e e0 f3 be 2a b7 d9 be 2f fe e5 3e
       0.45901823 -0.4763202 -0.42522556 0.4492049
000160 5c c4 47 3e d1 39 96 be 90 1d 81 38 79 56 b9 be
       0.19508499 -0.29340985 6.156706e-05 -0.36198786
000170 38 2a 09 bf ad 70 bf be 17 f6 c5 be f2 22 87 be
       -0.53580046 -0.37390652 -0.38664314 -0.2639385
000180 8d 10 87 3d 2b 2b 8b be b0 94 4c 3e e4 39 87 3e
       0.06594954 -0.27181372 0.19978595 0.26411355

bias f4 [10]
000000 c0 38 b9 bc 29 9e fd bd c4 5a 67 3c 6c 06 3b 3d
       -0.022610068 -0.12383682 0.014120761 0.04566042
000010 a7 30 25 bc 9c c9 9e 3c 46 67 52 bc 30 b1 dd 3b
       -0.0100824 0.019383244 -0.012842005 0.006765507
000020 8c 64 74 bc 6a 77 09 3e
       -0.01491655 0.13424459
