Comparative_Evaluation/Baselines/Transformer/models_u/model22.pt (torch, 369273 bytes, 36 tensors)

in_proj_weight f4 [30, 10]
0	0xbe13517d	-0.14386554
1	0x3ccf038d	0.025270248
2	0x3e551592	0.2080901
3	0x3e28c35b	0.16480772
4	0xbdcaae29	-0.098965
5	0xbd6b06cc	-0.05737953
6	0xbdec7cab	-0.11547216
7	0x3dd9e031	0.10638464
8	0xbcca3f68	-0.024688438
9	0x3e5aba6f	0.21360181
10	0xbdf421bd	-0.119204976
11	0xbe51446e	-0.2043626
12	0x3ca7cc64	0.020483203
13	0xbc32d115	-0.010914107
14	0x3cd39822	0.025829379
15	0x3d06ee7d	0.032942284
16	0x3d53b943	0.05169035
17	0xbd801f0c	-0.06255922
18	0x3c34023c	0.010986861
19	0x3c9f7d78	0.019469008
20	0x3e0da3b1	0.13831975
21	0x3da7f8a5	0.08201722
22	0x3daeb07d	0.08529756
23	0x3ae99632	0.0017821251
24	0x3c9c5322	0.01908261
25	0x3dfd6a70	0.12373817
26	0x3e53bcd1	0.20677496
27	0x3c0484f7	0.008088342
28	0x3d05fd5e	0.032712333
29	0xbe3316c6	-0.17489156
30	0xbdffdb7a	-0.12493034
31	0xbe6c3071	-0.23065354
32	0xbe14fddb	-0.14549963
33	0xbd7827df	-0.0605849
34	0x3de1ef4f	0.110319726
35	0x3dbd81c7	0.09253269
36	0x3d9e0d52	0.077173844
37	0xbd995ae5	-0.0748804
38	0xbd8d0388	-0.06885439
39	0x3cf75c13	0.030195272
40	0x3e3aeb00	0.18253708
41	0x3b8cf36c	0.004301479
42	0xbbb70b00	-0.005586028
43	0x3e1c2c44	0.15251261
44	0xbdcb6d37	-0.099329405
45	0x3e2e8681	0.17043497
46	0xbc045e35	-0.008079101
47	0xbe2c1802	-0.16806033
48	0xbd3ab410	-0.045581877
49	0xbbe401fe	-0.0069582453
50	0x3c85b18d	0.016320014
51	0xbc7c9b71	-0.0154179195
52	0x3d78ab14	0.060710028
53	0xbcc8d4c2	-0.024515513
54	0x3c10c47c	0.008835908
55	0xbe58221b	-0.2110676
56	0x3c0486ab	0.008088748
57	0xbe2692f0	-0.1626699
58	0x3dc518ad	0.09623847
59	0xbd91f045	-0.07125906
60	0xb9c987ec	-0.00038438977
61	0xbe69e0a5	-0.22839601
62	0x3cc6ccf9	0.02426766
63	0xbe2df1e7	-0.1698681
64	0xbd955b26	-0.07292776
65	0xbcd4efa0	-0.025993168
66	0xbdeee08a	-0.11663921
67	0x3cb529a2	0.022114579
68	0x3dd6385a	0.10459967
69	0x3c1624a4	0.009164009
70	0xbd74a0d0	-0.059723675
71	0x3c9c098a	0.019047517
72	0xbe1db691	-0.15401675
73	0xbcb23053	-0.021751558
74	0x3ca78ad9	0.02045195
75	0xbc5c258a	-0.013436684
76	0x3ca07412	0.019586597
77	0xbc0363ce	-0.008019401
78	0x3e0c1ecd	0.13683625
79	0xbd391fc7	-0.04519632
80	0xbb365d66	-0.0027826666
81	0xbdea1be4	-0.11431101
82	0x3e26863e	0.16262147
83	0xbbc0f92e	-0.0058890795
84	0xbb120d98	-0.0022285935
85	0xbbbea4a4	-0.0058179665
86	0xbbce14d8	-0.006289106
87	0x3c67e818	0.014154457
88	0xbe69cbd3	-0.22831659
89	0x3e53dbc7	0.20689307
90	0xbd94b218	-0.07260531
91	0x3d2e2876	0.042519055
92	0x3de8c8c6	0.113664195
93	0x3a705d80	0.0009169206
94	0xbccdda03	-0.02512837
95	0x3d8e8be6	0.06960277
96	0x3b813ab0	0.0039437637
97	0x3c81d4e5	0.015848586
98	0x3e4a9c05	0.19786079
99	0xbe114b7e	-0.14188954
100	0x3e3b93b3	0.18318062
101	0xbcd9a02c	-0.026565634
102	0xbd5e821c	-0.0543233
103	0x3c8dea30	0.017323583
104	0xbdd7feaf	-0.10546624
105	0x3e237be7	0.15965234
106	0x3a55abc4	0.00081509
107	0x3c9e2e4c	0.019309185
108	0xbe48d7d3	-0.1961358
109	0x3e5c0d21	0.21489383
110	0xbe218c1b	-0.15776102
111	0x3e0d4042	0.13794044
112	0x3e6263c5	0.22108372
113	0x3db6c3be	0.089240536
114	0x3dc3993c	0.095507115
115	0xbcb4aac4	-0.022054084
116	0xbc8e711f	-0.017387925
117	0x3e048e48	0.12944901
118	0xbe2f3c2f	-0.17112802
119	0x3e347c1a	0.17625466
120	0xbbcd45c8	-0.006264422
121	0x3c3126de	0.010812489
122	0x3ccd20bc	0.025040023
123	0x3e317228	0.17328703
124	0xbe5a5c5f	-0.213243
125	0xbe3f5b42	-0.18687156
126	0x3e21c435	0.15797503
127	0xbe224a5f	-0.15848683
128	0x3d839687	0.06425195
129	0xbcbc3e0b	-0.022978803
130	0x3e23375e	0.1593909
131	0xbc828fc1	-0.015937688
132	0xbb55dbea	-0.00326323
133	0x3e546bfa	0.20744315
134	0x3c848c51	0.01618019
135	0xbe68d527	-0.22737561
136	0x3bb22d3f	0.0054375227
137	0xbe5b05a6	-0.21388873
138	0x3ca6d136	0.020363431
139	0xbd9c017a	-0.07617469
140	0xbc574a95	-0.01314034
141	0x390c1e50	0.00013362733
142	0x3ccb7166	0.024834346
143	0xbccf18ae	-0.025280323
144	0x3df56fe6	0.119842336
145	0xb9aa1930	-0.00032443693
146	0xbbd32519	-0.0064436314
147	0x3e2a8aa4	0.1665445
148	0xbd766dc2	-0.060163267
149	0x3c17c4cb	0.009263228
150	0xbc37f6e6	-0.011228299
151	0x3c5b0f24	0.013370309
152	0xbe29ce29	-0.1658255
153	0xbca3da6e	-0.020001616
154	0x3d873c97	0.066033535
155	0xbdc98f98	-0.098418415
156	0xbe5734c0	-0.21016216
157	0xbe2f89a4	-0.1714235
158	0x3ca63a89	0.020291584
159	0xbde2a2c1	-0.11066199
160	0xbccecc5d	-0.025243932
161	0xbe4c6029	-0.19958557
162	0xbdb2ed7c	-0.08736703
163	0x3d7cfb36	0.06176301
164	0x3d6c5ef5	0.057707746
165	0x3c99907c	0.018745653
166	0xbdf3e396	-0.11908643
167	0xbb8bf2e4	-0.004270898
168	0xbc9eabc2	-0.01936901
169	0xbd18e67c	-0.037329182
170	0xbc8589b4	-0.016301014
171	0x3ca723c4	0.020402797
172	0xbd85ac53	-0.06527009
173	0x3d127dce	0.035764508
174	0x3cbd58e1	0.02311367
175	0x3c036d0d	0.008021605
176	0x37a4f980	1.9666506e-05
177	0xbe05c7d9	-0.13064517
178	0xbda11da0	-0.07866979
179	0xbb687d86	-0.0035475208
180	0xbe13e99c	-0.14444584
181	0xbe42bad2	-0.19016579
182	0xbb943ac2	-0.004523606
183	0x3e10f8db	0.14157431
184	0xbb301881	-0.0026870074
185	0x3e297027	0.16546689
186	0xbc011fd4	-0.007881124
187	0x3ddbc772	0.107314005
188	0x3d2d7edf	0.04235732
189	0x3c782d6c	0.015147548
190	0x3e128b65	0.14310987
191	0x3e077d18	0.13231313
192	0x3e3d7817	0.18502842
193	0xbe0f6248	-0.14002335
194	0x3e055636	0.13021168
195	0xbc08f1de	-0.008358447
196	0xbccb3813	-0.024807012
197	0xbcc0329c	-0.023461632
198	0xbc678868	-0.014131643
199	0x3dc59fff	0.096496575
200	0xbe8a5e0a	-0.2702487
201	0x3d43286f	0.047645982
202	0xbec02a04	-0.37532055
203	0xbc8ffac3	-0.017575627
204	0xbe9aa8a3	-0.30206785
205	0xbde60d20	-0.11232972
206	0x3cea8d32	0.02863178
207	0xbc96deb4	-0.01841674
208	0x3de07004	0.10958865
209	0xbe1d4e8c	-0.15361995
210	0x3ebb4993	0.3657957
211	0xbe30d6ec	-0.17269486
212	0x3ea60c9c	0.32431495
213	0xbe6ea4c8	-0.23305047
214	0xbe6b0f8c	-0.2295515
215	0xbeb782ea	-0.35842067
216	0x3d924da6	0.071437165
217	0xbec7eb5a	-0.39046746
218	0x3e503698	0.20333326
219	0xbeb6d534	-0.35709536
220	0x3de9c73a	0.114149526
221	0x3e90f9dd	0.2831563
222	0x3e8be1ce	0.27320713
223	0xbed8245c	-0.4221524
224	0x3e9d3ebc	0.30711925
225	0x3df495c7	0.1194263
226	0xbe890b67	-0.26766512
227	0xbe60711f	-0.21918152
228	0x3e403d8c	0.18773478
229	0xbc75515b	-0.01497301
230	0xbea98744	-0.33111012
231	0x3e788624	0.2426992
232	0x3ea1b610	0.31584215
233	0xbe41f29d	-0.18940206
234	0xbe53e789	-0.20693792
235	0x3e31044a	0.17286792
236	0x3edb5207	0.4283602
237	0xbd92a005	-0.071594276
238	0x3e831894	0.2560469
239	0xbd8be430	-0.06830633
240	0x3ec0f3e1	0.37686065
241	0x3e82cb79	0.25545862
242	0x3db16eb9	0.08663697
243	0xbe1cb7a0	-0.15304422
244	0x3dac4b12	0.08412756
245	0xbe8ca414	-0.27468932
246	0x3ecf40ac	0.40479028
247	0x3cd581bf	0.026062844
248	0xbe47236c	-0.19447106
249	0xbe6ebe9b	-0.23314898
250	0xbc86bcd4	-0.016447462
251	0xbe98c094	-0.29834425
252	0x3e385350	0.18000531
253	0x3ead0fda	0.33801156
254	0x3c67a641	0.014138759
255	0x3e8be528	0.2732327

in_proj_bias f4 [30]
0	0x00000000	0.0
1	0x00000000	0.0
2	0x00000000	0.0
3	0x00000000	0.0
4	0x00000000	0.0
5	0x00000000	0.0
6	0x00000000	0.0
7	0x00000000	0.0
8	0x00000000	0.0
9	0x00000000	0.0
10	0x00000000	0.0
11	0x00000000	0.0
12	0x00000000	0.0
13	0x00000000	0.0
14	0x00000000	0.0
15	0x00000000	0.0
16	0x00000000	0.0
17	0x00000000	0.0
18	0x00000000	0.0
19	0x00000000	0.0
20	0xbd1c8449	-0.038212094
21	0x3d7cc5a5	0.061711926
22	0xbd46cf51	-0.048537556
23	0x3d0ddd17	0.034634676
24	0x3d5620a9	0.05227724
25	0xbd1a0dce	-0.03761082
26	0xbd58068c	-0.05274062
27	0x3d484174	0.048890546
28	0x3d4ac0a4	0.049500123
29	0x3d52aec2	0.051436193

weight f4 [10, 10]
0	0xbe22eadb	-0.15909903
1	0x3e1239ab	0.14279811
2	0x3eceb16d	0.4036974
3	0x3f0aed6c	0.5426853
4	0xbedb341f	-0.42813203
5	0xbed6d9f5	-0.41963163
6	0x3e920eaa	0.28526813
7	0x3ee0c840	0.4390278
8	0xbd0e019c	-0.034669504
9	0x3e914136	0.28370064
10	0x3eeae6c9	0.458792
11	0xbe1301e5	-0.14356191
12	0xbe5c1e63	-0.21495967
13	0x3ea61cf0	0.32443953
14	0xbe4a35f5	-0.19747145
15	0xbe89845b	-0.26858792
16	0xbcc4406a	-0.023956496
17	0x3e3d87b0	0.18508792
18	0xbec45eef	-0.3835368
19	0xbe09a6bf	-0.13442515
20	0x3dbf5661	0.09342647
21	0x3f03c376	0.51470125
22	0x3e910b09	0.28328732
23	0xbe12254b	-0.14272039
24	0xbe8e7f43	-0.27831468
25	0x3e8f49e5	0.27986065
26	0xbebc8086	-0.36816806
27	0xbe484a83	-0.19559674
28	0xbde4e4ce	-0.111764535
29	0x3f047812	0.5174571
30	0xbe5baa8f	-0.21451782
31	0xbc2038ea	-0.009779194
32	0x3ea03ae4	0.3129493
33	0x3e05d20c	0.13068408
34	0x3ea74c30	0.32675314
35	0x3e001fc5	0.12512119
36	0x3d7e0aeb	0.06202213
37	0x3e317fd7	0.17333923
38	0x3e1440d5	0.14477856
39	0x3ed01832	0.4064346
40	0xbe96d3e4	-0.29458535
41	0xbdfed5f9	-0.12443156
42	0x3d73cb9e	0.059520356
43	0x3e03ccff	0.12871169
44	0x3e06ec2b	0.13176028
45	0x3d801cda	0.06255503
46	0x3dc0dc40	0.09417009
47	0xbe0ff6f2	-0.14059046
48	0x3e804b95	0.25057665
49	0xbefff667	-0.49992678
50	0xbe3ad043	-0.18243508
51	0x3e0a4149	0.13501467
52	0x3e3c4462	0.18385461
53	0x3e9c912f	0.30579516
54	0x3d622863	0.055214297
55	0x3e529025	0.205628
56	0x3d934b81	0.071921356
57	0x3eaa9210	0.33314562
58	0x3e49b0b9	0.1969632
59	0x3e607762	0.21920541
60	0x3d6b7bf9	0.057491276
61	0x3ec6b491	0.38809636
62	0x3e1a0f4a	0.15044895
63	0x3e6aeb8f	0.22941421
64	0xbe98e648	-0.2986319
65	0xbeec9459	-0.4620693
66	0xbea5127f	-0.32240674
67	0x3cacd898	0.021099374
68	0x3ded81d6	0.1159703
69	0xbd74893c	-0.05970119
70	0xbe3bf021	-0.1835332
71	0xbe01d659	-0.12679423
72	0x3e5e6fc3	0.21722321
73	0x3ee3bee9	0.4448159
74	0x3efa55b9	0.48893526
75	0xbf04a759	-0.5181785
76	0x3eeac7b4	0.45855486
77	0xbe0d9730	-0.13827205
78	0xbeb854e1	-0.36002257
79	0x3dccce9f	0.10000347
80	0xbde8c445	-0.113655604
81	0xbe4a11a1	-0.19733287
82	0xbea6ddf0	-0.325912
83	0xbe8ae2f6	-0.27126282
84	0xbe8dbaf1	-0.27681687
85	0xbe407196	-0.1879333
86	0x3e574ce0	0.21025419
87	0x3eaaf4cc	0.3338989
88	0xbe17ec3e	-0.14836213
89	0xbe5817dd	-0.21102853
90	0x3eb1b625	0.34709278
91	0x3dd9d0fa	0.10635562
92	0x3dc27ce1	0.09496475
93	0x3dad5863	0.08464124
94	0xbeb2d4ef	-0.3492808
95	0xbe6982e7	-0.22803842
96	0x3ee1342f	0.43985125
97	0x3ec70a44	0.3887502
98	0xbe7443cc	-0.23853987
99	0xbe874fa1	-0.2642794

bias f4 [10]
0	0xbd462628	-0.048376232
1	0x3d7f79ed	0.062372137
2	0xbd49a774	-0.04923196
3	0x3d48f440	0.04906106
4	0xbd4d46bd	-0.05011629
5	0x3d54dd03	0.051968586
6	0x3d4ca72f	0.049964126
7	0xbd4a6cee	-0.04942029
8	0x3d2e85ba	0.042608
9	0x3ca119bd	0.019665593

weight f4 [2048, 10]
0	0xbd1f03bf	-0.038821932
1	0x3c92ea23	0.01793391
2	0xbca206ce	-0.019778635
3	0xbdc50b3c	-0.096212834
4	0xbccf90e4	-0.025337644
5	0xbcfc5e01	-0.030806543
6	0x3c4a1cc8	0.012335964
7	0x3d917286	0.07101922
8	0x3c71bb85	0.014754181
9	0x3dd0bd76	0.10192387
10	0xbae67b8c	-0.0017584427
11	0x3b00bcfb	0.001964389
12	0x3ab928b6	0.0014126513
13	0x3bcbe1c6	0.0062219827
14	0xbabba18e	-0.0014315115
15	0xbbca98bc	-0.006182758
16	0xbbb212d3	-0.005434373
17	0xbbe13685	-0.0068729543
18	0xba9f6a48	-0.0012162412
19	0x3a9724f6	0.0011531401
20	0x3d34b840	0.044121027
21	0xbd77633a	-0.060397364
22	0x3d84f1a9	0.064914055
23	0x3dcbe638	0.0995602
24	0x3ce3301a	0.027732898
25	0x3d7aa00a	0.06118778
26	0xbdc240b3	-0.09484997
27	0xbd84ef0f	-0.06490909
28	0xba24afce	-0.00062823005
29	0xbd61f0b5	-0.055161197
30	0xbad75c88	-0.0016430775
31	0x3c4528be	0.0120336395
32	0x3b9d340d	0.0047974647
33	0x3c03a13a	0.008034045
34	0x3be1bb84	0.0068888087
35	0xbbd8bf78	-0.0066146217
36	0xbade9d7f	-0.0016984193
37	0x3c0449a0	0.008074194
38	0x3b769126	0.0037623136
39	0xbc4d2d5c	-0.012523022
40	0x3d0ae18d	0.03390651
41	0xbdd0f3c4	-0.102027446
42	0x3dcb08d4	0.09913793
43	0x3d2d0164	0.042237654
44	0x3d88a568	0.06672174
45	0x3dd3ebc4	0.10347703
46	0xbc97aa7b	-0.018513909
47	0xbc98350b	-0.01857998
48	0xbc61977d	-0.013769028
49	0xbd00a260	-0.031404853
50	0xbc99f874	-0.01879523
51	0x3cf0773b	0.029353729
52	0x3cea40fb	0.028595438
53	0x3c4d13f3	0.012516963
54	0xbce887dc	-0.028385095
55	0xbc32d5a4	-0.010915194
56	0x3c74b485	0.014935617
57	0xbc2ee487	-0.010674602
58	0x3d33665a	0.043798782
59	0x3d046ace	0.03232842
60	0xbc440300	-0.011963606
61	0x3be1de98	0.0068929903
62	0x3bcae4a7	0.0061918083
63	0xbbaccea5	-0.0052736574
64	0x3bd9726e	0.0066359555
65	0x3c0491d7	0.008091412
66	0xbc21871c	-0.009858873
67	0x3bc375b6	0.00596496
68	0x398c7d5a	0.00026796275
69	0xbbf5bf54	-0.0074996147
70	0x3dc87d1a	0.09789486
71	0x3d8bbda4	0.068232805
72	0xbb6f4b7c	-0.0036513498
73	0xbd5a3a40	-0.053278208
74	0xbbfd63e6	-0.007732856
75	0xba47ddca	-0.00076242967
76	0x3da63068	0.081147015
77	0x3d5d629d	0.054049123
78	0x3d2858e3	0.041100394
79	0x3d9f5f7c	0.07781884
80	0x3c3c7ba8	0.011504091
81	0x3acbaa94	0.0015538507
82	0xbbf69821	-0.0075254594
83	0xbbef7c92	-0.007308551
84	0xbc0457d7	-0.008077583
85	0xbbc3a74a	-0.00597087
86	0xbb50fc2c	-0.0031888587
87	0xbb3bdde7	-0.00286662
88	0xbc2b5a0e	-0.010458482
89	0xbab663ca	-0.0013915238
90	0xbd8b2e80	-0.067959785
91	0x3cee3db7	0.029082162
92	0xbc912744	-0.017718919
93	0xbcea9dd1	-0.028639706
94	0xbcc71187	-0.02430035
95	0xbd6d4664	-0.057928458
96	0x3cae16b5	0.021251062
97	0x3d007cf7	0.031369176
98	0x3d397191	0.04527432
99	0x3baf8fbf	0.005357712
100	0x3b9ddfe8	0.0048179515
101	0x3b38f061	0.002821945
102	0x3b626366	0.003454411
103	0xba79e838	-0.00095331995
104	0x3ae3c64b	0.0017377821
105	0xbb92d638	-0.0044811033
106	0xbbfdd532	-0.007746362
107	0x3b013cf5	0.001972017
108	0x3ae75fd4	0.001765246
109	0x3bfb778c	0.007674163
110	0xbbe9f9b9	-0.007140365
111	0x3b6e9bdf	0.0036408824
112	0xbb6f6669	-0.0036529547
113	0xba61bf88	-0.0008611609
114	0x3b51e417	0.0032026821
115	0xbbf7d35c	-0.007563038
116	0xbb340fb4	-0.002747518
117	0x3abdc3f0	0.001447795
118	0x3b5f23b8	0.003404839
119	0xbbbc34f6	-0.005743618
120	0xbdad98bf	-0.084764
121	0x3dc72a8b	0.09724911
122	0xbd547fd8	-0.051879734
123	0xbd58e4e0	-0.052952647
124	0xbc1dde57	-0.0096355295
125	0xbdce39c1	-0.100696094
126	0x3d465af5	0.048426587
127	0x3db2d01f	0.08731102
128	0x3cb1341d	0.021631295
129	0x3d1842a4	0.03717293
130	0x3bd829c4	0.0065967757
131	0xbc0ccd20	-0.0085938275
132	0x3d265af6	0.04061409
133	0x3d95c2b4	0.07312527
134	0x3be56b3c	0.0070013087
135	0x3d661e35	0.05618115
136	0xbd79e62b	-0.06101052
137	0xbd44e23a	-0.04806731
138	0xbdb56305	-0.08856777
139	0xbdb9a83d	-0.09065292
140	0xbd33d99a	-0.043908693
141	0x3d79d5ba	0.06099484
142	0xbd501e2f	-0.050810035
143	0xbd08a357	-0.033358898
144	0xbd947b57	-0.07250088
145	0xbd326e4a	-0.04356221
146	0x3cc0f754	0.023555435
147	0x3d60c83c	0.05487846
148	0x3d747a4a	0.059686936
149	0x3dde13de	0.10843633
150	0x3a15fd00	0.0005721599
151	0x3be569d4	0.007001141
152	0x3a9b5fa8	0.0011854069
153	0x398b3540	0.0002655182
154	0x3b6d1720	0.0036177114
155	0xba02d374	-0.00049906154
156	0x3a7f66ec	0.00097428146
157	0x3bb705b4	0.0055853967
158	0xbb47a20a	-0.0030461573
159	0xbab7c468	-0.0014020326
160	0xbbcb7f9b	-0.00621028
161	0x3b81edea	0.003965129
162	0x3a981a62	0.0011604542
163	0xbbf3f8a6	-0.0074454127
164	0xbbf6c2f1	-0.007530563
165	0xbb3a5335	-0.0028430943
166	0xbb3c5976	-0.0028739846
167	0x3b95a333	0.004566574
168	0x3a4d14b6	0.00078232156
169	0xbb693181	-0.0035582485
170	0x3dcece77	0.10097974
171	0xbc45a891	-0.012064115
172	0x3d81537a	0.0631475
173	0x3ce4f537	0.027948959
174	0x3caf526a	0.021401603
175	0x3d228efb	0.039687138
176	0xbaaf7738	-0.001338697
177	0xbdb5b6ee	-0.08872782
178	0xbdb99900	-0.090623856
179	0xbaa2ceed	-0.0012421288
180	0x3d28ddaf	0.04122704
181	0xbce469e5	-0.027882526
182	0x3cf0e744	0.029407151
183	0x3d5ba99f	0.05362856
184	0x3d9704fd	0.07373998
185	0x3d1ae42d	0.03781526
186	0xbd229506	-0.0396929
187	0xbd1d62fb	-0.038424473
188	0xbbf48c8e	-0.0074630445
189	0xbd8bdf2c	-0.06829676
190	0x3dbb4223	0.09143474
191	0xbd2f40e9	-0.042786513
192	0x3dc4a539	0.09601826
193	0x3da37d8c	0.079829305
194	0x3d408083	0.04699756
195	0x3da59ca0	0.080865145
196	0xbd15abf6	-0.036540948
197	0x3b80839d	0.0039219395
198	0xbd7f0eca	-0.062269963
199	0xbda9fd28	-0.08300239
200	0xbc6c88f4	-0.014436949
201	0x3da9dfb3	0.0829462
202	0xbd3b9dd1	-0.045804802
203	0xbd797452	-0.060901947
204	0xbdcd9256	-0.10037677
205	0xbda52b23	-0.08064868
206	0x3ba07044	0.0048961956
207	0x3dc33a7f	0.095326416
208	0x3d8c0091	0.068360455
209	0x3d09f0a5	0.033676762
210	0xbdc434f3	-0.09580412
211	0x3bb71026	0.005586642
212	0xbcddb972	-0.027065966
213	0xbd3b4065	-0.04571571
214	0xbce0eecb	-0.027457615
215	0xbcfdf36f	-0.030999867
216	0x3c7375ee	0.01485966
217	0x3b962299	0.004581761
218	0x3d08b851	0.033378903
219	0x3dbad212	0.09122099
220	0x3da01947	0.07817321
221	0xbda255a7	-0.07926493
222	0x3d9aeac4	0.07564309
223	0x3db2a055	0.08721987
224	0x3c02de5f	0.007987588
225	0x3d8e4376	0.06946461
226	0xbcb09e80	-0.021559954
227	0xbd98926c	-0.07449803
228	0xbb1e84e0	-0.0024188086
229	0xbc9f801c	-0.019470267
230	0xbc3c59d4	-0.011496026
231	0xbb98a751	-0.0046586175
232	0x3c03bbf2	0.008040415
233	0x3a92d2ae	0.0011201703
234	0xbb906d0a	-0.0044075297
235	0x3b2c543d	0.0026295327
236	0xbab8d58e	-0.001410173
237	0xba8533ca	-0.0010162529
238	0x3a35ebec	0.0006939757
239	0x3c2efdd8	0.010680638
240	0xbd7f9829	-0.06240097
241	0x3d935c7d	0.07195375
242	0xbcd96175	-0.026535729
243	0xbd4db15b	-0.050217967
244	0x3a8c120b	0.001068653
245	0xbd8804af	-0.06641518
246	0x3d220874	0.039558843
247	0x3d0f4fe0	0.034988284
248	0x3d3559df	0.04427516
249	0x38fef970	0.00012158125
250	0xbbb02e84	-0.005376639
251	0x3b9151f4	0.0044348184
252	0x3bb66daa	0.005567272
253	0xbd2da5c8	-0.04239443
254	0xbd14496a	-0.036202826
255	0xbca7136c	-0.020395003

bias f4 [2048]
0	0x3e4099a1	0.18808605
1	0xbdfd74a0	-0.1237576
2	0x3e33fa01	0.17575838
3	0xbe2356cf	-0.15951084
4	0x3eb74344	0.35793507
5	0xbd6529a5	-0.05594792
6	0xbdd51792	-0.10404886
7	0x3e65947a	0.2241992
8	0xbe143be4	-0.14475971
9	0x3e8547cf	0.26031348
10	0xbd826256	-0.06366412
11	0xbd824b49	-0.06362016
12	0x3db5c0c8	0.08874661
13	0x3e7167c8	0.23574746
14	0x3d73585e	0.059410445
15	0xbd9ea5e8	-0.07746488
16	0xbe1cdd12	-0.15318707
17	0x3eaafb2b	0.3339475
18	0x3e1278c1	0.14303876
19	0x3e9f0743	0.31060228
20	0x3d9e4cfc	0.07729527
21	0xbdff0f89	-0.12454135
22	0x3e9d1712	0.30681664
23	0xbccac910	-0.024754077
24	0xbc6e7a08	-0.014555462
25	0xbd1c537a	-0.038165547
26	0xbe17b498	-0.14814985
27	0xbd841e4d	-0.06451092
28	0x3ea4b8cd	0.32172242
29	0x3e73a0a6	0.23791751
30	0x3e9f61b4	0.3112923
31	0xbd4d5da8	-0.050138146
32	0x3e4ef629	0.2021109
33	0xbdbdd53d	-0.092691876
34	0xbe31091d	-0.17288633
35	0xbc4325fa	-0.01191091
36	0xbc5d6ad3	-0.013514238
37	0xbd9a2302	-0.075262085
38	0xbd6749dc	-0.056466922
39	0x3d122e80	0.035688877
40	0x3dc10220	0.094242334
41	0x3e8776d7	0.26457855
42	0xbdc60b50	-0.096701264
43	0xbdf4e03d	-0.119568326
44	0x3e9ec260	0.3100767
45	0xbd5c5fa9	-0.053802166
46	0xbb6a66f4	-0.0035766931
47	0x3c9671d3	0.018364822
48	0x3dd47d98	0.103755176
49	0x3dab2709	0.08357055
50	0xbdd8aa19	-0.105793186
51	0xbd85e7ce	-0.06538354
52	0x3e809a9d	0.2511796
53	0x3e1b299a	0.15152588
54	0xbda2bafc	-0.07945821
55	0xbd23a092	-0.039948054
56	0xbe167f3e	-0.14696977
57	0x3e8c8201	0.27442935
58	0xbdcc3745	-0.09971479
59	0xbbe675f0	-0.007033102
60	0xbcbc4c6c	-0.02298566
61	0xbe01c605	-0.12673195
62	0x3da2117c	0.07913491
63	0x3ea3b75d	0.31975833
64	0x3d027acd	0.031855393
65	0x3e11290f	0.14175819
66	0x3e32b354	0.17451221
67	0x3e8256dc	0.25456893
68	0xbc88afa1	-0.016685309
69	0xbd934cf5	-0.07192413
70	0x3ebadc75	0.3649632
71	0x3e85ecea	0.26157314
72	0xbb8170e2	-0.0039502243
73	0xbd71c300	-0.059023857
74	0x3d081b28	0.033229023
75	0x3df3f42c	0.119118065
76	0xbdf328f7	-0.11873048
77	0xbd8ba614	-0.06818786
78	0x3dd0b5c6	0.101909205
79	0xbe25dbf7	-0.16197191
80	0xbd851876	-0.06498806
81	0x3dbf64ac	0.093453735
82	0xbdda007d	-0.106446244
83	0x3d97259f	0.073802225
84	0x3e86435a	0.2622326
85	0xbd98ad19	-0.07454891
86	0xbe0b9687	-0.1363164
87	0xbd802da4	-0.06258705
88	0x3e1a20b6	0.1505154
89	0xbdd48e24	-0.10378674
90	0xbd56d369	-0.05244771
91	0xbd533ced	-0.051571775
92	0x3e58265e	0.21108386
93	0x3e757577	0.2397059
94	0x3e3dfd49	0.18553652
95	0x3e56b2f5	0.20966704
96	0x3ea3881c	0.3193978
97	0xbe1a1c33	-0.1504982
98	0x3e84165c	0.2579831
99	0xbe258bd8	-0.16166627
100	0xbe098cbe	-0.13432595
101	0xbe1cb299	-0.15302505
102	0xbd8a2e64	-0.067471296
103	0xbe1a3e7b	-0.15062897
104	0x3d317222	0.043321736
105	0xbc837cd5	-0.016050735
106	0xbd1965c3	-0.037450563
107	0xbcdfb252	-0.02730671
108	0xbdb2797f	-0.0871458
109	0x3ea30c01	0.31845096
110	0x3d3f28d7	0.046669807
111	0x3e2c4e17	0.16826664
112	0x3c996230	0.018723577
113	0xbb655f2a	-0.003499935
114	0xbc58a3da	-0.013222659
115	0xbd7dba7b	-0.06194542
116	0xbd079564	-0.033101454
117	0x3dfe6316	0.12421243
118	0xbd627496	-0.055286966
119	0x3d291101	0.04127598
120	0xbd888536	-0.06666033
121	0xbe0ebc2b	-0.13938968
122	0x3e90e4cf	0.28299567
123	0x3e78b9ae	0.24289581
124	0xbe19d2d9	-0.15021838
125	0xbd028270	-0.031862676
126	0xbbcac74d	-0.0061883093
127	0xbe36dc09	-0.17857374
128	0x3df4434c	0.11926898
129	0x3a0b5188	0.00053145783
130	0xbd767049	-0.060165677
131	0x3dd6ea7b	0.10493942
132	0x3e2f55c6	0.17122564
133	0xbcb154ac	-0.02164682
134	0x3e773def	0.2414472
135	0x3de0c314	0.10974708
136	0x3bc9b9f6	0.0061562015
137	0xbe052e76	-0.13006005
138	0x3e842be8	0.25814748
139	0x3d9153d9	0.07096071
140	0xbd8bb601	-0.06821824
141	0x3e3b879f	0.18313454
142	0x3d4d5294	0.05012758
143	0xbbc1c9a8	-0.005913932
144	0x3e9d700e	0.30749553
145	0xbe1c2542	-0.15248588
146	0x3dbc6f63	0.09200933
147	0x3df2984b	0.11845454
148	0x3d1e4b31	0.038645927
149	0x3dd13181	0.1021452
150	0xb95628f0	-0.00020423881
151	0xbdbe8b03	-0.09303858
152	0x3c80d8a9	0.015728312
153	0xbc6af8e4	-0.014341567
154	0xbd8003e9	-0.06250746
155	0xbda10bb0	-0.07863557
156	0x3e280330	0.16407466
157	0xbd3ad6c6	-0.04561498
158	0x3d2606e8	0.04053393
159	0x3c9fb179	0.019493805
160	0x3e0520b6	0.1300076
161	0x3d98fe01	0.074703224
162	0x3df82af7	0.1211757
163	0x3e7b3514	0.24531966
164	0x3bad8e98	0.0052965395
165	0x3c6c1690	0.014409676
166	0xbd303424	-0.043018475
167	0x3d03aef8	0.032149285
168	0xbd7af3f8	-0.061267823
169	0x3e9122ee	0.28346962
170	0x3e0b2a1d	0.13590284
171	0x3b60be11	0.0034292976
172	0xbd96c95c	-0.07362625
173	0x3da9f185	0.08298019
174	0x3e11e4ef	0.14247487
175	0x3e02e7be	0.12783715
176	0x3d827492	0.0636989
177	0x3e34dc08	0.1766206
178	0xbd18a1df	-0.037263747
179	0x3eab5080	0.33459854
180	0xbd1c6edf	-0.038191672
181	0xbbbd3046	-0.005773577
182	0x3eab9a67	0.33516237
183	0xbc82ab67	-0.015950872
184	0xbd05a988	-0.03263238
185	0x3e3d0c92	0.18461826
186	0xbdc4ac48	-0.096031725
187	0x3d911296	0.07083623
188	0x3eac6337	0.33669445
189	0xbd22b41f	-0.039722558
190	0xbdb48447	-0.088142924
191	0x3e6ae4e3	0.22938876
192	0x3e63a255	0.22229894
193	0x3e355ff2	0.17712381
194	0x3e89bf2b	0.26903662
195	0x3e5f5275	0.21808799
196	0x3e53fb1c	0.2070126
197	0x3e6b5d90	0.2298491
198	0xbe225daa	-0.15856043
199	0xbdae30e0	-0.08505416
200	0x3d949548	0.07255036
201	0xbde24f3b	-0.11050268
202	0xbb824d06	-0.003976467
203	0x3d52a95f	0.051431056
204	0xbd1a81c1	-0.0377214
205	0xbdb31cdb	-0.08745738
206	0xbdae1188	-0.084994376
207	0xbcef6d56	-0.02922694
208	0xbd1dd23a	-0.038530566
209	0xbde8940c	-0.11356363
210	0x3bdc2914	0.006718764
211	0x3ebaea5a	0.3650692
212	0xbdc41fd3	-0.095763825
213	0xbd78ede8	-0.06077376
214	0x3d7beeec	0.06150715
215	0x3e69009c	0.22754139
216	0x3c507446	0.012723034
217	0x3e105e83	0.14098553
218	0x3e797312	0.24360302
219	0xbdc17688	-0.09446436
220	0xbcb93821	-0.022609772
221	0xbdbbc384	-0.09168151
222	0xbd12ac10	-0.035808623
223	0x3cf3bd28	0.029753283
224	0xbd4be884	-0.04978229
225	0x3e9193e7	0.28433153
226	0x3d8cc644	0.06873754
227	0xbda5e1c8	-0.08099705
228	0x3b7c9c1c	0.0038545197
229	0xbda7de96	-0.08196752
230	0xbd9b1c67	-0.07573777
231	0x3e57ba74	0.2106722
232	0xbdeddc09	-0.11614234
233	0x3dd8e92c	0.10591349
234	0xbd9ccece	-0.07656632
235	0x3e3f235d	0.18665834
236	0x3d6d9eb1	0.058012668
237	0xbdc3b643	-0.09556248
238	0x3e611752	0.21981552
239	0x3e17698d	0.14786358
240	0xbddcaef4	-0.10775557
241	0x3d9e3601	0.07725144
242	0xbd35727b	-0.04429863
243	0x3eb17a3c	0.3466357
244	0xbe16c242	-0.14722541
245	0xbe0e329c	-0.13886493
246	0xbc46eb22	-0.012141021
247	0xbd2d847a	-0.042362668
248	0xbde9b2a2	-0.11411025
249	0x3df234fa	0.11826511
250	0xbd5455d9	-0.051839683
251	0xbe15e606	-0.14638528
252	0xbd87a97e	-0.06624125
253	0xbde92b3c	-0.113851994
254	0xbd347432	-0.044056125
255	0x3dd55633	0.10416832

weight f4 [10, 2048]
0	0x3d5ff18b	0.054673713
1	0x3bff6765	0.007794308
2	0xbdc890cc	-0.09793243
3	0x3a4ec882	0.00078881544
4	0xbd2af1c2	-0.041734464
5	0x3cfc9249	0.030831473
6	0x3ba3ed16	0.005002628
7	0xbcc360b6	-0.023849826
8	0xbc0481f2	-0.008087622
9	0xbdbca7a5	-0.09211663
10	0x39b93a24	0.00035329268
11	0xbbc340aa	-0.0059586363
12	0xbda3d8b0	-0.08000314
13	0xbd09b476	-0.033619367
14	0xbd659479	-0.056049798
15	0xbb647360	-0.0034858808
16	0xba2ff6b0	-0.00067124795
17	0xbce5e2ee	-0.02806231
18	0xbcff83ba	-0.031190742
19	0x3a8e4de1	0.001085695
20	0xbd959095	-0.073029675
21	0x3da5fdeb	0.08105072
22	0xbd8f90b6	-0.07010023
23	0x3b266081	0.002538711
24	0xbd31b197	-0.043382253
25	0xbb42dcfc	-0.0029733768
26	0x3c2ff702	0.010740044
27	0xba73d578	-0.00093015237
28	0xbd0b8ca7	-0.034069683
29	0xbb289f5a	-0.0025729747
30	0x39e69578	0.0004398038
31	0xbd60a478	-0.05484435
32	0xbc93a064	-0.018020816
33	0x3af21cb6	0.0018471691
34	0x3dcd4d32	0.100244895
35	0x3bc99ab9	0.0061524776
36	0xbc907dec	-0.01763817
37	0x3c9547ca	0.018222708
38	0x3b4d1df0	0.0031298362
39	0xbc6b291a	-0.014353061
40	0xbd979d2a	-0.074030235
41	0x3be55a65	0.0069993013
42	0xbc690420	-0.014222175
43	0xbb7ebe76	-0.0038870848
44	0xbd1ad0cc	-0.03779678
45	0x3a40d337	0.0007355692
46	0x3b63d790	0.0034765936
47	0xbdc9a54d	-0.09845982
48	0xbdb8931f	-0.09012436
49	0xbd756db0	-0.05991906
50	0x3b13eb14	0.0022570537
51	0xbb4f99af	-0.0031677296
52	0xbda04faa	-0.07827695
53	0xbd796b74	-0.06089349
54	0x3d7be2a4	0.06149544
55	0xbdb017be	-0.085982785
56	0x3bf8e754	0.007595936
57	0xbd86a4ae	-0.06574379
58	0xbc193748	-0.009351559
59	0xbd25b438	-0.040455073
60	0xbd480dd7	-0.048841324
61	0xbc434042	-0.011917176
62	0xbc0b2904	-0.008493666
63	0x3bf82b51	0.007573523
64	0xbd118475	-0.03552671
65	0x3ba07f79	0.0048980084
66	0xbdbe6bcf	-0.092979066
67	0xbd735d7f	-0.059415337
68	0xbd2a0d19	-0.041516397
69	0xbb25f6f1	-0.002532419
70	0x3bdaa32a	0.0066722827
71	0x3d4dd8a3	0.05025543
72	0x3c47532a	0.012165824
73	0xbbc6f98d	-0.0060722292
74	0xbd111d29	-0.0354282
75	0xbd3d617d	-0.04623555
76	0x3bca8851	0.006180801
77	0xbc2b8c8a	-0.010470519
78	0xbd19d068	-0.037552267
79	0x3b22bb9f	0.002483107
80	0xbabfb942	-0.0014627355
81	0x3aa2abee	0.0012410858
82	0xbbd65ea0	-0.006542042
83	0xbd9943ec	-0.07483658
84	0xbd6dac66	-0.05802574
85	0xbcb3f974	-0.021969534
86	0x3a92fe6c	0.001121474
87	0xbcff2b05	-0.031148443
88	0xbdcdcb2b	-0.10048517
89	0x3afcaea6	0.0019278124
90	0xbd38c551	-0.04511005
91	0xbc90474b	-0.01761212
92	0xbd1a19e3	-0.037622344
93	0xbd84f407	-0.06491857
94	0xbd741980	-0.05959463
95	0xbd06fbc6	-0.032954954
96	0xbd230bce	-0.03980618
97	0x3c162f72	0.009166585
98	0xbd0b583f	-0.034019705
99	0xb80ba720	-3.329583e-05
100	0xbc0363a4	-0.008019362
101	0x3dbfdcbc	0.093682736
102	0xbd19c4b9	-0.037541125
103	0x3ba555b6	0.005045618
104	0xbcbac29b	-0.022797873
105	0xbd341954	-0.043969467
106	0xbd2f9752	-0.04286892
107	0x3c011ede	0.0078808945
108	0x3ac1cdec	0.0014786101
109	0xbcfc2b9d	-0.030782515
110	0xbcd00fa1	-0.025398077
111	0xbcfb18af	-0.030651418
112	0x3cc8e503	0.024523264
113	0x3b6818ff	0.003541529
114	0xbdccae64	-0.099942
115	0xbdb01893	-0.08598437
116	0x3c1c72a5	0.009548818
117	0xbd89a5c7	-0.06721073
118	0xbc499147	-0.012302703
119	0xbd5a80e4	-0.053345576
120	0x3beb155c	0.007174177
121	0x3bdcbc28	0.006736297
122	0xbcc990f7	-0.024605257
123	0xbc5ce67e	-0.013482688
124	0xbcdeb272	-0.027184699
125	0x3baba797	0.005238484
126	0x3c15fa10	0.009153858
127	0xbcf1d403	-0.02952004
128	0xbb05d419	-0.002042061
129	0x3acf31fa	0.0015807741
130	0xbbe0302e	-0.006841681
131	0xbd8fa9b6	-0.07014792
132	0xbcc9da64	-0.02464027
133	0xbc4cac0c	-0.012492191
134	0xbd0ac3e3	-0.03387822
135	0x3d72b21f	0.0592519
136	0xbd7be413	-0.061496805
137	0x3daa1bf2	0.083061114
138	0x3b80d398	0.003931474
139	0xbd06fe12	-0.032957144
140	0xba2726e3	-0.0006376339
141	0xbca656b2	-0.020305011
142	0xbda95b65	-0.08269385
143	0xbd9a9ec4	-0.075498134
144	0xbc73af62	-0.0148733575
145	0x3b54ffbd	0.0032501065
146	0x3db2dcde	0.08733533
147	0xbd4e0d5c	-0.05030571
148	0xbc1157d2	-0.008871036
149	0x3d6a4a6a	0.057199873
150	0x3c2f09fd	0.010683534
151	0x3abfa8e6	0.0014622479
152	0xbd053d8c	-0.0325294
153	0xbd297d13	-0.041379046
154	0xbda4e28b	-0.08051022
155	0x3c04182e	0.0080624055
156	0xbdc6c6e2	-0.09705903
157	0x3c9fe868	0.01952
158	0xbd9b774c	-0.075911134
159	0xbcb34c6e	-0.02188703
160	0xbd936fce	-0.071990594
161	0x3ddb0fcf	0.106963746
162	0xbd046ccc	-0.03233032
163	0xbce2900e	-0.027656581
164	0xbd9bfd03	-0.076166175
165	0x3bf05bf1	0.007335179
166	0xbada1c48	-0.0016640509
167	0xbd139636	-0.036031924
168	0x3dc40070	0.09570396
169	0xbd23e7fb	-0.040016156
170	0xbcba0efe	-0.022712227
171	0xbd523613	-0.0513211
172	0x3d46092e	0.0483486
173	0xbd139405	-0.036029834
174	0xbd370cb8	-0.044689864
175	0xbda7d928	-0.08195716
176	0x3dc39251	0.09549392
177	0x3d12a591	0.035802428
178	0xbd1ffa96	-0.039057337
179	0xbd6aefa3	-0.05735744
180	0xbd2fc5fc	-0.042913422
181	0x3d0827d3	0.033241104
182	0xbcde949f	-0.027170477
183	0x3a7cf198	0.00096490374
184	0x3d961bd6	0.07329528
185	0xbc5e6e5e	-0.013576118
186	0xbc838ea1	-0.016059222
187	0x3d9433ad	0.07236419
188	0xbdb67c85	-0.08910469
189	0x39119a30	0.00013885717
190	0x3b1ee467	0.0024245025
191	0xbcdae851	-0.026722105
192	0x3d14deb0	0.036345184
193	0xbbdbdfff	-0.006710052
194	0xbdce0b4e	-0.1006075
195	0x3b654e52	0.003498931
196	0xbdad3088	-0.08456522
197	0xbdbdb4b7	-0.09262984
198	0xbbba73d7	-0.0056900787
199	0x3be50e1a	0.0069902064
200	0xbcee14c6	-0.02906264
201	0x3903bcc8	0.0001256346
202	0xbd89f984	-0.067370445
203	0xbd17dc83	-0.03707553
204	0xbb6afd5a	-0.0035856576
205	0x3aa0c74e	0.0012266429
206	0xbbe37e8c	-0.006942576
207	0x3c14559c	0.009053614
208	0xbd8de5db	-0.06928607
209	0xb8f9cd20	-0.00011911453
210	0x3ba07ec4	0.004897924
211	0xbd2d0797	-0.042243566
212	0x3c9154af	0.017740576
213	0xbbc6f246	-0.0060713617
214	0xbd7f4d28	-0.06232944
215	0x3ca98e8d	0.020697856
216	0x3b639f28	0.0034732316
217	0x3d96e3ce	0.07367669
218	0xbdb58c6d	-0.08864675
219	0x3d63fa03	0.05565835
220	0xbabb947b	-0.0014311218
221	0xbdf120cc	-0.11773834
222	0xbab2275a	-0.001359205
223	0xbdaea6c0	-0.08527899
224	0xbdb44e77	-0.088040285
225	0xbd8693e9	-0.065711804
226	0x3d598506	0.053105377
227	0xbba99ed1	-0.005176403
228	0xbd27110b	-0.040787738
229	0x3c0b1e15	0.008491059
230	0xba298099	-0.0006466001
231	0xbda6c9a4	-0.08143929
232	0xbb1c8415	-0.0023882438
233	0xbd98c118	-0.07458705
234	0x3a4474f0	0.00074942317
235	0x3da5334b	0.08066424
236	0xbd4e7fc4	-0.050414816
237	0xbd8525ec	-0.06501374
238	0xbcef7b6c	-0.029233657
239	0xbd2a3bb1	-0.041560832
240	0x3b1e044e	0.0024111453
241	0xbdacecd2	-0.084436074
242	0xbb0ecfe3	-0.002179139
243	0x398a0aa0	0.00026329327
244	0x3be8fe43	0.0071103885
245	0x3bea7da4	0.007156091
246	0xbd0ce40c	-0.03439717
247	0x3bb2e726	0.005459684
248	0xbbba997c	-0.0056945663
249	0x3c9a7460	0.01885432
250	0x3c027219	0.007961773
251	0x3a84ece4	0.00101414
252	0xbbebd3a0	-0.0071968585
253	0xbad8392a	-0.0016496528
254	0xbbc637a2	-0.0060491124
255	0xbc9f3343	-0.019433623

bias f4 [10]
0	0xbd8bff31	-0.06835783
1	0x3d0c11eb	0.034196775
2	0xbd8feb5e	-0.070273146
3	0x3d04ec69	0.03245202
4	0xbd84b30a	-0.064794615
5	0x3d97937b	0.074011765
6	0x3d47b486	0.048756145
7	0xbd73b6a1	-0.05950034
8	0x3d734fae	0.05940216
9	0xbd853c11	-0.065055974

weight f4 [10]
0	0x3f738539	0.95125157
1	0x3f70846a	0.9395205
2	0x3f733f5b	0.9501855
3	0x3f8638c1	1.048607
4	0x3f73698a	0.95082915
5	0x3f86fdb2	1.0546172
6	0x3f7300a2	0.9492284
7	0x3f864468	1.0489626
8	0x3f74a0cf	0.95557874
9	0x3f87dad1	1.0613652

bias f4 [10]
0	0xbd446b2c	-0.04795377
1	0x3d74d002	0.059768684
2	0xbd491796	-0.04909476
3	0x3d470f5c	0.048598632
4	0xbd49220b	-0.04910473
5	0x3d577d56	0.052609764
6	0x3d4b4ff6	0.049636804
7	0xbd4a75ba	-0.04942868
8	0x3d36d832	0.044639774
9	0xbd8edd0a	-0.069757536

weight f4 [10]
0	0x3f7303ee	0.9492787
1	0x3f73abc2	0.95183957
2	0x3f72353e	0.9461249
3	0x3f85c5c9	1.0450984
4	0x3f73ac6e	0.9518498
5	0x3f88b8ce	1.0681398
6	0x3f71bc83	0.9442827
7	0x3f84dac8	1.0379267
8	0x3f711ceb	0.9418475
9	0x3f883a1f	1.0642737

bias f4 [10]
0	0xbd37296a	-0.04471723
1	0x3d81c885	0.06337074
2	0xbd4066da	-0.046973087
3	0x3d45aa1d	0.048257936
4	0xbd50502f	-0.05085772
5	0x3d6a256d	0.0571646
6	0x3d1a4e3e	0.037672274
7	0xbd4683a6	-0.048465393
8	0x3cf188f7	0.029484255
9	0xbd7ad4cd	-0.0612381

weight f4 [10]
0	0x3f73123c	0.949497
1	0x3f772871	0.96546084
2	0x3f7231bf	0.94607157
3	0x3f852a36	1.0403507
4	0x3f7351f9	0.95046955
5	0x3f88f662	1.070019
6	0x3f72180c	0.9456794
7	0x3f803bd6	1.001826
8	0x3f70aa08	0.9400945
9	0x3f877d46	1.0585105

bias f4 [10]
0	0xbd46441c	-0.048404798
1	0x3d8cbd9e	0.06872104
2	0xbd423229	-0.047411118
3	0x3d3d079f	0.046149846
4	0xbd4bc39a	-0.049747087
5	0x3d8075af	0.06272446
6	0x3c630b9c	0.013857748
7	0xbd45e4d0	-0.048313916
8	0x3c7651da	0.015034163
9	0xbd5e710e	-0.054307036

in_proj_weight f4 [30, 10]
0	0x3c8d51e5	0.017250964
1	0x3e2fb00d	0.17157002
2	0x3d7f0008	0.06225589
3	0xbb2bdf60	-0.0026225671
4	0xbe09e40d	-0.134659
5	0x3e68c758	0.22732294
6	0x3e4b676d	0.19863673
7	0xbcbc350b	-0.022974512
8	0x3e0cc47f	0.13746832
9	0x3e2491ac	0.16071194
10	0x3d910189	0.07080371
11	0xbe332c7b	-0.17497437
12	0x3e3a795d	0.18210359
13	0x3d580d53	0.052747082
14	0xbe3b0da7	-0.18266927
15	0x3c412036	0.011787465
16	0xbccf52cd	-0.025308037
17	0xbb8597da	-0.00407694
18	0xbe15f7b2	-0.1464527
19	0xbcc438e2	-0.023952905
20	0x3d4cdcac	0.050015137
21	0xbbb5eb3c	-0.0055517238
22	0x3d41fc20	0.047359586
23	0xbb926f45	-0.004468831
24	0x3e35f362	0.17768624
25	0x3e19049b	0.14943163
26	0xbe3afa7a	-0.18259612
27	0xbc0420d4	-0.008064467
28	0xbd20a302	-0.039217956
29	0x3da8bcd2	0.082391396
30	0x3a867f5a	0.0010261342
31	0x3c154376	0.009110322
32	0x3c9708e3	0.018436855
33	0x3de43732	0.1114334
34	0xbe6533a4	-0.2238298
35	0x3c46deae	0.012138052
36	0xbbbbfdf3	-0.00573706
37	0x3b60c7d6	0.00342988
38	0xbc8991c2	-0.016793136
39	0x3c4d9890	0.012548581
40	0x3de6df89	0.11273105
41	0x3d9d7edc	0.07690212
42	0xbc830344	-0.015992768
43	0x3c716daa	0.014735619
44	0x396917af	0.00022229434
45	0x3ba81ea8	0.0051306076
46	0xbcb89763	-0.022533124
47	0xbe5808d3	-0.21097116
48	0x3d9897f0	0.07450855
49	0xbccd92fd	-0.025094504
50	0xbdd3fd30	-0.10351026
51	0xbd707756	-0.058707558
52	0xbc27a914	-0.010233182
53	0xbe673e2e	-0.22582313
54	0x3e447a29	0.19187225
55	0x3cc32085	0.023819217
56	0x3db8ba5b	0.090199195
57	0x3c1538da	0.009107793
58	0xbc87a8f8	-0.016560063
59	0xbc5b8188	-0.013397582
60	0x3b07aca4	0.0020702267
61	0xbdc6ea54	-0.09712663
62	0x3c03d52b	0.008046429
63	0x3c98a617	0.018633885
64	0x3e1cd48d	0.15315457
65	0x3d810c68	0.063011944
66	0x3c1bfcf0	0.009520754
67	0xbe3cd574	-0.18440801
68	0x3b544f50	0.0032395907
69	0xbe0e1069	-0.13873447
70	0x3cdcc8d4	0.026951231
71	0x3ca60a44	0.020268567
72	0x3e46661c	0.19374889
73	0x3d8cc8a5	0.068742074
74	0x3a029938	0.0004981938
75	0xbcd6f7ad	-0.026241148
76	0xbde3a805	-0.111160316
77	0x3d24577f	0.040122505
78	0xbe202111	-0.15637614
79	0xbdf0ac86	-0.11751656
80	0x3d42ede7	0.047590163
81	0xbdf6acb6	-0.12044661
82	0x3e0947c5	0.13406284
83	0x3dea9453	0.11454072
84	0xbe45dea3	-0.1932321
85	0x3de237aa	0.11045773
86	0xbcb8907b	-0.022529831
87	0x3da3df3d	0.08001564
88	0xbd4ea15c	-0.050446853
89	0x3db8550c	0.090005964
90	0xbc20886d	-0.009798151
91	0xbe2622c4	-0.162242
92	0x3dae3e8d	0.08508024
93	0xbe680390	-0.22657609
94	0xbb554cbe	-0.0032546963
95	0xbdbc6e95	-0.09200779
96	0xbc328c78	-0.010897748
97	0xbdbdad48	-0.092615664
98	0xbd1d235a	-0.038363792
99	0xbddea3ca	-0.10871084
100	0x3de5242b	0.11188539
101	0x3cb5c642	0.022189263
102	0x3cb7915f	0.022408186
103	0xbe089cb0	-0.13341022
104	0x3e5e814a	0.21729007
105	0xbc9cef92	-0.019157205
106	0xbcb508ea	-0.022098977
107	0xbe246605	-0.16054542
108	0x3b6f656c	0.0036528958
109	0xbba608d4	-0.0050669704
110	0x3d6e08ef	0.05811399
111	0xbd20c524	-0.039250508
112	0xbd099502	-0.03358937
113	0xbac16e3e	-0.0014757586
114	0xbcc2aeb8	-0.023764953
115	0x3e2e8131	0.1704147
116	0xbd5fe4a2	-0.0546614
117	0x3e381d1d	0.17979856
118	0x3dc198ee	0.09452997
119	0x3d4f88a1	0.05066741
120	0x3d9a394c	0.0753046
121	0xbd05562b	-0.03255288
122	0x3e320f23	0.17388587
123	0xbbeb058a	-0.007172291
124	0x3cc27a50	0.023739964
125	0xbca45115	-0.020058194
126	0x3ccf1744	0.025279649
127	0xbb4f54ee	-0.0031636315
128	0xbe321a35	-0.1739281
129	0x3de13db6	0.109980986
130	0x3c60fea7	0.013732589
131	0x3e3f611e	0.18689391
132	0x3caffb47	0.021482123
133	0xbe0e2167	-0.1387993
134	0xbe50fb86	-0.20408449
135	0xbd54bf95	-0.05194052
136	0xbbd879ab	-0.006606301
137	0x3e16a869	0.14712681
138	0xbc9cf046	-0.01915754
139	0x3cb9559a	0.022623826
140	0x3db64c4d	0.08901272
141	0xbdf2d82e	-0.11857639
142	0xbc14006a	-0.009033302
143	0x3ca8e163	0.020615285
144	0x3db99b87	0.090628676
145	0xbd6ad80e	-0.057334952
146	0x3dc0d213	0.094150685
147	0xba118274	-0.000555075
148	0xbd272d43	-0.04081465
149	0x3e2009cd	0.15628739
150	0x3df310dc	0.1186845
151	0xbcb76675	-0.022387723
152	0xbda88995	-0.08229367
153	0xbdd29c62	-0.10283734
154	0xbdbfd8f0	-0.093675494
155	0x3d847433	0.06467476
156	0xbd2a1dce	-0.04153233
157	0xbd8ebd8a	-0.069697455
158	0xbd22f17f	-0.03978109
159	0xbe298aca	-0.1655685
160	0xbda29382	-0.07938291
161	0x3a4d71d0	0.0007837089
162	0xbe0d7c9d	-0.13817067
163	0xbc36d579	-0.011159294
164	0x3deca181	0.11554242
165	0x3e4b35b8	0.19844711
166	0x3e4d2437	0.20033346
167	0x3db09bdf	0.0862348
168	0xbe24a47c	-0.16078371
169	0xbe55a975	-0.20865424
170	0x3b6ba4e3	0.0035956434
171	0xbcce7fe1	-0.025207462
172	0x3d00ab15	0.031413157
173	0xbe3d569a	-0.18490067
174	0xbcae27cf	-0.021259217
175	0xbc497b00	-0.012297392
176	0x3e0f4412	0.1399081
177	0xbe4ed8c8	-0.20199883
178	0x3de7220c	0.11285791
179	0xbe457acb	-0.19285123
180	0x3b0dd2c6	0.0021640523
181	0x3d61d056	0.055130325
182	0xbdb0f2b0	-0.08640039
183	0xbde4dc5c	-0.11174843
184	0x3dc7ec2b	0.09761842
185	0xbc10665a	-0.008813465
186	0xbd08b1a2	-0.03337253
187	0x3c263854	0.010145266
188	0x3ca42643	0.020037776
189	0x3d9679bc	0.07347438
190	0xbcc118ad	-0.023571337
191	0xbc9ee91a	-0.01939826
192	0x3e2d59e6	0.16928825
193	0xbb017ab6	-0.001975698
194	0xb956e9f8	-0.0002049579
195	0x3c4f7ce2	0.012664052
196	0xbd9ccd68	-0.07656366
197	0xbb825cb0	-0.0039783344
198	0x3c8fded6	0.017562311
199	0xbd30b780	-0.04314375
200	0x3e57d1da	0.21076146
201	0x3e024b4c	0.12724036
202	0xbd915a57	-0.07097309
203	0xbde9305b	-0.11386176
204	0x3e99a5cd	0.30009308
205	0x3e5656ae	0.20931503
206	0xbeaf0abe	-0.34187883
207	0x3e933977	0.2875478
208	0xbeda7a49	-0.4267142
209	0x3e198355	0.14991505
210	0x3e1b40fc	0.15161508
211	0xbea8c861	-0.32965377
212	0xbe55bee0	-0.20873594
213	0x3d3e8880	0.046516895
214	0x3e9c2929	0.30500153
215	0x3e26cddc	0.16289467
216	0xbdc30bd1	-0.09523738
217	0x3eb11c7a	0.34592038
218	0x3e70f190	0.23529649
219	0xbe2e206b	-0.17004554
220	0xbebbff23	-0.3671809
221	0x3dd9daef	0.106374614
222	0xbe1085a3	-0.14113478
223	0xbe484263	-0.19556575
224	0xbd702aca	-0.058634557
225	0xbeaac374	-0.33352244
226	0x3ea3d9ab	0.32002005
227	0xbd86a7ea	-0.06574996
228	0x3dfcbc20	0.123405695
229	0xbea5a564	-0.32352746
230	0x3edf21e7	0.43580553
231	0xbe0512e5	-0.12995489
232	0x3e4684da	0.19386616
233	0x3ea07337	0.31337902
234	0x3e2d8a45	0.16947277
235	0xbd78164b	-0.060568135
236	0x3e9636ae	0.29338592
237	0x3eb21dcf	0.34788367
238	0x3ee07d91	0.438458
239	0x3eca9bfb	0.3957213
240	0xbe57880b	-0.2104799
241	0x3e3092cd	0.172435
242	0xbe003c0a	-0.12522903
243	0x3e594901	0.21219255
244	0xbde82859	-0.11335821
245	0xbd560af2	-0.052256532
246	0xbde71076	-0.112824365
247	0xbd74ac66	-0.059734724
248	0x3da16007	0.07879644
249	0x3e1c10ea	0.15240827
250	0xbb236315	-0.0024930884
251	0x3e6af302	0.22944263
252	0xbe3c5f29	-0.18395676
253	0xbd9628db	-0.07332011
254	0xbedafc02	-0.42770392
255	0x3ea36071	0.31909516

in_proj_bias f4 [30]
0	0x00000000	0.0
1	0x00000000	0.0
2	0x00000000	0.0
3	0x00000000	0.0
4	0x00000000	0.0
5	0x00000000	0.0
6	0x00000000	0.0
7	0x00000000	0.0
8	0x00000000	0.0
9	0x00000000	0.0
10	0x00000000	0.0
11	0x00000000	0.0
12	0x00000000	0.0
13	0x00000000	0.0
14	0x00000000	0.0
15	0x00000000	0.0
16	0x00000000	0.0
17	0x00000000	0.0
18	0x00000000	0.0
19	0x00000000	0.0
20	0xbd599dcd	-0.053129006
21	0xbd257835	-0.04039784
22	0xbab19a73	-0.0013550058
23	0x3d99d790	0.075118184
24	0xbd68eef8	-0.056868523
25	0xbd30b4ff	-0.04314136
26	0x3d8d9863	0.06913831
27	0xbd6014a0	-0.05470717
28	0xbd8efc53	-0.06981721
29	0xbd884d90	-0.06655419

weight f4 [10, 10]
0	0x3e4e172d	0.20126028
1	0xbec49c21	-0.38400367
2	0xbcb4881f	-0.022037564
3	0x3ea63710	0.32463884
4	0xbe48f3e0	-0.19624281
5	0x3f04aa41	0.51822287
6	0x3e615a82	0.22007182
7	0x3edfa15c	0.43677795
8	0xbe2223dd	-0.15833993
9	0xbeaf9b8e	-0.34298366
10	0x3cc6336c	0.024194442
11	0xbebf44b9	-0.3735712
12	0x3e86717c	0.26258457
13	0x3efa5fa8	0.48901105
14	0x3e00d61d	0.12581678
15	0x3d9c8ef2	0.07644452
16	0x3d317402	0.043323524
17	0xbea2cc02	-0.3179627
18	0xbef92c79	-0.48666742
19	0xbde2e6ed	-0.11079202
20	0x3e215f4c	0.15759009
21	0x3e9af507	0.30265066
22	0xbdffe62c	-0.12495074
23	0xbe148663	-0.1450439
24	0x3ef3f88d	0.47650567
25	0xbf066a92	-0.52506363
26	0x3e9dd4f0	0.3082652
27	0x3f138741	0.57628256
28	0xbe94670f	-0.28984877
29	0x3e815d80	0.25266647
30	0x3d5f9c9b	0.05459271
31	0xbef4d84a	-0.47821265
32	0xbe4fb93c	-0.20285505
33	0x3e808636	0.25102395
34	0x3e969fc5	0.2941877
35	0xbed4201e	-0.41430753
36	0xbebe9f13	-0.3723074
37	0xbef092df	-0.46987054
38	0xbe15090b	-0.14554231
39	0xbeded4e3	-0.43521795
40	0xbed3a08b	-0.41333422
41	0xbe5dd761	-0.21664192
42	0x3ecff329	0.40615204
43	0xbf02a925	-0.51039344
44	0x3ec78dfa	0.38975507
45	0x3e25ba2c	0.161843
46	0xbe9043c6	-0.28176707
47	0xbde0dd0d	-0.10979662
48	0x3c9c9654	0.01911465
49	0x3d595f68	0.053069502
50	0xbda752bc	-0.08170077
51	0xbe8abe18	-0.27098155
52	0x3f08c1f4	0.5342095
53	0x3eb6f070	0.35730314
54	0xbe766f87	-0.24065982
55	0x3cdf4a3b	0.027257076
56	0xbe87966d	-0.26481953
57	0xbe850244	-0.2597829
58	0x3ea92358	0.33034778
59	0x3e386810	0.18008447
60	0x3ebea557	0.3723552
61	0x3d9748bf	0.07386922
62	0xbebb3ce7	-0.36569902
63	0xbed9dfdd	-0.42553607
64	0x3e067238	0.13129508
65	0xbe9ec9fd	-0.3101348
66	0xbea5d2ab	-0.3238729
67	0xbeb5ec07	-0.35531637
68	0x3eb3a8cd	0.35089722
69	0x3ddc88db	0.107682906
70	0x3d108973	0.03528733
71	0xbbe993ea	-0.0071282284
72	0x3d775a33	0.060388755
73	0x3e330b57	0.17484795
74	0xbeb54a2f	-0.3540816
75	0xbdc089a4	-0.09401253
76	0xbd896a7d	-0.06709764
77	0xbe90c299	-0.28273466
78	0x3ef2b18c	0.47401083
79	0x3e9f708c	0.31140554
80	0x3eb078c6	0.34467143
81	0xbefd4cc1	-0.4947262
82	0x3e9dd44f	0.3082604
83	0xbed39f26	-0.41332358
84	0x3e618e84	0.22027022
85	0x3ecf00d7	0.40430328
86	0xbf06f2ab	-0.5271403
87	0x3d940a46	0.07228522
88	0xbe071a9b	-0.13193743
89	0xbe92a6f5	-0.28643003
90	0x3e92372a	0.28557712
91	0x3e91ace0	0.28452206
92	0x3eee1dbc	0.4650706
93	0x3ec3c70d	0.382378
94	0x3e31bfb6	0.17358288
95	0xbc1fee97	-0.009761474
96	0x3efd671c	0.4949273
97	0xbe5dc06b	-0.21655433
98	0xbec75ddb	-0.38938794
99	0xbf0554c3	-0.5208246

bias f4 [10]
0	0xbd5bea8b	-0.053690474
1	0x3d8f9df4	0.07012549
2	0x3d28921b	0.041154962
3	0x3d3454f3	0.044026326
4	0xbd5e0eaa	-0.054213203
5	0xbd841069	-0.064484425
6	0xbd4f07bc	-0.050544485
7	0x3d4ae568	0.049535185
8	0x3d5a29c6	0.053262495
9	0x3d8c3987	0.0684691

in_proj_weight f4 [30, 10]
0	0x3d833f12	0.06408514
1	0x3c756c3f	0.014979421
2	0xbcbf1a8d	-0.02332809
3	0xbe37eed8	-0.17962205
4	0xbe1b0a33	-0.1514061
5	0xbad7d9c8	-0.0016468102
6	0xbcca0e0e	-0.024664905
7	0xbcaa36e6	-0.02077813
8	0xbe0c10b5	-0.13678248
9	0x3e2a7ba8	0.16648734
10	0x3cc454fc	0.023966305
11	0x3e1f4c28	0.15556395
12	0x3ddcf345	0.107885875
13	0xbcc4b30c	-0.024011157
14	0xbac79776	-0.0015227634
15	0x3e092110	0.13391519
16	0x3bc68de6	0.006059396
17	0xbda5f63a	-0.081036046
18	0xbe2b8c7e	-0.16752812
19	0x3c9b03fa	0.018922795
20	0x3dff492f	0.124651305
21	0x3e46ed49	0.19426455
22	0xbe241dc6	-0.16026983
23	0x3e08b2b4	0.1334942
24	0xbcb74464	-0.022371478
25	0x3e658d56	0.22417197
26	0x3e5fbe5a	0.21849957
27	0x3deb72e6	0.114965245
28	0xbc5d3047	-0.01350028
29	0xbe25b787	-0.16183291
30	0xbe13bfd9	-0.14428653
31	0xbe1c9119	-0.15289725
32	0x39175180	0.00014430843
33	0xbd3703ea	-0.044681467
34	0x3d95dbc3	0.07317307
35	0x3dc0db12	0.09416784
36	0xbe0abb0d	-0.13547917
37	0xbd59a8c1	-0.053139452
38	0xbc8c98e2	-0.017162744
39	0xbd02d3e1	-0.031940345
40	0x3c8c6127	0.01713617
41	0xb9ab4140	-0.00032664277
42	0xbe2a96cc	-0.16659087
43	0xba9ea8a5	-0.0012104703
44	0xbdfd8751	-0.12379325
45	0xbd8805b8	-0.06641716
46	0x3db6a72a	0.08918603
47	0x3dd8ff73	0.10595598
48	0x3c2a6d68	0.010402061
49	0xbb8a1de8	-0.004214991
50	0x3e50294c	0.20328254
51	0xbc01c578	-0.007920615
52	0x3cffe9ec	0.031239472
53	0xbc00643a	-0.007836396
54	0x3e13792b	0.1440169
55	0x3ca3a9dc	0.019978456
56	0x3bfa9557	0.007647197
57	0xbe2f66fd	-0.1712913
58	0x3e2a5eb1	0.16637684
59	0xbccaeec1	-0.02477205
60	0xbd94c377	-0.072638445
61	0xbd5d3fde	-0.054015987
62	0x3c9304b3	0.017946577
63	0x3e149676	0.14510521
64	0x3bf24a67	0.0073941234
65	0x3e57477b	0.21023361
66	0x3b4a9350	0.003091056
67	0xbdeef601	-0.11668015
68	0x3b1c5dbe	0.0023859586
69	0x3d043322	0.032275327
70	0xbd942793	-0.07234111
71	0xbcc698fd	-0.024242872
72	0xbe275fea	-0.16345182
73	0xb98c6706	-0.0002677964
74	0x3d8a2c45	0.06746725
75	0xbcad5cea	-0.021162469
76	0xbb37f792	-0.0028071147
77	0x3b138b2a	0.0022513368
78	0xbe4eeee8	-0.20208323
79	0x3e13d079	0.14434995
80	0xbc1f5b75	-0.009726395
81	0x3ccc3d64	0.024931617
82	0x3ddb5cf0	0.10711086
83	0x3cbc7b22	0.023007933
84	0x3e544e47	0.20732985
85	0xbdc9d98f	-0.09855949
86	0x3e08d5ae	0.13362762
87	0xbe60a45a	-0.21937695
88	0x3c32de34	0.010917235
89	0xbbe7506b	-0.007059147
90	0xbcb72b62	-0.022359554
91	0x3dd4109d	0.10354731
92	0xbdd27dc1	-0.10277892
93	0xbe43f525	-0.19136484
94	0xbc9453cf	-0.01810637
95	0x3cf6dfae	0.030135956
96	0x3dab5881	0.0836649
97	0x3c300cf6	0.010745278
98	0x3cc38dbe	0.023871299
99	0x3dc0b5af	0.094096534
100	0x3d40b332	0.047045894
101	0x3d4df199	0.050279234
102	0xbc827ac6	-0.015927684
103	0xbdf7768e	-0.120831594
104	0x3cce0c90	0.025152475
105	0xbe2236c1	-0.158412
106	0xbd96a3e8	-0.073554814
107	0x3e001ec6	0.12511739
108	0xbe151d3f	-0.14561938
109	0xbd1fd543	-0.03902174
110	0xbc00a32d	-0.007851404
111	0x3dcee05e	0.101013884
112	0x3e034d7d	0.12822528
113	0xbcaabe4f	-0.0208427
114	0x3e2488f9	0.16067876
115	0xbb9da0b0	-0.004810415
116	0x3a851f0e	0.001015635
117	0xbd977c74	-0.073967844
118	0x3de5fd24	0.11229923
119	0xbcca18da	-0.024670053
120	0x3e2076a7	0.15670262
121	0xbc12f2ad	-0.008968991
122	0x3ccf22cf	0.025285153
123	0x3db962f3	0.09052076
124	0xbc985ef2	-0.018599961
125	0x3e40e25c	0.18836349
126	0xbe11d55c	-0.14241546
127	0xbc3c70a0	-0.011501461
128	0x3e190c11	0.14946009
129	0x3cb7a831	0.022419067
130	0x3beb85ee	0.0071875965
131	0x3b6ea86c	0.0036416305
132	0x3db7b38d	0.089697935
133	0xbc41b9bd	-0.011824069
134	0xbe092472	-0.13392809
135	0xbcbe10a6	-0.023201298
136	0xbd50f8de	-0.05101859
137	0x3e423b68	0.18967974
138	0xb94c9ef8	-0.00019514177
139	0xbbc96c65	-0.006146955
140	0xbdc1f49a	-0.09470482
141	0x3db67927	0.08909827
142	0x3b0987d1	0.0020985494
143	0xbe3bc657	-0.1833738
144	0x3ccc50d1	0.02494088
145	0x3e126325	0.14295633
146	0x3e48d9f4	0.19614393
147	0x3b3c61f6	0.0028744913
148	0x3e02dcf5	0.12779601
149	0xbc9ba590	-0.018999845
150	0x3aa9b6b8	0.0012948131
151	0x3e0dd9f4	0.13852674
152	0x3d504ba3	0.050853383
153	0x3e3c1d54	0.18370563
154	0xbe27c58c	-0.16383952
155	0xbe376c7d	-0.17912479
156	0xbc9dfa88	-0.019284502
157	0x3c893db7	0.01675306
158	0x3d552360	0.05203569
159	0xbe5228a1	-0.20523311
160	0x3c017d00	0.0079033375
161	0xbe0ef096	-0.13958964
162	0x3c03db00	0.008047819
163	0x3e1a4590	0.15065598
164	0x3d3c37cc	0.04595165
165	0xbe0f4180	-0.1398983
166	0x3e449dc9	0.19200815
167	0x3e371dc1	0.17882444
168	0x3e187650	0.14888883
169	0xbd5bef74	-0.053695157
170	0xbc9c1b91	-0.019056113
171	0xbc2f2c7a	-0.010691756
172	0xbe51d279	-0.20490445
173	0xbb92de6c	-0.004482081
174	0xbd8b0883	-0.06788733
175	0xb9c6ed20	-0.00037942175
176	0xbb63ad7a	-0.0034740851
177	0xbc317d84	-0.010833148
178	0xbd6063fc	-0.054782853
179	0xbce96356	-0.02848975
180	0x3c70ad05	0.014689689
181	0xba144024	-0.00056553097
182	0xbcbf297c	-0.023335211
183	0xbd773b22	-0.060359128
184	0xbc8a23a5	-0.0168627
185	0x3d02e152	0.031953163
186	0x3cc5177d	0.024059052
187	0x3e349645	0.17635448
188	0x3e2c3d15	0.16820176
189	0x3e23b3d4	0.15986568
190	0x3e082e1f	0.13298844
191	0x3dbc6677	0.09199231
192	0xbd96a3aa	-0.07355435
193	0x3ca0ead6	0.019643229
194	0xbd84fef7	-0.06493943
195	0x3e088372	0.13331392
196	0x3bc994c8	0.0061517693
197	0xbe4b8e10	-0.19878411
198	0x3bc1a93e	0.005910068
199	0x3daa648c	0.08319959
200	0x3ea21f22	0.31664377
201	0x3dc47e9b	0.095944606
202	0x3e1fedb8	0.15618026
203	0xbe842524	-0.25809586
204	0x3cd5067d	0.02600407
205	0x3e83317c	0.2562369
206	0xbe82819d	-0.25489512
207	0x3e28f709	0.16500486
208	0xbd0fa96b	-0.03507368
209	0xbcad8827	-0.021183087
210	0x3e443bc1	0.1916342
211	0xbd0d27a9	-0.03446165
212	0xbde0f8d1	-0.10984958
213	0xbe859212	-0.26088005
214	0xbe9ad4d0	-0.30240488
215	0x3eb2a9d2	0.34895188
216	0xbead3bd8	-0.3383472
217	0xbe8cb741	-0.27483562
218	0xbe075d8c	-0.13219279
219	0xbe4f10dd	-0.20221277
220	0x3e8726d8	0.26396823
221	0xbe1bcb0b	-0.15214173
222	0x3e4ba3fa	0.19886771
223	0x3e3402f4	0.17579252
224	0xbe6e2914	-0.23257858
225	0xbe8ea1e1	-0.2785788
226	0xbe656837	-0.22403036
227	0x3e8d18af	0.27557895
228	0xbe1e3951	-0.15451552
229	0x3e5a99e3	0.21347766
230	0xbeb02e46	-0.34410304
231	0xbe3db20b	-0.18524949
232	0xbe4767b6	-0.19473156
233	0x3e602049	0.21887316
234	0xbede3153	-0.43397006
235	0xbe7137af	-0.23556398
236	0xbe916d0e	-0.28403515
237	0xbe784f80	-0.24249077
238	0xbea33733	-0.3187805
239	0x3e345019	0.1760868
240	0xbc363c0e	-0.011122717
241	0x3ea22c37	0.31674358
242	0xbe61e7b7	-0.22061048
243	0x3edcbd2d	0.4311308
244	0xbe6ff0ac	-0.23431653
245	0x3e9491ff	0.29017636
246	0xbebec4f5	-0.3725964
247	0xbe9db9c3	-0.30805787
248	0xbe57835d	-0.21046205
249	0xbe1039d8	-0.14084566
250	0x3c050bca	0.0081204865
251	0xbe3ff959	-0.18747462
252	0xbdac3ff8	-0.084106386
253	0x3eb30d19	0.3497093
254	0x3d8dcfd3	0.06924405
255	0xbde6ccc3	-0.11269524
