Comparative_Evaluation/Baselines/Transformer/models_u/model66.pt (torch, 548629 bytes, 48 tensors)

in_proj_weight f4 [30, 10]
00000000: 9bcd 4abd fd0d edbd 6058 8f3e 1dc0 593e
00000010: 753f cb3d fb8e 5bbd 7496 3d3e ba76 e53c
00000020: 0542 5abc 3691 873e f9e4 813e 6edb 7d3c
00000030: 835a cabc 3434 29bd 6309 4c3e dc5b 123e
00000040: 519c cfbb bc38 7e3e b092 4b3d 2119 8c3d
00000050: 2856 113b b82c 553e facc 1ebe 7b9f 5abc
00000060: 5649 193e 537e 853e b9ea 8a3e 8874 733e
00000070: 2adf 34bd 3f5d 9abd f44c 3e3e 10bf f33c
00000080: 3f9f 58bc 20d0 ee3d a264 8c3e 8d77 54ba
00000090: eb81 d83d 41cc 8dbe 6b5c 173e a5eb 743e
000000a0: 63ba 7f3e 71a3 503e c6a9 54be 811e 5ebd
000000b0: 5232 52bd 8a58 e93d 9dda 003e 1c45 443e
000000c0: e553 d53c 1ddd be3c 664f 38be 0f00 8e3b
000000d0: 7f64 85be 8edb 87bb bc39 de3d 5a36 91be
000000e0: ad14 3abb 18ef ed3c 1c0e dc3d 6c64 693e
000000f0: 0c0c d13b 3efa 853d 42a1 82b9 2f68 123e
00000100: a56c 80bd ee86 f3ba 8c7e 55be 5a74 5b3c
00000110: eef6 77be f2c9 86be 83db 983b da3d 063e
00000120: 8a2f ca3d fdf5 873d 1ef7 763e f68e 8a3e
00000130: 7c04 3e3e 77f4 ffbd d7ba 0f3d 3411 923d
00000140: f80d 493e a18d afbd 9581 93be 5d18 81be
00000150: f002 7fbd 86f9 853d dc40 81bb 7e95 5b3e
00000160: cc01 c63d d80d 8c3b 13c0 903d ed71 5e3e
00000170: 13a9 3d3e b632 9ebb 9226 80bd 18a6 eebd
00000180: f1d8 09be 1bc5 923e dc07 ac3c 0ad4 54be
00000190: 8c69 54be 66dc 173e 228a 9dbd 90d2 2dbd
000001a0: e4fc 18be 9e76 e1bb e9ff 7b3e 6c53 713b
000001b0: 2250 32bd 929b cdbb c3bb debd b40c 25bd
000001c0: 9ade 4e3b dc4d 713e 2806 74ba b323 933b
000001d0: df51 45bd 8931 a13d e254 553d 993f 263e
000001e0: aac3 f43d 8056 e3bd 4bb5 4abe f021 8cbe
000001f0: 8295 3ebe 08f0 413c 92e7 913e 9b7f b0ba
00000200: aaca 3f3e 1768 b93d f266 e53d 8ae0 273e
00000210: f7d0 c8bd 2b81 2e3c a2fb 3ebc 15ef 0dbe
00000220: 1827 3e3e a10e e13d 5ce1 24be 2a0b 7abe
00000230: 5e1e 333e 3a59 663e 4d52 2a3e 2acc 29bd
00000240: e983 92be e0b3 123b 1cf9 07bc 3804 9dbd
00000250: b039 883b 81ab 86bc 7054 7dba b632 debd
00000260: ca8a 4abe cb65 2e3e 7fdf eb3d a2d3 5a3c
00000270: 4653 b13d 0a53 553c 1de5 6fbe e772 693e
00000280: 91bb 48be b23c 83bc 5ba5 5a3e ecb5 41be
00000290: c0ca 7dbe 7806 6b3e cc96 92bb 4a01 2abb
000002a0: cb39 6fbb c232 003b a272 43be 39ba 2d3e
000002b0: 2578 05bd 29c3 503e dfd6 ae3d 4238 0ebe
000002c0: 8d7e 373e 1eac c33b 768c f5bb a9f0 243d
000002d0: f606 b13d 8d96 1cbe 78a2 353e 7f4c 3c3c
000002e0: b853 573e 54a1 80be df8f 49be 84f9 90be
000002f0: 2a00 c0bd fa73 75be ebea 293c aa90 5c3e
00000300: a6c8 1fbc a618 293d d0ca 75be c440 743e
00000310: 8fa9 483e 534e 85be e58e dcbd 4d5a 573e
00000320: 8b88 10bd a33b 0a3e 0672 5f3e bb8d 34be
00000330: cf49 c23c cac5 343e 44f1 29be 0ffc b5be
00000340: f72c afbe 0348 a5bd 7d5f 85be 59ec c3bd
00000350: 7352 a33d 3bff f23d acff a5be 4785 943e
00000360: 5782 57be 8ab5 cb3d 20a4 523e d240 4f3e
00000370: 6700 fabd c435 a63e 302a 053e b756 053e
00000380: d5b7 d9be dccd d23d 30fd 883e c66a 0bbe
00000390: e46f dfbc e0bb a3bd a566 1ebd ffee ae3d
000003a0: b7e8 dfbd 2988 c5be 2efc a43e f129 bf3e
000003b0: 5422 263e 12df 893e 29a4 65be 73ed 07bd
000003c0: 094d 79be 0c0d 70be 118d 6c3d dc4a a53e
000003d0: b415 a3be 031f 57be 357a ac3e 2cad 113d
000003e0: 8344 153e b6b8 463d 7f35 67bd 242e 843e
000003f0: adba bc3e aac3 89bd dd20 7a3e 7bed b53e
-0.049512487 -0.11574934 0.27997112 0.21264692 0.09924213 -0.053603154 0.18514425 0.028010715
-0.013321404 0.26477975 0.25370005 0.015494211 -0.024701362 -0.04130955 0.19925456 0.14292854
-0.006335773 0.2482633 0.04970044 0.068407305 0.0022176597 0.2081784 -0.1550788 -0.013343687
0.14969382 0.2607294 0.27132204 0.23774922 -0.04415814 -0.075373165 0.18584043 0.029754192
-0.013221561 0.116607904 0.27420527 -0.00081049727 0.10571655 -0.27694896 0.14781348 0.23918016
0.24973445 0.20374848 -0.20767888 -0.05422831 -0.05131752 0.113938406 0.12583394 0.19166988
0.02604098 0.023298794 -0.17999038 0.004333503 -0.26053235 -0.004146046 0.10850856 -0.2836178
-0.0028393671 0.029044673 0.10744879 0.22792214 0.00637961 0.065418705 -0.0002491568 0.14297555
-0.06270722 -0.0018579641 -0.20849055 0.01339444 -0.2421529 -0.26325947 0.0046648397 0.13109532
0.098723486 0.066387154 0.24117705 0.27062196 0.18556398 -0.124978 0.035090294 0.071321875
0.19634235 -0.085719354 -0.288098 -0.252139 -0.06225866 0.065417334 -0.0039444994 0.21443745
0.096683115 0.0042741112 0.07067885 0.21723147 0.18521528 -0.0048278226 -0.06257357 -0.116527736
-0.13461663 0.28666005 0.020999841 -0.20784011 -0.20743388 0.14830169 -0.07692362 -0.042437136
-0.1494022 -0.0068805953 0.2460934 0.0036823405 -0.04353345 -0.006274649 -0.108756565 -0.040295318
0.0031565786 0.23564857 -0.00093087787 0.0044903397 -0.04817378 0.07870776 0.052082904 0.16235198
0.119513825 -0.11100483 -0.1979572 -0.27369642 -0.1861172 0.011837013 0.28496987 -0.0013465764
0.18729654 0.09053057 0.11201276 0.16394249 -0.09805482 0.010650913 -0.011656674 -0.13860734
0.185696 0.10989118 -0.16101593 -0.24418321 0.17492053 0.22494975 0.16632958 -0.04145447
-0.28616264 0.0022385046 -0.008299138 -0.0766682 0.0041572675 -0.016439201 -0.0009663766 -0.10849516
-0.19779506 0.17031018 0.11517238 0.013356121 0.08658461 0.013020286 -0.23427244 0.22797738
-0.19602801 -0.016020153 0.2135214 -0.18917054 -0.24784374 0.22951686 -0.004473543 -0.002594071
-0.0036502953 0.0019561504 -0.19086698 0.1696557 -0.032585282 0.20386948 0.08537077 -0.13888648
0.17919369 0.0059714457 -0.007493551 0.040268574 0.08643906 -0.15291806 0.17737758 0.011492847
0.2102803 -0.25123084 -0.19683789 -0.28315365 -0.09375031 -0.23970023 0.01037095 0.2153956
-0.009752428 0.041283272 -0.24003148 0.23852831 0.19595931 -0.2603632 -0.107694425 0.21030541
-0.035286468 0.13499312 0.2182084 -0.17632191 0.023716835 0.17653576 -0.16595942 -0.35543868
-0.34213993 -0.08070376 -0.26049414 -0.09566564 0.0797471 0.118650876 -0.32421625 0.29007933
-0.21045814 0.09946735 0.20570421 0.2023957 -0.12207108 0.32462895 0.13004375 0.1302136
-0.42523065 0.10293171 0.26755667 -0.1361495 -0.027275033 -0.07994819 -0.03867211 0.08541679
-0.10933059 -0.38580444 0.32223648 0.37336686 0.16224033 0.26928002 -0.22425903 -0.033185434
-0.24345793 -0.23442477 0.05775172 0.32283676 -0.31852496 -0.21007924 0.33686987 0.03556554
0.14576916 0.048515998 -0.056447502 0.25816453 0.36861172 -0.06726773 0.24426599 0.35532746

in_proj_bias f4 [30]
00000000: 0000 0000 0000 0000 0000 0000 0000 0000
00000010: 0000 0000 0000 0000 0000 0000 0000 0000
00000020: 0000 0000 0000 0000 0000 0000 0000 0000
00000030: 0000 0000 0000 0000 0000 0000 0000 0000
00000040: 0000 0000 0000 0000 0000 0000 0000 0000
00000050: 2883 ebbc 964c d23c babf 40bd e9f4 2bbd
00000060: 7a7c bf3c 7775 b1bc 5792 5abc c321 8abb
00000070: d1d3 093d a1b8 60bb
0.0 0.0 0.0 0.0 0.0 0.0 0.0 0.0
0.0 0.0 0.0 0.0 0.0 0.0 0.0 0.0
0.0 0.0 0.0 0.0 -0.028749064 0.025671285 -0.047057845 -0.04198161
0.023374785 -0.021662457 -0.013340554 -0.0042154505 0.03364927 -0.0034289735

weight f4 [10, 10]
00000000: 9ab2 a2be 627c 293e cb2e b23e 49a6 e8be
00000010: b97b 74be 3630 e2be 9acf a13d a330 10bf
00000020: c779 873d 6caf 4d3c 1061 1fbe 667d ebbe
00000030: 7ff9 023f c3de fa3e ca92 2dbe 8df4 753e
00000040: 6426 dc3e d2b2 f2be c1ea 073e 3523 8cbe
00000050: 67f4 493e 048f c4be 8d8c bdbe 8ea1 d6be
00000060: 65d6 99be 4c0a c73c 1293 e83e 0c02 2c3e
00000070: dbb1 d4be ba35 f1bd 7146 66be fa73 3e3d
00000080: 2e6c 46bc 0e87 a83d 2427 11bf 75c6 61be
00000090: cd3a c2be 5365 eebe cc59 a9bd d378 c63e
000000a0: 7bf6 ebbe ef93 e93e 283f 303e fb52 c63e
000000b0: 1c97 bcbe f9b7 e5be df9f a7be e1bd a5be
000000c0: fe26 ffbe edb2 343d 82b3 cabe 353c 853e
000000d0: 3ca3 2fbe 3689 b13d 8bdf 673c 396f df3e
000000e0: 41d2 e2bd 2b98 d2bc e0cf 983d 5b04 c4bd
000000f0: a973 04bf ee85 fa3e 0267 02bf dbeb fc3e
00000100: 1ff8 823e 7631 04bf 45ad cdbe 1d01 d2be
00000110: 44c7 ec3e 83fb 473e f6ba db3e e9c4 fcbe
00000120: ced0 80be 94a3 203e d4f6 bcbd 4b58 143e
00000130: fa55 a43e 7590 753d 56ef 0cbf 3243 813e
00000140: 9d61 cdbe 8a07 8f3e 278c c0be 9fdb 6fbe
00000150: 43ea 9bbc b843 8f3e 9967 c5be 4f52 113e
00000160: c567 c33e 2ebb fa3e 7738 1c3e 3e43 473e
00000170: d851 fd3e f6af e83d 7300 e43e ae68 8b3e
00000180: c69c e8be 81fc 77be 894e 013e 9c5f c5bd
-0.31776887 0.16551355 0.34801325 -0.45439366 -0.23875321 -0.44177407 0.07900925 -0.56324214
0.06615024 0.012554031 -0.1556437 -0.4599411 0.5116195 0.4899808 -0.16950527 0.2401907
0.4299804 -0.47402054 0.13273145 -0.2737061 0.19722138 -0.38390362 -0.37021294 -0.4192013
-0.30046383 0.024296902 0.45424706 0.16797656 -0.41541943 -0.11777826 -0.22487809 0.046497323
-0.012110753 0.08228885 -0.5670035 -0.22048362 -0.37935486 -0.4656168 -0.082690805 0.38764057
-0.46086487 0.45620677 0.17211592 0.38735184 -0.36834037 -0.44866922 -0.3273916 -0.3237143
-0.49834436 0.04411595 -0.3959008 0.26022497 -0.17152113 0.08668749 0.014152418 0.43639544
-0.11075259 -0.025707325 0.07461524 -0.09571143 -0.51738983 0.48930305 -0.5093843 0.49398693
0.25579926 -0.5163797 -0.40171257 -0.41016474 0.46245778 0.19529538 0.42916077 -0.4936898
-0.25159305 0.156874 -0.09226766 0.14486806 0.32096845 0.059952218 -0.550527 0.25246578
-0.40113536 0.2793544 -0.37606928 -0.23423623 -0.019032603 0.27981353 -0.385556 0.14191554
0.38165107 0.48970932 0.15255915 0.19459245 0.49476504 0.11361687 0.44531593 0.27228302
-0.4543211 -0.24217416 0.12627615 -0.09637377

bias f4 [10]
00000000: 44dc b93c 71b5 14bd 5672 6abb 2f7f d9bc
00000010: af12 c03b 822b 35bc 2938 da3c 52f8 13bd
00000020: f35c 02bc ec3e d0bc
0.022688039 -0.03630585 -0.0035773716 -0.026549904 0.0058616023 -0.011057736 0.026638107 -0.03612549
-0.007956731 -0.025420628

weight f4 [2048, 10]
00000000: 7607 cb3c 3c73 ea3a 54d0 203c 7d54 b83b
00000010: c4d0 c53c 46fb 75bc 0d14 ae3c 1cd7 403d
00000020: 7e95 7f3a b41b ee3b 4382 8d3d d27d b83d
00000030: 4f9a 533d a336 243d 2625 893b 2099 933c
00000040: 4fc1 e4bc 8124 3a3d 6529 aebb e8c4 743c
00000050: 2c3d 933c 8b64 703d 4cfb 78bd d3e2 3b3d
00000060: 7797 73bd 10b4 1c3d 0f3a 10bd dbc5 6dbd
00000070: 7a70 4abd 88ff 7fbd d772 d13c 6cfc 0abd
00000080: 08d7 1abd c12d df3c da96 34bc 5a0d f5bc
00000090: a9cf 723d 53bc 79bd dd18 863d 5601 8a3b
000000a0: 1a90 38bc 66fa 61bc 02f3 d8bc 616a 0fbd
000000b0: 212b 36bc c0ac b1bc 4860 983c b360 9d3c
000000c0: 691a 933c bb20 66bd b537 7cbb 0056 6138
000000d0: 632f 58bc 515d 773a 4e7a 8b3b 9e63 563c
000000e0: 6a88 5abc 7b87 b73b 2cd2 ac3b 920c 88ba
000000f0: 901a 9c3c 941b bbbc a079 d43c 05cc a73b
00000100: 5959 083c cd20 c8bc a647 b83c b3a6 b13c
00000110: 63ac 98bc 118b 513c 8129 313d 2b72 4a3d
00000120: a755 f7bb a83a fa3c 55d3 6abc 021c 883c
00000130: d584 93bc 8705 333d 6de5 8ebc 76de b7bc
00000140: 93d8 dd39 6d60 013c 57ff 40bc 9a96 0d3b
00000150: f8bc 5a3a 3cbf 59bc 29c0 2b3c 3cc7 96bb
00000160: 6d89 503c b63d 9fba fc98 2fbd cbde 59bd
00000170: 9869 e1bb 5d12 60bd c161 9cbd 6fd7 65bd
00000180: 24a2 e73c ea58 953c e797 25bc ccee 17bd
00000190: c99c 183d 8d52 3f3d 2c0c 983d 86dd 8b3d
000001a0: 00cc 5d3d 0748 f1bc 3de4 aebb d5ff 563d
000001b0: 495e e13a 9c32 d3bc 9458 4fbd 27ba 18bc
000001c0: 0d62 1ebd f431 babc 0949 8dbc 662f 7a3d
000001d0: fcb1 7e3c 7940 efbb 1b96 593d e385 8dbc
000001e0: b479 09bd 1c21 81bd c42a d43c 0281 7d3d
000001f0: 6c8b 94bc 081b 58bd 7fec 423d eff4 2ebd
00000200: f701 a33c 667e 463d b9cd da3a 28cb b1bd
00000210: 5de7 563c 135e 98bc 49a5 593d d861 203d
00000220: f554 383d 50b9 5fbd b828 acbc e598 9e3c
00000230: 6546 86bc e848 ba3c 8a50 99bd 111a 393d
00000240: ed5f 653d 6ca0 203d ee5b 8dbc 07a1 b43b
00000250: 4526 513d a798 253d 78cf bebb a5b8 da3b
00000260: ecb3 843b e269 813b 9566 8d3b 93e5 88bb
00000270: 8bb3 beba 61e3 c3ba bce8 58bc b9f2 963b
00000280: 7be8 47bc 619a 923d 1769 9a3d 15e8 bfbc
00000290: 9f89 0dbd 9dd7 bebc 9d05 78bd d788 293c
000002a0: 4759 9a3c c5e3 f5bc 9ca3 96bc 9431 593c
000002b0: 6b2f 063d f6bc 01bd 28b3 c1bd d0c2 133b
000002c0: 75d1 83ba 9d52 50bd b708 bcbc 0dd6 bdbc
000002d0: d899 b238 054b 5a3c 6ff9 5a3c bacf 0f3b
000002e0: 3483 ebb9 0899 5a3c f817 84ba d3ce 4e3c
000002f0: 3285 d4b9 22a9 e33b 841f f43b 5310 0ebc
00000300: 73f0 58bc 30cf e93a c024 cc37 c84a 22bb
00000310: 5bc4 4e3b 7eb7 ecba 902c 403b 92a2 16bb
00000320: c61b 17bd 1238 fa3c bbd2 e9bc 61ac 05bd
00000330: 8e7f 35bd 77ad d93c ce7d a9bc cf1a e53c
00000340: 0ec0 2d3d 230a 9b3c a3b4 d43a e1b6 563c
00000350: 9796 6e3a 20b3 9b3a c267 103c 07e0 893b
00000360: f77d 86bb 3920 5abc a216 833b 629d 47bb
00000370: 6d48 913d 304c 9ebc b111 b3bc b51c 6abd
00000380: 917d 82bd d8ce 2bb8 1c5e d1bc bc33 e7bc
00000390: 6c5e 24bc 6e93 45bd 88cf 843d 0b2a 0f3d
000003a0: 38a8 073d 4745 19bd 3a1d 5ebc e0b0 93bc
000003b0: c280 88bd bb02 a4bc c7d7 33bc 4a94 1e3c
000003c0: d17a 65bd b705 81bd 93a8 8b3c 2157 873d
000003d0: 2fc3 8e3d f419 7cbc b3d9 8fbb 5118 4e3d
000003e0: e693 acbc 9e6c 7c3d 2591 3dbc d27e 063c
000003f0: a779 2c3c dde2 d3ba 34da 2ebb 54dc d03a
0.024783831 0.0017887126 0.009815294 0.005625306 0.024147399 -0.015013522 0.021249795 0.047080144
0.0009749754 0.007266486 0.06909611 0.09008373 0.051660832 0.040091168 0.0041853366 0.018017352
-0.027924208 0.04544497 -0.005314993 0.014939524 0.017973505 0.058689635 -0.06078653 0.045870613
-0.05947062 0.03825766 -0.03521162 -0.058050018 -0.049423672 -0.062499553 0.025567455 -0.033932135
-0.037802726 0.027243497 -0.011022294 -0.029913593 0.05928007 -0.060970616 0.06547711 0.004211585
-0.011264825 -0.01379261 -0.026483063 -0.03501356 -0.011118681 -0.021688819 0.018600598 0.019211149
0.01795693 -0.056183558 -0.0038485352 5.3724274e-05 -0.013194892 0.00094362075 0.004256523 0.013085274
-0.013338188 0.0056008673 0.005274078 -0.0010379723 0.019055635 -0.022840299 0.025936902 0.0051207566
0.008322083 -0.024429703 0.022495102 0.021685934 -0.018636888 0.012789504 0.04325247 0.049425285
-0.0075480524 0.030545548 -0.014332612 0.016614918 -0.018007675 0.043706443 -0.017443383 -0.022444945
0.00042313765 0.007896525 -0.011779628 0.0021604658 0.00083441986 -0.013290223 0.010482826 -0.0046013873
0.012728077 -0.0012149129 -0.042870507 -0.053190988 -0.006879043 -0.054705013 -0.076358326 -0.056113657
0.028275557 0.018230874 -0.010107017 -0.03709297 0.037258897 0.046709586 0.074241966 0.068293616
0.054149628 -0.02945329 -0.0053372667 0.052490074 0.0017194237 -0.025780968 -0.050621584 -0.009321726
-0.038667727 -0.022728898 -0.01724674 0.06108036 0.0155453645 -0.007301387 0.053121667 -0.017275756
-0.03356333 -0.06305143 0.025899298 0.06189061 -0.018132888 -0.052760154 0.04758882 -0.042714056
0.019898398 0.048460387 0.001669339 -0.08681327 0.013116685 -0.018599546 0.053136144 0.03915581
0.045002896 -0.054620087 -0.02101551 0.019360015 -0.016390989 0.022739843 -0.07486065 0.045190874
0.055999685 0.03921549 -0.01725575 0.00551236 0.051061887 0.040428784 -0.005823072 0.0066748434
0.0040497687 0.00394939 0.0043152072 -0.004177758 -0.0014549358 -0.0014945084 -0.013239082 0.0046065715
-0.012201424 0.07158352 0.075395755 -0.023426095 -0.034555074 -0.023296172 -0.06055223 0.010347567
0.018841399 -0.030015836 -0.018388562 0.013256449 0.032760065 -0.031674348 -0.094579995 0.0022546537
-0.001005693 -0.050860036 -0.022953374 -0.023173356 8.516357e-05 0.01332355 0.013365134 0.0021943883
-0.00044920447 0.01334215 -0.0010077944 0.012622553 -0.0004053503 0.0069476524 0.007450046 -0.008670884
-0.013240921 0.0017838236 2.4335808e-05 -0.0024763811 0.0031550142 -0.0018060056 0.0029323436 -0.0022985083
-0.03689172 0.030544315 -0.028542867 -0.032635096 -0.0443111 0.026571972 -0.020689871 0.027966885
0.042419486 0.018925732 0.001622815 0.013105125 0.0009101419 0.0011878945 0.0088138 0.0042076143
-0.0041043716 -0.013313347 0.004000501 -0.0030458798 0.07093892 -0.019323438 -0.021859022 -0.057156283
-0.06371606 -4.0962215e-05 -0.02555757 -0.028222911 -0.010032278 -0.048236303 0.06484896 0.034952205
0.03311941 -0.037419584 -0.013556773 -0.018028677 -0.066651836 -0.020020833 -0.010976738 0.00967891
-0.05602533 -0.06299918 0.017048156 0.066084154 0.06970822 -0.015387047 -0.0043899654 0.05031616
-0.021066617 0.061627023 -0.01157025 0.008208947 0.010527051 -0.0016165633 -0.0026680352 0.0015934804

bias f4 [2048]
00000000: ce9a 94bd 8f9d 513c 73c7 97bd e12a 783e
00000010: a5f1 69be 4ab6 2cbe eae5 e83c f4e9 103e
00000020: f60f 28be 31b7 0bbc 089c 693d d800 cf3d
00000030: fff8 273e ed70 1c3e 3851 0fbe eae6 41be
00000040: c4ae 2a3e ab38 bb3d ee73 48be 7a59 ddbd
00000050: 983b 663e 48b3 3ebe f5e6 723e cdb6 3f3e
00000060: 0909 a43e 9d9b 2cbe 2150 273e 0497 42be
00000070: cfda e0bc be16 21bd 30f9 103e 5fa1 443e
00000080: 8dc0 903d 62ab debd f99f 193e 8895 973e
00000090: 5b84 ddbd b29f 363e 9dd5 783e ccfc 34be
000000a0: 664a 133e 397a 753e 476a aa3c 1a2c 703e
000000b0: dda6 303e a4dc 743e 416a 2cbe ea70 54bd
000000c0: 65f5 533e d626 293a 3078 603e 9044 993d
000000d0: a47b 8c3e bc9f 09bd d40c 823e 71d1 febd
000000e0: 36e5 56be 0699 fb3d 1b7a 843d 9802 613d
000000f0: 79e0 1f3e 867b 18bd fb35 34be 9fb8 42be
00000100: ea04 18be c08f bd3d 1fbd 2fbe f4f3 213e
00000110: 723d 55be c843 95bd 7fc5 313e 29b0 8c3e
00000120: 7855 c1bd 454b 4c3e 8ef3 dc3c 05c8 113e
00000130: fba1 55be beae 1d3e d9c2 f33d 7007 26be
00000140: fa4f 0d3d ea8d c4bc b5ec 42bd 372b aebd
00000150: a7e4 1bbe efba 0dbe b470 21bd 1d05 ddbd
00000160: 50e8 143e 9313 d2bd c321 b13d 24e4 17bd
00000170: 0065 cbbc b5a6 32be c055 aebd 3d1d 2d3e
00000180: d9a3 26be b78a 39be aa2d 693b 7046 813d
00000190: aad2 ebbd 6e61 3b3e cd54 18be 3323 0abe
000001a0: e15f 563e c3fd 83bc 7031 12be 3342 d3bd
000001b0: c078 29be 3832 7c3e 4bd5 883e dbab 063d
000001c0: e6c0 593e da70 0b3e e4ce ca3c 3183 d33d
000001d0: 034d 72be 8ecb aebd a05e 2ebd c084 09be
000001e0: a5c2 82bd d623 7dbd fa7e 5bbc e0fc 30be
000001f0: ff9d b6bd 5914 85bd 233a 003e 064b 3c3e
00000200: 928d 313e 3556 193e 2f0e e3bc 31df 3ebe
00000210: dd4a 8d3e 40a3 0cbe 0e18 153e d674 793e
00000220: 6a44 6c3e 49e5 2dbe 4291 c23d 11bf 7c3d
00000230: dd8d 01be 0147 6dbe 6d11 fabd b3c9 ac3d
00000240: 77b3 153e 740b 543d 7b88 e8bd ff46 7a3e
00000250: b847 26be 38eb 40be b48a 26be 2021 c3bd
00000260: 7ad5 23bd 1057 433e 89f7 37be efec 36bd
00000270: 4886 e6bd f83f 6dbd 393e 09be 3c65 903e
00000280: 37b9 663e f8c6 26be d39c 2bbe f8f6 87bd
00000290: 2706 7f3e 030e 38bd 26e5 803e 6b1a 9a3e
000002a0: cd9a d6bd 92c3 c13c 4c0d 04bc 7790 05be
000002b0: 71de 103e 4949 8d3e f69d 183e ddeb 103e
000002c0: af9f 1ebe a1e7 4b3e c20b 88bc e01a d93d
000002d0: 6dd7 c0bc 4eac 19be 2f3b 543e 261f 3bbc
000002e0: 9553 443e 3add 033e bcbe ed3d 8cea c93d
000002f0: 31d0 57bd eb90 e2bd edcf 803d c73b 653e
00000300: dc98 37bd 5a5d 4a3e c206 23be df6d 053e
00000310: 8e5e 643e 42cb 36bd b11d 30be 9c19 e3bd
00000320: 9a0c 0cbe 5c4b 5abe 7f36 843e 303e 5abd
00000330: e465 22be 6e11 a43e 659c 1dbd 07c5 503e
00000340: 259d a03c d80d c63d 5d94 183e fa87 a7bc
00000350: a678 01be fa64 3abd ea25 b2bd 090b a13d
00000360: add0 d13d 13ab 653e 0cf6 8ebd aa77 01be
00000370: 2c96 853e d648 6f3e 0387 73bd 2e9a 8e3e
00000380: 30a6 cabd 8e38 2ebe 818d 14be b9b4 713d
00000390: bf57 f4bd ae70 34bd a4d0 0f3e c745 803e
000003a0: 7f39 9dbc 98a9 bbbd 114d 7c3d 58f6 efbc
000003b0: c416 02be b644 07be 9510 c9bd 1094 41be
000003c0: 5cae 793e c6c2 41be bc23 8c3e 8a5c 17be
000003d0: 43fa 4abe d59d d53d f595 d9bd b649 2dbd
000003e0: 4dd6 3fbe 5083 63bc 68c8 873d 62e7 2d3e
000003f0: 0ad5 50be b8c2 3f3e aa52 273e 7da8 01be
-0.07256089 0.012793913 -0.07411089 0.24235107 -0.22846086 -0.16866413 0.028429944 0.14151746
-0.16412339 -0.008527563 0.05703357 0.10107583 0.16403578 0.15277453 -0.13995826 -0.18935743
0.1666823 0.09141668 -0.19575474 -0.10808082 0.2248367 -0.18623078 0.23720916 0.18722077
0.32038143 -0.16856237 0.1633916 -0.1900292 -0.027448086 -0.03932833 0.14157557 0.19202183
0.07067976 -0.108725324 0.15002431 0.2960627 -0.108162604 0.17834356 0.24300237 -0.1767456
0.1438385 0.23972405 0.02080263 0.23454323 0.17251153 0.23912293 -0.16837408 -0.051865496
0.2069908 0.00064526254 0.21920848 0.074837804 0.2743808 -0.0335996 0.25400412 -0.124422915
-0.20985875 0.12285046 0.06468602 0.054934114 0.15612973 -0.037227176 -0.17598717 -0.1901574
-0.14845625 0.09255934 -0.17161988 0.15815717 -0.20824221 -0.07288319 0.17360495 0.2747815
-0.0944013 0.19950588 0.026971605 0.14236458 -0.20862572 0.1539869 0.119023986 -0.16213775
0.0345001 -0.023993451 -0.047589023 -0.08504336 -0.15223943 -0.13840841 -0.039414123 -0.10791991
0.14541745 -0.1025764 0.08649018 -0.037082806 -0.024828434 -0.17446406 -0.08512449 0.16905685
-0.1627344 -0.18119322 0.0035580196 0.06312263 -0.1151479 0.18298885 -0.14876099 -0.1348999
0.20935012 -0.016112214 -0.14276671 -0.10315361 -0.16549969 0.24628532 0.2672523 0.032878738
0.21264991 0.13617268 0.024756856 0.10327757 -0.2366219 -0.08534919 -0.04257071 -0.13429546
-0.06384782 -0.061801754 -0.013396973 -0.17283964 -0.08916854 -0.06498022 0.12522177 0.18387994
0.17339161 0.14974292 -0.027716724 -0.18639828 0.2759618 -0.1373415 0.14559957 0.24360976
0.23072973 -0.16981997 0.09500362 0.061705653 -0.12651773 -0.23171617 -0.12210355 0.084369086
0.14619242 0.051768735 -0.113541566 0.24441145 -0.16238296 -0.18839729 -0.16263849 -0.095278025
-0.03999851 0.1907618 -0.17965521 -0.04465955 -0.11256081 -0.057922333 -0.13402642 0.28202236
0.22531591 -0.16286838 -0.16759042 -0.066389024 0.2490469 -0.044935238 0.25174826 0.3009828
-0.10478745 0.023652826 -0.008059811 -0.1304339 0.14147355 0.27594975 0.14904007 0.14152475
-0.15490602 0.19912578 -0.016607169 0.10600829 -0.023540223 -0.15007135 0.20725702 -0.011421001
0.19172509 0.1287736 0.11608645 0.098591894 -0.05268878 -0.11062797 0.06289659 0.22386084
-0.044823512 0.19762173 -0.15920547 0.13030194 0.22301695 -0.044627436 -0.17198826 -0.11088869
-0.13676682 -0.2131781 0.25822827 -0.053281963 -0.1585918 0.32044548 -0.038479228 0.2038766
0.019606182 0.09670609 0.14900346 -0.02045058 -0.1264368 -0.045506455 -0.08698638 0.07863433
0.1024488 0.22428541 -0.069805235 -0.12643304 0.26091135 0.23367628 -0.05945493 0.27852005
-0.09894979 -0.17013761 -0.14507104 0.05901024 -0.11930799 -0.044052772 0.14044434 0.25053236
-0.019192455 -0.09163207 0.061596934 -0.02929227 -0.12703997 -0.13209805 -0.09817616 -0.18904138
0.24382919 -0.18921956 0.27371013 -0.14781395 -0.1982203 0.10430495 -0.10624305 -0.042306624
-0.18734093 -0.013886288 0.06630021 0.16982797 -0.20393768 0.18726623 0.16340128 -0.1266193

weight f4 [10, 2048]
00000000: 4b35 66bc c0e6 8f3c f1b3 21bd 595a e8bc
00000010: 6535 403d 02bd 793b 471a e93c 8797 463d
00000020: ab6d 313b 36dd b0bb e295 363d 07ba 0e3d
00000030: 8ab8 603c 14b9 e2bc c266 ef3c beca 1bbc
00000040: 953a 923d 6278 393d 8cb1 0a3a fc90 9fba
00000050: ee6c aebc 5121 093b 6618 8ebc d0c5 e63c
00000060: 878e 133d 7ade 01bb f703 0c3c 70b4 ecbb
00000070: ab22 a03b 37ba 563d 3f96 e53c 9707 60bb
00000080: d282 4c3c 2aaf 0a3b 92ba 3b3d ea27 e33c
00000090: a1e8 073c e1bb ae3c bb18 f6bc 6af7 68bb
000000a0: b323 233d 12f9 873d 2535 5d3d 6831 543d
000000b0: 0080 9a3c b355 753d 5e4d 80bb 03d8 083d
000000c0: e0c5 353b 99ca 55bc 247e 23bc 21f0 01bd
000000d0: 427b 033a 375e 71bb 6b97 bb3c 2f86 7d3d
000000e0: 8818 ab3c 135c 23bd 72ed 243d 46d0 e83c
000000f0: ab48 6dbd f807 503b 9ac5 a8bb 6e25 2b3c
00000100: 7afe 053d 8637 06bb a1e8 9aba 28b6 4b3c
00000110: 4b76 34ba ce74 9b3c b640 163d 0f1f 083c
00000120: b490 5139 5bf0 a73c 0395 18bd e293 ffbc
00000130: 988a 5eba 3599 4b3d 1747 7f3d 1a6a 37ba
00000140: 2704 a53b 6903 8dbd a211 383c d1d1 40bd
00000150: 098a 583c 6d22 e03b 9c0a 043b 8b0d 8abb
00000160: 2a64 573d 02ad 413b c518 e53c 89fa 513d
00000170: 8461 2e3a 36af a63a e545 9fbd ddf9 5a3d
00000180: 4103 ceb9 804e cb3a ae73 583c b70b cb3c
00000190: 92ba 473c 1060 42bc 1bc8 5c3d 33ea 403c
000001a0: 18c8 203d b8cf d5bc ced8 4e3a 1c45 923a
000001b0: ad7c 5bbd 1d5a 8cbc 1ffc d7bc 04cb 9f3c
000001c0: 8640 7a3d 507b 843c c548 073d d424 abbc
000001d0: 07fa 42bc 3193 0abd b450 57bc 3fe1 cf3a
000001e0: 17e6 5abc b2e6 5a3c 2948 29bc 30ff 973b
000001f0: a285 ddba 51f2 f1bb f751 833d 2393 f8bc
00000200: 6296 32bc ec30 733d 4693 403d c673 0fbc
00000210: 75a9 0d3b 7c6f 17bc f057 c4bc 4058 a1bc
00000220: affb 503d 0074 2038 32fe 233c da70 afbc
00000230: fe9b a2bd 77e8 863c 6578 5a3c 1ac3 563c
00000240: 7d94 80bc 02c0 973c 5b23 ba3c 8a28 753d
00000250: ab7b 8cbb 0adf f2ba 8772 45bc 2f10 283d
00000260: fa23 85b9 681b 063d 92c7 f03a e81b 91bd
00000270: 4671 5abc a2be 533d a990 3a3c a4bb b53c
00000280: 5a25 17bc 2e4a 3dbc fcf5 d6b9 4e66 9f3d
00000290: e175 3c3d 2331 bfbd a422 64bb 6afe 283d
000002a0: faea b8bc 863a c5bc 7886 753d e773 0cbc
000002b0: eda3 823d 9778 1c3d 64d0 ae3c de44 04bd
000002c0: f6c5 63ba 20b1 223d c414 16bc 1b56 dc3c
000002d0: 9381 313d dcc9 eeb9 a2c9 753d 6232 38bc
000002e0: f3aa 913d 07bb e63b bcad 473c 4f8a fe3c
000002f0: f028 d0b8 0192 80bb d2cc 843d 06bc 1c3d
00000300: 3a9e 2c3d d4ba 8a3c 7665 f13a fdb0 793d
00000310: 19ac e1bb d852 2dbd 0aa2 403b 7f1e 083c
00000320: a441 bcbc 7f37 dabb 198b 733d 1e25 f53a
00000330: d7c4 5abc f214 033d 02e5 bfba bdbd acbc
00000340: 6d10 07bb dd7f 523d e867 1ebd 83df edbc
00000350: da71 ecba 9a70 a43d fc3f 233c db9a 303b
00000360: 92a1 773c 1660 2abd 9d7d 5abc 04c7 493d
00000370: a589 1e3d 32e8 7a3d 52a9 8d3b 2235 12bd
00000380: 6663 45bc 235a b13a db9a 89bd fdf2 8abd
00000390: 0191 0abd 903a 463d b6ea 503d 9b95 61bc
000003a0: 9dfb e43a 6aaa 9bbc be88 adbb 496b c63b
000003b0: b53c f6bb dbde 303c abcd 7e3d 8c17 403c
000003c0: e36d 273c 0275 87bb 56ed 753d c048 beb8
000003d0: 8c9b 01bb 68bb c53a 62cb fa3b 704f a5bc
000003e0: 1851 f0b9 bdfe 66bb ec70 013d 6ee1 723d
000003f0: c6d2 593c 7df5 ee3c 01b2 903d f84a 59bd
-0.014050792 0.017566085 -0.039478246 -0.028363394 0.04692592 0.0038107042 0.028454913 0.04848435
0.0027073424 -0.005397464 0.044576533 0.03484538 0.013715873 -0.027676143 0.029223803 -0.009508787
0.0714008 0.04528082 0.0005290739 -0.0012173946 -0.021292176 0.00209244 -0.017345618 0.028170496
0.036024597 -0.0019816444 0.008545867 -0.0072236583 0.0048869452 0.052423682 0.028025744 -0.0034184211
0.012482362 0.0021161535 0.045832224 0.027728993 0.008295209 0.021329822 -0.03004109 -0.003554786
0.039828967 0.06639303 0.05400576 0.05180493 0.018859863 0.059896182 -0.003915473 0.03340913
0.002773635 -0.013048791 -0.009978805 -0.031723145 0.000501562 -0.0036829838 0.02289935 0.061895546
0.02088572 -0.03988273 0.040265508 0.028419625 -0.05793063 0.003174303 -0.005150509 0.010445936
0.03271339 -0.0020479872 -0.0011818596 0.012433566 -0.0006884082 0.018976595 0.036682807 0.008308186
0.000199857 0.020500353 -0.037251484 -0.031198446 -0.000848928 0.049706656 0.062323656 -0.00069967064
0.0050358954 -0.06885416 0.011234673 -0.047075097 0.013216504 0.0068400414 0.0020147925 -0.00421304
0.05258576 0.0029552584 0.027965913 0.05126432 0.0006652104 0.0012717012 -0.07777003 0.053460944
-0.00039293806 0.0015511066 0.013211174 0.02478586 0.012190478 -0.011863723 0.053901773 0.011774587
0.039253324 -0.026100025 0.0007890583 0.0011159512 -0.053585697 -0.017132813 -0.026365338 0.019505985
0.06109669 0.016172081 0.033028383 -0.020891584 -0.0119004315 -0.03383178 -0.0131418 0.0015859975
-0.013360522 0.013360666 -0.010332146 0.004638575 -0.0016900788 -0.0073836227 0.06412118 -0.030343598
-0.010900112 0.059372827 0.04701545 -0.00875563 0.0021615897 -0.009242889 -0.023967713 -0.019695401
0.051021274 3.8255006e-05 0.010009335 -0.021416117 -0.079399094 0.01646827 0.013334368 0.013108039
-0.015695805 0.018524174 0.022721937 0.059853114 -0.0042872033 -0.0018529606 -0.012051231 0.04103106
-0.0002539454 0.03274098 0.0018370023 -0.07085401 -0.013332671 0.051695473 0.011387029 0.0221842
-0.009225214 -0.01155333 -0.00041000533 0.07783185 0.046010856 -0.09335544 -0.0034810686 0.041258253
-0.022572983 -0.024075758 0.059942693 -0.008572555 0.063789226 0.03820094 0.021339603 -0.03229224
-0.0008688861 0.0397197 -0.009160224 0.026896527 0.043336462 -0.00045545294 0.060006745 -0.011242481
0.07112684 0.0070413384 0.012187418 0.03107181 -9.925838e-05 -0.003923655 0.06484379 0.03826525
0.042143084 0.01693479 0.0018417079 0.060959805 -0.0068869707 -0.042315334 0.0029393458 0.008308052
-0.022980519 -0.0066594477 0.059458826 0.0018703078 -0.013352594 0.032002397 -0.0014640393 -0.021086568
-0.0020609156 0.05139147 -0.03867331 -0.029037243 -0.0018039302 0.080292895 0.0099639855 0.002694777
0.015114205 -0.04159554 -0.013335613 0.04926206 0.038705487 0.061256595 0.004323163 -0.035695203
-0.012047624 0.0013530891 -0.067189895 -0.067846276 -0.033829693 0.048395693 0.051005088 -0.013768579
0.0017470006 -0.019002158 -0.005295842 0.00605527 -0.007514561 0.01079532 0.06220786 0.011724364
0.01021907 -0.0041338215 0.060040794 -9.073457e-05 -0.001977655 0.0015085759 0.0076536397 -0.02017948
-0.00045836787 -0.003524705 0.03160183 0.059297018 0.013294881 0.029169792 0.070652016 -0.05305001

bias f4 [10]
00000000: a1dc a93c 5e29 92bc 6bc3 8d3c eb27 10bd
00000010: 225d 16bd 6326 9ebc 3744 313d 5a7b 44bd
00000020: b97c 3ebc e948 a2bb
0.020735087 -0.017841991 0.017305097 -0.03519432 -0.036709912 -0.019305414 0.043277945 -0.0479692
-0.011626416 -0.004952539

weight f4 [10]
00000000: e4d5 7e3f 9cb8 833f 07f5 793f 5391 7a3f
00000010: 570f 873f cc60 7e3f 2699 833f 2ddd 7a3f
00000020: be19 7a3f 81f6 793f
0.9954512 1.0290713 0.9763951 0.97878 1.0551556 0.9936645 1.0281112 0.9799374
0.9769553 0.9764176

bias f4 [10]
00000000: 2180 973c 7d0a efbc 4d8b e03c 8f03 09bd
00000010: 67ef 46bc da16 33bc 5d85 ba3c d1eb 19ba
00000020: ef9e 4fbc 8a9f e2bc
0.018493714 -0.029179806 0.027410174 -0.03345066 -0.012142039 -0.010930741 0.02276867 -0.0005871626
-0.01267217 -0.027663965

weight f4 [10]
00000000: 7835 743f 8001 843f e2d2 793f 59c1 833f
00000010: 5a5c 853f eadd 783f 3db4 823f 7a67 803f
00000020: d4c2 763f 3101 7b3f
0.95394087 1.0312958 0.97587407 1.029338 1.0418808 0.97213614 1.0211254 1.0031579
0.96391034 0.9804869

bias f4 [10]
00000000: 7e57 5f3c 647d e0bc b828 0b3d 38a4 b9bc
00000010: 0de5 0dbc 4d2f 54bb 2f86 b43c c765 c0bc
00000020: fe24 4dbc 0950 99bc
0.0136317 -0.02740354 0.03397438 -0.022661313 -0.008660567 -0.0032376826 0.02203664 -0.023486031
-0.012521027 -0.018714922

in_proj_weight f4 [30, 10]
00000000: 7582 82be c84c beba 38ad 8dbc 08e7 473c
00000010: 13c5 503e 75e1 fabd 385b 27be 6eef 50bc
00000020: 4fbd 49be f826 953d 3fc3 273e 3a28 a2ba
00000030: 927a bab9 7ea5 f73d 6c7a 083e 3776 433c
00000040: d1c7 503d 8087 f8bd d219 a13d 7def 23be
00000050: 70cb e13a 7158 ea3d 10ab 60be 1eeb 18be
00000060: 77f4 86be f098 483b c326 4ebe 3367 443e
00000070: 81a1 66ba f3a9 b53d ece9 76be 8189 ae3a
00000080: f5c6 86be f0d4 b63d 6da4 6d3d c86e 253c
00000090: 19f6 25be 63e5 d63d ec67 013e 94e2 91be
000000a0: 87d1 5abc 9127 883e 2f4a 82be c536 6c3d
000000b0: 8964 6c3e dd36 8b3e a096 07be f82f 3a3c
000000c0: 1cc5 a93c cf9e 463e 54bf d0bc 1aa2 69be
000000d0: e953 123e 3b35 283e c16e 1fbe cad2 58bc
000000e0: b123 b3bd 871e be3c 5553 c13d a64b 20be
000000f0: bf5e 7dbe 37d7 b1bb 7347 6ebe bfbd 0bbd
00000100: 01b9 713e 2bea 473e 7ada 0ebe 0ea1 6bbb
00000110: ec5a ec3d ff49 6ebe bc5e 4d3e df2c 883d
00000120: 0a8c d3ba f416 243e c6c0 18bc 8ecb 773d
00000130: f60b 8c3b 09ca 3ebb 813d 5ebd d038 863e
00000140: 15a5 d53d 8bc1 45bd 7c1b 3ebb eeae 4bbd
00000150: 314f 9bbb 3f62 6a3e b68a 86be fa84 8b3b
00000160: d89f 813c 6b72 343e ade2 7abd 5e67 73bd
00000170: d512 7fbe 48a1 493e 8b53 933d e09c a1bd
00000180: 8412 50be caa7 733a 0474 34bc 8e8e 8b3e
00000190: 155e 463c 0697 4cbc fa51 893b 699c 1dbe
000001a0: f367 dcbd 8f72 ff3c 353d 3f3c 6fde 8a3e
000001b0: a1e8 853e 89ea 64be e3d7 12bc 6d42 3a3e
000001c0: 9b3a b0bd 1cfd f0ba 1c52 4f3d 43fd 563e
000001d0: 063d 143e 01bb 0c3d df4b 793e 0a58 8dbe
000001e0: 3ac9 9abb 2c51 6f3e f6f9 bb3d 6c2f 3dbe
000001f0: 9566 a5bd 9107 daba 0dd1 8dbd f55d e3bb
00000200: 6bb5 9abc d0b4 3cbb 02f0 43be b5ec 583c
00000210: a3bd 543e de3c 073d 8057 3a3e a361 3cbc
00000220: 8371 0dbe 8061 cdbd bed2 853c e22d 683b
00000230: f509 493d ec93 583c a723 6dbe bc20 1ebb
00000240: 9a9a 02bd bf94 0dbe 1af7 77bc 4afb ee39
00000250: 0b21 54be d505 943e 740b 96bd fcf5 973d
00000260: ea44 313c 2e44 5abe f987 c6b9 46f1 e8bd
00000270: d57c 0b3e 3974 3ebe 8abd f5bd c374 11be
00000280: f02e 6f3e 570d 813d 4eec 87be 2afc 3f3e
00000290: d168 3b3e d322 92be 1435 263e 1eef d73c
000002a0: 5be1 10bd 1a29 16bc 5a59 59be 5904 07bd
000002b0: 3109 12be 7009 87be 577f 503e 5368 e5bd
000002c0: b103 323e 3b75 c9bb eb35 b83d 0005 1fbe
000002d0: 9555 dabb abfe 00bb b2e2 15be 72de d43d
000002e0: 8109 f83c b1a6 2b3e 9007 1c3d e842 7cbe
000002f0: e467 373e a0dd 5fbe fd6e 7ebe c2ab 3abe
00000300: ee51 ca39 99cd 7c3d bfef 9a3d f1f3 5a3c
00000310: 346a 1abe c18a 1abb 20c8 cfbd 5a1c 583c
00000320: 2b8b cbbd ee9d 103e 755e 1e3e 8018 82bd
00000330: 02e8 043e 847a 953e b690 ea3d 6d89 a83e
00000340: 4e95 b43e 6d13 85be cbc6 203e 1ec3 413e
00000350: f4ea 4bbe 9580 ac3c 2796 3abe d442 50be
00000360: 77da 9a3e 183d 9dbe 0538 3ebd 5e24 84be
00000370: f6e8 0a3d dbdf 92be 4912 bb3d d07f 93be
00000380: 9bb3 d63b 55a9 a33e 67bb c03e f7fe 1c3e
00000390: 2448 a03e 06b5 49bc 570d 4a3e 0259 b0be
000003a0: 6d1f c5be 580e 8db8 8565 f03d 7f2d fb3d
000003b0: fbc0 b93e 87a7 a23c 70fa 84be 916a 50be
000003c0: e025 9abe f4ad 043e 5b98 343e 8dfd 7dbe
000003d0: ede8 933d c4eb 9ebe 70c7 b03e db5c 84be
000003e0: d50e d33d 0304 a73d 5f7f a4be 4e2e 903e
000003f0: d10c 1b3e 1091 713e 96ce a3be effc 13bd
-0.25490156 -0.0014518732 -0.017294511 0.012201078 0.20387678 -0.12250034 -0.16343391 -0.012752397
-0.19701122 0.07282823 0.16383074 -0.0012371608 -0.00035568007 0.12092112 0.1332795 0.01193004
0.05097181 -0.121352196 0.07866253 -0.16009326 0.0017226767 0.1144265 -0.21940255 -0.1493344
-0.26358387 0.0030608736 -0.20131974 0.19179992 -0.00087978697 0.08870306 -0.24112672 0.0013316126
-0.26323667 0.08927333 0.058018137 0.010097213 -0.1620716 0.10492971 0.126373 -0.28493178
-0.013355619 0.26592687 -0.25447223 0.05766942 0.23085226 0.27190295 -0.13241053 0.011363976
0.020723872 0.19396518 -0.025481857 -0.22815743 0.14289822 0.16426556 -0.15569593 -0.01323385
-0.08747042 0.023207916 0.094397224 -0.15653858 -0.24743174 -0.005427267 -0.23269443 -0.034116503
0.2360573 0.19522922 -0.1395053 -0.003595415 0.115407795 -0.23270415 0.2005567 0.066491835
-0.0016139757 0.16024381 -0.0093233045 0.06049686 0.004273887 -0.0029112122 -0.054257873 0.2621522
0.104318775 -0.04828028 -0.0029008081 -0.049727373 -0.004739665 0.2288904 -0.26277703 0.0042577954
0.01582329 0.17621772 -0.06125133 -0.05942475 -0.24909528 0.1969043 0.07193669 -0.0789125
-0.20319563 0.0009294717 -0.011013988 0.27257198 0.012107392 -0.012487179 0.0041906806 -0.15391697
-0.10762014 0.031182555 0.011672308 0.27122828 0.26154044 -0.22355093 -0.008962604 0.18189402
-0.08604928 -0.0018385979 0.050615415 0.20995049 0.14476404 0.03435803 0.24345349 -0.2760623
-0.004723695 0.23370808 0.09178536 -0.18475121 -0.080762066 -0.0016634335 -0.06924639 -0.006938691
-0.018885335 -0.0028794296 -0.19134524 0.013240029 0.20775466 0.03301703 0.18197441 -0.011497888
-0.13812833 -0.10028362 0.016335841 0.003542774 0.04908176 0.013218861 -0.23158132 -0.0024128398
-0.03188572 -0.13826273 -0.015134597 0.00045582122 -0.2071573 0.289107 -0.07326403 0.07419965
0.010819653 -0.21315071 -0.0003786681 -0.11374144 0.13621838 -0.18599023 -0.11999042 -0.14204697
0.23357749 0.063013725 -0.26547474 0.18748537 0.18301703 -0.28542194 0.16231185 0.026359137
-0.035371166 -0.009165073 -0.21225491 -0.03296313 -0.14261319 -0.26374388 0.20361076 -0.11201539
0.1738422 -0.006148008 0.08994659 -0.15529251 -0.006663034 -0.0019683044 -0.14637259 0.103939906
0.03027797 0.16762806 0.03809315 -0.24634898 0.17910725 -0.21861887 -0.24847026 -0.18229583
0.00038589485 0.06171951 0.07565259 0.013363824 -0.15079576 -0.002358124 -0.10145593 0.013190353
-0.099386536 0.14122745 0.1546572 -0.06352329 0.12979129 0.29195035 0.11453383 0.32917348
0.3527016 -0.25991383 0.15700833 0.18922088 -0.19913846 0.021057406 -0.18221341 -0.20337993
0.302448 -0.30710673 -0.046440143 -0.25808996 0.033913575 -0.28686413 0.09134347 -0.2880845
0.0065521724 0.31965128 0.37642977 0.15331636 0.3130504 -0.012311226 0.19731651 -0.34442908
-0.38500538 -6.726076e-05 0.11738113 0.12264537 0.36280045 0.019855274 -0.2597232 -0.20353152
-0.3010702 0.12956983 0.17636244 -0.24803753 0.072221614 -0.3103925 0.3452716 -0.25852093
0.10305563 0.08155062 -0.32128426 0.28160328 0.15141608 0.23590493 -0.3199355 -0.03612989

in_proj_bias f4 [30]
00000000: 0000 0000 0000 0000 0000 0000 0000 0000
00000010: 0000 0000 0000 0000 0000 0000 0000 0000
00000020: 0000 0000 0000 0000 0000 0000 0000 0000
00000030: 0000 0000 0000 0000 0000 0000 0000 0000
00000040: 0000 0000 0000 0000 0000 0000 0000 0000
00000050: 43a5 103d 49b7 653c 4fe3 073d 344d dd3c
00000060: 4b77 03bd 2804 133d 9b2a dcbc 5698 1fbd
00000070: 8008 b5bc dfdd 133d
0.0 0.0 0.0 0.0 0.0 0.0 0.0 0.0
0.0 0.0 0.0 0.0 0.0 0.0 0.0 0.0
0.0 0.0 0.0 0.0 0.035313856 0.014020749 0.033175763 0.027014352
-0.03209619 0.035892636 -0.026875785 -0.03896364 -0.02209878 0.036100265

weight f4 [10, 10]
00000000: 68c8 d5be db9c 9d3e 7ba6 5bbe d833 a8be
00000010: 99ea c43d 837f ea3e 190b b13e c87b 4c3e
00000020: 65e0 8bbd bb31 bf3e e325 e8be bb6b 6d3e
00000030: 653e ac3e f65f 0dbe c504 d2bd 718b e1be
00000040: 5e7b 293d d142 0bbf 9538 27be 3c6e debe
00000050: 0ead 703d 4020 323e e0c1 7d3e 74e3 1e3e
00000060: a21f 01bf 555a c33e 929f 0abe f868 80be
00000070: 3cd3 0fbe 272d 113f 2ccf eabe 4f99 7e3e
00000080: 7670 3abe d847 eb3d c44c e13e fa4b a5bc
00000090: 6ee6 66be b751 41be b471 153e 9599 e9be
000000a0: 1bd1 7fbe f3c2 e9be fa8a d8bd f805 e0bd
000000b0: b736 103f b4de 05bf 4073 323d 1676 c53e
000000c0: 66f0 783e 24bf cdbe 9ca0 9f3d 279b c1be
000000d0: 0adc 4ebd 86d9 c1be fcb6 843e e904 12be
000000e0: 7c98 363e 2050 b13e c52b ae3d f377 453e
000000f0: 7aa4 a13e 902c ce3e 82d0 0e3f 110c c03e
00000100: 1a99 0c3f a4f3 d7bd da5a d5be 0c08 ce3e
00000110: d67f a1bd f3d5 c13e 8d4b 7a3d 35eb d53e
00000120: fcdc bcbe 30e7 cfbe b3ac 9b3e 9e08 a5be
00000130: 607f c13e 44cd 8b3e 8b91 003f 3410 9abe
00000140: 5458 c63c 2a96 f2bd ebc2 d3be 7bd3 0fbf
00000150: 957f ee3e 61f6 43be 1b06 fcbe a39c 293e
00000160: 6fa9 e1be 60a2 363e 69c9 223e 6f43 953e
00000170: 5fb2 87be 96f6 473e d696 8cbe 9f47 bcbd
00000180: e194 0fbd 235b 153e d41f be3e 4cca fd3e
-0.4175446 0.30783734 -0.21450226 -0.32852054 0.096150585 0.4580041 0.3457878 0.19969094
-0.06829909 0.3734263 -0.45341405 0.23185627 0.33641353 -0.13806137 -0.10254816 -0.44051698
0.041377418 -0.5439883 -0.16330178 -0.43443477 0.058758788 0.17395115 0.24780989 0.15516454
-0.5043889 0.38154855 -0.13537434 -0.25080085 -0.14045423 0.5670952 -0.45861185 0.2486317
-0.18206963 0.114883125 0.4400388 -0.02017783 -0.2254884 -0.18878828 0.14594156 -0.45624986
-0.24982111 -0.45656547 -0.10573383 -0.109386384 0.5633349 -0.52292943 0.043566942 0.38566655
0.24310455 -0.4018489 0.07794306 -0.37813684 -0.050502814 -0.3786127 0.25920856 -0.14259686
0.17831606 0.34631443 0.08504442 0.19284038 0.31570798 0.40268373 0.5578691 0.37509206
0.54921114 -0.10544518 -0.41670877 0.40240514 -0.07885711 0.37858543 0.061107207 0.4178101
-0.36887348 -0.4060607 0.30405197 -0.32233137 0.37792492 0.27305043 0.5022208 -0.30090487
0.02421204 -0.11845048 -0.41359648 -0.5618207 0.46581712 -0.19136955 -0.49223408 0.16563658
-0.4407458 0.17835379 0.15897144 0.2915301 -0.26503274 0.19527659 -0.2745883 -0.09193348
-0.03505409 0.14585547 0.37133658 0.49568403

bias f4 [10]
00000000: 5c6c b63c 898c ff3c 9069 e43c d24a e3bc
00000010: 9c78 ac3c 1dc9 56bc f19e cf3c bd1d 8fbc
00000020: 2f84 02bd e359 ca3c
0.022268467 0.031194942 0.027882367 -0.027745638 0.021053605 -0.013109473 0.025344344 -0.017470235
-0.03186434 0.024701064

weight f4 [2048, 10]
00000000: 093f 3abd 4857 04bb f43a c43b 04ed b83c
00000010: ae35 9cbc 00a7 08bc 8d68 dcbc 64d9 b9bc
00000020: d0ff c83c d4ff 0bbd ba90 21bd c647 123c
00000030: 857f 8c3d c429 70bc fa94 8a3d 7122 343d
00000040: 0279 713c bd46 573c ec98 17bb 40f4 59bc
00000050: cdea 0e3c 48da d73b fa4d 573c 9455 b73c
00000060: d716 bfbc 0665 aebb 7453 163c 578f 09bc
00000070: daa4 42bc 8909 febb d76f 31bd eb18 92bd
00000080: cdf3 863b fa81 023c 6cde d33a fbde 793d
00000090: 7b72 ddbb a596 31bd 4bb4 a83d 6851 1e3d
000000a0: 2c49 4b3b 1a69 11bb b768 0f3c 80b8 edb8
000000b0: bd20 15bc bcfe 483c 1f9f e53b e5e0 6a3a
000000c0: e890 c4b8 e065 2eba 8c67 f9bb 12ae 54bb
000000d0: f5ff 133b a282 76bb 1af5 7638 19f8 4d3c
000000e0: eab6 8dbb fff5 873b 00a9 21b8 1c19 89ba
000000f0: ecec 02bd 4738 ad3d 43f3 61bd 1252 88bc
00000100: f5dd 083d 2f77 a4bd 0be7 04bd af8d a33d
00000110: 05ee 2abd 8022 29bc 00a3 5fbd a1af 16bc
00000120: ede7 85bc dccf 973d b50c e83b 6e18 e8bc
00000130: 0f74 57bd 0a34 3d3d f0c8 853c e92a 0f3c
00000140: 9e86 6cba 88a5 6fba db02 de3b 1ef5 94bb
00000150: 5e15 79bb da40 05bc 60b2 00b9 44f6 433c
00000160: 2f33 203a 1412 1339 32be 90bd 8942 503d
00000170: 37a6 713c dd74 303a 1547 40bc 8499 06bc
00000180: 2fb2 ce3b ce20 febc 0276 3d3d d220 bf3b
00000190: 9736 a6bc f5f1 bb3c 3928 c33b 0be1 ea3a
000001a0: a15c 163c 6574 743d 966d 1cbd 050d 2c3c
000001b0: dce9 7e3b 64b6 13bc df8f 72bd d840 00bd
000001c0: 53cd 333c a82e 10bd 6f50 38bc 36ec 5fbc
000001d0: 4c3b a8bd f219 6c3d 7815 a2bb 0152 693c
000001e0: 02f2 2cbd f605 64bc 850e a2bd 20c0 abbc
000001f0: 10f9 c73c 1e64 713c 8e8e 9f3d 3166 2dbd
00000200: 0c7c 73bd 0adc 4a3d ae3e 8c3c e0b0 c13b
00000210: e192 763d 52ae 263d 9177 95bd 0f63 57bd
00000220: 41ee 9abc 4323 353c 4177 33bd 71b8 b03a
00000230: 2808 48bc 75e0 853b c134 283a 546c 38b9
00000240: fb6d 5d3a 6652 02bc 6298 6b3b 6ae0 adba
00000250: c2a7 5a3c 7e06 e73a 246c 93bb b219 2ebb
00000260: 746a 1c3c 83b1 3f3c fe61 12bc a0e4 27bb
00000270: 77a5 5a3c acab 73bb c5c8 beba aeb4 563c
00000280: 5016 84bc 108f 23bd 9dd2 c0bc 06d1 e7bb
00000290: 8a55 8e3c a960 473d 99e5 55bd b383 e5bc
000002a0: 890e 523d 2299 363d c7d5 47bd fb7f edbc
000002b0: 93d3 0b3c 572c 6bbd bae5 6b3d c346 17bd
000002c0: f652 cfbc 2bdc 54bd c516 72bc 4675 623c
000002d0: dbaa 403c 7e5f 63bb a86d b2b8 671e 0dbb
000002e0: ec87 27ba 0f0c 533c e847 4439 fc4d f6ba
000002f0: 882b 0e3a 21db 03ba e89a 95bd b799 4a3d
00000300: 73f0 853d 13ed 743d 3d1b bf3b 2370 99bd
00000310: b296 96bd b542 9f3d 0bc6 aebc 9997 57bd
00000320: cf2b 98bd 7a46 87bc 6c6a ac3c 61d8 9c3d
00000330: fc45 2c3d 4ef7 943c c9d2 8bbd 9176 41bc
00000340: eadd 47bd d8de dcbb 1163 5a3c a5d7 8b3b
00000350: 008c 10bc 8292 523c a72c 053b 2f67 463c
00000360: 9002 43bb 0a93 d03b 484f f63a 88dd 9b38
00000370: 8e91 0a3d d6bf 53bc d90e 8dbd c386 abbd
00000380: f421 4439 a670 ce3a c0d0 743d 7f28 6c3c
00000390: f457 6abd 67cc 8d3d 8f1f 283d a435 b73d
000003a0: 51c1 fa3c e2ec 88bc 24cf 3c3d d072 7bbc
000003b0: ae31 13bb 4553 fcbc 3052 9dbd 2df3 34bd
000003c0: ebb0 1fbd 77ba 41bc f710 9e3c adb4 58bd
000003d0: a99b 2c3d 0ba7 19bc a418 633d 1727 62bd
000003e0: 3e2a 833d 1597 593d dae1 dfb9 371f 38bc
000003f0: b7e6 a5bb e63c 15bc 7caa 54bc ca5f 5c39
-0.04547027 -0.0020193625 0.005988473 0.022573955 -0.019068565 -0.008340597 -0.026905322 -0.022686668
0.024536043 -0.034179524 -0.039444663 0.008928245 0.0686026 -0.014658395 0.06766696 0.04397816
0.014738323 0.013139424 -0.002313192 -0.013302863 0.008722973 0.0065873004 0.01314115 0.022379674
-0.02332632 -0.0053221015 0.00917517 -0.008395991 -0.011880124 -0.0077526015 -0.04331955 -0.07133659
0.004118419 0.007965559 0.0016164309 0.061003666 -0.006758032 -0.043356556 0.08237513 0.038651854
0.0031018956 -0.002218789 0.008752993 -0.000113354065 -0.009102044 0.012267765 0.007007494 0.00089599035
-9.372999e-05 -0.0006652754 -0.0076112207 -0.0032452387 0.0022582982 -0.0037614484 5.887924e-05 0.012571358
-0.0043247836 0.004149198 -3.8542785e-05 -0.0010459754 -0.031964228 0.08458 -0.055163633 -0.016640697
0.0334148 -0.08030545 -0.032446902 0.079860084 -0.0417309 -0.010323167 -0.05459881 -0.009197147
-0.016345942 0.07412693 0.007081593 -0.028331961 -0.052600916 0.046192206 0.016331166 0.008738258
-0.0009022745 -0.00091417925 0.0067752427 -0.004545822 -0.003800712 -0.008133138 -0.00012273481 0.01196057
0.00061111426 0.00014025747 -0.07067527 0.050844703 0.014749101 0.0006731281 -0.011735697 -0.008215312
0.0063078622 -0.031021502 0.04625512 0.00583277 -0.020289702 0.022942523 0.0059557226 0.0017919851
0.009177358 0.059681315 -0.038190447 0.010501151 0.0038896715 -0.009015653 -0.059219237 -0.03131184
0.010974246 -0.035200745 -0.011249646 -0.013667157 -0.08214435 0.05764193 -0.004946407 0.014240743
-0.042222984 -0.013917437 -0.07912926 -0.020965636 0.024410754 0.014733342 0.07790862 -0.042333785
-0.059444472 0.04952625 0.017119732 0.0059109777 0.06019867 0.04069359 -0.07298196 -0.052584704
-0.018912436 0.01105577 -0.0438149 0.0013482702 -0.012208976 0.0040855953 0.00064165524 -0.00017587963
0.00084468693 -0.007954216 0.0035948982 -0.0013265733 0.013345661 0.0017625836 -0.0044989754 -0.0026565609
0.009546865 0.011700037 -0.008934496 -0.002561845 0.013345114 -0.0037181182 -0.0014555684 0.013104601
-0.01612392 -0.039931357 -0.023537928 -0.007074478 0.017374773 0.048676167 -0.052220915 -0.0280169
0.051283393 0.044579633 -0.04878786 -0.02899169 0.00853433 -0.057415333 0.05759213 -0.036932718
-0.025308114 -0.05196778 -0.0147759365 0.0138219055 0.011759485 -0.003469437 -8.5081265e-05 -0.0021533014
-0.00063907984 0.012881293 0.00018718804 -0.0018791552 0.0005423357 -0.0005029906 -0.07304937 0.049463
0.06540003 0.059796404 0.0058321045 -0.074920915 -0.073529616 0.07776395 -0.021334669 -0.05263481
-0.07430231 -0.016513098 0.02104684 0.076584585 0.04205893 0.01818433 -0.068273135 -0.011808054
-0.048795618 -0.006740432 0.013329283 0.00426765 -0.008822441 0.012852313 0.0020320804 0.012109562
-0.0029756166 0.0063651847 0.0018791938 7.432239e-05 0.033830218 -0.012924155 -0.068875976 -0.08375313
0.00018704665 0.0015750125 0.059769392 0.014413952 -0.057212785 0.06923752 0.04104572 0.08945778
0.030609759 -0.016714517 0.046095982 -0.015347198 -0.0022460031 -0.030801425 -0.07681692 -0.044177223
-0.03898708 -0.011824242 0.019295199 -0.05290668 0.042140637 -0.009378205 0.05544342 -0.05521306
0.064045414 0.0531226 -0.00042702147 -0.011237911 -0.0050629037 -0.009108758 -0.0129801 0.00021016519
