Comparative_Evaluation/Baselines/Transformer/models_u/model51.pt (torch, 369273 bytes, 36 tensors)

in_proj_weight f4 [30, 10]
0	0xb120f722	-2.3423543e-09
1	0xb104154c	-1.9220634e-09
2	0x2d5d42c0	1.2577217e-11
3	0x32895ffa	1.5992544e-08
4	0x30fdcd85	1.8466585e-09
5	0xb32c3e3e	-4.010348e-08
6	0xb1a6ff8a	-4.8602873e-09
7	0x31908e86	4.2071546e-09
8	0xb2fba32d	-2.929445e-08
9	0x3224a4fb	9.583569e-09
10	0x32918e59	1.6944954e-08
11	0x31cc750c	5.950488e-09
12	0x31f44e86	7.1102617e-09
13	0xb2ecd83e	-2.7572352e-08
14	0x2fd0c950	3.797802e-10
15	0x330aa398	3.2279416e-08
16	0x31a6169e	4.833807e-09
17	0xb2a16060	-1.8786693e-08
18	0xb2745e51	-1.4224114e-08
19	0x31445e40	2.8575329e-09
20	0xb2930930	-1.711723e-08
21	0x32bddff0	2.210433e-08
22	0xb1c97e49	-5.864227e-09
23	0xb2f8327d	-2.889396e-08
24	0x32061a91	7.805867e-09
25	0x311d14f6	2.2858422e-09
26	0x31a1ae18	4.705509e-09
27	0x3284311a	1.5389151e-08
28	0x3219aea9	8.945485e-09
29	0x31fa4968	7.284303e-09
30	0xb207bba4	-7.900699e-09
31	0x31f5e5e2	7.156573e-09
32	0x3324a0e8	3.833057e-08
33	0xb20f7d9f	-8.352258e-09
34	0xb30a8a38	-3.2256338e-08
35	0x2fcee0a0	3.7630787e-10
36	0x3295bf5c	1.7432903e-08
37	0x320edd26	8.315771e-09
38	0xb3037049	-3.0602937e-08
39	0xafd17aac	-3.8104042e-10
40	0xb2656768	-1.3353066e-08
41	0x322f04fa	1.0187472e-08
42	0x3178d2cc	3.6208574e-09
43	0x31570ac4	3.1292737e-09
44	0xb1b5a5c8	-5.2866405e-09
45	0x3213552c	8.575892e-09
46	0x3225c2b2	9.648533e-09
47	0xb3249444	-3.8319072e-08
48	0x32a143c0	1.8773676e-08
49	0xb1a05728	-4.6665214e-09
50	0x32620214	1.3155404e-08
51	0xb21e79ab	-9.2244745e-09
52	0x314a34e0	2.9424925e-09
53	0xb18e654f	-4.1442614e-09
54	0xb1b8367a	-5.361298e-09
55	0x3180e017	3.7507664e-09
56	0xafb24980	-3.2430236e-10
57	0xb2c8d61d	-2.3380432e-08
58	0xb21e642d	-9.219588e-09
59	0xb28ca87e	-1.6374766e-08
60	0xb1b65c92	-5.307421e-09
61	0x3309d410	3.2090668e-08
62	0x33097ecf	3.201313e-08
63	0xb2ce749e	-2.4034588e-08
64	0x3274c26e	1.42468775e-08
65	0x32ae7e7a	2.031378e-08
66	0x2f704700	2.1853097e-10
67	0xb0e7967c	-1.6850232e-09
68	0xb1ab2d74	-4.9819224e-09
69	0xb308a1b9	-3.1812053e-08
70	0xb31e61cc	-3.6876187e-08
71	0xb2558f40	-1.2430803e-08
72	0xb053c6ee	-7.704405e-10
73	0xb197fbc5	-4.4233013e-09
74	0x31f135ad	7.0201254e-09
75	0x32a4c79b	1.9182883e-08
76	0xb2b371aa	-2.0890031e-08
77	0xb2cf226b	-2.4113623e-08
78	0x322ecd59	1.0174824e-08
79	0xb2663c65	-1.3401494e-08
80	0xb29fdf50	-1.8611587e-08
81	0x310f9b3d	2.0897482e-09
82	0x33316858	4.1305924e-08
83	0xb1235255	-2.3766422e-09
84	0xb31e85c1	-3.690889e-08
85	0x32be18fc	2.2130273e-08
86	0xb23c14ff	-1.0947814e-08
87	0x31167940	2.1896795e-09
88	0xb33922fb	-4.3105484e-08
89	0xb1f6b739	-7.1803723e-09
90	0x32097309	8.0006055e-09
91	0x2f956db0	2.718088e-10
92	0x324b2f02	1.18268435e-08
93	0xb281abe6	-1.5095747e-08
94	0xb0a5e1d2	-1.2069512e-09
95	0x31afc6ea	5.1157842e-09
96	0xb220d099	-9.360655e-09
97	0x2e467000	4.5119464e-11
98	0xb2cebad0	-2.4066509e-08
99	0x31d22b84	6.1167515e-09
100	0xafee2ea8	-4.33251e-10
101	0xb098b1a4	-1.1109944e-09
102	0xb0864bba	-9.771306e-10
103	0x307fd34a	9.306872e-10
104	0x329b8255	1.8103643e-08
105	0x330a6353	3.2220964e-08
106	0xb28fe1df	-1.6750105e-08
107	0x32b126c5	2.0623142e-08
108	0xb2cec444	-2.4070808e-08
109	0xb1912875	-4.224655e-09
110	0xb16e7b2c	-3.4703573e-09
111	0xb14827c1	-2.9126428e-09
112	0x32fdef1f	2.9561816e-08
113	0x30215cd0	5.8703353e-10
114	0x31ef93d1	6.9726203e-09
115	0xb309d5c4	-3.2092217e-08
116	0xb19d588a	-4.579367e-09
117	0xaf53ecaa	-1.9274418e-10
118	0xb21686a8	-8.761766e-09
119	0x31b8f5c3	5.3830447e-09
120	0x313a57d4	2.7116487e-09
121	0xb2869b39	-1.567024e-08
122	0x3289a4af	1.6023789e-08
123	0x2fa9a411	3.0857497e-10
124	0xb30a985c	-3.22692e-08
125	0xb2f025d5	-2.7956881e-08
126	0xb2a19e41	-1.8814832e-08
127	0x31e361b0	6.6176753e-09
128	0xb28fc693	-1.6737692e-08
129	0x32747831	1.4229998e-08
130	0x333181c0	4.132903e-08
131	0x32933596	1.713742e-08
132	0xb0cfa3c4	-1.5107777e-09
133	0xb2f441a1	-2.8435183e-08
134	0x31c23d19	5.653089e-09
135	0x2fd6a378	3.9042525e-10
136	0x31fba7f5	7.324156e-09
137	0x31c85a3e	5.8310254e-09
138	0xb0fd2d10	-1.842098e-09
139	0xb30695d8	-3.133559e-08
140	0x2f3d107e	1.7195309e-10
141	0xb22a1d74	-9.901999e-09
142	0x32224044	9.444253e-09
143	0x31eb6183	6.850486e-09
144	0xb1561ddc	-3.1158072e-09
145	0xae40df80	-4.3854254e-11
146	0x3348602e	4.6653604e-08
147	0xb26b931d	-1.371225e-08
148	0xb0e079d1	-1.6332767e-09
149	0xb2a746ec	-1.947361e-08
150	0xb30aa393	-3.22794e-08
151	0xb2ddfd17	-2.5842878e-08
152	0x31a19e4c	4.703713e-09
153	0x3270443e	1.3985355e-08
154	0x3236e7f9	1.0646539e-08
155	0xb16a1e98	-3.4068872e-09
156	0xafa86838	-3.0633074e-10
157	0xb18ef7f0	-4.160931e-09
158	0xb340b308	-4.486631e-08
159	0xb04fb330	-7.55608e-10
160	0x3139c315	2.7031934e-09
161	0xb125ba51	-2.4116569e-09
162	0xb2e8f37e	-2.7119082e-08
163	0xb25ab0c4	-1.2729462e-08
164	0xb0c06df4	-1.4001089e-09
165	0x32b7416e	2.1333758e-08
166	0xb2279479	-9.754438e-09
167	0x32740e64	1.4205941e-08
168	0x32bcf5ae	2.1997803e-08
169	0x329be5e3	1.8148915e-08
170	0x328d7024	1.6465556e-08
171	0x323b435d	1.0900149e-08
172	0x3328cbdc	3.9300957e-08
173	0x3219b399	8.946608e-09
174	0x31daf9f9	6.3730536e-09
175	0xb1cffc74	-6.0531935e-09
176	0xb1f46ed1	-7.113933e-09
177	0xb2a655c4	-1.9363945e-08
178	0x31a31388	4.746145e-09
179	0xb1ee5cca	-6.9372605e-09
180	0xb22cbb4f	-1.0054307e-08
181	0xb16c13a6	-3.4353689e-09
182	0xb2b21d76	-2.0735325e-08
183	0xb1cebb57	-6.016687e-09
184	0xb20e301b	-8.276426e-09
185	0x3247ff60	1.164139e-08
186	0x330f0e22	3.3307636e-08
187	0x31f751e0	7.1979542e-09
188	0x2f9126cd	2.6402916e-10
189	0xb1789685	-3.617431e-09
190	0xb13d522c	-2.754983e-09
191	0xb2e54d8c	-2.6694373e-08
192	0x3051cb88	7.632299e-10
193	0xb33a0bfd	-4.3317403e-08
194	0x330a4bd6	3.21996e-08
195	0xb2991fbd	-1.7825977e-08
196	0xb0d32293	-1.5362097e-09
197	0xb2538002	-1.2310922e-08
198	0xafd2aba8	-3.8320747e-10
199	0x323e54fd	1.107878e-08
200	0xbe41fafb	-0.18943398
201	0xbe1d1d51	-0.15343215
202	0x3d5c97b6	0.05385562
203	0xbe1ef027	-0.15521298
204	0xbea85a39	-0.32881334
205	0xbe95c4b5	-0.29251638
206	0xbeb79ff1	-0.35864213
207	0x3e9b6fa1	0.30358604
208	0xbd4221f8	-0.047395676
209	0xbe980d97	-0.29697868
210	0xbecfdd38	-0.40598464
211	0xbe8b779a	-0.27239686
212	0xbe9d153e	-0.3068027
213	0x3df7eeec	0.121061176
214	0xbef53874	-0.47894633
215	0xbe13ff38	-0.14452827
216	0xbd5650d8	-0.052323192
217	0xbe491b97	-0.19639431
218	0x3e2d6af0	0.16935325
219	0xbed0bb1c	-0.40767753
220	0xbe81817e	-0.25294107
221	0xbd9bc8af	-0.07606637
222	0xbdfdf51c	-0.124002665
223	0xbebf0eaf	-0.3731589
224	0x3ea32f8b	0.3187221
225	0x3d71f074	0.059067205
226	0xbe7327f6	-0.23745713
227	0xbeba4d4c	-0.36387098
228	0xbeeecc69	-0.46640328
229	0xbcf716de	-0.030162271
230	0xbe87628d	-0.26442376
231	0x3e4e45f2	0.2014387
232	0xbe309401	-0.17243959
233	0x3e6c5f6a	0.23083273
234	0x3da7c41f	0.08191704
235	0x3e20e9c7	0.15714179
236	0x3d9f75b6	0.077861235
237	0x3e34e8b3	0.17666893
238	0xbed79238	-0.42103744
239	0x3e3d35f6	0.18477616
240	0xbf24847f	-0.64264673
241	0xbf2a4e08	-0.66525316
242	0xbf07b722	-0.53013813
243	0xbf1a5a00	-0.6029358
244	0x3cf03b5d	0.029325182
245	0xbe961a30	-0.29316854
246	0xbf001e19	-0.50045925
247	0xbebb84d0	-0.36624765
248	0xbde04d07	-0.10952192
249	0xbd5a9bb7	-0.053371157
250	0x3ed5917a	0.41712552
251	0xbdecf56e	-0.115702495
252	0xbea51c2e	-0.32248062
253	0x3c21cafb	0.0098750545
254	0xbe91c8cf	-0.28473517
255	0xbe8bc13d	-0.27295867

in_proj_bias f4 [30]
0	0x00000000	0.0
1	0x00000000	0.0
2	0x00000000	0.0
3	0x00000000	0.0
4	0x00000000	0.0
5	0x00000000	0.0
6	0x00000000	0.0
7	0x00000000	0.0
8	0x00000000	0.0
9	0x00000000	0.0
10	0x00000000	0.0
11	0x00000000	0.0
12	0x00000000	0.0
13	0x00000000	0.0
14	0x00000000	0.0
15	0x00000000	0.0
16	0x00000000	0.0
17	0x00000000	0.0
18	0x00000000	0.0
19	0x00000000	0.0
20	0x3b17c00c	0.002315524
21	0x3c2bcbd8	0.010485612
22	0xbcbefe59	-0.023314642
23	0x3bc09817	0.0058775055
24	0x3d1d7c9f	0.038448926
25	0xbce711d8	-0.02820675
26	0xbd5f82d5	-0.05456813
27	0x3be36638	0.0069396757
28	0x3b582877	0.0032983103
29	0x3d0061dc	0.031343326

weight f4 [10, 10]
0	0x3ebaa8bf	0.36456868
1	0x3eaa774a	0.33294135
2	0x3ee6c83b	0.4507464
3	0x3c808851	0.01569
4	0xbc66f5f8	-0.014096729
5	0x3e21e988	0.15811741
6	0x3e1eb9ad	0.15500517
7	0x3f1a0185	0.6015857
8	0x3e5fc202	0.21851352
9	0xbef8e252	-0.4861017
10	0xbe074342	-0.1320925
11	0xbe08af4d	-0.13348122
12	0xbd6269e9	-0.055276785
13	0xbf060436	-0.52350175
14	0x3da571f9	0.08078379
15	0xbe7457e7	-0.23861657
16	0x3eb44265	0.35206905
17	0x3e93fa47	0.28901884
18	0xbf31b9f1	-0.6942435
19	0xbeb53ea2	-0.35399348
20	0xbe2fa277	-0.17151819
21	0xbeeb442b	-0.45950446
22	0xbf0afce0	-0.54292107
23	0x3e554b97	0.20829616
24	0xbf021e5e	-0.50827587
25	0x3e5b4568	0.21413195
26	0x3e3bf4c4	0.1835509
27	0x3f05f5a5	0.5232795
28	0xbd3b4b34	-0.045726016
29	0xbe609a32	-0.21933821
30	0x3ec9f8f7	0.39447758
31	0x3dad4e1a	0.08462162
32	0x3e9badf1	0.30406144
33	0xbe402a2f	-0.18766092
34	0xbe5355a0	-0.20638132
35	0x3ec541b2	0.38526684
36	0x3ed1cb30	0.40975332
37	0x3ebcd9da	0.36884958
38	0xbd20c970	-0.039254606
39	0x3e839fe0	0.25707912
40	0x3f2479f6	0.642486
41	0x3ec02ba2	0.3753329
42	0xbde95ebb	-0.113950215
43	0x3e8c9ffa	0.27465802
44	0x3f206a59	0.62662274
45	0xbeb87dcf	-0.36033484
46	0xbd4b749c	-0.049671754
47	0x3e863b61	0.26217178
48	0x3d7bfd1d	0.061520685
49	0xbf0ef3f9	-0.5584102
50	0xbeb66790	-0.35625887
51	0x3ece1fb8	0.40258574
52	0x3e395d61	0.18102027
53	0xbecd55c9	-0.4010451
54	0x3f112487	0.5669636
55	0x3ee74ece	0.4517731
56	0xbeaa3a1b	-0.33247456
57	0xbe8dc012	-0.276856
58	0x3ddbf211	0.1073953
59	0xbe38c54a	-0.1804401
60	0x3ebc0130	0.36719656
61	0xbdd38b22	-0.10329272
62	0xbd36b02c	-0.044601604
63	0xbe056ed7	-0.13030563
64	0x3e97888d	0.29596367
65	0xbf2281a7	-0.63479084
66	0x3f0c72ce	0.5486268
67	0xbef221d8	-0.47291446
68	0x3ca7d69e	0.02048808
69	0x3e86cf56	0.2633006
70	0xbec91a6d	-0.39277974
71	0x3df3e808	0.11909491
72	0x3e9c50a6	0.3053028
73	0x3e60794b	0.2192127
74	0xbecabaaf	-0.39595553
75	0xbd9ca9f6	-0.07649605
76	0x3eec8ca5	0.46201053
77	0xbedcd2a3	-0.43129453
78	0x3e8b9757	0.272639
79	0xbebdfd29	-0.37107208
80	0xbd8e296c	-0.06941494
81	0xbeb10e6f	-0.34581324
82	0x3dbe0c98	0.09279746
83	0xbe17d542	-0.14827445
84	0xbe2b3b08	-0.16721737
85	0xbbfa2cd9	-0.007634741
86	0x3e9138bd	0.283636
87	0xbd81263a	-0.06306119
88	0x3e14dda2	0.14537671
89	0xbd1ac20f	-0.037782725
90	0x3eafaa3d	0.3430957
91	0xbda5e18b	-0.080996595
92	0x3ea697d1	0.32537702
93	0xbecbf8a7	-0.39838144
94	0xbe6ff61f	-0.23433731
95	0x3e9b1eb6	0.30296868
96	0xbedcbb14	-0.4311148
97	0xbeee15db	-0.4650105
98	0x3e1e4e73	0.15459614
99	0xbe8fe290	-0.2810254

bias f4 [10]
0	0x3c2dcf98	0.010608576
1	0x3dcacd0f	0.09902393
2	0xbdcb4013	-0.099243306
3	0xbd835eb0	-0.064145446
4	0x3d8eabfa	0.06966396
5	0x3a2c7859	0.00065792125
6	0xbd51b9da	-0.051202632
7	0x3d1fc031	0.039001647
8	0xbd5e70ff	-0.05430698
9	0x3d1d6737	0.03842851

weight f4 [2048, 10]
0	0xbe479e5e	-0.19494006
1	0xbd13b05a	-0.036056854
2	0xbddb52a7	-0.10709124
3	0xbc2ae594	-0.010430712
4	0xbd75814a	-0.059937753
5	0x3de277b2	0.11057986
6	0xb9a4b3d0	-0.00031414488
7	0x3d3cfa41	0.0461371
8	0x3d0bb0fd	0.034104336
9	0x3e1ed9c0	0.15512753
10	0x3da1264f	0.07868635
11	0xbd6775d3	-0.05650885
12	0x3d3efd4d	0.046628285
13	0x3dc83cd5	0.09777228
14	0xbdde654e	-0.10859166
15	0xbd805267	-0.06265717
16	0xbd773d2a	-0.060361065
17	0xbdb7c1f6	-0.08972542
18	0xbb43e656	-0.002989193
19	0xbde07a95	-0.10960881
20	0xbd89ea20	-0.06734109
21	0xbd13a5ba	-0.03604672
22	0xbe131cee	-0.14366505
23	0x3d291f2d	0.041289497
24	0x3d922ea1	0.071378
25	0xbd086638	-0.03330061
26	0x3dcb14f1	0.09916104
27	0xbcc3acd2	-0.023886118
28	0xbdb705c6	-0.08936648
29	0x3cfdc99d	0.030979926
30	0x3d438171	0.047730867
31	0xbe777209	-0.24164595
32	0x3df7ac5e	0.12093423
33	0x3e5d6b1c	0.2162289
34	0xbdb4b3a1	-0.08823324
35	0x3cb85566	0.022501659
36	0xbd2a8c77	-0.041637864
37	0xbb565915	-0.0032706906
38	0x3e5e1ffd	0.2169189
39	0xbcec54f9	-0.028849112
40	0xbc212a49	-0.009836742
41	0xbdbbc020	-0.09167504
42	0x3ddd1b01	0.10796166
43	0x3d8fd264	0.07022551
44	0xbc4d25e7	-0.012521244
45	0xbcfa875d	-0.030582124
46	0x3cc45e1d	0.023970658
47	0xbd697ca7	-0.057003643
48	0x3dac8081	0.08422948
49	0xbcf2e0b5	-0.029648164
50	0xbd82ce62	-0.06387021
51	0xbd85f67e	-0.06541155
52	0xbd7ef040	-0.06224084
53	0xbd9702d5	-0.07373587
54	0x39b59250	0.00034632022
55	0x3de086db	0.10963222
56	0x3cb521ac	0.022110783
57	0xbce19af8	-0.027539715
58	0x3dc44373	0.095831774
59	0x3cd4bef6	0.025969964
60	0x3dc72be2	0.09725167
61	0x3cd82a2a	0.026387293
62	0xbd47c16a	-0.04876844
63	0xbe0c2222	-0.13684896
64	0xbcf7077b	-0.030154934
65	0x3d557012	0.05210883
66	0xbd528dc9	-0.051404748
67	0xbd980ada	-0.07423945
68	0x3db6db83	0.08928587
69	0x3dcdbfd7	0.10046356
70	0xbce3e0f0	-0.02781722
71	0x3d854e40	0.06509066
72	0xbe8350b1	-0.256475
73	0x3d542728	0.051795155
74	0x3db2c5fc	0.08729169
75	0x3dc8dd29	0.09807808
76	0x3d252b6b	0.04032461
77	0x3c6fe329	0.014641562
78	0xbdaa395b	-0.08311721
79	0xbc03d0b7	-0.008045367
80	0x3e22ce6b	0.15899055
81	0x3ddf1332	0.10892333
82	0xbe69470a	-0.22781006
83	0x3dabc919	0.08387966
84	0xbdae4dbc	-0.085109204
85	0x3d439af4	0.047755197
86	0xbd7df852	-0.062004395
87	0xbe026993	-0.12735586
88	0x3d88fd65	0.06688956
89	0x3e1cb1a5	0.15302141
90	0x3bae7b4d	0.005324757
91	0xbd5257ea	-0.051353373
92	0x3d919214	0.0710794
93	0x3da16cd2	0.07882084
94	0xbdb5de5f	-0.088803045
95	0xbca5d442	-0.020242814
96	0x3c8604b9	0.016359674
97	0xbd1838d3	-0.037163567
98	0x3d4cfab1	0.050043765
99	0xbcedb69a	-0.029017735
100	0xbc061661	-0.0081840465
101	0x3d11b9bf	0.035577532
102	0x3cfcfde0	0.030882776
103	0xbd925ab1	-0.07146204
104	0x3da320d1	0.079652436
105	0xbd901e9d	-0.07037089
106	0x3bf63574	0.0075136963
107	0x3dc4ca0b	0.09608849
108	0xbcbd4862	-0.023105804
109	0x3a0f40f5	0.00054646964
110	0x3d3cfae0	0.04613769
111	0x3d66f11c	0.056382284
112	0x3b668e13	0.0035179898
113	0x3cfa4c6d	0.03055402
114	0x3dbb60ae	0.091492996
115	0xbd10a63c	-0.035314783
116	0x3d19acfd	0.03751849
117	0x3c86a33f	0.016435264
118	0xbdba44e0	-0.09095168
119	0xbd86ced3	-0.06582417
120	0xbe0547e1	-0.13015701
121	0xbdca4555	-0.09876505
122	0x3efe6ac1	0.49690822
123	0xbc58e188	-0.013237365
124	0xbf044d51	-0.51680475
125	0xbf0b538c	-0.5442436
126	0x3e5711b5	0.21002848
127	0x3db1bcc4	0.08678582
128	0x3e490f96	0.19634852
129	0xbdf2b383	-0.118506454
130	0x3d9eed4f	0.07760107
131	0x3d413d02	0.047177322
132	0x3dbe3950	0.09288275
133	0x3d7906f3	0.060797643
134	0x3d8a9c6b	0.067681156
135	0xbd3c254b	-0.045934003
136	0xbc95fa51	-0.018307837
137	0x3c8a8aad	0.016911829
138	0xbcfbe322	-0.030747954
139	0xbdd8086e	-0.10548483
140	0xbebaa9ef	-0.36457774
141	0xbe266391	-0.16248919
142	0xbd426e73	-0.047468614
143	0xbda12523	-0.078684114
144	0x3d2c3490	0.042042315
145	0xbde91be8	-0.11382276
146	0x3e92054d	0.2851967
147	0x3e591733	0.21200256
148	0x3e2f2dc4	0.17107302
149	0x3dbf4303	0.09338953
150	0xbc9ab2dd	-0.018884117
151	0xbdc9cf9b	-0.09854051
152	0x3d94c4b1	0.072640784
153	0x3d45f3bc	0.048328146
154	0x3d86c886	0.065812156
155	0xbbd335b9	-0.006445613
156	0x3d28d75f	0.04122102
157	0xbc835897	-0.016033454
158	0x3db04f18	0.08608836
159	0xbd1e5552	-0.038655587
160	0x3ca36fd5	0.019950787
161	0x3c0306c4	0.0079972185
162	0x3da8963a	0.082317784
163	0x3cee2389	0.029069679
164	0xbdad6e59	-0.08468313
165	0x3d50c9f0	0.050973833
166	0xbd58d3f3	-0.052936506
167	0xbae18642	-0.001720615
168	0x3d859227	0.06522017
169	0xbcbfda43	-0.023419505
170	0x3c7c2b0b	0.015391122
171	0xbe3d6666	-0.18496093
172	0x3df55cb4	0.11980572
173	0x3e15983a	0.14608851
174	0xbd01b282	-0.03166438
175	0xbdb9d626	-0.09074049
176	0x3c885471	0.016641827
177	0xbe06217b	-0.1309871
178	0x3de67e88	0.11254603
179	0xbc49783f	-0.012296735
180	0xbebf79df	-0.37397668
181	0xbe21ee30	-0.15813518
182	0x3db9b0ec	0.09066948
183	0x3bc216cc	0.0059231278
184	0xbe3ab2f1	-0.18232323
185	0xbe070259	-0.1318449
186	0x3dfc3fee	0.12316881
187	0x3e204419	0.15650977
188	0x3ec4ed18	0.38462138
189	0x3d90104e	0.0703436
190	0x3d966303	0.07343104
191	0x3cfb03f5	0.030641535
192	0x3dd31f57	0.10308712
193	0xbda5ce2f	-0.08095967
194	0x3d5d33f1	0.054004613
195	0xbd82f7b4	-0.06394902
196	0x3bde5c82	0.00678593
197	0x3dcbbecb	0.099485
198	0xbdee64ca	-0.11640318
199	0xbd0c8fbd	-0.034316767
200	0x3dc966d1	0.09834064
201	0x3d5ed9a9	0.054406796
202	0x3e338950	0.1753285
203	0x3d6a1860	0.057152152
204	0x3c07d5f2	0.008290755
205	0xbdb542c3	-0.088506244
206	0xbe0226ca	-0.1271011
207	0xbe281587	-0.16414462
208	0xbd933f45	-0.07189802
209	0xbe0163bb	-0.126357
210	0xbedb601e	-0.4284677
211	0x3c763207	0.015026576
212	0xbe32385c	-0.17404312
213	0xbe22aa0e	-0.15885183
214	0x3e008027	0.12548886
215	0xbcdbe8ed	-0.026844466
216	0x3eaa7c0f	0.33297774
217	0x3e7ad344	0.24494654
218	0xbddc0bd5	-0.10744444
219	0x3ea0f762	0.31438738
220	0xbdaa9c82	-0.08330633
221	0xbdaac5a7	-0.083384804
222	0x3dee4f8f	0.11636268
223	0x3e17be50	0.14818692
224	0xbcfd8856	-0.0309488
225	0x3caffac7	0.021481885
226	0x3cad5456	0.021158379
227	0xbe17ac5d	-0.14811845
228	0x3c8412e9	0.016122298
229	0xbce15062	-0.02750415
230	0xbd3c746b	-0.046009462
231	0xbdd3a021	-0.103332765
232	0xbdcc936b	-0.09989055
233	0x3ca79aea	0.020459611
234	0xbd79a15b	-0.060944896
235	0x3c20b985	0.009809856
236	0x3dd9a280	0.106266975
237	0xbdc2ac35	-0.09505502
238	0x3d094962	0.03351725
239	0x3d969ec1	0.07354499
240	0xbe39696c	-0.18106622
241	0xbdc86729	-0.09785301
242	0xbd916c99	-0.071007915
243	0xbcc41c57	-0.023939295
244	0x3d844f38	0.06460422
245	0xbd32fecc	-0.043700024
246	0x3d2f3ce1	0.042782668
247	0x3db6a640	0.089184284
248	0x3c81ebfe	0.0158596
249	0x3e38a8f9	0.18033208
250	0x3d6fbe05	0.058530826
251	0x3bfd2720	0.0077256113
252	0x3da3b014	0.079925686
253	0xbd0362fe	-0.03207683
254	0xbd4f2b52	-0.050578423
255	0x3cbd5543	0.023111945

bias f4 [2048]
0	0x3c88ed63	0.016714757
1	0xbd8e41c9	-0.06946141
2	0x3ea82c65	0.3284637
3	0xbe3ed46d	-0.18635722
4	0xbde9f240	-0.11423159
5	0x3e2c6689	0.16835989
6	0x3e82a8b3	0.25519332
7	0x3e765a99	0.24057998
8	0x3ddda544	0.108225375
9	0xbdc4628b	-0.09589108
10	0x3d4d1cc2	0.050076254
11	0x3df6fd56	0.12060039
12	0xbd4baa27	-0.049722817
13	0x3dd6822d	0.10474048
14	0x3d1bebf1	0.038066808
15	0xbe795b81	-0.24351312
16	0xbd8ff900	-0.07029915
17	0xbe13ceba	-0.14434329
18	0xbcab8647	-0.020938052
19	0x3e543960	0.20725012
20	0xbbeca692	-0.007222005
21	0x3e4a1502	0.19734576
22	0xbe317148	-0.1732837
23	0xbd423c1a	-0.0474206
24	0xbdb8af61	-0.09017826
25	0xbe25cfa1	-0.16192485
26	0x3e3c9d11	0.18419291
27	0xbd728088	-0.05920461
28	0x3dceb497	0.100930385
29	0xbde72bcf	-0.11287653
30	0x3e4224e9	0.18959393
31	0xbe706367	-0.23475419
32	0x3e1a6813	0.15078764
33	0x3e672f71	0.22576691
34	0xbe550f1d	-0.20806547
35	0xbe828e89	-0.2549937
36	0x3c832d7c	0.0160129
37	0x3c9c20d9	0.019058632
38	0x3ebc71df	0.36805627
39	0x3e18083e	0.14846894
40	0xbe2de87b	-0.16983216
41	0xbd10b069	-0.035324488
42	0x3e572060	0.21008444
43	0xbc8a6696	-0.01689462
44	0x3da89ac0	0.08232641
45	0x3eb58c7b	0.3545874
46	0xbdfa17a5	-0.12211541
47	0x3e957621	0.29191688
48	0xbd7f2ba3	-0.062297475
49	0x3dc14779	0.094374605
50	0xbe05c5af	-0.13063692
51	0x3e4ed6e4	0.20199162
52	0x3c148470	0.009064779
53	0x3e12d70e	0.1433985
54	0x3e0b2fc3	0.13592438
55	0x3e5814fe	0.21101758
56	0xbd8ead93	-0.069667004
57	0x3dc865b8	0.09785026
58	0x3e8df45f	0.27725503
59	0x3e0f5e4c	0.14000815
60	0xbe6e2b61	-0.23258735
61	0xbae7da69	-0.0017688993
62	0x3df42006	0.119201705
63	0x3e0530f9	0.13006963
64	0x3d5c044b	0.05371503
65	0xbe791818	-0.24325597
66	0xbcbb4c7d	-0.02286362
67	0x3d1a83f4	0.037723497
68	0xbe13fd53	-0.14452104
69	0x3e369fa2	0.17834333
70	0xbdd91f33	-0.10601654
71	0xbe132a25	-0.14371546
72	0xbdce9e2c	-0.10088763
73	0xbe4033ba	-0.18769732
74	0xbe08dc39	-0.13365258
75	0xbd938cea	-0.072046116
76	0xbdd602cd	-0.10449753
77	0xbd07c4c8	-0.03314665
78	0xbd3931db	-0.04521356
79	0x3ce10d92	0.027472291
80	0xbe54870f	-0.20754646
81	0xbdc608a8	-0.0966962
82	0x3d8788b8	0.06617874
83	0xbe1bf544	-0.1523028
84	0xbdf3a28c	-0.11896238
85	0x3c1de2f5	0.00963663
86	0x3e96b752	0.29436737
87	0x3e8dd6f9	0.27703074
88	0xbde67869	-0.11253435
89	0xbca43be2	-0.020048086
90	0xbe1be9be	-0.15225884
91	0xbd880b9c	-0.06642839
92	0xbd9d4c31	-0.07680548
93	0x3e38cffa	0.18048087
94	0xbd9888a5	-0.07447938
95	0xb992394a	-0.00027889974
96	0x3ce45865	0.027874181
97	0x3d8bc34c	0.06824359
98	0x3dd08f49	0.101835795
99	0x3e47db85	0.19517334
100	0x3e4f787a	0.20260802
101	0xbe9fba41	-0.31196788
102	0xbe52ac7d	-0.20573612
103	0x3e043fd1	0.12914969
104	0xbd52043a	-0.051273562
105	0x3e57da0e	0.21079275
106	0x3dc0f5e4	0.094219
107	0x3d095aae	0.033533745
108	0x3e1b1c6e	0.15147564
109	0x3e7fae2e	0.24968788
110	0xbd80bf56	-0.062864944
111	0xbe1fd089	-0.15606894
112	0x3d85d189	0.06534106
113	0x3e9bcd52	0.30430084
114	0x3e596467	0.21229707
115	0xbea00b35	-0.3125855
116	0x3e4f7de8	0.20262873
117	0xbd0e98dd	-0.03481375
118	0xbe317251	-0.17328764
119	0x3e216c69	0.15764011
120	0x3d3121c1	0.04324508
121	0xbd4827f6	-0.048866235
122	0x3ddbc37d	0.10730646
123	0x3e16bc5e	0.14720294
124	0x3daa929a	0.08328743
125	0xbe69c473	-0.22828846
126	0x3d3dc2d8	0.046328396
127	0x3e249aeb	0.16074722
128	0x3e1e9865	0.15487821
129	0x3dfb9dbf	0.12285947
130	0xbdaacf57	-0.08340328
131	0x3def8800	0.11695862
132	0x3d64899d	0.0557953
133	0x3e595113	0.21222334
134	0x3e446ff7	0.19183336
135	0xbde27728	-0.110578835
136	0xbcef27fa	-0.029193867
137	0xbda07797	-0.0783531
138	0xbe077179	-0.1322688
139	0xbd99bfe2	-0.07507302
140	0xbd9c2d7d	-0.07625864
141	0x3e52a964	0.2057243
142	0x3ea9c9a2	0.33161646
143	0x3e229468	0.15876925
144	0x3d88c6d2	0.06678547
145	0x3db0044d	0.0859457
146	0xbd82f1b7	-0.0639376
147	0xbe87469d	-0.2642106
148	0x3e5647d6	0.2092584
149	0x3df94503	0.12171366
150	0x3e272ea5	0.16326387
151	0x3e7f135b	0.24909727
152	0xbe087ebd	-0.13329597
153	0x3e16a219	0.14710273
154	0x3e435b07	0.19077693
155	0xbd492e2a	-0.04911629
156	0xbe166b9e	-0.1468949
157	0x3dc5f653	0.09666123
158	0x3d54e3c7	0.051975038
159	0x38bbd90e	8.9572844e-05
160	0xbe388427	-0.18019162
161	0x3d10cd41	0.035351995
162	0x3d8f4baa	0.06996854
163	0xbd4ed4ec	-0.050496027
164	0x3eb233a0	0.34805012
165	0xbd57d28b	-0.052691024
166	0x3e2fe727	0.17178021
167	0x3d3b056a	0.04565946
168	0xbd7dcd52	-0.061963387
169	0x3e2e486f	0.17019819
170	0x3d46439e	0.04840433
171	0x3e0e6394	0.13905174
172	0xbe5b6799	-0.21426238
173	0xbd0f3b89	-0.034968887
174	0x3dcd7f3d	0.100340344
175	0x3e333a49	0.17502703
176	0x3dc5ec47	0.09664207
177	0x3e828048	0.25488496
178	0xbd10c9c4	-0.03534867
179	0x3e42d126	0.19025096
180	0x3e41a8df	0.18912075
181	0x3d8ab81e	0.06773399
182	0xbccc0e8a	-0.024909277
183	0x3d9a496a	0.07533534
184	0x3d3641a4	0.044496194
185	0xbdc32513	-0.09528556
186	0xbd7b70bd	-0.061386812
187	0xbe229c0b	-0.15879838
188	0xbe7c8f20	-0.24663973
189	0x3e91a0f6	0.28443116
190	0xbd4fbcfe	-0.050717346
191	0xbdf3e757	-0.11909359
192	0x3d2a5485	0.04158451
193	0xbd9bd4a9	-0.07608921
194	0xbd8899b3	-0.06669941
195	0x3e868f9b	0.26281437
196	0xbdbe7de7	-0.09301358
197	0x3dd6cc67	0.104882054
198	0x3e36a51b	0.1783642
199	0x3d459a86	0.04824307
200	0xbe57d62f	-0.21077798
201	0x3b0848a3	0.0020795248
202	0xbde138df	-0.109971754
203	0x3d6cb963	0.057793986
204	0x3c5ae647	0.013360566
205	0xbe3b41eb	-0.18286864
206	0x3dc8bc1d	0.09801505
207	0xbe09b963	-0.13449626
208	0x3e92a7e2	0.2864371
209	0xbea9f639	-0.33195665
210	0x3a8cbf08	0.0010738084
211	0xbde49f95	-0.1116325
212	0x3d9bebf2	0.07613362
213	0x3e8fe90a	0.28107482
214	0xbe093895	-0.1340049
215	0xbdb5666f	-0.08857428
216	0xbeae6300	-0.34059906
217	0x3e8b048e	0.27151912
218	0xbcd5b727	-0.02608831
219	0x3e2020ad	0.15637465
220	0x3d361656	0.044454895
221	0x3ea92c0c	0.33041418
222	0x3c83b36a	0.016076762
223	0x3e15a39f	0.14613198
224	0xbd953983	-0.0728636
225	0x3e8d09b7	0.27546474
226	0x3d7e22be	0.06204485
227	0x3da5aee0	0.080899954
228	0x3e121612	0.14266232
229	0xbdd9945d	-0.10624001
230	0xba14baeb	-0.0005673605
231	0x3d9fe2ad	0.07806907
232	0x3e696c55	0.22795232
233	0x3ddb6afb	0.10713764
234	0x3e93f25a	0.28895837
235	0xbd8d3f65	-0.06896857
236	0xbe3b65c1	-0.18300535
237	0x3d0c0c38	0.03419134
238	0xbde55eb3	-0.11199703
239	0x3e0aa46d	0.13539286
240	0x3e697943	0.22800164
241	0x3bfb662c	0.007672092
242	0x3e10468a	0.14089409
243	0x3bf2228e	0.007389373
244	0x3b17bff0	0.0023155175
245	0xbe147c48	-0.14500535
246	0xbd88da4e	-0.06682263
247	0xbe246dc0	-0.16057491
248	0xbde58847	-0.112076335
249	0xbe1752ce	-0.14777681
250	0xbde9da35	-0.11418573
251	0x3dcd8f98	0.10037154
252	0x3e708793	0.23489217
253	0xbe84df6b	-0.25951704
254	0x3c138a1c	0.009005096
255	0x3cbcd912	0.023052726

weight f4 [10, 2048]
0	0xbdc6665a	-0.09687491
1	0x3dd6a504	0.10480693
2	0xbddb7016	-0.10714738
3	0x3db94e64	0.09048155
4	0xbc23edb5	-0.010005404
5	0xbe244029	-0.160401
6	0xbc25a6fc	-0.010110613
7	0xbb6aff42	-0.0035857712
8	0x3e2b025d	0.1670012
9	0x3da0469a	0.07825966
10	0xbce8d6e4	-0.02842278
11	0xbd66b021	-0.056320313
12	0xbc725986	-0.014791852
13	0x3dd472d1	0.10373462
14	0xbc2432e9	-0.010021904
15	0x3d3a8a8b	0.04554228
16	0xbb8fd8b5	-0.004389847
17	0xbd3e03f4	-0.04639049
18	0xbd4297f9	-0.047508214
19	0xbcb533b1	-0.022119375
20	0x3dec04a5	0.115243234
21	0x3d89a636	0.06721155
22	0x3c63704d	0.013881755
23	0x3cbca603	0.02302838
24	0x3d46ae61	0.048506144
25	0xbdb70c0b	-0.08937844
26	0xbcaf61ec	-0.021408997
27	0x3e71734f	0.23579143
28	0xbcf5fd90	-0.030028135
29	0x3d99b279	0.07504744
30	0x3daa683d	0.08320663
31	0xbc74d37f	-0.014943003
32	0xbcce6cc6	-0.025198352
33	0x3b690be9	0.0035560078
34	0xbdf4520d	-0.119297124
35	0x3df48174	0.11938754
36	0xbd4e8175	-0.05041643
37	0xbe9120e5	-0.2834541
38	0x3d59f651	0.05321342
39	0x3e386650	0.18007779
40	0x3c987f6b	0.018615445
41	0xbe774799	-0.24148406
42	0xbd1e0c3e	-0.038585894
43	0x3d75b3df	0.05998599
44	0x3d6b1989	0.0573974
45	0x3d248197	0.04016265
46	0x3d90f33f	0.070776455
47	0x3b89aaa9	0.0042012525
48	0x3e073e04	0.13207251
49	0x3d456819	0.04819498
50	0x3c0ffb25	0.008787905
51	0xbe62dc80	-0.22154427
52	0x3cd0c8da	0.025486398
53	0x3e42306a	0.18963781
54	0xbd86be74	-0.06579295
55	0x3e7ed76d	0.24886866
56	0x3caf0bde	0.021367963
57	0xbda85523	-0.082193635
58	0xbc12daa8	-0.0089632645
59	0xbbf7e9cb	-0.007565712
60	0x3c46657c	0.012109157
61	0xbcf3b24c	-0.029748105
62	0x3cc75b9c	0.024335675
63	0x3e920cec	0.28525484
64	0xbda9ff35	-0.0830063
65	0x3c9578f5	0.018246153
66	0xbaafaf0b	-0.0013403607
67	0x3e83e2d9	0.2575901
68	0x3d0fab66	0.035075568
69	0x3d2780b1	0.040894214
70	0xbd0edd3b	-0.03487895
71	0xbc92e05b	-0.017929247
72	0x3e489bac	0.19590634
73	0x3e1f27c6	0.15542516
74	0x3cc5ad32	0.024130438
75	0x3ca25aae	0.01981863
76	0xbdbdf1f5	-0.09274665
77	0x3d840ea0	0.06448102
78	0x3de76352	0.11298241
79	0xba16ed15	-0.0005757374
80	0x3d66bedc	0.05633436
81	0x3d21c4f2	0.039494462
82	0x3e9daf5b	0.30797848
83	0xbd8ea813	-0.06965651
84	0x3c513d3b	0.012770946
85	0xbcd2f4da	-0.02575152
86	0xbb511026	-0.0031900494
87	0xbd3b47a3	-0.045722615
88	0xbd07ec43	-0.0331843
89	0x3d65aa13	0.0560704
90	0xbc207395	-0.009793182
91	0xbd422ecf	-0.04740792
92	0x3da47044	0.080292255
93	0x3dea289b	0.11433526
94	0x3d870a68	0.06593782
95	0xbdf9f2e1	-0.122045286
96	0x3e44784f	0.19186519
97	0x3de6e270	0.11273658
98	0xbd1a9a3b	-0.037744742
99	0xbd966e51	-0.0734526
100	0x3db4d74a	0.08830126
101	0x3c1b8ed5	0.009494503
102	0x3c9a94ba	0.018869746
103	0xbd751c9e	-0.059841745
104	0x3e8d174a	0.2755683
105	0xbe228849	-0.15872301
106	0x3ed122ac	0.40846765
107	0xbdc2dd2e	-0.09514843
108	0xbdf0506f	-0.117340915
109	0x3e48a540	0.19594288
110	0x3d55e494	0.052219942
111	0x3de46037	0.11151164
112	0x3d26750c	0.04063897
113	0xbc8be80e	-0.017078426
114	0xbd9accf0	-0.0755862
115	0x3e0f633e	0.14002702
116	0xbcbf8b71	-0.02338192
117	0x3db2b384	0.08725646
118	0xbd92cea0	-0.07168317
119	0x3dbf42ec	0.09338936
120	0x3e25f2fd	0.16205974
121	0x3e414090	0.18872285
122	0x3e309117	0.17242847
123	0x3e252fbc	0.1613149
124	0x3c8ef656	0.017451447
125	0xbdb0769b	-0.08616372
126	0xbd857aea	-0.065175846
127	0xbe11c89c	-0.14236683
128	0x3d84acf3	0.064783
129	0x3e8498b8	0.25897765
130	0x3cb0e94f	0.021595625
131	0x3e16a57a	0.14711562
132	0x3e8b0f61	0.2716017
133	0xbd933f1b	-0.07189771
134	0x3dc5c255	0.096562065
135	0x3e3edd50	0.18639112
136	0xbc6a22b1	-0.014290498
137	0xbd6a4149	-0.057191167
138	0x3d53035c	0.051516876
139	0xbca1460c	-0.019686721
140	0xbd54dcef	-0.05196851
141	0x3caf1480	0.02137208
142	0xbd867e57	-0.06567066
143	0xbd79f2de	-0.06102263
144	0xbce68aaf	-0.028142301
145	0xbe2277bf	-0.15865992
146	0x3e0ef710	0.13961434
147	0x3d86b10a	0.06576736
148	0xbd218fcc	-0.039443776
149	0xbe4d2b0e	-0.20035955
150	0x3e07702a	0.13226381
151	0x3bd3a56c	0.006458929
152	0xbd528b87	-0.051402595
153	0x3e36fcf7	0.17869936
154	0x3dcc1e0f	0.09966671
155	0x3dbf3027	0.09335356
156	0x3d6083c6	0.05481317
157	0x3da039de	0.07823537
158	0x3dec9d70	0.11553466
159	0x3df44e7a	0.11929031
160	0xbd82c8a7	-0.06385928
161	0x3e19a941	0.15005971
162	0xbd373b04	-0.044734016
163	0x3d5602ad	0.052248646
164	0xbd529f46	-0.051421426
165	0xbd751900	-0.059838295
166	0xbc816c3f	-0.015798686
167	0x3dbaa3c6	0.091132686
168	0x3d36586f	0.04451793
169	0xbc29a147	-0.010353393
170	0xbc189495	-0.0093127685
171	0xbd8f17eb	-0.06986984
172	0xbd971bdd	-0.073783614
173	0xba121e13	-0.00055739394
174	0x3e247957	0.16061912
175	0x3e38c587	0.180441
176	0x3e6628ce	0.22476503
177	0x3cd3b5c5	0.02584351
178	0xbca76092	-0.02043179
179	0xbd314525	-0.043278832
180	0xbc9b87fc	-0.01898574
181	0x3e17bde0	0.14818525
182	0xbdd897bc	-0.10575816
183	0x3e081a06	0.13291177
184	0xbca22543	-0.019793158
185	0x3d78794b	0.06066255
186	0xbdf117b6	-0.117721006
187	0x3da0e077	0.07855313
188	0xbe0aaf47	-0.13543426
189	0xbd051021	-0.032486085
190	0xb9a3bd15	-0.0003123066
191	0x3e53cf8b	0.2068464
192	0xb7fa3da3	-2.9831024e-05
193	0x3ba5399b	0.0050422675
194	0x3d4be745	0.049781103
195	0xbdba88a8	-0.09108096
196	0xbc12014a	-0.00891144
197	0xbc8d0c9b	-0.017217925
198	0xbdbf0631	-0.09327353
199	0xbde3b7b9	-0.11119027
200	0x3dcd5fba	0.10028024
201	0xbd250ad5	-0.040293533
202	0x3d92ba09	0.0716439
203	0xbd54d46e	-0.0519604
204	0x3d05620e	0.032564215
205	0x3d889606	0.0666924
206	0xbdbaf78c	-0.09129247
207	0x3dc5e923	0.09663608
208	0xbcdab4f1	-0.026697608
209	0x3d54746d	0.051868845
210	0xbd15b3be	-0.03654837
211	0x3c5ef5fe	0.013608454
212	0x3a2821e9	0.00064137444
213	0x3d485c6a	0.048916258
214	0x3d07a6f8	0.03311822
215	0x3e6f0db0	0.23345065
216	0xbd4f0a8b	-0.050547164
217	0xbc3947b9	-0.011308604
218	0xbd65081c	-0.055915937
219	0xbd56773d	-0.05235981
220	0x3d2b2848	0.041786462
221	0xbd3119cf	-0.043237504
222	0xbe1d8576	-0.15382943
223	0xbd6d5cc7	-0.057949807
224	0xbe1862bc	-0.14881414
225	0x3da54d7c	0.080714196
226	0xbd2f5327	-0.04280391
227	0xbd95ff03	-0.0732403
228	0x3dd18b8e	0.10231696
229	0x3d3cd21f	0.046098825
230	0x3d4ea447	0.050449636
231	0x3d9ef3f4	0.07761374
232	0x3dad0f40	0.08450174
233	0x3a0f7db0	0.0005473746
234	0xbd33b00e	-0.04386907
235	0x3c38f5a1	0.011289031
236	0x3cffa487	0.031206382
237	0x3e711dfa	0.23546591
238	0xbe10e3f0	-0.14149451
239	0x3ee43e18	0.44578624
240	0x3d244bce	0.040111355
241	0xbd43acd8	-0.04777226
242	0xbdb27f15	-0.08715645
243	0x3df39a6b	0.11894687
244	0x3e081b59	0.13291682
245	0x3d846881	0.06465245
246	0x3dd78570	0.10523498
247	0x3c04f050	0.008113936
248	0xbda5cee7	-0.08096104
249	0x3d2c41cb	0.042054933
250	0x3c33c939	0.010973268
251	0xbd0ba06b	-0.034088533
252	0xbdbd2246	-0.09235053
253	0x3d746aec	0.05967228
254	0xbda0def5	-0.07855026
255	0xbdcec645	-0.10096411

bias f4 [10]
0	0xbd162f12	-0.036665983
1	0x3d80c3fd	0.06287382
2	0xbd35cbe1	-0.044383887
3	0xbd632ef0	-0.055464685
4	0x3d7c9460	0.06166494
5	0xbd9db60b	-0.077007376
6	0xbcde165d	-0.027110273
7	0x3d46a2d0	0.048495114
8	0xbdae888b	-0.08522137
9	0x3d8344c8	0.06409603

weight f4 [10]
0	0x3f99c9f6	1.2014759
1	0x3f6f47a6	0.934687
2	0x3f8c0c55	1.0941263
3	0x3f61471e	0.8799914
4	0x3f7b5f39	0.98192173
5	0x3f660c59	0.8986259
6	0x3f8677c7	1.0505303
7	0x3f9b4bb3	1.2132477
8	0x3f710e09	0.9416204
9	0x3f6dfc78	0.9296336

bias f4 [10]
0	0xbbb55f66	-0.005535054
1	0x3d9382a5	0.07202653
2	0x3b015028	0.0019731615
3	0x3d2bab75	0.04191156
4	0xbc6d771a	-0.014493728
5	0xbd78371c	-0.06059943
6	0xbce026c0	-0.027362227
7	0x3ca8b09a	0.020592023
8	0xbd4023f0	-0.046909273
9	0xbd35fd20	-0.044430852

weight f4 [10]
0	0x3f914167	1.1348084
1	0x3f6b24ce	0.91853034
2	0x3f876c44	1.0579915
3	0x3f93f65e	1.155956
4	0x3f6b9d1a	0.9203659
5	0x3f829e71	1.0204602
6	0x3f80fd81	1.0077363
7	0x3f834b26	1.0257308
8	0x3f7e38bf	0.9930534
9	0x3f7b85f8	0.98251295

bias f4 [10]
0	0x3cbe4065	0.023224065
1	0x3dd5b3f1	0.10434712
2	0xbd12ccdd	-0.035839904
3	0xbe1ab29a	-0.15107194
4	0x3d4bf67c	0.049795613
5	0xbde549c4	-0.1119571
6	0x3d49d5d0	0.049276173
7	0x3c49847d	0.012299654
8	0xbd6429ce	-0.05570393
9	0x3d5f2e7a	0.054487683

weight f4 [10]
0	0x3f79f38c	0.9763725
1	0x3f585445	0.84503585
2	0x3f74e7bd	0.95666105
3	0x3f28fb8d	0.66008836
4	0x3f4d31fe	0.8015441
5	0x3f5ad282	0.8547746
6	0x3f4f4cd3	0.809766
7	0x3f573b69	0.8407503
8	0x3f6d07ac	0.9258983
9	0x3f5c5958	0.8607383

bias f4 [10]
0	0x3db1c8db	0.08680888
1	0x3d6cd7dd	0.05782305
2	0x3d19ad91	0.03751904
3	0x3c7749c0	0.015093267
4	0xbd528850	-0.05139953
5	0x3d0383c3	0.03210808
6	0x3ce7d616	0.028300326
7	0xbd0ab89e	-0.03386747
8	0xbc45e170	-0.012077674
9	0xbda7a789	-0.08186252

in_proj_weight f4 [30, 10]
0	0x31f305ce	7.0728907e-09
1	0x33004e2c	2.987342e-08
2	0xb142fcec	-2.8374485e-09
3	0xb2a7f61a	-1.9553273e-08
4	0x326a7975	1.3648209e-08
5	0x3231d5c0	1.0351357e-08
6	0x33083aa2	3.1718294e-08
7	0x325a2ca4	1.269942e-08
8	0xb1c14294	-5.6246083e-09
9	0xb25cd19f	-1.2853348e-08
10	0xb2a7a9da	-1.9518598e-08
11	0xb219986d	-8.94043e-09
12	0x3302e8a6	3.0479576e-08
13	0xb13e8761	-2.7725593e-09
14	0xb1caea95	-5.9056426e-09
15	0xb2584e07	-1.2590596e-08
16	0xb33edb83	-4.4437467e-08
17	0xb264e090	-1.3322406e-08
18	0xb0d4d9e0	-1.5486954e-09
19	0x3281968c	1.5086037e-08
20	0x321f7ca0	9.2833545e-09
21	0xb2be3c72	-2.2146398e-08
22	0xb08bfbce	-1.0185148e-09
23	0x30a1872d	1.1752711e-09
24	0xaffc1452	-4.5852971e-10
25	0x2eab2e28	7.784379e-11
26	0x32f42e62	2.8426431e-08
27	0x3125d8de	2.4133935e-09
28	0xb2a156f3	-1.8782407e-08
29	0xb3207147	-3.7355928e-08
30	0x2f1a72a0	1.4046941e-10
31	0xb0fbeff8	-1.8330857e-09
32	0xb31f3a9d	-3.707338e-08
33	0xb28547b9	-1.5515853e-08
34	0x32bb9152	2.183575e-08
35	0xb03cdc64	-6.8707195e-10
36	0x31f7d6a6	7.213049e-09
37	0x32b73184	2.1326521e-08
38	0xb2b99631	-2.1605134e-08
39	0x32ca7b88	2.357207e-08
40	0x3239ab3b	1.0807351e-08
41	0xb1b875ec	-5.368511e-09
42	0x2fae22d2	3.1675157e-10
43	0xb1fd36fc	-7.36952e-09
44	0x32daff88	2.5494742e-08
45	0x3307e7da	3.1643005e-08
46	0x320d126c	8.211469e-09
47	0x32a40559	1.9094545e-08
48	0xb307f2df	-3.1653027e-08
49	0x31942044	4.311035e-09
50	0x32fa21cc	2.91192e-08
51	0xb16da376	-3.4580956e-09
52	0xb2aa6690	-1.9837245e-08
53	0xb324a0e5	-3.833056e-08
54	0xb1ad32c5	-5.0407345e-09
55	0x3303d3e2	3.069352e-08
56	0x323fa504	1.1155183e-08
57	0xb1c9db02	-5.8747682e-09
58	0x32e76134	2.6936142e-08
59	0xb2425fe9	-1.1314094e-08
60	0x3297d959	1.7677552e-08
61	0x31475599	2.9006968e-09
62	0xb26d9e4c	-1.3831208e-08
63	0xb2ff58ad	-2.9726232e-08
64	0x2fcbc946	3.7068498e-10
65	0xb3454621	-4.593142e-08
66	0x32b43224	2.097756e-08
67	0xb1ba327a	-5.419051e-09
68	0x321228b0	8.50757e-09
69	0x31fc031d	7.334519e-09
70	0xb196d6e4	-4.390005e-09
71	0x32ca69f3	2.3564075e-08
72	0x306de36a	8.654327e-10
73	0x329ce2d7	1.8263945e-08
74	0x311bbe38	2.2663595e-09
75	0xb2a2e621	-1.8963933e-08
76	0xb25fe35c	-1.3032004e-08
77	0x32e6cd06	2.6868758e-08
78	0x32cf842c	2.4158076e-08
79	0x32553b5a	1.2411727e-08
80	0xb20614d6	-7.804564e-09
81	0x3113745e	2.1457462e-09
82	0x2ff640b7	4.4793122e-10
83	0x3328f5de	3.9339163e-08
84	0x311aba42	2.2515825e-09
85	0x327bf9f6	1.4666957e-08
86	0x32f24086	2.820185e-08
87	0xb289f67b	-1.6060985e-08
88	0x327e81a5	1.4814224e-08
89	0xb1fab42d	-7.2964412e-09
90	0x320d867c	8.237858e-09
91	0xb0770c20	-8.9875307e-10
92	0xb17bf966	-3.6667074e-09
93	0x323d0823	1.1003098e-08
94	0x319626cf	4.3699866e-09
95	0xb22a9d98	-9.931135e-09
96	0xb28cd754	-1.6396065e-08
97	0xb218970e	-8.88191e-09
98	0x32e83ba8	2.7035483e-08
99	0x32c852e5	2.332076e-08
100	0xb2c2c496	-2.267397e-08
101	0xb3156c08	-3.479002e-08
102	0x32388208	1.0739775e-08
103	0xaf571ba0	-1.956395e-10
104	0x3205fcd2	7.799104e-09
105	0x2f009f3b	1.1698102e-10
106	0x32b09ad2	2.05595e-08
107	0xb1bef570	-5.557631e-09
108	0xb3012bc3	-3.0074954e-08
109	0x314c5ed0	2.9739802e-09
110	0xb140e6ea	-2.8070937e-09
111	0xb10287e4	-1.8994735e-09
112	0x323f22d4	1.1125582e-08
113	0x31e10e8b	6.550015e-09
114	0xb0143724	-5.3920446e-10
115	0xb2874804	-1.5748817e-08
116	0x3192f5de	4.277111e-09
117	0xaf1066f0	-1.3133294e-10
118	0x32b21a38	2.073385e-08
119	0xb235b8c6	-1.0577599e-08
120	0x31ac09f0	5.0069886e-09
121	0xb1f8bec5	-7.239438e-09
122	0xb00de71e	-5.162394e-10
123	0xb2e52577	-2.6676146e-08
124	0xb31c0ed0	-3.6335052e-08
125	0x310112b0	1.8782593e-09
126	0x328581da	1.5542287e-08
127	0x314aa46a	2.9488327e-09
128	0x2fdba438	3.9952552e-10
129	0xb2c0bd16	-2.2437728e-08
130	0xb0ab1cd2	-1.2450079e-09
131	0xb212e1f4	-8.549694e-09
132	0xb27910ab	-1.4497497e-08
133	0xb2448496	-1.1438848e-08
134	0xb0786a04	-9.037253e-10
135	0x33006736	2.9896192e-08
136	0x322a7e78	9.924058e-09
137	0xb2f2c132	-2.8260363e-08
138	0x31d179df	6.0965557e-09
139	0x3091b905	1.0602724e-09
140	0x32a288f0	1.8921554e-08
141	0xae3b1c80	-4.254419e-11
142	0xb2dc1327	-2.562008e-08
143	0xae73fdc0	-5.547718e-11
144	0x32b73e0f	2.1332225e-08
145	0x31ff7ac5	7.435434e-09
146	0x331f24e3	3.705362e-08
147	0x3348e509	4.6774435e-08
148	0xb03f5832	-6.961073e-10
149	0xb2a2bde8	-1.8945642e-08
150	0x32b21c66	2.0734841e-08
151	0x30879f12	9.867753e-10
152	0xb01ee5fa	-5.780688e-10
153	0xb1bd4e96	-5.509558e-09
154	0x30a4a0bc	1.1978254e-09
155	0x33168dc4	3.505353e-08
156	0xb2428a68	-1.1323756e-08
157	0x327f9057	1.4875773e-08
158	0x32c7ec77	2.327418e-08
159	0x32820252	1.5135047e-08
160	0xafafd080	-3.1980463e-10
161	0xb202ded0	-7.617658e-09
162	0xb291c0c2	-1.6967878e-08
163	0x31ab9080	4.9931828e-09
164	0x32995814	1.7851598e-08
165	0xb28b10f7	-1.6189444e-08
166	0xb2c2b1f3	-2.2665494e-08
167	0x2f443430	1.7844637e-10
168	0x31ac3862	5.012269e-09
169	0xb28a1872	-1.607643e-08
170	0xb0f93a45	-1.8133696e-09
171	0xb2e68670	-2.683666e-08
172	0xb323c096	-3.812655e-08
173	0x2f875092	2.4613606e-10
174	0x3291e6d6	1.6985194e-08
175	0x30f2a99c	1.7656023e-09
176	0x32908428	1.6823904e-08
177	0x32253da2	9.618278e-09
178	0xb2add36c	-2.0235994e-08
179	0x330f63ec	3.338566e-08
180	0xb24de98c	-1.1985673e-08
181	0xb0023828	-4.737353e-10
182	0x32e37dde	2.6483516e-08
183	0x324afaa0	1.1814933e-08
184	0xb255461a	-1.2414171e-08
185	0xb31cb5ba	-3.648686e-08
186	0x32153983	8.686018e-09
187	0xb2ea4a69	-2.7275023e-08
188	0x329cbc4a	1.8246414e-08
189	0x325dad42	1.2903287e-08
190	0xb24902a0	-1.1700337e-08
191	0x322bed5b	1.0007478e-08
192	0xb2e649d2	-2.6809094e-08
193	0xb2c8441b	-2.3314035e-08
194	0x30e1d001	1.6430023e-09
195	0xb15bd526	-3.1989855e-09
196	0x319fde70	4.6527973e-09
197	0xb2e75832	-2.6932046e-08
198	0x32ea8e44	2.730588e-08
199	0x3106f203	1.9637134e-09
200	0xbeea65df	-0.45780846
201	0xbeb4bfdf	-0.35302636
202	0xbebdb65f	-0.370532
203	0x3dc3653c	0.09540793
204	0x3e58d3cf	0.21174549
205	0x3ddcc90d	0.10780535
206	0xbeeae757	-0.45879623
207	0xbde715fb	-0.11283489
208	0xbd2ac23b	-0.04168914
209	0xbeb227ad	-0.34795895
210	0xbe80629f	-0.25075242
211	0xbf22324f	-0.63358015
212	0xbf15fc5e	-0.58588207
213	0xbeac7470	-0.33682585
214	0xbe498aff	-0.19681929
215	0xbdb333f5	-0.087501444
216	0xbe3ef254	-0.18647128
217	0xbd4282d9	-0.047488067
218	0xbdfb360b	-0.12266167
219	0x3e2e1da5	0.17003496
220	0xbd9b1d51	-0.07573951
221	0xbea73792	-0.32659584
222	0xbe03e804	-0.12881476
223	0x3e1abd79	0.1511134
224	0xbdef3d06	-0.11681561
225	0x3ed7ed59	0.4217327
226	0x3f0df3eb	0.55450314
227	0x3ec40a25	0.3828899
228	0xbe2db7d4	-0.16964656
229	0x3dc11204	0.09427264
230	0x3ed1f1a8	0.41004682
231	0xbd612a9e	-0.054972284
232	0x3df44e99	0.11929054
233	0xbdfe6319	-0.12421245
234	0xbe0027c3	-0.12515168
235	0x3e35fb11	0.17771555
236	0xbe40c98c	-0.18826884
237	0x3c9f6cb1	0.019461008
238	0xbe8b1eff	-0.27172086
239	0x3dd70764	0.104994565
240	0xbe6cbb0c	-0.23118228
241	0x3e6d127a	0.2315158
242	0xbd8a1b19	-0.0674345
243	0x3bd77764	0.006575512
244	0xbd8da590	-0.06916344
245	0x3e73300d	0.23748799
246	0xbd9c5ec2	-0.07635261
247	0x3e428c25	0.18998773
248	0xbe02b2b6	-0.12763485
249	0x3db4df2e	0.08831631
250	0x3d09c178	0.03363177
251	0x3e245b5a	0.16050473
252	0xbeef360d	-0.46720925
253	0xbed2cd1e	-0.41172117
254	0xbd24bfa7	-0.040221836
255	0xbe7b2062	-0.24524072

in_proj_bias f4 [30]
0	0x00000000	0.0
1	0x00000000	0.0
2	0x00000000	0.0
3	0x00000000	0.0
4	0x00000000	0.0
5	0x00000000	0.0
6	0x00000000	0.0
7	0x00000000	0.0
8	0x00000000	0.0
9	0x00000000	0.0
10	0x00000000	0.0
11	0x00000000	0.0
12	0x00000000	0.0
13	0x00000000	0.0
14	0x00000000	0.0
15	0x00000000	0.0
16	0x00000000	0.0
17	0x00000000	0.0
18	0x00000000	0.0
19	0x00000000	0.0
20	0x3ccd92e3	0.025094455
21	0x3b5c2fe9	0.0033597893
22	0xbc87dd8e	-0.016585138
23	0xba8a99c8	-0.0010574395
24	0xbbeaf90e	-0.007170803
25	0xbbd94233	-0.006630206
26	0x3c763abf	0.015028655
27	0xbb11a7a0	-0.0022225156
28	0x3c831343	0.016000396
29	0xbc3e93b3	-0.011631894

weight f4 [10, 10]
0	0x3ec4d93b	0.38446984
1	0x3e6f2aef	0.23356222
2	0xbddabc0b	-0.106803976
3	0x3ee2dc3d	0.44308653
4	0xbed346f4	-0.4126507
5	0xbcafc01e	-0.021453913
6	0x3c0c870a	0.008577118
7	0xbec488a1	-0.3838549
8	0x3e995444	0.29947102
9	0x3ecd1964	0.40058434
10	0x3f2c4e48	0.6730695
11	0x3d4cdeea	0.050017275
12	0x3e67dff5	0.22644027
13	0xbd998ea1	-0.074979074
14	0xbee28715	-0.44243684
15	0xbe084ca5	-0.13310488
16	0xbc6e0833	-0.014528322
17	0x3d42609a	0.047455408
18	0x3e2a548c	0.16633815
19	0x3e16ae5e	0.14714953
20	0x3dd2c3ac	0.10291228
21	0x3b560754	0.0032658176
22	0x3dc03183	0.093844436
23	0xbee36c48	-0.4441855
24	0xbec8be73	-0.392078
25	0x3ded43e7	0.11585217
26	0xbed205ea	-0.41020137
27	0x3e1f235a	0.1554083
28	0x3f17c4db	0.5928475
29	0x3e29390a	0.16525665
30	0xbed66fa9	-0.41882065
31	0xbede5cd1	-0.43430188
32	0xbec2bd17	-0.3803489
33	0x3ed33221	0.41249183
34	0x3e4ae32f	0.19813226
35	0xbcd57b5e	-0.026059803
36	0xbf1128ad	-0.5670269
37	0x3e9dbdd7	0.308089
38	0x3e4c13e6	0.19929466
39	0xbe7739e2	-0.24143174
40	0xbde46d37	-0.111536436
41	0x3e09afe4	0.13446003
42	0x3df93be4	0.12169626
43	0xbeb8a74c	-0.36065137
44	0xbe833e08	-0.25633264
45	0x3eabf96b	0.33588728
46	0x3ebde4b0	0.37088537
47	0x3f00a9fd	0.5025938
48	0xbedf6290	-0.43629885
49	0xbd0cf717	-0.03441533
50	0x3ece6118	0.40308452
51	0xbbbe0276	-0.005798633
52	0x3f43ccd8	0.7648444
53	0xbdbc779f	-0.092025034
54	0x3d6b8e16	0.05750855
55	0x3daa91b4	0.08328572
56	0xbd231afc	-0.039820656
57	0xbe78ed48	-0.24309266
58	0x3e20d18b	0.15704934
59	0xbe05f8d5	-0.13083203
60	0xbd0ffbdb	-0.035152297
61	0xbe682299	-0.22669448
62	0xbefce5df	-0.49394128
63	0xbed2be0a	-0.41160613
64	0x3c373e74	0.011184324
65	0x3ec5a1d8	0.3860004
66	0xbf611403	-0.8792116
67	0x3eba6cb8	0.3641107
68	0x3d5e1e53	0.05422814
69	0x3f072545	0.52791244
70	0xbec344ca	-0.3813842
71	0xbe9c37b4	-0.30511248
72	0x3ea3fce7	0.32028887
73	0x3dcc4949	0.099749155
74	0xbe6a422c	-0.22876805
75	0xbdfa6881	-0.12226964
76	0x3e44f8e5	0.1923557
77	0xbf12d471	-0.5735541
78	0xbd089d48	-0.03335312
79	0x3c044948	0.008074112
80	0x3ed755ce	0.4205765
81	0x3f1794fc	0.5921171
82	0x3e0b495e	0.13602206
83	0xbe0d32c8	-0.13788903
84	0x3e157249	0.14594378
85	0x3f07c578	0.5303569
86	0x3e4c6274	0.19959432
87	0x3f283692	0.6570827
88	0x3e110bbc	0.14164633
89	0x3eb12f89	0.3460658
90	0xbe8aa105	-0.27075973
91	0x3e0fc2da	0.14039174
92	0xbe3f4ebd	-0.1868238
93	0x3e807756	0.25091046
94	0xbea363dd	-0.31912127
95	0x3e8b33bf	0.27187917
96	0x3f037ad1	0.5135928
97	0x3ec670b2	0.38757855
98	0xbeee41a2	-0.4653445
99	0xbf1fb74d	-0.6238907

bias f4 [10]
0	0x3cb419b0	0.021984905
1	0x3cfc136a	0.030770976
2	0xbccfffc8	-0.02539052
3	0x3c43c998	0.011949919
4	0xb81ed680	-3.7869904e-05
5	0xbba678b7	-0.0050803083
6	0x3e022a8e	0.12711546
7	0xbb4a9948	-0.0030914117
8	0x3d12f5ba	0.035878874
9	0xbc67e504	-0.014153723
