Comparative_Evaluation/Baselines/Transformer/models_u/model95.pt (torch, 369273 bytes, 36 tensors)

in_proj_weight f4 [30, 10]
000000 4b 8f ac bd 67 a1 38 be 84 ba 78 bd 38 7f 05 3e
       -0.084257685 -0.1803032 -0.06072475 0.13036811
000010 2d cf 91 3c 5d bf 0a 3e 92 b3 b0 3c 70 ba 89 3c
       0.017798984 0.13549562 0.02157 0.016812533
000020 d2 0d f7 3b 41 38 4d be 32 7c 93 3b 55 f8 57 3d
       0.0075394893 -0.2004099 0.004500889 0.052727062
000030 62 04 e0 bb 51 63 19 3d 08 85 0a bd 56 85 a9 3d
       -0.00683646 0.03744823 -0.033818275 0.08277385
000040 60 c3 83 3a 53 27 1f 3e b8 70 8a 3c c4 c3 4d 3d
       0.0010052733 0.15542345 0.016899452 0.050235525
000050 52 84 23 ba ee 66 c7 3c 7d 7f b2 bd 2d 2e bf 3c
       -0.0006237674 0.024341073 -0.08715723 0.023337448
000060 5a 13 d6 bc 3a 31 07 3e d9 ac 1f 3d e6 2a 85 3c
       -0.026132274 0.13202372 0.0389832 0.016255807
000070 ee da 45 3e 1a c7 47 bb a6 26 2c bb d2 65 ce bd
       0.19321796 -0.0030483664 -0.0026268153 -0.100780144
000080 87 91 a3 3c 62 dc 2b 3d c0 43 39 3e 06 6f cc bc
       0.019966854 0.04195822 0.18092251 -0.024955284
000090 b4 ff 72 3d 1f 2e ec 3b 4c 66 1d ba 8c b2 ed bb
       0.05932589 0.0072076465 -0.0006004318 -0.0072539505
0000a0 a3 34 5a bc eb c0 b0 ba 65 6d b2 ba 61 d5 28 3e
       -0.013318214 -0.0013485228 -0.0013612924 0.16487648
0000b0 27 e9 e6 3b 65 b9 28 3e 31 15 02 3e 8a f2 35 be
       0.007046837 0.16476972 0.12703396 -0.17768303
0000c0 a5 29 cf bc 78 de c8 3b b2 d3 a6 ba 48 b9 39 bc
       -0.025288412 0.006130036 -0.0012727885 -0.011335678
0000d0 40 68 e1 ba b8 c3 95 bd 5b 5d b4 3d 76 fd 5d 3b
       -0.0017197207 -0.07312721 0.08806869 0.0033872998
0000e0 c4 1c 8c 3d a2 89 01 3e 84 24 c8 3a 0e ae 1b bc
       0.06841424 0.12650159 0.0015269672 -0.009501947
0000f0 b2 4b 3b 3d 79 76 75 bc 0c 1b 5a 3c 3f 83 ab bd
       0.045726486 -0.014981859 0.013312113 -0.083746426
000100 63 34 ed 3d f9 94 0c bb 8e 59 f6 3d dd 6b f6 3c
       0.115822576 -0.00214511 0.120288 0.03008073
000110 8b 44 58 bc 28 cc 30 3e ca 87 c0 3d 3c e7 94 3c
       -0.013199936 0.1726538 0.094009 0.018176667
000120 d7 0d dc 3a af e2 c3 3d ff 0f 29 bd b1 b9 19 3e
       0.0016788793 0.09564721 -0.04127502 0.15012242
000130 06 68 cb bc d0 1c 09 be de 8c 79 bb 97 a1 ba bd
       -0.024829876 -0.13389897 -0.0038078348 -0.09112852
000140 5b d5 a3 bc 8c b1 36 be 3e f7 9c bd 25 06 2a 3e
       -0.019999197 -0.17841166 -0.07664345 0.16603906
000150 e9 48 a8 bc d0 03 2f bb a4 ee af 3d 56 a7 4c 3e
       -0.020542579 -0.0026705153 0.08590439 0.19985709
000160 b1 75 3c bb e2 f7 7d bb 41 4b 9d 3a 2c ac 6c bd
       -0.0028756673 -0.0038752486 0.0012000577 -0.057781383
000170 e5 c7 9d 3d 61 e7 2a 3d 0e f5 37 3e 9f 88 0a bc
       0.077041425 0.041724566 0.17964575 -0.008455425
000180 e5 20 6b bc d3 b8 d5 3c f9 8f 0b bc 31 dd dc 3b
       -0.014351104 0.026089108 -0.0085182125 0.0067402353
000190 07 3b 02 3e 94 a5 12 3e 0b 52 f4 3d a2 51 b6 bc
       0.1271783 0.14320976 0.11929711 -0.022255722
0001a0 6f b6 42 3e 5e 6e 9e bb 40 94 21 3e 8c da 90 bd
       0.19014905 -0.004834934 0.15779209 -0.070729345
0001b0 62 85 10 3c 32 d7 c0 3d c8 90 f8 38 09 2c cd 3d
       0.008820863 0.09416045 0.00011852529 0.10018165
0001c0 ca 07 48 3e 36 74 09 3b f1 5d 57 be b6 83 c9 3d
       0.19534221 0.0020973808 -0.2103193 0.09839575
0001d0 a0 1b c7 3c 9b be 31 3e 2c 9f 1d bd 1e 16 d1 3c
       0.024305165 0.17357866 -0.038481876 0.025523242
0001e0 82 24 03 bc 0b 43 f0 3b bc 57 bf 3c 8f 96 44 be
       -0.00800431 0.007332211 0.023357265 -0.19198059
0001f0 70 89 b4 bd fc 28 e1 bb b5 0d b5 bc 07 5d 95 3d
       -0.088152766 -0.006871341 -0.022101263 0.07293134
000200 8f 72 31 3e f5 95 e9 3d 1d f0 2b 3e f8 81 59 3a
       0.17328857 0.11405555 0.16790815 0.000829726
000210 a4 2b ba 3c c3 8b 31 be 71 47 a6 bc 85 18 86 3c
       0.022725888 -0.17338471 -0.020297738 0.016369114
000220 4c 43 45 bc d8 c1 e3 ba 3b f9 0a bd eb 38 d6 3c
       -0.012039971 -0.0017376496 -0.03392909 0.026150187
000230 02 31 45 be 4c 4c 16 bc 4a 5c 90 3d 91 04 51 3d
       -0.19256976 -0.009173464 0.07048853 0.051029745
000240 ce 8b 89 bc 6a 4a b2 3d 3c 77 93 39 8f 2e fc 3d
       -0.016790297 0.087055996 0.0002812686 0.12313568
000250 68 b5 4e bb 34 ee 0c 3b b6 e8 bd bb 44 bc c5 bd
       -0.0031541232 0.0021504285 -0.0057955636 -0.096550494
000260 30 a1 0d bc 13 07 05 3b ee 3a 29 be c8 ad a3 3c
       -0.008644387 0.0020298406 -0.16526386 0.019980326
000270 35 ab b9 bc 57 47 29 be 59 8b 10 3e bf f2 cf 3c
       -0.022664646 -0.1653112 0.14115657 0.025384305
000280 e6 eb f8 3d 3e ef fe bb 77 53 e6 bd b2 a7 d4 3c
       0.12154369 -0.0077799847 -0.112463884 0.02595887
000290 51 1b ec 3d c5 b3 ff bd 59 b8 bd bc 6f 33 09 be
       0.11528648 -0.1248546 -0.023159193 -0.13398527
0002a0 e1 e2 9f bc 7b e3 d7 bc 74 68 1a 3e 70 f7 15 b9
       -0.019517364 -0.026353588 0.15078908 -0.00014301925
0002b0 e0 ec 37 be 26 d1 5a 3e b2 bd 09 be 0e 99 3f be
       -0.17961454 0.21368846 -0.1345127 -0.1871073
0002c0 96 50 d7 3c ae db e3 bc c8 41 0b be 7a 78 9d bb
       0.026283544 -0.027814712 -0.13599312 -0.0048056217
0002d0 40 14 cf bd fe dd a8 bc 2d 4b d2 bb 15 9c 2e be
       -0.10111284 -0.020613667 -0.006417653 -0.17051728
0002e0 d0 f9 65 bc 86 3f 4f 3e 24 dd 38 bc 74 90 bd 3c
       -0.014036611 0.20239076 -0.011283193 0.02314017
0002f0 c8 9c 5a 3e be 69 56 3e 22 3e cb 3c 2e 2f eb 3d
       0.2134887 0.20938775 0.0248099 0.11483608
000300 88 eb 04 3c a6 31 09 be 6a a4 88 3c 02 59 4f be
       0.008112796 -0.13397846 0.016679961 -0.20248798
000310 5f 0d b9 bd ca 52 34 3b ce 9a 31 3d 82 a9 56 3c
       -0.090357535 0.0027515166 0.043360524 0.013101937
000320 be ae f1 bd ad 39 e0 3d 82 00 c6 3e 6e 90 ba 3e
       -0.118009076 0.10948501 0.38672262 0.36438316
000330 50 e8 90 3d 3e e4 08 3d 8a 03 d1 3e 48 d8 a2 3e
       0.0707556 0.033420794 0.40823013 0.31805634
000340 5f b7 b0 3d 44 74 93 be de 56 30 3e 82 24 b6 bd
       0.08628725 -0.2879964 0.17220637 -0.08893682
000350 e7 5b 9c 3c 69 38 47 3e 97 a4 36 be 80 77 58 bd
       0.019086791 0.19455113 -0.17836224 -0.05284834
000360 ad f6 95 be ba a5 84 be 6e a4 3a 3e 1e 61 53 3d
       -0.2928976 -0.2590769 0.18226787 0.05160629
000370 78 79 a9 3c e6 12 a2 3e f8 dd 83 be 93 c9 73 3e
       0.020687804 0.31655043 -0.25755286 0.23807363
000380 44 94 d1 3d 97 fe 1c be fd 1d a9 3e d4 16 aa be
       0.102333575 -0.15331493 0.33030692 -0.3322054
000390 c8 c6 4c 3d b7 51 8f 3e 37 cc 7b be 60 f6 11 be
       0.04999426 0.2799203 -0.2458962 -0.14254141
0003a0 73 f4 91 be 2d 5a 3b 3e 74 2e 8b be 32 ac 3e 3e
       -0.28506812 0.18296118 -0.27183878 0.18620375
0003b0 4c a8 72 be 57 d3 59 3e de 04 18 3e 62 a8 36 3e
       -0.23697013 0.21272026 0.14845607 0.1783767
0003c0 01 fa 95 3d 6e c5 aa be 65 5e 72 be 95 cc a2 3e
       0.07323075 -0.33353752 -0.23668821 0.3179671
0003d0 41 17 8a be 44 e2 83 be 89 54 2f 3e 2e 72 00 3e
       -0.26970866 -0.25758564 0.17122091 0.12543556
0003e0 09 64 8d bd a8 e2 a6 3d 18 0a fb bd 81 7f 7f 3e
       -0.06903846 0.081487 -0.122577846 0.24950983
0003f0 8c b0 89 3e cd 78 84 be 7e 1c b4 be 15 92 61 be
       0.26892507 -0.25873414 -0.35177988 -0.22028382

in_proj_bias f4 [30]
000000 00 00 00 00 00 00 00 00 00 00 00 00 00 00 00 00
       0.0 0.0 0.0 0.0
000010 00 00 00 00 00 00 00 00 00 00 00 00 00 00 00 00
       0.0 0.0 0.0 0.0
000020 00 00 00 00 00 00 00 00 00 00 00 00 00 00 00 00
       0.0 0.0 0.0 0.0
000030 00 00 00 00 00 00 00 00 00 00 00 00 00 00 00 00
       0.0 0.0 0.0 0.0
000040 00 00 00 00 00 00 00 00 00 00 00 00 00 00 00 00
       0.0 0.0 0.0 0.0
000050 c0 8d 4c 3d 6e 6d 54 bd 1a fd 4e 3d 09 5d 44 bd
       0.04993987 -0.051862173 0.050534345 -0.047940288
000060 eb 63 57 3d 18 83 45 bd 35 d4 d2 3c 30 3c 35 3d
       0.052585524 -0.048220724 0.025735954 0.044246852
000070 65 2d 7b bd e6 56 64 bd
       -0.06132259 -0.055746935

weight f4 [10, 10]
000000 2e 8d c3 3e b5 cf 9a bd 83 bb 05 3f 22 98 f9 3e
       0.3819365 -0.07559148 0.52239245 0.4874888
000010 59 a7 ca 3e 73 51 40 3d 6a f9 19 bf 49 a3 bd be
       0.395808 0.046952676 -0.601462 -0.3703864
000020 1b d0 8f be 39 2b eb bc 6b bb 6a bd 3b 87 17 be
       -0.2808846 -0.028707134 -0.057307642 -0.1479768
000030 c9 a2 02 be ff 52 0b be 98 e9 56 be 1d d2 74 3e
       -0.1275741 -0.13605879 -0.20987546 0.23908277
000040 0f 04 07 be 40 b8 18 3e a7 46 82 be 67 cb 4d 3e
       -0.13185142 0.14914036 -0.25444528 0.20097123
000050 3e 48 19 3f 00 87 e3 be 21 49 8c bd 91 29 d1 be
       0.5987586 -0.44438934 -0.06849886 -0.40852025
000060 ce 1e 2c 3c a9 c7 d2 3d f0 09 e3 3d c0 42 94 3e
       0.010505391 0.102919884 0.1108588 0.28957176
000070 36 d2 8c 3e 1c aa eb be 89 35 26 be fc a5 8a 3e
       0.27504128 -0.4602822 -0.1623136 0.2707976
000080 6a 0f 7f 3d 1d 7d 41 be 54 36 0d 3f 17 02 e8 3e
       0.06227056 -0.18895383 0.55161023 0.45314094
000090 d7 0d 8c be 27 f7 94 3e 9f ac bd be c9 ed c5 3e
       -0.2735431 0.29094812 -0.37045762 0.38657978
0000a0 d5 2d 0c bd 50 47 af be 3e 3d 34 be bf 0c df 3e
       -0.034223396 -0.34234095 -0.17601487 0.43564412
0000b0 3b 6b 8a be cf 06 81 3e 12 5e 2f be 3e 09 bf be
       -0.27034935 0.25200507 -0.17125729 -0.3731174
0000c0 1c 1e 84 3d 01 ce 89 3c 5f 35 0d bf 6b b7 b3 3e
       0.064510554 0.016821863 -0.5515956 0.35100874
0000d0 29 d9 52 be 98 b2 01 3d 46 63 14 bf ca 3e 89 3e
       -0.20590653 0.03166446 -0.5796398 0.26805717
0000e0 00 34 a7 3e 15 f8 16 3e 96 06 f1 3e fb 7b 02 3f
       0.3265686 0.14743073 0.47075337 0.5097043
0000f0 f8 6a fd bd 59 c1 9c 3e c9 40 b9 be 78 7a cf 3e
       -0.12373918 0.30616263 -0.3618224 0.40523124
000100 f3 89 75 3e 96 73 f0 3e 5a 3c 91 be 41 45 ba be
       0.23978405 0.46963185 -0.28366357 -0.36380962
000110 21 81 46 be a5 86 de bd 81 0f eb 3e d3 28 17 3f
       -0.19385196 -0.10865525 0.45910266 0.5904667
000120 06 ba 99 3e bd 67 31 bd 3b d7 f1 3e 22 42 00 3f
       0.30024737 -0.043311823 0.4723452 0.5010091
000130 47 c3 05 3f 97 64 63 be 26 08 e4 3d a4 b1 0c bd
       0.52251095 -0.2220634 0.11134367 -0.0343491
000140 75 ee 6d be d7 8b c9 be 09 11 56 3c 24 7a 0c 3e
       -0.23235495 -0.39364502 0.013065585 0.13718468
000150 1e 6c ef 3e f2 46 f5 be 41 97 9d be 6f d0 00 bf
       0.46762174 -0.4790569 -0.3077946 -0.50318044
000160 97 7a b8 3e e1 46 ac be 78 90 17 be c9 c7 0a 3e
       0.3603103 -0.33647826 -0.14801204 0.13552774
000170 ea cb d6 3e 65 c1 72 be b0 6b a9 be 7a 5b b1 3c
       0.4195245 -0.23706587 -0.33089972 0.021650065
000180 71 c6 9f 3e 9a 5d cd 3d c7 64 fd bd 93 60 4d be
       0.31206086 0.10027619 -0.123727374 -0.20056371

bias f4 [10]
000000 93 fd 57 3d a6 6a 66 bd 5f 4e 4d 3d fb 82 ea 3b
       0.05273206 -0.05625405 0.05012357 0.0071567274
000010 95 4e 5e 3d 59 33 78 bd d2 f2 51 bd b7 71 f9 bc
       0.05427416 -0.060595844 -0.051256962 -0.030449731
000020 25 4f 37 3d 41 f8 57 3d
       0.044753212 0.052726988

weight f4 [2048, 10]
000000 fb 9f fe 3c 65 ae 5e 3d 3a a9 69 3c 0d 25 26 3b
       0.031082144 0.054365534 0.014261538 0.0025351674
000010 fb 41 93 bc 4f ef 9f bd e2 99 55 bd 42 f7 cd bd
       -0.017975798 -0.07809316 -0.052148707 -0.10056926
000020 61 dc 54 bd 5a d8 d5 3c 31 5b 3c 3d db 20 7c bd
       -0.051967982 0.026104141 0.045985404 -0.06155477
000030 dd a2 8b bd 56 72 ae bd fd 71 71 bd 69 8b 92 bd
       -0.06818173 -0.085179016 -0.0589466 -0.071554966
000040 20 28 a0 3d 57 a4 9a 3c 40 4e d2 3c 67 fc 12 3d
       0.07820153 0.018877191 0.025672078 0.03588524
000050 dc 86 83 3c 78 5f 87 3c 7d 32 d7 3c 02 77 4a 3d
       0.016055517 0.016525015 0.026269192 0.0494299
000060 97 5f d2 3d 42 c4 9a 3c 24 1e be bd bc 1d 8f bc
       0.102721386 0.018892411 -0.092830926 -0.017470233
000070 5c 91 90 bd d0 0c 95 bc 97 27 15 3d 1c 1d 3d 3d
       -0.07058975 -0.018194586 0.03641471 0.04617034
000080 25 dc 9a bd fb 7e 5a 3d 49 04 db bc d2 a3 1b 3b
       -0.075615205 0.053343754 -0.026735442 0.0023748768
000090 11 ab 47 bd 22 f1 16 bd 80 66 73 bc fe 24 84 3b
       -0.048747126 -0.036851056 -0.014855981 0.00403273
0000a0 cd 69 45 3d 2a 64 45 bd 20 47 ac bd 0b 2f dd bd
       0.048196603 -0.048191227 -0.084120035 -0.10799988
0000b0 f6 0a 7c 3d ea 3b d2 3c a0 f2 28 3d d0 6a a9 bd
       0.06153389 0.025663335 0.04124701 -0.08272326
0000c0 b4 6c 43 3d 25 60 a1 3d 64 54 98 3d ef 1c 52 3d
       0.04771109 0.07879666 0.07437971 0.051297124
0000d0 e7 10 80 bd 19 15 a6 bd 98 f2 55 bc ac ec c0 3d
       -0.06253224 -0.08109493 -0.013058327 0.094201416
0000e0 26 a0 3d bd 7c 13 35 bb 62 2b ca bd 45 e7 b1 3d
       -0.046295308 -0.0027630022 -0.09871556 0.08686689
0000f0 ed 35 ab 3b ad 1b fe 3b 56 d2 09 bc a0 f5 0c bc
       0.0052249343 0.007754764 -0.008411964 -0.008603483
000100 e4 45 16 ba cf a9 9b ba 81 44 b3 3b d2 7f 85 bb
       -0.00057324604 -0.0011876168 0.005470813 -0.0040740753
000110 0e bf 79 bb a0 18 4a ba 81 be 8f 3d 44 53 2c 3d
       -0.0038108262 -0.0007709358 0.070187576 0.042071596
000120 fd 01 c2 3d 36 4a 07 3d 16 69 c3 bd 62 6a d2 bd
       0.094730355 0.033029757 -0.09541528 -0.10274197
000130 05 97 af bc 08 38 85 bd c1 5e cb bc de 7b 31 bc
       -0.021434316 -0.06504828 -0.024825456 -0.010832755
000140 00 fb 4b 37 dc 9d af 3b 50 c5 82 bb e1 01 2e 3a
       1.2158183e-05 0.0053593945 -0.0039908066 0.0006637853
000150 b8 d6 19 39 24 93 f9 3b 3c ce 96 b9 a8 23 0d 3a
       0.00014671206 0.0076164175 -0.00028763886 0.00053840363
000160 08 2c 36 ba fe e9 9d ba ba 8b bb bd 57 a2 e5 3d
       -0.000694931 -0.0012047885 -0.0915751 0.112126045
000170 b5 81 4f 3d c3 3c 90 3c a7 33 37 3c 51 31 09 3c
       0.050660808 0.017607098 0.0111817485 0.008373574
000180 71 99 08 3b 54 1e cf 3c 71 64 af bd 98 19 a5 bd
       0.0020843411 0.025283016 -0.085640796 -0.08061522
000190 ec f7 47 3d c4 55 7e bb b8 9e 80 bd 9c eb 22 bd
       0.04882042 -0.0038808445 -0.06280273 -0.039775476
0001a0 06 2f 80 3d 0c 25 b2 3d 8a 6d 20 3d 42 8d 35 3d
       0.06258969 0.086984724 0.039166965 0.044324167
0001b0 10 9a b0 3d e5 72 d4 bc e4 9e f5 3c 4d c1 22 bd
       0.08623135 -0.025933692 0.029982992 -0.039735127
0001c0 2f 99 30 bd 16 60 36 3d 36 77 3f bd 75 cb 6f 3d
       -0.043114837 0.04452523 -0.046744548 0.05854364
0001d0 f1 3d 96 3b 67 a8 19 bc e6 fc a0 3c 62 49 b1 3c
       0.0045850207 -0.009378529 0.019651841 0.021641437
0001e0 4f 40 8c ba d8 54 fe bb 1f 6f ad ba c1 85 0a bc
       -0.0010700318 -0.007761579 -0.0013231969 -0.008454741
0001f0 c8 ba 36 b9 db 83 0b bc ea b4 fe bb 45 ae 1f bb
       -0.00017426454 -0.0085153235 -0.0077730315 -0.0024365347
000200 8a a2 9a bb 78 7c 9b 3b ff b4 24 3d 66 cd 67 ba
       -0.004719083 0.0047450624 0.040211674 -0.00088425574
000210 0e 48 20 3d bf a9 90 3d 19 4e a8 bd 55 1f a1 3c
       0.039131217 0.070636265 -0.08218021 0.01966826
000220 10 7f 91 bd 94 4b 9e bd 26 b2 d5 bd 81 06 66 bd
       -0.071043134 -0.07729259 -0.1043437 -0.056158546
000230 41 e2 9b 3d 40 42 90 bd 24 7c 3f bd ce 5e 3c 3d
       0.07611514 -0.07043886 -0.04674925 0.04598885
000240 df e0 fa bc a7 5e 33 bd f1 c8 0d 3d 97 23 ab bd
       -0.030624805 -0.04379144 0.03461546 -0.083563976
000250 a2 6b 69 bb bd 8f 28 3c 07 f5 35 bc 32 13 41 bd
       -0.0035617133 0.010288176 -0.011105782 -0.047137447
000260 2f b2 94 bd dd 5f 32 bd 3f 1f 43 bc a0 5b 59 bc
       -0.07260548 -0.043548454 -0.011909305 -0.013266474
000270 18 0c 8c 3d b0 14 42 3c ca 85 a7 3c f2 2d db 3d
       0.06838244 0.011845753 0.020449538 0.10702123
000280 0d eb c5 bb 4b 0a f0 bc d0 45 03 bd b4 f3 c6 bd
       -0.006039983 -0.029301783 -0.032049 -0.097144514
000290 f3 5b e7 3c c2 d2 b6 3d 66 c0 99 3d 0b ef 16 3d
       0.028242087 0.089269176 0.075074 0.036849063
0002a0 46 bb 0f 3c 59 e4 cf bd 2d f1 9b bd 33 f9 a9 3d
       0.008772677 -0.10150976 -0.0761436 0.08299484
0002b0 df 6c dd 3d a3 94 91 bd e9 5e 53 3d 97 28 14 bd
       0.10811781 -0.07108428 0.051604185 -0.036171522
0002c0 ba e1 36 bd f5 22 91 3d 9a 54 d0 bd 6a ae 8d bd
       -0.044648863 0.07086746 -0.101723865 -0.069180325
0002d0 96 16 63 3d 55 e7 ca 3d b2 ea ba 3d ae f3 e7 3c
       0.05544146 0.09907404 0.09126796 0.028314438
0002e0 00 af c5 bd d8 64 75 3d 43 72 b3 bd 4d 7d b7 bd
       -0.09652519 0.059910625 -0.08762028 -0.08959446
0002f0 87 7c d3 bc 11 1f d6 3d 11 d8 5f bc 9f 8b 72 3d
       -0.025816215 0.10455144 -0.013662354 0.059215184
000300 42 f3 86 3d 6c b3 9e 3d aa f0 d3 ba a6 0f bc bc
       0.065893665 0.07749066 -0.0016169746 -0.02295668
000310 28 bc 94 3b 54 16 4e bd d6 9c 9f bd ed 81 db 3d
       0.0045390315 -0.050314263 -0.07793586 0.10718141
000320 52 d0 2e bb b0 8b 42 bd 20 ba 38 bd 46 05 e4 3a
       -0.0026674462 -0.047496498 -0.045099378 0.0017396591
000330 10 a5 b8 3c d4 c9 a5 3d f8 78 9d 3d af 10 89 bd
       0.022539645 0.08095136 0.076890886 -0.06692635
000340 ff 06 9b bd 40 fb 76 3d 6c 02 c5 3b d1 14 10 bc
       -0.07569694 0.060298204 0.0060122516 -0.0087940255
000350 15 4d 22 3c 50 51 ac 3c 6f e2 b6 3c f4 94 d2 bc
       0.009906073 0.021034867 0.022324769 -0.025705792
000360 a5 b2 ec bc 8f af 8a bd c9 30 b3 3b 8f 32 1d 3d
       -0.028893778 -0.067717664 0.005468462 0.038378295
000370 ba 13 3f bb 10 8c 8c 3c 0c 09 8a bc 7e d4 f9 3b
       -0.0029156045 0.01715663 -0.016850017 0.007624208
000380 a2 21 2e bc 7e 28 3d 3b 06 af 33 3c 04 93 c9 3a
       -0.010628136 0.0028863247 0.010967022 0.0015378897
000390 7d bf 83 bb c4 e5 ac ba 82 95 66 3d 2d 43 45 bc
       -0.00402063 -0.0013191034 0.056294926 -0.012039942
0003a0 1d 7d ba bd a9 df db ba 47 44 c9 3d d5 7e 4b bd
       -0.09105895 -0.001677503 0.09827476 -0.049681503
0003b0 9c 7d 6a 3d 24 45 6f 3d 6f b0 b3 3d 5e a1 8a 3d
       0.057248697 0.058415547 0.087738864 0.067690596
0003c0 5e 2d d4 ba dc 8c 59 3a dd 63 37 bb 88 43 07 3b
       -0.0016187837 0.0008298883 -0.0027983107 0.0020639617
0003d0 30 a6 0d 3c df 00 0e 3c ae 66 0e bc f6 dd 8a 3b
       0.008645579 0.0086672 -0.008691473 0.0042378856
0003e0 30 4e ae ba c0 ee a1 ba 18 b7 a8 bb 60 e4 92 39
       -0.0013298448 -0.0012354478 -0.0051487796 0.00028017443
0003f0 1b f3 5c 3a a4 22 5c ba b2 f3 d3 3b f0 22 c5 b9
       0.00084285595 -0.0008397496 0.0064682597 -0.00037600799

bias f4 [2048]
000000 88 98 22 3e ab c3 eb 3d 6a af 4e 3e 39 9b 81 3d
       0.15878499 0.1151193 0.20184103 0.063284345
000010 8d 6a 0b 3e 18 8d 3d 3d bb 17 04 bd c4 0c 47 3e
       0.13614865 0.046277136 -0.032249194 0.19438463
000020 c8 bd 8c bd dd c7 99 3d d4 80 84 3e 25 f3 e4 bd
       -0.068721354 0.07508824 0.25879538 -0.11179189
000030 9c 73 10 be ab ed 76 3e b3 01 c8 3d 02 de a6 3e
       -0.14106601 0.241141 0.09765949 0.32591254
000040 cb 7c 4a 3e 7c ea 03 be c4 d7 28 3e a6 6d 6f 3e
       0.19774167 -0.12882417 0.16488558 0.23381671
000050 a3 b0 9d 3d a5 11 b8 bd cb 50 ad bc 7c dd 56 3e
       0.076997064 -0.089877404 -0.02115669 0.20982927
000060 3f a1 d3 bd 3e 01 20 bc 2f 2d ae 3e 60 91 00 3c
       -0.103334896 -0.009765921 0.34018847 0.00784716
000070 41 a8 65 3e 86 4c 5d bd d2 4b 72 3e 6a 93 a1 3e
       0.22427465 -0.054028057 0.23661736 0.3155778
000080 45 76 43 3e e9 1a c9 3b 64 92 09 bd ee ba 08 3e
       0.19088085 0.006137241 -0.033586875 0.13352558
000090 ec 91 98 bd 6e 9c 44 bd 14 6a f6 3d 27 7e 10 3e
       -0.074497074 -0.048000745 0.120319515 0.14110623
0000a0 6a 89 a8 3d 03 60 24 bc 05 ef df 3d fa ae 71 bd
       0.08229335 -0.010032657 0.10934261 -0.05900476
0000b0 67 15 d5 bd 91 44 70 3e 99 0d d0 3d ad 2c a1 3e
       -0.10404473 0.23463656 0.101588435 0.31479397
0000c0 5c e1 ed 3b 9c bc cd bd 6b 9c c6 bd a4 9e a8 bd
       0.007259531 -0.1004574 -0.09697803 -0.08233383
0000d0 f4 d3 25 be 8c dd 0b 3e 3e 21 45 3e 60 cf a8 3d
       -0.16194135 0.13658732 0.19250962 0.08242679
0000e0 b4 29 51 bb fd 59 25 3e 0c c1 49 bd e5 66 3b 3d
       -0.0031915726 0.16147609 -0.04925637 0.045752425
0000f0 85 99 62 bc 6b 41 ae 3e 19 1a a2 3e d6 cf b5 bd
       -0.013830547 0.34034285 0.31660536 -0.08877532
000100 ea 85 c2 bd b9 af 09 be 85 70 26 bd f3 8e 4b 3e
       -0.09498198 -0.13445939 -0.04063465 0.1987875
000110 5a ef 9a 3c 2b 2a 81 3e 69 59 b3 3e 98 76 cf bd
       0.01891296 0.25227484 0.35029152 -0.10130042
000120 91 ec 0d be 68 8b 04 be b0 7e 39 bd a4 92 42 3b
       -0.13859774 -0.12943804 -0.045286834 0.0029689455
000130 8c 0e 44 3b e3 ab f2 bd 3d 28 03 3e 01 14 6a 3e
       0.0029915897 -0.11849191 0.12808318 0.22859193
000140 0c aa 74 3d 26 97 a2 bd 8b 54 00 3e 91 b2 eb bd
       0.05973248 -0.079389855 0.1253225 -0.11508668
000150 a5 e9 0c be 77 1f 11 3e b0 5e 1e 3d 1f d1 72 bd
       -0.13761003 0.14172159 0.03866452 -0.059281465
000160 c5 39 fd 3c 38 9a d0 3d 96 b4 35 3e 8c 30 e7 bd
       0.030911336 0.10185665 0.1774467 -0.112885565
000170 17 b9 fc bd b3 dd ae bd 6d ab f5 bd 3b 6f 51 3e
       -0.123399906 -0.085383795 -0.119955875 0.20452587
000180 2a e2 17 bd 2d e4 ea ba e9 a2 20 bc bc 84 b7 bc
       -0.03708092 -0.0017920785 -0.009804466 -0.02240216
000190 41 64 d7 bc 1a b4 73 bd 34 a2 47 bc 55 9b 84 bd
       -0.026292922 -0.05949793 -0.012184668 -0.0647494
0001a0 d9 31 1b 3d c7 0e dd bd 14 3b 82 3d 39 2b 66 3e
       0.037889335 -0.10793834 0.063589245 0.22477426
0001b0 96 0a 8b bd 57 89 3e bd 92 30 00 be c4 e1 92 3e
       -0.067891285 -0.046517696 -0.12518528 0.2868787
0001c0 94 37 12 be 9f 6a c6 bd 94 0e 25 3e 94 b1 01 bd
       -0.14279014 -0.09688305 0.16118842 -0.031663492
0001d0 95 cd a2 bc 22 d7 7e bc 1e 81 92 3e c5 e7 73 3e
       -0.01987342 -0.015554221 0.28614134 0.23818882
0001e0 16 5e e2 bd 2c 2b 0d be c9 3a 91 bd bc 79 3d 3e
       -0.11053102 -0.13786 -0.070912905 0.18503469
0001f0 c1 53 a3 3c 79 63 48 3e e5 ae ee bd 80 f6 81 3e
       0.019937398 0.19569196 -0.11654452 0.25383377
000200 60 fa fa bd e9 74 b4 bd 63 3d 44 3e 8a f4 67 3e
       -0.122547865 -0.08811361 0.19164042 0.22651878
000210 34 b5 90 bc e2 bc 4e bd b1 91 25 3d 0e fd 3c ba
       -0.01766453 -0.0504731 0.040422145 -0.0007209339
000220 fd c1 26 3e 32 41 51 bd 50 84 e5 3d 2e 43 0c bd
       0.16284938 -0.051087566 0.11206877 -0.034243755
000230 4a 5f 2e 3e f5 d3 55 be f8 b3 48 3e 4e 53 68 3e
       0.17028537 -0.20881636 0.19599903 0.22688028
000240 4b 0a 1c 3d cc d7 11 bd 57 04 82 3e 9e 95 da 3d
       0.038095754 -0.03560619 0.25393936 0.106730685
000250 9e ea 85 bd 07 29 9d 3e f2 87 6c 3e 70 ca 3c 3d
       -0.0653889 0.30695364 0.23098734 0.046091497
000260 4d df c5 3c 40 ca 10 be 34 fb 31 3d a5 ea a4 3d
       0.02415433 -0.14139652 0.043452457 0.080525674
000270 b3 d9 3c 3e 3d 17 19 bd b0 89 91 3e a2 57 f4 bc
       0.1844242 -0.037375677 0.2842536 -0.029826943
000280 13 17 85 bc 9b 8c 53 3d e6 36 db bc 4f ec 13 3e
       -0.016246354 0.051647764 -0.026759576 0.14445613
000290 aa bd 83 3e 8b 65 f0 bd 16 ec d9 bd 31 a5 76 3e
       0.2573064 -0.11738118 -0.10640733 0.24086453
0002a0 16 97 cf bb 2e 8d 4e 3e a0 3c 0e bd 44 e6 b4 bd
       -0.0063351495 0.20171043 -0.034725785 -0.08832982
0002b0 72 9e 74 bd ab 63 b9 3e c0 bb e5 bd 75 96 61 3e
       -0.059721418 0.36208853 -0.11217451 0.22030051
0002c0 fb dd 87 bd 7e 5f 46 be 14 47 3b 3e 56 53 1d 3e
       -0.06634136 -0.19372365 0.18288833 0.15363821
0002d0 c0 50 e9 3d 99 10 71 bd 71 bd a6 3d 06 58 5c bc
       0.11392355 -0.05885372 0.08141602 -0.013448721
0002e0 e4 23 b7 bd a1 0e 59 3c ef 59 bc 3d ef e7 49 3b
       -0.089423925 0.013248117 0.09196841 0.003080841
0002f0 cc ce 0b 3e ab 6f 0f 3e ab 51 6d bc f8 c6 1e 3e
       0.13653105 0.14007442 -0.014484803 0.15505588
000300 4e f4 2d bd c4 b0 8c 3c e3 35 41 bc 31 ec 6e 3c
       -0.042469315 0.017174132 -0.011792633 0.01458268
000310 36 31 9b 3d 0c be 93 bc 7a 2f 3b bc 94 da f1 bd
       0.075777456 -0.018034957 -0.0114248935 -0.118092686
000320 f2 7c 95 3d 46 d0 47 3c af 95 6a 3e 3a 93 ba bd
       0.07299222 0.012195652 0.22908662 -0.091101125
000330 d7 50 90 bc eb 27 48 3e 7f 18 2e 3e 79 28 3e 3e
       -0.017616672 0.19546477 0.17001532 0.18570127
000340 8c de db bd 42 01 8a 3e 68 af dc bc bf ca a3 bd
       -0.10735807 0.26954085 -0.026939109 -0.07997655
000350 4e d5 54 be 5d 4f e8 3d cb 02 92 3e 81 81 1e bd
       -0.20784494 0.11343262 0.28517756 -0.038697723
000360 c3 41 29 3e 8a 69 71 bd 95 b8 93 3d 2e f8 7a 3e
       0.16528992 -0.05893854 0.072129406 0.24508736
000370 f1 72 57 3e 38 7b 3c ba 0f 75 a2 3e 80 4b 87 3e
       0.2103994 -0.0007189992 0.31729934 0.2642479
000380 b1 43 41 bd 65 3b 85 3e 51 d2 35 3e 44 63 44 3e
       -0.047183696 0.26021877 0.1775601 0.19178492
000390 05 34 86 bc 2d fc 2d bc 06 bb 43 be 3a 4b 0d bd
       -0.016382227 -0.010619205 -0.19114313 -0.03449557
0003a0 67 6c 15 bc d8 7e 0b bd da 15 f5 bd 6e e8 e1 bd
       -0.009120083 -0.034056515 -0.119670585 -0.110306606
0003b0 14 b1 ba 3e 19 c8 88 3d 64 b2 82 3e f9 b5 40 3e
       0.36463225 0.066787906 0.25526726 0.18819417
0003c0 4e 06 1e bc 33 53 2c 3e f7 b8 fd bd 70 bb c7 bd
       -0.009645058 0.16828613 -0.12388795 -0.09752548
0003d0 e7 c8 ee 3c 31 50 b7 bd 5e 39 4e 3e 8e 04 de 3d
       0.029148532 -0.08950842 0.20139071 0.108407125
0003e0 50 8f b9 bd 4d de 9c bc 48 18 86 bc d6 45 75 3d
       -0.09060538 -0.01914897 -0.016369 0.059881054
0003f0 92 06 38 3e f5 8f 5d 3d 8a 78 a3 3e 87 31 57 3e
       0.17971256 0.054092366 0.31927902 0.21014987

weight f4 [10, 2048]
000000 47 07 b9 3c 05 98 c3 3d a0 a9 28 3d f7 1a 59 3d
       0.022586478 0.0955048 0.041177392 0.05300423
000010 55 b3 d9 3c fb 6e cc 3d 98 ba d4 3b f5 da 33 3d
       0.02657477 0.09982105 0.0064919703 0.043909986
000020 df d7 af 3a 02 5c 49 bd d7 2f 33 3d 8f d2 d6 3b
       0.0013415775 -0.04916001 0.043746796 0.0065558623
000030 35 2d 9a ba dd f5 ce 3d 83 4f fc 3c 67 91 c9 3d
       -0.001176274 0.101054884 0.030799633 0.098421864
000040 de b1 a6 3d 57 ea 0d 3d 93 46 03 3c a7 52 4e 3b
       0.08139394 0.034647312 0.008012432 0.003148237
000050 2c 51 68 3d 88 3c ba 3c 9a bb 21 bc d5 de cf 3d
       0.056718037 0.022733942 -0.009871388 0.10149924
000060 ad 06 08 bb 6a 92 79 bb 96 ec 4a 3d c8 a6 b5 ba
       -0.0020755932 -0.0038081654 0.049542032 -0.0013858909
000070 5b dd 17 3d c0 0c 4e bd a0 13 2a 3d a9 e2 d5 3d
       0.037076335 -0.050305128 0.041522622 0.104436226
000080 0f 92 9c 3d db f0 42 3d e7 7e ce bc eb 78 9d 3d
       0.07645046 0.04759298 -0.025206996 0.07689079
000090 98 07 2b bd 1c 01 ac 3a f2 db 58 3d ce b2 5b 3d
       -0.04175529 0.0013122889 0.05294413 0.05363732
0000a0 0f af a9 3d 8a 57 71 3d f9 ac c8 3c 93 2d 18 3d
       0.08285343 0.058921374 0.024496542 0.037152838
0000b0 e7 28 cf 3a 90 58 a2 3d 62 68 16 3c 34 67 2e 3d
       0.0015805037 0.07927048 0.00918016 0.04257889
0000c0 c2 72 f4 3b 47 50 00 3d ca 14 9c 3b 6c 48 0a 3d
       0.0074599693 0.03132656 0.0047632204 0.033760473
0000d0 67 13 0d 3c 26 05 37 3d 33 77 77 3d 10 33 a6 3d
       0.008610583 0.044682644 0.06041641 0.08115208
0000e0 be b1 a9 ba d8 19 66 3c 86 fb 0f 3b 9f 36 10 3d
       -0.0012946648 0.014044248 0.0021969988 0.03520834
0000f0 3b d2 5c bb a3 e7 ad 3d 9b 40 a3 3d aa 33 8a 3b
       -0.0033694643 0.08491447 0.07971307 0.0042175846
000100 42 f7 93 3d 52 13 00 3b 3f c6 0b bb 89 ae cb 3d
       0.07224895 0.0019542766 -0.002132788 0.09945399
000110 f0 1d d1 3d 75 c8 2b 3b 48 56 be 3d 06 5b 5e 3d
       0.10210788 0.002621201 0.092938006 0.054286025
000120 22 00 d6 bb 9f 91 88 3b 74 6e cb 3d 21 8c 25 3d
       -0.0065307776 0.00416775 0.09933177 0.04041684
000130 9a 49 dc 3c 2d a7 7d 3d 85 6c 04 3c 2c bb 9d 3d
       0.026890565 0.06192701 0.008082514 0.07701716
000140 f1 7b 9c 3c 7c da 69 3d 96 e6 10 3c 06 b1 8d 3d
       0.019102069 0.05709313 0.0088440385 0.0691853
000150 0a ba 83 ba d4 45 04 3d 0a a0 6c 3d 28 c3 66 bb
       -0.0010049951 0.032293156 0.057769813 -0.0035211537
000160 88 da ab 3d 46 96 7b 3d cd 3e 24 3c f0 1b 9e 3d
       0.08391291 0.06142261 0.0100247385 0.077201724
000170 32 92 e2 3a 50 2b 0a 3d 59 02 c2 3d 91 2f a0 3d
       0.0017286001 0.033732712 0.09473104 0.078215726
000180 06 d5 df 39 ca 21 37 3d 7a 1e 85 bc 6c 00 b9 3b
       0.0004269259 0.044709958 -0.016249884 0.0056458022
000190 9a 80 0d 3c 56 74 dc 3c 41 a0 f6 3c a3 f9 4b 3d
       0.008636618 0.026910942 0.030105712 0.04979862
0001a0 f6 3a e9 3c b8 3d ff 3b e9 15 b3 3d 9c bc e4 3c
       0.028470498 0.00778934 0.087444134 0.027921967
0001b0 e7 4f 53 3d e0 4f 8e b9 53 29 c8 ba 46 94 d1 3d
       0.051589873 -0.00027143862 -0.0015271105 0.10233359
0001c0 44 02 8e 3b e1 8c eb 3a 8d b8 5a 3d 81 32 06 bc
       0.004333766 0.0017971062 0.053398658 -0.008190752
0001d0 c5 8e 9d 3b 7e a1 b2 bb 9b 46 89 3d fc 53 e3 3b
       0.004808279 -0.0054513803 0.0670292 0.006937502
0001e0 9c 11 b0 bb b6 3b 0d 3c 1e 4f 81 3b 3c 71 8b 3d
       -0.005373193 0.008620193 0.003946199 0.06808707
0001f0 24 cc aa 3d 0e 4e 13 ba be 48 b4 3b f7 67 9f 3c
       0.08339718 -0.0005619236 0.0055018356 0.019458754
000200 24 16 bc 3b 8a e2 ba 3d 1b e9 e8 3c 47 5b c1 3b
       0.005739944 0.0912524 0.028431466 0.0059007737
000210 f0 7f ac ba 96 3d 0a 3c ed bd 21 3d 6e 44 cd 3b
       -0.0013160687 0.008437535 0.039487768 0.006264261
000220 6f 07 97 3d 7e cf 82 bb 25 92 50 3d 33 c2 12 3d
       0.07374465 -0.00399202 0.050920624 0.035829734
000230 ca ca 9c 3d 4c 5e be bd 28 c0 eb 3c 91 f6 2c 3c
       0.076558664 -0.092953295 0.02877815 0.010556833
000240 f6 7f 52 3c e1 55 1e 3b 56 b8 c0 3c 20 70 4d 3d
       0.012847891 0.0024160075 0.023525398 0.05015576
000250 04 5b 71 3d 8b 50 8c 3d f7 e4 92 3d 66 0e d4 3d
       0.05892469 0.068513 0.07172578 0.10354309
000260 96 bc 3e bd b1 b8 d8 3a 58 d0 da 3c 08 36 a7 3d
       -0.04656657 0.0016534535 0.026710674 0.081646025
000270 79 fe 97 3d 70 15 62 bb 48 9d 9e 3d ad 54 01 3d
       0.07421584 -0.003449764 0.07744843 0.031574894
000280 5c 6f b1 bd fc 67 31 3d cc ad d9 3c 75 d8 fb 3b
       -0.08663818 0.043312058 0.02657213 0.007685716
000290 77 f8 d6 3d a2 3a 0b bc 22 e3 90 bd 5d f1 25 3c
       0.1049661 -0.008497866 -0.07074572 0.010128346
0002a0 03 bf 52 bc 8c 2f cc 3d 9c f7 18 bc 4a 92 08 3b
       -0.012862924 0.09970006 -0.009336378 0.0020839148
0002b0 6a 83 b7 ba 16 42 b0 3d 83 44 30 3b 8d a7 bd 3d
       -0.0014000956 0.08606355 0.0026896305 0.092604734
0002c0 60 ba c9 bb bb 3d b2 bd ff 0e b0 3d 57 8f 15 3d
       -0.006156251 -0.087031804 0.0859661 0.036513653
0002d0 81 5f 84 3d 62 de cc 3d 22 ec 55 3d 9a eb f4 bc
       0.064635284 0.10003354 0.052227147 -0.0298975
0002e0 b7 98 f6 3b 28 47 2c 3d 89 47 c8 3d 57 aa b5 3d
       0.0075255292 0.042060047 0.09779269 0.0887038
0002f0 ef 5b f2 3c ca bf 28 3d 74 56 3d bc 87 84 ac 3b
       0.029584853 0.04119853 -0.011556257 0.005264822
000300 ab 65 55 3b fe da eb 3b 43 e0 96 3b bd e8 ec 3c
       0.003256182 0.0071977368 0.004604371 0.028919572
000310 94 20 16 3d b6 ca 16 3c 62 06 79 3b 46 ab 82 3b
       0.036652163 0.0092036035 0.003799819 0.0039877025
000320 33 5d de 3c 09 ca 66 bc 22 da 49 3d f1 6d 85 bc
       0.02714405 -0.014086255 0.049280293 -0.016287776
000330 33 3f af 3d d2 fb 82 3d 3c 55 9c 3b 40 26 c9 3c
       0.08556976 0.06395687 0.004770903 0.024554372
000340 69 21 b9 bd 18 a4 09 3d ec 8f cc 3a 50 7b 93 bb
       -0.090395756 0.033603758 0.0015606857 -0.004500784
000350 64 2a 54 3c 43 9b 89 ba 06 90 bc 3d de 9d aa 3d
       0.01294956 -0.0010498542 0.09207158 0.08330892
000360 5e 32 19 3c 62 0a d3 bc de 18 87 3d e2 c7 6d 3d
       0.009350387 -0.025761787 0.0659654 0.05805195
000370 fd 22 ae 3d e4 68 5e 3b 7a 8a f4 3b 95 85 b6 3d
       0.08502767 0.0033937031 0.0074627968 0.089121975
000380 19 43 aa 3c 77 7e ae 3d 13 4d b9 3d d0 80 d8 3c
       0.020783948 0.08520215 0.09047904 0.02642861
000390 10 7a a1 ba 75 4c aa 3c 6c b0 0b 3a d9 19 24 3d
       -0.0012319703 0.02078841 0.0005328718 0.040063713
0003a0 04 7c d4 3d db b2 04 bc bb 9d 03 bc 5b 13 de bb
       0.103752166 -0.008099283 -0.008033211 -0.0067772097
0003b0 ea f3 b7 3d 76 05 9b 3a 57 89 d7 bc 0c d9 dc 3c
       0.0898207 0.0011827189 -0.026310606 0.026958965
0003c0 18 ba b8 3c 6b a0 cd 3d c0 3f 86 3a 5d bc 27 3d
       0.022549674 0.10040363 0.0010242388 0.04095112
0003d0 ea 09 4e bc 82 9d 0e 3b d2 56 b8 3c 7b 1e 5c 3d
       -0.012575606 0.0021761362 0.022502337 0.053740006
0003e0 ff 9a 4b bc cb e4 7d 3d 48 1c b0 bc a2 95 23 3d
       -0.012427091 0.061985772 -0.02149786 0.039937623
0003f0 a3 9e d1 3d 00 a1 a3 bd 69 4a 19 3d 7c 1e a2 3b
       0.10235336 -0.07989693 0.03742448 0.0049474817

bias f4 [10]
000000 ef 83 67 3d ed 2a 9c bd ef 2e e3 3c 89 f6 6e bd
       0.056522306 -0.07625375 0.02773234 -0.058340583
000010 84 2d 9a 3d dc 70 4e bd bb 84 15 bd 8f bd bb bc
       0.07528213 -0.0504006 -0.036503535 -0.022917537
000020 0d 8b 39 bd 8b 63 70 3d
       -0.045298625 0.05868868

weight f4 [10]
000000 df 42 80 3f 48 27 87 3f 74 7a 78 3f eb 8a 85 3f
       1.0020407 1.0558863 0.9706185 1.0433019
000010 56 8a 72 3f 7e 16 86 3f cb 08 73 3f 93 53 84 3f
       0.94742334 1.0475614 0.9493529 1.0338005
000020 0a 24 71 3f 41 d8 85 3f
       0.94195616 1.045662

bias f4 [10]
000000 81 d9 59 3d d3 b5 66 bd 7f 13 4f 3d 0e e9 34 bd
       0.053185944 -0.056325745 0.050555702 -0.04416757
000010 65 87 84 3d 5e 72 71 bd 98 fa 4f bd 42 f5 f6 bc
       0.06471137 -0.05894696 -0.050776094 -0.030146245
000020 5f 64 90 bd f9 03 49 3d
       -0.07050394 0.049076054

weight f4 [10]
000000 26 ae 7e 3f 43 99 8c 3f 8f 1b 78 3f 32 0d 85 3f
       0.9948448 1.0984272 0.9691705 1.0394652
000010 94 44 87 3f dd 84 80 3f bd f2 72 3f da 9c 83 3f
       1.0567803 1.0040547 0.9490164 1.0282242
000020 6f 67 70 3f d7 80 75 3f
       0.9390783 0.9589972

bias f4 [10]
000000 28 e2 83 3d 2b ec a7 bd e1 7a 36 3d 6c d0 03 bd
       0.0643962 -0.08199342 0.04455078 -0.03218119
000010 c2 63 c1 3d 48 63 2e bd 2f 4e 53 bd d8 27 11 bd
       0.094428554 -0.04257515 -0.051588234 -0.03543839
000020 e8 97 18 bc 1f b9 29 3d
       -0.009313561 0.04143631

weight f4 [10]
000000 53 d8 77 3f 6a ee 82 3f d3 7a 6f 3f ed f8 80 3f
       0.9681446 1.0229008 0.9354679 1.0075966
000010 76 5c 77 3f c8 75 6f 3f 9d 2a 6f 3f 1b 9b 82 3f
       0.9662546 0.93539095 0.934244 1.0203584
000020 0e af 70 3f 2a 78 6b 3f
       0.9401711 0.9198023

bias f4 [10]
000000 c7 60 5c 3d 6c ad 48 bd 2e 37 08 3d 4c bf 4a 3d
       0.05380323 -0.048993513 0.03325575 0.04949884
000010 e0 52 74 3d 52 e3 e0 3a 14 ef 15 bd c4 8b d3 bc
       0.05964935 0.001715759 -0.036604956 -0.025823481
000020 d9 83 f2 bc b6 57 f0 3c
       -0.029603885 0.029338699

in_proj_weight f4 [30, 10]
000000 1d 88 e6 bb 4e d9 ba 3a f2 61 e8 3a f1 7b d7 3c
       -0.007035269 0.0014255436 0.0017729385 0.026304217
000010 10 d1 0f 3b c0 be ff 3d 5a 80 50 3e f8 f8 af 3a
       0.002194468 0.124875546 0.20361462 0.0013425639
000020 c5 00 8f bb 29 6b 83 bd cb 13 9f bb 8b 3c 2d be
       -0.0043641054 -0.064169236 -0.0048546544 -0.16917627
000030 df 08 7f bd b7 c6 a2 bd ca 06 b3 bd 0c 50 37 be
       -0.06226432 -0.07948058 -0.08741529 -0.17901629
000040 e5 5f 3e be b6 40 90 3d f2 1c 51 bc bd 25 55 be
       -0.18591268 0.07043593 -0.012763249 -0.20815177
000050 27 07 d3 3c 95 62 49 3e 4a 80 c8 bc 32 72 0b bc
       0.025760246 0.19666512 -0.024475235 -0.008511113
000060 0b 73 04 bc 2f ca 02 bb fa 6e e0 bd 6d 47 c3 bc
       -0.008084069 -0.0019956937 -0.10958667 -0.02383777
000070 18 89 e6 bd 9c ab 3b bd 90 6f e4 3d 1f 01 dc bb
       -0.11256617 -0.045817956 0.11154091 -0.006714001
000080 64 1d d8 bc bd 8e 3f bb 8e 1b da bd 07 56 94 3c
       -0.026381202 -0.0029229366 -0.10649787 0.018107427
000090 28 3b b4 bb ca 6d cb 3c d2 bb 0b 3c c6 0a 80 3c
       -0.005500216 0.024832625 0.008528667 0.015630137
0000a0 59 77 3f 3e fe a0 48 bd fb 1d 3d bc 57 89 02 3e
       0.18697871 -0.04898166 -0.011542792 0.12747703
0000b0 e8 e9 7b 3a f5 35 bf bb 95 a0 cb bd f6 e3 15 be
       0.0009609745 -0.0058352896 -0.09942738 -0.14637741
0000c0 68 e4 8a 3d 14 db 66 3c 28 21 d8 3c ca 0b 37 3e
       0.06781846 0.014090318 0.026382998 0.17875591
0000d0 9d 88 dd bb 10 53 d7 bc 72 8d 10 be 38 f1 c3 3b
       -0.0067606703 -0.026284724 -0.14116457 0.0059796833
0000e0 06 9e 06 3b 70 ef 37 3a 5b fd a4 bb 09 aa 4d 3e
       0.0020540967 0.0007016575 -0.005035085 0.20084395
0000f0 d8 4e 3d be b6 36 75 bd fb 35 23 be 59 16 2a be
       -0.18487108 -0.05986663 -0.1593856 -0.16610087
000100 3e 1d f0 bb 5a 32 67 bd 7e 79 fa bc 3c ee b8 ba
       -0.0073277047 -0.056444503 -0.03057551 -0.0014109085
000110 06 89 6d bc b6 92 56 bd e8 48 07 3e df ed bb 3b
       -0.014498001 -0.05238601 0.13211405 0.0057351436
000120 10 fc d0 bc e6 32 c3 3d 0a 05 4e 3e 84 42 d8 bc
       -0.025510818 0.095311925 0.2011911 -0.026398905
000130 66 59 9a bd 30 3e c8 b9 16 a8 1c be e3 e0 b1 bc
       -0.07536583 -0.00038193306 -0.15298495 -0.02171368
000140 56 43 5f 3b f0 35 c0 bc 30 25 79 bc 97 16 0e 3e
       0.0034067235 -0.02346322 -0.01520662 0.13875805
000150 98 3a 47 ba 74 d9 98 3c 2a e0 9e 3b 84 9d e6 3b
       -0.00075999787 0.018658377 0.0048485 0.0070378203
000160 07 d2 94 bc 32 d3 82 3b 54 32 14 be 36 3d 18 be
       -0.018166555 0.0039924616 -0.14472324 -0.148671
000170 b2 88 0e 3e 2e f4 01 be bf 11 1d 3e 0c 10 37 be
       0.13919333 -0.12690803 0.15338801 -0.17877215
000180 a8 a6 32 3b 5d 34 b5 3c 20 ce 9e bd d4 cc 8f bc
       0.002725998 0.022119695 -0.07754159 -0.017553724
000190 79 a2 86 3d 0a 71 54 bd 51 82 97 bc bb 92 e6 bb
       0.06573958 -0.051865615 -0.018494757 -0.0070365346
0001a0 a5 a8 4f 3e b1 29 a1 bc c0 63 f0 3d c0 42 94 3d
       0.20279177 -0.0196732 0.11737776 0.07239294
0001b0 97 ad 37 3e 8d 43 70 3b 54 2e 41 3a 5f 7a ca 3d
       0.17937313 0.0036661357 0.0007369269 0.09886622
0001c0 80 56 9c 3b 26 18 49 be e8 ec 40 3c 08 6e 0a 3e
       0.004771054 -0.19638118 0.011775233 0.13518536
0001d0 08 40 00 3e dd 69 95 3d 3a b4 7f bb 54 fb 16 3e
       0.12524426 0.072955824 -0.0039017336 0.14744312
0001e0 d4 a9 15 3d ba 0e c7 bc 90 d1 ea bb b9 9e d7 3c
       0.036538914 -0.024299014 -0.007166095 0.026320802
0001f0 f0 6e 54 be 84 cb d7 bc 12 ce 38 be 87 64 2c 3e
       -0.20745444 -0.026342161 -0.1804736 0.16835223
000200 1c 59 7c bc 8b 6e 48 3e d2 8f ae 3c dc 65 2e 3b
       -0.015402105 0.19573419 0.021308813 0.0026611006
000210 e9 a2 c4 3d 8f 64 2b bd 50 c5 08 3c f7 81 26 be
       0.09601385 -0.041843947 0.008347824 -0.16260515
000220 b5 54 1b 3e c7 ce 04 3e 68 31 0c be 8c dc 82 bb
       0.15169032 0.12969504 -0.13690722 -0.0039935764
000230 59 93 a7 3a 5b f2 cf bc 43 4f d6 bc cd 5a 9f bd
       0.0012785002 -0.025384119 -0.026160842 -0.07780991
000240 68 67 fb bd 1f 42 d3 bd 26 08 2c be 83 23 35 bd
       -0.122755826 -0.10315346 -0.16799983 -0.04422332
000250 62 cb c3 3d ba 96 25 3e 2f 9f 35 be cc be 28 bc
       0.095602766 0.16170779 -0.17736505 -0.010299396
000260 86 bd 32 be bf f5 b6 3c f2 af 1e 3e 2e ab 12 3e
       -0.1745511 0.022333978 0.15496805 0.14323112
000270 64 5e 4a 3e d6 0f 38 3d 4a bd 91 ba f7 3a 02 bc
       0.1976257 0.044936977 -0.0011119035 -0.007948629
000280 11 59 d8 bc 56 11 3e be d3 91 6c 3d 79 11 f2 bb
       -0.026409658 -0.185613 0.057756256 -0.007387337
000290 68 6d 3a bb 2d 35 d3 3b 9c 9f 5d bc f2 ee 05 3d
       -0.002844656 0.006445548 -0.013526823 0.03269858
0002a0 70 2a ab ba bf 24 96 bb e2 0a 67 3c 92 00 39 3d
       -0.0013058912 -0.004582017 0.014101716 0.04516656
0002b0 eb e2 d7 bc c6 9a 59 3e ad 57 b2 bc 1c 72 14 be
       -0.02635332 0.21250448 -0.021770323 -0.14496654
0002c0 74 18 48 be 49 8f 86 bd c3 4b cc 3b d4 5a c2 bc
       -0.19540578 -0.06570298 0.0062346174 -0.02372495
0002d0 b2 64 0e bc 70 11 e8 3c f3 cc 07 bc 44 7d 9e 3c
       -0.008691 0.028328627 -0.00828861 0.01934684
0002e0 68 b0 6a 3b 64 6b 3d bb 2e a5 41 be b0 ad 64 bc
       0.0035810713 -0.002890312 -0.18910667 -0.013957426
0002f0 d7 8b 29 3e d0 d3 b8 3b 40 84 07 3c 9f 1f a2 bc
       0.16557251 0.0056404844 0.008271277 -0.019790469
000300 b0 c0 26 bc 6c 00 1d bd e8 77 58 3e 77 a5 ae bc
       -0.010177776 -0.03833048 0.2113949 -0.021319134
000310 d1 a6 4e be 91 ad 0a be a8 a7 3f bd aa e3 04 bc
       -0.20180823 -0.13542773 -0.04679075 -0.00811092
000320 a5 33 14 3e 12 a1 1a 3e d2 35 b5 3d 29 df b4 3d
       0.14472826 0.15100506 0.08848156 0.08831627
000330 cb f7 18 be 14 28 ba 3b 8a 5c 77 bd 18 7f 26 3e
       -0.14938276 0.005681047 -0.060390987 0.1625942
000340 be 7e 1d 3e ee c4 fc 3d 95 9b d0 be 6a c9 4c be
       0.1538038 0.12342249 -0.407437 -0.19998708
000350 53 ea a3 be 59 12 c5 3d 94 20 a0 be 63 ec 6f 3e
       -0.32014713 0.0962264 -0.31274855 0.23430018
000360 92 9f 1c 3e e2 aa 90 be e9 90 d1 3d a0 97 3e be
       0.15295246 -0.28255373 0.102327175 -0.18612528
000370 34 0b 93 3e 40 50 24 3d bf cc 4b be d7 1a 5a 3d
       0.28719485 0.040115595 -0.19902323 0.053248253
000380 64 78 a2 bd c6 6d 2e be dc f0 76 3e 68 02 e6 be
       -0.07933119 -0.17034063 0.24115318 -0.4492371
000390 3d 99 8c 3e 22 af 1d 3d 29 c2 b2 bd 0c 99 5d be
       0.27460662 0.038497098 -0.08728439 -0.21640414
0003a0 f1 70 35 3e a1 5f de 3e 9d 30 00 be 90 8e 52 3e
       0.17718865 0.43432334 -0.12518544 0.20562196
0003b0 5d 19 b6 3e d0 c3 7f 3e 2c f8 4b 3d db 81 95 3e
       0.35566226 0.2497704 0.049797222 0.29200634
0003c0 8d 79 e6 3d de e6 39 3e 00 29 09 ba f4 d4 ed 3d
       0.11253653 0.18154475 -0.0005232245 0.11612883
0003d0 f4 51 92 3e 2d 56 38 be a1 73 18 bd 66 46 7c be
       0.2857815 -0.18001623 -0.037219647 -0.2463623
0003e0 59 ba 08 3e a6 8b f0 3d 5a d4 94 be 9a 8c 74 3e
       0.13352336 0.11745386 -0.2906826 0.2388176
0003f0 46 7b f6 bd 08 48 9f be 26 b7 18 be 86 ff 8b 3e
       -0.12035231 -0.31109643 -0.14913616 0.27343386

in_proj_bias f4 [30]
000000 00 00 00 00 00 00 00 00 00 00 00 00 00 00 00 00
       0.0 0.0 0.0 0.0
000010 00 00 00 00 00 00 00 00 00 00 00 00 00 00 00 00
       0.0 0.0 0.0 0.0
000020 00 00 00 00 00 00 00 00 00 00 00 00 00 00 00 00
       0.0 0.0 0.0 0.0
000030 00 00 00 00 00 00 00 00 00 00 00 00 00 00 00 00
       0.0 0.0 0.0 0.0
000040 00 00 00 00 00 00 00 00 00 00 00 00 00 00 00 00
       0.0 0.0 0.0 0.0
000050 9f a9 c0 bc b3 db ae 3c 6e 2a 9c bd 92 c8 79 3d
       -0.023518382 0.021344995 -0.0762528 0.060982294
000060 73 c4 31 3d 16 b3 0a bd 26 70 fa bc a3 e1 5b 3d
       0.04340024 -0.033862196 -0.030571055 0.05368198
000070 8c ba 5f 3d 41 91 a8 3d
       0.054621264 0.0823083

weight f4 [10, 10]
000000 93 0b 9e be 1c 43 37 3e 02 a9 54 3e 35 5d 49 3d
       -0.30868205 0.17896694 0.20767596 0.049161155
000010 21 12 8d 3e 1f b4 12 3e 52 6b 58 be 85 8a 12 3f
       0.27552894 0.14326523 -0.2113469 0.57242614
000020 b8 cb bd 3e 88 be 93 3e 27 6e 86 be 88 45 0a 3d
       0.37069488 0.288563 -0.26255915 0.033757716
000030 0b 9c b1 3e 7b a3 0e 3e 57 ff 9a be 33 95 05 3e
       0.34689364 0.1392955 -0.30272934 0.13045196
000040 00 62 00 3f cb 42 a9 be 99 30 fc be f7 cf f3 3e
       0.50149536 -0.33058771 -0.49255827 0.47619602
000050 cc d9 12 bf 41 98 4c 3d 25 1b 11 3d 2a 2a 41 be
       -0.5736358 0.04994989 0.035426278 -0.1886374
000060 02 8f 93 3e 75 1e 5e 3e 48 b3 85 be 90 7d 57 be
       0.28820044 0.21691306 -0.26113343 -0.21043992
000070 0f db 2f be 45 d6 fd be a7 0b d7 be 4d 3f cd be
       -0.17173408 -0.49577537 -0.42001078 -0.40087357
000080 2d 8f f3 3e 14 fd a9 be 22 fd 95 be 9e da fb 3d
       0.47570172 -0.33200896 -0.29294688 0.12297557
000090 c3 e2 b3 3e 0b f2 2d be 0c 59 e3 be 17 17 80 3d
       0.35133943 -0.16986863 -0.44403875 0.06254404
0000a0 67 5e de be d1 ae c4 3e d3 65 e6 3e c1 c3 09 bf
       -0.43431398 0.38414624 0.4499956 -0.5381432
0000b0 8c e5 b4 3e c6 eb a8 3e 2f 31 82 be c1 d3 45 be
       0.3533138 0.3299238 -0.2542815 -0.19319059
0000c0 99 80 ae 3e 04 dd 85 3e c7 a4 c3 be 31 26 62 be
       0.34082487 0.26145184 -0.38211653 -0.22084881
0000d0 26 03 a6 3d 7c b4 ac 3e 07 ff a8 be d2 d4 0e be
       0.08106069 0.3373145 -0.3300707 -0.13948372
0000e0 74 8a b4 be 3e 27 ae 3e 0c 8e 85 3e 6f 78 f9 3e
       -0.3526188 0.34014314 0.26084936 0.48724696
0000f0 15 2d bc be 09 a5 a5 bd 34 79 a1 3e b9 89 b4 be
       -0.36753145 -0.080881186 0.31537783 -0.35261324
000100 6d e7 aa 3c cf f7 a7 be 6f 1d e6 3e 7d 68 80 3d
       0.020862306 -0.3280625 0.4494433 0.062699296
000110 9a 6c 09 bf 3b 0c 44 3b 1d 0f 35 3d 33 57 e1 3d
       -0.5368134 0.0029914516 0.044203866 0.1100296
000120 5f c2 5e bd 8d 43 c8 bd 18 3b 9e be 85 e0 f8 be
       -0.054384585 -0.09778509 -0.3090446 -0.48608795
000130 b2 24 df be b5 7a 96 bb 21 a1 da 3d e5 db d5 3e
       -0.43582684 -0.0045922645 0.10675264 0.4176933
000140 0c a6 75 be 65 fb a2 be 6f 65 31 be a7 bb 00 be
       -0.23989123 -0.31832424 -0.1732385 -0.12571584
000150 82 5e 90 3e 85 5a a8 be f6 6d 91 3e 32 d5 2d 3d
       0.28197104 -0.3288156 0.28404206 0.042439647
000160 7b 9f 19 be dc 38 d4 3e bd 54 01 3f ff 98 66 be
       -0.15002243 0.4144963 0.50519925 -0.22519301
000170 ad 74 7f be a9 17 d3 3e e4 2c f8 3e f2 4d ec be
       -0.24946852 0.4122899 0.4847175 -0.46153218
000180 d0 0a 94 3e 1d 73 b2 3e b4 b7 be 3e 42 c7 c2 3e
       0.289145 0.3485345 0.3724953 0.38042647

bias f4 [10]
000000 0e ba 55 3d 24 2d 36 bd 01 c1 c7 bd af 0b 68 bd
       0.05217939 -0.044476643 -0.097536094 -0.056651767
000010 a3 f2 0e bd 80 12 32 3d f2 0b 8c bd ad 12 09 bd
       -0.034899365 0.043474674 -0.06838216 -0.033465076
000020 17 11 db 3c c4 bc 88 3d
       0.026741548 0.06676629
