Comparative_Evaluation/Baselines/Transformer/models_u/model78.pt (torch, 552899 bytes, 54 tensors)

in_proj_weight f4 [30, 10]
00000000: d759 9539 936b d238 8da3 93b9 27a5 0839
00000010: e8ed c8b9 98ac 16b9 6376 6139 124f 7fba
00000020: c034 803a b4f7 6db8 0e15 87b9 e830 e5b6
00000030: fed4 e9b7 902f 04ba b6f0 6fb8 6457 4eb8
00000040: cbb4 2939 78d2 5db6 50df 093a b5c1 9539
00000050: 437f 163a fb06 9ab8 9aaf 86b8 1084 c439
00000060: c038 00b9 3064 4db7 7b5c 9339 7fda 90b8
00000070: b99d 833a c499 74b8 7007 97b9 742e 0bba
00000080: 13a9 2338 3563 493a 0188 25b9 62fb 36b8
00000090: 4d6c b839 75c3 b939 c295 c639 916a 80b9
000000a0: c128 82ba 1893 a3b9 a6b0 dbb7 b4a4 55b9
000000b0: fcbe 64b7 c931 7e38 19a0 9237 f5c7 bb38
000000c0: 2713 09b9 e0ff 0137 d635 36b8 6ee3 f638
000000d0: 4a75 1137 41e1 493a aa5b cfb9 aca4 8139
000000e0: 76b5 81b8 3f98 3338 1a7f 4439 c485 d6b8
000000f0: ef0a c337 6afd 94b8 ab18 42ba 87e6 833a
00000100: 1ea5 9837 e63b 08b9 fdd6 2cb9 428f 3cb9
00000110: 5018 38ba 9810 6f36 2af6 31b9 fcd7 d1b8
00000120: 9779 d639 374c 573a 9e63 66b8 283a 9eb7
00000130: be67 48b7 2a81 ba39 d838 49b9 30c4 91b8
00000140: edc9 1839 6742 4c3a 8255 e7b8 bdf8 15ba
00000150: 5675 f8b7 6969 0fb9 e64a 5e37 5c27 fcb9
00000160: a7df 783a 2ac8 d337 bf28 e8b9 527a 05b9
00000170: 3821 8539 9b13 4938 4281 063a c377 8eb8
00000180: 88ba 163a 4ced 1439 9e29 6438 e6d4 91b9
00000190: 9320 043a a883 bb36 4157 0239 8371 723a
000001a0: 3d38 4cba 6a1c c938 2bcc 1eb9 21ef c939
000001b0: 4afb e2b7 05fc 9639 cf3b 2638 c299 f238
000001c0: 9c9a f2b9 9459 56b9 2a39 c9b9 5a05 14ba
000001d0: db13 cfb9 d87c 5038 70d0 813a a167 59b9
000001e0: 8fd1 833a ef25 38b9 196a d4b9 642a 06b9
000001f0: 5eec 43b9 9451 6f3a e661 34b8 062e 9639
00000200: a6aa ce38 cc38 18b6 8e43 0a39 22b4 3039
00000210: c393 5cb8 3148 b5b8 4b47 4a38 6a6d 6a37
00000220: 9f13 aab8 3c80 9eb8 5a66 c5b9 358b 773a
00000230: 364c 623a b8ec 7c39 7db8 04ba bc6b 9ab6
00000240: e307 9639 99e7 183a 7491 0736 825e 29b9
00000250: 93ab 173a a1a6 e139 e827 b0b7 b2b1 4a3a
00000260: 9e59 9439 caa5 8e37 0050 b337 1b86 803a
00000270: b465 9c38 3822 b937 6ab4 c538 6181 4f3a
00000280: 3dd9 c9b9 aaa3 5b3a c822 09ba da7d c839
00000290: 164a ba39 f49c 5fb9 a586 b0b8 c7c7 36b8
000002a0: d24e b2b9 936e b4b8 98bf 7cb6 22ae 833a
000002b0: eebf 11b8 4803 0b3a 723c ec39 5227 95b7
000002c0: ac49 c7b8 9b8e 4db7 54af 19ba 2c6e 13ba
000002d0: 86b5 0439 edc5 a839 984f 2539 4f0b cdb9
000002e0: 8485 4e3a 2569 19ba 390d cf39 5a05 843a
000002f0: 88b0 0cb7 48a6 f5b8 1a46 c8b9 62ff 3239
00000300: d416 5539 d873 2d3a e040 a837 6a91 0f39
00000310: c271 0e39 f8dd f638 0d57 ceb9 e0e8 74b7
00000320: da6f c3b8 e0c6 22b9 ccd0 3239 ea19 8c38
00000330: ae4b 6339 a128 44b8 11a9 c538 33d0 9237
00000340: 9633 d238 89f1 8539 2fee 44b8 bd21 4e39
00000350: 2542 d3b8 c447 9439 e261 163a ce14 5b39
00000360: 4eff b0b8 d7b1 96b9 1331 093a 9275 85b7
00000370: bd1e 193a d836 3537 6fd4 9539 26b6 b5b8
00000380: 1844 81ba 681f a3b9 0678 04ba fec4 bd38
00000390: fc30 173a 2616 0cba 63ba 1f39 915f 7c3a
000003a0: 688d f639 8903 08b9 a1c0 bb39 62c2 afb9
000003b0: 0d40 eb39 b761 5e38 e98e 9db9 f826 b338
000003c0: 0423 e5b8 b7c9 8039 a2ba 64b8 9042 0f38
000003d0: 2f82 16ba 502d 62b9 1d81 0d3a 55ad 193a
000003e0: 5617 0b3a 128d dab8 59eb 8b39 3298 84b9
000003f0: 7fc6 8039 5ecc d838 0049 afb5 aea1 833a
0.0002848643 0.000100336176 -0.0002815988 0.00013031495 -0.00038324227 -0.00014369411 0.00021501775 -0.00097392604
0.0009781346 -5.6735895e-05 -0.00025764894 -6.8304253e-06 -2.7874947e-05 -0.0005042488 -5.720622e-05 -4.9195616e-05
0.00016184447 -3.3054075e-06 0.00052594114 0.00028563818 0.00057410094 -7.3445924e-05 -6.422326e-05 0.00037482427
-0.00012228172 -1.2242279e-05 0.00028106928 -6.907153e-05 0.0010041512 -5.831734e-05 -0.00028806506 -0.0005309351
3.901969e-05 0.00076823245 -0.00015786292 -4.36263e-05 0.00035175905 0.00035431577 0.0003787708 -0.0002449346
-0.0009930359 -0.00031199376 -2.6189093e-05 -0.0002037462 -1.3634326e-05 6.0604685e-05 1.7479108e-05 8.9541e-05
-0.00013072473 7.748575e-06 -4.344232e-05 0.00011772556 8.669982e-06 0.0007701107 -0.00039550412 0.00024727487
-6.184999e-05 4.2818716e-05 0.00018739366 -0.00010229231 2.3250903e-05 -7.104392e-05 -0.00074041885 0.0010063209
1.81967e-05 -0.00012992285 -0.00016483288 -0.00017982445 -0.0007022666 3.5623434e-06 -0.00016971739 -0.00010006127
0.00040907852 0.0008212956 -5.492905e-05 -1.8862149e-05 -1.1945083e-05 0.0003557292 -0.0001919003 -6.9506816e-05
0.00014571073 0.0007791877 -0.000110308654 -0.0005720964 -2.9618543e-05 -0.00013676811 1.324967e-05 -0.0004809451
0.0009493776 2.5246369e-05 -0.00044280846 -0.00012729436 0.00025392487 4.7940393e-05 0.0005130955 -6.793395e-05
0.0005749841 0.0001420278 5.4398195e-05 -0.00027815177 0.00050402543 5.588361e-06 0.0001243027 0.0009248482
-0.00077903626 9.5897194e-05 -0.00015144113 0.00038515872 -2.7058315e-05 0.00028798 3.9633185e-05 0.00011568099
-0.0004627303 -0.00020442001 -0.00038380298 -0.00056465494 -0.0003949691 4.9707334e-05 0.0009904038 -0.00020733337
0.001005696 -0.00017561739 -0.0004051484 -0.00012795028 -0.00018684703 0.00091292826 -4.300652e-05 0.0002864452
9.854631e-05 -2.2682825e-06 0.00013185872 0.00016851773 -5.25897e-05 -8.644199e-05 4.822695e-05 1.3972962e-05
-8.1098864e-05 -7.5579126e-05 -0.00037651026 0.0009443046 0.0008632572 0.00024120777 -0.0005062891 -4.6020996e-06
0.00028616106 0.00058328506 2.0201232e-06 -0.00016152303 0.00057857594 0.00043039492 -2.0999418e-05 0.0007732167
0.0002829553 1.700492e-05 2.1375716e-05 0.0009805592 7.457603e-05 2.2069653e-05 9.427297e-05 0.00079157023
-0.00038499563 0.0008378575 -0.0005231318 0.0003824074 0.00035531883 -0.00021325407 -8.4174135e-05 -4.357824e-05
-0.0003400953 -8.603665e-05 -3.7662448e-06 0.0010046402 -3.4749442e-05 0.0005302918 0.00045058463 -1.7780494e-05
-9.502782e-05 -1.2252155e-05 -0.0005862613 -0.0005624022 0.00012656124 0.00032190923 0.00015765277 -0.00039109073
0.0007878172 -0.00058521546 0.00039491968 0.0010072396 -8.385752e-06 -0.00011713483 -0.00038199202 0.0001707054
0.00020321767 0.00066166883 2.005737e-05 0.00013691714 0.00013584553 0.00011771539 -0.0003935624 -1.4597754e-05
-9.3191586e-05 -0.0001552361 0.00017053186 6.680547e-05 0.000216766 -4.676788e-05 9.425183e-05 1.7501507e-05
0.00010023189 0.00025547695 -4.6951867e-05 0.0001965826 -0.000100735844 0.0002828223 0.00057366316 0.00020893218
-8.439888e-05 -0.0002874273 0.0005233448 -1.5909583e-05 0.0005841067 1.080121e-05 0.0002857777 -8.66468e-05
-0.0009862212 -0.00031113182 -0.0005053285 9.048915e-05 0.0005767492 -0.00053438765 0.00015232856 0.00096272776
0.00047026132 -0.00012971288 0.0003581094 -0.00033523428 0.00044870414 5.301993e-05 -0.0003005185 8.5426436e-05
-0.00010926093 0.00024564352 -5.453325e-05 3.4155848e-05 -0.0005741445 -0.0002156992 0.00053979625 0.00058623153
0.00053059065 -0.000104213264 0.00026687494 -0.00025290396 0.00024561954 0.00010337749 -1.3059762e-06 0.0010042691

in_proj_bias f4 [30]
00000000: 0000 0000 0000 0000 0000 0000 0000 0000
00000010: 0000 0000 0000 0000 0000 0000 0000 0000
00000020: 0000 0000 0000 0000 0000 0000 0000 0000
00000030: 0000 0000 0000 0000 0000 0000 0000 0000
00000040: 0000 0000 0000 0000 0000 0000 0000 0000
00000050: 2922 76bd 792d 76bd fed1 75bd c9e4 753d
00000060: db2c 763d 79a1 76bd da05 74bd 4797 7d3d
00000070: e5fb 75bd 020d 753d
0.0 0.0 0.0 0.0 0.0 0.0 0.0 0.0
0.0 0.0 0.0 0.0 0.0 0.0 0.0 0.0
0.0 0.0 0.0 0.0 -0.06009117 -0.06010196 -0.060014717 0.06003264
0.06010137 -0.060212586 -0.059575893 0.061911847 -0.06005468 0.05982686

weight f4 [10, 10]
00000000: e4f8 91bd 8119 913e 0dad 55bd dbda 02be
00000010: 0fb3 30be 7d8b 77bd 3c18 843e b731 ecbe
00000020: 81c8 37be 801b 11bf 73c3 f13c cbe3 793a
00000030: 01f3 9bbe 3c7f 5f3e 37f2 9f3c 27bf 073f
00000040: 06cb d9be d853 8bbe 2f67 a2bd 0b5a 383e
00000050: 4d46 0abf 32ba 3dbe 9d55 fb3c e26e 953e
00000060: 1984 003f 7c77 dfbb 806b d23e 97d1 8abe
00000070: b7dd 02bf c39b e0be c83a 2fbd 1a9e dc3e
00000080: 2815 cbbe 8859 2a3d e690 4bbe c2c7 913e
00000090: 6e35 893d a8b2 91bc afc5 623d 4797 e5be
000000a0: 6ebd 1d3e bf90 cbbe e968 0ebf 05b2 063f
000000b0: 3a47 183e c6f8 cb3e 9b9d e4be 780c 02be
000000c0: dd49 8737 4ff2 a9be 0366 a9be a02c e3bd
000000d0: 7de9 07bf 2f65 eabd 0a49 9639 bc06 d8be
000000e0: f40f e23c a761 ca3e be59 ee3c 1a8b 70be
000000f0: effe 6b3e 7a2d f9be 005a 993e 3aca a43e
00000100: 6ce8 ffbe 3762 d9be d75b f93c a37c 5a3d
00000110: 7c74 6e3e bd69 f0be c48e b6be 8a2f 28be
00000120: 4621 c9bd fc0b 593e 3f3c 54be f603 c13c
00000130: 55db bcbd b642 86bd 4c4e 91be 030d 373e
00000140: 9c42 08bd 2286 41be e848 fb3c e176 053e
00000150: 0ea8 913d 829c e63e 2050 90be d867 b4bb
00000160: 765a 16bf ed20 c93e c095 89be 6768 c3be
00000170: 3952 cabe 5d2c e53e 2e04 23bd 57b0 91bc
00000180: 009d a6bd 52eb 123e deba 5cbe 8af1 84be
-0.0712755 0.2833977 -0.052166987 -0.12778799 -0.17255805 -0.06043576 0.2579974 -0.4613168
-0.1794758 -0.56682587 0.029512143 0.000953254 -0.30458835 0.2182588 0.019524677 0.5302605
-0.42537707 -0.27212405 -0.07929837 0.18003099 -0.5401352 -0.18528059 0.030680472 0.2918616
0.50201565 -0.0068196636 0.4109764 -0.2711303 -0.5111956 -0.43868837 -0.042780668 0.43089372
-0.39664578 0.04158929 -0.19879493 0.28472716 0.06699644 -0.017785385 0.055364307 -0.44841978
0.15404293 -0.3975887 -0.5562883 0.52615386 0.14870921 0.39838237 -0.44651493 -0.12700069
1.612765e-05 -0.3319268 -0.3308564 -0.11092496 -0.5309065 -0.114450805 0.00028664648 -0.42192638
0.027595498 0.39527628 0.029095527 -0.23490563 0.23046468 -0.48667508 0.29951477 0.32185537
-0.4998201 -0.42457744 0.0304393 0.05334152 0.23286623 -0.46955672 -0.35655797 -0.16424385
-0.098207995 0.21195978 -0.20726107 0.023561459 -0.09221522 -0.06555693 -0.28380048 0.17876057
-0.03326665 -0.18898824 0.030674413 0.1303363 0.07112132 0.4504128 -0.2818613 -0.005505543
-0.5873178 0.39282933 -0.26872063 -0.3816559 -0.39515856 0.4476041 -0.039798908 -0.01778428
-0.08135414 0.1434758 -0.21555659 -0.2596553

bias f4 [10]
00000000: e7be 77bd 4079 743d 7869 763d 81da 75bd
00000010: 42ac 773d 6670 763d aaff 75bd f139 743d
00000020: cdbb 75bd 5038 763d
-0.060484793 0.059685946 0.060159177 -0.060022835 0.060467012 0.060165785 -0.060058273 0.05962557
-0.059993554 0.060112298

weight f4 [2048, 10]
00000000: 8baf 333d afd6 d3bc 2ace df3c 1b39 4b3c
00000010: 2048 11bd 3e19 37bd d085 3c3d 80b2 14bd
00000020: d776 cf3c b11e 3dbd c3e0 8c3d 4908 62bd
00000030: 8c1e 14bd e47c 933d 2212 b5bc d646 96bd
00000040: 6e10 a83d 5bd2 53bd 5ad4 793d 230e 51bd
00000050: 19dd 7a3d 2151 5cbd 653c 5ebd 6208 6f3d
00000060: 9cd4 45bd c1fb 2cbd f5bd 1a3c 6c10 5ebd
00000070: b499 b73b 2282 bdbc 814e 85bc 1657 003d
00000080: cac8 763c c476 0cbd 6689 ac3c 2989 123d
00000090: bff9 03bd 2c75 573c 2d9d 1cbb 5ce8 323d
000000a0: a75d 0f3d 5753 97bc 54ce 25bd d467 6c3c
000000b0: c27f e3bc 5d08 abbc 234f 073d 31d3 97bd
000000c0: 4877 2c3d 3d44 f3bc 2de5 6a3d f88b 3e3d
000000d0: 8345 88bd c7b4 483d 2c7a 3abd 28d0 53bd
000000e0: b27b 103d 7d19 62bd dabb 493d 2f68 50bd
000000f0: bf67 4f3d 6265 34bd 5f8b 16bd e051 483d
00000100: d9f3 52bd 461f 24bd a335 483d 17e5 043d
00000110: 66de 613d a049 19bd 8f40 8d3d b815 353d
00000120: a51d 80bd fc3f eb3b a64d 84bd 7226 a4bb
00000130: 2ac9 d33c 4ea8 adbc cc55 8dba cf47 42bd
00000140: 7c4e c7bd 9546 813d 009a 1b3e db92 fdbd
00000150: 8ace f13d 1da8 a53d 0e3a 90bd 90a0 ae3d
00000160: 764c 66bd 84ce a23d 2ef0 813d fe27 eebd
00000170: d667 d7bd 29c2 c43d 722f 57bd 7cd5 6dbd
00000180: ccd1 a33d a512 7ebd 163e 6b3d b22d 9fbd
00000190: e23d 733d 337a 59bd 8830 213d 9aec 4b3d
000001a0: b071 1fbd dacf 1ebd 0874 483d f974 37bd
000001b0: 7628 553d cf76 5abd 844c a53d 6d85 63bd
000001c0: d8fa ca3c f5fb ebbc 4490 6dbd fcd2 30bd
000001d0: a8f7 613d acfa 66bd 88c6 203d ec7b 90bd
000001e0: 84e3 b0bd 319f dc3d 7aff c83d 3aa5 e1bd
000001f0: b49d 0c3e 4da6 cb3d 6bf6 0ebe befb 023e
00000200: 15f0 cebd 8d89 8c3d 6110 b93d 5721 44bd
00000210: 2e60 2ebd 8f4c e63c 38f0 55bc 3157 8ebd
00000220: edc7 633d 80af 9dbd 2ef7 ab3d f6f0 66bd
00000230: c448 b13d f459 9ebd 1382 eebd 8fc1 713d
00000240: 9f5d 9ebd 1e70 75bd 0901 913d 5998 93bd
00000250: f803 7e3d 0c6f 4bbd d1a0 1f3b 8430 23bd
00000260: 551d fcbd 14f4 a13d 6fe3 c4bc 3626 39bd
00000270: ee8c b13d 8ab0 85bc bbf9 9e3d 1300 d3bd
00000280: 3495 753d ba78 5dbd e08f 9ebd 0f5f c03d
00000290: 8cf9 acbd 2ef5 f7bd c876 9c3d 8e61 dabd
000002a0: 5fc6 a23d abd3 99bd 3823 89bd 5c4d 513d
000002b0: fad0 c83c c853 10bd 4baf 8b3d df27 a93d
000002c0: 601b 52bd ac43 c63d c0bb adbd 00c9 143d
000002d0: 662a 77bb 5b90 203c 3d0a 873d f15c 32bd
000002e0: 67e7 8a3d 9cdd 813b c488 85bd 8dcc b23c
000002f0: 983e 233c cb11 a93d 7dd1 043d ba76 93bd
00000300: afd8 edbb 67d7 e33c de92 bbbd bc18 70bd
00000310: 67be 933d 3597 6ebd 5966 c03d 648e 53bd
00000320: 1856 843d b50d 97bd 2856 89bd 806b 973d
00000330: 4c80 84bd e5c8 98bd fdf3 9b3d d78c 48bd
00000340: 71ec 793d 2064 9dbd e909 123c 521b d3bc
00000350: d716 ba3d 19dd bdbc e557 b7bc d66e 003d
00000360: e51b 593c fc7b 953c eb38 713d 8865 293d
00000370: a31c 0ebc 2422 5c3d c392 fb3b 2a37 07bd
00000380: e514 f83c 3db4 163d 5288 2abd 57fb 8fbb
00000390: 0c66 a5bc 33f2 6f3d e3fe ad3d 9ff7 12bd
000003a0: 7f0f a3bd 0758 563c 5bcb 5dbd dd5a b3bd
000003b0: 1136 923c 8c5a b3bc b662 b33d 4756 0abd
000003c0: 0a07 593d 41e7 28bd a2ef 4ebd fb12 493d
000003d0: d19c 013a 076c 41bd e480 593d b228 3abd
000003e0: a546 523d 07d9 2fbd fb58 603d b6f8 87bd
000003f0: 03f5 5fbd 8bae 6e3d 4299 59bd 355a 60bd
0.043868583 -0.025859205 0.027319986 0.012403752 -0.035469174 -0.044701807 0.04602605 -0.036303043
0.025325222 -0.046171848 0.068788074 -0.055183683 -0.036161944 0.07201555 -0.022103373 -0.0733773
0.08206259 -0.051714282 0.06099353 -0.051038872 0.06124601 -0.053788308 -0.054256815 0.058357604
-0.048298463 -0.04223228 0.009444703 -0.05421488 0.0056030396 -0.023133341 -0.016272785 0.03133305
0.01506252 -0.03429295 0.02106161 0.035775337 -0.0322206 0.013150495 -0.0023897395 0.043678626
0.035001423 -0.018472357 -0.040479973 0.014429051 -0.02777088 -0.020878011 0.033034455 -0.074133284
0.042105943 -0.029695624 0.057347465 0.046520203 -0.06653883 0.049000528 -0.04552667 -0.051712185
0.035274215 -0.05520009 0.049251415 -0.050880607 0.05063605 -0.044042 -0.03675401 0.048906207
-0.051502082 -0.040068887 0.048879277 0.03244504 0.055143736 -0.03742373 0.06897079 0.044210166
-0.06255654 0.0071792584 -0.06460123 -0.005009466 0.025852758 -0.021198418 -0.0010783016 -0.047431763
-0.097317666 0.063122906 0.15195465 -0.12381526 0.11806972 0.08088706 -0.07042323 0.085267186
-0.056225263 0.07949546 0.06344639 -0.11628722 -0.10517852 0.096073456 -0.05253548 -0.058064923
0.07999 -0.0620295 0.057432257 -0.077723876 0.059385188 -0.053095054 0.039352924 0.049786188
-0.03892678 -0.03877244 0.04893878 -0.04478929 0.05204054 -0.05333596 0.08071235 -0.055547167
0.024777815 -0.028806666 -0.05799891 -0.04316996 0.055167824 -0.056391403 0.039251834 -0.07054886
-0.08637145 0.10772551 0.09814353 -0.110178426 0.13732034 0.09943829 -0.13961188 0.12791345
-0.10104386 0.06862173 0.09036327 -0.047883358 -0.042572193 0.028112678 -0.013057761 -0.06950224
0.055610586 -0.076994896 0.08396755 -0.056382142 0.08656457 -0.07732001 -0.116459034 0.059022482
-0.077327006 -0.059921376 0.070802756 -0.072067924 0.062015504 -0.04966645 0.0024357329 -0.03984119
-0.12310282 0.07907882 -0.02403423 -0.045202456 0.08669458 -0.016319532 0.07762476 -0.103027485
0.059956744 -0.054070212 -0.07742286 0.09393131 -0.08446035 -0.12107311 0.07639843 -0.10663138
0.079479925 -0.075110756 -0.066961706 0.051099166 0.02451371 -0.03523615 0.06820544 0.08259558
-0.051295638 0.09680876 -0.08483076 0.0363245 -0.003771448 0.009800042 0.0659375 -0.043545667
0.06782418 0.0039631855 -0.065202266 0.021826053 0.009963654 0.08255347 0.032426346 -0.0720038
-0.0072584967 0.027812673 -0.09158872 -0.05861734 0.07214051 -0.05824967 0.09394521 -0.051649466
0.064617336 -0.07375661 -0.06705886 0.07393551 -0.06469783 -0.074601926 0.076148964 -0.04896244
0.061016504 -0.07685113 0.008913496 -0.025769863 0.090863876 -0.023176717 -0.022380779 0.0313557
0.0132512795 0.018247597 0.05889217 0.041356593 -0.00867382 0.053743497 0.0076774075 -0.033011593
0.0302834 0.036792982 -0.04163391 -0.0043939757 -0.020190261 0.05858059 0.084958814 -0.03588068
-0.0796194 0.013082511 -0.054149013 -0.08757565 0.017848046 -0.021893762 0.08759062 -0.033773687
0.05298523 -0.041236166 -0.0505215 0.049090367 0.0004944327 -0.047222164 0.053101435 -0.045448966
0.051336903 -0.042931583 0.05477236 -0.06639235 -0.05467702 0.058271926 -0.053124674 -0.054773528

bias f4 [2048]
00000000: 327c 62bd 329a 0d3e 8c2b 8c3d 9bbe 033d
00000010: 27d9 44bd 23a0 95bd f3a0 8ebd f015 c2bc
00000020: 0db0 153e b8a3 b73d aadb 8fbd bc7e 4e3d
00000030: ca88 233e 04de c03d 560a e3bd b4f7 81bd
00000040: 1438 2d3e 3681 093e 0286 863e 770f 363e
00000050: 55df 92bd f6d4 393e 2ffc efbc c64f 06be
00000060: 440f 57bd 6957 7ebd 0e91 e83d 364d 9ebc
00000070: f44b debd 3c7c 90bd c7be 363e 156b 91bd
00000080: bb7d 5e3c e8ca b03e d2b3 82bc 20bb c4bd
00000090: 056e 45bd 31fa 93bd d04d ad3c 64a6 c8bd
000000a0: df39 4dbd 31b7 3d3d 9a7f 9c3d c6b4 c1bd
000000b0: a43e 6d3e 6bd1 a0bd 0cdb b73e b015 8fbd
000000c0: 2461 22bd 3fb3 c43d f067 3d3e 043c 93bd
000000d0: 2eaa 683e 09ec 24bd 2892 cc3c 3d85 4cbc
000000e0: 6598 9cbd 1164 5b3e e78e 80bd b449 fa3d
000000f0: dc97 8abc f82e 73bd b74c b43c 95c6 8bbc
00000100: ad7f 993d 09f0 223e 519c 263d 0d62 7dbd
00000110: 4e29 5fbd 4677 0abe 6730 203e 8f2b a23e
00000120: 84c8 81bd b7e0 6bbd ddb7 bfbc 8c98 c63d
00000130: 2a5d a5bd 8cf1 9d3d b9a9 76bc 895d 8dbc
00000140: 4073 babd 9e88 bf3e 59cd 99bd 0eb8 b9bc
00000150: 9163 3ebc 27af 7dbd db01 8cbd fdef 15bd
00000160: 273d 97bd fedb 2cbd 44e1 623e 3b1a c4bd
00000170: 5f58 473e 0946 9b3e 117c c33c 72fa d83d
00000180: 60fc a2bd 55cf 613e 99e3 093e 307c 3e3e
00000190: c52d 113d 86ab 5dbd 88f0 b93e a596 7d3e
000001a0: 02fe 55bd b07b b6bc 5b81 6b3e 0ca0 3ebd
000001b0: e0eb e23d 4223 b63e 87c5 b13e 517f 813e
000001c0: 0808 0c3e cbb8 b73e 0759 96bd af37 8cbd
000001d0: d09e e63d 6886 80bd 3583 5cbd b823 a7bd
000001e0: b6fe f13d 85cb cd3e ae89 063a 1199 14be
000001f0: 217a 73bd 1708 203e aa92 96bd 8de4 66bd
00000200: cbe7 52bd 27aa 363e 6c38 4cbd 4336 433e
00000210: 3d80 c9bd a0ae cbbd 7bab 223e 50c9 9fbd
00000220: 2be8 f33d db57 833e d7e2 1dbc b4df 4e3e
00000230: ff84 9bbd 7a11 333e b722 8d3e 2031 003e
00000240: 2e55 74bd 9acb 743e dad4 87bd 0d15 b6bd
00000250: a224 463e f7eb 71bd 6017 b73d 29e9 393e
00000260: 63c6 963e 0d59 81bc c679 ecbd 9e4f 7dbc
00000270: d01d 523e 9387 4cbc f155 27bd 7446 94bd
00000280: f252 aebc e35a 1bbd 803d 1fbd 1a84 35ba
00000290: 9969 6dbc 4e8c 5abd ccc4 89bd d574 89bd
000002a0: 5df5 2c3e 93fc 9dbd 78ae 55bc 6fac 38bd
000002b0: 8f71 b4bd d773 76bd c568 bf3e d197 3cbd
000002c0: eba4 91bd 0950 173e 3900 803e 6541 a23e
000002d0: 5dfd 153e 6050 333e 1de9 5fbd 4642 79bd
000002e0: f11c d7bc 9747 893e 99d9 4cbd 3f5b 1c3e
000002f0: fcc1 da3d 66e8 af3d ad4b ab3e 2a75 833b
00000300: f631 1b3d 944c cd3d 9004 663e 9ae1 193e
00000310: 8557 e3bc b78a 433e 2b96 f83b d792 bbbd
00000320: da69 543e eedc a33e 9780 d8bb 83d0 c7bc
00000330: 88a2 71bd cfb6 c2bd 9911 fbbd 0b68 243e
00000340: ea3c 703e 94ed 423e 96a4 99ba b208 3e3e
00000350: 81b1 cc3d 27e8 68bd 696c dfbb c3cd 9dbd
00000360: 021b 6d3e cb5d fc3d c6f6 ad3e 29d9 1f3e
00000370: 97a5 bf3e 03b2 c83d bc36 7abd 15ab a23e
00000380: 497e 42bd 3ee3 953e d87c 8a3e 8fc8 ab3e
00000390: 62b0 9fbd 87cf 33bd 122e 82bd eaf5 923c
000003a0: 96ef 63bd f5de 043d 5a0e d23c 5a5e 41bd
000003b0: 1d53 913d f7c6 a6bc 0688 523e 9dad b23d
000003c0: 27e8 edbc bf82 8b3d 6935 d33c c6e9 73bd
000003d0: 8993 943e 7a04 c2bd 6068 773e da6d fe3d
000003e0: 0872 453d 1f0f 613e d361 5f3e 4ea1 a0bd
000003f0: aa78 afbd 800b 88bd 0d49 903d d05d 053e
-0.055294223 0.13828352 0.068442434 0.032164197 -0.048058655 -0.07305934 -0.069642924 -0.023692101
0.1461794 0.08966774 -0.070243195 0.050413832 0.1597015 0.09417346 -0.11085956 -0.06346074
0.16915923 0.13428196 0.26274115 0.17779337 -0.071715035 0.18147644 -0.029295055 -0.13116369
-0.052504793 -0.06209508 0.11355792 -0.019323926 -0.10854331 -0.07054946 0.17846213 -0.071005024
0.013579781 0.34529805 -0.015954886 -0.09606004 -0.048200626 -0.072254546 0.021155268 -0.097973615
-0.05010402 0.046317283 0.076415256 -0.09458308 0.23168427 -0.07852443 0.35909307 -0.069865584
-0.03964342 0.09604501 0.1849668 -0.071891814 0.22721168 -0.040264163 0.024972036 -0.012482938
-0.076462545 0.21424891 -0.062772565 0.12221089 -0.016918115 -0.059370965 0.022009237 -0.017062465
0.07495055 0.15911879 0.04067642 -0.061861087 -0.05448275 -0.13522062 0.15643464 0.31673858
-0.063370734 -0.05758735 -0.023403103 0.09697065 -0.0807441 0.07712087 -0.0150551135 -0.017256515
-0.091040134 0.37408918 -0.0750987 -0.022670772 -0.011620418 -0.061934616 -0.068362914 -0.036605824
-0.07384711 -0.04220199 0.22156245 -0.095753156 0.19467305 0.3032687 0.02386287 0.10594644
-0.07958293 0.22051747 0.13465728 0.18602061 0.03544404 -0.054118656 0.36316323 0.24764498
-0.052244194 -0.022275776 0.22998564 -0.04653935 0.11080146 0.35573775 0.34721014 0.25292447
0.13674939 0.35883173 -0.07341199 -0.06846558 0.1126076 -0.06275636 -0.053836066 -0.0816111
0.118161604 0.40194336 0.000513221 -0.14511515 -0.059442643 0.15628086 -0.07352193 -0.056370307
-0.051490586 0.17838345 -0.049858496 0.19063668 -0.09838913 -0.099454165 0.15885727 -0.07802069
0.11909517 0.25652966 -0.009636602 0.20202523 -0.07593726 0.17487136 0.27565548 0.1251874
-0.059651546 0.23905793 -0.06632395 -0.08890734 0.19349912 -0.059062924 0.08940005 0.1815535
0.29448232 -0.015789533 -0.11546664 -0.015460877 0.20519185 -0.012483495 -0.040853444 -0.0724
-0.021279786 -0.037928473 -0.03887701 -0.0006924287 -0.0144905085 -0.05335646 -0.06726989 -0.06711737
0.16890474 -0.0771419 -0.013042085 -0.04508632 -0.08810722 -0.060169067 0.3738462 -0.04604322
-0.07111534 0.14776625 0.2500017 0.31690517 0.14647432 0.1751113 -0.054665674 -0.06085422
-0.026258918 0.2681243 -0.050012205 0.15269183 0.10681531 0.08589248 0.33456174 0.00401177
0.037889443 0.10024372 0.22462678 0.15027466 -0.027751694 0.19095884 0.007586261 -0.09158867
0.20743504 0.32004493 -0.006607126 -0.024391418 -0.058992893 -0.09507524 -0.12259216 0.16055314
0.23460737 0.19035941 -0.0011722024 0.18558004 0.09994794 -0.056862023 -0.0068183434 -0.077052616
0.23154834 0.12322577 0.33977336 0.15610184 0.37431023 0.09799578 -0.061087355 0.3177115
-0.047483716 0.29274935 0.27048373 0.33551452 -0.07797314 -0.043899085 -0.063564435 0.017939527
-0.05564841 0.03243919 0.025641609 -0.04720912 0.07095931 -0.020358546 0.20559701 0.0872452
-0.029041363 0.06812047 0.025782304 -0.059549116 0.2901881 -0.0947351 0.2416091 0.12423296
0.04820445 0.21978424 0.2181466 -0.078432664 -0.08567937 -0.066428185 0.07045183 0.13024068

weight f4 [10, 2048]
00000000: 5ce4 08bd 1322 26bd 8279 08be 347e 92bc
00000010: a274 86bb a7e8 1ab8 0026 1a3d 2c9e 7bbd
00000020: 5bc8 f9bd 0829 aabd c81c 67bd 3554 a5bd
00000030: 6e49 c3bc b493 86bd cbb3 05bd dab6 823c
00000040: eb86 04bd e91a 69bd e8d2 9bbb be86 9fbc
00000050: 1133 17bd b72b 76bd 3f4e c1bc bd30 afbc
00000060: 233e 90b6 0dd3 40bd ae31 e6bd ca65 b8bc
00000070: 5431 42bd 2511 193d 7673 a1bd 6266 763d
00000080: 2805 63bd 933f cdbd 223c 33bc 7826 9bbd
00000090: f915 c43c 01f6 193d 7d75 76bd c95e 783d
000000a0: 2dc0 17bb 34d6 87bc 63c8 8dbd 84af 183d
000000b0: 0455 98bc d2a8 2fbc e148 b7bd 87aa 96bd
000000c0: cd52 1c3a acf9 dbbc 8224 8abc f3e5 f53c
000000d0: 8a41 89bd e40e 36bd 0665 c2bc 0b52 37bd
000000e0: 3780 4fbd 7d90 71bd da1c 263d d41e debd
000000f0: 9d54 31bd 1a84 b0bd 2569 41bc 0cbc 3bbd
00000100: fe8b e5bd 1ce7 8fbd 9383 d0bd 0172 afbd
00000110: 30ed 27bd 1293 14bd dc9d e2bd ab68 a2bc
00000120: bf20 30bd 68fc 503d 647d 81bd abf2 2cbd
00000130: 81ab 74bd 74d8 bc3c b8a0 e8bd d4b7 22b8
00000140: 917a 893d fe75 c1bd 5f3f cc3c cacf 2abd
00000150: f9b9 e9bd 4c0a a8bc b3e9 e5bb 34cf 01bd
00000160: bc8c 22bd fd89 9b3d 43e0 8cbc f066 bebc
00000170: b621 60bd 899c 5ebd dd9f afbd 24de d3bd
00000180: 2c86 2dbd 49e4 adbd de35 bdbd 0124 73bd
00000190: abf5 90bd 47d8 523d 56ac 36bd 640f 5bbd
000001a0: 441c 95bd 1f9c 89bd 21d7 d6bd f119 d9b8
000001b0: 4d3c f5bc 491e d7bd 8b32 1cbd d3ab e7bd
000001c0: 4119 09bd d103 6fbd 49a6 36bd f207 67bd
000001d0: 4e18 2fbd 316d d4bc 102c c8bd 6bfc 61bc
000001e0: 1f94 a5bc 6e86 e7bd 113d 20ba 46d1 b5bc
000001f0: 7b08 373d a947 4abd 6982 873b 83bc b5bc
00000200: 197e 1bbd 7e90 a6bd 6d92 1f3d 00b4 dbbc
00000210: ee83 0ebd d77b 6dbd 5235 08bd 2afa a13c
00000220: c098 37bd 821a f3bd caed 9dbd a125 90bd
00000230: 9cc3 473b b1aa c3bd d0b5 b6bd b24f c6bd
00000240: 9203 6a3d e255 cfbc 408f 87bc 97f1 59bc
00000250: 9329 ddbd 203e 1b36 5587 0fbd 5af7 96bd
00000260: 3273 e4bd dc10 ef38 83d9 71bd 8b04 aebd
00000270: 4bea 73bd aca8 ef3a c74e 06bd 4a93 09be
00000280: ffd3 8f3a 4eee 62bd 808c 36bc 5b7d 14bd
00000290: 10bb 62bd 0219 bc3b 21bd 2abc 2656 b73d
000002a0: 9ec4 9fbc 16f1 79bc 18d6 82b7 2c65 2cb9
000002b0: 403d e73d 3bd9 b6ba 802b c4bd f0f3 3c3d
000002c0: 6fd1 8bbd 93fb 81bd cbe9 9fbd f3da 22bd
000002d0: fc86 8bbd e59b 07bd 6716 a2bc 4b69 fabc
000002e0: 9a0d 1cba 6531 7dbc 659a 5eb7 cd92 c1bd
000002f0: db2f c6bd ac5b 27bd 15ed d6bd 6519 4ebd
00000300: eff4 8fbd 7f43 febd 6638 c5bd 5110 efbd
00000310: bd1c 8eba 43ab cbbd b57d b1bd 16ea bb3c
00000320: 8a26 b3bd c05d a7bc b60c 9ebd 255f 1fbd
00000330: 3b94 11bd 4967 2a3d aaad bdbd ede4 6fbd
00000340: 8e10 a9bd cb7f a03b 5686 a4bd 7989 c7bd
00000350: 3212 6bbc 3e83 29bd 7a04 8db8 3616 1eba
00000360: 5403 5fbd 1a29 d5bd 6df8 5abd 5465 dcbd
00000370: bc02 9ebd 9704 c4bc f6c5 41bd 58f5 cebd
00000380: 42c9 ccbd 6771 45bd 31bf 1bbc 05f1 85bd
00000390: cbe0 6cbc 14b5 3d3d 4b12 30ba 0165 72bd
000003a0: 83e0 373c 65ad f4bd 2325 f7bd c2ff a3bc
000003b0: 6492 a1bc fdf4 d5bd 1e99 e3bd 995d 2dbd
000003c0: 9fa2 fc3c 23f2 c2bd 4948 84bc 0167 39bd
000003d0: 2eb5 a4bd 2cde 223c 008a 1bbd 0429 77bd
000003e0: a17c adbd 7029 38bd c769 80bd fb72 823d
000003f0: b7f1 0d3d 9c65 19be c5c2 b9bd 23e4 d3bd
-0.033420905 -0.04055984 -0.13327602 -0.017882444 -0.004103259 -3.6933136e-05 0.037633896 -0.06143014
-0.12196418 -0.08308607 -0.056423932 -0.08072702 -0.023838725 -0.06571141 -0.032642167 0.015956331
-0.03235523 -0.05691043 -0.0047553666 -0.01947343 -0.036913935 -0.060100283 -0.023596881 -0.021385545
-4.298768e-06 -0.047076274 -0.112399444 -0.022509474 -0.047410324 0.037369866 -0.078833506 0.060156234
-0.05542484 -0.100218914 -0.01093963 -0.07575697 0.023936259 0.037588123 -0.06017064 0.06063727
-0.0023155317 -0.016581632 -0.06922986 0.03727676 -0.018595226 -0.010721402 -0.089494474 -0.07356744
0.0005963266 -0.026852451 -0.016863111 0.030016875 -0.06701954 -0.044447795 -0.023729812 -0.044755977
-0.050659385 -0.058975685 0.04055486 -0.10845724 -0.043293584 -0.086189464 -0.011804854 -0.045833632
-0.11208342 -0.070265025 -0.10181346 -0.085666664 -0.040997684 -0.03627307 -0.110652655 -0.0198253
-0.04299998 0.051021963 -0.063227445 -0.042223614 -0.05973387 0.023052432 -0.1135878 -3.8795013e-05
0.06712831 -0.09446333 0.024932561 -0.04170207 -0.114124246 -0.020512722 -0.0070163845 -0.031691745
-0.039684996 0.075946786 -0.01719678 -0.023242444 -0.05471965 -0.054348502 -0.085754134 -0.10345104
-0.042364284 -0.084908076 -0.0923879 -0.059360508 -0.070781074 0.05147579 -0.044597946 -0.053481475
-0.07280782 -0.06719231 -0.10490251 -0.00010352198 -0.02993598 -0.10503823 -0.03813414 -0.1131207
-0.03347135 -0.05835325 -0.044592176 -0.05640406 -0.042747788 -0.025930973 -0.09774029 -0.013793091
-0.020212231 -0.11304937 -0.0006112615 -0.022194516 0.044685822 -0.049384747 0.004135419 -0.022184616
-0.037962053 -0.081330284 0.038958002 -0.02681923 -0.034793787 -0.05797943 -0.033253975 0.019772608
-0.044823408 -0.1187029 -0.0771137 -0.07038427 0.0030481583 -0.09554041 -0.08921397 -0.096831694
0.05713231 -0.025309507 -0.0165478 -0.013302228 -0.10798945 2.3132961e-06 -0.035041172 -0.07371397
-0.11154784 0.000113995484 -0.059045326 -0.0849696 -0.05954961 0.0018284521 -0.03278997 -0.13435093
0.0010973214 -0.055403046 -0.011141896 -0.03625236 -0.055354178 0.005740286 -0.010421068 0.089519784
-0.019502934 -0.015255233 -1.5596903e-05 -0.00016440888 0.112909794 -0.0013950238 -0.095786095 0.046131074
-0.06827056 -0.06346812 -0.07808264 -0.039759587 -0.068128556 -0.033107657 -0.019786073 -0.030567786
-0.00059529545 -0.015453671 -1.3268179e-05 -0.09451828 -0.096770965 -0.04085891 -0.104944386 -0.050317187
-0.07029139 -0.124152176 -0.09629898 -0.11673034 -0.0010842305 -0.09944775 -0.08666555 0.02293877
-0.08747585 -0.020430446 -0.07717268 -0.038909096 -0.035541754 0.041602407 -0.092616394 -0.05856793
-0.08255111 0.0048980466 -0.08033435 -0.09743018 -0.0143476 -0.041384928 -6.724238e-05 -0.00060305314
-0.054446533 -0.1040823 -0.053459574 -0.10761514 -0.07715365 -0.02392797 -0.04730793 -0.10105389
-0.099993244 -0.048203852 -0.009506033 -0.065401115 -0.014457892 0.046315268 -0.0006716593 -0.059178356
0.011222961 -0.11947135 -0.1206763 -0.020019416 -0.019723125 -0.104471184 -0.11113189 -0.04232559
0.030839263 -0.0951884 -0.01614775 -0.045264248 -0.0804237 0.009940665 -0.037973404 -0.06034185
-0.08471037 -0.044961393 -0.062701754 0.06369587 0.034654345 -0.14980167 -0.090703525 -0.10346248

bias f4 [10]
00000000: d733 9bbd 3e0d 373d ea5a 883d efe9 93bd
00000010: ed22 9a3d ab00 233d 1c9d 74bd 1630 7e3d
00000020: 3e2a 56bd 9764 873d
-0.07578247 0.044690363 0.066579655 -0.07222354 0.07526193 0.03979556 -0.059720144 0.062057577
-0.05228638 0.06610983

weight f4 [10]
00000000: e227 873f 33dd 683f 9444 823f 1dc7 693f
00000010: 4244 823f eb69 823f 2ac2 7d3f 24e4 723f
00000020: 0419 723f 2cee 853f
1.0559046 0.90962523 1.0177178 0.9131945 1.0177081 1.0188574 0.99124396 0.94879365
0.9456942 1.0463309

bias f4 [10]
00000000: 98e6 81bd a6be 703d ce97 783d 78fd 74bd
00000010: f249 783d 61f3 773d b2fd 75bd 00b2 713d
00000020: 4e0b 73bd 2634 773d
-0.063428104 0.058775567 0.060691647 -0.05981204 0.060617395 0.06053484 -0.060056396 0.059007645
-0.059336953 0.060352467

weight f4 [10]
00000000: 6b9b 8d3f 355d 843f b62a 793f 80e0 863f
00000010: 1eca 703f 1974 873f 395d 823f a727 763f
00000020: 4b1e 6f3f a2ad 763f
1.1063055 1.0340945 0.97330797 1.0537262 0.94058406 1.0582305 1.0184699 0.96154255
0.934056 0.9635869

bias f4 [10]
00000000: be25 e7bd 6700 593d 0392 8b3d 5a0b 78bd
00000010: ed2f 663d 82a6 833d a49f 87bd a3af d03c
00000020: b9f0 4abd 9c47 9b3d
-0.112864956 0.0529789 0.06814959 -0.0605577 0.05619805 0.06428243 -0.06622246 0.025474375
-0.049545977 0.07582018

weight f4 [10]
00000000: d66f 6f3f f9fe 843f 33a1 6e3f 573a 853f
00000010: 64a1 6f3f db68 853f a86c 6e3f 16b2 843f
00000020: 52fd 6c3f 580f 713f
0.93530023 1.0390311 0.9321472 1.0408429 0.9360564 1.0422624 0.93134546 1.0366848
0.92574036 0.9416404

bias f4 [10]
00000000: 2a1e 673d d9d9 5e3d 1942 743d 2752 5fbd
00000010: 342f 5e3d f7ea 623d 2741 4dbd 29ec 593d
00000020: f11c f6bc 86cb 7c3d
0.05642525 0.054406974 0.059633348 -0.054521706 0.054244235 0.05539986 -0.050110962 0.053203736
-0.030043097 0.061717533

in_proj_weight f4 [30, 10]
00000000: 00bb 5a36 e8b3 6b37 aa8a 073a 8785 d9b9
00000010: 1e03 8a36 172e 18ba 280a 51ba e24a 7e3a
00000020: f405 dd36 5133 3738 3e7d cc39 3581 193a
00000030: 3ddb 21b9 b36d 6fb9 00f4 aeb9 6b28 6938
00000040: a049 ee38 6e3e 12ba be42 8837 1afb a4b8
00000050: ba49 7cba 8388 8338 81e6 7e3a d705 843a
00000060: acfb 0739 521d 3db9 1816 3639 9814 cf39
00000070: b7ba 79b8 7c2d 0cba 0a4e 82b9 00f4 93b9
00000080: 49fd e338 a533 c2b9 18fa f8b5 a323 1bb8
00000090: 5f2b 8f38 e689 4138 f12f 6cb9 5d29 94b9
000000a0: 021a 4439 2e7a 1f38 a0ce b9b9 7a59 0fb9
000000b0: 0341 8ab9 2c45 8139 905d 2839 df81 09b7
000000c0: 0a93 6238 c685 b3b9 ff3b a739 4095 abb8
000000d0: f861 2fb6 26d4 87b9 8ea6 81ba 38b0 dbb9
000000e0: 7093 c9b9 29be 92b9 1668 f9b7 0bb7 1fb9
000000f0: a0ad 0239 36fb 2bba 7120 9a39 2323 e538
00000100: 89c4 2d39 44c3 4c38 cc73 5639 1ed1 2ab9
00000110: 1d25 17ba ee26 a339 2fb0 163a 66fc 7bb8
00000120: ea58 44b9 f7d6 d0b9 5e92 0d3a acb8 f1b8
00000130: fba4 d038 6a1d 9338 bb3e 9138 ef09 84ba
00000140: 32f9 803a 7735 723a 7e43 c8b9 647a 1239
00000150: 0805 9239 75b0 a3b9 b4dc 0138 ce27 193a
00000160: 9ec4 3038 dede 0fb8 b048 6a38 297f 33b9
00000170: 80cd f7b8 140e 023a 3815 a935 0e13 6239
00000180: 7dcb bc39 9961 a238 d1d4 9239 3531 1937
00000190: 73f7 2eba ef61 aa39 42ff 0cba 8ceb 79b8
000001a0: eb43 6d3a 822c 03b9 49b6 d8b7 a03b e4b8
000001b0: 0022 02b8 80f3 2937 c097 dd34 b439 c839
000001c0: 822b b738 8299 1f36 0fbc 74ba 0b89 7dba
000001d0: 0bef 6fba 28ea 5b37 d6a2 ccb8 0cf8 9b37
000001e0: 241f fdb9 c236 e4b7 eecd 823a f637 6bb7
000001f0: ef01 0fba a413 3fb9 d244 fdb9 0cae 5536
00000200: 4e13 e039 5810 d036 4bf1 16ba 2658 61ba
00000210: e679 193a 7a63 9eb8 c86e 2ab9 96b6 bc38
00000220: e094 99b8 2693 23b8 f076 acb6 c6fd d6b8
00000230: fcb5 183a f01f 1037 3e68 433a 9bf7 e4b8
00000240: 1833 96b9 a6b2 bb39 a572 c3b7 43b0 4cb9
00000250: a1ef c6b8 38bb 04ba b1d8 83ba 626f 6638
00000260: 4694 193a 676b 153a 30ee abb6 3707 773a
00000270: 9ec5 eb36 3010 acb9 ce48 2f39 4c03 83ba
00000280: f201 cdb8 ee17 b7b7 7eca ff38 7baf 6d3a
00000290: 18e7 07ba f4f3 57b9 d2f8 43b8 d0a6 38ba
000002a0: f633 ccb9 761f 5837 b7a0 3138 f48b 3d3a
000002b0: 8600 c838 f0b5 2d39 6448 e238 26f8 3a38
000002c0: 7758 7939 32a4 4737 d566 133a 36f8 83b9
000002d0: 3f1e d4b8 ea7e 6539 d65c d139 7ceb a1b9
000002e0: 2468 b538 2d2f 813a 5882 bc38 d65d 19b9
000002f0: d803 49b6 5453 8439 5a8f 87b9 68ed 7bb8
00000300: 6cca ad39 fcb0 a2b8 6da6 1b38 2dc4 1cb9
00000310: e897 d2b8 ec23 0139 7175 e5b9 f50a f6b7
00000320: 3354 0aba ba2d b037 d776 c7b9 0f10 7d38
00000330: d1ca b2b9 8930 b7b9 5ceb ce39 9d63 82b9
00000340: 7c59 8738 69b5 b8b9 f4ec 05b9 d064 13ba
00000350: dde5 b939 a8fa 81ba 2f94 f7b9 1838 3139
00000360: 6a38 043a e422 063a 1201 093a b540 4239
00000370: 48b4 4739 40f0 0ab6 5268 a9b9 9b4d 96b8
00000380: 0c0a 57b8 4187 79ba fd36 eeb8 c66b cb39
00000390: 11ba 003a 16f4 89b7 c756 ccb9 b82b 9339
000003a0: 08f6 67b9 5e41 163a 2144 0c38 6adb e9b9
000003b0: d6af cab9 34f3 823a 0734 7339 5733 5fb8
000003c0: bd6a 43ba 6a77 93b9 a25b eab7 96d5 c138
000003d0: 8a64 6639 a48e 733a da73 c5b9 c027 cd36
000003e0: f1d5 81b8 ef2f 29b8 cfe0 183a 13bc 8039
000003f0: e333 143a 1515 b4b8 2ad2 acb9 c561 2139
3.259338e-06 1.4048979e-05 0.0005170504 -0.0004148895 4.1130834e-06 -0.0005805208 -0.00079742307 0.00097004895
6.5870063e-06 4.3678392e-05 0.00039003225 0.000585574 -0.00015435829 -0.00022833682 -0.0003336966 5.558917e-05
0.00011362438 -0.0005578761 1.6243543e-05 -7.866901e-05 -0.0009624023 6.271994e-05 0.0009723679 0.0010072541
0.00012968358 -0.00018035367 0.00017365103 0.0003949746 -5.9540118e-05 -0.0005347354 -0.00024853676 -0.0002821982
0.000108713815 -0.00037041042 -1.8550227e-06 -3.698807e-05 6.82685e-05 4.6143214e-05 -0.00022524573 -0.00028259578
0.00018701705 3.8022343e-05 -0.00035439897 -0.00013670875 -0.0002636985 0.00024656334 0.00016056583 -8.196074e-06
5.401954e-05 -0.0003424121 0.00031897423 -8.1817154e-05 -2.6134057e-06 -0.0002590727 -0.0009891556 -0.00041902228
-0.00038447557 -0.0002798897 -2.9731582e-05 -0.0001523161 0.00012462446 -0.00065605657 0.0002939734 0.00010926116
0.0001657178 4.8819245e-05 0.00020451768 -0.00016290366 -0.0005765723 0.00031118788 0.00057482993 -6.0078128e-05
-0.0001872514 -0.00039833013 0.00054005336 -0.00011526173 9.948943e-05 7.014985e-05 6.925823e-05 -0.0010073761
0.0009839891 0.0009239534 -0.00038197258 0.00013969239 0.0002785104 -0.00031221253 3.0961543e-05 0.0005842418
4.2144784e-05 -3.4301418e-05 5.5857643e-05 -0.00017118141 -0.00011816155 0.0004961204 1.2597657e-06 0.00021560138
0.00036009765 7.742941e-05 0.0002800585 9.130968e-06 -0.0006674446 0.00032497893 -0.00053786125 -5.9585596e-05
0.0009050953 -0.00012509714 -2.583409e-05 -0.00010882993 -3.102608e-05 1.0129879e-05 4.127487e-07 0.00038189965
8.734224e-05 2.37822e-06 -0.0009335884 -0.0009671605 -0.00091527466 1.3107936e-05 -9.7578086e-05 1.8592946e-05
-0.00048279122 -2.7205217e-05 0.0009979585 -1.4020121e-05 -0.0005455305 -0.00018222496 -0.00048307196 3.1840782e-06
0.00042738992 6.2007857e-06 -0.00057580014 -0.0008596204 0.0005854651 -7.552556e-05 -0.00016253733 8.998548e-05
-7.323339e-05 -3.899927e-05 -5.1398456e-06 -0.00010251584 0.00058254576 8.590505e-06 0.0007454193 -0.00010918007
-0.00028648297 0.00035800523 -2.3299197e-05 -0.00019520619 -9.48601e-05 -0.0005063298 -0.0010059086 5.4940007e-05
0.0005858581 0.0005699903 -5.123926e-06 0.00094233773 7.0265514e-06 -0.00032818457 0.00016716422 -0.0009995489
-9.775524e-05 -2.1826443e-05 0.00012197065 0.0009066981 -0.0005184277 -0.00020594877 -4.6723355e-05 -0.00070439
-0.00038948626 1.2881928e-05 4.2349766e-05 0.00072306325 9.536841e-05 0.00016566343 0.000107900036 4.4576962e-05
0.00023779446 1.1899554e-05 0.0005622928 -0.000251712 -0.000101145815 0.00021886421 0.00039932755 -0.00030883763
8.65015e-05 0.0009855978 8.988817e-05 -0.00014626174 -2.9953571e-06 0.00025239086 -0.00025856012 -6.0064165e-05
0.00033147947 -7.757728e-05 3.7109876e-05 -0.000149504 -0.00010041875 0.0001231578 -0.00043765784 -2.9330587e-05
-0.0005276829 2.1002128e-05 -0.0003804478 6.0334856e-05 -0.00034101916 -0.00034940641 0.00039466738 -0.0002486975
6.4539694e-05 -0.00035230376 -0.0001277214 -0.0005622627 0.0003545721 -0.000991662 -0.00047221917 0.00016900932
0.0005043807 0.00051168934 0.0005226295 0.00018525387 0.00019045279 -2.0703446e-06 -0.00032311917 -7.1670125e-05
-5.126935e-05 -0.00095187506 -0.00011358967 0.00038799475 0.00049105386 -1.6445334e-05 -0.00038974566 0.00028070598
-0.0002212153 0.00057317864 3.344205e-05 -0.000446047 -0.0003865945 0.0009990693 0.00023193668 -5.3215157e-05
-0.0007454565 -0.00028126995 -2.7937644e-05 9.2427406e-05 0.00021971963 0.00092909695 -0.00037661084 6.1141036e-06
-6.191049e-05 -4.033738e-05 0.0005831839 0.0002455419 0.00056534837 -8.586996e-05 -0.0003296298 0.00015390578

in_proj_bias f4 [30]
00000000: 0000 0000 0000 0000 0000 0000 0000 0000
00000010: 0000 0000 0000 0000 0000 0000 0000 0000
00000020: 0000 0000 0000 0000 0000 0000 0000 0000
00000030: 0000 0000 0000 0000 0000 0000 0000 0000
00000040: 0000 0000 0000 0000 0000 0000 0000 0000
00000050: 22fd 75bd e6fb 75bd 5cfb 753d affb 75bd
00000060: 62fb 75bd a9fc 75bd 6afc 753d d0fd 75bd
00000070: 51fc 753d b3fa 753d
0.0 0.0 0.0 0.0 0.0 0.0 0.0 0.0
0.0 0.0 0.0 0.0 0.0 0.0 0.0 0.0
0.0 0.0 0.0 0.0 -0.06005586 -0.060054682 0.060054168 -0.060054477
-0.06005419 -0.06005541 0.060055174 -0.060056508 0.06005508 0.06005354

weight f4 [10, 10]
00000000: 5b34 f3be 07d0 023e 7029 47be 15f6 9f3e
00000010: 8478 8f3e b98c ce3d 434a 82be 1827 0fbf
00000020: de44 b53e 1f77 12bd fc6c d03e 7015 84be
00000030: 8375 82bd 3778 a0be 4140 383d 7b09 85be
00000040: 95d5 03bf aadc 2bbe 1834 98be c648 74be
00000050: 20ff 1abf 1810 31bc 4645 3b3e 480d 36be
00000060: adf4 013e ed94 413e 29b9 3bbd 9156 18bf
00000070: 4900 123f 5d8f cf3d 9b4f a13e 2479 85bc
00000080: 6f54 cdbe 9cb9 d2be b7d8 4fbd 766c 993e
00000090: 44b8 d6bd 298e 6c3e eb27 8dbe fb44 c13d
000000a0: f9ad eebe a848 7f3e 9490 d43e 9be6 e03e
000000b0: 72a8 263e 1d3d e9be 1180 283e 3f95 dfbe
000000c0: 7d54 1a3e d71a ec3c 9a52 0abf e33b f7be
000000d0: 4cec b3be 1d3a 7ebe acb6 223e f885 c6be
000000e0: d499 113e fa8e 823e 8e0c c13d 408c ef3e
000000f0: f525 9c3e a61d 083f 85fd 813e 5187 483e
00000100: 1370 6d3e 3408 653e a130 3ebc 5812 0cbe
00000110: d857 dd3b 5285 853e f7e7 1bbe fbbb 8abe
00000120: 80a4 813e 9a02 babe 6c73 dbbb ce2d f7be
00000130: 495c 843e 933a 61be de38 183f 6982 523e
00000140: be1c 073f 7686 aabd 5196 ee3d e41f dabd
00000150: 068f 533e 6807 103f 440a e9be 2860 843e
00000160: d91c 8bbd e7a3 bf3e 5175 3a3e f453 abbe
00000170: 2dba cfbd f8bf 103d 71de 293e d753 97be
00000180: 1d16 3bbe 7846 58be d1a9 9d3c a063 11be
-0.47500882 0.12774669 -0.19449401 0.31242433 0.28021634 0.100854345 -0.25447282 -0.5591903
0.35404104 -0.035758134 0.40708148 -0.25797606 -0.0637007 -0.31341717 0.044983152 -0.25983796
-0.51497775 -0.16783395 -0.29727244 -0.23855886 -0.6054554 -0.01080706 0.18288144 -0.17778504
0.12690993 0.18904467 -0.04583088 -0.5950709 0.57031685 0.10134766 0.31506047 -0.016293116
-0.4010348 -0.41157234 -0.050743785 0.29965562 -0.10484365 0.23101105 -0.27569517 0.09436985
-0.46617106 0.2493006 0.41516554 0.43925938 0.16275194 -0.45554438 0.16455103 -0.43668553
0.15071292 0.028821392 -0.5403229 -0.48287877 -0.35141218 -0.24826856 0.15889996 -0.38774085
0.14218837 0.25499707 0.09426223 0.4678669 0.3049771 0.5317024 0.25388733 0.19582869
0.23187284 0.2236641 -0.011608274 -0.13678873 0.0067548566 0.26078278 -0.15225206 -0.27096543
0.25320816 -0.3633011 -0.006697109 -0.48277134 0.25851658 -0.21995 0.5946177 0.2055756
0.5277823 -0.08326428 0.11649764 -0.10650614 0.20660028 0.562613 -0.45515645 0.2585461
-0.06792612 0.37429735 0.18208815 -0.3346249 -0.10142932 0.035339326 0.16588761 -0.29556152
-0.18270154 -0.21120632 0.019246014 -0.1419816

bias f4 [10]
00000000: 82fb 75bd 33fb 753d 13fc 753d 5ffb 75bd
00000010: 8cfb 75bd f6fb 753d 0ee0 753d 52fd 753d
00000020: 5009 76bd a2fb 75bd
-0.06005431 0.060054015 0.06005485 -0.06005418 -0.060054347 0.06005474 0.06002813 0.06005604
-0.060067475 -0.06005443

in_proj_weight f4 [30, 10]
00000000: 74e7 20b9 4ddc 3f3a 625a 88b9 40e5 e839
00000010: d2ca 803a 4b9b 2539 a207 8ab9 635a 5738
00000020: b8f0 18b6 55b4 a7b9 f775 7fba e541 95b9
00000030: 871d 9b39 2fa8 cdb9 2530 b738 16c9 833a
00000040: fc43 92b9 8eb0 d838 b090 38b8 2b3b 9839
00000050: 7387 0739 d5d4 bb38 adf1 5bb9 5757 d138
00000060: 1cbd 2e39 f54a 80ba 9dbb b738 88de 093a
00000070: 2663 91b8 dc92 c039 dfb7 063a 437a 74ba
00000080: 5040 5eb8 486f c4b9 504f d136 39ec afb8
00000090: 1c23 753a 4b8e 0c39 afe1 5c39 b4cf cd38
000000a0: a3e0 15ba 1eec e439 baa4 ea37 c5d8 8fb8
000000b0: 0dc8 7e3a c2df 9336 6ed4 5fb9 d973 87b8
000000c0: aec2 4a3a 78dd 833a c0cf 0a37 6ac8 0b3a
000000d0: 7912 183a 638c 833a 7fc4 8bb9 4f69 74b9
000000e0: 3788 733a 2866 e738 137e 173a c4b0 8238
000000f0: d2d4 f138 cf4a d137 975c 04b9 6f1f 71b9
00000100: 80cd b139 4a68 6037 be3e 9fb8 5a15 0d3a
00000110: 7229 0d39 810a 39b8 ac74 17b9 8796 19ba
00000120: e077 8cb7 dfab 5039 7668 ecb7 ffeb 2cb9
00000130: 3041 03b9 e7ae 0c3a 9cc2 cbb8 c018 d234
00000140: 8047 b738 d2a2 833a 6457 b739 a8b2 06b9
00000150: 95bc 72b8 a6a6 e1b8 5fd5 9e39 3b15 4539
00000160: 9fd2 94b7 f49f dcb8 8699 8db9 4b43 0dba
00000170: c27e 3ab8 2001 aab9 a838 833a aef6 dfb8
00000180: 1a09 843a b10a 6939 3ab8 80b8 0606 84ba
00000190: 4796 3db9 f133 b1b9 a64c 183a 4713 8539
000001a0: ec34 e4b8 8480 edb9 62f8 afb7 189d 0c39
000001b0: 5a35 783a b95b 06ba b89f 1ab9 95d6 763a
000001c0: 90a7 6d37 52b1 9539 402b 5db9 6c9b bbb9
000001d0: 79cf 803a 6416 bfb8 543e 113a 7e79 61b9
000001e0: 27d9 7738 fc9c 133a c029 82b8 39bc 5cba
000001f0: 6e17 4839 84e5 8bb8 6811 0db7 c0ef 75ba
00000200: f7b2 41ba 2cbc e437 32c0 41ba 8f8e 9239
00000210: 022d 6dba dea6 4d39 30f6 ccb8 a887 c339
00000220: 502c d838 b234 013a 5018 8cb9 8175 6238
00000230: cba3 2639 ecbc f036 34e2 32b9 9890 8c38
00000240: 0f76 2d39 2a42 8ab9 9e54 dd38 b48c b838
00000250: f913 013a 9194 833a 1071 a838 a945 0539
00000260: 2e17 10b7 79d5 41b7 a5c8 0d3a 2a5c 81ba
00000270: ca96 9539 929a 1339 34a8 4737 f234 7fba
00000280: c71e 2839 7d28 b5b8 f147 d437 dcf0 773a
00000290: ba0e 11b9 8671 823a 2274 7fb8 664c 4d37
000002a0: a967 9cb9 8bcd e3b9 65dc 82ba 3552 25b9
000002b0: ab99 79ba 80d0 a535 b481 a137 ca26 2c39
000002c0: 3956 3eb8 0c44 0eba 63ec 48ba 864b 58b9
000002d0: dec3 09ba 2942 7bb9 7c6a b736 c089 bbb9
000002e0: 0877 06b9 78d4 4fb9 bacf ceb7 bc11 e238
000002f0: 2371 0e39 873e ccb9 789b 01ba 8033 abb6
00000300: 23d7 e4b8 1026 13b8 cc04 a538 e944 bc39
00000310: 1f9b 7d39 86c1 beb6 6e3f e839 c0b5 5939
00000320: 16be e6bb 4e5f 9bbe 3429 91be ec9a 733e
00000330: f90a 75be c8f0 b7be 620a a43d daf3 52be
00000340: 6a43 bb3d 1079 08bd d0e7 753e 08cd 28be
00000350: b4c0 8fbe 82a9 53bb 43a4 da3e 526d b8bd
00000360: e1aa 9c3e 75f9 39be 75b0 cebe af6b 86be
00000370: 5ccb 1f3e 0185 553e 51f2 06be 4126 c23e
00000380: 12e5 25be 9556 e5bd 966b e5bc 8e43 533e
00000390: db7c 043d 6076 c5bd eb8f 143a 0f89 853e
000003a0: 97c0 993d f23c 80be 279a 39be 1bf9 f0bd
000003b0: 7868 cd3b 69f9 173e 442a 7abc 4422 48bd
000003c0: 19de 6ebe 251f 063d 7937 4b3d d5df b23e
000003d0: 8b56 a43e 2fa8 c93d d073 703e 0884 84be
000003e0: 8984 7fbe cc43 44be d17b bbbe 1dbb bf3e
000003f0: 5208 4bbe e72a 893d 6be7 de3b 5b39 d23e
-0.00015345012 0.0007318899 -0.00026007282 0.00044421293 0.000982607 0.00015793477 -0.00026327098 5.1344174e-05
-2.2789882e-06 -0.0003198708 -0.0009745056 -0.0002846859 0.00029585903 -0.00039225954 8.7350876e-05 0.0010054435
-0.00027897942 0.000103325685 -4.400377e-05 0.00029035783 0.00012925062 8.956498e-05 -0.00020975499 9.982165e-05
0.00016664382 -0.0009787964 8.761066e-05 0.0005259295 -6.9326066e-05 0.00036730513 0.0005139093 -0.000932608
-5.298882e-05 -0.00037466944 6.2379186e-06 -8.38865e-05 0.000935124 0.00013404449 0.00021064909 9.8138495e-05
-0.00057173724 0.0004366347 2.797168e-05 -6.859148e-05 0.0009719141 4.4069902e-06 -0.00021346073 -6.45888e-05
0.0007734698 0.001006051 8.2738115e-06 0.0005332293 0.00058010925 0.0010036345 -0.00026658547 -0.00023308884
0.0009290012 0.000110339664 0.00057789794 6.231808e-05 0.000115314164 2.4949577e-05 -0.00012622993 -0.00022995261
0.0003391318 1.3375722e-05 -7.5933975e-05 0.0005381905 0.00013462247 -4.411722e-05 -0.00014443946 -0.0005858917
-1.6745122e-05 0.00019900453 -2.8182036e-05 -0.00016491114 -0.00012517418 0.00053666387 -9.716043e-05 3.9133556e-07
8.739438e-05 0.0010043031 0.0003496959 -0.0001284579 -5.7872927e-05 -0.00010759877 0.00030295082 0.00018795293
-1.7741053e-05 -0.00010520211 -0.00027008 -0.00053887506 -4.4463908e-05 -0.00032425765 0.0010011392 -0.00010679416
0.0010073513 0.00022224594 -6.1378305e-05 -0.0010072596 -0.00018080427 -0.0003379877 0.00058097614 0.000253821
-0.00010881745 -0.00045299914 -2.0977288e-05 0.00013409962 0.0009468399 -0.0005125362 -0.00014746084 0.00094161305
1.41653145e-05 0.0002855161 -0.00021092314 -0.00035783218 0.0009827457 -9.11176e-05 0.00055405986 -0.00021502931
5.9091628e-05 0.00056309975 -6.2066596e-05 -0.00084203813 0.00019082215 -6.670787e-05 -8.408308e-06 -0.0009381734
-0.00073890336 2.7267342e-05 -0.0007391005 0.00027953504 -0.0009047539 0.00019612486 -9.773334e-05 0.0003729437
0.000103079365 0.00049288117 -0.00026720995 5.3992033e-05 0.00015892011 7.174551e-06 -0.0001705967 6.702653e-05
0.00016542546 -0.00026370707 0.000105538624 8.800012e-05 0.00049239356 0.0010038783 8.031924e-05 0.00012709819
-8.588466e-06 -1.1553399e-05 0.00054086215 -0.0009869386 0.0002853184 0.00014076594 1.1900487e-05 -0.00097353675
0.00016033194 -8.638294e-05 2.530587e-05 0.0009458193 -0.00013833764 0.0009952046 -6.0904895e-05 1.223674e-05
-0.00029831872 -0.00043449955 -0.0009983896 -0.0001576625 -0.00095214945 1.235414e-06 1.9253093e-05 0.00016417648
-4.537983e-05 -0.000542701 -0.0007664619 -0.000206275 -0.0005255322 -0.00023961872 5.4662214e-06 -0.0003577005
-0.00012823578 -0.00019820209 -2.4653844e-05 0.00010779823 0.00013584322 -0.000389565 -0.0004944126 -5.1021925e-06
-0.000109119595 -3.508298e-05 7.8687066e-05 0.00035909496 0.00024185747 -5.6849703e-06 0.00044297747 0.0002076244
-0.007041703 -0.3034615 -0.28351748 0.23789567 -0.23929967 -0.3592589 0.08009793 -0.20600834
0.091437176 -0.03331858 0.2401421 -0.16484463 -0.28076708 -0.003229708 0.42703447 -0.09005226
0.3059912 -0.18161567 -0.40369 -0.2625403 0.15604919 0.20851518 -0.13178374 0.3791981
-0.16200665 -0.11198155 -0.028005403 0.20631239 0.032345634 -0.09641719 0.00056671974 0.2608113
0.07507437 -0.25046498 -0.1812521 -0.11766263 0.006268557 0.14841236 -0.015268866 -0.048860803
-0.23326911 0.032744545 0.04961345 0.34936395 0.32097277 0.098465316 0.23481679 -0.25881982
-0.24952902 -0.19166487 -0.36617902 0.37447444 -0.19827393 0.06697636 0.0068024895 0.41059384

in_proj_bias f4 [30]
00000000: 0000 0000 0000 0000 0000 0000 0000 0000
00000010: 0000 0000 0000 0000 0000 0000 0000 0000
00000020: 0000 0000 0000 0000 0000 0000 0000 0000
00000030: 0000 0000 0000 0000 0000 0000 0000 0000
00000040: 0000 0000 0000 0000 0000 0000 0000 0000
00000050: e785 78bd 74ee 81bd 349e 7bbd b43a 013d
00000060: 3def 83bd d09a 723d 1ffb 723d 6457 81bd
00000070: 9482 a3bc 31c2 d1bc
0.0 0.0 0.0 0.0 0.0 0.0 0.0 0.0
0.0 0.0 0.0 0.0 0.0 0.0 0.0 0.0
0.0 0.0 0.0 0.0 -0.060674574 -0.063443094 -0.06143017 0.031550124
-0.064421155 0.059229672 0.05932152 -0.063154966 -0.019959725 -0.025605293
