Comparative_Evaluation/Baselines/Transformer/models_u/model39.pt (torch, 552899 bytes, 54 tensors)

in_proj_weight f4 [30, 10]
000000 48 65 bc b8 28 8f 36 bb 30 95 2d 38 5a be a5 ba
       -8.983404e-05 -0.0027856324 4.1385356e-05 -0.001264523
000010 ad c7 b8 3a 28 bf 8f b9 6b 04 a8 ba 90 ac 77 bb
       0.0014097594 -0.00027417508 -0.00128187 -0.0037792064
000020 b8 61 0b bb b8 33 35 38 ec 80 00 3a 19 fa 33 3b
       -0.0021267962 4.320193e-05 0.00049020234 0.0027462302
000030 35 bd 32 38 17 61 d8 ba 8a 09 6a ba 15 b6 a8 3a
       4.261472e-05 -0.0016508427 -0.0008927813 0.0012871647
000040 87 e4 ae 37 be 95 2a bb 94 cf 23 ba e0 0f da 3a
       2.0848833e-05 -0.0026029195 -0.0006248888 0.0016636811
000050 7e 74 d0 35 66 fb ce 39 ad 2c ee 39 0d 23 19 3a
       1.5531111e-06 0.00039478688 0.00045428184 0.000584171
000060 14 46 97 bb 1c 5a 38 bb 68 14 90 b8 49 99 94 bb
       -0.0046165083 -0.0028129881 -6.870256e-05 -0.0045348746
000070 5e 9c 14 ba 04 ac 73 39 fc 75 be 38 62 ad f6 3a
       -0.00056690525 0.00023238367 9.081882e-05 0.0018819983
000080 9e c6 a8 3a 5e 05 df b8 2c 93 2f bb 81 f2 75 3b
       0.0012876575 -0.00010634468 -0.0026790602 0.0037528577
000090 03 51 26 3b 16 e5 a8 b9 f3 30 41 b9 06 9c e2 37
       0.0025377877 -0.0003221414 -0.0001842415 2.7013954e-05
0000a0 80 70 4c ba e4 88 39 3b 1a b0 af 3a e4 de d9 3a
       -0.0007798746 0.0028310353 0.0013403923 0.0016622213
0000b0 4a 48 83 3b a9 7c d0 39 a4 6d cf ba 34 d9 cd 3a
       0.0040064203 0.0003976573 -0.0015825522 0.001570499
0000c0 87 5c 04 39 39 ba 98 3a 39 a3 6c 39 fc ed 33 3b
       0.0001262297 0.0011652178 0.00022567519 0.0027455082
0000d0 38 39 02 ba f0 60 ba 3a ac 65 b1 b8 27 c4 16 3a
       -0.00049676327 0.0014219563 -8.4589556e-05 0.0005751275
0000e0 c9 de c0 ba 5c a3 3d bb f9 58 1a bb f8 d9 46 b9
       -0.0014714833 -0.002893648 -0.0023551567 -0.00018963951
0000f0 f0 c7 39 ba b8 f7 7f bb 58 6c 16 bb 83 a9 18 3b
       -0.0007086983 -0.0039057564 -0.0022952762 0.0023294396
000100 4c a6 84 38 d3 5d 61 3a a6 22 10 3a 2f 38 29 bb
       6.325226e-05 0.000859705 0.0005498327 -0.0025820842
000110 72 79 e4 b8 2e a7 a8 3a 94 ed 26 3b 64 04 34 ba
       -0.00010894508 0.0012867206 0.0025471197 -0.00068671093
000120 d9 5a 8f 3b 60 26 a8 b9 bb 8c c9 b9 b4 db 9a ba
       0.0043748436 -0.0003207205 -0.0003844256 -0.0011814744
000130 68 15 14 ba d6 c6 c1 37 29 1f 65 39 66 10 c4 ba
       -0.0005648942 2.3099983e-05 0.0002185075 -0.00149585
000140 04 8b 02 bb 3a 07 42 3b aa b5 56 3a 3b fd cd 3a
       -0.0019919286 0.0029606358 0.0008190522 0.0015715727
000150 e6 d6 e3 ba 3d a5 63 3a 47 29 4d 3a 10 a6 c4 b8
       -0.001738277 0.0008683985 0.000782628 -9.37694e-05
000160 f2 c0 9c 39 00 4e 57 35 28 14 7a 39 ad 9d 38 3b
       0.00029898394 8.0207246e-07 0.00023849367 0.0028170154
000170 68 6f 8b b9 e3 b4 29 b9 d2 6e 32 39 f8 d9 38 3a
       -0.0002659515 -0.00016184482 0.00017016687 0.0007051523
000180 a0 a3 02 bb c4 ca fb b9 95 6f 05 bb 40 66 95 b6
       -0.0019933954 -0.00048025523 -0.0020360698 -4.4524495e-06
000190 dc 19 fe b8 a3 d7 43 ba 9e 78 e1 ba fa 00 37 bb
       -0.000121164805 -0.0007470792 -0.0017202084 -0.0027924166
0001a0 26 79 ac 3a 36 51 b7 b7 d4 b6 ca b8 0f d5 17 3a
       0.0013158664 -2.1853117e-05 -9.666165e-05 0.0005791941
0001b0 05 04 8d b9 cf e4 a9 b9 5c aa 43 b9 f6 85 4b 3b
       -0.0002689661 -0.00032404668 -0.00018660113 0.0031055189
0001c0 47 36 dc 39 32 23 47 3a 53 0e d6 3a b5 7b 05 3a
       0.0004200211 0.0007596492 0.0016331173 0.0005091981
0001d0 a5 3e ec 3a ab 57 8d 39 60 9b d1 b8 f0 95 9e 3a
       0.0018024041 0.00026958933 -9.9948375e-05 0.0012099128
0001e0 2e e6 80 ba 08 37 28 3a b4 3f 55 b9 49 9e 35 3b
       -0.0009834224 0.00064168917 -0.00020336994 0.0027712754
0001f0 50 1d 2e 3b 4a c6 e4 37 be aa cb 39 66 41 be b9
       0.0026567765 2.7272054e-05 0.0003884639 -0.0003628835
000200 7b 00 cf 39 24 13 d7 ba 46 7a 6a bb 84 c1 d3 b8
       0.00039482475 -0.0016408903 -0.0035778447 -0.00010097309
000210 56 f3 82 ba db 27 c0 ba 91 e7 1f 3a f0 10 c7 b9
       -0.0009990733 -0.0014660315 0.0006099875 -0.00037968857
000220 dc 1b 97 b8 ac e5 a3 b9 d6 c0 4e ba 1a 4f d4 b9
       -7.20543e-05 -0.00031260902 -0.0007887011 -0.00040494726
000230 da ed 8f ba f1 02 2c 3a 50 8b 35 b7 df 16 bc ba
       -0.001098092 0.00065617176 -1.0820877e-05 -0.0014350078
000240 f2 d1 1a 3b 78 8a 83 39 48 e6 29 ba fa 0e 84 ba
       0.0023623672 0.00025089434 -0.0006481153 -0.0010075264
000250 11 3d e4 39 24 21 a8 3a da c0 46 3b 6a a1 39 3a
       0.00043533047 0.001282726 0.003032735 0.00070812425
000260 3f 08 ab ba a7 2c 2c 3b 0c c2 c7 3a ac 41 a9 39
       -0.0013048722 0.0026271732 0.0015240326 0.0003228312
000270 61 25 90 39 fe a9 54 ba 80 9f ba 3a 53 ba c9 b9
       0.0002749367 -0.0008112489 0.0014238209 -0.0003847653
000280 fc bd 34 ba b4 36 4f 38 af 5c ea b9 ca 80 da 3a
       -0.0006894765 4.9403592e-05 -0.00044701013 0.0016670462
000290 f7 02 b2 39 f6 b9 fe b8 8a 2c 24 bb c8 36 11 39
       0.00033953015 -0.00012146302 -0.0025050961 0.00013848685
0002a0 05 84 eb 3a 1a b2 ba b7 27 58 33 3b d5 64 2b 3b
       0.0017968422 -2.2255863e-05 0.0027365775 0.002615263
0002b0 44 66 37 bb 2b 56 7e 3a d6 fa c9 b9 d6 b9 50 ba
       -0.002798454 0.0009702171 -0.00038524595 -0.0007962262
0002c0 a5 26 12 3a a2 86 32 bb 45 bf 2c bb 6c 7a 5a ba
       0.00055752165 -0.0027240892 -0.0026359123 -0.00083342823
0002d0 4d f4 14 b8 18 01 a2 ba f0 6e 86 3a 36 a0 cc b9
       -3.5513473e-05 -0.0012359945 0.0010256451 -0.0003902928
0002e0 c4 bd 18 3a 6a 55 5b 3b 60 29 58 ba 53 a9 0f 3b
       0.0005826617 0.0033467659 -0.00082459114 0.0021920993
0002f0 20 68 28 37 d0 d0 04 ba 36 82 1c ba 55 0f 22 b9
       1.0037824e-05 -0.0005066516 -0.00059703307 -0.00015455236
000300 69 3c 57 b9 87 91 37 bb 0a 24 07 ba 34 2c c8 39
       -0.00020526502 -0.0028010325 -0.00051552115 0.00038179907
000310 00 ce 09 35 0e 32 4a 3a 8e d9 17 bb f5 41 d8 ba
       5.1336247e-07 0.0007713147 -0.0023170444 -0.0016499149
000320 e4 5e 19 3e 79 c0 aa 3e 59 e1 32 bd a1 dd 62 be
       0.14977604 0.3334997 -0.04367194 -0.22154857
000330 c3 62 18 3e 20 ea 44 be dd be cc 3c 9c 30 8c 3e
       0.14881425 -0.19229937 0.024993354 0.27380836
000340 a2 c0 95 3e b1 ac 0d bd 79 f1 cc 3d fb dc ab 3e
       0.2924853 -0.03458852 0.10006995 0.33567032
000350 d5 7c 44 be 6c fd 7f bb d2 23 b2 be be 1a 5c 3c
       -0.19188245 -0.0039060963 -0.34792954 0.01343411
000360 1b e0 c1 bd 80 a5 b8 be e6 25 8b be fc 76 dd be
       -0.09466573 -0.36063766 -0.27177352 -0.4325484
000370 bf 56 94 3c af 74 cb 3e 3d c9 da bd 5c 83 02 3e
       0.01810777 0.3973746 -0.106829144 0.12745422
000380 8f 7f 89 be 37 7a 71 3e a7 60 f0 3d d9 f7 c3 be
       -0.26855132 0.23581778 0.11737185 -0.3827503
000390 9d 5e a8 3e 36 d1 a3 be 2b b3 e9 3d 26 9a df bd
       0.32884684 -0.31995553 0.11411127 -0.10918073
0003a0 3d 59 6b 3e f3 ad bb bc 90 97 c1 be 75 9f d7 be
       0.2298326 -0.022910094 -0.37810946 -0.42113844
0003b0 9e d1 d9 3d d8 e7 52 3d bd a1 17 3e 27 5f bc 3e
       0.106356844 0.051490635 0.14807792 0.36791345
0003c0 2e 41 78 3e 42 1e d8 3d 3c b5 ad 3e d5 60 a8 be
       0.24243614 0.10552646 0.33927333 -0.32886377
0003d0 9c b6 ec bd a1 dd ba 3e ec 82 e0 3d ff 80 85 3e
       -0.115582675 0.36497214 0.10962471 0.2607498
0003e0 54 b0 48 be 26 30 89 3e 7c 25 10 be a6 aa 6d be
       -0.19598514 0.26794547 -0.14076799 -0.23209628
0003f0 f5 36 c9 bd fd d3 9a be 39 be ab 3e 2c d3 51 3e
       -0.09824935 -0.3023986 0.33543566 0.20490712

in_proj_bias f4 [30]
000000 00 00 00 00 00 00 00 00 00 00 00 00 00 00 00 00
       0.0 0.0 0.0 0.0
000010 00 00 00 00 00 00 00 00 00 00 00 00 00 00 00 00
       0.0 0.0 0.0 0.0
000020 00 00 00 00 00 00 00 00 00 00 00 00 00 00 00 00
       0.0 0.0 0.0 0.0
000030 00 00 00 00 00 00 00 00 00 00 00 00 00 00 00 00
       0.0 0.0 0.0 0.0
000040 00 00 00 00 00 00 00 00 00 00 00 00 00 00 00 00
       0.0 0.0 0.0 0.0
000050 36 14 6a bd 2c 06 13 3d 22 29 b8 bb cf cd 7d 3d
       -0.05714818 0.035894558 -0.005620138 0.061963852
000060 9c d1 ac bc 5b 76 a0 bd 3f 99 93 bc 2f e2 2c 3d
       -0.021096043 -0.078350745 -0.01801741 0.042207893
000070 47 1a e3 bc f9 19 41 bd
       -0.027722491 -0.04714391

weight f4 [10, 10]
000000 5a b5 13 3e 32 71 0f 3f e9 6a 39 be 17 e3 0f bf
       0.14424649 0.560321 -0.18107189 -0.56205887
000010 76 a7 23 3d c7 fb 0b bd da a5 2b be 64 d7 95 3e
       0.039954625 -0.03417566 -0.16762486 0.29265893
000020 0b c6 02 3f 59 97 a8 be 75 d5 a3 be c4 66 eb be
       0.5108344 -0.3292797 -0.31998792 -0.4597684
000030 83 ea 99 be bc 40 5a be ff 32 38 3e d2 4f 99 be
       -0.3006173 -0.21313757 0.17988203 -0.2994371
000040 c9 40 8c bd ab 7f 09 bf b5 28 b7 3e 78 18 eb be
       -0.06848294 -0.5371043 0.35773245 -0.45917106
000050 cc 4f fe 3e 9f ae 3d 3e 6e 2e 64 ba fd 85 95 be
       0.49670255 0.18523644 -0.00087044283 -0.29203787
000060 9a 49 87 bd 7c bb e3 3e c9 bf 72 be 0b b5 a7 3e
       -0.06605835 0.44478977 -0.23705973 0.32755312
000070 a0 c2 9b be 26 e6 b1 bc 2c e1 8c 3d ff 32 21 be
       -0.30421925 -0.021716189 0.068788856 -0.1574211
000080 a9 a0 16 be 60 0c 20 be c4 66 d5 3e 58 93 4f 3e
       -0.14709724 -0.1562972 0.41679966 0.20271051
000090 6b a4 18 3e c5 34 9f be cd c3 ed 3e a3 9a d2 3e
       0.1490647 -0.31094947 0.46438447 0.41133603
0000a0 8c a7 97 be d1 76 df be f1 13 30 3d 84 3e 6c bd
       -0.29620016 -0.43645337 0.042987768 -0.057676807
0000b0 01 e0 f3 3d fa 95 31 be 1d 84 c1 3e 94 0d ed be
       0.1190796 -0.17342368 0.37796107 -0.46299422
0000c0 d7 c7 3f 3e 00 6b 18 3e f9 3f fb 3e fc 46 ab be
       0.18728577 0.14884567 0.49072245 -0.33452594
0000d0 b5 ff e8 3e bf 99 e4 be 5c 92 05 3f b7 37 73 be
       0.4550759 -0.4464855 0.5217645 -0.23751722
0000e0 1a 47 40 3d 95 79 06 3f 28 df 03 bf a2 61 23 bf
       0.046942808 0.5252927 -0.51512384 -0.6382085
0000f0 f1 54 af 3d b1 f8 18 3d a4 e4 d5 3e 95 d0 51 3d
       0.08561123 0.037346546 0.41776 0.05122431
000100 8f cb cf be ed 56 b9 be 21 cf b7 be ec 34 8e be
       -0.4058499 -0.36199132 -0.35900214 -0.2777475
000110 aa 3c ce be a0 22 b0 3e 32 35 c0 be 64 ac 8e 3e
       -0.40280658 0.34401417 -0.37540585 0.278659
000120 19 15 cb 3e 1d 2c 92 3c 13 9b 85 3c b4 b1 97 3d
       0.39664534 0.0178433 0.016309297 0.07406941
000130 86 08 54 bd 78 5d ac 3d aa 94 eb be f2 ee bb be
       -0.05176594 0.08416265 -0.4601186 -0.36705738
000140 16 f9 b2 3e 4c cc f1 3e 26 93 07 3f d4 c6 04 3e
       0.34955662 0.4722618 0.52958906 0.12966472
000150 81 3c 40 3e 62 77 e3 be de 91 5a be 66 7d e1 bd
       0.1877308 -0.4442702 -0.21344706 -0.11010246
000160 86 af 9e 3e 8d 79 05 3d 3f 41 26 3e be 26 48 3d
       0.3099329 0.032586623 0.16235827 0.048865072
000170 d2 25 77 be fb 2e 38 bd a0 92 03 3e a0 55 3e be
       -0.24135521 -0.04496668 0.12848902 -0.18587351
000180 0c 8a 27 3e 99 5d c3 3e 56 a7 35 3e bb 26 12 bd
       0.16361254 0.38157347 0.17739615 -0.035681468

bias f4 [10]
000000 14 0e 76 3d d3 0f 0f 3d 7a 92 20 3d 82 b9 50 bd
       0.06007202 0.0349272 0.03920219 -0.050958164
000010 43 55 45 3d e9 1a 89 bd f6 65 b0 bd ae dd 4c 3d
       0.048177015 -0.06694586 -0.086131975 0.050016098
000020 f2 bd 30 bd a2 1a 8d 3d
       -0.043149896 0.068898454

weight f4 [2048, 10]
000000 49 36 b2 3e 35 0b ff bd 87 90 ff 3d 36 d9 53 bd
       0.3480704 -0.124533094 0.12478738 -0.05172082
000010 4a 1b f4 bd 45 99 a8 bd d7 1c 38 be 12 bd c9 3c
       -0.119192675 -0.08232359 -0.17979752 0.024626289
000020 80 ba f6 3b 17 e9 15 bd 1a b4 fb 3e 9a 45 5f be
       0.0075295568 -0.036599245 0.49160844 -0.21803895
000030 1c f5 a7 3d 2e b5 e0 bd e5 98 c2 bd d1 db ee bd
       0.08201048 -0.10972057 -0.095018186 -0.116630204
000040 63 61 57 be 2b 64 75 3d 2d 07 68 3b b7 9e 5d bb
       -0.21033244 0.05990998 0.0035404668 -0.0033816525
000050 13 48 86 bd 1a 98 a7 3c af 07 43 3d 79 7d 85 3d
       -0.06556716 0.02045827 0.04761475 0.06518073
000060 f9 08 54 bd eb 35 88 3d ef af 67 3d a1 53 8a bd
       -0.05176637 0.06650909 0.056564268 -0.06754232
000070 05 32 3d 3d d1 ac 80 bd 0e e4 31 3b d8 eb ef 3b
       0.04619028 -0.06282962 0.0027143988 0.007321816
000080 bf 11 b0 3c c9 88 1e 3d d0 00 4e bc 4c a3 be 3c
       0.021492837 0.038704667 -0.012573436 0.023271225
000090 83 41 df 3d 69 c0 6d bd fc 5a 38 bd da 35 c5 bd
       0.10901167 -0.058044825 -0.045008644 -0.09629412
0000a0 60 69 02 be aa 6c 1e bd db 83 c7 3d f7 26 00 3e
       -0.1273551 -0.03867785 0.09741946 0.12514864
0000b0 ba 78 b9 3d 16 04 2b bd 78 c5 e0 3c c2 33 1b 3d
       0.0905623 -0.041751944 0.02743791 0.037891157
0000c0 c8 9b 39 bd 68 b8 c3 bc 62 c8 c4 bd 23 a7 9d bd
       -0.04531458 -0.023891643 -0.096085325 -0.076978944
0000d0 47 76 70 3d c4 4a ab 3d 34 08 e5 bb 44 26 88 bd
       0.058706548 0.0836387 -0.0069895033 -0.066479236
0000e0 02 90 67 3d 42 25 ec 3d 3b 38 3c bd c6 8e df 3d
       0.05653382 0.11530544 -0.045952063 0.10915904
0000f0 a3 69 5e 3d 5d 17 65 3c 26 e5 73 3d c4 d7 1d 3d
       0.05429996 0.013982621 0.059544705 0.03853585
000100 95 fc 27 bd 9f c1 49 bc fc ea 91 3d 6f b0 45 bd
       -0.041012365 -0.012314229 0.07124898 -0.048263963
000110 d7 46 38 3d 38 50 2f bd 0e 64 5e 3e dc c1 2a bd
       0.044989433 -0.042801112 0.21717855 -0.041688785
000120 6e 50 75 3d 55 2e aa bd 5b a1 90 bd cd ca 6b bd
       0.059891157 -0.083096184 -0.07062026 -0.057566453
000130 e3 5d ef bd 82 5c 80 3d b0 c8 d2 39 30 4c 3a 3b
       -0.11687829 0.062676445 0.00040203845 0.002842676
000140 23 27 fb 3c a1 e5 b8 3d ef 53 4c 3d ee 60 e3 bd
       0.03065831 0.09028173 0.049884733 -0.11102472
000150 24 d8 9c bd 4a 09 7b bc 71 ee fa bc 4f 2c f9 bb
       -0.07658413 -0.015322039 -0.030631276 -0.007604159
000160 3a 4f b4 bd bf 22 6b bd fc 30 c5 bd 7f 90 a7 bd
       -0.08804174 -0.057406183 -0.09628484 -0.08181857
000170 64 b9 77 bc b5 9c ca 3d 08 86 3b 3d f2 f9 db bd
       -0.015119884 0.09893171 0.04578212 -0.10741033
000180 71 2a 92 3d 92 69 46 3d ef b6 1a bd 2c 3a 74 3d
       0.07137001 0.048440523 -0.037772115 0.05962579
000190 89 93 6b bd 37 55 0c 3d af ae 5e 3d 1b 99 7b 3d
       -0.057513747 0.034260955 0.05436581 0.06142531
0001a0 47 ea 65 bd 94 5d 87 3d f6 2b 76 3d f9 1d 76 bd
       -0.056131627 0.066096455 0.06010052 -0.060087178
0001b0 3a 65 67 3d cb a2 68 bd 08 7d 2b 3d 5a 65 70 3c
       0.05649302 -0.056795876 0.041867286 0.014672602
0001c0 d7 f8 57 3d ba b2 9c bd 60 e0 8f bd 23 e2 c0 3c
       0.052727547 -0.07651277 -0.07025218 0.02354533
0001d0 55 06 43 bd e0 40 58 bd cc 83 89 bd 33 d5 94 bc
       -0.04761346 -0.052796245 -0.067145914 -0.018168068
0001e0 30 d6 87 3c 59 34 4e bd 26 42 b5 3c 06 fc 41 3d
       0.016581625 -0.05034289 0.022126269 0.04735949
0001f0 c3 80 4b 3d de d9 56 3c d6 d5 90 3d 90 ae c9 bd
       0.049683344 0.013113467 0.07072036 -0.09847748
000200 5a fb 25 bb 3a 1f b6 bc a6 86 8e bd fe 56 e2 bd
       -0.002532682 -0.022231687 -0.06959276 -0.11051749
000210 2c 1f 77 3d 10 f6 46 3d 44 4d 8f 3d 62 a2 e2 bd
       0.060332462 0.048574507 0.06997159 -0.11066128
000220 26 75 b7 3d ef 24 02 3e bb 9e 75 bd 5d 3f 6e 3d
       0.08957891 0.12709402 -0.05996583 0.058165897
000230 7e 5d c5 3d 54 6b e0 3c 4b 11 84 bd 8e 0e 65 bd
       0.09636973 0.027394928 -0.06448611 -0.055922084
000240 20 6d a4 bd c0 4f c2 3c 3b 94 c4 bd d6 33 23 bd
       -0.080286264 0.023719668 -0.09598585 -0.039844356
000250 4f 89 a1 3c 8c 43 b0 bd 39 96 a5 be e0 97 91 3d
       0.019718794 -0.086066335 -0.32341173 0.07109046
000260 a9 70 13 be 37 0b ab bd bc 14 48 3e 0c 4b 9f bd
       -0.14398445 -0.083517484 0.1953916 -0.07777986
000270 b9 2a 5a 3d 1a 9e d2 3d 54 4e 2f be bf b6 08 3e
       0.0532634 0.10284062 -0.17119724 0.13350962
000280 ec 9c 49 bd ce d4 62 bd 23 f6 22 bd 2c 9d 43 3d
       -0.049221918 -0.055378728 -0.039785516 0.047757313
000290 9b 23 36 bd 84 7b 5a 3d c1 97 60 3d af 1d 4d 3b
       -0.04446755 0.05334045 0.054832224 0.003129821
0002a0 a3 79 35 3d af bf 44 bd df 9c e5 bc e6 ba 24 3d
       0.044305455 -0.048034366 -0.028028904 0.040217303
0002b0 bf 49 ff bd a8 ba 4a bd 1d 71 5d 3d 76 f0 3c 3d
       -0.12465238 -0.049494416 0.05406295 0.04612776
0002c0 3f 5e d8 bd f1 65 69 bd a2 e3 49 3d 25 4d c6 bd
       -0.10564851 -0.056981985 0.049289353 -0.09682683
0002d0 3a d7 bd bd 39 66 f1 bd ae b0 fc 3d 50 b6 d4 3d
       -0.09269567 -0.117870755 0.123383865 0.10386336
0002e0 b5 4c ac 3c 33 d3 39 bd 22 ae e3 3c fd 4f ea 3d
       0.02103267 -0.04536743 0.027792994 0.11441038
0002f0 17 ea bd bd c6 59 dc 3d 20 e8 ab 3d 6b 95 29 3c
       -0.09273165 0.107593104 0.08393884 0.010350565
000300 83 e5 fa 3c e9 78 7e bd ee 9a 68 bd 5f c4 93 3d
       0.030627018 -0.062127028 -0.056788377 0.07215189
000310 5b 2f bd bd 01 d5 04 be 30 60 8c bd ce 76 aa bd
       -0.09237548 -0.1297188 -0.06854284 -0.083234414
000320 7f 2b e9 3c 55 da 87 3d b7 1c f3 3d 70 7f 41 bb
       0.028463123 0.066334404 0.11870711 -0.0029525422
000330 4c d1 e7 3c da 4e e5 3b 97 d0 4f 3c ce 9d 35 bb
       0.028298043 0.006997925 0.012684009 -0.0027712467
000340 88 4c bb bd df 6a ac bc 47 71 da bc ec 18 8b 3d
       -0.091454566 -0.021047054 -0.026665343 0.06791863
000350 49 ca 84 3d dd aa 87 3d aa 53 48 bd 9f 06 0d 3d
       0.06483895 0.066243865 -0.048907913 0.034430142
000360 5c e7 99 3c 2e 47 0d bd 13 e5 0d 3d 41 b4 42 bd
       0.018787079 -0.03449171 0.03464229 -0.047535185
000370 63 bb 54 3c 9c 3e da 3d fe a7 de bd f1 e3 15 bc
       0.01298413 0.10656473 -0.10871886 -0.009148584
000380 e6 fb d1 bd 5f 89 dc 3c a4 f6 98 bd b2 f0 11 bd
       -0.10253124 0.026920972 -0.07468918 -0.035629936
000390 20 5b 79 3d c5 5c bf bd a5 e0 2d 3d e6 87 41 bd
       0.06087792 -0.09343866 0.042450566 -0.047248743
0003a0 3d 7b 17 3d cf 2b 50 3d df e2 39 bd 95 ab 45 3d
       0.036982764 0.05082303 -0.045382377 0.048259337
0003b0 e4 7b 2f 3d 4d c2 63 bd 88 bf 29 3d 9e 97 82 bd
       0.04284276 -0.05560522 0.041442424 -0.06376575
0003c0 02 87 af bd 69 46 02 bc 79 42 3e bd bc 48 62 3c
       -0.085706726 -0.007951357 -0.046450112 0.013811287
0003d0 74 8f 91 3d 9a 4c 89 3c 52 30 b3 bd d7 1b 67 3d
       0.0710744 0.01676016 -0.08749451 0.056423035
0003e0 fd 34 7f 3d 4c 07 bd 3d ce d0 a1 bd 5b 32 f9 bd
       0.062306393 0.092299074 -0.079011545 -0.12167808
0003f0 26 14 73 bc 94 dd 1d 3d b7 64 7b 3d 56 e5 c4 bd
       -0.014836347 0.03854139 0.061375346 -0.09614055

bias f4 [2048]
000000 12 ad 5c 3d 19 c3 bc 3d de 8a 81 bd 18 96 c9 bd
       0.05387599 0.092168994 -0.06325315 -0.09843081
000010 45 72 74 3e 17 80 aa bd 3a 98 58 bd c0 b3 72 3c
       0.23871715 -0.083252124 -0.05287955 0.014813364
000020 80 10 82 3e 1d 02 13 3e 8d af 62 bd 6a 93 d9 3c
       0.25403214 0.14356275 -0.0553432 0.02655955
000030 c6 f4 96 3d bf a1 17 bd 05 ee 0f be 74 10 ca 3d
       0.073709056 -0.037019487 -0.14055641 0.098664194
000040 e5 2f 68 bd 13 81 e5 bc 44 a2 69 3e d3 42 44 3c
       -0.0566863 -0.028015649 0.22815806 0.011978823
000050 98 43 ac bd 9b aa 9a bd 7b 97 19 bc 54 8f 42 bd
       -0.0841133 -0.07552072 -0.009374495 -0.04749997
000060 1f 36 ad 3d d3 58 53 3e 78 f7 10 3e ab 68 d8 3d
       0.084575884 0.20639353 0.14156902 0.10566839
000070 b9 c7 b8 bd c0 09 02 3e ad 6e 27 3d 37 c5 b5 3e
       -0.09022469 0.12699032 0.040877033 0.35502025
000080 53 4e 84 bd 85 ce 36 3e 9d 70 07 3c 7f 15 86 bd
       -0.06460252 0.17852218 0.008266595 -0.06547069
000090 eb 4f 51 3d d1 ec 8f 3d 27 0f 77 3d f7 78 91 bd
       0.051101606 0.07027591 0.060317185 -0.0710315
0000a0 66 83 a0 bd 83 be f4 3d 13 17 78 3e 2f fb 0a 3e
       -0.07837562 0.119504 0.24227552 0.13572381
0000b0 dc c2 21 be ea ac d1 bc fa 1a bb 3d 49 f3 34 3e
       -0.15796989 -0.025595147 0.09136005 0.17670931
0000c0 3f f6 2e 3e 8e a4 89 3e 62 7b 8a 3c dc 2c 00 3e
       0.17086123 0.26883358 0.016904537 0.12517112
0000d0 bc b2 38 bd 46 25 87 3d 81 c6 77 3e 15 b7 b2 3d
       -0.04509233 0.06598906 0.24196817 0.087263264
0000e0 84 cd 9b 3d 4c 6d b3 3e ae 37 c8 bd 38 8f 63 3d
       0.07607558 0.35044324 -0.09776245 0.055556506
0000f0 9b a4 53 bd 05 77 d9 bd 12 21 20 3e c4 4e 08 3e
       -0.051670652 -0.10618404 0.15637615 0.13311297
000100 3c 4f 70 3e 13 eb 88 3e d4 1a 96 3e 46 59 c8 3c
       0.23467726 0.26741847 0.29317343 0.024456631
000110 30 cf 2c ba 7f b8 00 be 5a 51 0a 3e 8e ec bb 3d
       -0.00065921526 -0.1257038 0.13507596 0.091759786
000120 36 8b 53 3e 74 c4 a2 3e 61 a1 3e 3e a2 1d 3b 3d
       0.20658574 0.31790507 0.18616249 0.045682557
000130 e8 0b 60 3b 55 65 b7 bd 5f 37 af 3e dd 02 09 3e
       0.0034186784 -0.089548744 0.34221932 0.13379999
000140 d6 98 87 3e c9 88 81 bd 9c 17 5f 3c ff ae 44 bd
       0.26483792 -0.06324918 0.013616469 -0.04801845
000150 67 4e c5 3d 8b 4f 0d 3e b2 33 04 3e ed 57 b1 3d
       0.09634095 0.13799874 0.12910345 0.08659349
000160 f6 9d b3 3d 04 87 75 3d 74 62 84 bd 42 08 16 3e
       0.08770363 0.059943214 -0.06464091 0.14651588
000170 e2 2c 82 3d 04 fd 91 3e bd ee be 3e f0 c7 98 3d
       0.06356217 0.28513348 0.37291518 0.0746001
000180 d7 93 bb 3d b5 61 91 bd 36 89 26 3d ec 5e 6f bd
       0.091590576 -0.07098714 0.0406582 -0.058440134
000190 34 83 3a 3e 28 3b 3a 3e ef 68 3a 3d 95 dd 4f 3e
       0.18214113 0.18186629 0.04551023 0.2029937
0001a0 94 49 86 bd ac b0 26 3e a3 59 10 3e 06 57 ca 3d
       -0.06557003 0.16278332 0.14096694 0.0987988
0001b0 ef a8 8f 3d cd 19 3f bd 57 77 bb 3e 5e 06 f9 bd
       0.070146434 -0.046655465 0.36614487 -0.121594176
0001c0 ed 21 ac bd 5b 50 ab bd 5d 9f 82 bd 79 87 74 bd
       -0.08404908 -0.08364936 -0.063780524 -0.05969951
0001d0 80 c0 15 bd 3d 2e 84 bd 0d b1 7e bd 3d b2 fe 3d
       -0.036560535 -0.06454132 -0.062180568 0.1243634
0001e0 15 39 31 bd 54 f3 e9 bc 63 54 31 be 6a ee 76 3e
       -0.04326733 -0.02855841 -0.17317347 0.24114385
0001f0 ad 28 92 3d 29 1d 83 3e f5 94 6a 3d 76 ad 5c 3d
       0.071366645 0.25608185 0.057270963 0.053876363
000200 49 e7 19 3c df 8f ea 3d 0c 91 c2 bc 24 86 8f 3e
       0.009393522 0.114532225 -0.023750804 0.2803203
000210 5e a3 aa bd 01 da 9d 3c f0 c6 e5 bc d7 d0 f4 bd
       -0.08331941 0.019268991 -0.028048962 -0.119538955
000220 7a 1e 8d 3d c0 e3 10 be 7f 5f 3f 3e 3f e5 99 3e
       0.068905786 -0.1414938 0.18688773 0.30057713
000230 43 a3 16 3e 4f b1 21 bd e8 c5 2c 3c 03 c4 d7 bd
       0.14710717 -0.039475735 0.010545231 -0.10535433
000240 f1 95 0c 3e 30 b6 08 3e d3 8c 89 bd b6 55 4d 3e
       0.13729073 0.13350749 -0.06716313 0.20052227
000250 b4 eb a5 bb e4 a8 78 bd e8 6c 18 bd fb f0 4b bd
       -0.0050634984 -0.06070794 -0.037213236 -0.049790364
000260 b2 67 ef 3d fc 5b 1b bc d0 49 90 bd a9 1f 57 3e
       0.116897 -0.00948238 -0.070453286 0.21008171
000270 79 6c 64 bd cc 83 0b bc ab e8 c4 bd a5 d1 46 bd
       -0.05576751 -0.00851531 -0.096146904 -0.048539776
000280 11 31 c7 bd b7 eb ab 3e fe 5c 6e bd 0e d3 9b 3d
       -0.097261555 0.33578274 -0.058194153 0.07608615
000290 ea dc 6d bd ed 2b 08 3e a5 6f a1 3d 22 0e 8a bd
       -0.05807201 0.13298006 0.07882623 -0.06740977
0002a0 79 0a 90 3e 07 65 bb 3e 0c 17 a7 bd 35 82 5a 3c
       0.2813299 0.36600515 -0.08158693 0.013336708
0002b0 f0 a3 81 3e e5 28 fd 3d d7 1f 4a 3d 11 7b b6 bd
       0.25320387 0.12361316 0.04934677 -0.08910192
0002c0 0e 13 33 3e 1a 2b 1a 3e a2 19 55 3d 0c be c6 bc
       0.17487738 0.15055504 0.0520264 -0.024260543
0002d0 4d 74 97 3e 3c 6b 6a bd c2 94 d2 3c 8c 00 d4 3d
       0.29580918 -0.057231173 0.025705699 0.10351667
0002e0 b7 c6 03 3d 92 95 9c 3d 45 26 cd 3c d3 46 53 bd
       0.03217193 0.07645716 0.025042662 -0.051581215
0002f0 b2 b8 b1 bd 46 d1 bf 3e 10 89 76 3e 49 48 2c 3e
       -0.08677806 0.3746435 0.24075723 0.1682445
000300 39 cb 0e bd 0d 2d 55 3e bc f8 14 3e 61 eb 60 bd
       -0.034861777 0.20817967 0.1454801 -0.054911975
000310 94 d7 f1 bd cd 8e 2b 3d c6 1d 38 3b 6a 74 af bd
       -0.118086964 0.041884232 0.0028093918 -0.08567126
000320 0b 0d 6c 3d 43 87 30 3e 2b 5b 57 3e a7 de 66 bd
       0.057629626 0.17239098 0.21030872 -0.05636468
000330 27 00 a7 bc 74 0d e4 bc 44 e7 c4 bc f2 59 2c 3b
       -0.020385815 -0.027838446 -0.024036057 0.0026298729
000340 c3 64 8e bd 39 bb 8a 3d 64 a6 87 3b cd 00 90 3d
       -0.069528125 0.06773991 0.0041397084 0.07031403
000350 dc 52 3d 3e 69 ca a4 3e 3e 84 9a 3a d4 86 f6 3d
       0.1848864 0.32185677 0.0011788679 0.12037435
000360 1f e0 8d 3a 7e 89 bf 3e 97 35 b1 bd 6f 1c 09 bd
       0.001082424 0.37409586 -0.086527996 -0.033474382
000370 b0 44 e2 3c c7 e1 4c 3e 80 51 70 3e b4 1f 27 3e
       0.027620643 0.20008002 0.2346859 0.16320688
000380 07 c2 bb 3d 50 56 d6 3d 9c 18 ba bb a1 71 ab 3e
       0.09167867 0.104656816 -0.005679203 0.3348513
000390 f1 dd ee 3c 2c a4 ba 3d b0 44 5b bd 85 36 57 3d
       0.029158564 0.091133446 -0.053532302 0.05254223
0003a0 0e 18 da 3d 55 24 03 3e 43 80 a8 bd 37 9c b3 bd
       0.10649119 0.12806828 -0.08227589 -0.0877003
0003b0 61 4b c9 bd 09 b4 15 3e 7f 53 a9 bd 8e 75 46 3e
       -0.098288305 0.14619459 -0.08267879 0.19380781
0003c0 2a 40 43 3d ce 00 fd bc 4e 9b 0f 3d 00 86 23 3c
       0.047668613 -0.030884173 0.03506022 0.009980679
0003d0 1e 3d 89 3e 13 6b 32 bd 9c 3a f8 bd 5c 3a 35 3e
       0.2680444 -0.043559145 -0.12120554 0.17698044
0003e0 b1 23 96 bd 35 d6 12 3e 01 67 30 3e b6 bb c2 bc
       -0.07331026 0.14339526 0.17226793 -0.023771148
0003f0 d2 64 07 be 01 c3 0c bc 2e 22 fa 3d f8 81 80 3e
       -0.13222054 -0.008591414 0.122135505 0.25099158

weight f4 [10, 2048]
000000 bb a8 7b 3e 97 f7 b3 3e a0 72 72 3d a4 be 0f 3d
       0.24576084 0.35149834 0.059191346 0.03509392
000010 d1 6b 29 3c 8a ab 4a 3d bf 10 8e 3d a5 40 71 3e
       0.010340647 0.04948 0.06936788 0.23559816
000020 4c a0 58 3c e3 05 8f bd 35 e9 60 3d 9d a5 cc 3b
       0.0132218115 -0.06983545 0.054909904 0.0062453286
000030 50 6a 94 bd d8 b5 ac bc 16 bc c2 3c 5b 0a 86 3d
       -0.0724684 -0.021082804 0.023771327 0.06544944
000040 8a e0 50 bd e4 56 71 3d 79 00 89 bd b4 97 93 bd
       -0.050995387 0.058920756 -0.06689543 -0.072066694
000050 35 6f 01 3e 29 8d 62 bd e0 e2 6e bd 71 73 9e 38
       0.12640078 -0.055310402 -0.058321834 7.55553e-05
000060 c9 fe 72 bd 4f cc 32 bc 54 6e 17 3c 36 79 37 3d
       -0.059325013 -0.010912969 0.009242613 0.04479333
000070 c9 0a f4 3d 86 a7 73 bd 84 6e 72 3b 6a 23 2c 3d
       0.119161196 -0.059485935 0.0036992142 0.04202596
000080 bb 26 98 bd eb 13 3a bb 9f 67 74 3e 44 43 e3 bc
       -0.07429262 -0.002839322 0.23867653 -0.027742036
000090 73 94 fc 3d 47 fc 16 3e 15 f2 4b 3e 18 4e cf bc
       0.12333002 0.14744674 0.19916566 -0.025305793
0000a0 2a 5a 61 bd 1b fe da 3d 27 6f 37 bd 77 4b 91 bd
       -0.055017628 0.10692998 -0.044783738 -0.07094472
0000b0 2b ed 6e bd 7d 5c d7 3c 40 6c ae 3d e8 07 32 3d
       -0.05833165 0.026289219 0.08516741 0.04346457
0000c0 d7 6d a1 3d 37 25 ba 3b 4b 4e 22 3e 1b c3 b3 bd
       0.078822784 0.005680706 0.15850179 -0.08777448
0000d0 cb 02 1f 3d 20 e7 39 3e 08 33 9f bd 1a e2 30 3d
       0.038821023 0.18154573 -0.07773405 0.043184377
0000e0 84 03 c6 3d f9 a1 c8 3d c9 5a 86 bd aa 48 39 3d
       0.09668639 0.09796519 -0.06560285 0.045235313
0000f0 e7 71 b3 3c 0c c1 56 3d c3 32 d9 bb 8e 99 85 3c
       0.021904899 0.052430198 -0.0066283657 0.016308572
000100 8b 86 94 bc 04 24 83 bd d3 e8 71 bd 81 e0 04 bd
       -0.018130561 -0.06403354 -0.05905993 -0.032440666
000110 18 e8 38 3d 35 d2 be bc c6 da 71 bd a9 8f b9 3e
       0.045143217 -0.023293594 -0.05904653 0.36242417
000120 5c 6d 26 3d 16 3f a8 bc 53 19 c0 3c b4 62 a5 3d
       0.040631637 -0.020537894 0.023449576 0.08075467
000130 21 ec 50 bd 31 8e 43 3d be 20 cc bd 87 5a 3c 3e
       -0.05100644 0.047743026 -0.099671826 0.18393908
000140 6d 79 6b 3d 24 c1 b1 bd 2a cc 47 3c 66 87 be bd
       0.057488848 -0.08679417 0.012194673 -0.09303169
000150 78 46 bb 3e 6a 5b 73 3c bb 19 6c 3d 26 94 99 3e
       0.365772 0.014853338 0.057641726 0.2999584
000160 7f f9 d2 3d 24 fe 73 3e 49 7f 94 3d 27 e5 a0 bd
       0.10301494 0.23827416 0.0725084 -0.07856207
000170 d2 bc 58 3e 4b 75 0b bd 45 ee 0f bd aa 22 9d 3e
       0.21165779 -0.034047406 -0.03513934 0.3069051
000180 fd 1e af bc b3 c6 d6 3d 64 40 1d 3c 03 45 3b 3b
       -0.021377081 0.104871176 0.009597871 0.002857507
000190 08 ef 40 bd 87 3e 69 bd c8 eb 9e bc 98 a9 54 bd
       -0.047102958 -0.056944396 -0.019399539 -0.05191955
0001a0 e3 48 71 3d a8 6c 2a bd 86 4c 95 3d 79 fa 0f 3e
       0.0589074 -0.04160753 0.07289986 0.14060391
0001b0 30 ef 6e 3c 05 4d 24 bd f4 a0 0f bd 7e 74 99 3d
       0.014583394 -0.040112514 -0.035065606 0.07492922
0001c0 33 bb a9 bc 5c 08 d0 bd 5b 8d 9c bd bb aa 9a 3d
       -0.020719146 -0.101578444 -0.07644149 0.075520955
0001d0 1e 06 9f b8 f0 8c 6f bd 6e 78 14 bd ee 14 00 3e
       -7.58285e-05 -0.058484018 -0.036247663 0.12507984
0001e0 de d4 b5 3b 67 4d 77 bd 9c 06 b4 bd 57 b8 8c bc
       0.0055490574 -0.06037655 -0.08790323 -0.017177744
0001f0 5c 32 f6 bc 79 63 73 3d 2f b4 07 3e 07 b5 81 3d
       -0.03005331 0.059421036 0.13252328 0.06333356
000200 30 7a 89 bc ae 72 ae 3e 35 3f 66 bd f2 84 75 bd
       -0.016781896 0.3407187 -0.056212623 -0.05994124
000210 91 d0 2f bd c1 50 a3 bc 08 50 0b 3e 97 6f b2 3d
       -0.042923514 -0.019935967 0.13604748 0.0871269
000220 71 ef 22 3e a2 bf a1 3c 60 d6 60 3d fb cb 97 bd
       0.15911652 0.019744698 0.054891944 -0.07411953
000230 6a 59 5f 3e 63 e9 5a bd f1 5a 2a be f2 86 58 bd
       0.21811453 -0.05344523 -0.16636254 -0.05286307
000240 43 41 1b 3d 3d 3c 70 3b bb b1 af bd 77 10 02 bd
       0.037904035 0.0036656999 -0.08578821 -0.031753983
000250 c6 45 1f 3b 2c ce 81 3b db 15 2f 3e 40 c0 23 3b
       0.0024303063 0.003961345 0.17098181 0.0024986416
000260 47 ef 92 bd db 6f 02 bd bf 55 35 bc 00 42 59 bd
       -0.07174545 -0.031844955 -0.011067807 -0.053041458
000270 2c 5e 4d 3d 2f fd a5 bd 84 0f 68 bd b7 9a 26 3d
       0.050138637 -0.081049316 -0.05665542 0.04067489
000280 0e bc eb 3d ae e5 6b bd 88 ed be 3d 98 2f 53 3d
       0.11510478 -0.057592086 0.09322649 0.05155906
000290 47 7d b7 3d 6e 79 75 bd a7 01 a4 3e ba 53 86 3c
       0.08959442 -0.059930257 0.3203251 0.016397346
0002a0 09 59 19 bd 58 d5 04 bd f4 2a b7 3d 0a 8e 49 bd
       -0.037438426 -0.032430023 0.089437395 -0.049207725
0002b0 c9 db 52 3c 91 0b 81 3c 5d 0f be 3c 24 20 49 bc
       0.012869784 0.015752586 0.023200685 -0.012275729
0002c0 13 55 87 bc e1 07 90 bc 9b 83 4e 3b f1 bf c3 3c
       -0.016520059 -0.017581882 0.0031511548 0.023895236
0002d0 63 1b 5d 3d 3a 25 46 bd 70 80 68 3d 99 26 e3 bd
       0.053981196 -0.048375346 0.056763113 -0.11091346
0002e0 48 c4 e4 bd b2 96 64 3d aa 84 63 3d 65 ce 87 bc
       -0.1117025 0.055807777 0.05554644 -0.016577909
0002f0 05 05 61 3d 91 99 97 bd e4 e6 7e bc 82 ee 36 bd
       0.054936428 -0.07402337 -0.015557978 -0.044661053
000300 a9 73 39 3b ce b2 45 bc fe f9 5f 3d f6 43 bf 3d
       0.0028297699 -0.012066556 0.05468177 0.093391344
000310 ee 6c 8e 38 41 bf bc 3c ff a6 9c bc 4c 95 3e 3d
       6.7913774e-05 0.023040416 -0.019122599 0.0465291
000320 52 0a 6f 3e ac d4 93 bd f0 9f 55 3d 13 10 0f 3d
       0.2334378 -0.07218298 0.05215448 0.03492744
000330 ba 7f 3a 3d f8 79 4e 3d 50 64 1b 3d f5 d3 0a bd
       0.045531966 0.050409287 0.037937462 -0.033893544
000340 eb 96 aa 3d 55 94 e3 3d 00 6d be 3d 9f 94 97 3e
       0.083295666 0.111122765 0.09298134 0.29605576
000350 4a 77 85 bd 1e b6 4f 3c 58 83 43 bd d0 d1 be 3e
       -0.06516893 0.012677697 -0.04773268 0.3726945
000360 2b 4e 62 3d 96 df ba bd fe ef 4f 3d 71 07 0b b8
       0.055250328 -0.09124677 0.050765984 -3.3147113e-05
000370 81 f3 89 bc d4 1e bf bd 7f 26 97 bd 36 7c cf bd
       -0.016839745 -0.09332052 -0.073803894 -0.10131113
000380 5a 44 42 3d be 43 40 bd 57 94 ed 3c c9 07 f1 3c
       0.047428466 -0.046939604 0.029001398 0.029422658
000390 3b 34 f8 3d 73 55 db 3d 31 b6 b8 bc a3 1c cf 3b
       0.12119337 0.107096575 -0.022547813 0.0063205524
0003a0 8c 8d db 3e e0 79 8c bb 79 6e 1a bc 9f 19 54 bd
       0.4288143 -0.0042869896 -0.009425753 -0.051782247
0003b0 1c a7 5c bd b9 f7 eb 3e de 35 bc bd a3 62 07 3d
       -0.053870305 0.46087435 -0.09189962 0.03305305
0003c0 54 cd 61 3d f4 1c 82 3c 59 a5 d0 3d 60 d2 bb bd
       0.055127457 0.015882947 0.101877876 -0.09170985
0003d0 5a 8a ba bc 81 68 20 3d c0 49 03 3d 15 22 ae bd
       -0.02277105 0.039162163 0.032052755 -0.085025944
0003e0 00 5a 47 bd b6 2a b3 3e 87 1b 6a 3d 38 6b c7 bc
       -0.048669815 0.34993523 0.05715516 -0.024343118
0003f0 ca d0 73 3c b5 c4 92 3d 5c 3a af 3d a9 52 e6 3c
       0.014881322 0.07166425 0.08556053 0.028115587

bias f4 [10]
000000 e0 92 c2 bc 93 02 9b 3c 3a b3 cf bb 28 63 25 bd
       -0.023751676 0.018922126 -0.006338504 -0.040377766
000010 b7 c5 a4 3d 43 f4 a6 bd 79 94 8e bd 42 49 7c 3d
       0.080455236 -0.08152058 -0.06961913 0.0615933
000020 ba a0 c9 bd a4 ab a7 3d
       -0.09845109 0.08187035

weight f4 [10]
000000 f8 cf 8e 3f 6e dd 73 3f 50 ff 67 3f ff ed 6c 3f
       1.1157217 0.9525975 0.9062395 0.92550653
000010 07 be 87 3f bc 44 88 3f f5 80 68 3f 39 38 83 3f
       1.0604867 1.0645976 0.9082177 1.0251533
000020 1c f1 6c 3f 63 61 87 3f
       0.92555404 1.0576595

bias f4 [10]
000000 50 5c 37 bd df 6b 31 3d fd bd 80 ba fc 82 38 bd
       -0.04476577 0.043315765 -0.0009822246 -0.04504679
000010 f0 99 86 3d 2d f8 77 bd 3c 6b a8 bd 96 3d 40 3d
       0.0657233 -0.060539413 -0.08223578 0.046933733
000020 51 01 97 ba de 33 8f 3d
       -0.0011520778 0.06992315

weight f4 [10]
000000 06 15 88 3f f8 b6 6e 3f 4d b6 70 3f 11 77 66 3f
       1.0631416 0.9324794 0.9402817 0.9002543
000010 cb 8a 86 3f ac b0 85 3f 8d 35 74 3f 9e 29 80 3f
       1.0511106 1.0444541 0.9539421 1.00127
000020 bd f5 88 3f 62 9e 88 3f
       1.0699993 1.0673335

bias f4 [10]
000000 98 a7 7d bc de 0f 9b 3c 00 fc 1f bd a8 2e e7 bc
       -0.015481852 0.018928465 -0.039058685 -0.02822049
000010 38 ea 9d 3d 12 44 85 bd e9 fa 9c bd 0b 85 44 3d
       0.07710689 -0.06507124 -0.07665045 0.047978442
000020 94 df 0c be 74 5b 93 3d
       -0.13757163 0.07195178

weight f4 [10]
000000 42 78 88 3f 7c 92 6f 3f f0 63 6c 3f 0f 0d 63 3f
       1.06617 0.9358289 0.9233999 0.886918
000010 4b 6f 85 3f 0e 10 87 3f 54 76 78 3f 69 7c 83 3f
       1.0424589 1.0551775 0.97055554 1.0272342
000020 a1 cd 89 3f 4e 04 89 3f
       1.0765878 1.0704439

bias f4 [10]
000000 32 69 88 bd b4 ed eb 3c f2 99 55 b9 6d 20 95 bc
       -0.066606894 0.02879987 -0.00020370612 -0.018203938
000010 98 eb 9a 3d 96 6f 87 bd cb 0e 46 bd 80 60 56 3d
       0.07564467 -0.0661308 -0.04835395 0.052338123
000020 b0 0c c0 bd ea 33 a2 3d
       -0.0937742 0.07920058

in_proj_weight f4 [30, 10]
000000 ba 73 28 39 dc 17 67 3a 5a 30 34 b8 e0 0c 2a 3a
       0.0001606484 0.0008815506 -4.2960375e-05 0.0006486904
000010 7c bc 53 39 39 f1 0a bb 43 80 37 3b 11 59 1d 39
       0.00020192744 -0.0021200909 0.0028000034 0.00015005867
000020 d9 94 4b 3a 78 20 a9 39 00 dd 11 3b 0c b8 c8 ba
       0.00077660155 0.00032258383 0.002225697 -0.0015313639
000030 97 51 3a b9 03 25 79 bb 70 f2 8d 3b bc 63 42 39
       -0.00017768737 -0.0038016445 0.0043318793 0.00018538436
000040 36 49 a6 b9 1f 29 39 3b e4 87 00 3b b1 94 7c 3a
       -0.00031716534 0.002825327 0.0019612247 0.0009635194
000050 9e ea 90 ba 4a 48 26 b9 a0 31 43 bb 25 cb 35 3b
       -0.001105625 -0.00015857923 -0.0029784217 0.0027739492
000060 ae 98 6a bb 82 7d 26 ba 2a b1 33 3b 07 14 31 ba
       -0.003579657 -0.00063510996 0.002741883 -0.00067549985
000070 55 30 6b ba 09 07 3a 39 6d e1 37 3b d6 0f 92 3b
       -0.00089717406 0.00017740963 0.0028057948 0.004457454
000080 f4 e3 bf ba eb 14 58 3a 45 57 74 ba af 46 94 38
       -0.0014640079 0.0008242863 -0.00093208655 7.070356e-05
000090 56 3f a6 38 3f f6 0b b8 a0 23 bc b6 90 74 39 39
       7.927294e-05 -3.3369517e-05 -5.606984e-06 0.00017686398
0000a0 3c 86 af b9 f4 c3 21 3a 7e b4 2f b9 26 68 9a ba
       -0.00033478613 0.0006170862 -0.00016756539 -0.0011780306
0000b0 fb 59 c1 39 59 72 00 bb 28 ff 04 b9 d5 b6 d8 3a
       0.0003687887 -0.0019599407 -0.00012683554 0.001653398
0000c0 09 f5 bb 3a 94 50 47 3a 11 1f 4c bb 10 fe 8d ba
       0.0014339994 0.00076032546 -0.0031146447 -0.0010833163
0000d0 bd 06 72 3b 38 3d b3 3a ed 84 0f 3b 8d bd 07 bb
       0.0036930286 0.0013674861 0.0021899298 -0.0020712346
0000e0 b2 41 84 b7 ef 48 34 3a 4b 32 36 3a 56 e0 83 ba
       -1.5766218e-05 0.0006877323 0.0006950243 -0.0010061364
0000f0 fe 57 21 3a 64 96 37 bb c2 84 6d 39 a0 c9 ba 3a
       0.00061547745 -0.0028013224 0.00022651537 0.0014250763
000100 b6 f7 13 3a 66 6e c0 ba fb 62 3f ba 0c 34 c7 b9
       0.0005644517 -0.0014681339 -0.0007300821 -0.00037995016
000110 83 14 30 3b c1 7d ca ba d4 b3 ce b9 7c ae d0 39
       0.0026867695 -0.0015448855 -0.00039425364 0.00039802853
000120 1e 94 1b 3a 76 98 1b bb 68 b6 54 3a dd fd c8 ba
       0.0005934852 -0.0023741997 0.0008114339 -0.0015334446
000130 2b 61 f2 3a 58 6e 19 39 81 df 46 ba 2f a7 67 3a
       0.0018492093 0.00014632323 -0.0007586405 0.0008836863
000140 ff 26 48 b9 f0 9e 39 b9 2b ee 0b bb 46 a6 c6 3a
       -0.00019088014 -0.00017702184 -0.0021351676 0.0015155755
000150 a2 9d b0 b9 dc 4d 1e bb ca 21 30 bb 3a a4 2f bb
       -0.00033686782 -0.0024155295 -0.0026875609 -0.0026800768
000160 14 d3 e3 39 80 f4 ad 38 72 56 2d 3b 28 ba 01 3a
       0.0004345408 8.2948245e-05 0.002644923 0.0004948699
000170 ec 70 d9 b7 72 0d db ba 72 54 38 3b 98 19 48 3b
       -2.5921e-05 -0.0016712381 0.0028126505 0.0030532833
000180 98 4f 29 38 d7 2e 67 3a a4 d4 2d ba fc c1 c1 ba
       4.0366867e-05 0.00088189304 -0.0006631112 -0.0014782543
000190 74 c9 0a bb a6 39 d6 38 08 c1 0d 39 90 85 88 3a
       -0.0021177204 0.00010215053 0.00013518718 0.0010415781
0001a0 5d 76 0b 3a 58 bc 2d 3a b2 f6 d5 ba ab 6e 8e bb
       0.00053200667 0.00066274917 -0.0016324131 -0.0043466887
0001b0 22 b5 d4 b9 00 64 14 3a d0 53 4c 3b d3 e4 30 ba
       -0.00040570745 0.0005660653 0.0031177886 -0.00067479647
0001c0 f9 d0 a5 39 29 8d 62 ba 90 ac cf ba 82 64 8f ba
       0.0003162695 -0.00086422503 -0.0015844274 -0.0010939988
0001d0 c8 e7 4d 38 29 3a 67 39 ba 9f ca b9 e9 13 17 ba
       4.9091672e-05 0.00022051543 -0.00038647448 -0.000576316
0001e0 ca 3f 1a 3a 10 b4 8e 39 36 d3 25 39 68 58 bc b9
       0.0005884139 0.00027218508 0.00015814308 -0.00035924022
0001f0 81 e4 da ba 8d 46 34 bb bc 2f c3 39 ef 40 1a 3b
       -0.001670018 -0.0027507872 0.00037228863 0.0023537239
000200 a6 48 8e 3a fb dc 61 3a 17 ef 19 39 47 42 20 3b
       0.0010855391 0.00086159975 0.00014680285 0.0024453567
000210 21 e5 a4 3a 0e 82 90 bb b1 18 60 3a 10 67 3e 39
       0.0012580493 -0.004410035 0.0008548601 0.00018158206
000220 5b 21 22 ba 67 e5 88 3a ba 5b 75 3a 39 71 2f 3b
       -0.000618478 0.0010444344 0.00093596766 0.0026770367
000230 88 0c fe 39 e5 0c 1b bb 53 00 42 ba 0e 7d fe b9
       0.00048455992 -0.0023658809 -0.0007400561 -0.00048539828
000240 50 5f b3 b6 e8 4c cd b8 ae 26 cd 3a 30 21 c1 3a
       -5.3457115e-06 -9.789487e-05 0.0015651786 0.0014734622
000250 cc c2 ae b9 32 0d 34 bb 17 a3 34 3b ba 75 b4 b9
       -0.00033333 -0.0027473685 0.002756303 -0.00034419989
000260 f3 f5 76 b9 b1 ff d1 b9 97 e7 8f 39 78 a4 1c 3b
       -0.00023552011 -0.0004005409 0.00027447633 0.0023901742
000270 0e 73 f0 3a 29 64 e0 b9 40 cd b9 38 3c a9 0d bb
       0.0018344836 -0.00042799235 8.859718e-05 -0.0021615764
000280 c5 77 c4 ba 1b c8 27 3b 78 45 cb b7 4e f9 3f 3a
       -0.0014989307 0.002560145 -2.4231835e-05 0.0007323221
000290 85 62 da ba da 5b 38 3b bf 1a be ba f7 d9 da ba
       -0.0016661441 0.002813092 -0.001450382 -0.0016697039
0002a0 75 cc b6 b8 cd e6 05 bb 99 e2 46 ba 4e f9 2c 3b
       -8.7165194e-05 -0.0020431757 -0.0007586866 0.0026393714
0002b0 b1 15 37 bb 53 72 c6 b9 a2 95 93 3a f7 05 a1 3a
       -0.0027936513 -0.0003785068 0.0011259804 0.0012285103
0002c0 b0 5a 59 b8 1d 4c 0d bb 3c 2c 81 ba e6 e2 01 3b
       -5.182129e-05 -0.002156026 -0.0009855102 0.001981908
0002d0 47 4d 31 3b 5a b5 b0 ba c1 21 3c bb 6d 5a af ba
       0.0027054118 -0.0013481781 -0.0028706642 -0.0013378389
0002e0 4e 1b eb 3a bf e4 03 3a df b0 d3 3a 97 1b b0 b8
       0.0017937215 0.0005031339 0.0016150734 -8.397473e-05
0002f0 b8 02 8c bb b2 23 08 ba 7d e5 ae 37 1d 09 d8 3a
       -0.004272785 -0.00051933073 2.084928e-05 0.0016482208
000300 d4 92 1b ba 8a cd ca 3a 27 72 e5 3a 21 fe 65 39
       -0.000593466 0.0015472632 0.0017505334 0.00021933812
000310 cb 50 89 ba 90 9c b4 b9 1a 04 98 39 6d 1f 3d 3a
       -0.0010476349 -0.00034448924 0.00028994755 0.00072144606
000320 8c 80 24 bc d5 7b 8c be 90 a1 9c be 16 2e 3c be
       -0.010040414 -0.27438226 -0.30592012 -0.18376955
000330 35 36 9b 3e ac 99 84 3e bd fb c3 3e 63 b0 1e 3e
       0.30314794 0.25898492 0.38278 0.15496974
000340 f4 95 d2 3e 5d 75 ab bd d5 7c a9 bd 52 c4 38 3d
       0.4113003 -0.08371995 -0.08275763 0.0451091
000350 ae b8 ed 3d e5 40 9a 3e 2f e7 37 3d 23 bb 88 3e
       0.116074905 0.30127636 0.04489821 0.26705274
000360 e9 d4 a8 3e 03 63 30 3d e6 9e c1 3a cc ac ac 3e
       0.32974938 0.043063175 0.0014772087 0.33725584
000370 a7 86 a5 be 9c cb b9 3d 62 28 46 bd 37 da a0 3e
       -0.32329294 0.090720385 -0.048378356 0.31416485
000380 16 53 84 be 9d c9 23 3e 7d 63 b0 3e 47 a0 20 be
       -0.2584464 0.15994878 0.34450904 -0.15686141
000390 f5 a3 9c 3e 02 a9 8d be 8e b9 64 3e 68 d7 9b be
       0.3059384 -0.27668005 0.22336408 -0.3043778
0003a0 42 e7 65 3e 82 72 3d be db 31 98 3e 52 97 5d 3e
       0.22451499 -0.18500713 0.29725537 0.21639755
0003b0 b7 15 83 be 81 e2 9b be 86 84 9a 3e b2 e6 ef 3d
       -0.25602505 -0.30446246 0.30179232 0.117139235
0003c0 28 55 99 be d9 0d b0 be e0 33 df be fc 19 06 3e
       -0.29947782 -0.34385565 -0.43594265 0.1309585
0003d0 31 53 b0 bd 16 98 48 3c 26 20 ec bc 95 b3 03 be
       -0.086096175 0.012243291 -0.028823923 -0.12861474
0003e0 99 4f 33 be ca fb 9b 3e 35 e0 a4 bd f1 03 59 bd
       -0.17510833 0.30465537 -0.080505766 -0.052982274
0003f0 a0 96 45 be b6 e3 45 be 44 77 86 bc 8a 22 e4 3e
       -0.1929574 -0.19325146 -0.016414292 0.445576

in_proj_bias f4 [30]
000000 00 00 00 00 00 00 00 00 00 00 00 00 00 00 00 00
       0.0 0.0 0.0 0.0
000010 00 00 00 00 00 00 00 00 00 00 00 00 00 00 00 00
       0.0 0.0 0.0 0.0
000020 00 00 00 00 00 00 00 00 00 00 00 00 00 00 00 00
       0.0 0.0 0.0 0.0
000030 00 00 00 00 00 00 00 00 00 00 00 00 00 00 00 00
       0.0 0.0 0.0 0.0
000040 00 00 00 00 00 00 00 00 00 00 00 00 00 00 00 00
       0.0 0.0 0.0 0.0
000050 ad 6b 8d bc f2 38 7e 3d 63 3c 5b 3e 40 50 0b 3e
       -0.017263258 0.062066026 0.21409754 0.13604832
000060 da bc 66 3d b2 30 bc 3c b1 77 cd bc e2 55 4e bd
       0.056332447 0.022972438 -0.025081487 -0.050374873
000070 7b 59 6b bd 9a f8 6d 3d
       -0.057458382 0.058098413

weight f4 [10, 10]
000000 7d a6 ef be 27 94 e5 be 7a 1b da be 1f ac 98 3e
       -0.46806708 -0.44839594 -0.42599088 0.29818818
000010 bc b5 01 3e 72 90 7d 3e f8 17 e6 be a2 8d 9d 3e
       0.12666982 0.24762133 -0.44940162 0.3077212
000020 ec 67 c6 3c 0e 0a ce bd fa 87 55 3e 9d ac 6d 3e
       0.024219476 -0.100605115 0.20852652 0.23210378
000030 1d 72 c9 3d 8a 62 0e bf b4 cb 8d be 15 54 af be
       0.098362185 -0.5561911 -0.27694476 -0.34243837
000040 48 29 1a bb 89 59 ad be 4f 0d 8c 3d b7 12 7d bd
       -0.002352314 -0.33857372 0.06838476 -0.061785426
000050 46 eb e4 be 37 61 b3 3e e4 9d 43 3e 4c 65 fe 3d
       -0.4471075 0.35035107 0.19103199 0.124216646
000060 d5 31 0f bf 2a a7 61 3e f6 22 d0 be 8a 6c 0e 3e
       -0.5593541 0.22036424 -0.40651673 0.13908592
000070 52 0d 09 be 1a 2c b6 3e 42 ba 4a be 34 63 f5 3e
       -0.13383988 0.35580522 -0.19797614 0.47927248
000080 1f 45 1d 3c ed fc dc be 7f 1f 43 3d 85 4f bb 3e
       0.009598999 -0.43161717 0.04763746 0.36584106
000090 cd 3f c4 be e8 3b 8e be 93 e9 23 3e b3 da e4 be
       -0.38329926 -0.2778008 0.1600707 -0.44698104
0000a0 c0 78 d0 bd 08 26 89 3e 58 98 f7 3e 34 42 60 3e
       -0.10179281 0.26786828 0.48358417 0.21900254
0000b0 51 12 d2 3e 27 27 9e be b7 71 d8 3e 78 5d 9d 3e
       0.410296 -0.30889246 0.42274258 0.30735373
0000c0 a7 5c b3 be 7d d2 d3 3c bb c5 5c be 93 e2 82 3e
       -0.35031626 0.025857205 -0.21559803 0.25563487
0000d0 cd ee 87 3e 6b dd af be 79 a2 54 3d 2b 53 94 be
       0.26549378 -0.34348616 0.05191276 -0.28969702
0000e0 3f 02 fa be 31 64 9a be bd f5 3b be c8 d6 48 be
       -0.4882984 -0.30154565 -0.1835546 -0.19613183
0000f0 bc b1 e1 3e 20 88 e0 3e fa b3 cc be 17 83 bb bd
       0.44080913 0.43853855 -0.3998106 -0.09155863
000100 10 ba 81 3e fa f4 0c 3f a1 98 4d 3e ef 04 f0 be
       0.25337267 0.55061305 0.20077755 -0.46878764
000110 e2 a5 18 bf 64 0b f4 3e b2 1f 34 be cc 9e c6 3e
       -0.5962812 0.4766494 -0.17590216 0.38793027
000120 76 ac 87 3d 7f c7 15 be 68 c9 c7 be 7b c0 cb 3e
       0.06624691 -0.14626883 -0.39020848 0.39795288
000130 0e 49 12 3e 98 17 a1 be 29 fc 1a 3e 5e c9 9d 3e
       0.1428568 -0.31463313 0.15135254 0.30817693
000140 02 7f 14 bf 4e b2 cb be ba 0c e5 3e 4a 3c 39 be
       -0.580063 -0.39784473 0.44736272 -0.18089405
000150 27 c5 c1 3e e9 67 20 bf 1d d8 5c be 82 f3 c2 3d
       0.37845728 -0.62658554 -0.21566816 0.09519102
000160 9f ce 78 be c1 3c c5 3e d1 80 bd bd c9 0a ee be
       -0.2429757 0.38522914 -0.092530854 -0.46492603
000170 8c 67 20 3e 5c f5 53 be ee 2e 16 bf 69 ad f7 be
       0.156645 -0.20699066 -0.5866536 -0.4837449
000180 68 80 ae 3d 1f 42 80 be 08 5a 16 3f fb 68 92 be
       0.08520585 -0.25050446 0.58731127 -0.2859572

bias f4 [10]
000000 e1 5d 66 3d 9a 9c 3a 3d 52 66 6c bd 29 40 8f bd
       0.056241874 0.045559503 -0.057714768 -0.069946595
000010 b1 f3 4a bd 7c 96 77 3d 29 b0 28 3d 71 a7 68 3d
       -0.04954881 0.060446247 0.041183624 0.05680031
000020 e4 77 27 3d e2 b0 5a bd
       0.04088582 -0.053391345
